results/ppo/My Behavior/My Behavior-0.pt (torch, 149303 bytes, 9 tensors)

network_body.linear_encoder.seq_layers.0.weight f4 [128, 8]
0.52403617 -0.14142388 0.13411492 0.3120481 0.21772225 -0.55117005 -0.001504557 0.100834265
0.12088139 0.17259234 -0.023372782 -0.2257676 0.11887261 -0.4197411 0.24784753 0.31474024
-0.2627481 -0.3477611 -0.4035642 -0.18305303 -0.43323836 -0.33859354 -0.03047937 -0.19795266
-0.067015365 0.5802535 0.21861044 0.086733304 -0.22886384 0.41956052 -0.09670706 -0.29301256
0.12727694 0.9173761 -0.17618868 -0.3636641 0.5905765 0.03982874 -0.050180294 -0.54303944
0.82805467 -0.70997435 0.22352213 0.011159447 0.11675463 0.34974948 -0.054960515 0.2777707
0.70957756 0.74220437 -0.031133058 0.6131407 -0.014061088 0.20940723 -0.422825 -0.09489652
0.058813903 0.20086548 -0.08737434 -0.9012313 -0.23617195 -0.275208 0.027531393 0.2944995
-0.23707075 0.8920967 0.42977464 0.6178622 0.23553494 -0.17343704 -0.26555642 -0.20871574
0.12852795 0.004185592 0.14800505 0.7130629 -0.33599472 0.28584278 0.37749135 -0.06380859
-0.24179782 0.059036534 0.3955502 0.6528026 -0.06640014 0.3659813 -0.10350621 0.44470635
-0.1598615 0.6290859 -0.17524938 0.1109826 -0.04036468 -0.45176914 -0.4855914 -0.30566174
0.17647856 -0.4888857 -0.10492368 -0.36047643 -0.18983269 -0.03276553 -0.28611496 -0.027688304
-0.21510562 -0.12717801 0.6073281 -0.42049092 -0.33174774 0.29419243 0.12658466 -0.38218808
0.4519067 0.3050639 0.36669132 0.0583554 0.06107907 0.011735949 -0.079207264 0.58127177
-0.13537367 -0.44965932 -0.29176643 0.2443347 -0.37877995 -0.041274365 -0.035637625 0.035633862
-0.019812118 0.19155844 -0.52735114 -0.40751517 -0.11757941 -0.10560396 0.04590933 -0.7695787
-0.21407615 0.18239318 -0.28232223 0.1660739 0.5021562 0.042818222 0.09160844 -0.35670534
0.15761618 0.04232806 -0.5159825 -0.044536225 -0.07074021 0.13182887 -0.3906222 0.13827328
0.56634897 0.1799783 0.2900701 -0.5745297 0.30796805 -0.049169634 -0.049569577 0.06933865
0.768898 -0.14782973 0.2869516 -0.060045253 -0.3019665 -0.73649377 0.23112491 -0.5249091
0.2570371 -0.17500779 -0.24695133 0.20333858 0.2380451 -0.0045264023 -0.67462784 -0.0066655404
-0.10430169 -0.23109108 -0.24033186 -0.40369523 0.2410749 0.18485257 0.42207175 -0.45756876
0.3031151 -0.012874359 -0.18780425 -0.09602866 -0.03622598 0.3279021 0.08283158 -0.020821245
-0.36893803 0.8960096 0.57870305 -0.6360119 -0.23744489 0.36311874 -0.33632854 -0.21747363
-0.2541538 -0.38556126 -0.25029185 0.18482459 0.048245918 -0.030451313 0.27734688 -0.19184609
-0.24889836 0.4870832 -0.14593893 -0.46148703 0.5376064 0.4478535 0.37146094 -0.12760867
0.39898592 0.35482496 0.028105523 0.058697682 0.26536584 0.0054451013 -0.31193802 0.20897767
0.33925626 -0.3080221 -0.30317363 -0.5484955 -0.14657559 0.49757236 0.26959518 -0.38979724
0.050025433 0.06703379 0.091195144 -0.42839006 0.30618203 0.015310596 -0.21345922 -0.5589902
-0.35009855 -0.21399327 0.11280154 0.207347 0.15869658 0.19836807 -0.9262939 -0.0694302
-0.4895353 0.6441378 0.51580137 0.42942175 0.5158559 -0.665826 -0.09037792 -0.3778205
00000000: 3c27 063f 6cd1 10be 6c55 093e c5c4 9f3e
00000010: 95f2 5e3e 7b19 0dbf 8e34 c5ba 3282 ce3d
00000020: aa90 f73d 0cbc 303e 4778 bfbc 9f2f 67be
00000030: 7c73 f33d 4ee8 d6be becb 7d3e a225 a13e
00000040: eb86 86be be0d b2be f89f cebe 4172 3bbe
00000050: 6bd1 ddbe 225c adbe dfaf f9bc 1ab4 4abe
00000060: 5a3f 89bd 7e8b 143f 6adb 5f3e 3ba1 b13d
00000070: 485b 6abe a3d0 d63e 5a0e c6bd be05 96be
00000080: e354 023e 29d9 6a3f ce6a 34be 2e32 babe
00000090: 0630 173f 7623 233d da89 4dbd a204 0bbf
000000a0: 64fb 533f e1c0 35bf fce2 643e 1dd6 363c
000000b0: 0d1d ef3d 5d12 b33e 471e 61bd f637 8e3e
000000c0: e0a6 353f 1b01 3e3f c10a ffbc caf6 1c3f
000000d0: 7a60 66bc d96e 563e 857c d8be 1b59 c2bd
000000e0: d9e6 703d aeaf 4d3e 51f1 b2bd 18b7 66bf
000000f0: 0fd7 71be 10e8 8cbe 8489 e13c a3c8 963e
00000100: adc2 72be 7360 643f 6c0b dc3e 382c 1e3f
00000110: 1230 713e 7b99 31be 03f7 87be 94b9 55be
00000120: d59c 033e 4a27 893b a38e 173e 4a8b 363f
00000130: 8007 acbe fc59 923e 8c46 c13e 14ae 82bd
00000140: d999 77be 4bd0 713d 8e85 ca3e 121e 273f
00000150: ccfc 87bd e761 bb3e 10fb d3bd 8db0 e33e
00000160: bcb2 23be c60b 213f 9374 33be d84a e33d
00000170: 6f55 25bd 494e e7be 709f f8be b27f 9cbe
00000180: ccb6 343e 3a4f fabe 3ae2 d6bd 5e90 b8be
00000190: 8063 42be 2635 06bd a97d 92be 95d2 e2bc
000001a0: a644 5cbe f43a 02be db79 1b3f 964a d7be
000001b0: d7da a9be 64a0 963e 699f 013e 28ae c3be
000001c0: 5160 e73e 5631 9c3e f7be bb3e 1206 6f3d
000001d0: 0c2e 7a3d 2348 403c 6b37 a2bd 3ace 143f
000001e0: 659f 0abe bf39 e6be 6962 95be e032 7a3e
000001f0: 72ef c1be 4f0f 29bd c2f8 11bd d0f4 113d
00000200: 064d a2bc e527 443e 7c00 07bf d4a5 d0be
00000210: 79cd f0bd e446 d8bd 6c0b 3c3d 1c03 45bf
00000220: c736 5bbe 47c5 3a3e 8a8c 90be 470f 2a3e
00000230: 4f8d 003f 2962 2f3d 359d bb3d 15a2 b6be
00000240: 2366 213e 3060 2d3d 6e17 04bf 9e6b 36bd
00000250: 3ee0 90bd 26fe 063e a2ff c7be 8397 0d3e
00000260: 3ffc 103f 3b4c 383e 1184 943e 6114 13bf
00000270: fdad 9d3e 1966 49bd 7809 4bbd 6c01 8e3d
00000280: 80d6 443f ad60 17be 52eb 923e 03f2 75bd
00000290: 5a9b 9abe db8a 3cbf 02ac 6c3e 7160 06bf
000002a0: 5e9a 833e 3e35 33be cfe0 7cbe fd37 503e
000002b0: 18c2 733e 3752 94bb 69b4 2cbf 9b6a dabb
000002c0: 209c d5bd 24a3 6cbe 8e19 76be 24b1 cebe
000002d0: 57dc 763e fe49 3d3e ca19 d83e 7446 eabe
000002e0: e731 9b3e faee 52bc c24f 40be adaa c4bd
000002f0: b161 14bd c9e2 a73e 9aa3 a93d 5191 aabc
00000300: 72e5 bcbe e360 653f e225 143f add1 22bf
00000310: c124 73be b3ea b93e 4133 acbe 68b1 5ebe
00000320: 7220 82be 4968 c5be 4126 80be a842 3d3e
00000330: 839d 453d 0875 f9bc 6900 8e3e 4d73 44be
00000340: 36df 7ebe f862 f93e 0471 15be 0748 ecbe
00000350: 93a0 093f 0e4d e53e 2130 be3e d9ab 02be
00000360: e247 cc3e 9eab b53e 8e3d e63c fb6c 703d
00000370: 08de 873e d26c b23b 57b6 9fbe 3efe 553e
00000380: ffb2 ad3e 13b5 9dbe 9339 9bbe 336a 0cbf
00000390: e917 16be cec1 fe3e 6108 8a3e 8193 c7be
000003a0: 78e7 4c3d 0349 893d 85c4 ba3d f155 dbbe
000003b0: e4c3 9c3e 4bd9 7a3c 0e95 5abe fb19 0fbf
000003c0: 1e40 b3be 0d21 5bbe 7e04 e73d c652 543e
000003d0: 5b81 223e 0021 4b3e 9921 6dbf 6c31 8ebd
000003e0: 5fa4 fabe 37e6 243f 8f0b 043f 2bdd db3e
000003f0: 220f 043f 9373 2abf 0f18 b9bd b071 c1be

network_body.linear_encoder.seq_layers.0.bias f4 [128]
0.0 0.0 0.0 0.0 0.0 0.0 0.0 0.0
0.0 0.0 0.0 0.0 0.0 0.0 0.0 0.0
0.0 0.0 0.0 0.0 0.0 0.0 0.0 0.0
0.0 0.0 0.0 0.0 0.0 0.0 0.0 0.0
0.0 0.0 0.0 0.0 0.0 0.0 0.0 0.0
0.0 0.0 0.0 0.0 0.0 0.0 0.0 0.0
0.0 0.0 0.0 0.0 0.0 0.0 0.0 0.0
0.0 0.0 0.0 0.0 0.0 0.0 0.0 0.0
0.0 0.0 0.0 0.0 0.0 0.0 0.0 0.0
0.0 0.0 0.0 0.0 0.0 0.0 0.0 0.0
0.0 0.0 0.0 0.0 0.0 0.0 0.0 0.0
0.0 0.0 0.0 0.0 0.0 0.0 0.0 0.0
0.0 0.0 0.0 0.0 0.0 0.0 0.0 0.0
0.0 0.0 0.0 0.0 0.0 0.0 0.0 0.0
0.0 0.0 0.0 0.0 0.0 0.0 0.0 0.0
0.0 0.0 0.0 0.0 0.0 0.0 0.0 0.0
00000000: 0000 0000 0000 0000 0000 0000 0000 0000
00000010: 0000 0000 0000 0000 0000 0000 0000 0000
00000020: 0000 0000 0000 0000 0000 0000 0000 0000
00000030: 0000 0000 0000 0000 0000 0000 0000 0000
00000040: 0000 0000 0000 0000 0000 0000 0000 0000
00000050: 0000 0000 0000 0000 0000 0000 0000 0000
00000060: 0000 0000 0000 0000 0000 0000 0000 0000
00000070: 0000 0000 0000 0000 0000 0000 0000 0000
00000080: 0000 0000 0000 0000 0000 0000 0000 0000
00000090: 0000 0000 0000 0000 0000 0000 0000 0000
000000a0: 0000 0000 0000 0000 0000 0000 0000 0000
000000b0: 0000 0000 0000 0000 0000 0000 0000 0000
000000c0: 0000 0000 0000 0000 0000 0000 0000 0000
000000d0: 0000 0000 0000 0000 0000 0000 0000 0000
000000e0: 0000 0000 0000 0000 0000 0000 0000 0000
000000f0: 0000 0000 0000 0000 0000 0000 0000 0000
00000100: 0000 0000 0000 0000 0000 0000 0000 0000
00000110: 0000 0000 0000 0000 0000 0000 0000 0000
00000120: 0000 0000 0000 0000 0000 0000 0000 0000
00000130: 0000 0000 0000 0000 0000 0000 0000 0000
00000140: 0000 0000 0000 0000 0000 0000 0000 0000
00000150: 0000 0000 0000 0000 0000 0000 0000 0000
00000160: 0000 0000 0000 0000 0000 0000 0000 0000
00000170: 0000 0000 0000 0000 0000 0000 0000 0000
00000180: 0000 0000 0000 0000 0000 0000 0000 0000
00000190: 0000 0000 0000 0000 0000 0000 0000 0000
000001a0: 0000 0000 0000 0000 0000 0000 0000 0000
000001b0: 0000 0000 0000 0000 0000 0000 0000 0000
000001c0: 0000 0000 0000 0000 0000 0000 0000 0000
000001d0: 0000 0000 0000 0000 0000 0000 0000 0000
000001e0: 0000 0000 0000 0000 0000 0000 0000 0000
000001f0: 0000 0000 0000 0000 0000 0000 0000 0000

network_body.linear_encoder.seq_layers.2.weight f4 [128, 128]
-0.06258391 -0.15047328 0.012799515 -0.017959695 -0.11570237 -0.06496387 0.046543974 -0.015236841
0.0068663596 0.079121426 0.034681786 -0.113614604 0.018009555 -0.0049288874 -0.15710986 0.074498445
-0.010606025 -0.06076653 -0.01147311 -0.14024532 0.023378044 0.17979312 -0.05761688 0.05429075
0.0693425 -0.11783062 0.08860714 0.022021111 0.0768449 -0.008902103 -0.072243445 -0.24378571
-0.07288321 -0.1034027 -0.014411896 -0.017673029 -0.04015754 -0.031121075 -0.01658565 -0.077214696
0.07463303 0.054597918 0.08584968 -0.06743992 0.08843869 0.08810909 0.033953056 0.05859392
0.2273513 -0.08796004 -0.029871246 -0.11449292 0.05737776 0.12299179 0.18010916 0.10354024
-0.063281596 -0.08163257 -0.06291296 -0.18906714 -0.1830668 0.16506796 -0.018211773 0.033625983
-0.040051993 0.021385431 0.013057942 -0.1383166 0.04569474 -0.040219408 0.10185421 -0.019512229
0.002810208 -0.032099526 -0.09378893 0.0908143 -0.018147852 -0.019230433 0.06588508 -0.016737105
-0.07910665 0.15190277 -0.0835486 0.0077533606 -0.00458553 -0.046260096 0.12620628 -0.12212731
-0.029935308 -0.06809813 0.0077108764 0.062259503 -0.11455402 -0.05013165 0.23622596 0.041405816
-0.1956926 -0.18717235 0.072052315 0.14121746 -0.09229135 -0.035578996 -0.093735 0.11684498
0.055941705 0.118002236 0.0030883574 -0.18498021 -0.02986491 0.061114695 -0.039537136 -0.043988474
0.1262811 0.16528386 -0.051451966 -0.042878803 -0.13343778 -0.030711036 -0.04467864 0.16949977
-0.03564043 0.017019121 0.09536094 0.1207179 0.12922454 -0.10928953 -0.042307116 0.08145197
-0.0312566 -0.09514424 -0.04962946 -0.16013832 0.08264701 -0.015964149 -0.062412396 -0.07346666
0.080557615 0.008706556 -0.0743598 -0.09258259 0.050989073 -0.065710485 0.033214733 -0.08879794
0.005789513 0.015053895 -0.03481082 0.113356 -0.08495577 0.021178236 -0.08496126 0.014703492
0.06218773 -0.08091647 0.11262551 -0.08445072 -0.007224309 0.022975232 0.16142294 -0.033883773
-0.011728441 -0.05836822 -0.021054689 -0.036497828 0.022544233 -0.09205331 -0.0931144 0.08837777
-0.021806723 0.07820308 -0.03476916 0.068766095 0.065062694 -0.09923042 -0.028351624 -0.053382274
-0.09230385 -0.041909773 0.056226633 -0.16979952 -0.08814708 0.022827057 0.018510971 0.048614178
0.06546644 -0.061357312 0.10559656 0.11004809 -0.07135449 -0.007927117 0.07284553 0.06813961
0.014707261 -0.09152469 -0.18472335 -0.020935332 0.016670492 0.051741995 0.01744874 -0.04314695
0.063200824 -0.052820764 -0.00021586353 0.123656124 0.08965351 0.014931655 0.07550886 0.08017967
-0.12082141 0.041478235 -0.031326365 0.080551274 -0.072111316 0.015550205 -0.021431496 -0.0041280156
0.022114577 -0.036159705 -0.01328775 -0.07045733 -0.0050377585 -0.0047862935 0.076237634 -0.021299655
-0.047191605 -0.16631764 -0.024748966 -0.026434287 -0.116461016 -0.16807179 0.050619822 0.06408466
-0.047179554 -0.037625927 -0.031399716 -0.08435127 0.012772513 -0.048377812 0.035793886 0.014373524
-0.042092945 -0.043714233 0.013275787 -0.010946492 -0.111863405 -0.09496353 -0.027905019 -0.13439865
0.010849265 0.017795764 0.13583593 0.1513497 0.050138917 -0.03748107 0.088190414 -0.13628785
00000000: fe2b 80bd ab15 1abe 0fb5 513c 3620 93bc
00000010: 5df5 ecbd c70b 85bd e5a4 3e3d f1a3 79bc
00000020: 33ff e03b 6a0a a23d 7d0e 0e3d c6ae e8bd
00000030: c688 933c 8182 a1bb 68e1 20be a492 983d
00000040: e5c4 2dbc 53e6 78bd b6f9 3bbc 789c 0fbe
00000050: 5083 bf3c b01b 383e adff 6bbd fa5f 5e3d
00000060: 7103 8e3d 2e51 f1bd a977 b53d 9e65 b43c
00000070: dc60 9d3d 20da 11bc 5ff4 93bd f6a2 79be
00000080: cb43 95bd cbc4 d3bd df1f 6cbc 07c7 90bc
00000090: 3c7c 24bd a0f1 febc a1de 87bc bd22 9ebd
000000a0: 34d9 983d 11a2 5f3d f5d1 af3d f11d 8abd
000000b0: 581f b53d 8a72 b43d 5c12 0b3d 2e00 703d
000000c0: c7ce 683e 6524 b4bd 8bb4 f4bc 447b eabd
000000d0: f104 6b3d 1fe3 fb3d 896e 383e e80c d43d
000000e0: c899 81bd fa2e a7bd 83d8 80bd d19a 41be
000000f0: dd75 3bbe 9307 293e db30 95bc 66bb 093d
00000100: 8f0d 24bd 8030 af3c faf0 553c dea2 0dbe
00000110: 682a 3b3d 1bbd 24bd f198 d03d 1cd8 9fbc
00000120: 772b 383b cb7a 03bd 6914 c0bd d9fc b93d
00000130: ceaa 94bc 2489 9dbc c2ee 863d 411c 89bc
00000140: ab02 a2bd 668c 1b3e 871b abbd e70f fe3b
00000150: 3742 96bb 3a7b 3dbd 383c 013e e21d fabd
00000160: e43a f5bc 0877 8bbd 85ab fc3b d203 7f3d
00000170: 4c9b eabd d856 4dbd 38e5 713e 2599 293d
00000180: a463 48be 1caa 3fbe 2a90 933d 4f9b 103e
00000190: 3f03 bdbd 48bb 11bd 23f8 bfbd 6c4c ef3d
000001a0: 2123 653d 28ab f13d 0a66 4a3b 746b 3dbe
000001b0: 41a7 f4bc 6753 7a3d b1f1 21bd 422d 34bd
000001c0: d54f 013e 2c40 293e 4cbf 52bd afa1 2fbd
000001d0: eaa3 08be b695 fbbc f300 37bd 5991 2d3e
000001e0: b3fb 11bd af6b 8b3c 994c c33d f23a f73d
000001f0: 7053 043e 30d3 dfbd 3a4a 2dbd 4ad0 a63d
00000200: ec06 00bd fcda c2bd 4348 4bbd 4dfb 23be
00000210: d642 a93d 3fc7 82bc 24a4 7fbd b075 96bd
00000220: 64fb a43d f1a5 0e3c f349 98bd f19b bdbd
00000230: ebd9 503d 3893 86bd 2c0c 083d b2db b5bd
00000240: f4b5 bd3b 9da4 763c ca95 0ebd 3127 e83d
00000250: 4afd adbd fb7d ad3c 2b00 aebd eae6 703c
00000260: 90b8 7e3d 89b7 a5bd 34a8 e63d 80f4 acbd
00000270: e5b9 ecbb 8e36 bc3c 0e4c 253e b6c9 0abd
00000280: a628 40bc 8413 6fbd e27a acbc bf7e 15bd
00000290: afae b83c 7286 bcbd c3b2 bebd 67ff b43d
000002a0: 03a4 b2bc f028 a03d 1b6a 0ebd 3dd5 8c3d
000002b0: 973f 853d 5239 cbbd aa41 e8bc 5fa7 5abd
000002c0: cd09 bdbd 95a9 2bbd e64d 663d eddf 2dbe
000002d0: 7586 b4bd cfff ba3c 52a4 973c a91f 473d
000002e0: 4513 863d ce51 7bbd 0243 d83d e560 e13d
000002f0: 4e22 92bd bde0 01bc 0a30 953d c88c 8b3d
00000300: b9f6 703c 4c71 bbbd 1e28 3dbe 9380 abbc
00000310: 8e90 883c 6aef 533d a9f0 8e3c dbba 30bd
00000320: 6f6f 813d 965a 58bd 6d59 62b9 6c3f fd3d
00000330: 429c b73d e6a3 743c 64a4 9a3d 3d35 a43d
00000340: 3771 f7bd 15e5 293d 1350 00bd 11f8 a43d
00000350: 19af 93bd 49c6 7e3c 1b91 afbc 4e44 87bb
00000360: a129 b53c 331c 14bd ddb4 59bc ef4b 90bd
00000370: c813 a5bb 57d6 9cbb 7a22 9c3d 9d7c aebc
00000380: fc4b 41bd 2c4f 2abe 58be cabc b88c d8bc
00000390: 1d83 eebd 031b 2cbe bb56 4f3d d13e 833d
000003a0: 593f 41bd a51d 1abd fd9c 00bd 5cc0 acbd
000003b0: cd43 513c d027 46bd 9c9c 123d ee7e 6b3c
000003c0: a769 2cbd b20d 33bd b082 593c ea58 33bc
000003d0: a418 e5bd 3d7c c2bd 1199 e4bc cd9f 09be
000003e0: 1ec1 313c 6cc8 913c 9318 0b3e 6afb 1a3e
000003f0: 775e 4d3d c085 19bd 2d9d b43d 0b8f 0bbe

network_body.linear_encoder.seq_layers.2.bias f4 [128]
0.0 0.0 0.0 0.0 0.0 0.0 0.0 0.0
0.0 0.0 0.0 0.0 0.0 0.0 0.0 0.0
0.0 0.0 0.0 0.0 0.0 0.0 0.0 0.0
0.0 0.0 0.0 0.0 0.0 0.0 0.0 0.0
0.0 0.0 0.0 0.0 0.0 0.0 0.0 0.0
0.0 0.0 0.0 0.0 0.0 0.0 0.0 0.0
0.0 0.0 0.0 0.0 0.0 0.0 0.0 0.0
0.0 0.0 0.0 0.0 0.0 0.0 0.0 0.0
0.0 0.0 0.0 0.0 0.0 0.0 0.0 0.0
0.0 0.0 0.0 0.0 0.0 0.0 0.0 0.0
0.0 0.0 0.0 0.0 0.0 0.0 0.0 0.0
0.0 0.0 0.0 0.0 0.0 0.0 0.0 0.0
0.0 0.0 0.0 0.0 0.0 0.0 0.0 0.0
0.0 0.0 0.0 0.0 0.0 0.0 0.0 0.0
0.0 0.0 0.0 0.0 0.0 0.0 0.0 0.0
0.0 0.0 0.0 0.0 0.0 0.0 0.0 0.0
00000000: 0000 0000 0000 0000 0000 0000 0000 0000
00000010: 0000 0000 0000 0000 0000 0000 0000 0000
00000020: 0000 0000 0000 0000 0000 0000 0000 0000
00000030: 0000 0000 0000 0000 0000 0000 0000 0000
00000040: 0000 0000 0000 0000 0000 0000 0000 0000
00000050: 0000 0000 0000 0000 0000 0000 0000 0000
00000060: 0000 0000 0000 0000 0000 0000 0000 0000
00000070: 0000 0000 0000 0000 0000 0000 0000 0000
00000080: 0000 0000 0000 0000 0000 0000 0000 0000
00000090: 0000 0000 0000 0000 0000 0000 0000 0000
000000a0: 0000 0000 0000 0000 0000 0000 0000 0000
000000b0: 0000 0000 0000 0000 0000 0000 0000 0000
000000c0: 0000 0000 0000 0000 0000 0000 0000 0000
000000d0: 0000 0000 0000 0000 0000 0000 0000 0000
000000e0: 0000 0000 0000 0000 0000 0000 0000 0000
000000f0: 0000 0000 0000 0000 0000 0000 0000 0000
00000100: 0000 0000 0000 0000 0000 0000 0000 0000
00000110: 0000 0000 0000 0000 0000 0000 0000 0000
00000120: 0000 0000 0000 0000 0000 0000 0000 0000
00000130: 0000 0000 0000 0000 0000 0000 0000 0000
00000140: 0000 0000 0000 0000 0000 0000 0000 0000
00000150: 0000 0000 0000 0000 0000 0000 0000 0000
00000160: 0000 0000 0000 0000 0000 0000 0000 0000
00000170: 0000 0000 0000 0000 0000 0000 0000 0000
00000180: 0000 0000 0000 0000 0000 0000 0000 0000
00000190: 0000 0000 0000 0000 0000 0000 0000 0000
000001a0: 0000 0000 0000 0000 0000 0000 0000 0000
000001b0: 0000 0000 0000 0000 0000 0000 0000 0000
000001c0: 0000 0000 0000 0000 0000 0000 0000 0000
000001d0: 0000 0000 0000 0000 0000 0000 0000 0000
000001e0: 0000 0000 0000 0000 0000 0000 0000 0000
000001f0: 0000 0000 0000 0000 0000 0000 0000 0000

network_body.linear_encoder.seq_layers.0.weight f4 [128, 8]
-0.3413178 0.10544645 0.09439492 -0.1340356 0.18380924 -0.014884613 0.38361716 0.07740907
-0.36747533 0.061204087 0.37823796 0.27795362 -0.79684424 -0.5519197 -0.20859316 0.18535389
0.19417427 0.4189985 0.086756825 -0.08334463 0.36137348 -0.050616246 -0.0746976 0.041875068
0.549948 -0.44787404 -0.17656808 0.2684487 -0.31659567 -0.57513505 0.103045404 -0.29310715
-0.5360776 -0.94390994 -0.25153875 0.23359157 0.86735666 -0.23540424 -0.5116541 0.6099883
-0.07373729 -0.06884351 -0.7475066 0.23706602 -0.1667493 0.2948458 -0.08698393 0.16268887
0.20509079 0.33504996 -0.43986621 -0.20765269 -0.35378253 0.63763297 -0.19167638 0.28380072
0.26151556 -0.28063005 0.33379853 -0.49687356 -0.08188585 -0.27496332 0.37229976 0.25550225
0.0022588354 0.013289525 -0.06647394 -0.37724784 0.20437759 0.13792153 -0.49681708 -0.28004938
-0.14011854 -0.5761796 0.30398065 0.3039229 -0.020807756 0.48852524 0.10760646 0.46604672
-0.123489335 0.55514693 0.22289698 0.07491301 -0.1366698 0.0680516 -0.52290934 -0.20168795
-0.69709456 0.042113785 -0.30967104 -0.17829534 0.42239153 0.46739948 0.18635939 0.45466822
-0.0573807 -0.10827007 -0.56350756 -0.14410573 0.3117 0.032277577 0.22936982 0.37658232
0.6537745 0.39042813 0.033347014 1.0435305 0.15294304 -0.3206266 -0.07329002 0.13442539
-0.09874678 -0.06835677 -0.3339381 -0.37409967 0.15391567 -0.303818 -0.4459593 -0.0074441587
-0.12764953 0.43695483 0.6240299 -0.15383273 -0.6399538 0.56509215 0.7818821 0.040301125
0.2986783 -0.1125714 0.32373387 0.39812684 -0.035764344 -0.16329014 0.13148195 -0.11942068
-0.62411475 -0.037053954 -0.07985724 -0.046963904 0.7652077 -0.36392978 -0.34147066 -0.3050096
-0.22080363 -0.067662366 0.933608 0.06568843 -0.43933967 0.16171955 0.14961906 0.040869232
-0.33798417 0.66792834 0.2751765 -0.2526357 -0.4529806 -0.15790674 -0.35270566 0.026376352
0.12433413 -0.331491 -0.4509132 0.24330279 -0.1510486 0.23163341 0.20564312 0.29811496
0.11075872 -0.20134354 0.47822493 0.93063706 -0.93742305 -0.17260827 -0.30167434 0.15018581
-0.1102511 -0.12906894 -0.5769678 0.05772869 -0.35200328 -0.28381678 0.5822143 -0.67057806
-0.50630456 0.14334956 0.36568728 0.3044082 0.048576508 0.034859773 -0.114052385 -0.08819841
0.13063376 -0.127643 0.9808311 -0.22387686 0.21799159 0.14325093 0.09322106 0.43731502
-0.64180714 -0.20128328 -0.31241596 -0.83844584 0.11231643 -0.47576764 0.09362959 -0.10320103
-0.12416708 0.13575757 -0.16013779 -0.015445169 0.6511456 -0.004580712 0.15074812 -0.35324764
0.13811007 -0.17390321 0.14058666 0.3016407 -0.40109605 0.35627502 0.10578001 0.26490802
-0.01527181 -0.5047978 -0.027904231 -0.53509 0.25891516 -0.51412916 0.09454411 -0.07890923
-0.23345704 -0.30092484 -0.27075228 -0.23234615 -0.01637902 -0.0071407924 -0.7283254 -0.49918827
-0.1944839 0.08876712 -0.12743048 0.15725149 0.11515369 -0.09677802 -0.476221 -0.3861779
0.026482616 -0.3525443 0.29660326 0.17288527 0.1381977 -0.11215355 0.40481704 0.6643135
00000000: 35c1 aebe 4ff4 d73d 2052 c13d a140 09be
00000010: 7d38 3c3e 98de 73bc 7869 c43e a688 9e3d
00000020: ba25 bcbe 23b1 7a3d 68a8 c13e f04f 8e3e
00000030: fcfd 4bbf 9c4a 0dbf 7299 55be 69cd 3d3e
00000040: 9fd5 463e f986 d63e 90ad b13d 97b0 aabd
00000050: f205 b93e fb52 4fbd 0efb 98bd 3185 2b3d
00000060: 64c9 0c3f bf4f e5be 43ce 34be 1c72 893e
00000070: d418 a2be 0d3c 13bf 7809 d33d 2412 96be
00000080: 623c 09bf 15a4 71bf b0c9 80be a132 6f3e
00000090: 160b 5e3f cf0d 71be c3fb 02bf 3128 1c3f
000000a0: 9403 97bd d3fd 8cbd 985c 3fbf 6fc1 723e
000000b0: 54c0 2abe 07f6 963e a124 b2bd e997 263e
000000c0: 5203 523e ab8b ab3e 2536 e1be e8a2 54be
000000d0: fc22 b5be ea3b 233f d046 44be 544e 913e
000000e0: 5ee5 853e beae 8fbe a4e7 aa3e 3666 febe
000000f0: c5b3 a7bd fec7 8cbe 139e be3e 31d1 823e
00000100: f808 143b 4fbc 593c 7d23 88bd a126 c1be
00000110: 5c48 513e 4d3b 0d3e cf5e febe a262 8fbe
00000120: 3c7b 0fbe 8280 13bf 5aa3 9b3e c89b 9b3e
00000130: 0775 aabc fb1f fa3e c760 dc3d ad9d ee3e
00000140: fae7 fcbd 1c1e 0e3f 1b3f 643e fe6b 993d
00000150: 2bf3 0bbe a35e 8b3d 63dd 05bf 4987 4ebe
00000160: ca74 32bf 817f 2c3d 348d 9ebe 0e93 36be
00000170: b443 d83e fc4e ef3e ffd4 3e3e 46ca e83e
00000180: 0608 6bbd b3bc ddbd 0842 10bf 7490 13be
00000190: 2497 9f3e 7e35 043d ecdf 6a3e 66cf c03e
000001a0: c45d 273f 32e6 c73e e196 083d 6892 853f
000001b0: 1a9d 1c3e 2b29 a4be 1419 96bd cfa6 093e
000001c0: c03b cabd a2fe 8bbd eff9 aabe fe89 bfbe
000001d0: 129c 1d3e 088e 9bbe c754 e4be 21ee f3bb
000001e0: 8fb6 02be 8bb8 df3e 6cc0 1f3f 5486 1dbe
000001f0: 03d4 23bf e1a9 103f 6d29 483f cb12 253d
00000200: 5dec 983e d68b e6bd 72c0 a53e 48d7 cb3e
00000210: a27d 12bd 8835 27be 34a3 063e d492 f4bd
00000220: fcc5 1fbf e3c5 17bd 318c a3bd 395d 40bd
00000230: a7e4 433f 0155 babe 3ed5 aebe 382a 9cbe
00000240: 591a 62be 9192 8abd ef00 6f3f a887 863d
00000250: 21f1 e0be cf99 253e bd35 193e 7f66 273d
00000260: 430c adbe 5afd 2a3f efe3 8c3e 7759 81be
00000270: 13ed e7be 4eb2 21be d695 b4be 3813 d83c
00000280: e4a2 fe3d 30b9 a9be 18de e6be 5e24 793e
00000290: 7cac 1abe 4f31 6d3e 1c94 523e 86a2 983e
000002a0: 78d5 e23d 002d 4ebe e6d9 f43e 3b3e 6e3f
000002b0: f5fa 6fbf 39c0 30be 0f75 9abe 4fca 193e
000002c0: 54cb e1bd a62a 04be 29b4 13bf eb74 6c3d
000002d0: c639 b4be 6f50 91be ff0b 153f 01ab 2bbf
000002e0: 2d9d 01bf 3aca 123e 5d3b bb3e 64db 9b3e
000002f0: 29f8 463d 1fc9 0e3d 4c94 e9bd 5ea1 b4bd
00000300: dbc4 053e d9b4 02be bf17 7b3f fa3f 65be
00000310: 3039 5f3e 5fb0 123e afea be3d c1e7 df3e
00000320: 794d 24bf 341d 4ebe fcf4 9fbe 63a4 56bf
00000330: 2806 e63d d197 f3be dfc0 bf3d 105b d3bd
00000340: 4f4b febd 0804 0b3e 29fb 23be bc0d 7dbc
00000350: 7ab1 263f cc19 96bb b75d 1a3e e0dc b4be
00000360: ba6c 0d3e af13 32be f3f5 0f3e a670 9a3e
00000370: 765c cdbe ae69 b63e 31a3 d83d 06a2 873e
00000380: 9d36 7abc 6e3a 01bf 6a97 e4bc a9fb 08bf
00000390: 8790 843e f89d 03bf 58a0 c13d 2a9b a1bd
000003a0: 5d0f 6fbe d212 9abe 0ba0 8abe 26ec 6dbe
000003b0: 4b2d 86bc 4ffd e9bb 8973 3abf 9b95 ffbe
000003c0: ca26 47be 89cb b53d 237d 02be 8906 213e
000003d0: b3d5 eb3d 8e33 c6bd 3dd3 f3be 1cb9 c5be
000003e0: 12f2 d83c b080 b4be 62dc 973e d608 313e
000003f0: b383 0d3e c3b0 e5bd 2e44 cf3e 7310 2a3f

network_body.linear_encoder.seq_layers.0.bias f4 [128]
0.0 0.0 0.0 0.0 0.0 0.0 0.0 0.0
0.0 0.0 0.0 0.0 0.0 0.0 0.0 0.0
0.0 0.0 0.0 0.0 0.0 0.0 0.0 0.0
0.0 0.0 0.0 0.0 0.0 0.0 0.0 0.0
0.0 0.0 0.0 0.0 0.0 0.0 0.0 0.0
0.0 0.0 0.0 0.0 0.0 0.0 0.0 0.0
0.0 0.0 0.0 0.0 0.0 0.0 0.0 0.0
0.0 0.0 0.0 0.0 0.0 0.0 0.0 0.0
0.0 0.0 0.0 0.0 0.0 0.0 0.0 0.0
0.0 0.0 0.0 0.0 0.0 0.0 0.0 0.0
0.0 0.0 0.0 0.0 0.0 0.0 0.0 0.0
0.0 0.0 0.0 0.0 0.0 0.0 0.0 0.0
0.0 0.0 0.0 0.0 0.0 0.0 0.0 0.0
0.0 0.0 0.0 0.0 0.0 0.0 0.0 0.0
0.0 0.0 0.0 0.0 0.0 0.0 0.0 0.0
0.0 0.0 0.0 0.0 0.0 0.0 0.0 0.0
00000000: 0000 0000 0000 0000 0000 0000 0000 0000
00000010: 0000 0000 0000 0000 0000 0000 0000 0000
00000020: 0000 0000 0000 0000 0000 0000 0000 0000
00000030: 0000 0000 0000 0000 0000 0000 0000 0000
00000040: 0000 0000 0000 0000 0000 0000 0000 0000
00000050: 0000 0000 0000 0000 0000 0000 0000 0000
00000060: 0000 0000 0000 0000 0000 0000 0000 0000
00000070: 0000 0000 0000 0000 0000 0000 0000 0000
00000080: 0000 0000 0000 0000 0000 0000 0000 0000
00000090: 0000 0000 0000 0000 0000 0000 0000 0000
000000a0: 0000 0000 0000 0000 0000 0000 0000 0000
000000b0: 0000 0000 0000 0000 0000 0000 0000 0000
000000c0: 0000 0000 0000 0000 0000 0000 0000 0000
000000d0: 0000 0000 0000 0000 0000 0000 0000 0000
000000e0: 0000 0000 0000 0000 0000 0000 0000 0000
000000f0: 0000 0000 0000 0000 0000 0000 0000 0000
00000100: 0000 0000 0000 0000 0000 0000 0000 0000
00000110: 0000 0000 0000 0000 0000 0000 0000 0000
00000120: 0000 0000 0000 0000 0000 0000 0000 0000
00000130: 0000 0000 0000 0000 0000 0000 0000 0000
00000140: 0000 0000 0000 0000 0000 0000 0000 0000
00000150: 0000 0000 0000 0000 0000 0000 0000 0000
00000160: 0000 0000 0000 0000 0000 0000 0000 0000
00000170: 0000 0000 0000 0000 0000 0000 0000 0000
00000180: 0000 0000 0000 0000 0000 0000 0000 0000
00000190: 0000 0000 0000 0000 0000 0000 0000 0000
000001a0: 0000 0000 0000 0000 0000 0000 0000 0000
000001b0: 0000 0000 0000 0000 0000 0000 0000 0000
000001c0: 0000 0000 0000 0000 0000 0000 0000 0000
000001d0: 0000 0000 0000 0000 0000 0000 0000 0000
000001e0: 0000 0000 0000 0000 0000 0000 0000 0000
000001f0: 0000 0000 0000 0000 0000 0000 0000 0000

network_body.linear_encoder.seq_layers.2.weight f4 [128, 128]
-0.15254225 -0.01753265 0.04142749 0.052259777 0.086868554 0.025095912 0.0391939 0.0059259734
0.0017067052 0.049781624 0.072993785 -0.04496433 0.10964604 -0.016569119 -0.06952237 0.12356349
0.1379025 -0.049957808 0.13248087 0.09100107 0.083703384 -0.057974506 0.005412761 0.1313544
-0.018394288 0.10185335 0.10001638 -0.004878473 -0.062178966 0.08165033 0.04052679 -0.11970609
-0.114250354 -0.23555543 0.103401676 -0.21038704 -0.079784244 -0.12718965 0.11574221 -0.11895164
0.031614926 0.039022442 0.0013160122 -0.13337584 0.028506573 0.007899464 0.15367253 0.00469131
-0.020970358 0.17376621 -0.08888958 -0.021025307 -0.04139863 -0.011636724 0.006682546 -0.08220885
0.036192093 0.17165267 -0.054197032 0.10648791 0.18663566 -0.011130151 0.09206489 -0.016808396
-0.0043787523 0.08402054 -0.015065505 -0.09312755 -0.18858318 0.02942538 0.18917155 0.17099524
0.08313574 -0.21788925 0.010065272 -0.088979036 0.020041443 -0.004533155 -0.070120364 0.091928616
-0.07335102 -0.12180156 0.0019230683 0.23941088 -0.016798275 0.04145991 -0.063953266 -0.03555084
0.06173188 0.031499177 -0.1595114 -0.07325806 0.18490373 -0.12205367 0.030826984 -0.18067989
0.19207616 0.07972505 0.01101949 -0.1100254 -0.09822571 0.06931929 -0.068833016 -0.24115314
0.042039335 -0.008532923 0.0026826586 0.031374134 0.0058151335 -0.09648177 -0.12767738 -0.13864222
0.0011204211 -0.0680009 0.07562838 0.07637486 0.13280924 -0.060666848 0.0560658 -0.06752508
0.002276683 0.03433557 -0.025089342 -0.061096445 -0.029634641 -0.08665744 0.06196123 -0.004549641
0.028383318 -0.048307057 -0.024443997 -0.07772984 -0.06260535 -0.036318228 0.042846113 0.029249128
-0.09071031 -0.19067606 -0.11650829 -0.11398805 -0.05097255 0.16329356 0.15399173 -0.064207405
-0.11857576 -0.057491746 0.0337054 0.054443803 -0.119909994 -0.07466959 -0.1575526 0.20420006
0.087870955 0.049907804 0.06239936 0.20774859 0.010768168 0.048695154 0.08619276 -0.10182038
-0.03262969 -0.0150701795 0.008054087 -0.005810877 -0.11683104 0.0027147622 -0.045604154 0.013057856
0.006003609 -0.099326245 0.022099694 -0.19002791 0.09703979 0.045880836 0.04063507 -0.08302298
-0.07228829 0.041852463 -0.0324599 0.13237919 0.026594566 0.059713837 0.20451353 -0.06458491
-0.029048653 0.019579658 -0.085103676 -0.15114862 -0.08044007 -0.08612068 -0.037579276 0.051330756
-0.08108941 0.043854076 0.029610679 -0.05971583 -0.0828334 -0.0068144253 -0.008448109 -0.1073739
-0.16186042 0.12505436 -0.07665803 0.15918906 0.033161845 0.052405458 -0.19678913 -0.016039673
0.030486746 0.074017085 0.039155696 -0.11445446 0.02345706 0.072047494 0.064149044 -0.065319136
0.097728565 0.035045095 -0.048012737 -0.13352235 0.065105975 0.023778897 -0.14587875 0.019044705
-0.05495418 0.07159788 0.04244558 -0.076787435 -0.03539618 -0.020823732 0.00033271717 0.20763361
0.06115518 0.040182106 0.045063775 -0.086233035 0.07606201 -0.026891027 0.11047165 -0.046755183
0.03584691 0.0714589 -0.12913221 -0.038483948 -0.09422933 0.030157514 -0.014468378 0.083169825
-0.024101373 -0.1578262 0.03347433 0.04841466 0.041745298 -0.06760852 -0.07554034 -0.01960844
00000000: 0934 1cbe a2a0 8fbc dfaf 293d 590e 563d
00000010: 24e8 b13d f195 cd3c c889 203d ab2e c23b
00000020: 86b3 df3a d1e7 4b3d c47d 953d 842c 38bd
00000030: 1a8e e03d f6bb 87bc bf61 8ebd db0e fd3d
00000040: 5036 0d3e 8fa0 4cbd 11a9 073e c55e ba3d
00000050: ae6c ab3d ad76 6dbd 885d b13b c581 063e
00000060: 9eaf 96bc 7d98 d03d 63d5 cc3d 99db 9fbb
00000070: 5faf 7ebd 4a38 a73d 6bff 253d 7728 f5bd
00000080: 17fc e9bd 7135 71be 42c4 d33d b36f 57be
00000090: ec65 a3bd 013e 02be 400a ed3d eb9c f3bd
000000a0: a77e 013d ffd5 1f3d 0b7e ac3a ad93 08be
000000b0: 9e86 e93c c16c 013c 555c 1d3e 90b9 993b
000000c0: 07ca abbc c5ef 313e bd0b b6bd 443d acbc
000000d0: 9c91 29bd f5a7 3ebc 42f9 da3b 1d5d a8bd
000000e0: 293e 143d b8c5 2f3e b5fd 5dbd 5516 da3d
000000f0: 6b1d 3f3e 3d5b 36bc 848c bc3d c3b1 89bc
00000100: a37b 8fbb f612 ac3d 4fd5 76bc a8b9 bebd
00000110: f31b 41be 7f0d f13c 30b6 413e 6019 2f3e
00000120: 1243 aa3d 5c1e 5fbe d0e8 243c a43a b6bd
00000130: f42d a43c dc8a 94bb 449b 8fbd 1245 bc3d
00000140: 0f39 96bd 1973 f9bd 770f fc3a 2028 753e
00000150: 899c 89bc ded1 293d eef9 82bd c29d 11bd
00000160: 91da 7c3d 4805 013d f556 23be 5208 96bd
00000170: 6757 3d3e 46f7 f9bd df88 fc3c 2604 39be
00000180: 9daf 443e e346 a33d 178b 343c ff54 e1bd
00000190: 902a c9bd 46f7 8d3d 53f8 8cbd d9f0 76be
000001a0: 7031 2c3d accd 0bbc 8bcf 2f3b 2a82 003d
000001b0: e08c be3b 3c98 c5bd dcbd 02be 3af8 0dbe
000001c0: 18db 923a 0e44 8bbd 0de3 9a3d 6c6a 9c3d
000001d0: 25ff 073e cd7d 78bd 41a5 653d 974a 8abd
000001e0: 6734 153b 74a3 0c3d 2a88 cdbc 4440 7abd
000001f0: 59c4 f2bc 7579 b1bd 0fcb 7d3d 2815 95bb
00000200: 2284 e83c 9fdd 45bd c73e c8bc d330 9fbd
00000210: 3c37 80bd 6cc2 14bd 687f 2f3d de9b ef3c
00000220: 54c6 b9bd 9640 43be e69b eebd 9172 e9bd
00000230: 98c8 50bd 6d36 273e 02b0 1d3e 2c7f 83bd
00000240: d9d7 f2bd 777c 6bbd ac0e 0a3d 7700 5f3d
00000250: 5f93 f5bd 5fec 98bd 7855 21be d219 513e
00000260: b0f5 b33d 206c 4c3d 7996 7f3d 0cbc 543e
00000270: f86c 303c 9274 473d d485 b03d 3487 d0bd
00000280: b6a6 05bd eae8 76bc 4af5 033c 2b69 bebb
00000290: 1d45 efbd 27ea 313b 6ccb 3abd 9ef0 553c
000002a0: ecb9 c43b 8f6b cbbd 6b0a b53c ad96 42be
000002b0: ccbc c63d 8bed 3b3d f670 263d f407 aabd
000002c0: e20b 94bd 7d6d 2b3d acf4 04bd 698e 073e
000002d0: d9dc d93c 7f96 743d ff6b 513e 1845 84bd
000002e0: 71f7 edbc 8565 a03c d64a aebd b4c6 1abe
000002f0: c3bd a4bd 0a60 b0bd baec 19bd 3340 523d
00000300: 3412 a6bd 55a0 333d 1892 f23c 9698 74bd
00000310: 8fa4 a9bd 8b4b dfbb f069 0abc d9e6 dbbd
00000320: bdbe 25be 400e 003e e3fe 9cbd 7502 233e
00000330: b7d4 073d 1ba7 563d 1783 49be a265 83bc
00000340: 57bf f93c 4596 973d b961 203d 1a67 eabd
00000350: 0529 c03c a38d 933d 9360 833d 0ac6 85bd
00000360: ea25 c83d 728b 0f3d 01a9 44bd 15ba 08be
00000370: 4856 853d f6cb c23c 3d61 15be a403 9c3c
00000380: a217 61bd e9a1 923d 6bdb 2d3d bb42 9dbd
00000390: 96fb 10bd 8896 aabc 8b70 ae39 e89d 543e
000003a0: db7d 7a3d fe95 243d cb94 383d f29a b0bd
000003b0: 66c6 9b3d 924a dcbc f63e e23d 5d82 3fbd
000003c0: 36d4 123d 0b59 923d 3c3b 04be 58a1 1dbd
000003d0: 4ffb c0bd e40c f73c c70c 6dbc f154 aa3d
000003e0: 3e70 c5bc 319d 21be 611c 093d 734e 463d
000003f0: 1efd 2a3d 5676 8abd e5b4 9abd e1a1 a0bc

network_body.linear_encoder.seq_layers.2.bias f4 [128]
0.0 0.0 0.0 0.0 0.0 0.0 0.0 0.0
0.0 0.0 0.0 0.0 0.0 0.0 0.0 0.0
0.0 0.0 0.0 0.0 0.0 0.0 0.0 0.0
0.0 0.0 0.0 0.0 0.0 0.0 0.0 0.0
0.0 0.0 0.0 0.0 0.0 0.0 0.0 0.0
0.0 0.0 0.0 0.0 0.0 0.0 0.0 0.0
0.0 0.0 0.0 0.0 0.0 0.0 0.0 0.0
0.0 0.0 0.0 0.0 0.0 0.0 0.0 0.0
0.0 0.0 0.0 0.0 0.0 0.0 0.0 0.0
0.0 0.0 0.0 0.0 0.0 0.0 0.0 0.0
0.0 0.0 0.0 0.0 0.0 0.0 0.0 0.0
0.0 0.0 0.0 0.0 0.0 0.0 0.0 0.0
0.0 0.0 0.0 0.0 0.0 0.0 0.0 0.0
0.0 0.0 0.0 0.0 0.0 0.0 0.0 0.0
0.0 0.0 0.0 0.0 0.0 0.0 0.0 0.0
0.0 0.0 0.0 0.0 0.0 0.0 0.0 0.0
00000000: 0000 0000 0000 0000 0000 0000 0000 0000
00000010: 0000 0000 0000 0000 0000 0000 0000 0000
00000020: 0000 0000 0000 0000 0000 0000 0000 0000
00000030: 0000 0000 0000 0000 0000 0000 0000 0000
00000040: 0000 0000 0000 0000 0000 0000 0000 0000
00000050: 0000 0000 0000 0000 0000 0000 0000 0000
00000060: 0000 0000 0000 0000 0000 0000 0000 0000
00000070: 0000 0000 0000 0000 0000 0000 0000 0000
00000080: 0000 0000 0000 0000 0000 0000 0000 0000
00000090: 0000 0000 0000 0000 0000 0000 0000 0000
000000a0: 0000 0000 0000 0000 0000 0000 0000 0000
000000b0: 0000 0000 0000 0000 0000 0000 0000 0000
000000c0: 0000 0000 0000 0000 0000 0000 0000 0000
000000d0: 0000 0000 0000 0000 0000 0000 0000 0000
000000e0: 0000 0000 0000 0000 0000 0000 0000 0000
000000f0: 0000 0000 0000 0000 0000 0000 0000 0000
00000100: 0000 0000 0000 0000 0000 0000 0000 0000
00000110: 0000 0000 0000 0000 0000 0000 0000 0000
00000120: 0000 0000 0000 0000 0000 0000 0000 0000
00000130: 0000 0000 0000 0000 0000 0000 0000 0000
00000140: 0000 0000 0000 0000 0000 0000 0000 0000
00000150: 0000 0000 0000 0000 0000 0000 0000 0000
00000160: 0000 0000 0000 0000 0000 0000 0000 0000
00000170: 0000 0000 0000 0000 0000 0000 0000 0000
00000180: 0000 0000 0000 0000 0000 0000 0000 0000
00000190: 0000 0000 0000 0000 0000 0000 0000 0000
000001a0: 0000 0000 0000 0000 0000 0000 0000 0000
000001b0: 0000 0000 0000 0000 0000 0000 0000 0000
000001c0: 0000 0000 0000 0000 0000 0000 0000 0000
000001d0: 0000 0000 0000 0000 0000 0000 0000 0000
000001e0: 0000 0000 0000 0000 0000 0000 0000 0000
000001f0: 0000 0000 0000 0000 0000 0000 0000 0000

value_heads.value_heads.extrinsic.weight f4 [1, 128]
-0.20602833 -0.17832309 -0.054605067 -0.13083056 0.098970205 0.019108877 -0.20230731 -0.015128225
-0.02215977 0.18352303 0.01926519 0.004437223 0.14073956 -0.15518582 -0.12673646 -0.015501499
-0.09772355 -0.12826642 -0.07008216 -0.060223937 0.042494178 -0.008271083 0.00041854382 -0.010037541
-0.07253599 -0.19721545 0.1450206 -0.13605869 -0.1078374 0.11591512 -0.13236573 0.120313495
-0.1283521 0.06993222 -0.16307257 -0.14280789 -0.15053333 0.17097741 0.035030156 -0.09126082
0.10176808 -0.080051005 -0.074364185 0.01056093 -0.21131247 0.036834627 -0.18880552 0.04077658
-0.13335757 -0.19380778 -0.08511004 -0.14414582 0.11260408 0.034366786 0.21508333 -0.13126275
-0.14238656 0.182839 0.19592685 0.100795895 -0.10501174 -0.086686224 0.07877791 0.0505417
-0.14536595 0.13510475 0.13955295 -0.17823306 -0.17372544 -0.01994729 -0.048125356 -0.17794207
-0.061826766 0.036530733 -0.042599544 -0.07230054 -0.11061103 -0.16526018 0.1562795 -0.14499709
0.14018548 0.20705041 0.047174245 -0.16256002 -0.18243577 0.02608572 0.19762588 -0.1309537
-0.068557546 -0.08887689 -0.19593851 0.101676196 -0.07403332 0.13868803 0.041804165 0.16771054
-0.038966462 0.035021096 0.1372576 0.09873673 -0.0316848 0.19784978 0.096383005 0.16847068
0.00057935715 0.15245533 -0.12433238 0.1616506 -0.11978736 -0.12390183 0.10122126 -0.1006847
-0.07856499 0.012095064 0.21020538 0.19831729 0.045372635 0.094249904 0.12834379 -0.15535952
0.044992298 0.11775279 0.019725919 -0.16970693 0.19299504 0.18944815 0.2133517 0.17057833
00000000: 17f9 52be 549a 36be 90a9 5fbd 72f8 05be
00000010: e4b0 ca3d 388a 9c3c a629 4fbe 60dc 77bc
00000020: 6888 b5bc 76ed 3b3e 08d2 9d3c 2066 913b
00000030: 081e 103e 08e9 1ebe 34c7 01be 00fa 7dbc
00000040: 4923 c8bd 4658 03be 3c87 8fbd 60ad 76bd
00000050: 600e 2e3d 7083 07bc 0070 db39 8074 24bc
00000060: c08d 94bd d9f2 49be 4880 143e f852 0bbe
00000070: dbd9 dcbd e864 ed3d e28a 07be ec66 f63d
00000080: bc6e 03be a038 8f3d 7ffc 26be 3b3c 12be
00000090: 6925 1abe b414 2f3e c87b 0f3d f4e6 babd
000000a0: c86b d03d c8f1 a3bd 404c 98bd c007 2d3c
000000b0: 4c62 58be e8df 163d 3c56 41be 5805 273d
000000c0: e38e 08be 8c75 46be 2c4e aebd f69a 13be
000000d0: f89c e63d 30c4 0c3d ce3e 5c3e be69 06be
000000e0: c8cd 11be 263a 3b3e 0ca1 483e 146e ce3d
000000f0: 6510 d7bd 8c88 b1bd 5056 a13d d004 4f3d
00000100: d0da 14be e658 0a3e f8e6 0e3e ba82 36be
00000110: 15e5 31be 8068 a3bc 181f 45bd 7236 36be
00000120: 103e 7dbd 40a1 153d dc7c 2ebd 4e12 94bd
00000130: 0988 e2bd f739 29be bc07 203e 1e7a 14be
00000140: c88c 0f3e 0605 543e c839 413d 2276 26be
00000150: 71d0 3abe b8b1 d53c 705e 4a3e ba18 06be
00000160: e667 8cbd 1605 b6bd 1ba4 48be 9c3b d03d
00000170: c89e 97bd 3c04 0e3e d83a 2b3d 50bc 2b3e
00000180: 4c9b 1fbd 4872 0f3d 428d 0c3e 7c36 ca3d
00000190: ecc7 01bd 2299 4a3e 7464 c53d 9483 2c3e
000001a0: 00e0 173a 401d 1c3e faa1 febd bc87 253e
000001b0: 1353 f5bd 3ec0 fdbd 184d cf3d c833 cebd
000001c0: aee6 a0bd 602a 463c 1440 573e b013 4b3e
000001d0: a8d8 393d 1806 c13d 8e6c 033e 9116 1fbe
000001e0: d849 383d 6028 f13d 4098 a13c a7c7 2dbe
000001f0: 7ea0 453e b2fe 413e de78 5a3e 16ac 2e3e
