results/ppo/My Behavior/My Behavior-2752.onnx (onnx, 70373 bytes, 6 tensors)

network_body.linear_encoder.seq_layers.0.weight f4 [128, 1]
00000000: 00fb f4be 8af7 253e 60d4 84bf 4575 bcbf
00000010: a8e7 913e 8607 cf3c 01c6 c73f 4210 5e3f
00000020: 0907 e43e 8aa4 4d3f cb70 72bf 71b9 a23f
00000030: 5328 47bf 02ba 7ebf 6c6f 3e3f f29a 99bf
00000040: bdab e3bb 5cac be3f 4d9f ecbe 0cbf 05bf
00000050: 3c10 17bf e73b 7ebe 18cb f13e 9fa8 e8bf
00000060: e525 33bf 7a67 68be 2703 ebbe df51 bb3e
00000070: 75a7 f0bf 9ea8 853e 0e55 92bf 2d34 723f
00000080: 87b2 b53e cc36 113f e33c 3cbf 8cce 5dbf
00000090: 2332 24bf 7630 a83e 4a55 86be 403e 923f
000000a0: 079e 7bbf f609 12bf ad40 4b3f f69e 1340
000000b0: c588 9bbe a1d4 47bf 774f 9ebf 85ef af3f
000000c0: e204 b63f 1dba aebe 0e65 9ebf 1125 75bf
000000d0: 3fe9 abbf 0593 48bd 91cf 833f 55ab 19bf
000000e0: 4e1d 2fbe d510 603e 5daa fb3e 82e5 2e3f
000000f0: b5a8 803f 7e5b 613f 3bf3 473f aa60 fa3f
00000100: 8319 663f e90f 24bf 9fdf 5bbe 5d0b 80bf
00000110: 1c9c aebf feb8 31bf 995f 293f 493c 2f3d
00000120: 720b b6bc d375 7a3e b8b0 34bf f456 953f
00000130: 9cc7 b0bd 5a2b a43f 88a9 e3bf df55 f6be
00000140: 6df2 49bd 7d85 0abe f362 6d3f 5b92 f23e
00000150: b614 8b3d f2e0 f7bf f2fe ff3f 9bc9 5bbf
00000160: 5d55 7dbe bce0 5bbe 31cc e53f cbd5 283f
00000170: e8e4 f03e 1d7d e23f 4bee 7b3e c5bd 5bbe
00000180: 3a03 53be 2a14 b4bf c89f 2d3e 606b 113f
00000190: 3026 1040 26ce 9fbc 730b b4bf 2e41 cebe
000001a0: 937e ae3f 312d 38be 133b 8abd 5e21 c43d
000001b0: 6ec9 78be d41e 63be e1dd 7f3c d224 7d3f
000001c0: 32c7 063f 5837 413f bb33 fcbf c976 86bf
000001d0: 1f8f 9fbf 5478 e03e 60d2 8b3f 5f9c 94be
000001e0: eace 643f 665f 06bf f402 863f bf54 1cbf
000001f0: c0c6 2b3e 261f 8c3f 70ed 53be e548 30c0
-0.47847748 0.1620771 -1.0377312 -1.4723288 0.28497052 0.025272142 1.5607301 0.8674356
0.44536617 0.8032919 -0.9470336 1.2712842 -0.77795905 -0.99502575 0.74388766 -1.200041
-0.006947963 1.489635 -0.46215287 -0.5224464 -0.59009147 -0.24827538 0.4722526 -1.8176459
-0.699797 -0.22695723 -0.45900843 0.365859 -1.8801104 0.26105207 -1.1432207 0.94610864
0.35487768 0.5672424 -0.73530406 -0.8664329 -0.64139 0.32849473 -0.26236945 1.1425247
-0.98288006 -0.5704645 0.7939556 2.3065772 -0.30377784 -0.7805882 -1.2368001 1.374497
1.422024 -0.34126368 -1.237459 -0.95759684 -1.3430556 -0.048968334 1.0297719 -0.60027057
-0.17101023 0.21881421 0.49153414 0.6831895 1.0051485 0.8803023 0.78105515 1.956075
0.8988268 -0.64086777 -0.21472023 -1.0003468 -1.3641391 -0.694229 0.66161495 0.0427821
-0.022222254 0.24459009 -0.7058215 1.1667161 -0.086318225 1.282573 -1.7786112 -0.4811239
-0.04930346 -0.13527484 0.9272911 0.47377285 0.0679106 -1.9365523 1.9999678 -0.858545
-0.24739595 -0.21472448 1.7952939 0.6595122 0.47049642 1.7694432 0.2460262 -0.2145911
-0.206067 -1.4068654 0.16955483 0.56804466 2.2523308 -0.019507479 -1.4065994 -0.40284103
1.3632377 -0.17985989 -0.06749549 0.09576677 -0.2429559 -0.22179729 0.015616865 0.9888431
0.526477 0.7547507 -1.9703287 -1.0505 -1.2465552 0.43841803 1.0923576 -0.29025552
0.89378226 -0.52489316 1.0469651 -0.6106681 0.16775036 1.0947006 -0.20696044 -2.7544491

network_body.linear_encoder.seq_layers.0.bias f4 [128]
00000000: 0000 0000 0000 0000 0000 0000 0000 0000
00000010: 0000 0000 0000 0000 0000 0000 0000 0000
00000020: 0000 0000 0000 0000 0000 0000 0000 0000
00000030: 0000 0000 0000 0000 0000 0000 0000 0000
00000040: 0000 0000 0000 0000 0000 0000 0000 0000
00000050: 0000 0000 0000 0000 0000 0000 0000 0000
00000060: 0000 0000 0000 0000 0000 0000 0000 0000
00000070: 0000 0000 0000 0000 0000 0000 0000 0000
00000080: 0000 0000 0000 0000 0000 0000 0000 0000
00000090: 0000 0000 0000 0000 0000 0000 0000 0000
000000a0: 0000 0000 0000 0000 0000 0000 0000 0000
000000b0: 0000 0000 0000 0000 0000 0000 0000 0000
000000c0: 0000 0000 0000 0000 0000 0000 0000 0000
000000d0: 0000 0000 0000 0000 0000 0000 0000 0000
000000e0: 0000 0000 0000 0000 0000 0000 0000 0000
000000f0: 0000 0000 0000 0000 0000 0000 0000 0000
00000100: 0000 0000 0000 0000 0000 0000 0000 0000
00000110: 0000 0000 0000 0000 0000 0000 0000 0000
00000120: 0000 0000 0000 0000 0000 0000 0000 0000
00000130: 0000 0000 0000 0000 0000 0000 0000 0000
00000140: 0000 0000 0000 0000 0000 0000 0000 0000
00000150: 0000 0000 0000 0000 0000 0000 0000 0000
00000160: 0000 0000 0000 0000 0000 0000 0000 0000
00000170: 0000 0000 0000 0000 0000 0000 0000 0000
00000180: 0000 0000 0000 0000 0000 0000 0000 0000
00000190: 0000 0000 0000 0000 0000 0000 0000 0000
000001a0: 0000 0000 0000 0000 0000 0000 0000 0000
000001b0: 0000 0000 0000 0000 0000 0000 0000 0000
000001c0: 0000 0000 0000 0000 0000 0000 0000 0000
000001d0: 0000 0000 0000 0000 0000 0000 0000 0000
000001e0: 0000 0000 0000 0000 0000 0000 0000 0000
000001f0: 0000 0000 0000 0000 0000 0000 0000 0000
0.0 0.0 0.0 0.0 0.0 0.0 0.0 0.0
0.0 0.0 0.0 0.0 0.0 0.0 0.0 0.0
0.0 0.0 0.0 0.0 0.0 0.0 0.0 0.0
0.0 0.0 0.0 0.0 0.0 0.0 0.0 0.0
0.0 0.0 0.0 0.0 0.0 0.0 0.0 0.0
0.0 0.0 0.0 0.0 0.0 0.0 0.0 0.0
0.0 0.0 0.0 0.0 0.0 0.0 0.0 0.0
0.0 0.0 0.0 0.0 0.0 0.0 0.0 0.0
0.0 0.0 0.0 0.0 0.0 0.0 0.0 0.0
0.0 0.0 0.0 0.0 0.0 0.0 0.0 0.0
0.0 0.0 0.0 0.0 0.0 0.0 0.0 0.0
0.0 0.0 0.0 0.0 0.0 0.0 0.0 0.0
0.0 0.0 0.0 0.0 0.0 0.0 0.0 0.0
0.0 0.0 0.0 0.0 0.0 0.0 0.0 0.0
0.0 0.0 0.0 0.0 0.0 0.0 0.0 0.0
0.0 0.0 0.0 0.0 0.0 0.0 0.0 0.0

network_body.linear_encoder.seq_layers.2.weight f4 [128, 128]
00000000: eaa2 bfbd 0907 2c3d c580 2d3e d0bc bfbd
00000010: e7e0 19bd b270 0abe f020 373c c999 1c3e
00000020: 504b 61bc 5d7f 25bd 00af 3a3c 29bb 8cbd
00000030: 0f71 063d 463c a6bd 3df9 dbbc 7824 3f3d
00000040: d577 4ebd 2eea 813d 9fcc fbbd ac4a 2f3d
00000050: def1 6abd 356e 7e3d b36a 213d 4866 3b3e
00000060: 3ae6 b13c f29c 2bbe c39e 1c3d 0d56 4cbd
00000070: ef28 8d3a 9d2f 503d 1995 febc b07a 95bd
00000080: 3b3a 8f3b e859 c03b 42c5 183d 635e 2fbd
00000090: 2ba3 ffbd c7ef 193d f2d8 9e3c 0a50 d5bb
000000a0: 4720 b63d 50fe 523d 0908 0a3e e6de 123d
000000b0: 3de8 353d 70fb 8e3d 81c2 773d 802e 093e
000000c0: 29b2 443c aa51 9ebd e182 06be a173 f63c
000000d0: 6ddc 013d a8ca 103d f310 293c 6712 afbc
000000e0: a152 b2bc b5e6 bc3d 29ca 89bd 0260 b03d
000000f0: f3b4 4d3d 2842 0bbd 9fab 4bbe 9619 bb3d
00000100: 9065 013e db48 bdbd 8a83 09bd bdc9 f0bd
00000110: 82dc c93d e80a 4c3d b622 c0bd ecd1 a73d
00000120: 4c66 75bd 4b64 1fbe 22ab ba3d b467 e6bd
00000130: fd22 0fbc 6a22 ddbc 078b 0c3e 80d4 3d3c
00000140: 06f4 dbbd d3ec 45bd a4dd 3fbe 26b9 7f3d
00000150: b15c 593d 4042 4f3d 611e 7ebd bb1c 013a
00000160: ef20 a13d 5848 c1bc 2858 f9bc dd3b 4fbe
00000170: b6e5 733d 8b33 e0bb f362 0abc f2d8 a4bc
00000180: e05d debc d4f3 0e3e 4948 cf3c 78ec 4e3e
00000190: 9599 21bb 3a25 043e 0752 80bd 5d3f 883e
000001a0: dea1 5d3d 5e59 e63b 7fc5 c33d fe02 243e
000001b0: 092b 00be 4d90 60bc 61e2 c8bd 9cb4 ed3d
000001c0: ed08 8d3c d3be f53d a71f 4c3d 26ed 1b3c
000001d0: 651d 973d f4a5 e0bd 9645 8c3d 9c3f abbd
000001e0: 3344 0d3d 17ae 013c f54b 053e 6b8f 6f3d
000001f0: 9408 6ebd c24c 03bd 3f98 333e 7ad3 e1ba
00000200: 4dcd 6a3d 07be 903b 66eb e73d 6a92 6d3d
00000210: 0753 35bb 2b57 973d 8023 16bd 2e95 b4bd
00000220: 6be4 a8bc 3da9 253d 8749 113e c25f 593d
00000230: a01a 3fbd 0473 643d 573c 9e3d e94f 833d
00000240: 2dbd acbc 3ae3 b0bc cbcf 9a3d ec40 e63c
00000250: 992b c73d f4e9 b83c 5261 efbd fdc1 bd3c
00000260: ab36 27be 6d50 a8bd bfa6 8b3d 4df3 01bc
00000270: 9f36 6f3c af89 24be 9c7d ebbc cb8c bdbc
00000280: 45b7 123d 0e18 583c 000d d33c 2923 ffbb
00000290: 69ef 463c eb5c 2bbc f19c 283d 7c17 75bd
000002a0: b2e7 383b dcf6 f5bc c049 8f3d e57c 913d
000002b0: 6f4f a0bc 3cc1 fcbd 0428 0dbd ed07 8a3e
000002c0: 6b26 edbd e9fe 443d 8489 a7bd f41f 62bd
000002d0: a53e 0c3d 4201 b73b 5ffd 99bc 2aa2 3abc
000002e0: 6318 b2bd d55a 25bd 6fd0 3f3e c897 9abd
000002f0: 601f 17bd ead7 2fbe 8f20 c7bc c9bc 693d
00000300: 6045 a03c a1ea ba3d bb63 bd3d 99bc 85bd
00000310: 9e02 113c 768f 123e acdf 043d 6d63 cc3d
00000320: e533 0cbd f389 933c a452 0cbc 55d8 a33c
00000330: b34e 2c3d 062f 883c 15c1 723e 619e fb3c
00000340: 63ca 14be d8e1 dd3d aaa1 a33d c1d5 44b9
00000350: 8c23 6d3d c491 bcbd 5047 743d d6ec 73bc
00000360: 5ffb 5bbe c839 23bd 3153 003e b4b5 373c
00000370: e936 353c d1fe 843d e8a8 9abd 1958 a53c
00000380: cebb b8bd 47d4 a0bd 2ac6 a93d 599e 00be
00000390: bbb0 11be 64d2 32bd cdba 9fbd 9c88 1e3e
000003a0: 3b0a a93c e824 95bc 8014 9abd fdbd 3fbc
000003b0: 2e34 d0bd 0c5a 7ebd ba5d 1bbe 839d 2dbc
000003c0: 59cd 133e bbc2 af3d 83be 4dbd 2889 3a3e
000003d0: 36cd 1f3d 0cdb c4bd 1ecb 48bd 98e1 c43b
000003e0: 42db d93d af07 30bd 8527 483d a43d 1cbb
000003f0: 0f79 04bd 934f db3c efa4 223c 468e 4f3d
-0.09357245 0.041998897 0.16943653 -0.09362185 -0.037568 -0.13519552 0.0111772865 0.1529304
-0.013750866 -0.040404666 0.011394262 -0.068716355 0.032822665 -0.08116965 -0.026852245 0.04666564
-0.05040725 0.06343494 -0.12294888 0.042795822 -0.05735957 0.06211682 0.039408397 0.18300736
0.021716226 -0.16759089 0.038237344 -0.049886752 0.0010769645 0.050826658 -0.031076955 -0.072987914
0.0043709553 0.0058700927 0.037297495 -0.042814624 -0.12482294 0.037582185 0.019390557 -0.0065097855
0.08892875 0.051512063 0.13479628 0.035857104 0.044410933 0.06981552 0.060488228 0.13396645
0.012005367 -0.0773042 -0.13135864 0.030084433 0.031704355 0.035349518 0.010318982 -0.02137108
-0.021767916 0.092236914 -0.06728012 0.08612062 0.050221395 -0.03399864 -0.19889687 0.091357395
0.126364 -0.09242412 -0.03357271 -0.117572285 0.09856512 0.04981509 -0.093816206 0.08194336
-0.05991201 -0.15565602 0.09114672 -0.112502486 -0.008736369 -0.026993949 0.1372491 0.0115863085
-0.10739903 -0.048321556 -0.18736893 0.06243243 0.053066913 0.05060029 -0.06204069 0.00049252406
0.0786761 -0.023594067 -0.030437544 -0.2023768 0.05954524 -0.006842082 -0.008446443 -0.020122979
-0.027144372 0.139602 0.025303023 0.20207393 -0.0024658192 0.12904826 -0.062656455 0.26610842
0.054109447 0.0070296964 0.09559154 0.16016766 -0.12516417 -0.013706279 -0.09808803 0.11606714
0.01721617 0.119992875 0.049834874 0.00951699 0.073786534 -0.10969153 0.0684921 -0.08361742
0.034488868 0.007915041 0.13017257 0.058486383 -0.05811365 -0.032055624 0.17538546 -0.0017229163
0.057324696 0.0044171843 0.113241956 0.05800096 -0.0027667896 0.07389673 -0.03665495 -0.08817516
-0.02061673 0.0404446 0.14188205 0.053069837 -0.04665625 0.05577375 0.07726353 0.06411726
-0.0210863 -0.021592725 0.075591646 0.028107129 0.097251125 0.022572495 -0.11688484 0.02316379
-0.16329448 -0.08218465 0.06818914 -0.007931543 0.014600425 -0.16068147 -0.028746419 -0.023138424
0.03581931 0.013189329 0.025763035 -0.007786174 0.012142041 -0.010459165 0.041165296 -0.05983685
0.0028214273 -0.030024938 0.069964886 0.071039 -0.019569127 -0.12341544 -0.03446199 0.26959172
-0.11579593 0.048094664 -0.08180526 -0.055206254 0.03423943 0.0055848667 -0.018797575 -0.011391202
-0.08696058 -0.040369827 0.18731855 -0.07548481 -0.036895156 -0.17172208 -0.024307517 0.057064805
0.01956433 0.09126783 0.09247538 -0.06530113 0.008850722 0.14312539 0.032439873 0.099799015
-0.034229178 0.018010115 -0.008564625 0.020000616 0.04206724 0.016623985 0.23706467 0.03071517
-0.1453033 0.10834092 0.07989819 -0.00018771646 0.05789523 -0.0920749 0.05963832 -0.014888009
-0.21482609 -0.039850026 0.12531735 0.011212755 0.011060455 0.06493915 -0.075517476 0.02018361
-0.09020196 -0.07852989 0.0828975 -0.12560405 -0.14227574 -0.043657675 -0.07799301 0.154818
0.020634761 -0.018206075 -0.07523441 -0.011703012 -0.101662025 -0.062097594 -0.15172473 -0.010596636
0.14433803 0.08582064 -0.050230514 0.18216383 0.039014064 -0.096120924 -0.049021833 0.006008338
0.10637523 -0.042976078 0.048865814 -0.0023840452 -0.032342013 0.026771342 0.009927019 0.050672792

network_body.linear_encoder.seq_layers.2.bias f4 [128]
00000000: 0000 0000 0000 0000 0000 0000 0000 0000
00000010: 0000 0000 0000 0000 0000 0000 0000 0000
00000020: 0000 0000 0000 0000 0000 0000 0000 0000
00000030: 0000 0000 0000 0000 0000 0000 0000 0000
00000040: 0000 0000 0000 0000 0000 0000 0000 0000
00000050: 0000 0000 0000 0000 0000 0000 0000 0000
00000060: 0000 0000 0000 0000 0000 0000 0000 0000
00000070: 0000 0000 0000 0000 0000 0000 0000 0000
00000080: 0000 0000 0000 0000 0000 0000 0000 0000
00000090: 0000 0000 0000 0000 0000 0000 0000 0000
000000a0: 0000 0000 0000 0000 0000 0000 0000 0000
000000b0: 0000 0000 0000 0000 0000 0000 0000 0000
000000c0: 0000 0000 0000 0000 0000 0000 0000 0000
000000d0: 0000 0000 0000 0000 0000 0000 0000 0000
000000e0: 0000 0000 0000 0000 0000 0000 0000 0000
000000f0: 0000 0000 0000 0000 0000 0000 0000 0000
00000100: 0000 0000 0000 0000 0000 0000 0000 0000
00000110: 0000 0000 0000 0000 0000 0000 0000 0000
00000120: 0000 0000 0000 0000 0000 0000 0000 0000
00000130: 0000 0000 0000 0000 0000 0000 0000 0000
00000140: 0000 0000 0000 0000 0000 0000 0000 0000
00000150: 0000 0000 0000 0000 0000 0000 0000 0000
00000160: 0000 0000 0000 0000 0000 0000 0000 0000
00000170: 0000 0000 0000 0000 0000 0000 0000 0000
00000180: 0000 0000 0000 0000 0000 0000 0000 0000
00000190: 0000 0000 0000 0000 0000 0000 0000 0000
000001a0: 0000 0000 0000 0000 0000 0000 0000 0000
000001b0: 0000 0000 0000 0000 0000 0000 0000 0000
000001c0: 0000 0000 0000 0000 0000 0000 0000 0000
000001d0: 0000 0000 0000 0000 0000 0000 0000 0000
000001e0: 0000 0000 0000 0000 0000 0000 0000 0000
000001f0: 0000 0000 0000 0000 0000 0000 0000 0000
0.0 0.0 0.0 0.0 0.0 0.0 0.0 0.0
0.0 0.0 0.0 0.0 0.0 0.0 0.0 0.0
0.0 0.0 0.0 0.0 0.0 0.0 0.0 0.0
0.0 0.0 0.0 0.0 0.0 0.0 0.0 0.0
0.0 0.0 0.0 0.0 0.0 0.0 0.0 0.0
0.0 0.0 0.0 0.0 0.0 0.0 0.0 0.0
0.0 0.0 0.0 0.0 0.0 0.0 0.0 0.0
0.0 0.0 0.0 0.0 0.0 0.0 0.0 0.0
0.0 0.0 0.0 0.0 0.0 0.0 0.0 0.0
0.0 0.0 0.0 0.0 0.0 0.0 0.0 0.0
0.0 0.0 0.0 0.0 0.0 0.0 0.0 0.0
0.0 0.0 0.0 0.0 0.0 0.0 0.0 0.0
0.0 0.0 0.0 0.0 0.0 0.0 0.0 0.0
0.0 0.0 0.0 0.0 0.0 0.0 0.0 0.0
0.0 0.0 0.0 0.0 0.0 0.0 0.0 0.0
0.0 0.0 0.0 0.0 0.0 0.0 0.0 0.0

action_model._discrete_distribution.branches.0.weight f4 [2, 128]
00000000: 8f8f ec3b 1ca3 94bb 0318 9c3c a72a e43b
00000010: c735 203c a1ea 893a 9972 c9b9 7161 813c
00000020: ed2e e1ba 231e c8bb c01a b53b 1725 413c
00000030: 432c 0dba 21c1 2f3b 5f15 3bbb 28c2 013c
00000040: b722 7ebc 568f 02bc 6dc3 cebc 3113 93bc
00000050: 32f7 9e3c 5565 5c3c 5c90 4a3c 5785 97bb
00000060: be66 463b 83b3 f83a 1ad2 b9bb 5bbe 64bb
00000070: 5710 18bc e77a 2a3c 9716 423b ee56 453b
00000080: 233f 04bb c7a0 133c 54da 93bc 2303 063c
00000090: 5d6b e03a 9990 26ba 3896 473c 47fc ec3b
000000a0: bd73 3d3c 56fb 28bc ff71 283b 7fe0 adbb
000000b0: adf2 e9bb 6db9 4d3c 0bf7 2b3c 8bb9 663b
000000c0: aed1 243a 297b b2bb af01 1a3c 17cd 273b
000000d0: 47a2 923b 3a22 793b 7708 d73a 686d d13b
000000e0: fbad a23b 2ca7 92ba bfab b63b efdb 40bc
000000f0: 1b3a 813b dcf5 b2ba 376f 1d3b 28f0 d5bb
00000100: 77a7 edba 119f 18bc 6522 d939 2cc9 1e3c
00000110: 9661 cc3b faf2 873b fca7 41bb 1f7e fab9
00000120: b3cd 4bba 30a0 efbb c85d 58ba 6f2e 80bb
00000130: 04d8 113c 9da8 3a3c 38af b7bb addc d7bb
00000140: 259c 1abb 631e c9ba 6b3c 603c b060 043c
00000150: f368 623a dd22 a9ba 10fd fcbb 0f73 5d3a
00000160: 8bf0 22bc 39ba a83b 7f78 1c3b 8022 5f3c
00000170: 3dc8 4a3c a17f 1bbc 460f b53b 0361 23bb
00000180: 7c44 38ba 34c9 a33b b0a3 873c 498f 8bbb
00000190: 6fe9 e4bb e8d0 03bc 89f1 b83c 25b8 f43a
000001a0: 7a14 3abc 30ae 733b 22ea e43a 27bf 783c
000001b0: ebb3 d73b 2afa d3bb 4676 06bc e550 df3c
000001c0: 08ca c3b9 2017 c3bb 537e 353c bae8 54ba
000001d0: 8907 4c3a 9bb3 dabb b7f2 adbb b83c 82bb
000001e0: 8e83 05bc f537 16bc bf51 10bc 5a7b b5bb
000001f0: 7ffe a3bc 0be3 18bc f8ca 633c f14f 0cbc
00000200: be58 923b ebce 7fb9 0480 4c3b 50c1 463b
00000210: 9646 acba 8056 9abc 5b0c af39 0459 2a3b
00000220: 70c6 6abb e791 bebc 0f26 103c 0c31 86bc
00000230: aadd ad3b 1fd1 383b 6734 b63b ed9e 7e3a
00000240: e089 b13c d5ff 53bb b1cf a53b 49b4 41bc
00000250: 70a9 f2bb 3fc2 b6bb c8bd a33b 562e cc3b
00000260: f56e acbc a025 c5bb 1230 0f3c 9ea0 37bc
00000270: cc80 4b3c 5eed 043b 3bd4 5fbc c119 293c
00000280: 5b1b 1b3a 27d2 ef3b c8c6 74ba 6f56 7cb9
00000290: 65f9 793c dd97 53bb bc75 2cbc 6c33 223c
000002a0: 8ca8 a93a 9739 a1bb 6bd7 1cbc bac2 2dbc
000002b0: 8d05 5cbc ab76 e7bb 7bd0 223c bd98 80bc
000002c0: 8fce 283c e234 f638 6f76 d239 d74b 073c
000002d0: 2f4c 36bc 8615 083a 78db 2abc d76c 2fbb
000002e0: c320 3dbc 3a4c 2abc 17ea 44bc a2ec 6fbc
000002f0: 5f7c 833a 6763 53ba b346 a8ba 5962 973b
00000300: 86b9 a6bb 0a5d 54bc fce9 30bc 8762 463c
00000310: 4b9e 1b3c 3cd4 adbb c315 f2bb aaeb 3fbc
00000320: 3fb4 7abc 9cf4 8abc 0214 843b 8d05 f53a
00000330: 3fcd e43a df7a 9c3c 40df cfbb ddc2 d4b8
00000340: 087d d1bc 3b04 703c 17d7 963a 82a9 5dbb
00000350: 3b3f a63b f2b0 1fbb 5319 763c c7aa 89bb
00000360: 32db 86bb d250 82bc becf 1ebc 3dab c63c
00000370: 635c f139 9797 70bc 6734 c0bc e790 9eba
00000380: 93ea f43b fbee 51bc 23a3 4abb 381d 7a3b
00000390: f26a 713c 7b71 723c 98df 2db9 cdd5 f2ba
000003a0: 31c3 cb38 ba6b 92bb b29b a6bb 536d cc3a
000003b0: 36f7 8d3b fb4a 7cbc ebaf 873b 8f11 bb3b
000003c0: 37b8 f0bb 9539 62bc fa4f fc3b 83b9 133b
000003d0: 5c9e 913a a309 68b9 5344 84bb cb16 c6ba
000003e0: f29f d6ba e47f 0d3b f540 263b 4e4e 1f3a
000003f0: 17ce 8a3c 1fe7 8abc 39ea 24bc 7de4 99b9
0.007219262 -0.0045360457 0.019054418 0.0069630924 0.0097784465 0.0010522195 -0.0003842309 0.015793534
-0.0017180123 -0.006107108 0.0055268705 0.011788628 -0.00053853187 0.0026817995 -0.0028546674 0.007919826
-0.015511206 -0.007968744 -0.02523967 -0.017953487 0.019404981 0.013451894 0.0123635195 -0.0046240496
0.0030273641 0.0018974397 -0.005670798 -0.00349035 -0.0092812395 0.010405279 0.0029615515 0.0030111629
-0.0020179234 0.0090105 -0.018048443 0.008179459 0.001712184 -0.0006353944 0.012181811 0.0072322222
0.011563239 -0.010313829 0.0025702713 -0.005306303 -0.007139525 0.012556416 0.010495911 0.0035205807
0.0006287348 -0.0054468107 0.009399815 0.002560442 0.0044749114 0.0038014785 0.0016405721 0.006391216
0.0049645877 -0.0011188737 0.005574673 -0.011771186 0.0039436943 -0.0013653594 0.0024022588 -0.006528873
-0.0018131573 -0.009315268 0.0004141509 0.009691518 0.006237219 0.004148838 -0.002954959 -0.00047777683
-0.0007774487 -0.007312797 -0.00082537206 -0.0039117853 0.0089016 0.01139274 -0.0056056045 -0.006587586
-0.0023591605 -0.0015344139 0.01368628 0.008079693 0.00086368545 -0.0012904067 -0.007720597 0.0008447626
-0.009945045 0.0051491526 0.0023875532 0.013619065 0.012376842 -0.009490878 0.0055255024 -0.002492965
-0.0007029248 0.0049983505 0.016557544 -0.0042590243 -0.0069858353 -0.008045413 0.02257611 0.0018670602
-0.011357421 0.0037182681 0.0017464797 0.015182293 0.006582727 -0.006469031 -0.0082069095 0.027260253
-0.00037343823 -0.0059536844 0.011077481 -0.0008121837 0.0007783105 -0.0066742427 -0.005308475 -0.0039745234
-0.008149041 -0.009168615 -0.008808552 -0.0055383863 -0.020018814 -0.009331475 0.013903372 -0.008563981
0.0044661453 -0.00024395778 0.0031204233 0.0030327626 -0.0013143595 -0.018840075 0.00033387807 0.0025993
-0.0035823844 -0.023262931 0.008798136 -0.01638081 0.0053059654 0.0028200818 0.005560446 0.0009713013
0.02167219 -0.0032348533 0.005060159 -0.0118227685 -0.0074054524 -0.005577355 0.004996989 0.0062311096
-0.021049002 -0.006016448 0.008739488 -0.011207728 0.012420844 0.0020283083 -0.0136614395 0.010321082
0.0005916857 0.0073187533 -0.0009337482 -0.00024064792 0.015257214 -0.0032286562 -0.010526117 0.009899955
0.0012943908 -0.0049201953 -0.009572844 -0.010605508 -0.013429058 -0.007063707 0.009937401 -0.015697831
0.010303154 0.00011740044 0.0004014256 0.008257828 -0.011126562 0.00051911955 -0.010428302 -0.0026767754
-0.0115434555 -0.01039415 -0.012018702 -0.01464382 0.0010031572 -0.00080638233 -0.0012838453 0.0046198783
-0.005088034 -0.012961635 -0.010797974 0.012108452 0.009498189 -0.0053048413 -0.007387848 -0.011713902
-0.015301763 -0.016962342 0.0040307054 0.0018693671 0.0017456188 0.019101558 -0.006343752 -0.00010145244
-0.025572315 0.014649446 0.0011508194 -0.0033822958 0.0050734556 -0.0024366942 0.015020686 -0.0042012664
-0.0041154856 -0.015907679 -0.009693084 0.024251575 0.00046035936 -0.014684579 -0.023462487 -0.0012097628
0.0074742525 -0.012813325 -0.003091999 0.0038164388 0.01473497 0.014797564 -0.00016581861 -0.0018526852
9.7161515e-05 -0.0044684084 -0.0050844783 0.0015596546 0.0043324484 -0.015398736 0.004140844 0.0057088803
-0.007346179 -0.013807674 0.0076999636 0.0022540994 0.0011109817 -0.00022128834 -0.004036465 -0.0015112994
-0.0016374572 0.0021591121 0.0025368307 0.0006077037 0.016943974 -0.01695591 -0.010065609 -0.0002935267

action_model._discrete_distribution.branches.0.bias f4 [2]
00000000: 0000 0000 0000 0000
0.0 0.0
