results/Imitation1/Hero Knight Behavior.onnx (onnx, 81950 bytes, 14 tensors)

network_body.observation_encoder.processors.0.normalizer.running_mean f4 [11]
000000 b7 40 40 c0 f3 3e 97 40 d1 d6 40 41 8c 02 3d 41
       -3.0039499 4.726434 12.052445 11.813122
000010 f5 d9 51 42 8e 01 94 3d d3 84 98 3d b2 c6 e0 3e
       52.46285 0.07226859 0.07447209 0.43901592
000020 5a 93 a6 3d 1d 69 c7 3d 07 63 ab 3e
       0.08133574 0.09736846 0.3347399

network_body.linear_encoder.seq_layers.0.weight f4 [128, 11]
000000 c5 4b 12 be e8 7f fe 3d 94 55 ea bd e8 a4 e1 be
       -0.14286716 0.1242674 -0.11442104 -0.44071126
000010 d1 b7 3f 3f 24 87 63 3d 2c 27 5f 3e 8c 91 e4 3e
       0.74889857 0.055548802 0.21792287 0.44642293
000020 de a2 af bd 23 14 44 ba 12 da 6e 3e 86 26 38 bf
       -0.08575986 -0.0007479807 0.23325375 -0.7193378
000030 c3 da ab be 43 c1 66 3e 42 a0 c8 bd d7 6f 7a 3e
       -0.3356534 0.22534661 -0.09796192 0.24456726
000040 71 74 bb 3c e2 35 77 3d 1d 69 b9 3e b1 35 2f 3d
       0.022882672 0.06035412 0.36213008 0.042775813
000050 11 10 5e be e2 64 3e be 0e f8 35 3f 5f 67 54 bf
       -0.21685816 -0.18593171 0.71081626 -0.8297023
000060 48 7d d3 be fc 9b 1e be 59 c6 08 3e 5e ae b8 be
       -0.4130652 -0.15489191 0.13356914 -0.36070532
000070 b7 90 5b be a5 65 88 be 09 6e 94 be 05 a0 31 bd
       -0.21441923 -0.2664005 -0.289902 -0.043365497
000080 a9 fe 70 3d 1b 19 57 3f 97 9b 01 bf 2d 86 cb 3c
       0.058836613 0.8402268 -0.50628036 0.024844253
000090 a8 1b 35 bf 8d 90 a0 be c5 d0 92 be 7a 3b 27 be
       -0.70745325 -0.31360283 -0.28674904 -0.16331282
0000a0 c6 ab 97 be c1 d6 b6 be 41 5d c2 bb 68 de 03 bd
       -0.2962324 -0.3571072 -0.005931527 -0.032194525
0000b0 91 86 6a be 9a 08 14 bf 1a 11 63 3f 15 49 07 be
       -0.22902896 -0.57825625 0.8869797 -0.13211472
0000c0 25 34 e3 be df 1c 34 3e 25 ae ae 3d 78 73 69 3d
       -0.4437572 0.17589138 0.08529309 0.056994885
0000d0 05 bd f6 be ea 46 79 bd e2 dc d7 be fd 0b 02 be
       -0.48191085 -0.060858645 -0.42160708 -0.12699886
0000e0 36 db 53 3e 01 a7 67 3f 62 3a 8c 3d 81 ee 0e bc
       0.20689091 0.904892 0.06847073 -0.008723856
0000f0 4e 79 08 bf 0c aa 5e be f3 a4 1c 3f 38 8c 27 bf
       -0.53310096 -0.21744555 0.6118919 -0.6544833
000100 13 5c 09 bf 39 95 11 bf 9d b2 f7 3e 00 98 88 be
       -0.5365612 -0.5686832 0.4837846 -0.26678467
000110 67 c1 59 bf 23 fb a3 3e bb f9 6c 3f 8e b1 2f bd
       -0.85060734 0.3202754 0.9256856 -0.04289394
000120 80 63 a3 be a7 90 0e 3e 71 a0 dc bd b5 ee 2f 3e
       -0.3191185 0.13922368 -0.10772789 0.17180903
000130 ce 36 c8 3e c0 ef ca 3e 14 c9 01 be 2c c1 0c bf
       0.39104313 0.3963604 -0.12674361 -0.54982257
000140 db b0 ec 3e a1 0c 62 bf 0e a0 6b 3e 92 89 a3 3e
       0.4622868 -0.8830052 0.23010275 0.31940895
000150 e1 5c de be cc b0 84 3e 1c 53 39 3d 82 88 ef 3d
       -0.43430236 0.25916135 0.045245275 0.11695959
000160 73 45 1c bf e9 f0 17 bf 36 03 5d 3f 9d 8c a2 3d
       -0.6104347 -0.59351975 0.86333025 0.07936976
000170 3c 8c 8d 3d 2b e7 9b be 74 a4 5b bd ba d5 a8 3e
       0.06911513 -0.30449805 -0.05362363 0.3297556
000180 3e 13 c2 3e 24 16 52 bf 42 f3 04 3f 6a 7e 16 3e
       0.37905306 -0.82065034 0.5193368 0.1469666
000190 8b b0 4f bd 69 e6 bb 3e 61 cd 84 3e 32 3d 4e 3c
       -0.050705474 0.36699226 0.25937942 0.012587832
0001a0 95 cf 2d bd 59 ed 3a 3d 94 0c 27 be 2c 92 61 3e
       -0.042434294 0.04563651 -0.16313392 0.22028416
0001b0 1e f8 20 be 2d bb 86 3e ee 50 33 bc 9a 20 a7 be
       -0.15719649 0.2631468 -0.010944588 -0.3264206
0001c0 f8 8e 37 be cc 57 4f 3f 87 75 ba 3d 89 42 51 bf
       -0.17925632 0.8099334 0.09104448 -0.8174215
0001d0 da 10 31 bf 5c 77 8d 3e 4f 28 59 be bd 42 4d 3e
       -0.6916634 0.27630126 -0.21206783 0.2004499
0001e0 6c 9b 2a 3e 27 1c ce bb 8b 5a 18 bf e8 2e 83 3c
       0.16660851 -0.006289977 -0.5951316 0.016013578
0001f0 86 1c c3 bd 0e 45 67 3f 5d 85 2b be 66 63 b0 3d
       -0.09526925 0.90339744 -0.16750093 0.08612709
000200 1d d1 bb 3e e2 53 4f 3e de 48 01 be e4 fb a6 3b
       0.36682978 0.20246843 -0.12625453 0.0050959457
000210 b8 f9 8c bf 01 2a 56 3f 87 78 e3 3c 5e e1 ab bf
       -1.1013708 0.8365784 0.027767433 -1.3428152
000220 70 cc 00 3e 47 7c 04 3d 5e 84 fb 3d bc d1 8b 3e
       0.12577987 0.032345083 0.122811064 0.27308452
000230 df 73 45 be 50 0c 2d be a4 20 4e bd 48 9a 14 bf
       -0.19282483 -0.16899228 -0.050324097 -0.58047915
000240 14 d8 bb be d5 a7 ec 3e 5b df d7 bc 37 ec 8d bf
       -0.36688292 0.46221796 -0.026351621 -1.1087712
000250 19 72 ab 3e 0c 9a 6b 3e 17 2e 07 bf ee 4d 3a 3f
       0.33485487 0.23007983 -0.528047 0.7277516
000260 00 aa 9e 3e 26 36 4a bd c0 41 9c be ab 84 21 bf
       0.30989075 -0.049368046 -0.30518913 -0.6309306
000270 96 e3 40 3e 76 c3 fe be 92 00 fd bd f0 ef f7 3b
       0.18836817 -0.497585 -0.123536244 0.0075664446
000280 a0 7a f9 3d 1a 08 ed be c2 4e 13 bf c7 0e 18 bf
       0.12181592 -0.46295244 -0.5754205 -0.5939755
000290 28 70 19 3f 55 36 19 bf a3 71 71 3e 6c 61 91 bf
       0.5993676 -0.5984853 0.23578505 -1.1357856
0002a0 2f 47 b9 3e bf e3 25 3d 9c 60 36 be 03 c7 dc 3d
       0.3618712 0.0405004 -0.17810291 0.10780146
0002b0 cc 6d 72 be 83 1e 4e bd 88 6e 0a be 93 f6 a0 bd
       -0.23674697 -0.050322067 -0.13518727 -0.0785953
0002c0 e0 db 9f be e2 f6 d0 3e d6 1b 91 3e 2a d9 67 bf
       -0.3122244 0.40813357 0.2834155 -0.9056574
0002d0 30 8e 6d 3e dd 44 1e be 2c 9f c7 3d 6e 96 a5 3d
       0.23198771 -0.15455957 0.097471565 0.08085333
0002e0 df 27 9a bd 50 8c 55 3d cc c4 93 bc 39 7c a2 3e
       -0.07527136 0.052135766 -0.018038176 0.317354
0002f0 28 31 0b bf 79 a5 be 3d 6e 62 b8 bd 21 4a 42 3f
       -0.5437188 0.09308905 -0.09003149 0.7589436
000300 6b fd b6 bb 03 c2 46 bd 9f 47 97 bc d4 05 d3 bc
       -0.005584409 -0.048524868 -0.018466769 -0.025759615
000310 a7 da 3e bd 71 89 ef 3d 8a 8d c2 be 34 67 0d bf
       -0.046595242 0.11696137 -0.3799861 -0.552356
000320 47 0a 2f bf 00 e0 5e bf ab 96 f0 3e 28 bc ad bd
       -0.68375057 -0.87060547 0.4698995 -0.084831536
000330 19 9f 4b be d9 c8 3b 3d 55 7c 7d be 0d 00 13 3e
       -0.1988491 0.04584584 -0.2475446 0.14355488
000340 65 f8 de 3e 1b f6 54 3e 31 8d a9 3e b3 75 76 3f
       0.43548885 0.20797007 0.33115533 0.96273345
000350 d9 e8 32 be e9 08 56 bf 48 8e b6 bd ab cb 5d bf
       -0.17471637 -0.83607346 -0.08913857 -0.866389
000360 9c 3a 7e 3e 1a c3 c3 bd ab bb 67 be 33 cf 37 3d
       0.24827045 -0.09558697 -0.22630183 0.044875335
000370 3b b1 3c bf 56 58 8d be 2e 52 2a 3e d9 7c 7c be
       -0.7370793 -0.27606457 0.16632912 -0.24657
000380 41 84 87 bf 4f 14 18 bf 13 84 93 bc 7b 8b ec 3e
       -1.0587236 -0.5940599 -0.018007314 0.46200165
000390 60 f8 36 bc 40 a1 91 3b b5 cb 97 bd 62 3f d6 3e
       -0.011167616 0.0044442713 -0.07411901 0.41845232
0003a0 ae c2 5c be 77 0c df be c0 68 07 bf f7 27 c1 3e
       -0.2155864 -0.43564197 -0.5289421 0.37725803
0003b0 e6 00 54 bf e6 31 85 3e 39 0a 89 3e 76 94 ba 3d
       -0.8281387 0.26014632 0.26765612 0.09110348
0003c0 d3 97 a6 3e a7 42 c8 3d 67 fc d6 3e 60 fd 02 bf
       0.32537708 0.09778338 0.41989443 -0.5116787
0003d0 a9 6f e5 3e 6a bc fc be b6 cf 3f bf fc a8 0e 3d
       0.44811752 -0.493625 -0.74926317 0.034829125
0003e0 0e ac 01 3d c3 b8 4b bf 93 94 8b be a9 00 3d 3e
       0.031658225 -0.795788 -0.2726179 0.18457283
0003f0 4a ed 75 3e a9 53 8f 3e d5 29 a7 be 0e 6a 5f bf
       0.240163 0.27993515 -0.32649103 -0.872712

network_body.linear_encoder.seq_layers.0.bias f4 [128]
000000 cb 15 f2 bd e7 d8 a9 bd 5c e9 13 be 8d 7e 1e 3d
       -0.11820563 -0.08293324 -0.14444488 0.038694907
000010 0b 00 2d be d8 97 f6 3d 4f f0 f6 bd 30 72 a0 3c
       -0.16894548 0.12040681 -0.12057554 0.019585699
000020 2a 80 12 be 8d 1e b6 be d3 c4 e7 3d b9 e4 96 be
       -0.14306703 -0.35570183 0.11316838 -0.29471377
000030 7e 25 4f bd 8e ec 45 3e bd 8e 2f bd 76 44 41 3e
       -0.050572865 0.1932852 -0.042860735 0.18873772
000040 7e 80 1f 3e 22 dd 86 be 59 b5 19 3e 32 99 92 3d
       0.1557636 -0.26340586 0.15010585 0.07158126
000050 ec cf bb bd d0 f7 f3 3d 6b bd be 3d b0 69 8e 3c
       -0.09170517 0.11912501 0.09313472 0.01738438
000060 33 ea 07 3e 9c 67 c0 bd fb 00 9b 3d c5 5f 02 3d
       0.13272934 -0.09394762 0.075685464 0.031829614
000070 5a d3 ee bc 6d f6 0c be 74 8c 8b be e6 d3 86 3e
       -0.029153515 -0.13765879 -0.27255595 0.2633354
000080 01 6e 2d be 33 80 fe bc 58 03 dc 3e 3b 86 ce 3d
       -0.16936494 -0.03106699 0.429713 0.10084196
000090 e7 93 81 bc ee f2 8d bb d2 19 97 3c b8 b6 be be
       -0.015817596 -0.004331938 0.01844493 -0.37248778
0000a0 28 aa 41 3d a0 6d fe bd 10 79 f5 3c 31 e8 3d be
       0.047281414 -0.12423253 0.029964954 -0.18545605
0000b0 f8 ac 80 3d 1f 41 93 3e 6e c7 67 be 5f e6 a7 3c
       0.06282991 0.2876062 -0.2263467 0.020495592
0000c0 d9 66 34 ba d4 8c 85 bd 64 27 a8 bc 81 82 4a 3e
       -0.00068817806 -0.065210015 -0.020526595 0.19776346
0000d0 96 8d 4b be c7 c5 50 3a 50 2a e0 bd d8 ae c1 bb
       -0.1987823 0.00079640414 -0.109455705 -0.0059107356
0000e0 db 5b 90 3d 3b 93 88 bd 51 96 a7 bd 9f 99 cc 3d
       0.0704877 -0.06668707 -0.081829675 0.099902384
0000f0 cd 41 c1 bd 92 85 3e bd be 22 09 3e 23 fa 5d bc
       -0.09436379 -0.0465141 0.1339216 -0.013548407
000100 e4 dd 5c 3c d8 54 6d be 85 ea 96 bd 45 dc b2 bd
       0.013480637 -0.23176897 -0.0736895 -0.08733419
000110 bf 57 ed bd 27 3f 03 bd 71 14 ec bd 40 9f b5 bd
       -0.11589002 -0.03204265 -0.115273364 -0.08868265
000120 d0 ac ef bc 9b 15 83 3d 8f 5f 87 3e 3d c1 56 be
       -0.029257208 0.06400605 0.26440093 -0.20972152
000130 07 4a 84 be d4 67 07 3d 01 e2 b3 3d 89 c6 d4 be
       -0.25837728 0.033058003 0.08783341 -0.4155772
000140 b4 38 7e 3c fe 92 38 3e 08 9a ae be 0f 72 cf bd
       0.015516449 0.18024823 -0.34101892 -0.10129177
000150 8e 36 90 3d 80 78 fb be 8a 07 0d 3e 55 07 2e bd
       0.070416555 -0.49115372 0.13772407 -0.04248746
000160 10 0c 25 be c7 57 c3 be 7e 07 23 bc 08 a4 1c 3d
       -0.16117883 -0.38152906 -0.009950517 0.03824237
000170 59 02 49 be ab 94 4a 3e 18 3a c5 3c ad 7e 3b 3e
       -0.19629802 0.19783275 0.024075553 0.18310042
000180 cc b4 57 3e 1a 3f 54 3d 72 df e3 be a1 5f 14 3e
       0.21065062 0.05181799 -0.44506413 0.14489605
000190 d7 05 b4 bd 3d 3d 96 3e f8 77 58 bc 90 b1 e3 bd
       -0.08790176 0.29343596 -0.0132121965 -0.11117852
0001a0 78 a5 5a be d8 0a d6 3b 06 fb ce 3b f9 b1 40 be
       -0.21352184 0.0065320544 0.0063165454 -0.18817891
0001b0 39 03 0e 3d 35 24 bf bd 1c 55 ad 3e 8a a0 68 bd
       0.034671042 -0.09333078 0.33853996 -0.056793727
0001c0 20 37 02 bc 98 3e 91 bd 46 c9 ae be e5 fc 35 3d
       -0.007947713 -0.07092017 -0.34137934 0.044430632
0001d0 40 84 a2 bd 2e 83 c4 3d 55 f2 17 3d 36 e8 ba 3d
       -0.07935381 0.09595333 0.03709634 0.09126322
0001e0 b7 7a 98 be ca 74 28 3d 78 33 fa 3d 02 87 5c be
       -0.29781124 0.041127004 0.12216848 -0.21535876
0001f0 e4 0d a1 bc a4 9a 1b bd 8e 63 8a be 47 f1 72 3d
       -0.019659944 -0.037989274 -0.2702908 0.05931213

network_body.linear_encoder.seq_layers.2.weight f4 [128, 128]
000000 c9 da 84 be 70 a1 9f be eb 33 db bc e4 48 ec be
       -0.2594817 -0.31177855 -0.026758155 -0.4614936
000010 cd 81 aa bb 49 b8 5a be 34 8d 13 3e 0d 6c bb be
       -0.0052034617 -0.21359362 0.14409333 -0.36605874
000020 2c 4d df 3d 53 68 04 3e 96 8b a9 be 3d c3 48 3e
       0.10903391 0.12930422 -0.33114308 0.19605727
000030 bd 8e 2b be 6d 36 49 bf e7 0e 27 be a8 25 1d bf
       -0.16753669 -0.7859867 -0.16314279 -0.61385584
000040 9a c7 9e be 20 17 96 3e b7 05 82 bf fb bf 36 bd
       -0.3101166 0.29314518 -1.0157994 -0.04461668
000050 31 69 0e bc 4e 6b 38 be 5b 38 97 be e1 84 b6 be
       -0.008692072 -0.18009683 -0.29535183 -0.35648254
000060 d1 58 73 be fa 6d f9 3c 63 17 42 be 9d 0f 0f be
       -0.2376435 0.030447949 -0.18954234 -0.139708
000070 a2 5b b0 be ef 16 a8 be 60 f4 44 b9 1f c8 73 be
       -0.3444491 -0.32829997 -0.00018783053 -0.23806809
000080 d4 87 72 3e 7d 93 50 be 65 2a de be 33 d0 11 be
       0.23684627 -0.20368762 -0.4339172 -0.14239578
000090 e3 6b 43 be 8c a8 20 3d b1 14 fd be 7a 3f 92 3e
       -0.19084124 0.03922324 -0.4942985 0.28564054
0000a0 99 17 17 bf f1 9c dd 3e ef 4f 02 bf 90 de a3 3b
       -0.5902038 0.432838 -0.5090322 0.0050008968
0000b0 ba 07 39 bd 48 1f 28 bf c9 6a 53 be 6e ee 7d be
       -0.045173384 -0.6567273 -0.20646204 -0.24797985
0000c0 75 12 8e be b4 e2 c3 3e b9 3a c0 be c0 d0 43 3d
       -0.27748457 0.38258898 -0.37544802 0.0478065
0000d0 1d 00 67 3d 82 e2 90 be d5 7d ca be 1c 7f a2 bc
       0.056396592 -0.28297812 -0.39549127 -0.019836001
0000e0 6c 9d b6 be 6c cd b9 ba 33 31 19 3e 2b ee 13 be
       -0.35666978 -0.00141756 0.14960174 -0.14446323
0000f0 11 e5 b9 be 27 e8 5e be 57 77 79 be ff 69 9e 3e
       -0.36307576 -0.21768247 -0.24361931 0.30940244
000100 3c a0 eb bd f2 93 8a be 75 63 ae 3d 15 e6 6a be
       -0.11505172 -0.27065998 0.08515064 -0.22939332
000110 98 20 49 be 50 ee 79 bd 4b 1e 6d bd 99 d5 42 be
       -0.1964134 -0.061018288 -0.057890218 -0.19026794
000120 c6 cf 1d be 01 1c 9f bf ec 7f 82 be 89 14 ec be
       -0.1541129 -1.2430421 -0.25488222 -0.46109417
000130 90 03 14 3e 4f b7 40 be 36 bc 23 bf 32 70 86 3e
       0.14454484 -0.18819927 -0.6395906 0.26257473
000140 ea 63 d3 be ba 0a d9 bd 95 f8 a1 be f5 6a f9 be
       -0.41287166 -0.10597749 -0.31634966 -0.48714414
000150 f9 89 90 bd 3f e1 b9 3e 18 c7 3c 3d 92 57 9f bd
       -0.07057566 0.36304662 0.046088308 -0.077803746
000160 dc 19 11 bf 76 97 e8 3e 97 7b 70 bd eb 81 8c 3e
       -0.56680083 0.45428056 -0.058711614 0.2744287
000170 e0 5c 74 be 02 9f 1e be 74 29 b2 be 17 19 73 be
       -0.23863554 -0.15490344 -0.3479725 -0.2374004
000180 92 38 2e 3d f4 f7 90 bd d0 88 89 3e 87 84 48 3d
       0.04253442 -0.07078543 0.26862192 0.048954513
000190 5c fb 7c be d4 4e 34 bf 28 72 82 3d 80 34 f5 be
       -0.24705261 -0.7043278 0.0636943 -0.47891617
0001a0 26 ac 8e 3e 0d 3c bd bd bf e7 43 3c 09 99 1c be
       0.27865714 -0.092399694 0.011957108 -0.15292753
0001b0 ff b5 4a be 2c 76 08 be 02 d7 e4 bc c4 01 c7 be
       -0.19795989 -0.13326329 -0.027934555 -0.38868535
0001c0 ba 98 67 3e 51 b6 17 bf b6 6d a6 3d 6c 48 35 bf
       0.22616854 -0.5926257 0.081263945 -0.7081363
0001d0 c8 3a 89 3e 5d 0c 3a be 5c 58 f6 bd df 11 5f be
       0.2680266 -0.18168779 -0.12028572 -0.21784161
0001e0 24 16 53 3e 57 d5 4e bd ac 09 18 be b3 de ad bd
       0.20613915 -0.050496425 -0.1484744 -0.08489742
0001f0 54 8c 21 3d 00 48 a1 bd 81 67 d0 be 19 cc 31 3d
       0.039440468 -0.07875061 -0.40703967 0.043407533
000200 a9 02 df 3d f8 f4 60 bd fe 7d 07 bf 9a 8e 44 be
       0.10889179 -0.05492112 -0.52926624 -0.19195023
000210 32 3a 4d be f0 69 29 bf 0c 26 92 be 1a cb 03 3d
       -0.20041731 -0.6617727 -0.28544652 0.032176115
000220 4f c2 c6 be 81 75 3a be 5e 8c 04 be e2 93 88 be
       -0.3882012 -0.18208887 -0.12944171 -0.26675326
000230 99 cf 09 3e 6a f0 1e 3e ca 31 b2 bd 83 8e 9c 3e
       0.13458098 0.15521398 -0.08700903 0.30577478
000240 5b 58 55 3e 4f 15 e9 be fa 56 68 be 81 45 96 be
       0.20834486 -0.4552407 -0.22689429 -0.29349902
000250 19 40 26 3e ce 3a 4a be c4 9f fd bb 5f 2a e8 3c
       0.16235389 -0.19748995 -0.007739993 0.028340517
000260 ef 2b 92 bd 36 f2 c8 bd 44 a2 cc be 9b 26 25 bd
       -0.07137286 -0.09811823 -0.3996755 -0.04032002
000270 00 ae a5 be 5c c4 83 bd af d4 24 be 5e 14 36 3e
       -0.32359314 -0.06433937 -0.16096757 0.17781207
000280 62 b2 3b bf 0d 20 48 3e 13 53 7d 3e 2f 91 d4 3d
       -0.73319066 0.19543476 0.24738722 0.10379254
000290 f6 cc 40 3d 1a 0c db be de 57 6b 3b a6 19 8b be
       0.047070466 -0.4278267 0.0035910527 -0.27168006
0002a0 c2 cf a1 3b b2 60 7c be 56 ef 1f 3d 92 c4 7d 3e
       0.0049380967 -0.24646261 0.039046608 0.24782017
0002b0 e5 8f 79 3c ac 6f 3c 3d e6 e2 54 bd d0 72 a0 3c
       0.015232061 0.046004936 -0.0519742 0.019585997
0002c0 b1 80 f5 bd 7c eb 0b 3e 5a be 92 bd a5 cf 74 bc
       -0.119874366 0.13664049 -0.07165213 -0.014942084
0002d0 04 d1 16 3c ea 26 33 3e 6c b6 03 bf cb f5 b7 be
       0.009205107 0.17495313 -0.5145023 -0.35929713
0002e0 03 ae 35 bd fa 31 09 bf 41 8d 21 be 1d 7f 0a be
       -0.044355404 -0.53591883 -0.1577654 -0.13525052
0002f0 81 26 92 3e 9c 2a fd be d9 80 40 bc 81 03 1e 3e
       0.28545 -0.4944657 -0.01174947 0.15431024
000300 b2 dc 3a 3e 6f b3 38 3e 56 17 f3 3e 74 ab 19 be
       0.18248251 0.18037198 0.4747874 -0.1500681
000310 40 4c 44 3e e9 1c 47 3e 50 f1 58 3d 75 9b 14 bc
       0.19169712 0.19444622 0.05296451 -0.009070267
000320 95 e4 26 be 08 84 cc be 45 1e 43 be cc 34 c6 be
       -0.16298135 -0.39944482 -0.19054516 -0.38712156
000330 d2 e6 f5 3d a6 c5 0d 3e 91 76 16 bd 15 90 c8 bc
       0.12006916 0.13844928 -0.036734167 -0.024482766
000340 70 33 98 3e a3 fb 9b be 81 30 43 be 7c 17 a2 bd
       0.29726744 -0.3046542 -0.19061472 -0.079146355
000350 a9 60 14 bf 5c ad fb bd bc 6b 79 3e df d4 ec 3a
       -0.5795999 -0.12288925 0.24357504 0.0018068812
000360 d3 88 f7 3b 14 b4 64 be 73 e5 f9 bc 06 6e 5a 3d
       0.0075541525 -0.2233432 -0.030504918 0.053327583
000370 41 fa 21 3e 11 f3 21 be 8f cf 04 be 67 64 4d be
       0.1581812 -0.15815379 -0.12969802 -0.20057832
000380 fa 28 9d 3e b9 c0 05 3d 7f 28 46 be 65 24 1e be
       0.30695325 0.032654498 -0.19351386 -0.15443571
000390 01 14 d1 bd 69 d0 17 be ef 5f c2 3e bd 59 50 3d
       -0.102088936 -0.14825596 0.37963817 0.05086683
0003a0 4f 7d db be a0 4c 39 bd 9c 13 d5 be 78 dd f9 bc
       -0.4286904 -0.04523909 -0.41616523 -0.030501112
0003b0 51 2d f5 3d d2 2f 2e 3e 2e 8f 69 bd 43 c7 0c 3a
       0.11971534 0.1701043 -0.057021312 0.00053702685
0003c0 25 e7 66 be 3e 91 04 bd 1c 4a ad be e9 49 60 be
       -0.22549112 -0.032365076 -0.33845603 -0.21903194
0003d0 83 e5 c4 3e 9f 69 ed 3d 90 7f 09 be 1d 28 d3 3c
       0.38456354 0.11592411 -0.13427567 0.025775963
0003e0 37 43 b6 bd d3 6b 7c bd cf d6 a6 3c 79 7c 86 be
       -0.08899539 -0.061626267 0.0203661 -0.2626684
0003f0 ae 41 4a 3e 60 44 ba be 0e 77 55 be 7a 01 86 3d
       0.19751617 -0.3638029 -0.20846197 0.065432504

network_body.linear_encoder.seq_layers.2.bias f4 [128]
000000 8f 36 32 be 63 6d b7 bc bd 0f 2e be 67 2b 99 3e
       -0.17403625 -0.022391027 -0.16998191 0.29915926
000010 1a 0d 62 bb ac 7e 12 be 0b 0a e1 bd e0 c4 06 3e
       -0.0034492672 -0.14306134 -0.10988244 0.1316104
000020 08 cd b9 be 3f 2e d2 bd 26 e7 ca 3d c2 ac 35 bd
       -0.3628924 -0.10262727 0.09907369 -0.044354208
000030 87 ce 1e be 33 21 68 bc 92 97 4b bd 83 b3 bf bd
       -0.15508471 -0.014168072 -0.049705096 -0.09360411
000040 fd ef 09 be a3 01 f8 bc cb 7b 33 3c 7d 09 7c bd
       -0.13470455 -0.030274218 0.0109548075 -0.061532486
000050 fc ad 2c 3d 80 37 9d 3c c6 58 13 be ef 8e 86 be
       0.042158112 0.019191504 -0.14389333 -0.26280925
000060 33 96 c8 bd 0a 53 e6 bc f9 43 09 be e4 2c 94 3d
       -0.09794273 -0.028115768 -0.13404836 0.07235125
000070 21 ed c9 bd 7a 82 69 bd f9 a7 39 be 58 ca b8 bd
       -0.09859682 -0.057009198 -0.18130483 -0.09022969
000080 2e c1 62 bd c2 59 af bd 7d 5b ba bd 14 90 40 be
       -0.05536001 -0.08562042 -0.09099481 -0.18804961
000090 eb 38 4b bd 89 08 7f be 1d 6b 5f bd 5a 2f 07 be
       -0.049614828 -0.249056 -0.05454551 -0.13201657
0000a0 bc ae 3e 3d a5 0c 94 3d e1 67 3b be 80 e5 44 be
       0.04655336 0.07228974 -0.18301345 -0.19228172
0000b0 5c 7b fe bd 25 1c 1e 3d 36 f8 fc bd 9a 2b 1c bd
       -0.12425873 0.03860106 -0.1235203 -0.03812752
0000c0 7e c6 9d bd a3 0a e0 bc 69 35 39 be 5c 58 32 be
       -0.07703875 -0.027348822 -0.1808678 -0.17416519
0000d0 62 33 27 bb 79 7f b1 bb 87 c9 9d bd eb d6 ad be
       -0.0025512804 -0.0054168073 -0.07704454 -0.33953032
0000e0 30 db 48 be 2b e6 08 be 35 61 ed bc 8d e9 a0 3c
       -0.19614863 -0.13369052 -0.028977016 0.019642616
0000f0 b0 97 db bd 32 1e 49 bd f7 f8 65 bd 69 b3 9d bd
       -0.107222915 -0.049101062 -0.056145635 -0.077002354
000100 eb 0d 3c be 3b 83 79 bd 92 5f cf 3d cc 3b 01 3d
       -0.18364684 -0.060916167 0.101256505 0.031551167
000110 97 15 9a bc 3e 99 3a be 43 cc 67 3d 57 75 0e 3d
       -0.018809123 -0.1822252 0.056591284 0.034779873
000120 7c ef 78 bd 05 08 40 be cc 1b 6c be e9 b4 4f be
       -0.060775265 -0.18753059 -0.23057479 -0.20283855
000130 8c 6b 4b bd 71 9a 2f 3b e4 8e 2c be e3 23 ca bd
       -0.04966311 0.0026794935 -0.16851383 -0.09870126
000140 08 00 e8 bd fd e3 90 bd a0 7f b9 3d 3d e5 06 be
       -0.11328131 -0.07074735 0.09057546 -0.13173385
000150 2a bc 41 bd 00 38 0d be 94 6d 85 3d fd e9 a1 bd
       -0.047298588 -0.13790894 0.06515041 -0.07905958
000160 ab 7f 45 3d cb 42 f0 3c 99 95 df 3d 2e a1 3f be
       0.048217457 0.029328724 0.10917205 -0.18713829
000170 ca ff 94 bb 8e a3 b9 bd d7 f2 3e be d1 43 3c 3e
       -0.004547094 -0.09064399 -0.18647324 0.18385245
000180 aa be f2 bd 6e 98 9b bc 41 22 51 be 15 5b 50 3d
       -0.118527725 -0.018993583 -0.20423223 0.050868113
000190 74 e3 22 3d 2d fd 71 bd 84 d3 99 3c 99 ee e3 bd
       0.039767697 -0.059079338 0.018777616 -0.11129493
0001a0 4f 45 02 bd bf ef 18 bd da 7a 56 3d 9e 3c 04 bd
       -0.03180438 -0.037338015 0.052363254 -0.03228437
0001b0 cb 85 40 be 3e 72 96 3d 1a 08 d9 bd 58 8a 84 3d
       -0.18801038 0.07346009 -0.105972484 0.064716995
0001c0 4f 46 62 bd da 72 95 bd d6 ce ad 3c 60 2a 19 be
       -0.055242833 -0.07297297 0.021216791 -0.14957571
0001d0 69 ac 19 be ec d6 16 bd b1 db d8 3d e9 f8 a9 3d
       -0.15007176 -0.03682606 0.10588778 0.08299429
0001e0 68 fe a8 bd 25 e8 03 3e e0 61 18 3d a2 50 80 3d
       -0.08251649 0.12881525 0.037202716 0.062653795
0001f0 41 cd 88 be 09 4f a0 3d 3e 45 85 bd 27 61 7a bd
       -0.26719096 0.07827575 -0.065073475 -0.061127808

action_model._discrete_distribution.branches.0.weight f4 [3, 128]
000000 1e ac 18 bd 8f 70 b1 bd 67 7f 28 be 63 5d aa bf
       -0.03727352 -0.08664047 -0.1645485 -1.3309749
000010 de f4 97 be c1 c3 79 bd a5 9c aa 3c db ff 03 3e
       -0.29679006 -0.0609777 0.020826647 0.1289057
000020 2e 5a d6 3d 17 44 21 3d dc bf 90 3e 24 64 47 3e
       0.10466419 0.039371576 0.28271377 0.19471794
000030 48 21 d0 bb a4 06 16 be c3 fe 2c 3e a6 50 d4 bd
       -0.0063516237 -0.1465097 0.16894059 -0.10366945
000040 ae 1a 54 be 63 f5 9d be 0a 19 c5 be 8e 35 45 be
       -0.20713302 -0.30851278 -0.38495666 -0.1925871
000050 d5 ff 61 be 89 da 8c be 18 97 88 3c 60 d3 50 bd
       -0.22070248 -0.2751048 0.01667361 -0.050982833
000060 12 16 03 3c 26 b1 8d bd 7c f8 a3 3d f8 e2 00 bf
       0.008000867 -0.06918554 0.08006379 -0.50346327
000070 f5 82 25 be 14 be 2a 3d 77 66 a1 3e 07 de 2f bc
       -0.16163237 0.04168518 0.31523487 -0.010734088
000080 28 23 87 bc ae 67 3e bc dd 1e cb 3b 10 bf 02 3f
       -0.016496256 -0.011621399 0.0061987475 0.5107279
000090 e0 72 62 be 32 0a b0 3b cb 57 1a 3e f6 7f be bd
       -0.22114134 0.005372309 0.15072553 -0.0930175
0000a0 90 fd 1d 3e 02 a8 c1 3d d5 ac 74 3e 23 38 c1 3d
       0.15428758 0.09455873 0.23894055 0.09434535
0000b0 ab 2b 2c 3d bc b2 86 3c 80 12 e7 bd 0a 4c a1 3e
       0.042033833 0.016442649 -0.112828255 0.31503326
0000c0 56 29 18 bf 8d f5 2e be d7 69 64 be 13 42 0c 3e
       -0.59438074 -0.17085858 -0.22306 0.1369708
0000d0 ee 0d 3b 3e 82 27 bf be ec 66 6d bd 8f 7d 88 3e
       0.18267033 -0.3733483 -0.057959482 0.26658294
0000e0 c8 95 0f 3e 53 6a dc be 16 fd 19 be 9c c6 89 3e
       0.14021981 -0.4304987 -0.15037951 0.2690934
0000f0 0d 9c b8 3d 87 c4 e3 3d 5b 42 fd 39 61 03 4b be
       0.09014139 0.11121469 0.0004830536 -0.19825508
000100 ea b9 f5 3b 84 c7 8a 3e f2 d9 19 bf a0 cb e0 bd
       0.0074989693 0.27105343 -0.60098183 -0.109763384
000110 39 d3 88 bc f5 4f 3f be 1b d1 b5 be 37 82 4c bf
       -0.016702281 -0.18682845 -0.35511097 -0.7988619
000120 f4 0f a0 bc ed 01 b0 3c a3 b8 10 3c c6 9e bf bd
       -0.019538857 0.021485293 0.008833083 -0.093564555
000130 d1 8e f2 be 0e 65 5c bd 5c b8 8b 3e de 77 b2 bd
       -0.47374585 -0.05380731 0.27289093 -0.08714269
000140 08 d8 ea bc 76 43 31 3f d7 8b d6 3d 81 ac 8f 3d
       -0.028667465 0.6924356 0.10475891 0.070153244
000150 84 65 8d be 95 02 ac bd 09 3e 5d be e1 e1 c4 3d
       -0.27616513 -0.0839893 -0.21605696 0.096133955
000160 aa 5b 8a be d2 fd 1e be e1 b6 94 bc 67 5f 28 be
       -0.2702306 -0.15526512 -0.01815361 -0.16442643
000170 8d 57 4f be d8 34 6f 3a 01 0a 9b be 69 a1 6e be
       -0.20248242 0.0009125001 -0.3028107 -0.2330376
000180 1b c7 9f 3e 50 7f 68 be 5f b4 3a 3d 13 60 ac 3e
       0.31206593 -0.22704816 0.04558217 0.3366705
000190 1d 90 d0 3e f8 8a b1 3d 91 a5 90 3e 6c bd 46 3d
       0.4073495 0.08669084 0.28251317 0.04852049
0001a0 65 6b 37 be 73 c6 82 be ad 0e 84 be 24 d8 0c bf
       -0.17912062 -0.2554203 -0.25792447 -0.55017304
0001b0 5e 4f 39 3e c2 e9 82 3e f1 88 e7 3d 9c 82 31 bf
       0.18096682 0.25568968 0.113054164 -0.6933992
0001c0 01 10 0c bf 6b 70 c9 3d 31 27 87 bd f6 1b 4f be
       -0.5471192 0.09835895 -0.06599272 -0.2022551
0001d0 c1 28 65 be 41 b2 80 bd 87 b2 45 be 0e dc 03 be
       -0.22378828 -0.06283999 -0.19306384 -0.12876913
0001e0 6d f6 8e 3e bf e0 09 bd 56 0c 8a 3e 0d 30 e6 3d
       0.27922383 -0.0336616 0.26962537 0.11239634
0001f0 1d a7 34 3e 01 fc 9c 3e ad a1 58 3e 01 9d 72 3e
       0.17641874 0.30661014 0.21155424 0.23692705
000200 c2 8b 44 be c1 ed 99 be 02 50 8d 3e cf 4f 64 be
       -0.19193938 -0.30064204 0.27600104 -0.2229607
000210 70 0f 08 3e 49 eb 21 3e dd f5 0e bd b1 05 87 bf
       0.13287139 0.1581241 -0.034902442 -1.0548612
000220 b5 90 95 3e b7 a5 11 be 0e 0a 3f 3e 1e b2 18 be
       0.29211965 -0.14223371 0.1865618 -0.14911696
000230 d3 a5 e2 bd e3 9d d9 3d 0e fb 30 3e 78 02 1c 3e
       -0.11066785 0.106258176 0.1728327 0.15235317
000240 1f 2e a7 3e 27 5d 9a 3e da 35 67 3d 99 5e f4 3d
       0.32652375 0.30149195 0.05644784 0.119321056
000250 aa 59 07 be 41 10 9c bd f3 2b 7e be 58 b8 fc 3e
       -0.13217798 -0.07620288 -0.24821453 0.49359393
000260 82 9a 87 3e 6b 28 1d bf e9 69 c1 be ad 49 64 bf
       0.26485068 -0.613898 -0.37776116 -0.8917492
000270 44 cd 19 bf 17 a4 0e bd 3f df 01 3f 5a 35 16 be
       -0.60078835 -0.034824457 0.5073127 -0.1466879
000280 be bb c5 be 31 5d f1 bd fa 0f 1b be 0d 96 f5 bb
       -0.38619798 -0.11785353 -0.15142813 -0.007494694
000290 f8 9e f6 3e 58 95 ba bd 89 1f ec 3d 43 be e8 be
       0.4816816 -0.09110516 0.11529452 -0.45457658
0002a0 12 64 b1 be 96 82 93 3d 0d b4 30 3e 47 33 80 bd
       -0.3464666 0.07202642 0.17256184 -0.062597804
0002b0 2c 88 92 be 85 54 61 3e f7 a6 2d be 7b 71 9e be
       -0.28619516 0.22004898 -0.16958223 -0.30945954
0002c0 84 73 a8 be a5 02 e9 bd 8c ba f1 3d 37 45 a8 bc
       -0.3290063 -0.113774575 0.11803159 -0.020540817
0002d0 35 25 4e bf 7b f1 8f 3e da 5b c1 be 0e ab ab 3d
       -0.80525523 0.28113922 -0.3776539 0.083822355
0002e0 73 05 06 bd 6c e5 ab bd a1 d4 1a be f1 a0 7d 3e
       -0.03272004 -0.08393368 -0.15120174 0.24768426
0002f0 a7 86 c1 3d a2 a9 99 3e 2d 81 ae be 3e 35 1b bd
       0.09449511 0.30012232 -0.34082928 -0.037892573
000300 ab 27 7a bf 30 d5 8e 3e 3d 09 5e 3e c9 0a 85 be
       -0.9771678 0.27897024 0.21683212 -0.2598479
000310 9a ea 14 3c 1a 28 a9 3e f0 47 61 3e 1a fd 2f bd
       0.0090891365 0.33038408 0.22000098 -0.042965986
000320 9b 03 83 3d 78 8f 54 be a0 06 19 3e d1 62 1a be
       0.06397172 -0.20757854 0.14943933 -0.15076758
000330 e9 f5 d0 3d 50 81 6c 3e 2d 59 38 3e b0 e4 3f be
       0.10203154 0.23096204 0.18002768 -0.18739581
000340 71 b5 73 bd ed b5 e4 3d 47 78 6f 3e 2b cf 27 be
       -0.059499208 0.11167512 0.23385726 -0.16387622
000350 a0 75 20 3e 1d ee e3 be 1c b9 e5 be c4 3b ec 3c
       0.1566987 -0.44517604 -0.4486779 0.028837092
000360 2e 09 43 bd 94 4f 7d be 5e 8a a6 bd bc 1e 42 3e
       -0.047616176 -0.24737388 -0.0813186 0.18957037
000370 3c 47 77 3e b4 4c 95 be 1a a9 4a 3e f0 75 9d bf
       0.24148268 -0.29160082 0.1979107 -1.2301617
000380 ad 2b ae 3e f2 9f bc be db e7 38 be e2 50 fd 3d
       0.34017697 -0.3684078 -0.18057196 0.12368943
000390 f7 d8 7b bf 31 1f 33 bd 81 f6 25 3c ac 57 87 be
       -0.9837794 -0.04373092 0.010129572 -0.26434076
0003a0 29 10 cf 3d e5 7e 7d bc 93 65 03 3c ad be 8c be
       0.10110504 -0.015472149 0.008019823 -0.27489224
0003b0 a0 6e cc be 38 31 50 bd 00 61 f9 be 59 8d 62 bf
       -0.3992815 -0.05082819 -0.48706818 -0.8849693
0003c0 51 be 1a bf 3a 61 8c 3d cf fa bc be fe 7a cb 3c
       -0.6044665 0.06854482 -0.36910102 0.02483892
0003d0 5c 2b 89 3e d8 86 81 3d 22 8d 2d 3e 9f a8 a3 bd
       0.26790893 0.063245475 0.16948369 -0.07991146
0003e0 f0 c3 bb be 08 2d c8 be 17 dd 31 bf e8 b4 a4 3d
       -0.36672926 -0.39096856 -0.6947798 0.08042318
0003f0 f2 7d 0a 3e 73 b6 fd be 46 10 54 bd a3 8c b7 be
       0.13524607 -0.4955326 -0.051773332 -0.35849485

action_model._discrete_distribution.branches.0.bias f4 [3]
000000 d9 6c 26 be c9 ac 07 be 96 89 80 3e
       -0.1625246 -0.13249506 0.2510497

action_model._discrete_distribution.branches.1.weight f4 [2, 128]
000000 16 d5 8f 3e fa 1b 74 bd 81 73 3c be 3e 2f 42 bd
       0.2809226 -0.059596993 -0.18403436 -0.047408335
000010 9d b8 dc 3e 17 27 26 3d 7e cb bb 3d df ab 9d 3d
       0.431096 0.040564623 0.091696724 0.076987974
000020 1c af 9c bd df d8 cb 3d b8 16 81 be cf 40 ad be
       -0.07650587 0.09953474 -0.25212646 -0.33838508
000030 ac a8 cd 3d 8f ab 1f 3f 99 31 5f be 88 5d 00 3d
       0.10041937 0.6237115 -0.21796264 0.0313392
000040 5e 5c 4f bc 03 8f ec 3d 83 54 2d 3d 49 09 92 3d
       -0.012656299 0.11550715 0.042316925 0.07130677
000050 4a 89 c3 3c 38 f0 5e 3d 9c 32 ac bd a2 6b af be
       0.023869175 0.05442831 -0.084080905 -0.34261805
000060 16 48 23 bd 2f 9a bc be 56 f2 54 3d 3b d2 16 bc
       -0.03986367 -0.36836383 0.051988922 -0.009205396
000070 1c 6c 2a 3e 69 41 35 3e d3 bd db be b9 03 ad bc
       0.16642803 0.17700733 -0.42918262 -0.02111994
000080 3c d4 1b 3e 65 b5 5d 3e e3 00 13 3e 44 84 16 bf
       0.1521768 0.21651228 0.14355807 -0.5879557
000090 66 68 97 bd f8 fc 5a bd 95 d1 5b 3e b1 6c ce 3a
       -0.07392959 -0.053463906 0.21466668 0.0015748945
0000a0 92 e8 b1 3e 84 cd 5b 3d 88 ec ab 3e 67 3f 13 bd
       0.3474775 0.05366279 0.33578897 -0.035949137
0000b0 fd 47 49 be 0a 8e 18 3e 8a cc fd 3d 3a 51 88 be
       -0.19656368 0.14897934 0.12392528 -0.2662447
0000c0 f8 9d 1b 3e e3 ec 12 3f 04 81 84 bd 96 70 05 3f
       0.15196979 0.5739271 -0.0646992 0.5212492
0000d0 01 73 9e bc 98 1b 67 3d 03 86 05 3e 37 d5 7b be
       -0.019341948 0.0564228 0.13039403 -0.24593054
0000e0 9e 65 9f bc f4 da 1b bc 11 bb 2f 3e 32 78 16 3e
       -0.019457635 -0.009512652 0.17161204 0.14694288
0000f0 63 e9 10 bf 0c 25 ae bd 00 16 4b be b1 7a 0e 3f
       -0.5660612 -0.0850316 -0.19832611 0.5565596
000100 69 8c a4 3d 61 73 4e be 57 fa 02 be 94 e6 ed 3e
       0.080345936 -0.20161201 -0.1279081 0.4646498
000110 79 a0 8c 3e fe 71 41 be cd 9c 13 bd a0 23 81 bd
       0.2746618 -0.18891141 -0.03603821 -0.06305623
000120 83 dd 09 3e 94 60 b7 3d 9e 6a 3a bd ce 1a 86 be
       0.13463406 0.08953968 -0.045511834 -0.26192325
000130 7b 21 b0 bb 8b 02 0a 3e b9 0c ea be 8d 82 8c be
       -0.005375085 0.13477533 -0.45712832 -0.27443352
000140 3d e2 01 3e e8 86 54 bf 9c f1 e7 3e e3 bf ef 3d
       0.1268396 -0.8301835 0.4530152 0.11706521
000150 b9 03 a1 be cb a9 02 be 68 99 45 be 0a 3f ac 3e
       -0.31448153 -0.12760083 -0.19296801 0.33641845
000160 9e 20 dc bb 7e 75 ba bc bc 4a 34 bd ad 0c 25 3e
       -0.0067177555 -0.022761103 -0.044016585 0.16118117
000170 0c 1b a1 be ac aa 46 3e 67 84 bc bd 57 10 3b 3f
       -0.31465948 0.19401044 -0.09204941 0.7307181
000180 08 83 aa 3e 93 02 bf be 69 de bc bd 0f 48 af bd
       0.33303094 -0.3730665 -0.09222109 -0.08558666
000190 2b b7 d0 3e 12 90 1a bc 40 1c 19 3f b0 cf 1d be
       0.40764746 -0.009433763 0.5980873 -0.15411258
0001a0 38 f1 e4 3c f9 69 0d 3e e3 ee 8b bd 02 80 34 3e
       0.027947053 0.13809957 -0.068326734 0.17626956
0001b0 ee b6 9b 3d 9b e5 ee be 7d 3b 4a be 73 78 07 be
       0.076032504 -0.4665955 -0.19749255 -0.13229541
0001c0 26 ca 90 3e 76 78 5d be 2b be 28 3d 09 f1 58 bc
       0.28279227 -0.21627983 0.041196983 -0.013241061
0001d0 a1 9d 9b 3d 3c 7d e8 3d f2 85 f8 bd d5 a7 d1 3e
       0.07598425 0.113520116 -0.12134923 0.40948358
0001e0 86 64 a0 bd 8c b0 49 3f 49 5b ed bd 7b e3 81 3f
       -0.07831673 0.78785014 -0.11589677 1.0147547
0001f0 02 fe 89 be b4 c8 8e be 01 2a 9f bc 0b c2 de bc
       -0.26951605 -0.278875 -0.019429209 -0.027192136
000200 26 aa 8e be e8 ad 83 3d 51 58 3a 3e 92 dc 30 3d
       -0.27864188 0.06429654 0.18197753 0.043179102
000210 79 41 df be 16 01 b2 bc ea 38 c2 bd 0a 83 b4 bd
       -0.4360464 -0.021729033 -0.09483512 -0.08814056
000220 a3 61 8f 3d 2d 49 c3 bd 65 83 88 3e 73 f6 af 3e
       0.070010446 -0.095354415 0.26662746 0.34367713
000230 91 73 e5 bd 82 34 1b bf e0 0a 4f 3e 2d 9a 3d bd
       -0.11203683 -0.60626996 0.20218992 -0.04628961
000240 29 a2 ea bb 0d 25 f2 bd a1 61 1f bd c7 6b c2 bd
       -0.0071604443 -0.11823473 -0.038911466 -0.09493213
000250 a8 6a 27 bc 8d e5 67 bd 03 13 b2 3d c7 6f a9 3e
       -0.0102183 -0.0566154 0.086950324 0.33093092
000260 3d c9 ed 3c 15 7c be 3e 70 94 4a bd af 28 3b bc
       0.029026622 0.37204042 -0.049457967 -0.011423274
000270 a8 c5 45 be e0 77 30 be d4 d3 d4 3e ca 12 48 3c
       -0.19313681 -0.17233229 0.41567862 0.012211511
000280 c0 fe 33 be 50 18 5e be 80 65 12 be ce c4 11 3f
       -0.17577648 -0.21688962 -0.14296532 0.56940925
000290 f6 84 99 3d c4 ad 44 3d b5 b4 3f be 94 53 cc bc
       0.074960634 0.04801728 -0.18721278 -0.024942197
0002a0 3e b5 a4 be 0b 00 89 bd a4 31 af be 8a 5e 38 3d
       -0.32169527 -0.06689461 -0.3421756 0.045012034
0002b0 66 c2 4f 3e 35 36 0d be c8 05 00 be aa 31 88 3e
       0.20289001 -0.1379021 -0.12502205 0.2660039
0002c0 59 6b 0d be db 6e 16 bf dd ed 6a 3d 6a c4 0d bf
       -0.13810481 -0.587629 0.05735575 -0.5537783
0002d0 f4 2f e0 3c 54 eb 58 bd d1 42 01 be df 3a 6e 3e
       0.027366616 -0.0529588 -0.12623145 0.23264645
0002e0 fb 90 25 3b 98 bb d3 3b aa 92 35 be 4e bd 0b be
       0.0025263417 0.006461572 -0.17731729 -0.13646433
0002f0 5b 11 15 3f a1 6c ca 3d fa df 51 3e 7c 82 10 bf
       0.5822961 0.098840006 0.20495597 -0.56449103
000300 4a 80 ba bd b0 1b 59 3e 5e a0 05 3e 6e e7 f0 be
       -0.091065004 0.21201968 0.13049456 -0.47051567
000310 cb ff 93 be 7d 1e 43 3e d2 2f 28 3d 3b ac 8b 3d
       -0.28906092 0.19054599 0.04106123 0.0681996
000320 0a b3 0a be cc fd 90 bd ae b3 1a 3d bf 6c 87 3e
       -0.1354486 -0.07079658 0.037769012 0.26450154
000330 a8 f7 26 39 cb c4 19 be 7f ca ef 3e 28 ee 86 3e
       0.00015923253 -0.15016477 0.4683418 0.26353574
000340 ba e7 e1 bd fe f7 55 3f a7 26 e7 be d6 5f ee bd
       -0.110305265 0.8358153 -0.45146677 -0.11639373
000350 f3 8e a0 3e 52 75 0d 3e ee 82 52 3e d9 73 b0 be
       0.31359062 0.13814285 0.20557758 -0.34463385
000360 0d 63 9d 3b c7 2a d6 3b c5 5e 9a 3d 95 6d 2c be
       0.0048030675 0.006535861 0.07537607 -0.16838677
000370 5b 0e a7 3e b4 1b 39 be e2 70 a5 3d c5 30 3c bf
       0.3262814 -0.18076974 0.08078171 -0.73511916
000380 0b 55 b2 be e8 d1 c8 3e 9f 80 96 3d b3 08 aa 3d
       -0.34830508 0.39222646 0.07348751 0.083024405
000390 aa e4 d2 be d7 52 82 3c 16 a1 16 bf be 2e 0f 3e
       -0.41190082 0.015908642 -0.5883955 0.13982674
0003a0 37 11 48 bb b6 c6 fa bd 5b 0e 77 3d 84 ac 2f be
       -0.003052784 -0.12244932 0.060316425 -0.17155653
0003b0 4c 28 92 bd a2 db e6 3e eb 29 46 3e 8b 6b fd 3d
       -0.07136592 0.45089442 0.19351928 0.12374028
0003c0 34 6a 90 be a8 71 41 3e de 84 0b bd fd 44 ba 3c
       -0.28206027 0.18891013 -0.03406226 0.022737974
0003d0 b6 09 90 bd e3 d6 dc bd 68 d2 09 3e 81 bd c8 be
       -0.07033102 -0.10783174 0.1345917 -0.3920708
0003e0 74 8e bd 3d 60 77 43 bf 23 99 bd 3d d7 b6 80 bf
       0.092556864 -0.76354027 0.09257724 -1.0055798
0003f0 d9 dd 8e 3e 7b 48 90 3e ef 98 a1 3c dd 5b bd 3c
       0.2790363 0.28180298 0.019726245 0.023115093

action_model._discrete_distribution.branches.1.bias f4 [2]
000000 d5 09 2c 3e ba 09 2c be
       0.16800626 -0.16800585

action_model._discrete_distribution.branches.2.weight f4 [2, 128]
000000 8e 08 3c 3d 93 09 cb bd 83 93 41 3f 3e 0b 12 bd
       0.045906596 -0.099139355 0.7561571 -0.035655253
000010 5d 3e 12 3e 83 3e ca 3e f1 6d 8c 3e 1e 4d 18 3f
       0.14281602 0.39500818 0.2742763 0.5949267
000020 16 e5 c1 39 ad c9 35 3d dd 0c 91 be 5d 48 f0 3c
       0.0003698251 0.044381786 -0.28330126 0.02933138
000030 38 b8 64 bc a1 7f 24 3f 89 58 2f bd e0 34 1e 3e
       -0.013959937 0.64257246 -0.042809043 0.15449858
000040 a2 c5 8b 3b 58 fc 62 3d c3 46 f7 3d 06 c6 1b 3d
       0.004265503 0.055416435 0.120740436 0.038030647
000050 7f b6 43 bd 9d 5b d1 3d b4 9a ac bd 62 8f fe 3d
       -0.047781464 0.10222552 -0.08427945 0.12429692
000060 c9 af cd bd 63 a8 87 be d9 39 b2 3d 10 0e 12 3e
       -0.10043294 -0.26495656 0.0870244 0.14263177
000070 41 40 5f be 2f ec b2 bd 11 20 6a be d0 48 03 3d
       -0.21801855 -0.08736455 -0.22863795 0.03205186
000080 7d e4 0a 3e 35 47 9c bc eb 24 5d 3d b1 38 15 bf
       0.13563724 -0.019076923 0.053990286 -0.5828963
000090 bd 30 1b 3f 81 fe 77 3e ea c5 01 be 89 1a ad 3e
       0.60621244 0.2421818 -0.12673154 0.33809307
0000a0 89 e4 22 3d ea 35 7f 3f 44 29 86 bd 1d 24 70 3e
       0.03976873 0.9969164 -0.065508395 0.23451276
0000b0 bc 43 78 3c 9a a8 d0 3d ab b3 f9 3d f0 d4 61 be
       0.015152868 0.10188408 0.12192472 -0.22053885
0000c0 3d 91 dc bd 87 57 2c 3e d6 84 b8 3e 79 5a 42 3e
       -0.107698895 0.16830264 0.36038846 0.18979825
0000d0 02 f4 58 3f f8 c5 74 3c 66 35 a9 3d 14 d2 1c bf
       0.84747326 0.014939778 0.08262138 -0.61258054
0000e0 14 1f 2d bc b1 93 26 bd 1c d6 a6 3c 2f 77 74 be
       -0.010566492 -0.040668193 0.020365767 -0.2387359
0000f0 49 6c a1 be 0a 5a 35 be 16 7f 86 be 16 e4 c0 3d
       -0.31527928 -0.17710128 -0.26268834 0.09418504
000100 f0 7e 1d 3d bb 87 f1 be 99 9a 05 bd 28 a2 42 3e
       0.038451135 -0.47173867 -0.03261814 0.1900717
000110 d5 9c c2 3e bb 59 5b 3d ff ab 52 3b c4 80 97 bc
       0.38010278 0.05355237 0.0032145975 -0.018494017
000120 17 38 28 3d 76 94 88 3c 4e df ba be 6c 9c 35 be
       0.041069116 0.016672354 -0.36498493 -0.17735451
000130 b2 eb f1 3c 46 b4 95 3d 9c f1 2a bf 62 95 67 3d
       0.029531334 0.07309775 -0.66774917 0.056538947
000140 04 5f 83 bc 30 86 73 bf 50 d7 b5 be 37 4b 88 bc
       -0.016036518 -0.9512663 -0.35515833 -0.016637428
000150 66 3b c8 bd 0e b2 95 be 5a 84 ea 3e a3 73 2c 3f
       -0.09776954 -0.29237407 0.458041 0.6736395
000160 ef 08 0c be f0 df bf 3d 4f 6f 1b 3f 8c e9 75 bd
       -0.13675283 0.093688846 0.6071672 -0.06003718
000170 76 0e f0 3d d0 39 a4 3e c2 dc 57 bd c6 23 0c be
       0.11721508 0.32075357 -0.052700765 -0.13685521
000180 b0 5e 46 3d 9c d9 d3 bd a1 ed 98 be 96 03 eb 3e
       0.048430145 -0.1034424 -0.29868796 0.45901173
000190 46 83 c8 be 6a 7a 1e be d3 13 de bc 5a 0f 9c 3d
       -0.39162654 -0.15476385 -0.027109062 0.076201156
0001a0 0b 0e 45 be 94 1b 6d 3e 3f 7b 04 be e8 2c d4 3c
       -0.19243638 0.23155051 -0.1293764 0.02590032
0001b0 eb 2b 92 bc b9 b2 30 be a7 43 57 bd c9 a1 cb bc
       -0.017843207 -0.17255677 -0.052554753 -0.024857419
0001c0 bf ee 07 be 7f 34 78 3e f7 4e d3 3d 53 65 8d 3e
       -0.13274668 0.24238776 0.10317796 0.27616367
0001d0 17 3d 75 3e 5b b0 88 3e 06 95 14 bf b9 70 b6 3e
       0.23949085 0.2669705 -0.5803989 0.35632876
0001e0 12 f2 ef 3b d1 09 2c 3f e1 8e 09 be c5 ef 80 bd
       0.007322558 0.6720248 -0.1343341 -0.062957324
0001f0 6c 3a 03 3e f7 d5 d6 3e 52 58 91 3d 2b ad 1e 3c
       0.12815255 0.41960117 0.07096924 0.009684841
000200 34 ed 3a bd 3e b1 ca 3d 4a ce 40 bf 71 eb c3 3c
       -0.04563637 0.098970875 -0.7531477 0.023915978
000210 17 ba 0b be 96 45 c7 be 9f 39 7f be cd 09 15 bf
       -0.13645206 -0.38920277 -0.24924324 -0.5821808
000220 71 ee ea 3a 34 0c 3b bd 71 5c 8d 3e 2b 8c 1c bd
       0.0017923844 -0.045665935 0.2760959 -0.038219612
000230 d3 51 55 ba 73 7f 25 bf 75 62 29 3d ea 9b 1c be
       -0.0008137498 -0.646476 0.04135366 -0.15293851
000240 2c 6b 31 3b 90 de 31 bd 87 71 ff bd b6 ac 9b bc
       0.0027071936 -0.043425143 -0.124728255 -0.019003253
000250 85 0d 33 3d 7b fe cc bd 53 81 ad 3d 81 55 fc bd
       0.043714065 -0.10009476 0.08471932 -0.12320996
000260 82 71 cb 3d 76 67 89 3e 4b 94 b8 bd 0d a5 19 be
       0.09933759 0.26836747 -0.0901266 -0.15004368
000270 f1 09 6a 3e ab fd c4 3d 19 e9 6e 3e ed 8d fb bc
       0.22855355 0.09618696 0.23331107 -0.030707324
000280 5f 08 f8 bd 4f 6b 19 3c ec f6 31 bd 99 00 13 3f
       -0.12110972 0.009363963 -0.043448374 0.57422787
000290 a8 85 1b bf 23 72 67 be 27 32 f0 3d f9 f3 b2 be
       -0.6075082 -0.22602133 0.11728316 -0.3495176
0002a0 ce 25 21 bd 2f f4 7f bf 95 4e a3 3d b5 c6 7a be
       -0.039342694 -0.9998197 0.07973973 -0.24489863
0002b0 f7 5b 17 bd 22 72 d2 bd 69 03 eb bd c0 7c 53 3e
       -0.03695294 -0.10275675 -0.1147526 0.20653057
0002c0 80 cc e4 3d d7 88 38 be 8d dd b1 be 55 b8 56 be
       0.11171818 -0.1802095 -0.34739342 -0.20968755
0002d0 f8 25 58 bf ca 97 0e bc 05 39 ca bd 91 df 1c 3f
       -0.84432936 -0.0087031815 -0.09874157 0.61278635
0002e0 a0 05 cb 3b 1d 33 4b 3d bb 86 16 bd 7c 27 82 3e
       0.006195739 0.049609292 -0.036749583 0.2542075
0002f0 21 96 9f 3e 12 23 3a 3e 32 69 88 3e 50 9f df bd
       0.31169227 0.18177441 0.26642758 -0.10919058
000300 1b 47 ac bc af 8d f3 3e 90 b8 34 3d 59 f0 53 be
       -0.02103 0.47569034 0.044121325 -0.20697154
000310 60 02 ca be 87 af 33 bd ac cc c4 bb 04 7b 7b 3c
       -0.39454937 -0.043868568 -0.006005844 0.015349153
000320 bd e8 42 bd 0a 5a bc bc bd b6 b7 3e 02 fd 37 3e
       -0.047585238 -0.022992153 0.35881606 0.17967609
000330 89 9b b5 bc 97 56 b9 bd ce 5c 2f 3f 25 54 3a bd
       -0.022168892 -0.09049719 0.68500984 -0.045490403
000340 57 2d 18 3c c7 70 74 3f 06 2f b5 3e 0a 6c 92 3c
       0.009288154 0.95484585 0.3538744 0.017873783
000350 27 f6 e1 3d 0c da 9d 3e 56 d4 ea be 04 bd 2d bf
       0.11033278 0.3083042 -0.45865124 -0.6786654
000360 c3 7e 07 3e 40 fa e5 bd 35 f5 1b bf c8 07 8b 3d
       0.1323195 -0.11229372 -0.6092103 0.067885935
000370 cc cd d9 bd 9c 31 a5 be 0a 8e 45 3d 5a 72 ea 3d
       -0.10634956 -0.3226441 0.048231162 0.11447592
000380 4a 14 0c bd dd d1 de 3d 68 12 9b 3e 7d 39 f2 be
       -0.034199037 0.10879872 0.3028748 -0.47309485
000390 09 45 d1 3e 63 fa 11 3e 28 37 33 3c 72 35 93 bd
       0.40872982 0.14255671 0.010938443 -0.07187928
0003a0 3d 67 53 3e 48 9f 72 be 0b 28 10 3e 2a ef 98 bc
       0.20644851 -0.23693573 0.14077775 -0.01866873
0003b0 a1 f3 b9 3c 45 44 28 3e 06 4d 2a 3d c1 23 ab 3c
       0.02269918 0.16432293 0.04157736 0.020891072
0003c0 85 26 fd 3d b0 a9 71 be 8d 6a da bd 96 4b 91 be
       0.12360863 -0.23599887 -0.10664854 -0.2837798
0003d0 0b 40 72 be f3 92 80 be e9 0f 16 3f f3 c1 ba be
       -0.23657243 -0.25112113 0.58618027 -0.36476097
0003e0 10 c8 9a bb c5 91 2f bf 3b 67 04 3e ff de 8f 3d
       -0.0047235563 -0.685818 0.12930004 0.07024955
0003f0 b2 96 0a be b9 b4 f0 be eb 04 8c bd 05 e4 36 bc
       -0.13534048 -0.4701288 -0.068368755 -0.0111627625

action_model._discrete_distribution.branches.2.bias f4 [2]
000000 f8 73 12 3e f6 73 12 be
       0.14302051 -0.14302048

action_model._discrete_distribution.branches.3.weight f4 [2, 128]
000000 26 21 1f 3f b8 3b 50 be 60 e5 20 3d 9f 56 83 3d
       0.62159956 -0.20335281 0.03928125 0.06413006
000010 d5 f4 3b bd b1 f5 c9 bc d6 29 38 3d c4 44 af be
       -0.045887787 -0.024653288 0.044961773 -0.34232152
000020 9d c0 37 3f 45 51 8f 3e 1e ba 2e 3f 9f d4 c4 3e
       0.7177828 0.2799169 0.6825274 0.38443467
000030 55 8a 42 bc e5 48 5a 3e a8 79 c2 3e f9 10 a3 3e
       -0.011873801 0.2131687 0.3798344 0.31848887
000040 58 54 32 be 2e 84 2d 3e 4b 07 16 3e a2 1a ee 3d
       -0.17414987 0.16944954 0.1465122 0.116261736
000050 89 fb eb bb c1 f3 a1 3e 64 a9 82 be 6f a0 01 be
       -0.007201616 0.31631282 -0.2551986 -0.12658857
000060 16 6a 56 3b bb 29 95 bd b2 e0 84 3e c8 42 b4 be
       0.003271704 -0.0728335 0.2595268 -0.352072
000070 a7 0a 47 bf 22 04 70 3e 69 47 ec be cd 18 42 3e
       -0.7775063 0.23439077 -0.46148232 0.18954773
000080 96 f9 b0 3b 21 ec 53 ba 41 61 44 3e d0 ed 66 be
       0.0054008467 -0.0008084197 0.19177724 -0.22551656
000090 34 e7 03 3e eb fb 10 bf aa 76 fa be d3 d9 e9 3d
       0.12881166 -0.56634396 -0.48918658 0.114185
0000a0 d4 13 df bd 57 9a 87 3e 48 45 2f be 34 cb 70 3e
       -0.10892454 0.2648494 -0.17116272 0.23515016
0000b0 c3 a7 1e bd 46 d8 05 3f 67 ea 9c 3e a4 b8 6c 3e
       -0.03873421 0.5228313 0.30647585 0.2311731
0000c0 d8 07 4f bd 58 98 36 bd ee b8 51 3e c8 1d 8b be
       -0.05054459 -0.04457888 0.20480701 -0.2717116
0000d0 b8 d0 66 be 59 a6 ff 3b 8f 32 9e 3e bd b2 a2 be
       -0.22540557 0.0078018126 0.30897948 -0.3177699
0000e0 4b 86 e8 bc 81 ce 9f 3d 3f a4 3f bc 14 a1 d2 bd
       -0.028384348 0.07803059 -0.011696874 -0.102846295
0000f0 a1 54 b6 3e 36 a8 a3 be 65 e2 b0 bd 49 83 00 3e
       0.35611442 -0.31964272 -0.08636931 0.12550081
000100 42 24 4b 3e a2 64 0e bf a4 ae b0 bd d4 e8 9f 3e
       0.1983805 -0.55622303 -0.0862706 0.3123232
000110 90 9d d1 3d 0f 23 d5 be 8a 4c d6 3e 82 a3 a6 3c
       0.10235131 -0.4162831 0.4185527 0.020341638
000120 06 ed 45 3e bd a3 00 3d 02 d8 fc be 5f 77 c0 be
       0.19328699 0.031406153 -0.4938355 -0.37591073
000130 f8 d9 e1 3b 3f 12 86 be 95 cd d6 3c eb 8f f7 be
       0.006892439 -0.26185796 0.026221076 -0.48351988
000140 04 27 5b bb 17 30 91 be 11 26 9c 3e 5c 0f 49 bd
       -0.0033440003 -0.28357002 0.30497792 -0.049086913
000150 1b 31 f1 bb 05 c5 f9 bd bd c3 75 be 8d ec 3f 3e
       -0.00736059 -0.121957816 -0.2400045 0.1874258
000160 4d 11 db bc 78 aa 93 bc 64 a6 b5 3c 3f 71 4b 3e
       -0.026741648 -0.018025622 0.022174068 0.19867419
000170 8c 33 86 be 7a d6 1f 3d 0c 0a c9 bb cf 38 01 be
       -0.26211202 0.0390229 -0.006135231 -0.12619327
000180 5c 4b 92 bb e7 d8 47 bf ee bd ad be ba 8a d1 be
       -0.00446455 -0.7806534 -0.33933967 -0.40926152
000190 6b 70 15 be 19 91 de 3e 08 37 68 be 4f 1a 53 bf
       -0.14593665 0.43470076 -0.22677243 -0.8246202
0001a0 ec a0 22 be b5 ca ca bd f8 93 37 3e 22 a4 83 3d
       -0.158817 -0.099019445 0.1792754 0.0642779
0001b0 08 42 2c bc bd 53 b3 be 34 f4 2e 3e 65 4c 08 3e
       -0.01051379 -0.35024825 0.17085344 0.13310392
0001c0 db 7b ee be 04 3f b6 bd 0a 49 b8 be 60 0e 11 bf
       -0.4657887 -0.08898738 -0.35993224 -0.5666256
0001d0 be 80 8b be 61 6c af 3d 79 10 d0 be 51 a9 a2 3c
       -0.2724666 0.085655935 -0.40637568 0.019856127
0001e0 07 33 b1 bd 29 3d d8 bb 45 9e 9f 3d 25 ff 8c 3e
       -0.08652311 -0.0065990877 0.077938594 0.2753841
0001f0 9c 15 1b bf c1 18 07 be d6 84 bf 3e 2e df 39 bd
       -0.6057985 -0.13193037 0.37406033 -0.045378856
000200 0e f2 1c bf ce bf 65 3e 6d bf 55 bd bf 4f 66 bd
       -0.61306846 0.22436449 -0.05218451 -0.056228396
000210 a4 49 82 3d fe 26 bd 3c 90 9d 29 bd fa 8e ad 3e
       0.06361702 0.023089882 -0.04141003 0.33898145
000220 d3 c4 35 bf 17 9f 8b be d3 2e 2c bf 90 99 bc be
       -0.71003455 -0.27269813 -0.6725895 -0.3683591
000230 3a af 99 3c e3 8a 55 be cc c6 c3 be b5 b2 9e be
       0.018760312 -0.20853762 -0.38237607 -0.30995718
000240 2c 1a 19 3e 91 88 10 be f5 7c 21 be ab 9c f7 bd
       0.1495139 -0.14114596 -0.15770324 -0.12090429
000250 2c e5 c5 3c 58 8f 9e be d0 b1 82 3e 7c 4c 08 3e
       0.02415713 -0.30968738 0.25526285 0.13310426
000260 d1 59 91 bc e3 54 65 3d bf c5 7c be f9 51 a7 3e
       -0.017743023 0.055989157 -0.24684809 0.32679728
000270 e4 27 46 3f ba c6 6a be 3c 5b f0 3e 4b 3d 40 be
       0.7740462 -0.2292737 0.46944606 -0.18773381
000280 06 db 0f 3b 55 23 10 bc 4b 15 42 be f2 fc 59 3e
       0.0021950617 -0.008797486 -0.18953435 0.21287897
000290 43 ca e7 bd 9e 72 08 3f d7 14 f7 3e 45 1f b6 bd
       -0.11317875 0.5329989 0.48258087 -0.08892683
0002a0 bb 76 bc 3d 24 0e 8f be f4 c7 34 3e 12 3c 7a be
       0.092023335 -0.27940476 0.17654401 -0.24436978
0002b0 31 25 19 3c 75 71 03 bf bb 8f 9d be 02 a9 5a be
       0.009347246 -0.51344997 -0.3077372 -0.21353534
0002c0 e2 17 8c 3d df fb 4b 3d cc 0f 5e be b6 5a 89 3e
       0.06840493 0.04980075 -0.21685714 0.2682702
0002d0 12 c7 6d 3e 11 9f 32 bb df 29 9c be aa 9c a7 3e
       0.2322047 -0.0027255455 -0.30500695 0.32736713
0002e0 fb 4b b3 3c b1 a3 77 bd 34 1c f7 3a c2 1c fd 3d
       0.021886816 -0.060458843 0.001885301 0.12359001
0002f0 9b be bb be e3 64 a1 3e 9b 7a a1 3d eb 6e 01 be
       -0.36668858 0.31522283 0.07884713 -0.12639968
000300 8e 8f 45 be 78 c7 0c 3f 56 87 b8 3d e7 b3 9c be
       -0.19293043 0.54991865 0.09010188 -0.30606005
000310 07 b3 cc bd cb 20 d9 3e 67 0e db be 2c c7 0a bd
       -0.09995084 0.42407832 -0.42784426 -0.03388135
000320 51 3f 50 be d2 ae 22 bd 5b c7 fb 3e 5c cf be 3e
       -0.20336653 -0.039717503 0.49175534 0.37267578
000330 ff 09 e0 b8 dd 9b 80 3e 2f 8a b4 bc 0b 89 ea 3e
       -0.00010683014 0.25118914 -0.022038547 0.4580768
000340 2c 8b 9b ba 95 9c 87 3e b3 87 a2 be 68 90 70 3d
       -0.0011867038 0.2648665 -0.31744155 0.058731467
000350 0e 66 ae 3c 26 8c ff 3d 13 eb 6e 3e de 2c 4b be
       0.021288898 0.12477903 0.23331861 -0.19841334
000360 db 2e bd 3c 66 96 9d 3c d2 87 bd bc bc 4f 3b be
       0.023093631 0.019236755 -0.023136053 -0.18292135
000370 a1 27 86 3e 0d a2 f2 bc 57 ce 6d 3a ad d8 06 3e
       0.2620211 -0.029618287 0.00090715796 0.13168593
000380 5c f2 a4 3b bd ff 41 3f b6 8e ae 3e df ef ce 3e
       0.0050337743 0.7578085 0.34093255 0.40417382
000390 19 3d 15 3e e5 00 d7 be 49 7a 75 3e db 34 52 3f
       0.14574088 -0.4199287 0.2397243 0.821119
0003a0 0d 88 1f 3e bf a6 c4 3d 05 8d 52 be c0 99 95 bd
       0.15579243 0.09602117 -0.20561607 -0.07304716
0003b0 62 36 18 3c 98 ed b2 3e fe 45 39 be e1 9b eb bd
       0.00929031 0.34946895 -0.18093106 -0.11504341
0003c0 ce 6e ef 3e 43 62 8f 3d 19 49 b3 3e 6e 8e 13 3f
       0.46764225 0.07001164 0.35016707 0.57639205
0003d0 9d 2c 8a 3e 64 9c c1 bd ff 5f ce 3e 45 07 8e bc
       0.26987162 -0.09453657 0.40307614 -0.01733745
0003e0 fb 33 bd 3d 45 31 02 ba c6 61 88 bd d4 29 89 be
       0.0923843 -0.0004966448 -0.06659274 -0.26789725
0003f0 04 80 21 3f 3d 18 01 3e 9f 23 c1 be 2c 3f 50 3d
       0.6308596 0.12606902 -0.3772249 0.050841495

action_model._discrete_distribution.branches.3.bias f4 [2]
000000 e4 91 2f bd ff 91 2f 3d
       -0.04286374 0.042863842

98 f4 [11]
000000 b6 6d 1d 40 38 af 28 40 a7 f5 89 40 d8 57 8d 40
       2.4598212 2.6356945 4.311237 4.416973
000010 f2 37 bd 41 d1 92 84 3e 67 6b 86 3e b8 16 fe 3e
       23.652317 0.25893262 0.26253816 0.49626708
000020 96 f4 8b 3e 8c c9 97 3e cc 9c f1 3e
       0.27335042 0.29645956 0.4718994
