results/ppo/Hero Knight Behavior.onnx (onnx, 78523 bytes, 12 tensors)

network_body.linear_encoder.seq_layers.0.weight f4 [128, 5]
000000 ad 2a 12 3f ef 23 be 3e 06 4e a2 3f fd b2 3d 3d
       0.5709637 0.3713679 1.2680061 0.046313275
000010 55 e5 9b bf 82 ef 28 3f 3a 88 92 be 9c 50 d6 3e
       -1.2179362 0.6599046 -0.28619558 0.41858375
000020 43 56 84 be 62 3b 58 3d 4e 11 63 3e 4b 09 98 be
       -0.25847062 0.052791007 0.2217457 -0.2969459
000030 3c 0f 6b be 78 7a bb 3e 55 0c a2 bd 5e 48 1f 3e
       -0.2295503 0.36616874 -0.079125084 0.1555495
000040 79 30 8d be 7a 7c ce bd 7e b5 41 bf 77 1c b6 be
       -0.27576044 -0.10082336 -0.7566756 -0.35568592
000050 69 38 24 3e 2a d9 8b 3e 53 d4 c3 3e 32 40 03 3f
       0.16037144 0.2731412 0.38247928 0.5126983
000060 4c d1 54 3f b3 b1 87 3c d9 48 bd 3d 16 0e dc be
       0.8313186 0.016564226 0.0924241 -0.42979497
000070 67 0d 4d 3f a3 aa 6a be 6a 91 14 bd 11 61 c3 3e
       0.80098575 -0.22916655 -0.03627149 0.38159993
000080 9a f4 83 be f0 e5 31 be 15 ae a7 3d 04 9a 00 bd
       -0.25772554 -0.1737287 0.081875004 -0.03139688
000090 fa 9d e8 3e e3 b4 01 bf 70 b2 69 bf b6 e8 1d be
       0.45433027 -0.50666636 -0.912879 -0.15420803
0000a0 90 48 47 3d b5 33 17 3e c9 2a b2 bd bf 96 8d be
       0.048653185 0.14765818 -0.08699567 -0.27654073
0000b0 b4 4b 2b bf 65 9d c5 be 5f e3 13 be 98 6c 71 3c
       -0.6691239 -0.38596645 -0.14442204 0.014735363
0000c0 b8 1f 81 bf 23 89 ca be 0d 42 ca bd b3 59 1e bf
       -1.0087805 -0.39557752 -0.098758794 -0.6185562
0000d0 4f 2d 47 3e f3 0f e5 be 14 78 ea 3e 75 32 19 bf
       0.19450878 -0.4473873 0.45794737 -0.59842616
0000e0 b9 22 dd 3d f8 b1 5f 3f 79 d7 66 3f b6 d9 ba 3e
       0.107976384 0.87380934 0.90172535 0.36494225
0000f0 4f c5 f4 3e 0d a9 dd 3d 65 8a d5 be 99 1f 68 3e
       0.47806785 0.108232595 -0.4170715 0.22668304
000100 40 bd 3a be dc 90 c8 3e 75 ba 2e be eb 86 e5 be
       -0.18236256 0.3917302 -0.17063315 -0.44829497
000110 f4 13 2b 3e 82 12 1e bd 95 1b d2 be 99 3d e5 be
       0.1670683 -0.03859187 -0.41036668 -0.44773558
000120 cc ff 10 3d 06 9e f9 be 5d c5 b6 3e f3 26 7c bf
       0.035400197 -0.48753375 0.3569745 -0.9849693
000130 bb a7 54 bf 95 ac e0 be fd 20 03 3f eb e4 28 be
       -0.83068436 -0.4388167 0.5122221 -0.16493575
000140 da fe 5a 3e 3a 69 f6 3e ed b9 bd be 6f 52 b8 bc
       0.2138628 0.48127156 -0.37055913 -0.022500245
000150 17 cc 0b be 35 12 28 be e5 4b cd 3e 21 53 b8 3e
       -0.13652073 -0.16413195 0.40096965 0.36000922
000160 52 70 1d be e8 de f0 3d ff b7 ba 3d 64 25 1f 3f
       -0.15374878 0.11761266 0.09117126 0.6216643
000170 b1 3e 87 3e 58 fb c4 3e 0c a1 a8 be 25 b1 3b bd
       0.26415017 0.3847301 -0.3293537 -0.045823235
000180 8c da 7c be 29 ce c2 bd 6f 53 2d 3e 62 37 3e 3f
       -0.24692744 -0.09511978 0.16926359 0.7430326
000190 2e 0d e7 be 5f b1 e5 3e a9 1d 57 3f 4c 19 c9 3e
       -0.45127243 0.44861886 0.8402963 0.39277112
0001a0 66 53 4b bf f0 af cc 3e 13 cc 09 bf a9 fc d1 be
       -0.7942413 0.3997798 -0.5382702 -0.41013077
0001b0 cd 7e 43 3f d1 bb 30 3f c1 63 cc be 92 83 4b bf
       0.7636536 0.69036585 -0.39919856 -0.79497635
0001c0 e7 c6 73 3c b1 35 ac bd 0f 47 94 be b6 92 11 bf
       0.014878965 -0.08408678 -0.28960463 -0.5686449
0001d0 9b 4b 4a 3f b5 43 ae 3d d1 05 e7 be c6 f6 ab 3d
       0.79021615 0.08509008 -0.45121625 0.08396678
0001e0 aa d5 27 3f 5e 8b bf 3d d3 c7 0b 3f 17 42 ac 3e
       0.655604 0.09352754 0.5460178 0.33644173
0001f0 d9 08 03 bf 35 8b 5d 3d 57 09 fb be 8f 25 cd 3e
       -0.51185375 0.054087836 -0.49030563 0.40067717
000200 fb 4c 01 3e 64 d4 4e bf 20 4e 0d 3f 3f aa e4 be
       0.12627022 -0.8079283 0.55197334 -0.44661137
000210 50 6d 29 3d 57 05 9c bd 33 10 f9 be 07 91 1a 3e
       0.041364014 -0.07618206 -0.48645172 0.15094386
000220 7e ab 2e 3f 9e 0d 6d 3e 61 a4 29 3e 61 26 4e bf
       0.68230426 0.23149726 0.16566612 -0.8052731
000230 60 29 6a 3f 84 85 85 be eb 38 77 be 41 7a 4d 3e
       0.91469383 -0.26078427 -0.24142806 0.20066167
000240 6b 67 30 3e d0 2b 60 3f 58 f6 9a be 86 b4 44 be
       0.17226951 0.8756685 -0.3026607 -0.19209489
000250 9f c8 a6 3c 1b 4d da ba f7 0c 04 3e fe 48 82 be
       0.020359335 -0.0016655059 0.1289557 -0.25446314
000260 cb 06 11 3c cd 25 2c bf 15 3c be 3e be 27 a2 be
       0.008851717 -0.6724518 0.37155214 -0.31670946
000270 1f 80 f1 be d9 ac 87 3e dd a3 bc 3d a4 be a8 be
       -0.4716806 0.2649906 0.09210942 -0.32957947
000280 d0 57 87 3f a8 48 29 be b9 56 57 3e c0 d7 dc be
       1.0573673 -0.16531622 0.21029176 -0.43133354
000290 2b e4 a9 be 65 c5 d7 3e b4 d7 c5 be 5c 9e 18 be
       -0.3318189 0.42142788 -0.3864113 -0.1490416
0002a0 ea fb 8c 3e 9b e8 df be 29 99 9c bd ac d8 81 3e
       0.27535945 -0.4373215 -0.076464005 0.2536062
0002b0 56 52 c4 be 28 3b 23 3f 1a 41 9d be aa db 11 3f
       -0.38344067 0.6376214 -0.3071373 0.56975806
0002c0 1a b7 a3 be a6 12 12 be 7a 7a 2e 3f 9c db b2 3e
       -0.31975633 -0.14264926 0.68155634 0.34933174
0002d0 0b 3c 57 3f 08 6e 87 be 27 e7 bd bd 08 08 9f 3f
       0.84075993 -0.26451135 -0.092726044 1.2424326
0002e0 10 dd 8a bd 09 28 92 bd 21 28 66 3e 2e 4e 58 3c
       -0.067804456 -0.07136542 0.22476245 0.013202233
0002f0 9b 62 28 bf 6d c7 6a be ff d0 f4 3d d5 c1 4e 3d
       -0.6577546 -0.22927637 0.11953925 0.05047782
000300 14 ed d6 3d 3d 74 7f 3e f4 2b 05 bf 41 94 fe be
       0.10494438 0.24946685 -0.5202019 -0.49722484
000310 a9 5e 56 3e 69 e3 99 3e 6d 3c 66 bd 7d f6 c7 be
       0.20934547 0.30056313 -0.05620997 -0.39055243
000320 9b 0c 40 3f 4a cf 7f 3e 4f 63 cd be c3 07 a1 3d
       0.75019234 0.24981418 -0.4011483 0.078628086
000330 95 41 fc be 30 d7 c1 bc 1c 2c 85 3e ba 49 42 bf
       -0.49268785 -0.02366218 0.26010215 -0.7589375
000340 fb 39 37 bf 81 4f 88 3f 39 c3 f3 3d e0 be 5e 3f
       -0.71572846 1.0649263 0.1190247 0.8701
000350 8e eb 27 be 5b 9a cb 3e 54 bf 20 be bb 1b 46 3e
       -0.1639845 0.397662 -0.15697986 0.19346516
000360 3b 52 5a bd 2b 3d ab be 94 58 03 3e 57 a2 d5 be
       -0.053301077 -0.33445105 0.12826759 -0.41725418
000370 a3 78 b3 be ad cd c6 3d 98 04 8c bd a9 38 d4 3d
       -0.35052976 0.09707198 -0.06836814 0.103623696
000380 2d eb 3a 3e f0 77 46 bf c5 cc a8 be 09 89 0b 3f
       0.18253775 -0.7752676 -0.32968727 0.54505974
000390 e2 02 dc 3e 4a c9 35 3e 25 24 b8 3e 4b 38 a8 bd
       0.4297095 0.17752567 0.35965076 -0.08213862
0003a0 91 d9 04 bf 2e 69 c8 be dc 2f 0e bf c2 ee 9a be
       -0.5189448 -0.39142746 -0.5554178 -0.30260283
0003b0 b9 b2 83 3e f5 bc 04 bf b5 81 88 3d 7c c4 0f 3f
       0.25722292 -0.51850826 0.06665365 0.56159186
0003c0 ed 2d d3 3e 1b 31 95 3e fd 73 bd 3c 62 ba 27 3f
       0.41245976 0.29139027 0.023126597 0.6551877
0003d0 a5 64 a5 be e1 f9 38 3f 2e de 57 3f 33 ee 99 be
       -0.32303348 0.72256285 0.84323394 -0.30064544
0003e0 0e a5 42 3e 26 32 33 be 0d 8b 11 bd 01 37 1b be
       0.19008276 -0.17499599 -0.035533 -0.15157701
0003f0 e7 42 34 3f 83 61 88 3f b7 fa a1 be bd c1 9f 3e
       0.70414585 1.0654758 -0.31636593 0.31202498

network_body.linear_encoder.seq_layers.0.bias f4 [128]
000000 d2 11 b2 3b 37 56 27 ba 86 99 1d 3c 66 8d 8f b7
       0.0054342533 -0.00063833914 0.009619122 -1.7112772e-05
000010 e9 b4 9e bb 1a 23 82 3a 70 61 90 bb a6 87 59 b6
       -0.0048433435 0.0009928674 -0.0044061467 -3.2414478e-06
000020 76 88 75 bb 32 68 9c 36 f8 76 bb bb b4 9e 8f 3a
       -0.003746537 4.661292e-06 -0.0057209693 0.0010957331
000030 cb d2 6b b8 df b5 13 3b 2c c1 d5 bb 7e a4 59 bb
       -5.6224682e-05 0.0022538824 -0.006523272 -0.0033209617
000040 f4 1e ae bb 3e 61 6f bb 61 b7 35 3c d5 90 7f bb
       -0.0053137485 -0.0036526467 0.011091084 -0.0038996239
000050 24 e8 03 3b 63 19 23 bb 08 2c 00 bb 23 d4 80 bb
       0.002012738 -0.0024886958 -0.0019557495 -0.0039315387
000060 87 3e c7 3b a9 22 76 bb 7c 33 4c 3c eb 48 6c ba
       0.006080452 -0.003755728 0.012463447 -0.0009013551
000070 74 a5 d5 3b c1 88 ae 3a ad 22 6d bb 76 59 65 ba
       0.0065199677 0.0013315902 -0.0036183998 -0.00087489875
000080 a8 b1 f8 3b c2 20 7a 3a de 27 95 39 7f 8a 9e bb
       0.0075895377 0.00095416245 0.00028449198 -0.0048382874
000090 26 97 a4 bb 00 c8 ff b9 2e 7f a6 3a 57 68 bc ba
       -0.005022901 -0.00048786402 0.0012702697 -0.0014374357
0000a0 c0 8e c1 3b 82 4a 9f bb 51 7b 9a bc bc 5b 4b ba
       0.0059069097 -0.004861177 -0.01885763 -0.0007757505
0000b0 c2 02 ac bb 4c a3 b0 ba 6e 17 77 b4 fe 36 44 3b
       -0.005249352 -0.0013476401 -2.3012191e-07 0.0029940004
0000c0 c7 0d c3 bb 20 cc 10 3c 32 84 42 3c e0 e9 61 bb
       -0.00595257 0.00883773 0.011872338 -0.0034471676
0000d0 9a 15 91 bb cb 9d 3e 3b 2a cc 00 3b 61 26 3a bb
       -0.004427624 0.002908575 0.0019652941 -0.0028404223
0000e0 c5 a6 63 3c d2 b4 8d bb 98 b0 fb 3a 40 8a 8c ba
       0.013894741 -0.004324534 0.0019202409 -0.0010722354
0000f0 a6 24 2e bb 21 cc d3 3b 84 d3 10 3b 16 b6 ca ba
       -0.0026572137 0.006463543 0.002209873 -0.0015465643
000100 32 f3 f8 bb 77 a9 11 3a 0d 25 59 bb 0d 18 81 bb
       -0.0075973505 0.0005556563 -0.0033133656 -0.0039396347
000110 e3 58 79 bb 5e c0 d2 3b 6b 7c cd ba 5c 21 1d 3a
       -0.0038047365 0.0064316234 -0.0015677338 0.00059940456
000120 77 42 a1 3b 9f 6d be ba 72 7d 48 ba 94 08 f1 bb
       0.0049212533 -0.0014528519 -0.00076480873 -0.007355759
000130 f0 4e 52 bb cd 88 6e ba 15 39 b4 39 ac 1d 86 39
       -0.0032090507 -0.00090993644 0.00034374805 0.0002558058
000140 d4 0d c4 bb 33 83 d3 ba 7b 98 28 bb 70 08 28 bb
       -0.0059830938 -0.0016137123 -0.002572565 -0.0025639795
000150 ec d7 91 bb 6d 01 e4 3b a4 be 67 3a 6e 36 bf bb
       -0.0044507887 0.006958178 0.00088403584 -0.005835346
000160 dd e7 ae b9 a3 a6 00 bc 80 e2 de 3b bc a3 4b bc
       -0.00033360618 -0.007852229 0.0068019032 -0.012429174
000170 04 1e 00 3b b8 41 04 b8 7c 12 6f bb 84 8b aa ba
       0.001954914 -3.1532458e-05 -0.0036479523 -0.001301155
000180 d9 ef 53 3a 18 50 35 bc 40 a4 9c 3b 0f 3c 50 3b
       0.00080847513 -0.011066459 0.0047803223 0.003177408
000190 8c 50 07 bc 83 c9 d8 bb 06 64 bc ba 98 ed 4c ba
       -0.00825895 -0.006615819 -0.0014373071 -0.00078173866
0001a0 9f 62 34 bb b8 aa ef bb 31 37 21 bc 0c 65 9b 3b
       -0.0027524603 -0.0073140524 -0.009839819 0.0047422703
0001b0 10 dc ae bb b0 86 ff 3a 74 01 ab 3a 1a 04 69 3b
       -0.005336292 0.0019495096 0.0013046698 0.0035555423
0001c0 99 1f 6a bb 36 b4 cc 38 26 16 89 3b a4 d5 17 37
       -0.00357244 9.761045e-05 0.0041835485 9.050043e-06
0001d0 a7 da 2a ba 26 ea 83 3c 20 01 f0 ba 06 09 bb bb
       -0.0006517567 0.016102862 -0.0018310882 -0.005707863
0001e0 c5 d0 4c bb 2d 1d e4 3b 55 9a 33 39 aa ff 0a 3b
       -0.0031252366 0.006961486 0.00017128263 0.0021209517
0001f0 02 13 6f 3b 7b 26 1d bc d0 f7 8e ba ad e6 90 bb
       0.0036479835 -0.009591694 -0.0010907594 -0.00442203

network_body.linear_encoder.seq_layers.2.weight f4 [128, 128]
000000 88 f1 69 3d 40 07 5f 3d 38 9c 30 3e b9 c3 cd bd
       0.057115108 0.054450274 0.17247093 -0.10047097
000010 7c ed f9 bc 75 e4 d6 39 41 c7 0a bd 12 b2 49 3c
       -0.03050875 0.00040987474 -0.03388143 0.012310522
000020 53 40 69 bd dd 46 16 be 4b bb 99 bd aa e0 d5 3d
       -0.05694611 -0.1467547 -0.075064264 0.10443242
000030 f9 51 d7 bd 99 b4 59 bd 47 68 a7 3c a8 97 e6 3c
       -0.10513682 -0.053150747 0.020435465 0.028148487
000040 0e 3f 9c ba 39 fa f7 bc c4 ae 4a bd bf e6 93 3d
       -0.0011920647 -0.030270683 -0.049483076 0.07221746
000050 aa e9 8b 3d c7 42 74 3d d7 ea b0 bd b0 70 42 be
       0.06831677 0.059633996 -0.08638542 -0.189883
000060 ad 2d 6b bd 44 89 27 3e ca 2c 99 3d 25 26 4b 3d
       -0.057416607 0.16360956 0.07479246 0.049596924
000070 0a 21 1c be 1a 4b a0 3c 07 1f 0b 3d 74 12 c4 3d
       -0.15246978 0.019567061 0.033965137 0.09573832
000080 d2 12 04 3d 21 48 a3 bd 50 9c c2 bd 69 89 14 3e
       0.03224451 -0.07972742 -0.095024705 0.14505543
000090 26 28 0e be f6 51 c2 bd e3 82 77 bd ee be e4 bd
       -0.13882503 -0.09488289 -0.060427558 -0.111692294
0000a0 be 00 48 bb 7d 35 90 bd 4b 5b c2 bd 7a 8b 1f 3e
       -0.003051802 -0.07041452 -0.09490069 0.1558055
0000b0 90 5c f7 bc 43 e5 eb bd 87 f0 e9 3c f6 01 0f 3e
       -0.030195504 -0.115183376 0.028557075 0.13965592
0000c0 a5 cd a0 bd 6d ee 06 3e 19 1a c7 3d e7 7d 43 3d
       -0.078517236 0.1317689 0.097217746 0.04772749
0000d0 f0 89 30 3c 0f a6 26 bc 50 19 da 3d a9 52 cb 3d
       0.010775074 -0.010171427 0.10649359 0.099278755
0000e0 3c 8e 71 3c df 7e 88 3d e9 c7 b0 3d 71 11 1b 3d
       0.014743384 0.06664824 0.0863188 0.03785843
0000f0 4c c1 2f 3e 0f 8f f4 b9 79 5f 0e 3c 26 7a 64 ba
       0.1716358 -0.00046645894 0.008689755 -0.00087157113
000100 39 f0 37 bd 6f 70 a7 bd 43 cf c4 bd 4d b3 2a 3d
       -0.04490683 -0.08175742 -0.096098445 0.0416749
000110 b4 0c b8 bc ee dd 19 be 28 8e 32 3d b1 65 6a be
       -0.022466995 -0.15026066 0.043592602 -0.22890355
000120 70 95 4f be da c0 cc bd 44 31 06 3e da bc fe 3b
       -0.2027185 -0.09997721 0.13104731 0.0077739777
000130 2b 5f ae 3d 97 4f 41 be 51 58 d0 bc 3c 5c 9c bb
       0.085142456 -0.18878017 -0.025432738 -0.0047717374
000140 e4 ee 77 3d 3c 72 f2 bd e5 c1 11 3e 59 12 ff ba
       0.06053056 -0.11838195 0.14234121 -0.0019460424
000150 ed 88 8f bd 1f 51 d4 bd 1b 5a f0 bd ee 53 a8 3c
       -0.070085384 -0.10367035 -0.11735936 0.020547833
000160 98 27 b8 bd 0f 4e 45 bd 42 ed ba bc c3 7f 9f 3e
       -0.08991927 -0.048170146 -0.022818211 0.31152162
000170 26 4f 7a bc 47 47 6e 3d 39 ed 6d bd 3b 16 9c 3d
       -0.0152776595 0.058173444 -0.05808756 0.076214276
000180 9e 8a bd bb 9a 8a 7f 3d 9f ee b3 ba 87 98 9f bd
       -0.0057843467 0.06238804 -0.0013727731 -0.07792764
000190 6c 47 b5 bd aa 36 01 3e b0 f9 3c be 38 26 ad bd
       -0.08851513 0.12618509 -0.18454623 -0.08454555
0001a0 17 ae ae bd e9 4d 0d be fe 3f c2 bd 99 ae b5 bd
       -0.08529299 -0.13799252 -0.09484862 -0.088711925
0001b0 8c 06 7f 3b 02 4c d0 3d ca 05 9c 3d 7b 25 f7 3d
       0.0038913814 0.10170747 0.07618292 0.12067696
0001c0 08 76 87 3d 39 a2 ab bd 81 a4 32 bd b3 8e 0b 3e
       0.066143095 -0.08380551 -0.043613914 0.13628654
0001d0 5a 34 1b be 7e f3 a9 3d 22 fb dc bc 12 79 be 3c
       -0.1515669 0.082983956 -0.026975218 0.02325109
0001e0 3e bc 0a bc 3c 4a 93 bd a3 94 b4 3d 8a 48 4c be
       -0.008467732 -0.071918935 0.08817413 -0.19949546
0001f0 6f 04 01 be 66 39 7d 3d fa 1f 4a bd 74 70 9c bc
       -0.12599348 0.061822318 -0.0493469 -0.01909659
000200 60 87 88 bc d2 28 bb 3d 36 77 b5 3d 16 2d 15 bd
       -0.016666114 0.09138645 0.08860628 -0.03641995
000210 34 fe 3c bd 72 2b 52 bb 6d 21 4d bd b9 98 a0 bd
       -0.046140864 -0.0032069352 -0.050080705 -0.078416295
000220 c8 e8 89 bd 9c 59 10 be 3f ff 5f 3c ea 2d 13 bd
       -0.067338526 -0.14096683 0.013671695 -0.03593246
000230 7b 8d 11 be 6a 66 06 3c da 41 33 3e 36 cb a8 3d
       -0.14214127 0.008203128 0.17505589 0.082418844
000240 2c 70 8f bd b1 c0 a0 bc f9 ab 19 be 11 63 20 3e
       -0.07003817 -0.019623132 -0.15007009 0.15662791
000250 54 04 d6 bc 05 8c 0d bd f2 36 6c 3d 38 ad 87 bc
       -0.02612511 -0.03455736 0.057669587 -0.01656209
000260 8e 60 ab bd c0 91 1c be 80 c5 ee 3c 1a b6 00 3e
       -0.08368026 -0.15289974 0.02914691 0.12569466
000270 3b fa a5 3d 5c 98 91 3d 4a 3f 19 3e 7b db 3d bc
       0.08104368 0.07109138 0.14965549 -0.011587973
000280 8d e3 a7 3c 1e 75 86 bd 2f ba c4 bd f9 f3 f0 3b
       0.020494247 -0.06565307 -0.09605824 0.0073533026
000290 87 b0 b4 bd e9 d4 d1 3d 38 08 62 bd 03 27 42 3e
       -0.088227324 0.102456875 -0.05518362 0.18960194
0002a0 06 46 7c ba 4e 48 63 bc 5e 0b 4c 3d fe f0 1d 3d
       -0.00096234714 -0.013872219 0.049815528 0.038559906
0002b0 99 9e d3 3d 39 4b 8e 3d 95 cb e1 bd c1 03 56 bd
       0.103329845 0.06947941 -0.11025158 -0.052249674
0002c0 3a 22 88 bd 38 0f 93 3d 46 9a 85 bc 11 bc 88 bd
       -0.06647153 0.07180637 -0.016308915 -0.06676496
0002d0 48 90 d9 3a 87 d1 e2 bc e2 81 49 3d 06 85 0d 3e
       0.0016598785 -0.027687801 0.04919613 0.13820276
0002e0 1a 4f 20 bc fb 53 32 3d fb e1 39 3d 63 68 4c bd
       -0.009784484 0.04353712 0.045381527 -0.04990424
0002f0 0b 20 a2 bd c7 b6 45 bc 61 d8 34 3b 64 02 3d 3e
       -0.07916268 -0.012067503 0.0027594792 0.18457943
000300 9a 0d bd bc 95 4a d8 bd be 62 e0 bd 5d c1 60 bd
       -0.023077775 -0.105611004 -0.109563336 -0.054871906
000310 ca 73 90 3d dd 27 83 3d 53 39 93 3b 6d ae 57 3d
       0.07053335 0.06404088 0.0044929176 0.05265658
000320 41 77 07 3d 9b 5f af bc 36 16 d1 bb f4 46 ad bd
       0.033072714 -0.021407893 -0.0063808216 -0.08460799
000330 3c f4 35 3d 49 4e cf bd 88 02 03 3e 22 0a 06 3e
       0.044422373 -0.101223536 0.12793934 0.13089803
000340 e8 38 ba 3d 58 11 a0 3d 8b 84 7b bc 1c 72 f0 bc
       0.09092885 0.07815808 -0.015351425 -0.029351287
000350 c5 a3 ad bc d5 6d 42 bd 77 81 c8 3d 23 fc c8 3c
       -0.021196255 -0.047468025 0.097903185 0.02453429
000360 68 58 9e 3d 24 a8 89 bd bd 5c 88 bd 28 58 ac 3d
       0.07731706 -0.067215234 -0.066583134 0.08415252
000370 72 37 85 3d 6d 88 26 3d 14 c0 57 bc 4c 9b 98 3d
       0.06504716 0.04065745 -0.013168354 0.074514955
000380 4c 51 53 bd bc 99 15 3e 17 f3 21 3c 3d 34 6d 3e
       -0.051591203 0.14609426 0.009884617 0.23164459
000390 ab 24 c7 3c 91 39 7d 3e 49 50 ee 3d 96 07 bd bd
       0.024309477 0.24728991 0.11636407 -0.092299625
0003a0 8f 22 da 3d 0d d7 0c 3e be fe c3 bc ad b3 b4 3d
       0.10651123 0.1375391 -0.023925181 0.08823333
0003b0 f1 bf ca bd f9 98 e3 3c f3 8a 6d be 6a ba 30 3e
       -0.09899891 0.027782904 -0.23197536 0.17258611
0003c0 c3 a2 e2 bb 73 7a 97 3d e9 96 23 bd 14 d7 7e 3d
       -0.0069163754 0.07396402 -0.03993884 0.062216833
0003d0 98 11 84 3d 16 11 42 3e 55 83 a4 bd ef e7 30 3d
       0.06448668 0.1895183 -0.08032862 0.04318994
0003e0 43 e0 91 3d 94 af c1 3d 13 ce a7 3d b5 ce 1c bd
       0.07122853 0.09457317 0.081936024 -0.03828307
0003f0 52 49 77 bd 7b 31 86 be c2 1e 1d bc dc 4e 83 3d
       -0.060372658 -0.26209626 -0.009589853 0.064115256

network_body.linear_encoder.seq_layers.2.bias f4 [128]
000000 3b 54 14 bb c6 6e 27 bb a6 63 1b bc f9 2f 67 bb
       -0.0022633213 -0.0025548204 -0.009484207 -0.0035276397
000010 08 e2 8a b9 80 ae 51 bb 3a ae df ba 4f 7a 20 3a
       -0.00026489818 -0.003199488 -0.0017065473 0.0006121741
000020 2d 74 a7 3a ed 35 77 3a 63 c8 fc ba e8 f2 3c bb
       0.0012775712 0.0009430338 -0.0019285794 -0.0028831307
000030 a2 43 47 bb ea df 0b bc 70 a7 53 bb 5f b7 f4 bb
       -0.0030405303 -0.008537272 -0.0032295845 -0.0074681486
000040 23 da 21 ba 9a b3 df bb 79 ed fa ba 3e 1e 2e bb
       -0.00061741675 -0.00682683 -0.0019144259 -0.0026568319
000050 0e 16 00 bb d2 e5 48 bb 2d f4 98 bb a9 5a 08 bb
       -0.0019544396 -0.0030654562 -0.00466778 -0.002080599
000060 cd b5 6f bb 70 f1 46 bb 61 bb 31 3c e4 18 07 3b
       -0.0036576868 -0.003035631 0.010847897 0.0020614201
000070 49 c0 90 ba d7 dd c7 3b 53 b0 20 bb 56 47 5d 3a
       -0.0011043634 0.0060994434 -0.002451916 0.0008441111
000080 2a ae f1 ba fe 43 10 bb 78 47 84 bb 40 e6 06 3a
       -0.0018438746 -0.0022013183 -0.00403684 0.0005146004
000090 ad ec cc 39 ed 95 51 ba f0 ff 68 bb 3c 7c 90 3b
       0.0003908625 -0.0007995058 -0.0035552941 0.004409341
0000a0 2f 8a 45 3b a5 61 1f bb 1e 80 2f bb 4d 2a d6 bb
       0.0030142178 -0.0024319675 -0.0026779245 -0.0065358044
0000b0 87 80 fd 3b f0 2a ca 3b 32 f3 e1 b8 cf 2d e7 b9
       0.007736269 0.0061696693 -0.00010774135 -0.00044093883
0000c0 ba 14 79 bb 09 bc 64 bb 2f b2 80 bb 57 63 20 3a
       -0.0038006739 -0.0034902117 -0.003927491 0.00061183184
0000d0 08 0a a0 bb 65 28 b5 bb 1c 4b 0c ba 17 43 1c ba
       -0.0048840083 -0.005528497 -0.00053517683 -0.0005960925
0000e0 b6 10 8b bb 0c e3 a4 3b a9 79 63 ba 44 d2 1b 3c
       -0.0042439355 0.005031949 -0.00086774916 0.00951058
0000f0 51 53 b2 bb 48 f0 80 bb 0d 88 b8 bb 10 da 6c bb
       -0.005442061 -0.0039348938 -0.005631453 -0.0036140718
000100 52 d7 29 3b ae fa 6d ba 53 76 9b 3b 74 c6 64 bb
       0.0025915694 -0.00090781867 0.00474433 -0.0034908326
000110 40 65 0b bb 69 5d 6f bb e4 60 7b 3a 3e aa 99 3a
       -0.0021270066 -0.0036524183 0.0009589328 0.001172371
000120 8e 12 6c ba a9 71 ac bb a1 61 15 3b 18 32 c7 3a
       -0.00090054504 -0.005262573 0.0022793787 0.0015197424
000130 39 b9 31 39 57 d1 f3 39 b5 7d b4 ba d6 c1 a3 bb
       0.00016949036 0.00046504542 -0.0013770374 -0.0049974723
000140 10 f2 a3 bb 92 c4 0a bb ce 8d 6a bb ef ef c9 ba
       -0.0050032213 -0.0021174294 -0.0035790089 -0.0015406589
000150 c9 a0 d8 ba 10 61 f4 ba 62 6c a0 bb ab 8b 40 ba
       -0.001652741 -0.001864465 -0.0048957327 -0.0007345031
000160 64 60 49 3b 9f 7d 95 3b f0 21 9f bb 66 af 15 bb
       0.003072762 0.0045620943 -0.0048563406 -0.0022840141
000170 11 93 81 bb 93 f7 20 bb ab c1 e3 bb 01 12 a2 ba
       -0.0039542993 -0.0024561628 -0.0069505773 -0.0012364985
000180 4b 8a 8b ba 09 69 81 bb 9b 58 61 ba a7 b3 77 3a
       -0.0010646073 -0.0039492887 -0.0008596272 0.00094490725
000190 0e 26 22 3a 13 9e 9d bb 97 a0 08 b9 a7 da 89 bb
       0.000618548 -0.0048101037 -0.00013029795 -0.0042069736
0001a0 34 3d 94 b9 28 1d 9f bb 61 28 be 3b fc a7 5b 3b
       -0.0002827436 -0.0048557706 0.0058031534 0.0033516875
0001b0 a1 65 0a bb a9 09 7f bb 09 27 1a bb 22 31 e3 ba
       -0.0021117704 -0.003891567 -0.0023521802 -0.0017333368
0001c0 ac c0 7c bb 5b c9 a3 ba 64 70 44 ba 84 a8 6c bb
       -0.003856699 -0.0012495922 -0.0007493554 -0.0036111185
0001d0 70 15 de 3b dd 18 3a bc a9 c0 03 bc d4 46 14 3b
       0.006777458 -0.011358467 -0.008041539 0.0022625225
0001e0 28 3b 94 bb 57 73 fd 3a a6 75 89 bb 9d 29 f1 ba
       -0.0045236535 0.0019336742 -0.004194933 -0.0018399243
0001f0 44 8b 9c 3b b9 95 f7 ba be 08 37 ba d8 50 d9 bb
       0.004777344 -0.0018889225 -0.00069821987 -0.006631952

action_model._discrete_distribution.branches.0.weight f4 [3, 128]
000000 da 32 36 bc 55 9a 47 bb de f1 c1 bb fe fa 9b bc
       -0.011120522 -0.003045698 -0.0059187254 -0.01904058
000010 e5 e7 92 bc fc 52 93 3a 6d c8 2b 3c 96 18 0b bb
       -0.017932842 0.0011239941 0.010484797 -0.002122437
000020 66 d8 43 3b bf 8b c3 3c eb 49 8a 39 e5 67 3b 3b
       0.0029883622 0.023870347 0.00026376484 0.0028595862
000030 57 a6 ef bb 23 cc 77 3b 83 b8 b1 3b ee b8 09 3b
       -0.0073135304 0.0037810884 0.005423607 0.0021014768
000040 33 8b 67 bc 17 11 0a bb 5f c2 ae b7 09 59 1b bc
       -0.014132309 -0.0021067315 -2.0832927e-05 -0.009481677
000050 4f f7 90 ba 76 21 3b 3c a4 8d 31 bb ee e7 6b 3b
       -0.0011060032 0.011421552 -0.002709248 0.0035996395
000060 e3 64 b0 3a c9 f4 57 3c 60 03 ca 3b 86 14 24 3c
       0.0013457801 0.01318092 0.006164953 0.010014659
000070 15 4d 43 3c a9 53 7b bc f8 92 45 bb c7 66 d4 3b
       0.011920233 -0.01533977 -0.0030147415 0.0064819786
000080 5e 50 8b 3a 34 f2 47 3c 31 c4 67 bc 1d 54 97 3b
       0.001062881 0.012203742 -0.014145897 0.0046181814
000090 25 ca d5 bb e7 3f 1e bc ce 4a 38 bc c6 bf 58 3c
       -0.0065243416 -0.00965879 -0.011248304 0.013229316
0000a0 7a cc 38 3c 87 04 36 3b 3c 89 40 bc cf 20 b7 bb
       0.01127922 0.0027773695 -0.011751469 -0.005588628
0000b0 d0 90 39 3c 67 b1 6e bb f8 56 e1 ba 77 af f6 bb
       0.01132603 -0.0036421658 -0.0017192056 -0.0075282413
0000c0 c4 dc 21 3c ad 60 b8 3c 7d 36 63 b9 b6 22 79 ba
       0.009879295 0.022507036 -0.00021668705 -0.00095037685
0000d0 3a 64 83 bb c0 ec 7c b9 d2 3a ef bb 65 64 88 3a
       -0.0040097507 -0.00024120789 -0.007300713 0.0010405896
0000e0 a6 c7 af 3b f7 3b 81 3c 8d b1 a4 3b 53 14 b8 bc
       0.005364376 0.015775664 0.0050260485 -0.022470629
0000f0 31 46 ab ba e1 64 eb 3b ac d1 20 3c 71 e3 13 bb
       -0.0013067183 0.0071836566 0.009815615 -0.0022565986
000100 d3 f2 bf b9 0c 54 d1 39 fa 73 26 3c d8 e3 2b 3b
       -0.00036611277 0.00039926206 0.010159487 0.0026228335
000110 5b 22 68 3b 82 1c 99 3b d6 93 19 bb 17 a5 75 3c
       0.0035420868 0.004672588 -0.0023434064 0.014992974
000120 36 55 78 3b b0 50 a2 bc 13 30 ca bb bc b0 bc 3b
       0.0037892587 -0.019813865 -0.0061702817 0.005758373
000130 b6 41 8b 3c d8 e8 57 3a b9 f5 9f bb 74 89 4d 3b
       0.016999107 0.00082362955 -0.0048815873 0.0031362446
000140 c9 74 92 3b b1 4c 83 bc d0 c1 f0 3b 73 6d 73 bb
       0.0044694883 -0.01602778 0.007347323 -0.0037144094
000150 ab 15 a7 3b 88 d8 84 bb 87 0b f2 bc c3 7e 1b bc
       0.0050990186 -0.004054133 -0.029546512 -0.009490672
000160 3b f6 97 bb 91 f6 f1 3b a5 ae 13 bb e4 c5 f9 3b
       -0.0046375073 0.0073841293 -0.0022534516 0.0076224674
000170 ce 23 4f 3c 4d 5f 01 bc 3e bd 13 3a 07 b0 c9 3b
       0.012642814 -0.007896257 0.0005635804 0.0061550173
000180 35 2b 55 3c b4 99 b3 bb 49 e4 cf 3b 71 7a cd 3b
       0.01301079 -0.0054809693 0.0063443524 0.0062706997
000190 b2 ac 0b bc d5 05 96 3b 27 c4 1b 3c ee bb da bb
       -0.0085250605 0.004578332 0.009507216 -0.006675235
0001a0 5a 76 bd 3b d6 a5 e1 bc 43 06 a7 3c 7e 66 4f 3c
       0.005781931 -0.027544897 0.020388728 0.012658713
0001b0 ad 87 bb ba 00 32 93 3b 26 46 42 3b b0 9f 45 bc
       -0.0014307402 0.0044920444 0.0029643863 -0.012061998
0001c0 93 e0 71 bb 6b db 35 bc 26 14 4f bb f2 df 92 3b
       -0.0036907538 -0.011099677 -0.0031597703 0.004482263
0001d0 61 e0 08 3a c0 34 cb 39 9f 8e cd bb 68 53 75 bc
       0.00052214233 0.0003875848 -0.0062731053 -0.014973499
0001e0 9c 95 36 b9 61 48 9f 3a 60 f4 22 3c ea d2 ac 3c
       -0.00017412606 0.0012152308 0.009945959 0.021096665
0001f0 ab 02 8f bc 59 dc ee bb da 51 0c bc 5f 01 fd bb
       -0.017457327 -0.007289451 -0.008564437 -0.0077211107
000200 c8 1c a9 3b 71 66 26 bc 38 bf bf bb e0 42 42 3b
       0.0051609017 -0.01015626 -0.0058516525 0.0029641911
000210 82 4e 84 3a 73 d5 78 bc 55 99 5a bc 5e ec 70 3b
       0.0010094198 -0.015187609 -0.013342221 0.003676198
000220 83 67 82 ba 24 46 ca bb 03 45 7a 3a b8 d3 df ba
       -0.0009949062 -0.006172912 0.0009547027 -0.0017076647
000230 60 07 c9 ba 79 63 24 bc 49 9a c7 bb 3e ee 0c 3c
       -0.0015337281 -0.010033482 -0.0060913903 0.008601723
000240 5d ce a1 3a 61 c2 36 3c 1b c6 05 bb 21 52 aa 3b
       0.0012344826 0.011154742 -0.002041227 0.005197779
000250 4d 86 40 3c ed 68 90 3a fe 2d 2b 3b 00 b8 4c bc
       0.01175077 0.0011017598 0.0026119943 -0.012495041
000260 dd 3b 06 bc bb b5 86 bb b1 41 47 bb 79 da bd b6
       -0.008192983 -0.0041110194 -0.0030404145 -5.6580725e-06
000270 1e 5b e6 ba 61 3a 01 3c ae 6b 5d bc 61 cc 91 3c
       -0.0017574762 0.007887454 -0.013514442 0.01779765
000280 d8 b3 97 3c cf 43 22 bb b4 83 67 3c 8b 93 70 bc
       0.018518373 -0.0024759655 0.014130522 -0.0146836145
000290 7c fb a5 bc f3 cd 0b bc 5f 73 8d ba a0 0f 6b 3b
       -0.020261519 -0.008532989 -0.001079183 0.0035867468
0002a0 08 6d 07 3b 32 52 13 3b 57 90 8b bc 87 cc d9 ba
       0.0020664353 0.0022479412 -0.0170366 -0.001661674
0002b0 b8 31 f2 3b 17 86 b4 bb ab 08 1b 3c 5d 4a 23 bc
       0.007391181 -0.005509149 0.009462516 -0.00996646
0002c0 e5 52 81 bb 5a 12 ab bb b6 7e 12 bc 0b 2a 4c 3c
       -0.0039466494 -0.0052206935 -0.008941343 0.012461196
0002d0 4d ae ec 3b af 78 58 bc 47 fc b2 bb 80 f4 ae bc
       0.0072229267 -0.013212367 -0.0054622027 -0.021356821
0002e0 72 ba ff 3b 32 a1 e3 bb b6 77 e7 3b d5 00 35 bb
       0.0078042084 -0.006946706 0.007063831 -0.0027618904
0002f0 d5 e1 53 bc 78 3d a9 bb a0 59 c2 ba 93 1a 4f 3c
       -0.0129322605 -0.0051647983 -0.0014827736 0.012640613
000300 dc da 8a bb 2c 7b 28 bb 8e a4 63 bb f5 0e c2 3b
       -0.004237516 -0.0025708182 -0.0034735533 0.005922193
000310 0f af 51 b9 12 e7 11 3a ba b7 52 3c 41 36 0c bb
       -0.00019997008 0.0005565743 0.012861187 -0.0021394643
000320 22 83 b8 3b 99 15 91 3a d5 58 18 bb 94 d6 90 bc
       0.0056308666 0.0011069059 -0.0023246307 -0.017680444
000330 f5 bd 54 3b f8 88 3a bc 55 1c dd bb 37 f6 1d 3c
       0.0032461856 -0.011385195 -0.006747762 0.009641222
000340 63 af aa ba d6 58 62 3c 69 98 af 3b ce 31 4f bc
       -0.001302224 0.013815125 0.005358745 -0.012646152
000350 1f c4 56 3c 5a 67 20 bc d2 a3 db 3b 56 98 de 3b
       0.013108282 -0.009790266 0.0067028785 0.006793062
000360 22 72 c7 ba 13 98 91 bc bf c5 94 3a 1a f8 88 3c
       -0.0015216509 -0.01777271 0.0011350437 0.016719867
000370 9a 65 28 3b e9 f9 34 bc 2d 1a d3 3b 80 17 ad 3b
       0.0025695325 -0.011045911 0.0064423294 0.0052823424
000380 61 32 a6 bb eb c7 50 bc f9 8b 2d 3b f0 34 e3 bb
       -0.0050719236 -0.012742977 0.0026481135 -0.006933801
000390 66 22 32 bc a6 db e6 3a 9d 1d 4d bb e5 04 96 3b
       -0.010872459 0.0017613068 -0.0031298168 0.00457822
0003a0 04 75 51 3c 29 d5 5d 3a 1f 0e 06 bc 25 90 e8 3a
       0.012784246 0.00084622443 -0.008182078 0.0017743154
0003b0 0d e0 11 3a 42 0f 95 3b 3d 61 b4 bb fe bb 02 3b
       0.0005564697 0.004548938 -0.005504756 0.0019948478
0003c0 58 3f f5 3b ed 6a 3d bc 3f 76 c5 3b 3c b6 d8 39
       0.007484358 -0.011561138 0.006026059 0.00041334506
0003d0 4a a4 34 3b 5d 40 8a bb 70 c8 e5 ba 2e 02 cd bb
       0.0027563744 -0.0042190985 -0.0017531049 -0.0062563634
0003e0 23 06 1e bc 25 5f a0 bc 43 00 36 3b 53 93 12 bc
       -0.009645018 -0.019576618 0.0027771152 -0.008946258
0003f0 b6 55 99 3c 5e b0 a9 3a 2e d0 12 3c 96 0d 06 bb
       0.018717628 0.0012946238 0.008960767 -0.0020454875

action_model._discrete_distribution.branches.0.bias f4 [3]
000000 f5 8c 38 3b 32 7d 37 ba b0 49 ae ba
       0.0028160189 -0.00069995516 -0.0013297107

action_model._discrete_distribution.branches.1.weight f4 [2, 128]
000000 37 50 e8 3a c6 80 2d bc 58 79 af 3b 78 51 99 bb
       0.0017724101 -0.010589784 0.0053550415 -0.0046789013
000010 38 80 4b 3c cb 7b c7 bc 71 90 e1 bb 56 bc e3 3b
       0.012420706 -0.024351021 -0.006883674 0.0069499416
000020 49 0c 88 3c 36 f4 fb 3b a4 b8 6b bb 3f 37 07 3a
       0.01660742 0.0076890243 -0.0035968209 0.00051580736
000030 2d dc a6 bb 1f c2 5d 3c 0c 67 e6 bb af da 0d 3c
       -0.005092165 0.013535052 -0.007031327 0.008658095
000040 1a fa a5 39 ac 8b 1b bc 89 2c 81 3c 36 e0 bf 3a
       0.00031657593 -0.00949375 0.015768306 0.0014638964
000050 f0 d5 ee ba b1 ef e9 ba f3 21 3b 3b 56 f5 8f bb
       -0.0018221717 -0.0017847923 0.002855417 -0.00439326
000060 36 96 a3 3b b8 8e a3 3b dd d8 fc 3b c4 9b 01 3c
       0.004992272 0.0049913786 0.007716282 0.007910673
000070 f6 31 57 37 49 7b fd bb 7e e5 67 3c 32 c6 e8 bc
       1.2826631e-05 -0.007735644 0.014153836 -0.02841482
000080 fb 70 00 bb 36 78 86 35 c2 f1 7f b9 64 fe 65 bb
       -0.0019598592 1.0018764e-06 -0.00024408757 -0.0035094256
000090 fb 6f dd 3b c7 1d 08 bc 8e 2b 0b 3c 8d db e0 b9
       0.006757734 -0.008307881 0.008494271 -0.00042888187
0000a0 70 cf 16 3c bf 4b 10 bc 5d 75 95 ba ae 55 34 3a
       0.00920473 -0.008807122 -0.0011402775 0.00068792223
0000b0 4d fd 6d 3c 5f a3 e4 bb 8a 2e a1 3a 59 d3 a9 bc
       0.014525724 -0.006977483 0.0012297195 -0.020730661
0000c0 ed 02 dd bb 79 f5 55 bb ea 0c 3b bc d9 8a 5c 3c
       -0.0067447335 -0.0032647534 -0.011416653 0.013460838
0000d0 39 7d 06 bb 77 99 2d 3c 8d 2f 83 3b 5e 8a 94 3b
       -0.0020521416 0.010595671 0.004003471 0.004533096
0000e0 c0 e3 5f 3c 77 eb be 3c 79 ab bb bc 5f 31 38 3b
       0.01366514 0.023305638 -0.022908913 0.00281056
0000f0 8a ab 2e 3b 5d e2 af 3a 79 59 60 3c d7 9d 3c bb
       0.0026652538 0.0013418902 0.013693207 -0.0028780603
000100 e0 57 c0 bb 8c 8f 0d bc 91 cf 0f bb 7d 06 d1 bb
       -0.0058698505 -0.008640181 -0.0021943788 -0.0063789473
000110 3e 80 3d bc 11 3f 53 bc 84 c9 93 3c 8c 9b 69 3c
       -0.01156622 -0.012893454 0.018040426 0.014258277
000120 10 d7 86 3b d6 15 9c 3a 59 14 0c bc 0e 4d 87 3b
       0.004114993 0.0011908363 -0.008549773 0.0041290587
000130 a4 ff 22 bc 07 cc eb 3b cc b7 00 3c a1 9a 27 bb
       -0.009948645 0.007195953 0.007856321 -0.0025574344
000140 10 8b 13 bb ab 7d d2 bb dd 87 d0 bb 44 2a 0f 3c
       -0.0022513308 -0.006423672 -0.0063638524 0.008738104
000150 cf 01 93 bb 0c 2d 75 bc a8 eb 58 bc 56 fb c0 ba
       -0.0044862996 -0.014964353 -0.013239779 -0.0014723341
000160 cc fd 86 3b 7e b5 12 bc ca 64 10 3b d8 a1 3f 3b
       0.0041196104 -0.008954404 0.0022032731 0.0029240754
000170 9b 1b 68 bc 35 f5 2a 3b 3f 48 e4 3b a3 f7 b8 ba
       -0.014166738 0.0026086096 0.00696662 -0.0014111887
000180 1f 3c 55 3c d0 d5 ce bb 63 06 97 bb 20 fa a8 3c
       0.013014822 -0.0063121095 -0.0046089157 0.020627081
000190 1c b6 17 3c 96 55 14 3c 07 27 5d bc bd 66 3a bc
       0.009259727 0.009053608 -0.013498074 -0.011377034
0001a0 ec ba 27 bc 43 27 42 bc 66 50 ac 3c 81 5b 4c 3c
       -0.010237437 -0.011850181 0.02103443 0.012472988
0001b0 0e ed 5d bc 2f 9e 35 3b 8f 25 65 39 f5 20 17 3c
       -0.013545288 0.0027712693 0.00021853134 0.009224166
0001c0 16 b1 12 bc f5 01 aa 3b 3c 39 b5 3a 10 c2 d8 3b
       -0.008953353 0.0051882216 0.0013826261 0.006614931
0001d0 f5 22 45 bb f4 c3 ec bb 87 ba 68 bb 6a d3 b5 bc
       -0.003008065 -0.007225508 -0.003551157 -0.022195537
0001e0 4f fa 2d bc 9c 6f ef 3a 1c bf 23 3b ba f0 ec bb
       -0.01061876 0.0018267515 0.0024985736 -0.0072308453
0001f0 3d a8 75 3c 33 31 ee bb 95 b0 e3 39 03 50 ea 3b
       0.014993724 -0.0072690486 0.00043428378 0.0071506514
000200 13 33 95 3c 2a 2e 62 bc 0e a7 b7 3c 46 e2 a4 3c
       0.01821283 -0.013804952 0.022418525 0.020127427
000210 82 97 cb 3a b2 f2 14 bc 5c 7a b7 bb 0f 59 fd bb
       0.0015532824 -0.009091066 -0.005599303 -0.007731564
000220 40 ae 01 bb 7d 05 4b bc 67 cf ef bb 8d a0 49 3c
       -0.00197877 -0.012391445 -0.0073184255 0.012306345
000230 50 b5 8f bb a9 da a0 3c 35 16 38 ba 5a 34 e6 3b
       -0.004385628 0.019635515 -0.0007022352 0.0070252838
000240 d9 e5 09 bc 0e 21 b5 bb bc e4 d5 3b 22 3d f0 bb
       -0.008416616 -0.005527622 0.0065275114 -0.0073315063
000250 a2 9c 96 bb f3 bb 42 3c 05 d7 64 3b 53 16 34 bc
       -0.004596309 0.011885631 0.00349182 -0.010991651
000260 a5 58 b4 bb e9 71 42 3c 5b cf 69 bb b3 6f 64 bc
       -0.0055037313 0.011867979 -0.0035676572 -0.013942647
000270 38 87 f5 bb 97 f1 93 3c 87 aa e6 3b 19 f5 2a 3c
       -0.007492926 0.018059535 0.0070393714 0.010434412
000280 df 0d 32 bb aa c2 59 3c 55 ae 0c bc 58 17 8e bc
       -0.0027168912 0.01329104 -0.008586486 -0.017345116
000290 7e 49 b0 3b cf 20 59 bb 0c c8 d8 3b 8c 9b 39 39
       0.0053798547 -0.0033131128 0.0066156443 0.0001770092
0002a0 cc 61 b1 bc 14 b5 31 ba 21 58 06 3c ce d2 a5 ba
       -0.021653078 -0.0006778997 0.0081997225 -0.0012651326
0002b0 26 aa aa bb c1 ca 64 3c 0d fe 3b bc 8c b6 15 3b
       -0.0052082716 0.013964356 -0.011474145 0.0022844402
0002c0 d4 ff e7 bb c9 44 4f bc 53 f5 b0 3b a5 78 9c 3b
       -0.0070800576 -0.012650677 0.0054003387 0.004775124
0002d0 69 79 14 3b bd 73 07 3c 9e 56 f3 3a 3d b7 2b 3c
       0.0022655374 0.00826734 0.0018565243 0.010480699
0002e0 33 86 bd bb 02 59 c3 3b 6d bf 34 b8 7a 87 ab 3c
       -0.00578382 0.0059615383 -4.3093623e-05 0.020938624
0002f0 9a df f3 39 99 c5 9a bb 3d 6b 95 3c 33 2d 2b 3c
       0.00046515168 -0.0047232625 0.018239612 0.010447788
000300 b4 64 a7 bc 8f 97 2b bb 6f 1a 68 bc ec 09 94 3b
       -0.020433761 -0.0026182865 -0.0141664585 0.0045177843
000310 2b b5 4a bc be 75 44 bb 5c f1 06 3c 01 f2 ed bb
       -0.012372295 -0.0029977406 0.0082362555 -0.007261515
000320 68 3f 91 3c 55 94 b0 bb 7f c0 48 3c 0f 18 16 3c
       0.01773043 -0.0053887763 0.012252926 0.009161009
000330 c8 17 f8 bb 45 00 1e bb e7 7d ef bb d1 c3 1a 3c
       -0.0075711943 -0.0024109047 -0.00730871 0.0094461
000340 b3 bb 91 3b eb 4d 44 3b e8 6f 52 bb c9 dd 5f 3b
       0.0044474243 0.002995367 -0.0032110158 0.0034159294
000350 4f 02 81 bb c3 8e 76 3b 68 24 45 3c c4 41 25 3c
       -0.003937043 0.0037621714 0.012032606 0.0100864805
000360 9c 99 15 bc eb 7b 8a bb b7 74 64 3c 2b 64 91 bb
       -0.009130862 -0.004226198 0.013943843 -0.00443699
000370 53 a9 9d 3b f5 31 a8 ba fd c2 d2 3b 91 2a 19 ba
       0.004811445 -0.0012832271 0.006431936 -0.00058428297
000380 82 46 21 3c 93 6e 15 3c 8e 12 ac 3a 06 31 ba 3b
       0.0098434705 0.009120601 0.0013128088 0.0056821136
000390 b6 8f 8a 3c 40 2b a3 3b a7 95 a9 bb 5e fe c1 3b
       0.01691423 0.004979521 -0.0051753107 0.0059202155
0003a0 04 37 85 bb 60 af e1 39 16 91 3c bc 0d be 98 3b
       -0.0040653963 0.0004304601 -0.011509201 0.0046613277
0003b0 08 62 61 3c 61 a5 53 bb cd f6 0d bc e5 82 0f 3b
       0.013756283 -0.0032294618 -0.008664799 0.0021898088
0003c0 e5 6a 8c 3b c5 fc 2e bb 35 18 67 ba 8e 10 f9 3b
       0.0042852038 -0.0026700955 -0.0008815558 0.0076008504
0003d0 4a dd b2 ba 38 31 8a 3b 54 de b4 3a 09 dc a1 3c
       -0.0013646272 0.004217293 0.0013799169 0.019758241
0003e0 fc 83 04 ba c3 f6 31 bc 49 39 d3 bb 30 e6 57 b9
       -0.00050550676 -0.010862055 -0.006446038 -0.0002058975
0003f0 0a 21 69 ba 92 80 f3 3a f6 e1 9b bb 64 de 15 3c
       -0.0008893168 0.0018577746 -0.0047571613 0.00914726

action_model._discrete_distribution.branches.1.bias f4 [2]
000000 fc 34 14 3b fc 34 14 bb
       0.002261459 -0.002261459

action_model._discrete_distribution.branches.2.weight f4 [2, 128]
000000 ee b6 4c ba d6 fe 25 3c 38 30 ef 3b f0 7a 99 3c
       -0.0007809241 0.010131558 0.0072994493 0.018735379
000010 08 91 59 3c 4a 3b 6f 3c 47 03 1b bc 5f fe 74 bc
       0.013279207 0.014601538 -0.009461231 -0.014953225
000020 da f7 1f bc 3f 29 4d bc 65 2b c3 3a 08 4a 3e 3c
       -0.009763682 -0.012522041 0.0014890252 0.01161433
000030 48 c4 fa ba 3b 47 9e 3c 72 1a 2d ba 34 5f 17 b9
       -0.0019131983 0.019321075 -0.0006603367 -0.00014435948
000040 38 54 b5 bb ee 36 60 3c 3d c5 a2 bb cb 43 8a bb
       -0.0055337213 0.013684971 -0.0049673603 -0.0042195073
000050 65 d1 0d bb 27 4a 0f bc 9a 8c f6 bb 54 f9 d6 ba
       -0.0021639701 -0.008745707 -0.007524085 -0.001640121
000060 3a 2c c3 3b 2b 3b 13 3c d9 75 89 bc 1e 7f d2 bb
       0.0059562 0.008986275 -0.016779827 -0.006423845
000070 43 7f dd bb df 1a f3 3b 16 5d 50 3c 0b cc 6b 3b
       -0.0067595555 0.007418975 0.012717506 0.0035979773
000080 94 67 6d 3b c1 04 9f 3c 06 01 b6 bb 72 6a 9b 3a
       0.0036225067 0.019411447 -0.005554321 0.0011857285
000090 85 2d 46 3c b9 e6 da bb e5 9c 55 bb ec c3 25 bc
       0.012095814 -0.0066803363 -0.0032594737 -0.010117512
0000a0 bd f9 5d 3b 11 40 c3 bc 47 89 28 3b 5c 27 6e b8
       0.003387078 -0.02383426 0.002571659 -5.6780278e-05
0000b0 cd 43 51 bc 60 ca 82 bc 42 c0 2c 3c 34 ba 6a 3c
       -0.012772513 -0.01596564 0.010543885 0.014326621
0000c0 79 5a ef 3b e8 c1 82 3b 27 a4 70 3c 9b 00 9f 3c
       0.0073044864 0.0039904006 0.0146875745 0.019409468
0000d0 23 29 49 bb 1f 86 14 3b 4e 8f d2 bb 71 a7 54 3b
       -0.0030694685 0.002266295 -0.0064257747 0.0032448436
0000e0 bc 7a 37 bc bd 4d e5 bb df 81 ff bb 17 d2 2d 3c
       -0.011198696 -0.0069977925 -0.0077974643 0.010609171
0000f0 59 d1 62 bc cb f0 e8 bb 65 12 34 bc e1 02 3d 3c
       -0.013843858 -0.007108783 -0.010990714 0.011536331
000100 09 05 e5 3c 55 ef 32 bc be 23 9b bc fa c9 78 bb
       0.027956503 -0.010921319 -0.018937942 -0.0037962184
000110 c7 e0 dc bb dc 32 76 3c 45 88 f3 3a c0 69 f2 bb
       -0.0067406627 0.015026774 0.001858004 -0.0073978603
000120 0b f6 2d bc 53 28 51 bc 5b 31 3e bb 10 20 85 3b
       -0.010617743 -0.012765962 -0.0029021117 0.00406266
000130 d4 d0 2b bb 64 70 7d 37 91 31 0c 3c 09 1e 39 b9
       -0.0026217 1.5106143e-05 0.008556739 -0.00017654164
000140 01 63 85 3b 71 0a 2e 3b 6e 03 55 3c 30 01 37 ba
       0.00407064 0.0026556517 0.013001306 -0.0006981073
000150 39 af 75 3c a5 1d 57 3b 10 66 45 3c e9 6d 96 3c
       0.01499539 0.0032824066 0.012048259 0.018362956
000160 5d 38 bd bc d5 32 17 bc 6d ff cf 3b b1 3b d6 3b
       -0.023098165 -0.009228428 0.006347588 0.0065378775
000170 33 32 64 bc 6f d8 68 bb a3 d1 9f bc 8a 37 ec ba
       -0.013927984 -0.0035529395 -0.019509142 -0.0018021923
000180 16 76 06 3c 18 1b 93 bb 9a a1 ca bb 10 0a ec 39
       0.008206865 -0.004489314 -0.006183815 0.00045020925
000190 11 13 1c 3c 5a a8 30 3c 11 b8 f9 bb fe 8d 84 bb
       0.00952603 0.010782326 -0.0076208194 -0.004045247
0001a0 d5 40 35 3b 2f f7 1b 3b ce 21 b9 b8 d0 9e 0b 3c
       0.002765705 0.0023798456 -8.827784e-05 0.008521751
0001b0 89 63 eb 3c 1f fc 30 bc 62 c8 8f bb 51 9f c7 bb
       0.028733985 -0.010802298 -0.004387901 -0.00609199
0001c0 4b e3 89 3c 7f 07 a4 bc 65 ab 94 bb 2e 15 52 3c
       0.016832015 -0.020023106 -0.0045370334 0.012822432
0001d0 2e 9a c6 bb 45 6e fc 3b 40 ff 03 3c 05 5b 4a 3c
       -0.00606086 0.007703575 0.008056462 0.012350802
0001e0 2b c7 43 3c 68 a9 b8 3a 22 c5 8d 3c c2 1e 30 bc
       0.011949341 0.0014088573 0.017305914 -0.010749521
0001f0 84 6d 9e 3c 21 23 95 3a 57 a6 69 3c 7b 6f 41 bb
       0.01933933 0.0011378267 0.01426085 -0.002951591
000200 81 31 67 bc 90 86 16 3c 2f 84 31 3c 16 bb 11 bd
       -0.014110924 0.009187356 0.010834738 -0.03557881
000210 36 2f 13 bb 96 d8 f5 bb c4 5a 0a 3c c3 9d bc ba
       -0.002245856 -0.0075026257 0.008444492 -0.0014390278
000220 86 bf 19 3c 6a 55 0f 3c 3b 00 7f bc f8 aa 26 bc
       0.009384042 0.008748392 -0.01556402 -0.010172598
000230 02 7b b1 3b 6b 0a 44 bc ab 61 bc ba 53 0c 7a 3c
       0.005416275 -0.011965374 -0.0014372369 0.015261727
000240 6a eb 3c bc 23 3f 7b bb 64 3b 7c bc ec 2e a2 b9
       -0.011530736 -0.0038337193 -0.015395019 -0.00030934007
000250 a3 32 6d 3a 01 fa 67 bc 62 85 0d b9 96 8f e2 3b
       0.0009048378 -0.014158727 -0.00013496497 0.0069140894
000260 c6 fd bb bb 54 19 17 bc 5f 98 8d 3c c4 9d ac 3c
       -0.0057370393 -0.009222347 0.01728457 0.021071322
000270 57 c7 10 3c ab fa fa ba 0e ee 67 bb 0b 7d 2e bc
       0.008836589 -0.0019148191 -0.0035389694 -0.01064993
000280 9c bf 69 bc cc c5 63 3b 2a a2 b6 bb 2c 2e 5d bb
       -0.014266875 0.0034755347 -0.0055735307 -0.0033749444
000290 fe 1f 56 bb 86 40 ac 37 01 27 ec 3b 6d f3 b8 3c
       -0.0032672877 2.0534044e-05 0.007206798 0.022577012
0002a0 35 00 fc bb 33 e9 41 bc 9d 50 6a 3b a7 60 0b 3a
       -0.0076904544 -0.011835384 0.0035753616 0.00053168315
0002b0 6d a1 f3 3c ce 0f 50 3a 6a 1c 47 3c ae fd cd ba
       0.02974006 0.00079369254 0.0121527705 -0.0015715861
0002c0 07 f5 de bb 7b 8f 47 bc c3 c2 56 3c ee 49 08 3c
       -0.006804112 -0.0121802045 0.013107958 0.008318407
0002d0 fa 66 0a bb 78 02 16 bb 40 dd 95 3c 4b df 08 3c
       -0.0021118508 -0.0022889655 0.018293977 0.008354018
0002e0 d4 b4 1a bc c4 b5 24 3b bc a7 55 ba 30 21 0e bd
       -0.009442527 0.0025132755 -0.00081502995 -0.03469962
0002f0 ef e1 65 bc 78 bd 1d 3c 98 44 82 bc ef d6 c9 3b
       -0.014030918 0.009627692 -0.015901849 0.0061596553
000300 77 30 b0 3b 31 e8 04 ba 4a e1 bf 3c e7 c5 12 3a
       0.005376871 -0.00050699996 0.023422856 0.0005598948
000310 c4 08 b2 3b 9d b4 39 3b a2 77 74 3c 25 bd 94 bc
       0.005433174 0.0028336414 0.014921101 -0.018156597
000320 2e d6 85 3b 7d 2d c0 bc bf c2 7e 3b 3f 98 02 3c
       0.00408437 -0.02345919 0.0038873402 0.007970869
000330 5e dd 2e bc d1 7c 58 3b 82 ab f9 bb cd f0 67 bc
       -0.010672895 0.003303338 -0.0076193223 -0.0141565325
000340 85 38 55 3b 43 9b 31 bb e5 85 b6 3b 3e 56 53 3c
       0.003253491 -0.00271006 0.0055701607 0.01289898
000350 7c 42 f1 39 e7 04 2c bc f1 8a ba ba 75 55 df ba
       0.00046016637 -0.010499216 -0.0014232082 -0.0017039018
000360 e2 85 88 b9 6e 67 a9 3c d4 dd db 36 ca c0 ac bb
       -0.00026039692 0.020679202 6.552533e-06 -0.0052720057
000370 68 85 3d bc 4d 23 b6 bb ec c5 e7 bb c8 2f e3 3b
       -0.011567451 -0.0055584074 -0.0070731547 0.006933186
000380 3f d2 ee 3b 64 56 25 bc e4 0a a4 3b 9d 85 2d 3c
       0.007288247 -0.010091398 0.005006181 0.010590938
000390 0c 4a cb 3a 37 97 b0 ba 3d 09 22 bb a6 fa 1e bb
       0.0015509739 -0.00134728 -0.0024724745 -0.0024258285
0003a0 7d 86 73 3b e7 13 8a bc 19 35 b3 3b 38 52 f7 bb
       0.0037159019 -0.016855193 0.005468976 -0.007547643
0003b0 86 9d 82 3c 49 7c e8 3b cd b6 94 bc 8d e6 87 bb
       0.015944254 0.007094894 -0.018153572 -0.004147357
0003c0 a1 99 2d 3c 43 05 a4 bc ff ba 92 bb f9 12 29 3c
       0.01059571 -0.02002204 -0.004477858 0.010319465
0003d0 28 9a 85 3c 7e 0a 2f bb a6 46 16 3c 40 78 b2 bc
       0.016308859 -0.0026709135 0.009172117 -0.021785855
0003e0 56 22 b1 bb eb 58 84 bc 22 d6 4a 3c 09 15 43 bc
       -0.0054057045 -0.01615568 0.012380155 -0.011906871
0003f0 43 a6 7c bc 47 91 13 3b bb 61 2e 3c 98 3a 23 bb
       -0.015420499 0.0022517012 0.010643418 -0.002490675

action_model._discrete_distribution.branches.2.bias f4 [2]
000000 d1 36 27 bb d1 36 27 3b
       -0.002551485 0.002551485
