results/Run3/Dark Knight Behavior/Dark Knight Behavior-119447.pt (torch, 451287 bytes, 51 tensors)

network_body.linear_encoder.seq_layers.0.weight f4 [128, 5]
000000 30 86 b1 3e 14 d7 ab be 9c 6b 91 3e 71 01 1d be
       0.3467269 -0.3356253 0.28402412 -0.15332581
000010 8e 5b 6a 3e 45 b2 0b be 4e f1 2b 3f 9b ea 18 be
       0.22886488 -0.13642223 0.67165077 -0.14933245
000020 a2 21 b7 3e 64 14 7d 3d 5c 45 43 3f c6 92 27 bf
       0.35767847 0.061787024 0.7627771 -0.65458333
000030 a5 96 ed be 2d ed 5b 3d 0e c7 48 3f 7b be 53 3e
       -0.46403995 0.053692985 0.78428733 0.20678131
000040 8d 9e 2d 3f e1 23 3f 3e be 62 f7 3e b7 be 04 bd
       0.67820054 0.1866603 0.48317522 -0.032408442
000050 a7 13 29 be 15 d0 05 be 55 66 88 3e d1 09 22 3e
       -0.16511403 -0.13067658 0.26640573 0.15824057
000060 2f f2 cb be 8f c9 87 3d 54 bc b2 3e 8a 96 48 3f
       -0.3983321 0.06630241 0.34909308 0.78354704
000070 70 af 16 bf 4d 14 aa be 75 63 d9 3e eb 34 f7 3d
       -0.58861446 -0.33218613 0.42458692 0.1207064
000080 01 87 81 be d4 c5 1e bf b2 d0 9c be 16 ff cc 3a
       -0.25298312 -0.6202061 -0.30627972 0.0015639986
000090 b8 c8 9b be 20 08 80 3e 26 65 85 be 5a f1 16 bf
       -0.30426574 0.250062 -0.26053733 -0.58962023
0000a0 0b 25 f6 3d 68 a9 e6 3e d3 c3 19 3f 75 8c 3d bd
       0.12018784 0.45051122 0.6006443 -0.04627653
0000b0 6c 74 a3 3e 31 d4 d6 be d5 78 ee 3e 7c 1a 79 3e
       0.3192476 -0.41958764 0.46576563 0.24326509
0000c0 d2 a4 f4 3e f8 37 fb be 6e 10 a2 3e c6 46 cf 3d
       0.47781998 -0.49066138 0.3165316 0.10120921
0000d0 c1 88 d7 3e 12 c5 2b bf d7 39 7c bf c7 6d 60 bd
       0.42096522 -0.6709758 -0.98525757 -0.05479219
0000e0 fa 4a 31 3f ca b5 20 be 80 e5 48 3e 4b 39 d4 3e
       0.6925503 -0.15694347 0.19618797 0.4144996
0000f0 f0 20 48 3e 5b 3d b6 be 90 fd 8b bf 33 5c 7b be
       0.19543815 -0.35593686 -1.0936756 -0.2454689
000100 68 49 2d 3c 9d af 12 bf 91 bc c9 3d 5c 71 4f bf
       0.010576583 -0.57299215 0.09850419 -0.8103235
000110 99 6c 09 3e 4a 80 92 be 70 2c e7 bd 9a 58 97 3e
       0.13420333 -0.28613502 -0.11287773 0.29559785
000120 70 5f 1a 3e 88 db 2d be 7f 57 5e 3d 9b 5b 7f 3e
       0.15075469 -0.16978276 0.05428266 0.24937288
000130 75 7d ab 3e 67 8a 15 3f bd ae 68 be 61 a6 ac be
       0.33494154 0.5841431 -0.22722907 -0.33720687
000140 bc 2f 4f be 50 80 b2 bd 83 1c c5 bc d2 be ee 3b
       -0.20233053 -0.0871588 -0.024061447 0.007285931
000150 c2 fb 3b bd 9b fa ed 3d 3a 51 0e 3f a1 ea aa bc
       -0.04589439 0.11620065 0.5559269 -0.020863833
000160 7c f2 4a 3d 5f 2d 43 3f f2 30 03 be e4 e1 d7 be
       0.049547657 0.76241106 -0.1281164 -0.42164528
000170 c6 11 ed 3d bd 03 ae bf 3b cb 10 3f 5f 36 4d ba
       0.11575656 -1.3594891 0.56560105 -0.00078282313
000180 6e 82 0c bf 64 c0 06 3f 0a 7c 59 3d 0f 10 13 be
       -0.5488652 0.52637315 0.05309681 -0.14361595
000190 e7 ab 20 be 39 24 50 be 5b a2 d2 bc 1a 7f ea be
       -0.15690576 -0.20326318 -0.025712183 -0.45800096
0001a0 e4 bf 44 3f 00 15 2f 3f 49 94 4e bf c4 fb 0b 3f
       0.768553 0.6839142 -0.80695015 0.5468104
0001b0 8d fc d6 3e 1b d8 cd bd 4c 94 85 be 6b 97 4d 3f
       0.41989556 -0.100509845 -0.26089704 0.8030917
0001c0 d4 54 1d 3f d4 68 9c be a2 65 b5 be f8 b1 15 bf
       0.6145756 -0.30548728 -0.35429102 -0.58474684
0001d0 60 60 f2 be f8 ba f9 bd f3 28 af 3e ae d0 9d 3d
       -0.47339153 -0.121938646 0.3421093 0.07705818
0001e0 df 2d 3f be 6f df f0 be 9c 04 86 be fc 8d d8 3e
       -0.18669842 -0.47045466 -0.26175392 0.42295825
0001f0 ff cc 6e 3e 45 1f 15 bf 45 dc 9a 3e 90 5a a4 3e
       0.23320387 -0.5825084 0.30246177 0.32100344
000200 3b ff dc bc c5 00 66 bd 58 87 9c be ff 99 01 3f
       -0.026977172 -0.056153078 -0.3057201 0.50625604
000210 c6 fd ab bc 11 c0 0a bd 64 ef c8 bd f0 22 5c be
       -0.020995032 -0.033874575 -0.09811285 -0.21497703
000220 be 64 b3 be 9d 58 9c 3e d1 e4 43 3f e6 25 9c bd
       -0.35037798 0.30536357 0.7652102 -0.07624416
000230 de 83 08 bf f0 b2 59 3e 3e c6 ea 3d c1 4c 29 bd
       -0.53326213 0.21259665 0.11463593 -0.041332964
000240 4a e0 cc 3e 00 b0 95 bc 6a 2b c7 3e 17 b6 4d 3f
       0.4001487 -0.0182724 0.3890031 0.8035597
000250 ec 6a dd be ef 23 1b bf 0d 96 e4 3e bb 56 be be
       -0.43245637 -0.60601705 0.4464573 -0.37175545
000260 49 62 85 3e 11 f0 9a 3e 31 5f b2 be b9 b4 12 3f
       0.26051548 0.3026128 -0.3483825 0.5730701
000270 d7 69 67 bf f6 b4 ac 3e 1a bb 7b 3e bc 99 a2 3e
       -0.90395874 0.33731812 0.24583092 0.31757915
000280 3b 4a d5 3e 9d e5 42 bf eb bf 31 bf 74 e1 14 bf
       0.41658196 -0.7613161 -0.6943347 -0.58156514
000290 cb 79 be 3e 5f f7 fe be 38 b2 4c 3e e8 d2 4e 3f
       0.37202296 -0.49798104 0.1998986 0.8079057
0002a0 54 f3 76 be 08 60 11 bf 44 88 95 3e 68 03 b4 3e
       -0.2411626 -0.5678716 0.29205525 0.3515885
0002b0 da c1 62 3e 87 7e cd be 57 43 d2 3e ad 3d 52 3e
       0.22144261 -0.40135595 0.41067 0.2053134
0002c0 81 da d0 3e 65 43 38 3e a2 11 ef be d4 d5 0a bf
       0.40791705 0.17994459 -0.4669314 -0.54232526
0002d0 9c 70 8c 3e 8e 1b 5a 3f de b0 7a 3e cb e3 1d bf
       0.27429664 0.85198295 0.24481532 -0.6167571
0002e0 2a 7a ab 3e ff 72 88 be 51 64 65 3e 07 b2 03 3f
       0.3349164 -0.26650235 0.22401549 0.51443523
0002f0 ff 50 89 3c 54 3b 94 3e 0f 7b 30 3e 33 8d 40 be
       0.016762255 0.28951514 0.17234443 -0.18803863
000300 8e 1e 68 3e 2f e2 67 3e 1d bc 65 be 2e 70 a1 3c
       0.22667906 0.22644876 -0.22435041 0.019706812
000310 f1 f6 33 39 10 08 76 3e e4 25 70 3e 60 98 d6 bd
       0.00017162763 0.24026513 0.23451954 -0.10478282
000320 bc 2e a2 bf f0 e4 03 bf af 1d db 3c 18 62 0a bf
       -1.2670512 -0.51521206 0.026747553 -0.5405593
000330 c8 a6 d1 3e 73 19 50 3e 1d 73 18 bf 04 6f c3 bd
       0.40947556 0.20322208 -0.5955065 -0.09542659
000340 88 62 6d 3e 3a 8b 13 be 63 77 ab be bb 98 3c bf
       0.23182118 -0.1440858 -0.33489522 -0.7367055
000350 53 92 52 be 80 5e 23 3f 2e 6c 06 3f 7f 14 f4 bc
       -0.20563631 0.6381607 0.5250882 -0.02979493
000360 82 e1 70 3e 72 74 62 bf e5 1d 17 3f 50 74 f6 3e
       0.23523524 -0.8845893 0.5902999 0.48135614
000370 5b ab 0b bf f2 68 5f bd 38 cf f0 be 04 81 98 be
       -0.5455834 -0.054543443 -0.47033095 -0.2978593
000380 8e 98 ba 3e 02 61 0a be 61 cb c2 3e 09 d9 5f bd
       0.36444515 -0.13513568 0.3804579 -0.05465034
000390 da 39 cd 3e bd 0d 57 bf 6a 51 25 3e 4b a8 44 3e
       0.400832 -0.8400534 0.16144338 0.19204824
0003a0 98 cb 05 3c d2 84 87 be 1d ab d9 3e 84 17 1f 3d
       0.008166216 -0.2646852 0.42513362 0.038840786
0003b0 72 5a bd be ad a2 ba be 97 ba 3f bf e9 c1 a9 bf
       -0.36983067 -0.36452237 -0.7489409 -1.3262302
0003c0 fc 64 d8 be be 1e 57 3e 8f d8 50 bd 58 35 68 bf
       -0.42264545 0.21007821 -0.050987776 -0.90706396
0003d0 d2 aa 7f be e4 52 2d bf 2d 64 1a bf 02 60 83 3e
       -0.24967507 -0.67704606 -0.60309106 0.25659186
0003e0 7a 3b 03 bf 0d 2e 0d be 16 e4 40 3e 72 6f 8e be
       -0.5126263 -0.13787098 0.18837008 -0.278194
0003f0 df ce 5d bd 17 17 92 be b1 39 6d be f6 0f 87 bd
       -0.054152366 -0.2853324 -0.23166539 -0.06594841

network_body.linear_encoder.seq_layers.0.bias f4 [128]
000000 32 41 a7 bb 4c cc b7 3b df 5c 1e 3a 45 1d 82 ba
       -0.0051042074 0.005609071 0.00060410606 -0.0009926936
000010 aa 29 08 bb 48 b2 e5 3a 1d 1c 60 bb 94 9c 8e bb
       -0.0020776787 0.0017524445 -0.0034196444 -0.0043521617
000020 8e c6 4a bb 1e e9 85 3b 2a 93 8b bb 93 24 10 bb
       -0.0030941102 0.0040866276 -0.0042594867 -0.0021994456
000030 3b ef 1c b9 0d 57 1f bc c8 b5 94 3c a0 4c 18 3b
       -0.0001496644 -0.009725344 0.018153086 0.0023239031
000040 6f 83 2a 3c 04 f0 b5 bb 14 dc 81 bb 88 52 90 3c
       0.010407313 -0.0055522937 -0.003963003 0.017617479
000050 a1 08 78 bb 1a b7 31 3b cc bf 52 3c d6 b5 ef bb
       -0.003784694 0.0027117194 0.012863111 -0.0073153777
000060 cc d1 d0 ba ff cb d6 ba 69 c6 44 3c 70 41 d2 bb
       -0.0015931665 -0.00163877 0.012010195 -0.006416492
000070 29 11 11 bb 58 e7 d5 bb c9 b0 17 bc c0 d6 36 bb
       -0.0022135472 -0.0065278225 -0.009258457 -0.0027898997
000080 d6 45 a3 bb a8 37 24 bb 05 4f b8 bb 36 2a 01 3c
       -0.0049826903 -0.0025057588 -0.0056246542 0.007883599
000090 80 66 5d 3b 66 b5 c7 b8 93 1a 2e 39 cc 26 89 3b
       0.0033783019 -9.5228475e-05 0.00016603833 0.004185533
0000a0 99 82 8f 3b 14 19 4d bb 3f 04 bd bb 25 dd 84 3b
       0.004379582 -0.0031295465 -0.0057683284 0.004054683
0000b0 d9 ab 7a 3a 05 44 8b 3b 0b 8b e1 b8 8e 59 50 3b
       0.00095623505 0.004250052 -0.00010754735 0.003179166
0000c0 1a 05 ae b9 88 75 07 3b 8a ac 14 3b bc 22 91 3a
       -0.00033191667 0.002066942 0.002268585 0.0011072974
0000d0 ce 92 13 3a 68 3f a5 3a 57 37 e9 39 93 dc 24 bb
       0.00056294806 0.0012607398 0.00044482455 -0.0025155887
0000e0 a6 2d 39 3b 0d 33 bf ba 34 b7 8a bb 27 37 ca bb
       0.0028255968 -0.0014587358 -0.0042332653 -0.0061711255
0000f0 c4 55 de bb 57 e0 e1 bb 41 12 0c bb 42 82 0d bb
       -0.0067851264 -0.0068931985 -0.0021373185 -0.0021592532
000100 be 1b 04 bc 75 f1 ac 3a 96 07 af 3a 67 8b a4 bb
       -0.008063255 0.0013194518 0.0013353701 -0.005021501
000110 36 e4 20 3b f2 8c cc ba d3 98 80 3b f0 11 5b b7
       0.0024550087 -0.001560597 0.003924468 -1.3057594e-05
000120 59 51 46 bb 72 7e 36 3b 8a b7 13 3b c9 f3 31 3b
       -0.003026089 0.0027846363 0.0022539818 0.0027153364
000130 7a 3e 4a bb 2a aa 32 bb 5b 06 cd bb 54 c7 23 bb
       -0.0030859993 -0.002726207 -0.006256861 -0.0024990635
000140 60 da 78 3b 6f 9e 72 bb d7 c1 81 bb 27 91 bc 3b
       0.0037971959 -0.0037020703 -0.003959875 0.005754608
000150 17 f8 1c 3a 6d c7 ea 3b 2e 3c 12 bb 70 70 43 3b
       0.0005987896 0.0071648867 -0.0022313702 0.0029821657
000160 20 1c b0 3b a3 b4 77 3b 5e 1f 62 bb a6 f0 16 ba
       0.0053744465 0.0037796877 -0.003450356 -0.00057579053
000170 2c 92 5c bb 0a af e4 ba 34 c4 ad b9 ed c2 d3 3a
       -0.0033656461 -0.0017447185 -0.00033143314 0.0016156115
000180 59 e2 7d bb c4 8f 53 3c 9b 46 4e bb ed 09 12 3b
       -0.003873965 0.012912694 -0.003147519 0.0022283748
000190 4e 27 a7 3a a3 92 85 3b 7e b0 94 bb bc 6e 11 bb
       0.0012752803 0.0040763183 -0.004537641 -0.0022191247
0001a0 4d 0b 88 3b f0 ec ce 3a 0a 18 6e 3a 59 9b ac ba
       0.004151738 0.0015787166 0.00090825616 -0.0013168856
0001b0 3b 32 3d 3b 88 5b 6a ba 37 dd 87 3b 5f 8d 9f bb
       0.002886905 -0.0008940031 0.004146244 -0.0048691477
0001c0 5a a8 6e 3a 1e 8d 0a 3a e2 1b e3 3b fe b7 47 bb
       0.0009104066 0.00052853103 0.006930814 -0.0030474658
0001d0 a4 77 57 bb 94 b7 fd 3a 8a 00 17 bb 3c 2e be 3b
       -0.0032877708 0.0019357079 -0.0023041093 0.0058038514
0001e0 b7 90 dc ba ee 05 43 3c 3d d9 3e ba ea 98 6f 3a
       -0.0016827796 0.011903269 -0.0007280296 0.00091399124
0001f0 7d 50 55 3b 05 17 c2 b8 11 45 e6 bb 6b a7 8c bb
       0.0032549195 -9.2549286e-05 -0.0070272763 -0.0042924187

network_body.linear_encoder.seq_layers.2.weight f4 [128, 128]
000000 4c 0b 8e bd 65 f3 33 3d 9e e9 cd 3d 95 d6 50 3d
       -0.069357485 0.04393329 0.100543246 0.05098589
000010 02 48 62 bc 17 23 5f bb f1 65 c7 bb 88 53 a2 bd
       -0.013811113 -0.0034048015 -0.0060851504 -0.079260886
000020 09 be 05 b9 80 9d b4 3d c1 cf 15 3d 16 53 45 bd
       -0.00012754662 0.08819103 0.036575083 -0.04817494
000030 85 76 c2 bd 6e bd e7 bc 46 fe 82 3d fd 6e 34 3d
       -0.09495262 -0.02828857 0.06396155 0.04405116
000040 89 43 92 3d 44 9e 22 3e ba cb d5 bc d8 a5 38 3d
       0.071417876 0.15880686 -0.026098121 0.045080036
000050 eb 43 13 3e bc 85 a3 3d 53 81 d0 bc d5 e6 53 3d
       0.14381377 0.07984492 -0.025452292 0.05173381
000060 13 84 c2 bc 44 5f 4b bc f5 ff 04 be 0b ac c2 bc
       -0.023744619 -0.01241285 -0.12988265 -0.023763677
000070 e2 6f 25 3e 5d ab 77 3c bc 65 36 3d 82 53 1e be
       0.16155961 0.01511654 0.044530615 -0.15461543
000080 a8 28 b7 3d 3d d1 d7 bd d9 38 64 3c 52 57 3a bd
       0.089433014 -0.10537956 0.013929569 -0.04549343
000090 ac 43 8d 3b 4c 5c 1d bd e6 28 32 3d ca fd 2a bd
       0.0043110456 -0.0384181 0.043496035 -0.04174594
0000a0 3d 19 6a 3e 0f 62 48 3d 2a 71 af 3b 57 c4 c3 bb
       0.2286119 0.04892164 0.0053540664 -0.0059743333
0000b0 77 95 e2 bd 30 4f 6b 3c 65 a1 9e 3d 50 5b c1 bc
       -0.110636644 0.0143621415 0.07745627 -0.023603112
0000c0 ee da a6 3b b3 0c 46 bc 5d 6b c4 3b 82 5a fd bc
       0.0050920164 -0.012087989 0.005994244 -0.030926947
0000d0 06 24 05 3d 15 da 67 bc 0c 32 74 3e 3a 95 37 bd
       0.032505058 -0.014151116 0.23847216 -0.044820048
0000e0 10 9a 22 3c 8a cf d8 ba 8a 9d 92 3c 2f 53 fe bd
       0.009924427 -0.0016541344 0.017897386 -0.1241821
0000f0 c5 da d5 3d 93 d8 42 bd 7b 31 7f 3c 0a 74 0c 3d
       0.104421176 -0.047569823 0.015575762 0.03429035
000100 3b ed e4 bd 04 d1 5f bd 7e 7a 03 3e 91 d3 44 bc
       -0.111780606 -0.054642692 0.12839696 -0.012013332
000110 f8 00 07 be 53 3e 51 3a ce 69 81 bc 26 9b 0b be
       -0.13183963 0.00079820043 -0.015797522 -0.13633403
000120 4c 63 0e 3e 26 ff 19 be 78 13 86 bd 5b c4 96 3d
       0.13905066 -0.15038738 -0.06546682 0.073616706
000130 5e ae 88 bd 18 84 9e 3b 62 f7 2d bd 23 81 1d be
       -0.06673883 0.004837524 -0.04247225 -0.15381293
000140 30 9e db bd 4b de 69 be ac 10 0f 3d 7f 36 2a 3e
       -0.10723531 -0.22838704 0.03492801 0.16622351
000150 4e 92 b7 3d 28 66 2c bd ec 66 2e 3e 5f eb 34 bd
       0.08963452 -0.04208961 0.17031449 -0.04416978
000160 13 c2 c7 bc d2 31 42 ba 16 a0 91 bd 58 61 e1 bd
       -0.024384534 -0.00074079365 -0.07110612 -0.11004895
000170 90 44 ec 3d 51 0f bf 3c ba e0 cf bc 3d 13 bf 3d
       0.11536515 0.023322733 -0.025375713 0.09329841
000180 64 5d fd bd f1 fc bb 3d a0 c1 3a 3e cb 2c 97 3b
       -0.123713285 0.09179104 0.18237925 0.004613494
000190 fc 9a 23 3d 3a 20 0f 3e c1 02 7c 3d 13 7b bb 3d
       0.039942726 0.13977137 0.061526064 0.09154334
0001a0 12 88 b5 bd 88 46 8b bd 3c fd 82 bc 47 1f e7 bd
       -0.08863844 -0.06800562 -0.015989892 -0.112852626
0001b0 07 67 6c 3d 14 ab 02 bd 2d 84 83 bd f0 f8 9c bd
       0.057715442 -0.031901434 -0.06421695 -0.076646686
0001c0 fe 5e a5 bc 86 6a a5 bd 42 82 f2 bc 60 8b 6e 3d
       -0.020186897 -0.08076958 -0.029603127 0.058238387
0001d0 48 49 09 be ff fe 29 bd 8e 1b 82 3d 4c 1e 03 3d
       -0.13406861 -0.04150295 0.06352912 0.032011315
0001e0 8b cb 0a bd a5 cf 41 bc ab 06 6c 3d 2f b6 6e 3d
       -0.03388552 -0.0118292915 0.057623547 0.058279213
0001f0 cd 3b 72 3d 4f 5d 2f 3d c0 e5 55 be 65 8b 88 bc
       0.05913906 0.042813595 -0.20888424 -0.016668031
000200 d3 15 21 bc e5 02 f2 bc 01 e9 e4 bc 29 89 34 bd
       -0.009831863 -0.029542396 -0.027943136 -0.04407612
000210 a1 c3 23 be 76 67 99 3d c5 f7 31 3d b3 28 de 3d
       -0.15992595 0.07490437 0.043449182 0.108476065
000220 2a 61 40 3d f0 3f 9f bd 75 dc 9e bd 8d ae 1d bd
       0.046967663 -0.07775867 -0.077568926 -0.038496543
000230 bf b0 03 3e b5 98 87 bc 2c f5 f0 3d 3c 1e 85 3b
       0.12860392 -0.016552309 0.11765513 0.004062442
000240 a5 7a b8 bd 2b c3 26 3d 0e 7e 95 bd d3 d6 47 bc
       -0.090077676 0.04071347 -0.07299434 -0.012197214
000250 5a 98 aa 3d ff fb bc bc 94 3a ea bd 0a 4c 60 bd
       0.0832984 -0.02306938 -0.11436954 -0.054760017
000260 c2 dd 72 3d ed 14 86 bc cf 1f 3a 3d da 25 6d 3d
       0.059293516 -0.0163674 0.04544049 0.057897426
000270 49 ee 32 3e 35 b3 a7 bc 98 30 82 bb 7a 2a d2 3c
       0.17473711 -0.020471195 -0.003973078 0.02565502
000280 f5 35 2d bd ea e3 56 be 0a fd 8d 3d f6 b3 2a bd
       -0.042287786 -0.2098538 0.06933029 -0.04167553
000290 74 86 24 bd 85 5d 78 3d 7c 48 04 bd 85 7e 0c bb
       -0.040167287 0.060636062 -0.03229569 -0.0021437716
0002a0 75 9a 55 3d 72 a6 ae 3d 64 3d 02 be 19 9a 9b bd
       0.052149255 0.08527841 -0.12718731 -0.07597751
0002b0 32 fd 49 bb 9c 23 00 bd 07 a5 8f bc 5b fd 06 bd
       -0.0030821082 -0.03128396 -0.017534746 -0.032956462
0002c0 f6 21 87 bb f1 23 35 3e cc a7 5f 3d 6f 2b b0 bb
       -0.0041239215 0.17689492 0.054603383 -0.0053762714
0002d0 ef 36 95 bd e6 b4 e7 bd cc 2d 44 ba 59 72 c0 bc
       -0.072858684 -0.113138005 -0.0007483631 -0.023492025
0002e0 7d 2b fe 3b 1e 21 66 3d db 27 2e 3d 0e 05 13 be
       0.007756649 0.056183927 0.042518478 -0.14357397
0002f0 e2 54 2f bd 3b 38 8f bc 96 1f 08 3e 08 db d5 3d
       -0.04280556 -0.017482867 0.13293299 0.104421675
000300 ef 59 ee 3b eb b7 d9 bd a4 4b e5 bc 59 db e9 39
       0.0072739045 -0.10630783 -0.02799017 0.0004460465
000310 c8 d1 12 3e d7 01 09 3e b7 ba ce bd 0f f6 74 3c
       0.14337838 0.13379608 -0.10094207 0.014951243
000320 a5 67 b3 bd 20 1d 62 bd ca 03 a2 3d 73 9d e1 3c
       -0.08760003 -0.055203557 0.07910879 0.027540898
000330 84 ba 87 bd 9d 19 9d 3d 45 6f 0e be 98 4e 13 be
       -0.06627372 0.07670901 -0.13909633 -0.1438545
000340 95 57 84 3c 59 19 79 be df 24 6e 3d 1d 8f 07 be
       0.016155044 -0.24326076 0.05814063 -0.13238187
000350 4b f7 19 3d 0a 48 a5 bc 4f 24 64 3d 1c ed ab bd
       0.037589353 -0.020175952 0.05569869 -0.083948344
000360 59 05 2b 3e 9a 58 14 3d 71 c3 1e 3d 07 0c 8a 3c
       0.16701259 0.03621731 0.038760606 0.016851438
000370 ba ac bf 3d 36 75 46 bc 35 87 b9 3d 9f 4a 3a bc
       0.09359117 -0.012112906 0.09058992 -0.01137033
000380 11 58 90 3d 59 0c 7a 3c 23 52 d0 b9 35 aa c0 3d
       0.07048047 0.015261733 -0.00039734048 0.094074644
000390 eb 09 f2 3d 2e a0 e5 3d b2 1f 04 3e c3 4c 20 3d
       0.11818298 0.112121925 0.12902716 0.039135706
0003a0 c5 64 b4 bc 8e 5e 69 3d 61 cf e4 3b 6f 30 3d 3d
       -0.022020707 0.05697494 0.0069827293 0.046188768
0003b0 af e0 ae 3c b7 c7 0e be 3a 14 3a 3e 67 82 a7 bc
       0.021347372 -0.13943373 0.18171778 -0.020447923
0003c0 f6 5f 02 be 47 ff d9 3d 4b 96 6c bd eb 8c 0f bc
       -0.12731919 0.106443934 -0.057760518 -0.008761625
0003d0 ba 8b f0 bd 4a 69 08 be a8 bf 2c be 31 5a a0 bc
       -0.11745401 -0.13321415 -0.16869986 -0.019574257
0003e0 4a b4 eb bd e5 17 aa bd df b1 b2 3d 84 86 1d 3e
       -0.11508997 -0.08305339 0.087253325 0.15383345
0003f0 13 b7 39 3d cc d7 1b be d8 6e 61 3d 7e ae 25 3d
       0.04534061 -0.15219039 0.05503735 0.04044961

network_body.linear_encoder.seq_layers.2.bias f4 [128]
000000 86 49 b8 bb 80 b3 c1 3a a0 81 75 3b 9f 84 89 bb
       -0.005623999 0.0014778227 0.0037461296 -0.004196718
000010 67 8f 5b 3a 71 e4 4c bb 57 2d 50 3a 7d e9 07 bb
       0.00083755556 -0.0031264091 0.00079413265 -0.0020738535
000020 97 bb 53 bb 99 86 5e 3c 98 58 97 bb 66 62 66 bb
       -0.0032307857 0.013581895 -0.0046187155 -0.0035153865
000030 43 62 7a 3c f3 4f 12 3b 51 d0 01 37 b0 bb f8 3b
       0.0152822165 0.0022325485 7.737502e-06 0.0075907335
000040 ce 51 ed ba c3 64 21 bb 85 da f1 bb 5a f2 13 3a
       -0.0018106045 -0.002462671 -0.007380786 0.0005643718
000050 1c 5d 1b bb 9e 57 c2 bb f2 3f e4 bb bf fa 15 ba
       -0.002370662 -0.005930855 -0.0069656307 -0.0005721263
000060 69 c2 8d bb f5 ac 69 3b 26 3c ce ba c1 ee 25 3a
       -0.004326154 0.003565607 -0.0015734478 0.00063298276
000070 c2 1b cb 38 98 cb 81 b9 2c f8 81 bb 8c 75 77 bb
       9.6849646e-05 -0.00024756487 -0.003966352 -0.0037759272
000080 18 46 05 3b d4 2e 78 ba 69 2f 23 3b 0d 32 89 3b
       0.0020335969 -0.0009467427 0.0024900085 0.0041868747
000090 ce 85 ff 3a b4 19 db 3a 09 ef e2 bb 40 5c 87 bb
       0.0019494833 0.0016716034 -0.006925468 -0.00413087
0000a0 cb 6e 58 3b 5c d9 0c 3b 95 c5 91 bb a6 0a 7c bb
       0.0033025022 0.002149186 -0.0044486024 -0.0038458495
0000b0 28 66 c0 ba 2b 7e 8a bb 06 57 55 3a b4 78 b2 b9
       -0.0014678882 -0.004226466 0.00081382727 -0.00034040737
0000c0 45 ac 66 3c 6c 9b 9b 3a ed 6c b5 3a 35 25 9d b9
       0.014079158 0.0011871881 0.0013841667 -0.00029973095
0000d0 66 94 0f 39 d5 57 b1 bb db c4 2d bb 1e ad af bb
       0.00013692825 -0.0054120817 -0.002651504 -0.0053612133
0000e0 01 5d 84 3b 9e ea 98 3a 3b b4 1c 39 90 98 3b bb
       0.0040394072 0.0011666601 0.0001494446 -0.002862487
0000f0 96 a7 07 bb 94 b3 50 bb 05 cd 66 ba 7a 35 ba b9
       -0.0020699254 -0.0031845318 -0.0008804354 -0.00035516528
000100 f7 72 b3 b9 b0 28 ae bb 9f 5e dc ba 27 c7 59 39
       -0.00034227196 -0.005314909 -0.0016812867 0.00020768923
000110 a9 e8 df 39 88 96 8f 3b e6 85 8f bb 35 ba 4c 3b
       0.0004270722 0.0043819584 -0.0043799756 0.0031238918
000120 d7 a6 c5 bb 43 a3 38 3b 78 b7 2e 3c 20 b6 f5 3a
       -0.0060318517 0.0028173483 0.01066386 0.0018746294
000130 ec 33 74 3a 75 9b 6f bb 55 0a 1f 3c 4f b0 ec 3b
       0.0009315598 -0.0036561165 0.009707053 0.007223166
000140 4c 13 fc b9 01 a6 41 bb 30 40 92 ba b7 74 7d bb
       -0.00048079563 -0.002954841 -0.0011158045 -0.0038674304
000150 58 d8 7f 3a 97 24 85 3a 9e 1b 16 bb 9e 11 9d bb
       0.0009759716 0.0010157999 -0.0022904645 -0.00479336
000160 84 43 ae 3b a1 f6 3c 3b 50 57 b6 38 f9 c8 2e 3c
       0.005318107 0.0028833526 8.6946995e-05 0.010668033
000170 12 05 10 bb 78 1f 56 39 a7 23 06 bb e8 7c c0 ba
       -0.0021975678 0.00020420353 -0.0020468028 -0.0014685662
000180 d5 ed 3a 3a 98 f4 2a bb 90 95 e4 3a 44 ed 8f bb
       0.00071307766 -0.002608573 0.0017439593 -0.004392298
000190 88 07 87 b8 3a 4a 92 bb ee 6b 75 3b e3 de 45 3c
       -6.4387044e-05 -0.004464415 0.0037448364 0.012077066
0001a0 0d bf 20 3c 49 ec 1d bb 27 fd 74 bb 50 0c e3 3a
       0.009811175 -0.0024097136 -0.0037382336 0.0017322395
0001b0 38 8d d5 ba 00 4d 20 bb a8 97 32 3b 98 c4 e5 ba
       -0.0016292697 -0.0024459958 0.0027251039 -0.0017529903
0001c0 1c f1 70 39 68 f9 64 bb 08 c6 0b b9 09 86 26 bb
       0.00022978004 -0.0034938697 -0.00013329845 -0.002540948
0001d0 0a db 14 39 15 c2 05 3b b4 ff 62 bb ba 99 78 b8
       0.00014195978 0.0020409871 -0.0034637274 -5.9270977e-05
0001e0 23 a3 55 bb 68 d3 ac ba f2 a7 26 3b f8 b2 65 ba
       -0.0032598458 -0.0013185563 0.0025429693 -0.0008762325
0001f0 42 5a 79 39 b3 43 8b ba 3e 41 31 bb 41 d7 49 bb
       0.00023780114 -0.0010625034 -0.0027046944 -0.0030798467

action_model._discrete_distribution.branches.0.weight f4 [3, 128]
000000 e6 92 32 3c e2 dd 3d bb 09 06 e1 ba 09 dd 72 3c
       0.010899281 -0.0028971364 -0.0017167936 0.014823207
000010 0e 17 9d 3b 02 fe 4a 3b e5 3a f4 bb 6e 0b 25 bb
       0.004794008 0.0030974154 -0.00745331 -0.0025183815
000020 79 26 a6 3b f5 ec 5a 3c 42 50 05 3c 9c bb 1e 3c
       0.0050705043 0.013362159 0.008136811 0.009688284
000030 4d c4 29 3c 6c 27 f7 bb 1a 58 ec bb b9 d1 ab ba
       0.010361743 -0.0075425413 -0.007212651 -0.0013108767
000040 ec 54 3f 3c ea 6a ae 39 af 6e 88 3c 3b c5 e7 3a
       0.011677962 0.00033267523 0.01665434 0.0017682681
000050 5b 3a d9 3c 86 c7 12 3c b6 9b 62 3c e4 69 d8 bb
       0.026517084 0.008958703 0.01383107 -0.00660442
000060 49 fd 7a 3c 25 ef 35 bc 7c 9f 25 bc fc 7c 11 bc
       0.015319177 -0.01110438 -0.010108825 -0.008879896
000070 8b b7 f1 bb 7c 80 2e bb 4b 8a 19 3c 55 85 83 3b
       -0.0073766164 -0.0026626876 0.0093713505 0.004013697
000080 5b de 38 bb 32 32 9d bc b9 26 19 bc 55 5e 81 3c
       -0.0028208706 -0.019188974 -0.009347611 0.015792051
000090 7a 00 84 bb a1 db b1 3c 7a f5 57 38 41 64 d7 3b
       -0.004028377 0.021711173 5.1488612e-05 0.0065732305
0000a0 ce 0c 37 bb 7f b1 9c ba 14 60 82 3b 86 d1 c7 3b
       -0.0027931216 -0.0011954753 0.0039787386 0.006097975
0000b0 ec d0 cc 39 bb c4 a9 3b b5 f8 5a bc b4 5f 07 bc
       0.0003906557 0.005180923 -0.01336496 -0.0082625635
0000c0 65 19 51 3c 72 2b 14 bb db 21 91 3c 62 dd df b9
       0.012762402 -0.0022608903 0.017716339 -0.00042698818
0000d0 e5 9e db ba 21 c4 e6 3b 6b 7f 5d 3b 8c 2a 09 3b
       -0.0016755728 0.0070424234 0.003379787 0.00209299
0000e0 18 fe bb bc 9d 2c 8a bc ab bf 0a bc 9b d4 ad 39
       -0.02294831 -0.016866976 -0.008468549 0.00033155535
0000f0 be 4f a0 3b 54 8d 1c 3c d7 00 3a bb 89 8e 85 bc
       0.0048923185 0.00955518 -0.0028381848 -0.016303318
000100 e4 b8 ee 3b fd 84 48 3c 81 59 c5 bb dc 09 75 ba
       0.0072852243 0.012238738 -0.0060226326 -0.00093474775
000110 22 b6 e5 39 8b 47 2f 3c 74 b6 04 bb 64 1d 19 bc
       0.00043813983 0.0106982095 -0.0020250352 -0.009345386
000120 77 e9 60 3c 67 69 d2 3b a3 a7 be 3c 71 64 19 bc
       0.013727537 0.0064212563 0.023273295 -0.009362326
000130 cb 02 10 bc 20 58 96 3b 08 30 6b 3b 3a 7b bb 3c
       -0.008789728 0.004588142 0.0035886783 0.022885907
000140 f6 bc 41 bc c5 b1 99 b9 12 3b a2 3c 2a 19 42 bc
       -0.011824837 -0.00029314883 0.019803558 -0.01184682
000150 e2 4d 61 bc 9f 87 16 3c 4f a6 c9 ba 86 2c 8b 3c
       -0.013751479 0.009187608 -0.0015384647 0.016989004
000160 da 69 ea bb 13 36 b9 bc aa 27 4d bc e2 67 c9 3c
       -0.007153732 -0.022608792 -0.012521664 0.024585668
000170 c4 10 18 3c 2d ef 56 bc 7c 37 73 bc 2a 71 c9 3b
       0.009281341 -0.013118547 -0.0148447715 0.0061475234
000180 75 d9 26 3c a5 67 05 3c 3a 47 88 bb a2 58 cc 3b
       0.010183682 0.008142387 -0.0041588815 0.006236152
000190 84 c2 31 ba 59 8e 24 bc 68 67 85 3c 17 3b 99 3c
       -0.0006780999 -0.010043704 0.01628466 0.018704934
0001a0 90 ff 73 3c 92 80 18 3c a9 97 9c 39 76 62 3b 3c
       0.014892474 0.009307997 0.00029867634 0.011437049
0001b0 b7 de ab ba ea d8 b2 3b eb 90 6e bc 88 5e 88 bc
       -0.0013112639 0.005457987 -0.014560918 -0.016646639
0001c0 ee b0 b4 bc 33 2a 6a 3b 40 83 bf 3b 8f 15 9f 3a
       -0.022057023 0.003573072 0.0058445036 0.0012137162
0001d0 ec 0d c2 3b dc 3a 43 3c 65 db de bb e7 12 aa bc
       0.00592207 0.011915889 -0.006801056 -0.020760966
0001e0 f1 99 1b bc 36 54 82 3c 5e 8a 0e bc 8f 15 ac 3a
       -0.009497152 0.015909296 -0.0086999815 0.0013128984
0001f0 52 58 5e 39 f9 57 07 3c 05 30 4b bc ce f5 58 3b
       0.00021204472 0.00826072 -0.0124015855 0.0033105495
000200 76 3c 40 bb 58 32 82 3b 69 5b 8e bc d8 b9 1f 3c
       -0.0029332913 0.0039732866 -0.017377572 0.009748898
000210 20 14 9c 3b 1d 9f a2 3b 9b a4 e1 3a e5 1d 1b 3c
       0.0047631413 0.0049628154 0.0017215194 0.009467577
000220 9a a1 2c bc 68 2c b1 bc 5d 5f f9 bb 00 67 a5 38
       -0.010536576 -0.02162762 -0.007610245 7.886998e-05
000230 31 ab 91 bb ab 3c b4 bb e6 57 51 3c 2d 2c df bb
       -0.0044454564 -0.0055003962 0.012777304 -0.006810686
000240 e1 fd 20 bb 7a 26 b2 bb 4a fd 4f ba 4b 9f 4d 3c
       -0.0024565386 -0.0054367157 -0.00079341664 0.012550185
000250 aa 61 96 ba d8 ee 9a bb d3 ec bb 3b d8 1c a1 bc
       -0.0011473198 -0.0047281794 0.0057350188 -0.019667074
000260 29 74 b6 3a 21 dd 3c 3c 1f 25 9f bc 91 c0 8c 3c
       0.0013920116 0.011527331 -0.01942688 0.017181667
000270 de 85 b4 3b 50 68 30 bb 73 ec 30 3b 2c 4b 3c 3c
       0.0055091223 -0.0026917644 0.0026996403 0.011492532
000280 c9 ae f6 3b 0a 99 75 3a 6f 56 35 3c b3 3e e1 bb
       0.0075281602 0.0009368813 0.011067971 -0.0068739294
000290 0e 8d df b9 c3 73 ff 3b d6 a6 44 3b 7c d2 e4 bb
       -0.00042638968 0.0077957823 0.0030006669 -0.0069830995
0002a0 1d a4 06 bb 77 1e 6c 3c 37 e9 ff 38 1a 7f 12 bb
       -0.0020544596 0.01441156 0.00012202787 -0.002235359
0002b0 06 86 ff 3b 18 b5 45 3b 78 8b 8f 3b 18 6b 42 bc
       0.0077979593 0.0030167755 0.0043806396 -0.011866353
0002c0 e6 08 1d 3c 30 fb ed bb b2 7d 86 bb 51 41 93 bb
       0.009584641 -0.00726261 -0.0041043395 -0.0044938703
0002d0 75 93 63 bc 28 21 47 3a 81 ad d5 bb a1 0d 56 bb
       -0.013890137 0.0007596188 -0.0065209274 -0.0032661932
0002e0 11 e6 09 3b b1 37 16 bb 0b 16 8a 3b dc 05 3b bb
       0.0021041671 -0.0022921378 0.0042140535 -0.0028537428
0002f0 10 0e dc 3b 70 f4 19 bc 93 d8 bb bb 7d 12 1d bc
       0.0067155436 -0.009396657 -0.005732605 -0.0095869275
000300 ba 8d 46 bc 76 61 3e 3b 83 4b d7 bb e0 c1 99 36
       -0.012118751 0.002904979 -0.006570281 4.5823253e-06
000310 b3 25 91 3b dd 3f eb 3b 39 86 c5 bb db 70 d4 bb
       0.004429543 0.007179244 -0.0060279635 -0.00648318
000320 eb f7 82 bc 34 68 27 bb 69 4f 6a 3c 4d 31 46 3b
       -0.015987357 -0.0025544288 0.014301159 0.0030241788
000330 72 c7 8c 3b e6 e7 a3 bc 05 17 c6 bb e2 f2 81 3a
       0.0042962367 -0.020008039 -0.0060452246 0.0009914304
000340 e1 7c 15 bc 35 31 03 3c 98 6d 62 bc c6 c3 17 ba
       -0.009124012 0.008007337 -0.0138200745 -0.00057893654
000350 de 7e a0 3c 1c 17 10 3b 6e 5a 5e bb 31 93 3d 3c
       0.019591745 0.002198643 -0.0033928412 0.011570738
000360 5d 6a 50 bc d1 a9 47 bc 4a d7 d7 b9 ba 79 67 3c
       -0.0127206715 -0.0121864835 -0.00041168398 0.014128143
000370 8b 66 ad 3b a1 5d a4 3c 0f f1 c2 3c 5a 8d 6e 3c
       0.005291765 0.020064177 0.023796586 0.014560068
000380 64 63 f9 3b c9 09 c3 3a ae 61 7e 3b 28 c1 7e bc
       0.0076107252 0.0014880236 0.0038815546 -0.015548982
000390 d1 ec 6d bb 85 0b 26 3c 4d 4d fa 39 26 1d 9d bc
       -0.0036304484 0.010134582 0.0004774131 -0.019178938
0003a0 69 f5 2d 3b 7c 3e 03 3b 60 a6 bd bb 1d 5c ef 3b
       0.002654398 0.0020026257 -0.0057876557 0.007304682
0003b0 55 3a c6 3b b5 b3 ac b9 9a 65 d2 bb 84 21 7b 3b
       0.006049434 -0.0003294029 -0.0064208033 0.0038319537
0003c0 aa b5 36 3a fb d3 31 bb 17 7c 5b bc 2f b5 29 bb
       0.0006969819 -0.0027134407 -0.013396285 -0.0025895347
0003d0 8e a7 59 3c 1b b8 84 bb 6a d9 8f ba da 10 95 37
       0.013284577 -0.0040502674 -0.0010974829 1.7770031e-05
0003e0 80 14 5b bc c6 a3 5f bc 27 04 6c 3c d5 f2 a8 3b
       -0.013371587 -0.0136498865 0.014405287 0.005155901
0003f0 93 88 f4 3b 1d 25 e0 3b 45 ac fb 3a cf de 08 bc
       0.00746257 0.0068403617 0.0019201121 -0.008353903

action_model._discrete_distribution.branches.0.bias f4 [3]
000000 54 8f 40 bb 53 c9 04 3b cb b1 8b 3a
       -0.0029382305 0.00202616 0.0010657845

action_model._discrete_distribution.branches.1.weight f4 [2, 128]
000000 5e 5a d9 ba fa 11 5c 3c b1 15 ca 3b 26 22 e8 3a
       -0.0016582718 0.01343202 0.0061671366 0.0017710372
000010 5d de 7d bc d7 39 15 3c 77 28 40 bc 79 e6 35 bc
       -0.01549491 0.009108028 -0.011728398 -0.011102312
000020 58 93 82 3b 30 ac a0 bc 3e 23 8c bc 5a 89 88 bb
       0.00398485 -0.019613355 -0.017106649 -0.004166764
000030 2a 8a 43 bc 63 0e 78 3c 69 54 79 3b e8 bd 15 bc
       -0.011934796 0.015140149 0.0038044697 -0.009139515
000040 20 35 78 3b b2 42 50 bb 67 7d 8a 3b 75 41 89 3c
       0.0037873462 -0.0031778035 0.004226375 0.016754845
000050 24 17 9c 3c 53 37 b7 bb 91 b9 07 3c b7 97 83 3b
       0.019054003 -0.005591312 0.008283989 0.0040158886
000060 c6 b6 e6 bb 61 55 10 3c 10 10 6a 3c a4 6e b7 39
       -0.0070408313 0.008809418 0.014286056 0.00034986914
000070 61 05 86 3c 98 a9 41 3b 2f 41 24 3c a2 97 09 bc
       0.016359987 0.0029550549 0.010025307 -0.0083979685
000080 b5 7d f7 3b 12 8c 73 bc 1e ac ac bc 48 42 5e bc
       0.0075528272 -0.014864938 -0.021078166 -0.013565607
000090 30 11 1e 3c 70 32 a7 ba 16 f3 8d 3a d1 73 49 3c
       0.0096476525 -0.001275612 0.0010829892 0.012295679
0000a0 93 bd 06 bc 50 f8 1b bb a7 f0 9a 3b d7 3c 37 bc
       -0.008223909 -0.0023799129 0.004728395 -0.011183939
0000b0 c1 27 62 bb 48 1b 88 ba ce 47 ab bb ca ba 52 ba
       -0.0034508558 -0.0010384107 -0.0052270656 -0.0008038698
0000c0 17 98 ed bb 07 02 73 bc ee 5d 82 3b 54 9c 24 3c
       -0.0072507965 -0.014832026 0.0039784824 0.010047037
0000d0 36 49 72 3b 46 d7 2c bc eb 95 5d 3c e9 7b 5e bc
       0.0036969907 -0.010549372 0.013524513 -0.013579347
0000e0 da 4e 50 bb 43 9c a3 bb 48 cb a0 3b 4d e4 99 3b
       -0.003178528 -0.004992993 0.0049070455 0.004696405
0000f0 50 2b 36 bc 7d fb c1 bb 7f e0 30 39 90 05 a6 bb
       -0.011118725 -0.0059198723 0.000168683 -0.005066581
000100 a9 14 aa 3a a0 f7 20 3b 6e de 27 3c d8 e2 6a 3a
       0.0012976128 0.0024561659 0.010245902 0.0008960194
000110 48 6a 93 3c 89 e6 f3 bb 67 e5 2d bc 27 20 0d 3c
       0.017995015 -0.0074432534 -0.010613776 0.008613623
000120 3f ba 96 3a cd 1d 1b 3c 96 df f2 b7 5a ad b3 3b
       0.0011499597 0.009467554 -2.8952763e-05 0.0054833116
000130 98 7d 38 bc f8 55 49 3b 02 a1 a2 bc 71 36 76 3c
       -0.011260413 0.0030721407 -0.019852165 0.015027628
000140 16 83 bd bb c8 72 85 bb 08 52 0a bc 0f 97 b4 bb
       -0.005783449 -0.004072521 -0.008442409 -0.0055111717
000150 94 e6 86 bc 9e f1 8a 3c 52 65 91 bb c8 e7 83 bb
       -0.01646737 0.016960915 -0.004437127 -0.004025433
000160 cb 65 0b 3c fb 63 41 3c 92 83 28 bc 2d fd 3f bc
       0.008508156 0.011803622 -0.010285275 -0.011718077
000170 3c 7e 4c bb 3d bb 1e bc 54 d3 82 3b dc 8a ef 36
       -0.0031203171 -0.009688196 0.0039924774 7.1389204e-06
000180 3a 57 d9 bb 4f 70 9f 3b a4 e9 3c bc 0e 71 5e ba
       -0.0066327127 0.004865683 -0.011530314 -0.00084854744
000190 c6 29 87 3c a9 2a 86 bb be 34 11 bc 5e fc 75 3c
       0.016499411 -0.004094441 -0.008862672 0.015013782
0001a0 87 b0 65 bc 97 00 16 bc 8f f6 b7 bb be fe 96 3b
       -0.014019138 -0.009155414 -0.005614109 0.0046080044
0001b0 d4 00 3a bc 66 d6 28 bc 9b 0a 76 3c 26 7c 27 ba
       -0.0113527365 -0.010305023 0.015017177 -0.0006389044
0001c0 e5 7c ea bb 56 43 38 bc 82 dd 4d 3c 2f f5 a4 3c
       -0.007156002 -0.011246523 0.012565019 0.020136444
0001d0 14 7c a1 3b 1e 75 2a bc 64 20 f5 3b 85 e2 15 bb
       0.0049281213 -0.0104038995 0.007480668 -0.0022870612
0001e0 99 40 aa 3b 5e 06 36 bc 6f cc b9 3a d6 93 f4 3a
       0.005195689 -0.0111099165 0.0014175306 0.0018659781
0001f0 f7 6e d8 bb 16 26 64 bc 89 cc 3d 3c 18 03 06 bc
       -0.006605025 -0.013925096 0.0115844095 -0.008179449
000200 e8 45 b4 3a 20 f6 01 bc bd 30 a1 bb e7 65 27 3b
       0.0013753744 -0.007932216 -0.00491914 0.0025542916
000210 a9 05 ab 3b 1f 0d e2 39 ac 1d 3a 37 65 bf f3 b9
       0.0052191806 0.00043115855 1.1093372e-05 -0.00046491172
000220 2a d4 53 bc 5d ee 20 3c 97 34 03 bc dc ed 3f bc
       -0.012929002 0.009822455 -0.008008144 -0.011714425
000230 5b 61 32 3c 6f 59 ad bb 5e e7 22 bc 64 3e 61 3c
       0.010887469 -0.0052902023 -0.009942858 0.013747785
000240 c2 7a 99 bb a2 ef 44 3c 19 5a 23 3c 6d 25 19 bc
       -0.0046838233 0.012020024 0.009970211 -0.009347302
000250 64 67 96 bc 48 b7 07 3c 9d 16 13 3a 6d d1 e5 3b
       -0.018359847 0.008283444 0.00056109746 0.007013491
000260 ca 3a 40 bc b2 c9 0f bc b1 d1 9e 3b ce 16 92 3b
       -0.011732766 -0.008776115 0.0048467745 0.004458285
000270 52 73 9f bb d1 34 09 3c 1c a4 1a bc a3 9e 2c bb
       -0.004866042 0.008374409 -0.009438541 -0.0026339672
000280 17 3d b2 3b 98 ec 5b 3b 2e e7 23 3a 82 94 92 bb
       0.0054394114 0.003355777 0.0006252405 -0.00447327
000290 7a 9c c0 3b a8 98 11 b9 c5 41 d3 3b 01 8f 4d bc
       0.0058780285 -0.00013885146 0.0064470493 -0.012546302
0002a0 f1 ec 80 3c 11 01 57 3c 1b d8 01 bb 7d 04 90 bc
       0.015737982 0.013122813 -0.0019812647 -0.017580265
0002b0 31 59 d2 ba 19 e1 27 bc 92 f4 7b bc 53 98 cd bb
       -0.001604831 -0.010246539 -0.015378134 -0.006274262
0002c0 da ad 40 3c 08 79 da bb 29 c4 65 3c f2 61 d8 3b
       0.011760199 -0.00666726 0.014023819 0.006603473
0002d0 3b 8f d6 3b 41 e0 6d 3c 00 43 a0 bb 4d 6c 70 ba
       0.006547836 0.014518798 -0.0048907995 -0.00091714115
0002e0 a7 b4 55 bb 26 77 a9 3a 85 35 d7 3a 59 36 32 3b
       -0.0032608898 0.0012929186 0.0016419148 0.0027193038
0002f0 56 38 60 bb 24 70 6b 3b 65 c2 8f bc 66 4f 47 b9
       -0.0034213266 0.0035924995 -0.01754875 -0.00019007697
000300 cc 5d 50 bc 02 11 01 ba dc 0f cb bb c8 2a 1b bc
       -0.012717675 -0.0004923494 -0.006196959 -0.009470649
000310 ec 9a 03 bb d9 9f 36 3c d0 84 23 bc 6b 61 3f bc
       -0.0020081354 0.011146509 -0.009980395 -0.011680941
000320 50 d0 aa 3a 37 93 7f 3c 99 81 83 bb f8 9d 38 3c
       0.0013032053 0.015599064 -0.004013252 0.011268131
000330 2f 04 50 3c 29 41 11 bc 93 e2 8e 3b 63 53 de 38
       0.01269631 -0.008865633 0.004360506 0.00010601317
000340 b0 3a 62 3b 4a 4c 01 3c 29 10 8f bc b7 eb 88 b9
       0.0034519844 0.007891724 -0.01746376 -0.00026115563
000350 32 31 4a 3b 62 58 71 3a ed 51 39 bc c0 eb a9 3a
       0.0030852077 0.00092065905 -0.011311037 0.0012963936
000360 75 b3 24 bc 8c 8c 12 bc 79 7a 3c 3c e9 f3 72 3b
       -0.0100525515 -0.008944642 0.011503809 0.0037071651
000370 b2 7e 72 bc 6c ed dd 3b f7 fd e3 bb da 2b 64 3c
       -0.014800714 0.0067726877 -0.006957765 0.013926471
000380 01 b0 33 bc c9 95 20 bc 2c a0 6f bb d5 39 92 39
       -0.010967256 -0.009801337 -0.0036563976 0.00027890378
000390 9f 19 4b ba ba cf 68 3a 5c bb 33 3c be dd 88 bb
       -0.0007747653 0.00088810513 0.010969963 -0.0041768244
0003a0 18 62 54 3c 90 20 44 3c 58 d0 f3 bb 1b 8c cd 3b
       0.0129628405 0.011970654 -0.007440608 0.0062728054
0003b0 b5 57 c2 bb 09 3a 5d 3c 78 66 5c bb d4 fc 25 bc
       -0.0059308656 0.013502606 -0.0033630412 -0.01013108
0003c0 94 4c a6 3c 69 39 70 b9 4d 92 a0 bc 4d 04 b8 3b
       0.020300187 -0.0002290957 -0.019601012 0.005615747
0003d0 b5 9f 1b 3c 80 19 0c bc 8c 8f b3 bc 74 d6 66 bc
       0.009498526 -0.008551002 -0.021919034 -0.014089216
0003e0 38 94 ac 3c db e0 91 3a e8 b6 bd 3a b8 07 1c 3c
       0.02106677 0.0011129634 0.0014474066 0.009523325
0003f0 46 ee d5 3b dc e7 4d bc ed aa 64 3b cc a3 15 3a
       0.0065286485 -0.012567487 0.0034891919 0.00057083066

action_model._discrete_distribution.branches.1.bias f4 [2]
000000 a2 fb 5c 3a 91 fb 5c ba
       0.000842983 -0.00084298203

action_model._discrete_distribution.branches.2.weight f4 [2, 128]
000000 a6 ad 4a 3c ff 5c 90 bb f3 0a 7b bc 3f e0 96 39
       0.012370503 -0.0044056172 -0.015322435 0.00028777306
000010 f7 56 ae bb f8 d9 92 39 6a b9 b5 3b 0a f2 cc 3b
       -0.0053204256 0.0002800969 0.0055457847 0.0062544392
000020 a8 7a 3a 3a 0b 66 21 3d 74 66 41 3c 36 2b 30 3b
       0.0007113614 0.039403956 0.011804212 0.0026881224
000030 04 99 c5 3c 05 6a 4a 3c f0 aa 66 3b 88 b4 93 3b
       0.024120815 0.012354379 0.0035197102 0.004507605
000040 aa e9 2e 3a 03 e6 3b 3b cd 67 f0 bb 9f b6 bf 3b
       0.0006672392 0.0028671033 -0.007336593 0.0058506276
000050 6b 58 25 3c bc 25 3f 3c a9 d4 10 3d 1f f0 00 bb
       0.010091881 0.011666711 0.03535906 -0.0019674373
000060 a5 25 bc 3b e1 c0 18 ba 5a af b9 bb 03 7f 1d bc
       0.0057417923 -0.0005827081 -0.0056666555 -0.0096128015
000070 3a 19 d0 3b 11 6b 16 bc 75 6e 23 ba f1 12 c2 bb
       0.0063506635 -0.0091808 -0.0006234416 -0.005922668
000080 8f a7 21 3b 77 b8 85 bb 06 95 9d bc d4 45 65 3c
       0.0024666523 -0.004080828 -0.019236099 0.013993699
000090 b9 ba af 39 95 2a c3 bb 68 6c a2 ba ac 38 10 3c
       0.0003351772 -0.005956004 -0.0012391927 0.008802574
0000a0 df 8d 16 3b 7b 9f 22 3c c6 b8 9b 3c 8b c4 84 bb
       0.0022972745 0.009925718 0.019009005 -0.00405175
0000b0 6c 03 1f 3c 20 71 b8 bb 1c ad 1f 3b 42 43 b9 bb
       0.009705406 -0.00562872 0.0024364656 -0.0056537697
0000c0 c7 72 09 3d d8 bc 6f 3c 24 3e 15 3c 21 c7 53 3c
       0.033556726 0.014632426 0.009109054 0.012925894
0000d0 d7 5a 00 3a 64 ba 86 3c 0c 22 e8 bb 07 a3 15 3c
       0.00048963487 0.0164463 -0.007084137 0.009133107
0000e0 fd 13 07 bc 98 9a 38 bc 67 7f d9 bb aa eb aa 3b
       -0.008244512 -0.011267327 -0.006637502 0.0052160816
0000f0 72 20 c7 37 2a 8a 61 3a 5e 9d d0 3b db 03 21 ba
       2.3737757e-05 0.0008603657 0.006366416 -0.0006142237
000100 3e 64 65 bb 88 49 5c 3c 8b 2c 9f 3b 2f ce d4 3c
       -0.0035002376 0.013445266 0.004857605 0.025977222
000110 6a fd b1 bb f0 dc 9f 3c bf a1 01 3b ee 4d 87 bc
       -0.0054318206 0.01951453 0.0019780246 -0.016516652
000120 c0 89 a3 bb bb 53 32 bc 44 4d 07 3d 9a 1d 94 3a
       -0.0049907863 -0.010884221 0.03303267 0.0011300326
000130 00 b7 74 3b ea be 36 3c 83 a4 64 3c 41 b6 cc 3b
       0.0037340522 0.011153916 0.013955238 0.0062473123
000140 dc d1 b7 38 16 f2 9d 3c 77 9a a1 3c 04 bc fc bb
       8.765209e-05 0.019280475 0.019726975 -0.007712843
000150 0b e3 34 3b 26 00 71 3a 97 2e 30 3b da 2b e1 b9
       0.0027601148 0.00091934425 0.0026883238 -0.00042948016
000160 47 be 51 bc cd 7b 85 bb d2 9f 06 3a 34 5e e8 3b
       -0.012801713 -0.004073596 0.00051355094 0.007091308
000170 af fb 59 bc 74 90 34 3c 36 38 c2 bc ed 3d 36 3b
       -0.013304635 0.011020768 -0.023708444 0.0027807907
000180 e3 78 22 bc 76 b5 9d 3b 63 84 27 bc a9 52 f2 b9
       -0.009916517 0.0048128916 -0.010224435 -0.00046219424
000190 59 ec 52 bc 02 6f 3d 3a b9 37 ec 3b 8b f7 39 3c
       -0.0128737325 0.0007226319 0.007208791 0.011350523
0001a0 83 9c 98 3c 6e 11 5e bb 99 60 b4 ba 41 da 53 3c
       0.018629318 -0.00338849 -0.0013761699 0.012930454
0001b0 dd 98 41 3b 46 7e a7 3c 26 2f 89 ba a6 06 03 bc
       0.0029540577 0.020445954 -0.0010466322 -0.007997191
0001c0 b2 88 5a ba 68 e2 ad bb 78 e4 a4 3b 78 1f 34 3c
       -0.0008336409 -0.0053065307 0.0050321184 0.010993831
0001d0 bf 7d 5d ba 59 fe f0 3b 79 f4 a3 bb 24 a7 67 3c
       -0.00084492186 0.0073545394 -0.0050035086 0.0141389705
0001e0 7b ab 40 3c 62 77 b2 ba 56 af 17 bc 1e 17 dc bb
       0.011759634 -0.0013615901 -0.009258112 -0.006716623
0001f0 d6 0a 95 bb b9 4e 68 bc 0b c3 83 bc 97 8a 7f 3a
       -0.004548411 -0.014178925 -0.016084215 0.00097481295
000200 3f 97 f0 3b c1 81 98 3b ca 4e 63 3c 8c 32 b4 bb
       0.0073422487 0.0046541397 0.013873765 -0.0054991897
000210 91 6d 4b 3c bd 68 ac bc a3 50 9b 3c bc 6a 76 ba
       0.012416259 -0.021046037 0.018959349 -0.000940006
000220 74 f0 b2 bb dd e2 d3 bc 5e 5b 8b bb 79 d6 39 bc
       -0.005460793 -0.025865013 -0.004252835 -0.011342638
000230 ed 0a b1 bc 63 51 01 3c 8c dd f2 bb c3 f4 ac bc
       -0.021611655 0.007892939 -0.0074116644 -0.021112805
000240 bb 06 4b bc 19 e9 c7 bc bc 03 fc bb e9 28 aa 3b
       -0.012391741 -0.024403142 -0.007690875 0.005192865
000250 0f 5a 1d bc bd 62 a0 bb f9 50 34 bb bf 28 4f 3c
       -0.009603991 -0.004894583 -0.0027514084 0.012643992
000260 56 cb ad 3b a5 d9 9b 3c 2d e0 63 bc bc 6b 1a bc
       0.0053037805 0.01902468 -0.013908428 -0.0094251
000270 de 81 d6 3b 9c af f2 3b 2c cd c5 3b 6d 03 9f bc
       0.006546243 0.007406188 0.0060364213 -0.019410813
000280 26 8e 38 3c 8c 43 8d 3c 9b dc fa 3a ef 77 c9 bb
       0.01126436 0.017244123 0.0019139232 -0.0061483304
000290 93 07 5e 3b bc 7b 36 bc 93 7a 69 3a 36 f5 44 3c
       0.0033879026 -0.011137899 0.00089065096 0.0120213535
0002a0 40 71 a0 bc c6 98 68 bc e6 d3 a3 bb b9 3f 71 bc
       -0.019585252 -0.01419658 -0.0049996255 -0.014724665
0002b0 f0 9a 49 bc d7 81 0a bc 39 a2 5a bb 57 ec 12 bc
       -0.012305006 -0.008453808 -0.0033360852 -0.008967481
0002c0 35 db 6a bb 3a 2c cb 3b 7f c9 92 bb 53 2c 0d 3c
       -0.0035836224 0.0062003406 -0.0044795866 0.008616525
0002d0 78 46 46 3c 38 d4 bc 3b ae f7 56 bc c6 99 94 bb
       0.012101762 0.005762603 -0.013120575 -0.004534933
0002e0 bd b2 21 3c b2 6d df 3a 07 f9 e3 3b 8d d4 3c b8
       0.009869275 0.0017046242 0.0069571766 -4.5020646e-05
0002f0 1f 6b 20 bb 51 18 05 bc 7b 1a ca bb f9 09 49 bc
       -0.0024477912 -0.008123473 -0.0061677075 -0.012270444
000300 85 25 f6 ba b5 f5 33 3b 1b e0 f3 3a 80 dd 85 bc
       -0.0018779492 0.0027459685 0.0018606217 -0.016340971
000310 d5 81 93 bb e0 81 52 3b 7c ae ed ba 9d c9 76 3c
       -0.004501561 0.0032120869 -0.0018133665 0.015062717
000320 48 27 d3 3b ae 03 2d bc d9 05 d8 bc 38 35 e0 3b
       0.0064438917 -0.010559959 -0.026369976 0.0068422817
000330 62 67 2a 39 8b a5 89 bc 88 cd 1b bd 69 3b c2 bc
       0.00016250976 -0.01680257 -0.038037807 -0.02370997
000340 51 9f 11 3c f0 54 84 3b 1b df 90 bc aa eb 2a 3c
       0.008888082 0.0040384457 -0.01768451 0.010432163
000350 4d 3c c0 ba 1a 90 d6 bb 09 bf 8b 3b 70 ad 7a 3c
       -0.0014666409 -0.00654794 0.0042647165 0.01530014
000360 9f 05 f0 b8 7c ea 1e bc 8c 3a 80 3c d3 a7 b6 bc
       -0.00011445139 -0.00969946 0.015652917 -0.022296822
000370 fb 87 2c bc 79 02 90 bb b1 1b 26 3b b4 2b cd bb
       -0.010530467 -0.004394826 0.0025346095 -0.0062613133
000380 d9 7a 2a bb da f5 07 3c 8a 01 b5 3a 87 a2 d4 bb
       -0.0026013164 0.008298362 0.0013809663 -0.0064891013
000390 05 4f 21 bc b9 02 48 bb 5b 43 67 bc b6 51 99 bc
       -0.0098455 -0.00305192 -0.01411518 -0.01871572
0003a0 95 6a 21 bc 85 b3 88 3b d3 ac 40 3b de 18 02 bc
       -0.009852071 0.004171791 0.0029399886 -0.007940499
0003b0 66 7c 9c 3a 16 ed 28 3b 71 7c f9 3b 53 56 96 bc
       0.0011938929 0.002577608 0.0076137115 -0.01835171
0003c0 2d cb c1 ba 92 41 f2 bb 02 f5 64 bc ea f5 6b 3b
       -0.0014785283 -0.0073930705 -0.01397443 0.003600473
0003d0 e0 9a 40 bc cd 19 ab bc 32 35 73 bc 63 fa 6f 3c
       -0.011755675 -0.020886326 -0.014844226 0.014647099
0003e0 4a a6 c8 ba d4 ca 71 3c 8c ed c8 3b 27 e0 67 bb
       -0.0015308347 0.014757831 0.0061318334 -0.0035381408
0003f0 8d a3 de 3b 02 e4 c7 bb 31 ef bd bc bc 68 81 3c
       0.006794399 -0.0061001787 -0.023185344 0.015797012

action_model._discrete_distribution.branches.2.bias f4 [2]
000000 66 36 7c bb 62 36 7c 3b
       -0.0038484572 0.0038484563
