results/Run3/Dark Knight Behavior/Dark Knight Behavior-0.pt (torch, 153911 bytes, 17 tensors)

network_body.linear_encoder.seq_layers.0.weight f4 [128, 5]
000000 2e 3f 00 be ec ab 0f bc 15 6f 83 3e 85 54 eb bd
       -0.12524101 -0.008769017 0.25670686 -0.1149073
000010 b9 26 1a be 5f f6 ac 3e 59 3c f9 3d 5a 66 32 be
       -0.15053834 0.33781716 0.121697135 -0.17421857
000020 1f 71 52 3f 90 0a 64 bf 06 93 a5 be ee 20 e2 3e
       0.8220386 -0.8907862 -0.32338732 0.44165748
000030 a4 0d db 3e e5 09 70 3e 90 03 b2 be 09 fd 26 bf
       0.42783844 0.23441274 -0.34768343 -0.6522985
000040 ec 78 0b be 55 63 75 3d c7 04 0f 3e 98 69 b0 3e
       -0.13620347 0.059909184 0.13966666 0.34455562
000050 37 70 d1 bd 5f 42 8a 3e 71 37 f5 3e 3f d5 fa be
       -0.102264814 0.27003762 0.4789386 -0.4899082
000060 5b 0b 99 3e dd 8b 98 be 0a 0f 4d 3e b4 ca bd 3e
       0.29891476 -0.29794207 0.20025268 0.37068713
000070 52 79 c5 be cf 56 d5 3e 47 f7 f9 be 8c 38 93 3f
       -0.38569123 0.41667792 -0.4882147 1.1501632
000080 0d a6 83 bf 67 11 4d bf f1 5d 02 bf 4a 46 71 3f
       -1.028505 -0.8010468 -0.50924593 0.9424788
000090 2e 07 53 bf 0c 5d 12 3f a9 46 c5 be 1a b3 cb 3e
       -0.8243283 0.5717323 -0.38530472 0.3978508
0000a0 5e 6c 0a 3f ab ef 0e bf 0b a8 c9 be 8a 89 12 3d
       0.54071605 -0.55834454 -0.3938602 0.0357757
0000b0 b1 e0 a7 bb 87 7f 9f 3e 6a 0c eb be fa 83 a7 3e
       -0.005123221 0.31151983 -0.4590791 0.32717878
0000c0 7f b3 f5 3e 75 76 7a be 66 f4 2a 3e c8 32 f6 3d
       0.47988507 -0.2445925 0.16694793 0.120214045
0000d0 0a f4 16 bd 0b 41 cc be 05 5e 34 3e af fa 7c bf
       -0.036853828 -0.39893374 0.1761399 -0.9882001
0000e0 f7 5b ff be 1f bf c4 3e a3 52 7d be cb df f7 be
       -0.4987485 0.38427064 -0.24738555 -0.48412928
0000f0 0b c0 9d be 5a c8 85 be b0 d6 c9 be 41 7a d6 3e
       -0.3081058 -0.2612942 -0.39421606 0.41890147
000100 5d 0a 24 bf 41 75 cb bd 18 44 5a 3f 29 2c a5 3e
       -0.64078313 -0.09934474 0.8526015 0.32260254
000110 69 ac 32 bf 92 55 4c 3d 41 39 a3 be 29 f3 1d 3f
       -0.6979433 0.049886294 -0.3187962 0.6169916
000120 85 7d 7f be b0 85 78 3b e4 61 74 bf 92 df 61 3e
       -0.24950226 0.003792148 -0.9546187 0.22057942
000130 22 2b 04 3f ab bf 5c 3f f8 b5 7a 3e ce ba 0f 3f
       0.51628315 0.8622996 0.24483478 0.56144416
000140 16 a3 92 3d dc 7d c0 3e a3 41 cb be ac e7 dc be
       0.071600124 0.37596023 -0.39698514 -0.43145502
000150 cb 3c a7 3d 08 5a 9a 3d d9 da ed 3e d0 34 7b 3e
       0.08165892 0.07536703 0.4645603 0.24531865
000160 5f 61 89 3e 38 c3 40 3e 00 48 b0 bd de d1 d4 bd
       0.268321 0.1882447 -0.08607483 -0.103915915
000170 ca 12 d3 3e 30 20 1c 3f 74 3d 12 bf 5d 24 0c 3f
       0.41225272 0.60986614 -0.5712502 0.54742986
000180 48 d7 39 3f 53 3e a8 3e d8 01 50 3e 08 cf 49 3f
       0.7259412 0.3286005 0.20313203 0.7883153
000190 63 22 f5 3e 61 a6 b8 be de f9 c6 be 57 cc 9e be
       0.47877797 -0.36064437 -0.3886251 -0.31015274
0001a0 d7 02 d9 3e d8 59 df be c7 8f e1 3e c7 ef 04 3f
       0.4238498 -0.43623233 0.44055006 0.5192837
0001b0 96 43 3f be a4 df b0 3e 54 f1 c4 3e cd 03 18 bf
       -0.18678126 0.34545624 0.3846537 -0.593808
0001c0 79 11 25 3f 6e 6c 81 3e 1c f4 8e 3e 71 31 bc bd
       0.64479786 0.25278038 0.27920616 -0.09189118
0001d0 36 23 a4 bc 2c 67 d5 3e db 17 0b 3f 63 30 a4 be
       -0.020036321 0.41680276 0.54333276 -0.32068166
0001e0 ab 46 42 3f 53 52 dd bd 7e fe 27 bf 34 24 c4 3c
       0.7588908 -0.10806718 -0.656227 0.023943044
0001f0 b5 23 08 3f fa 14 cc be bb 32 8e be ee f9 79 3b
       0.53179485 -0.39859754 -0.2777308 0.0038143354
000200 88 6e 44 3e 51 f5 45 be d9 65 d8 be aa 3c 2d 3e
       0.1918279 -0.19331862 -0.42265204 0.16917673
000210 83 23 71 bf af 55 41 3c 91 fc e0 3e 4b 8f 1a 3f
       -0.9419481 0.011800214 0.43942693 0.603749
000220 38 8f 06 be bf 8f f6 be 34 7d 33 bf 4b 40 56 be
       -0.13140571 -0.48156545 -0.7011292 -0.20922963
000230 ec b2 3b 3f 11 fd 95 be 0f b8 d8 be cb 82 6e 3f
       0.7331989 -0.29294637 -0.42327926 0.93168324
000240 de 62 38 3f ef d4 4b 3d 28 f5 c4 be f3 f6 21 be
       0.7202586 0.049763616 -0.3846829 -0.1581686
000250 09 8a 12 3f 3e fa c6 3e 28 b2 3b 3e ac b2 02 bf
       0.57241875 0.38862795 0.1832968 -0.5105388
000260 ee ad ae 3e f1 0f 49 bf 80 b0 11 3e 31 2d df 3e
       0.34117073 -0.7853995 0.14227486 0.43589166
000270 65 fa 19 3f d3 56 bf bd 56 c5 22 3f f2 da 84 3f
       0.60147697 -0.09342732 0.6358236 1.0379317
000280 da 4d 8b be ed de 68 be 20 06 81 bd 8a 98 3e bf
       -0.27207834 -0.2274129 -0.062999964 -0.74451506
000290 4d 51 84 bd 27 3e 59 3f 0a e9 0a 3f ac 0c 07 3f
       -0.064608194 0.8486046 0.5426184 0.5275371
0002a0 c8 ba 45 3e 69 8f 75 bf 96 58 34 3f 45 3c 90 bd
       0.19309533 -0.9592195 0.7044767 -0.070427455
0002b0 77 71 96 bc 1e 64 24 bf 73 4b 23 be 1b 18 58 3e
       -0.018364651 -0.64215267 -0.1594675 0.21102946
0002c0 f8 9b 3b bf 0d 37 94 be 2b bc 15 3e f7 51 5a 3e
       -0.73284864 -0.2894825 0.14622562 0.2132033
0002d0 e9 d0 97 be 1f 17 95 3e 69 a7 c3 be 12 70 59 3e
       -0.29651573 0.29119202 -0.3821366 0.21234158
0002e0 ab c8 c7 3e 85 c0 d8 be e1 3c 5c bf 9e e2 cc be
       0.39020285 -0.4233438 -0.86030394 -0.40016645
0002f0 14 d6 53 3f 68 d5 3a be 37 18 38 bf e2 5e 0b 3f
       0.8274853 -0.1824547 -0.7191195 0.54441655
000300 7d bb 4b bf 70 fc b8 be f7 2c 9b 3e 9c af 1c bf
       -0.7958296 -0.36130095 0.30307743 -0.6120546
000310 fe c4 50 3e 10 ae f4 3d 35 36 91 bd cf 28 37 bf
       0.20387647 0.11947262 -0.07090417 -0.71546644
000320 1c 35 a7 be aa 58 a6 3d 1f ca 8b 3e 9f a7 b8 be
       -0.32657707 0.0812238 0.27302644 -0.36065385
000330 a2 30 9a 3e 65 79 7f 3e d6 9e d2 be 81 a4 9f be
       0.3011523 0.24948652 -0.41136807 -0.31180194
000340 1a 13 83 3e 5a 31 76 be da 9d e8 bd b9 d5 05 bf
       0.2560051 -0.24042264 -0.11358233 -0.5227924
000350 d4 b3 0c bf 1b 93 84 3e f2 58 35 3f e1 9c 3a 3f
       -0.54961896 0.25893483 0.70838845 0.7289563
000360 76 21 90 3d cc 22 ec 3e 6b 3e bb be 7f 83 94 3e
       0.07037632 0.46120298 -0.3657106 0.29006574
000370 de 81 01 bf 30 bd 60 3e 88 f3 1d be 74 9d 82 be
       -0.50588787 0.2194717 -0.15424931 -0.25510752
000380 f7 2f 12 be 15 16 9b bc d7 d0 1d bf a4 4c 8e 3f
       -0.1427611 -0.018931428 -0.6164679 1.1117139
000390 4c 1f 69 bf f0 24 3c 3f 5f 88 21 3f b3 81 34 3f
       -0.9106338 0.7349386 0.6309871 0.70510405
0003a0 d1 ef ac bd 21 be 65 3e 18 0f 82 3e 8c 5a 34 3e
       -0.08444179 0.2243581 0.2540214 0.17612666
0003b0 e0 c9 80 3f c3 2e 68 be 0d 30 f6 3e 74 91 ce be
       1.0061607 -0.22674088 0.48083535 -0.40345347
0003c0 97 d9 97 bf 89 b8 eb 3e 4f e1 38 3e 3d 89 cf bd
       -1.1863278 0.46039227 0.18054698 -0.10133598
0003d0 a5 f2 76 3e a2 f9 1d bd 78 c7 9a be d8 61 f1 be
       0.24115999 -0.038568147 -0.30230308 -0.4714496
0003e0 16 fb 31 bf dd 6b 1e be 22 56 31 bf 49 e5 d9 3e
       -0.6952375 -0.15470834 -0.69272053 0.42557743
0003f0 93 8d 9d be 4c e1 dd be 33 03 1f 3f 2d 40 e4 be
       -0.30772075 -0.4333595 0.62114257 -0.44580212

network_body.linear_encoder.seq_layers.0.bias f4 [128]
000000 00 00 00 00 00 00 00 00 00 00 00 00 00 00 00 00
       0.0 0.0 0.0 0.0
000010 00 00 00 00 00 00 00 00 00 00 00 00 00 00 00 00
       0.0 0.0 0.0 0.0
000020 00 00 00 00 00 00 00 00 00 00 00 00 00 00 00 00
       0.0 0.0 0.0 0.0
000030 00 00 00 00 00 00 00 00 00 00 00 00 00 00 00 00
       0.0 0.0 0.0 0.0
000040 00 00 00 00 00 00 00 00 00 00 00 00 00 00 00 00
       0.0 0.0 0.0 0.0
000050 00 00 00 00 00 00 00 00 00 00 00 00 00 00 00 00
       0.0 0.0 0.0 0.0
000060 00 00 00 00 00 00 00 00 00 00 00 00 00 00 00 00
       0.0 0.0 0.0 0.0
000070 00 00 00 00 00 00 00 00 00 00 00 00 00 00 00 00
       0.0 0.0 0.0 0.0
000080 00 00 00 00 00 00 00 00 00 00 00 00 00 00 00 00
       0.0 0.0 0.0 0.0
000090 00 00 00 00 00 00 00 00 00 00 00 00 00 00 00 00
       0.0 0.0 0.0 0.0
0000a0 00 00 00 00 00 00 00 00 00 00 00 00 00 00 00 00
       0.0 0.0 0.0 0.0
0000b0 00 00 00 00 00 00 00 00 00 00 00 00 00 00 00 00
       0.0 0.0 0.0 0.0
0000c0 00 00 00 00 00 00 00 00 00 00 00 00 00 00 00 00
       0.0 0.0 0.0 0.0
0000d0 00 00 00 00 00 00 00 00 00 00 00 00 00 00 00 00
       0.0 0.0 0.0 0.0
0000e0 00 00 00 00 00 00 00 00 00 00 00 00 00 00 00 00
       0.0 0.0 0.0 0.0
0000f0 00 00 00 00 00 00 00 00 00 00 00 00 00 00 00 00
       0.0 0.0 0.0 0.0
000100 00 00 00 00 00 00 00 00 00 00 00 00 00 00 00 00
       0.0 0.0 0.0 0.0
000110 00 00 00 00 00 00 00 00 00 00 00 00 00 00 00 00
       0.0 0.0 0.0 0.0
000120 00 00 00 00 00 00 00 00 00 00 00 00 00 00 00 00
       0.0 0.0 0.0 0.0
000130 00 00 00 00 00 00 00 00 00 00 00 00 00 00 00 00
       0.0 0.0 0.0 0.0
000140 00 00 00 00 00 00 00 00 00 00 00 00 00 00 00 00
       0.0 0.0 0.0 0.0
000150 00 00 00 00 00 00 00 00 00 00 00 00 00 00 00 00
       0.0 0.0 0.0 0.0
000160 00 00 00 00 00 00 00 00 00 00 00 00 00 00 00 00
       0.0 0.0 0.0 0.0
000170 00 00 00 00 00 00 00 00 00 00 00 00 00 00 00 00
       0.0 0.0 0.0 0.0
000180 00 00 00 00 00 00 00 00 00 00 00 00 00 00 00 00
       0.0 0.0 0.0 0.0
000190 00 00 00 00 00 00 00 00 00 00 00 00 00 00 00 00
       0.0 0.0 0.0 0.0
0001a0 00 00 00 00 00 00 00 00 00 00 00 00 00 00 00 00
       0.0 0.0 0.0 0.0
0001b0 00 00 00 00 00 00 00 00 00 00 00 00 00 00 00 00
       0.0 0.0 0.0 0.0
0001c0 00 00 00 00 00 00 00 00 00 00 00 00 00 00 00 00
       0.0 0.0 0.0 0.0
0001d0 00 00 00 00 00 00 00 00 00 00 00 00 00 00 00 00
       0.0 0.0 0.0 0.0
0001e0 00 00 00 00 00 00 00 00 00 00 00 00 00 00 00 00
       0.0 0.0 0.0 0.0
0001f0 00 00 00 00 00 00 00 00 00 00 00 00 00 00 00 00
       0.0 0.0 0.0 0.0

network_body.linear_encoder.seq_layers.2.weight f4 [128, 128]
000000 83 10 a6 3d 09 73 33 3c 6c 68 1a bb 8c ec 55 bd
       0.08108618 0.0109527195 -0.0023560775 -0.05222754
000010 0b f6 ab bd 2a a5 42 3d 9d 4f 26 3c cd 2d da 3d
       -0.08396538 0.047520794 0.010150817 0.10653267
000020 56 de 54 3e ef 55 15 3e b2 a8 81 3c 9a 05 a7 bb
       0.2078794 0.14583562 0.01582751 -0.0050971033
000030 86 0b 17 3e f4 74 56 3e 7a 2c d0 bd 1e ab 93 bb
       0.1475049 0.20943052 -0.10164733 -0.0045064827
000040 2a 44 32 3e 3f 6d 97 3c ee b5 c7 3c 00 18 79 3a
       0.17408815 0.01848471 0.024378743 0.00095021725
000050 ee 97 73 3e 3e dd ba 3d 30 46 6a bd 59 64 f2 bd
       0.23788425 0.0912423 -0.057195842 -0.11835546
000060 9f 1a ed 3b 52 9b 3c bd 64 fe a7 bc ab 3f e7 3d
       0.0072358395 -0.046046562 -0.020507045 0.112914406
000070 0a e0 9b 3d c7 fd 8c bd 8c c1 f5 bc b0 ed ca bd
       0.076110914 -0.06884342 -0.029999517 -0.099086165
000080 0d 65 f7 bc e0 f5 a3 3c 42 aa e3 3d 0e 5a de bc
       -0.030199552 0.020014703 0.111164585 -0.02714255
000090 e0 11 40 3d c0 32 90 3d 19 4b 4a bd 9c 5a 34 be
       0.046892047 0.0704093 -0.049388025 -0.1761269
0000a0 43 a4 0c 3d 0c a2 9c 3d 24 4e ce bd 35 8f 7b 3c
       0.03433634 0.076480955 -0.10073498 0.015353967
0000b0 a5 33 44 3e 6c 0d f0 bc 70 5f 1b be c3 a9 bb bd
       0.19160326 -0.029303275 -0.15173125 -0.09163239
0000c0 79 37 c0 3d 34 7a cd bd d6 c7 fd bb 5f d9 f9 3d
       0.093855806 -0.10033074 -0.0077447696 0.12199663
0000d0 9f 3b c2 3c 8b aa 65 bc 40 63 2b bd 96 ab ed bc
       0.02371007 -0.014017711 -0.0418427 -0.029012483
0000e0 fe 12 49 bd c5 d4 d3 3d 04 d3 cb bc c5 f0 1b 39
       -0.049090378 0.10343317 -0.024880894 0.00014871646
0000f0 01 8d 07 3e 0a fc a2 bd b3 aa a3 bd d0 b7 6c 3d
       0.13237382 -0.07958229 -0.07991543 0.057792485
000100 89 7a e0 3d ae 30 e0 3d c5 66 2d be 53 ad f6 bd
       0.10960872 0.10946785 -0.16933735 -0.12044778
000110 91 62 31 be 5a b3 e7 3c 91 86 33 3b be 4b 2f bd
       -0.17322756 0.028283764 0.002739344 -0.042796843
000120 94 1b 93 3c 87 d4 9a bd cd 93 ee 3b 71 b7 57 3d
       0.017957486 -0.075600676 0.007280803 0.052665178
000130 09 b2 6b 3d cc 94 87 3d af 4c 3f be c8 0d 26 3e
       0.057542834 0.066201776 -0.18681596 0.16216195
000140 a7 70 56 be df f5 94 bd 6a ab 43 3d c2 b4 88 3c
       -0.20941411 -0.07273459 0.047770895 0.016687755
000150 49 c1 54 3e 41 28 8d bd 59 fd c9 bd f6 fe 98 bc
       0.20776857 -0.068924434 -0.09862775 -0.018676262
000160 f1 08 ee 3d 15 38 10 3d 34 a4 b9 3d 50 d9 dc 3b
       0.11622799 0.035209734 0.090645224 0.006739773
000170 c5 f4 06 3d ca a0 c7 3b 81 9f 51 3d a5 2c b4 bd
       0.032948274 0.0060921656 0.051177505 -0.08797578
000180 81 4b 07 be 71 15 10 bb 29 4f b2 bd 5c 84 15 3d
       -0.13212396 -0.0021985436 -0.08706505 0.03650318
000190 47 7f b2 bd 61 86 31 bd 95 34 ed bd ea 76 6d 3d
       -0.087156825 -0.043341044 -0.11582295 0.057974733
0001a0 96 e0 92 3d e3 46 cc 3c f0 5c c5 3d 76 14 e3 3d
       0.071717426 0.024936145 0.09636867 0.11087887
0001b0 50 86 a9 bd 49 85 22 3d b0 85 e5 3c 31 ee 20 be
       -0.08277571 0.039677892 0.028017849 -0.15715863
0001c0 c5 ef 24 bc 15 f8 3e be 01 70 1b 3e 90 9c 12 be
       -0.010066931 -0.18649323 0.15179445 -0.14317536
0001d0 3e 9a b0 3d 7e 88 81 bc 8a 2a 85 3c f9 13 b2 bc
       0.08623169 -0.015812155 0.016255636 -0.02173804
0001e0 a5 3b 2c 3c 25 81 93 3c 5d 00 10 3e bf a3 16 be
       0.010512267 0.018005917 0.14062639 -0.14710902
0001f0 ef 21 0c bd 1f 77 cb 3d 84 e4 08 3e d6 02 38 be
       -0.03421205 0.0993483 0.13368422 -0.17969832
000200 26 b4 99 3d 54 14 96 3d 51 d5 44 3c f8 d2 d7 3d
       0.07505064 0.07328096 0.012013749 0.10538286
000210 4a 84 b5 bc fe 91 93 3d 07 ee 9f 3d 85 1b c6 bb
       -0.022157807 0.0720558 0.07809072 -0.006045761
000220 57 f5 53 3e ac 0a fe 3c 56 92 6b bd 04 cf 08 3e
       0.20699058 0.031010948 -0.057512604 0.1336022
000230 06 96 15 be 36 00 8e bd 71 d9 62 3e 82 78 b9 bd
       -0.1460801 -0.06933634 0.2215326 -0.09056188
000240 9c 34 38 bd b0 44 8c 3c e5 e9 4f bd 7b 84 4f bc
       -0.044972047 0.017122597 -0.05076017 -0.012665863
000250 cb d1 8c 3d 4c 26 87 bd 0f 7d 59 bd fb 47 45 be
       0.06875952 -0.065991014 -0.05309778 -0.1926574
000260 87 ea 16 be db 4a 0e 3d d8 bc 6e bd a2 26 bc bb
       -0.14737903 0.034739356 -0.058285564 -0.00574191
000270 51 dd b4 3b da f4 9f ba 8e 7d 0b 3e b7 67 9b 3d
       0.005519547 -0.0012203709 0.13622114 0.075881414
000280 e8 26 49 bc d8 a1 2f bd 69 f5 3c 3d 57 05 c4 bd
       -0.012277342 -0.042878956 0.04613248 -0.09571331
000290 08 8c bf bd 82 b6 86 be bf 81 be 3d 88 bb 02 be
       -0.09352881 -0.26311117 0.09302091 -0.1276685
0002a0 87 ea 9a 3c 46 e0 b8 bc 89 2c 55 bc 52 f3 00 3e
       0.01891066 -0.02256788 -0.013011106 0.1259282
0002b0 cc 03 0b 3d 99 60 71 bd 97 79 f5 3d 17 c6 8a bc
       0.033939168 -0.058930013 0.11986082 -0.01694016
0002c0 6c 2e 97 3d c3 11 2d bd bf e1 10 3d 8c 0a d5 3c
       0.07381901 -0.042253267 0.03537154 0.026006006
0002d0 5a fa e3 bd ba 7b dc bc 9b 57 4e 3d be 9f 7f 3e
       -0.11131735 -0.026914466 0.050376516 0.2496328
0002e0 2f b9 ff 3d 41 eb d7 bc a4 93 f6 bb 7e 4d 1f 3e
       0.12486493 -0.026357295 -0.0075249244 0.15556905
0002f0 dc 23 b3 bd 46 29 b7 3d 97 f7 49 3d ec 89 85 3d
       -0.08747074 0.08943419 0.049308386 0.06520447
000300 55 3e 8c 3b d5 04 fe bd 57 d9 49 bc f6 b9 a0 3d
       0.0042798915 -0.124032654 -0.012319884 0.07847969
000310 e3 4b 14 bc 26 69 70 be bf e9 d7 bc 5d a0 38 be
       -0.009051296 -0.23477611 -0.026356576 -0.18029924
000320 67 ce 4b bd 62 2b 03 3d c4 ee e8 bd 75 19 23 3e
       -0.049757387 0.032023795 -0.11373666 0.1592768
000330 10 ac 45 3d 13 eb 60 3e e7 cc 9a ba 17 c3 52 be
       0.048259795 0.21964674 -0.0011810333 -0.20582233
000340 75 f3 d5 bd 44 12 8a 3c 7d 82 ce 3c e6 c7 46 be
       -0.10446826 0.016854413 0.025208706 -0.19412193
000350 63 03 3f 3d 64 28 58 bc 17 85 f5 bb 00 ba ab 3c
       0.04663409 -0.013193224 -0.007492672 0.020962715
000360 e0 25 e6 bd 67 bf 59 bb 5b e3 ae bc a5 05 09 bc
       -0.11237693 -0.0033225657 -0.021348646 -0.008363162
000370 35 95 a6 bc b8 bb dd 3d e7 d0 39 be 6c 65 d5 bb
       -0.02033482 0.1082682 -0.18146096 -0.0065123346
000380 ae a2 e9 3d 73 11 34 bd 79 ee 2c bc 37 26 0d bd
       0.11407982 -0.043961953 -0.010554903 -0.034460273
000390 89 80 09 3d 81 0f 07 3d 90 c4 ad bd 9e 16 b9 bd
       0.033569846 0.03297377 -0.08484757 -0.09037517
0003a0 26 4f ec bc 24 5a 97 3c db 84 32 bd c3 56 8a 3c
       -0.028846335 0.0184756 -0.043583732 0.016887074
0003b0 3b 97 0c 3e c6 b2 d0 bc 8e d6 09 bd 87 c2 e1 bd
       0.13729565 -0.02547587 -0.03365188 -0.11023431
0003c0 16 02 5d be de c0 2b bd f9 b0 dc bc 29 05 8c bd
       -0.21582827 -0.04193198 -0.026939856 -0.06836922
0003d0 69 ac af 3c aa 2c 94 3a 95 3d c3 bd 54 9a b8 3d
       0.021444516 0.0011304815 -0.0953323 0.09013811
0003e0 fb 73 34 3e a7 15 1d 3b 3f 53 01 be d7 9f 27 3d
       0.17622368 0.0023969205 -0.12629412 0.04092392
0003f0 7f 74 a8 3d 4b ab 9c 3c 47 16 13 be c6 69 18 3d
       0.08225345 0.019124648 -0.14363967 0.03721025

network_body.linear_encoder.seq_layers.2.bias f4 [128]
000000 00 00 00 00 00 00 00 00 00 00 00 00 00 00 00 00
       0.0 0.0 0.0 0.0
000010 00 00 00 00 00 00 00 00 00 00 00 00 00 00 00 00
       0.0 0.0 0.0 0.0
000020 00 00 00 00 00 00 00 00 00 00 00 00 00 00 00 00
       0.0 0.0 0.0 0.0
000030 00 00 00 00 00 00 00 00 00 00 00 00 00 00 00 00
       0.0 0.0 0.0 0.0
000040 00 00 00 00 00 00 00 00 00 00 00 00 00 00 00 00
       0.0 0.0 0.0 0.0
000050 00 00 00 00 00 00 00 00 00 00 00 00 00 00 00 00
       0.0 0.0 0.0 0.0
000060 00 00 00 00 00 00 00 00 00 00 00 00 00 00 00 00
       0.0 0.0 0.0 0.0
000070 00 00 00 00 00 00 00 00 00 00 00 00 00 00 00 00
       0.0 0.0 0.0 0.0
000080 00 00 00 00 00 00 00 00 00 00 00 00 00 00 00 00
       0.0 0.0 0.0 0.0
000090 00 00 00 00 00 00 00 00 00 00 00 00 00 00 00 00
       0.0 0.0 0.0 0.0
0000a0 00 00 00 00 00 00 00 00 00 00 00 00 00 00 00 00
       0.0 0.0 0.0 0.0
0000b0 00 00 00 00 00 00 00 00 00 00 00 00 00 00 00 00
       0.0 0.0 0.0 0.0
0000c0 00 00 00 00 00 00 00 00 00 00 00 00 00 00 00 00
       0.0 0.0 0.0 0.0
0000d0 00 00 00 00 00 00 00 00 00 00 00 00 00 00 00 00
       0.0 0.0 0.0 0.0
0000e0 00 00 00 00 00 00 00 00 00 00 00 00 00 00 00 00
       0.0 0.0 0.0 0.0
0000f0 00 00 00 00 00 00 00 00 00 00 00 00 00 00 00 00
       0.0 0.0 0.0 0.0
000100 00 00 00 00 00 00 00 00 00 00 00 00 00 00 00 00
       0.0 0.0 0.0 0.0
000110 00 00 00 00 00 00 00 00 00 00 00 00 00 00 00 00
       0.0 0.0 0.0 0.0
000120 00 00 00 00 00 00 00 00 00 00 00 00 00 00 00 00
       0.0 0.0 0.0 0.0
000130 00 00 00 00 00 00 00 00 00 00 00 00 00 00 00 00
       0.0 0.0 0.0 0.0
000140 00 00 00 00 00 00 00 00 00 00 00 00 00 00 00 00
       0.0 0.0 0.0 0.0
000150 00 00 00 00 00 00 00 00 00 00 00 00 00 00 00 00
       0.0 0.0 0.0 0.0
000160 00 00 00 00 00 00 00 00 00 00 00 00 00 00 00 00
       0.0 0.0 0.0 0.0
000170 00 00 00 00 00 00 00 00 00 00 00 00 00 00 00 00
       0.0 0.0 0.0 0.0
000180 00 00 00 00 00 00 00 00 00 00 00 00 00 00 00 00
       0.0 0.0 0.0 0.0
000190 00 00 00 00 00 00 00 00 00 00 00 00 00 00 00 00
       0.0 0.0 0.0 0.0
0001a0 00 00 00 00 00 00 00 00 00 00 00 00 00 00 00 00
       0.0 0.0 0.0 0.0
0001b0 00 00 00 00 00 00 00 00 00 00 00 00 00 00 00 00
       0.0 0.0 0.0 0.0
0001c0 00 00 00 00 00 00 00 00 00 00 00 00 00 00 00 00
       0.0 0.0 0.0 0.0
0001d0 00 00 00 00 00 00 00 00 00 00 00 00 00 00 00 00
       0.0 0.0 0.0 0.0
0001e0 00 00 00 00 00 00 00 00 00 00 00 00 00 00 00 00
       0.0 0.0 0.0 0.0
0001f0 00 00 00 00 00 00 00 00 00 00 00 00 00 00 00 00
       0.0 0.0 0.0 0.0

action_model._discrete_distribution.branches.0.weight f4 [3, 128]
000000 7f 17 87 bc 0b fa 12 3c 3b 51 22 3c 21 a8 08 bc
       -0.016490696 0.008970748 0.009907062 -0.008340866
000010 4f 05 04 3b b7 85 ea 3c c3 86 be b9 0b ec 81 3b
       0.0020144766 0.028628213 -0.0003634003 0.003964906
000020 f3 70 20 3b 00 b1 03 3c 9b de c4 39 93 f1 c7 bb
       0.0024481385 0.008037806 0.00037549887 -0.006101796
000030 00 9a 0d bc 04 99 02 3c 1a 5f 70 3b 78 ca ad 3b
       -0.0086426735 0.007971052 0.0036677779 0.005303677
000040 05 cd 12 bb 51 79 cb bc 25 a2 dd bb 7b 8d 3b 3b
       -0.0022400033 -0.024838122 -0.006763714 0.0028618264
000050 1f 07 1c 3a f7 08 71 3b 63 63 e0 ba 05 b9 3e 3c
       0.0005951989 0.0036779025 -0.0017119463 0.011640792
000060 7f 6b 70 3c b6 66 8f 3c 85 f4 6f 3c 37 f2 da 3b
       0.014674067 0.017505031 0.0146457 0.0066817063
000070 48 21 7c bc aa 5e 05 bc 88 7f a9 3c de 7e 16 3c
       -0.015388794 -0.008140245 0.020690694 0.009185521
000080 5a 8d 03 bc ab b1 58 bc 03 ce 89 bc 0b e6 0d bc
       -0.008029306 -0.013225953 -0.016821867 -0.008660804
000090 b3 6d 80 ba 92 bc 28 3c 0b dc 20 bc 08 44 5f bb
       -0.0009798318 0.010298865 -0.009818087 -0.003406765
0000a0 ea 6d 75 bb 8f ea 01 3b 29 ef 25 3c 68 69 b1 bb
       -0.0037449547 0.0019823646 0.010127821 -0.0054141767
0000b0 d7 c5 aa b9 d1 33 92 ba 27 39 2f bc 17 53 23 3c
       -0.0003257233 -0.0011154359 -0.0106947785 0.009968541
0000c0 63 73 19 bc ba 16 66 bc 31 21 1d bc d3 6e fc 3b
       -0.009365889 -0.014043504 -0.009590433 0.007703641
0000d0 f3 ae aa 3a 1a 72 0c 3a 8d ee c0 3c 99 ea 9f 3b
       0.001302211 0.00053575786 0.02355125 0.004880261
0000e0 20 24 13 3c 62 0b e7 3b 8b 61 c9 3b 98 61 1e bc
       0.008980781 0.0070509175 0.006145661 -0.009666823
0000f0 12 73 9b 3c 83 f5 88 3b 57 00 67 3c 7d 7c ff ba
       0.018975768 0.004179658 0.014099202 -0.0019492056
000100 dc a2 9a ba 34 e5 c1 3c e2 07 86 3b d4 01 1c 3c
       -0.0011797803 0.023668863 0.004090295 0.00952192
000110 19 d7 9e bb be 6b 3a 3b a5 b0 6f 3b 43 c6 65 bc
       -0.004847419 0.0028445567 0.0036573794 -0.01402432
000120 29 a8 c0 3b f5 01 48 3c 5d 99 7f 3c 55 dc d6 bb
       0.0058794213 0.012207498 0.0156005295 -0.0065570273
000130 c7 bb 17 bc 9e b2 c3 3b 03 21 fd 3b df a4 82 3c
       -0.009261078 0.0059722206 0.0077248826 0.015947757
000140 7d f8 b8 3b 02 e8 5a 3b 43 af 81 38 ea 44 dc 3b
       0.0056448565 0.0033402448 6.1838444e-05 0.0067220824
000150 b3 53 83 3c 8a 5b 83 bb e2 a0 7b 3b 3f 8a 5f bc
       0.016031122 -0.004008715 0.0038395454 -0.0136438
000160 b2 b7 19 bc da 18 4e bc 8d 06 4a 3c 1b 30 1e 3c
       -0.009382175 -0.012579167 0.012330663 0.009655024
000170 94 b1 49 bc bc 1a 8f 3b 72 16 bb bb e3 f3 4b bb
       -0.012310404 0.0043672007 -0.005709463 -0.003112071
000180 c4 36 ca bb 6a a1 74 3c 00 02 b5 3b 3b 34 b4 3b
       -0.0061710794 0.014931062 0.00552392 0.0054993904
000190 0b a4 3f 3c b5 72 bb ba 6b 55 0b bb 12 8c aa 3b
       0.011696826 -0.0014301153 -0.002126063 0.005204686
0001a0 59 89 af 3a 0b 24 64 bc 4f f0 75 3b ef 6b 49 3c
       0.0013392373 -0.013924609 0.0037527268 0.0122938
0001b0 43 17 ba 3b d3 a8 2a 3c 02 80 f2 3a 95 5f 63 bb
       0.0056790425 0.010416227 0.0018501284 -0.0034694423
0001c0 8f d9 57 ba 87 c5 ce 3b 27 55 4d bc 95 ff 54 bc
       -0.0008234018 0.006310168 -0.012532509 -0.013000389
0001d0 37 0e 44 bc da e9 fb bb 8a 13 4c bc 8c b0 34 3c
       -0.01196628 -0.0076877894 -0.01245583 0.01102842
0001e0 4d 1b 50 bb 85 a1 4b 3b db b4 fc bb c3 17 8e 3b
       -0.0031754554 0.0031071615 -0.0077119893 0.0043363287
0001f0 45 7a 85 ba 9d 8a 4f bb 09 ee 36 bc ba 2c f6 3b
       -0.0010183534 -0.0031668313 -0.01116515 0.007512656
000200 15 eb e8 bb 9d 25 b0 bb ad a6 8d 3c 5d 65 72 bc
       -0.007108102 -0.0053755776 0.017291391 -0.014794675
000210 f0 7a f7 bb 82 d8 0a 3c 9b 5a 5b bc 47 47 81 3c
       -0.007552497 0.008474471 -0.013388301 0.015781058
000220 aa 1c 79 3c fb cd 14 ba c0 79 44 3b f4 a6 13 3c
       0.015204588 -0.00056764454 0.0029979795 0.009011973
000230 40 27 e0 ba eb ed 5a bb 94 25 c3 b8 38 8c 9b 3a
       -0.0017101541 -0.003340597 -9.305324e-05 0.001186735
000240 50 51 3e bc 9a 38 77 bb 67 dd d6 3b 48 cd 2f 3c
       -0.011616066 -0.0037722946 0.006557155 0.010730095
000250 a3 9a db 3b 48 48 e7 bb cb 35 0d 3c 29 66 b4 bb
       0.0067017837 -0.007058177 0.008618782 -0.0055053425
000260 c0 e6 66 3b 7b e5 b0 3c 7b dc 88 bb 39 d3 c9 3b
       0.0035232753 0.0215938 -0.004176674 0.006159213
000270 0b f3 2f 3c 5b 9c 9e b9 9f a9 2d 3b 1f c7 3b bc
       0.010739098 -0.00030252602 0.0026498807 -0.011461048
000280 d0 f8 41 bc 79 7e 1d 3b ca cb 2c 3c 0a b3 dd bb
       -0.011839107 0.0024031682 0.010546634 -0.006765728
000290 1d 97 6f 3c af aa 4b 3b 3a 10 94 3a 77 e6 31 bb
       0.014623431 0.0031077077 0.001129634 -0.0027145424
0002a0 4b 3b 30 bb c8 66 15 3c b5 88 d1 3b 5f 46 0e bc
       -0.002689081 0.009118743 0.0063944706 -0.00868377
0002b0 8d ba 60 3c 98 0b 75 ba e5 e0 30 bb d7 c9 5e bb
       0.013716352 -0.0009347736 -0.0026989516 -0.0033994818
0002c0 37 e8 bd ba 20 f7 00 bc ca 12 a0 bb 53 1d c0 3a
       -0.0014488761 -0.007871419 -0.0048850523 0.0014657177
0002d0 59 e6 1d 3b c6 89 88 3c 6e 85 9f 3b 21 76 21 ba
       0.0024093597 0.016667258 0.004868201 -0.0006159265
0002e0 b3 b5 b3 3b db 64 0b 3c c5 72 d0 3a 18 56 ca bb
       0.0054843067 0.008507933 0.0015903345 -0.006174814
0002f0 4b cc b9 3a 63 6c d0 bb b7 79 c7 3b 5e ff c8 bb
       0.0014175264 -0.006360577 0.0060875076 -0.0061339578
000300 9b 61 15 bb d5 bf 89 bc 9d 89 06 ba 4b e2 c6 bb
       -0.0022793773 -0.016815105 -0.00051322003 -0.0060694567
000310 cb d8 0a bc 9d 2f 86 3c 77 6e ec 39 0a d0 f0 bb
       -0.008474539 0.016380126 0.0004509573 -0.007349019
000320 87 3d 54 bc 88 60 ae bc 33 8c 0a 3c 58 30 95 bb
       -0.012954122 -0.021286264 0.008456278 -0.004552882
000330 a7 ea fa 3a 53 c3 27 3c 97 15 eb 3b 2e 9b cc 3b
       0.0019143418 0.01023944 0.0071742046 0.006244085
000340 82 54 6f 3a ef e7 1b 3b 22 dc 11 3c 03 3b a4 bc
       0.0009129719 0.0023789366 0.008902581 -0.02004767
000350 b3 b8 13 3c 9f 30 7d bc e8 7e 26 bc fd 0f 59 3b
       0.009016204 -0.015453487 -0.010162093 0.0033121102
000360 0e 3e 94 bc a3 ee 61 bc a3 29 84 3b 9a d5 e0 3a
       -0.018095996 -0.013789806 0.004033284 0.0017153502
000370 5a 63 a3 3c 48 4e 39 bb fa fd 99 38 cb 81 23 bc
       0.019944835 -0.002827542 7.342915e-05 -0.0099796755
000380 96 ff 2d bb 53 73 17 bc e0 c3 21 3a 85 f2 9f bc
       -0.0026550046 -0.009243804 0.000617085 -0.019524822
000390 5f 14 75 bb ab bb 88 bb 27 f5 91 3b 57 66 3b 3c
       -0.0037396175 -0.0041727624 0.0044542733 0.011437974
0003a0 eb c8 0d bb 9f c2 52 bb 17 02 a1 3a 43 5c e0 bb
       -0.002163465 -0.003215946 0.0012283948 -0.006846936
0003b0 07 14 21 bb f3 89 8c 3a 63 b9 8d 3b 40 09 fe bb
       -0.0024578588 0.0010722264 0.0043250783 -0.0077525675
0003c0 23 de ec 3b 81 cf ad 3b 0a 55 6e 3a 85 09 04 3a
       0.007228629 0.0053042774 0.00090916513 0.0005036819
0003d0 fd 84 48 bc e0 85 62 3a ab 3d 71 bb 70 19 c1 3b
       -0.012238738 0.0008641165 -0.0036810439 0.005892925
0003e0 07 bc 55 3b 58 f6 2d ba 87 a7 60 3c a5 76 b4 3b
       0.0032613294 -0.00066361343 0.013711817 0.0055073076
0003f0 43 80 98 3b 91 6e 48 3a fd 2b 28 3c 3b 15 b0 bc
       0.004653962 0.000764587 0.010264394 -0.021494498

action_model._discrete_distribution.branches.0.bias f4 [3]
000000 00 00 00 00 00 00 00 00 00 00 00 00
       0.0 0.0 0.0

action_model._discrete_distribution.branches.1.weight f4 [2, 128]
000000 79 7a 9f bb b2 71 c6 bc f3 89 30 3c 72 37 20 bc
       -0.004866895 -0.024224136 0.010775077 -0.009778844
000010 02 90 7d 3c 37 ab aa bc 28 18 d6 3b 09 c8 22 bb
       0.015476229 -0.020833595 0.0065336414 -0.0024838469
000020 55 99 79 bb 7f 02 14 3b 63 50 9c 3c 2b a3 44 bc
       -0.0038085778 0.0022584496 0.0190813 -0.012001793
000030 75 f1 31 3c 82 df 26 bc 6a 49 13 39 02 26 f5 bb
       0.0108607905 -0.010185124 0.00014046361 -0.0074813375
000040 b5 1b 94 bc 60 f1 4f 3c cf 8f 64 bb 20 fb 57 3a
       -0.018079618 0.012691826 -0.0034875756 0.00082390197
000050 e3 6a d7 bb 4b 7c 87 bb 02 5f 86 bc 93 7a bb 3b
       -0.006574021 -0.00413469 -0.016402725 0.005721399
000060 c3 90 a9 3a f3 60 89 3b ff 91 10 3c bb e4 4b 3b
       0.0012936819 0.0041924655 0.008823871 0.0031111676
000070 6a bf 59 bb 57 51 17 bc 4c 76 12 bc df f8 37 3c
       -0.0033225664 -0.0092357015 -0.008939337 0.011228769
000080 93 ec 88 bc e7 5c ad 3b 4b de 3c bc 18 1c 2e bc
       -0.01671437 0.005290616 -0.011527608 -0.010626815
000090 b2 1d 05 3c ca 66 b7 3b bd 2f 69 bc f8 16 61 3c
       0.008124756 0.00559697 -0.014232573 0.013738386
0000a0 87 2d 8d 3a ed e4 6c 3b c2 2e 05 bc 34 17 97 bc
       0.0010771014 0.0036147193 -0.008128824 -0.018443681
0000b0 6f 93 53 3c ed b9 1e 3b 4f 1c 1b 3c 3d 0b 6d 3a
       0.012913569 0.0024219707 0.0094671985 0.0009042507
0000c0 1d 26 f5 ba 12 e9 8f 3b c7 56 ba bb d4 8d 30 bc
       -0.0018703375 0.004391798 -0.005686614 -0.010776002
0000d0 d0 14 22 3b 4b a4 3a bc ed 99 c2 39 83 0b 49 3c
       0.0024731643 -0.01139171 0.00037117247 0.012270811
0000e0 67 5b 38 bc ba 9e da 3b ea 44 38 3c b4 17 13 bc
       -0.011252261 0.0066717537 0.011246899 -0.008977819
0000f0 8a 25 57 ba 18 4b 5a bc 5f 4c bb 38 d1 25 27 ba
       -0.0008207193 -0.013323568 8.93108e-05 -0.00063761795
000100 7f c6 3e bb df d4 07 ba c7 6b 7e bc a8 e7 cd ba
       -0.0029110012 -0.00051815616 -0.015528626 -0.0015709298
000110 23 b9 93 bb 18 e2 45 bc d5 1c 26 3c 8f 59 84 3c
       -0.004508154 -0.012077831 0.01013871 0.016155986
000120 cc ed 44 3b dc 15 c4 3b 0f e6 5d ba 37 df 44 3b
       0.0030048965 0.005984051 -0.00084647624 0.0030040273
000130 56 50 a0 bb 9f bb a8 3b 4f 34 bd bb 00 32 74 3b
       -0.0048923893 0.0051493193 -0.005774058 0.0037261248
000140 df 47 64 3b 77 e9 2a 3c 33 3b 57 3b 6e 3d 08 3c
       0.0034832878 0.010431639 0.0032841682 0.008315427
000150 73 c7 8c 3c 0b aa 02 3c 6b 39 2f 3b 0b e8 99 3b
       0.017184949 0.007975112 0.0026737105 0.004696851
000160 f6 e8 8a 3b cb f4 8d 3c 45 54 3f bb 43 44 07 bc
       0.004239197 0.01732864 -0.0029194516 -0.008256021
000170 c0 e3 dc bb 57 69 6c bb ba 73 ac bb 86 0f 3a bc
       -0.006741017 -0.003607353 -0.005262819 -0.01135624
000180 57 2f 2e 3c 11 77 96 bb 0a 7f 06 3a 53 39 01 bc
       0.010631404 -0.0045918305 0.00051306246 -0.007887202
000190 9b c0 fd 3b fe 51 12 bc ea 7a ce bc da f5 c7 3b
       0.0077439076 -0.008930681 -0.025205094 0.006102306
0001a0 ed 6d d6 3b 3f ff ed 3b 3e c3 bc bb 52 89 5c 3a
       0.006543866 0.0072630937 -0.0057605794 0.00084127963
0001b0 5b f9 44 bc cf 10 f4 ba 7c c4 03 bc 88 ab 2a bb
       -0.012022342 -0.0018620732 -0.008042451 -0.0026042182
0001c0 df 3b 82 3c 27 19 59 ba 7f cc 01 3b 39 53 9e b9
       0.01589769 -0.0008281641 0.0019805727 -0.00030198114
0001d0 ad ed 00 bc 1f a1 5d bb 2b 9a de 3b 31 ef c5 3b
       -0.007869166 -0.003381796 0.0067932806 0.0060404767
0001e0 cd 10 24 bc 05 8c 01 bc e8 f5 6a bb 62 67 df 3b
       -0.010013771 -0.007906918 -0.0035852138 0.006817744
0001f0 fd 94 7d ba 1d ca 96 ba 9f 3e fc bb 77 e0 9a bb
       -0.0009673385 -0.0011504326 -0.0076978947 -0.0047264653
000200 72 3a 18 3c 82 70 17 bb 7c 56 48 3b 0f 3a 99 3a
       0.009291278 -0.0023107831 0.0030569127 0.0011690276
000210 53 bd 0e 3c 02 fd a6 bb 60 2f 2f bc 0a fe 13 bc
       0.008712131 -0.005096079 -0.010692447 -0.009032736
000220 4f fc 4d 3c 0a d2 f7 bb 42 c5 f5 39 cb a8 1a ba
       0.012572362 -0.0075628804 0.0004687701 -0.0005899786
000230 8a 44 71 3c 70 52 ee 3a e8 a5 48 3c 58 6f 4a b9
       0.014725814 0.0018182527 0.012246586 -0.000193057
000240 d2 0e 4a 3c 5d 9e 44 bc 08 72 56 bb 7f b2 bd bb
       0.012332635 -0.012000647 -0.0032721777 -0.0057891007
000250 a3 09 2f 3c f3 98 02 bb 97 2d 09 b9 f0 f7 17 3a
       0.01068345 -0.001992759 -0.00013082322 0.00057971384
000260 b9 01 13 bb d6 25 c9 3b 02 b7 06 3c 32 80 ec bb
       -0.0022431447 0.0061385436 0.008222343 -0.0072174305
000270 9f 21 28 3b 34 1d 06 bc 6b 4e 28 bb 73 79 66 ba
       0.0025654805 -0.0081856735 -0.0025681506 -0.0008791901
000280 33 ab f7 3b 74 19 92 3a 82 b0 5f bb 5b 2c 78 3b
       0.0075582503 0.0011146502 -0.0034132306 0.0037868235
000290 d2 a6 02 ba 30 97 ec 3b b9 dd 30 b7 bb 03 9f 3a
       -0.00049839646 0.0072201714 -1.0542041e-05 0.0012131849
0002a0 a7 e1 1f bc 67 8a f7 bb d0 2a 9d 3b e7 c7 85 bc
       -0.00975839 -0.0075543406 0.0047963634 -0.016330672
0002b0 3e a5 16 3c 1a e2 22 3c 5c 75 2c 3c 23 5b d3 bb
       0.00919467 0.009941602 0.0105260275 -0.0064500733
0002c0 6a 42 e7 3b 37 f9 bc 3b eb 69 15 bb a8 1b 6a bc
       0.0070574777 0.0057670134 -0.0022798728 -0.01428882
0002d0 4f 03 41 bc c2 c2 4f 3c 4d c7 3e bc 3e 20 b2 3a
       -0.011780574 0.012680711 -0.011644197 0.0013589931
0002e0 83 05 19 bb 4e 95 1e 3a b7 e0 ef 3b 43 b0 1f bc
       -0.0023349233 0.000604947 0.0073204893 -0.009746614
0002f0 57 44 44 3c 0b 91 f6 3b 1d 2d 7a 3b 65 98 70 3c
       0.011979184 0.0075246147 0.0038173862 0.014684771
000300 eb b9 6c 3b 6f f3 90 3b a3 1f 25 3b 83 a7 03 3b
       0.0036121558 0.004423551 0.002519586 0.0020088858
000310 4b a2 d1 b9 07 8d 4b 3c 03 60 f7 bb 87 c8 07 3b
       -0.00039984504 0.01242376 -0.0075492873 0.002071889
000320 39 ca 0f 3b 9a da 56 3b 41 71 98 39 c0 da d2 39
       0.0021940602 0.0032784105 0.0002907608 0.00040217303
000330 6f d1 4a 3c a5 fb 7f bb ba b5 e5 3b f7 05 92 3b
       0.012379034 -0.0039059904 0.007010189 0.0044562775
000340 70 15 d5 bb 52 88 6f bc 90 35 60 bb e6 c8 b0 bc
       -0.0065027997 -0.014619904 -0.0034211613 -0.02158017
000350 52 8a 72 3c d3 5c 51 bb 27 50 e2 3b 48 b5 e9 ba
       0.014803486 -0.0031946197 0.0069065276 -0.0017830515
000360 23 1d 42 bc 6a 2b 33 bc 85 6a 81 3b af 7c de 3b
       -0.011847767 -0.010935644 0.0039494657 0.006789766
000370 59 18 10 3c f0 bb eb 3b 67 20 f8 3a 90 33 bd 3a
       0.008794867 0.0071940348 0.0018930555 0.0014434922
000380 23 84 57 3c 84 7b 8e 3b b9 73 c9 3c 63 4a 94 39
       0.013154062 0.0043482203 0.024591314 0.00028284182
000390 70 b0 04 3c f7 6c 15 bc 99 9c 94 3b 86 21 44 3c
       0.008098707 -0.0091202175 0.0045352695 0.011970883
0003a0 20 1a 55 bc d7 0a 07 ba 1f 6c b3 3b f0 da 07 bc
       -0.013006717 -0.00051514566 0.0054755355 -0.008291945
0003b0 e3 fd 4d 3b 95 ca 6a 3c 2d b4 dd 3a 0a fe 99 3b
       0.0031431846 0.014330526 0.0016914658 0.0046994733
0003c0 ce 98 b9 3b e7 d6 70 3c b2 f6 e4 3b 09 e1 38 3c
       0.0056639677 0.014699674 0.006987416 0.011284121
0003d0 e0 e0 50 3b 90 ed e3 bc 43 31 cc 3b 26 0a c9 bb
       0.0031872317 -0.02782324 0.0062314584 -0.006135243
0003e0 79 05 3d 3c 2d 3f 91 bc 1f f9 10 bc 1f 4b 23 bc
       0.011536949 -0.01773032 -0.008848458 -0.009966641
0003f0 4b e7 2f 3c 95 c7 0d 3b 3b 2d f8 b8 83 c1 9e bb
       0.010736297 0.0021633853 -0.00011833986 -0.0048448457

action_model._discrete_distribution.branches.1.bias f4 [2]
000000 00 00 00 00 00 00 00 00
       0.0 0.0

action_model._discrete_distribution.branches.2.weight f4 [2, 128]
000000 3f 68 11 3b d0 57 d5 ba f6 70 c1 bb 07 70 00 3c
       0.002218738 -0.001627678 -0.0059033586 0.007839209
000010 fe 1f 46 3b 2b b4 3b 3c af 1e 8e 3b 42 36 4c bc
       0.0030231471 0.01145653 0.004337154 -0.012464108
000020 fe 56 c5 3a 1a 1a 97 bb 7f ad 3f 3c e0 f9 c4 3b
       0.0015055833 -0.004611266 0.01169908 0.0060112327
000030 9f 03 46 3c 9f db 61 3b 4a 04 88 3b 3d 5d bf bb
       0.012085824 0.003446318 0.004150902 -0.0058399723
000040 b3 6e 37 3c f7 a0 86 bb 1b 87 3e bc 9a cf 9d 3a
       0.011195826 -0.004108544 -0.011628891 0.001204002
000050 53 4a 88 bc 93 dd aa 3a 13 7a 38 ba 6d 32 c6 3b
       -0.016637003 0.0013036005 -0.00070372334 0.0060484917
000060 f4 b9 c7 bb 0b a7 48 bc 98 37 bd 3b bd ee 2a 3a
       -0.0060951654 -0.012246857 0.0057744496 0.000652056
000070 ed 8e 13 bc 17 e1 73 bb 07 7b bb bb e0 d9 06 3c
       -0.009006244 -0.0037213021 -0.005721453 0.008230656
000080 b3 8c d7 bb c3 bc d8 3b ab bf 0b ba c1 a4 1e bc
       -0.006578052 0.006614299 -0.000533099 -0.009682835
000090 55 28 07 bc 08 8c 6d bb 6f c4 45 bc 52 bb 5e bb
       -0.008249362 -0.0036246795 -0.012070759 -0.0033986163
0000a0 04 c1 b8 bb f4 db 8d 3c cf 8f 29 bc b3 4f 74 ba
       -0.0056382436 0.017316796 -0.010349228 -0.00093197374
0000b0 53 2e 3c bc 11 78 21 bb 1d f2 d2 3a d7 01 42 3b
       -0.011485654 -0.0024638216 0.0016093884 0.0029603147
0000c0 a8 6a ed 3a 21 cb b8 bc ea ac fd 3b 8a 7f 41 bb
       0.0018113451 -0.022557797 0.00774156 -0.0029525482
0000d0 47 61 a3 bb bb b7 54 bc ad ee 93 3b 7d f4 d5 bb
       -0.0049859616 -0.012983258 0.0045145364 -0.0065293894
0000e0 17 57 cf 3c 0e 3f 0b 3c 1d df 4e bc 78 47 4f 3b
       0.025310082 0.00849892 -0.012626437 0.0031628292
0000f0 75 fe 2e 3b 9b fe ba bb 0d f4 42 3c 1e eb 9d bc
       0.0026701961 -0.005706621 0.011899007 -0.019277152
000100 b3 b2 13 3c 72 c5 6a bc 89 02 8e bb eb 87 b6 3a
       0.009014773 -0.014329301 -0.0043337983 0.0013926005
000110 19 4b 17 bb 0f 9d 2b 3c 7d 7d 4f bc 21 c7 28 bc
       -0.0023085533 0.010474457 -0.012664196 -0.010301382
000120 fb d1 17 bb 42 f0 e0 bb 25 9f 5b b9 c7 eb e9 bb
       -0.002316593 -0.0068645785 -0.00020944753 -0.0071387026
000130 18 34 58 bc b5 a8 0f 3c ff 9d 4f 3c 78 2d 81 b8
       -0.013196014 0.00876825 0.012671947 -6.1596686e-05
000140 8c 4d a5 3b 2f cd 24 3c c5 2c eb 3b 44 76 1b 3a
       0.0050446447 0.010058685 0.007176968 0.0005930404
000150 9c ec b5 b9 06 bf 84 3c 2e 1a 2b 3c 63 5e dc bb
       -0.00034699298 0.016204368 0.010443253 -0.006725119
000160 fb 56 11 bc 67 bc e8 3a b5 19 96 bc 92 e1 0b bc
       -0.008870835 0.0017756344 -0.018322805 -0.008537667
000170 d6 08 b9 bb df db 7a b9 e7 e8 1d 3b a0 fb 7b bc
       -0.0056468053 -0.00023923766 0.002409512 -0.015379816
000180 75 f6 4b bb a8 27 6a 3b 68 d8 a0 3b c3 99 89 3c
       -0.0031122242 0.0035729203 0.00490861 0.016796952
000190 ef 73 d5 3b 60 65 45 bc 10 51 71 3b c7 74 35 3c
       0.0065140645 -0.012048095 0.0036821999 0.011075205
0001a0 ca 6e 11 3c 0f 26 81 bb a2 1a 78 bb 89 86 11 3c
       0.008876512 -0.0039413045 -0.0037857671 0.008882173
0001b0 2f 03 4b bc 39 79 c1 3a 63 84 3d 3b 0e c7 12 3b
       -0.012390896 0.0014760859 0.002891802 0.0022396478
0001c0 f5 d2 65 3b ac d3 a6 bb 6f 3e 36 bc 0a b2 2f bb
       0.0035068367 -0.005091151 -0.011123284 -0.0026809
0001d0 67 83 b3 3b 00 1d b9 3b a7 70 10 bb 80 88 f4 bb
       0.005478311 0.005649209 -0.0022039802 -0.007462561
0001e0 f5 5d 04 bc 52 dd e0 3a 4b 5b 0c bb 54 11 03 3a
       -0.008079042 0.0017155802 -0.002141672 0.00049998355
0001f0 cf b5 07 3b f2 13 9c bb d3 b5 0d 3c 52 a7 06 3b
       0.0020707732 -0.00476312 0.008649307 0.0020546508
000200 6a f2 90 3a 53 c5 7c 3c f6 20 94 3c d6 a1 0b 3c
       0.0011058573 0.015427905 0.018082123 0.008522471
000210 0f 9d 45 3b a6 d0 93 3b 38 11 6d 3c 8f d2 25 bb
       0.0030153429 0.004510957 0.014469437 -0.0025302505
000220 cc f7 c8 3b 87 26 f0 ba 29 33 3e 3c 5b da 67 3b
       0.0061330553 -0.0018322029 0.011608877 0.0035377953
000230 c8 6d 02 3c c0 86 2d bc 2b a7 93 bb 81 58 4b 3b
       0.007960744 -0.010591209 -0.004506012 0.0031028094
000240 db 77 bd 3b 7d 94 00 3c 2b 28 19 3c 13 e3 a2 bc
       0.00578211 0.007847902 0.009347956 -0.019883668
000250 75 8b 4d 3b 07 80 1b bc 02 ac 6a bb af 9d 35 3c
       0.003136364 -0.009490973 -0.003580809 0.011084958
000260 c5 16 20 bc 31 f5 93 bc 17 4e d5 3b de 5d 24 3c
       -0.009771054 -0.018061252 0.006509553 0.010032145
000270 0b bd bf bb 60 9b fd 3b d7 16 9a 3b ed 94 d8 bc
       -0.005851393 0.0077394694 0.0047024298 -0.0264382
000280 e7 7c 54 bc 56 81 1f bc 80 be 90 bb ee 76 c7 3b
       -0.012969232 -0.009735426 -0.0044172406 0.0060871756
000290 47 00 2a bb 50 74 98 bb 2c 9a 8b 39 57 ce 55 3c
       -0.0025940107 -0.0046525374 0.00026627013 0.0130496835
0002a0 2f c6 75 3b 0c 20 19 bb 8b 05 ef b9 63 5b c7 bb
       0.003750216 -0.0023365049 -0.00045589762 -0.006083892
0002b0 fb ec 6e 3c 52 8f db bb 00 e5 53 3c a8 ff 60 bb
       0.014582868 -0.0067004347 0.012933016 -0.003433207
0002c0 12 3a 17 bb 7d 31 0a ba cf 0c e8 bb 6a 3b 83 b9
       -0.0023075384 -0.00052716566 -0.007081605 -0.00025030534
0002d0 ba dc e8 ba c2 5c a3 3b 9c 04 95 bb 2a 43 b9 bb
       -0.0017765977 0.004985423 -0.0045476686 -0.0056537585
0002e0 cd 71 d7 ba 52 06 ed bb 85 c0 dd 3b 63 75 b4 3c
       -0.0016437114 -0.0072334195 0.006767335 0.02202863
0002f0 34 03 27 3b 03 f2 f3 3b 37 f2 a3 bb 18 77 8a bb
       0.0025484087 0.0074446215 -0.0050032395 -0.004225623
000300 57 d7 2e bb ba 84 7f bc 35 86 13 bb 16 1f 20 bc
       -0.0026678646 -0.015595609 -0.0022510414 -0.009773036
000310 aa 80 3e 3c 4b c6 50 bb 28 35 d7 3a be 07 87 3b
       0.011627356 -0.0031856473 0.001641904 0.004120796
000320 09 65 2c 3c 3f ae d6 3b 30 7a 80 3a cc 71 3d bc
       0.0105221355 0.0065515335 0.000980204 -0.011562776
000330 92 c9 e7 3b 8b bb 04 bc c0 63 0f bb 63 51 cd 3b
       0.0070735896 -0.008101354 -0.0021879524 0.0062658056
000340 b5 fe 02 3c d3 24 5b bc 0b 2f 5d ba 31 bd 40 3b
       0.007995297 -0.013375479 -0.0008437491 0.0029409642
000350 8d 2a 20 bc 83 c1 2b 3b b2 3a 7d 3b 68 8a d4 bc
       -0.00977577 0.0026207871 0.0038639721 -0.025944903
000360 42 2d 04 3a 32 21 df bb 37 d5 ce 3b d8 66 3b 3c
       0.00050421443 -0.006809377 0.0063120383 0.011438094
000370 2f b9 a8 bb 31 df 19 3b d0 bd 73 3b e0 87 52 3c
       -0.0051490287 0.002347898 0.0037191994 0.012849778
000380 b9 64 a0 3c db 44 1d bc 4f c0 84 39 75 22 4f bb
       0.019579278 -0.009598936 0.00025320283 -0.0031606231
000390 79 8f be ba 97 f8 89 bc 01 f5 c1 3b dc 74 14 b9
       -0.0014538608 -0.01684217 0.0059190993 -0.00014157913
0003a0 28 19 f0 bb 6f c7 3a 3c 08 7b 4b 3c 7b e0 4c bb
       -0.0073272176 0.011400088 0.01241947 -0.003126173
0003b0 fe 70 89 39 45 c4 21 3b 66 2c b5 bb fb 91 78 3c
       0.00026214862 0.0024683636 -0.0055289743 0.015171523
0003c0 63 f0 b6 3b fa 56 68 bb 68 ec 58 bb 4d db f3 ba
       0.0055828555 -0.0035452233 -0.0033099893 -0.0018604785
0003d0 d3 b7 1e bb b4 a2 be 3c 87 0d 67 bb 48 cf 70 3c
       -0.0024218454 0.023270942 -0.0035255866 0.014697857
0003e0 e5 94 30 3c f4 2b a8 3c fb 6b 3c bc 27 0e 24 bb
       0.010777687 0.020528771 -0.011500354 -0.002503285
0003f0 dc 94 a8 3b 96 8f 26 3b b0 49 0c bc c3 38 98 bb
       0.0051446985 0.0025415174 -0.00856249 -0.0046454384

action_model._discrete_distribution.branches.2.bias f4 [2]
000000 00 00 00 00 00 00 00 00
       0.0 0.0

action_model._discrete_distribution.branches.3.weight f4 [2, 128]
000000 67 22 a0 bb 99 0c 2e 3b 98 d3 22 3a 1e 2a 2b 3b
       -0.0048869136 0.0026557802 0.00062113395 0.0026117633
000010 6b 98 89 3a 52 8d b1 3b 30 19 d7 bb 3b e4 65 bc
       0.0010497695 0.005418458 -0.006564282 -0.014031465
000020 40 f8 17 bc 85 95 d6 3a 1d 8c cf 3b 9b 9c f8 3a
       -0.009275496 0.0016371465 0.0063338415 0.001896757
000030 83 09 d2 ba 12 7c 7e bc c0 20 59 3c 42 8f ee bb
       -0.0016024563 -0.01553251 0.013252437 -0.0072802613
000040 70 d0 7f 3c 2e f5 bd bb 69 5c 8c bc ad 53 56 ba
       0.01561366 -0.00579705 -0.017133908 -0.0008175921
000050 a3 49 fb 3b 71 3a 08 3b 47 89 20 3c a5 ac d2 3c
       0.0076686903 0.0020786787 0.0097983545 0.025717089
000060 2a 28 ea 3a 35 59 45 3c e3 8e 38 ba 6b 4f a8 ba
       0.0017864753 0.012045194 -0.0007040335 -0.0012841051
000070 37 31 e1 3b d3 34 44 bb eb bb 6f 3b be 4f 84 bc
       0.006872322 -0.0029938712 0.0036580514 -0.016151305
000080 2c fd 97 39 61 12 be bc 43 73 2a bb 04 9d 46 3a
       0.00028989592 -0.023202123 -0.0026008643 0.0007576498
000090 da e2 61 3c bb c7 24 3c 5e 70 1c 3a 65 35 95 bb
       0.013786996 0.010057385 0.0005967672 -0.0045534843
0000a0 98 c9 df ba 9a 5b 8d 3c a9 ae 81 bb ea af d4 bc
       -0.001707363 0.017255593 -0.0039575887 -0.025962789
0000b0 87 d6 ad 3b 77 18 d0 ba fd 2f a1 bb ef 72 9b bb
       0.0053051147 -0.0015876432 -0.0049190507 -0.0047439258
0000c0 5b d9 5f 3b 2f 47 32 bc 09 38 80 3a c6 7c 26 3c
       0.0034156654 -0.010881229 0.0009782325 0.010161584
0000d0 fb cc bb 3b ac 85 92 ba bd 5d 78 3c fd 64 a5 bb
       0.0057312227 -0.0011178753 0.015159068 -0.005047439
0000e0 7b a8 d1 3b 60 13 6c bc 1d 7d 69 bb 57 f5 44 bb
       0.0063982583 -0.014408916 -0.0035627552 -0.003005346
0000f0 07 a0 48 bb a2 45 02 bc 5a 8a 5d 3c 98 9e 58 3b
       -0.0030612962 -0.007951172 0.013521755 0.0033053514
000100 88 a8 1c bc e7 8c ba 39 57 7e 0d 3c 87 d1 8a 3b
       -0.009561665 0.00035581665 0.008636079 0.0042364034
000110 b7 65 01 3c 3e 5a 15 3a f4 0e bc 3c e0 57 7d bc
       0.007897786 0.0005697346 0.022956349 -0.015462846
000120 a8 c4 60 3c 67 f9 4f bb f0 51 f0 3b bf 3c e8 3b
       0.0137187615 -0.0031734349 0.0073339865 0.0070873196
000130 77 db a6 3b c3 42 06 bc 1b cb 4e 3c 9b 9b a8 ba
       0.00509208 -0.008194628 0.012621666 -0.0012863757
000140 5f 80 94 bb 07 9e 62 ba f6 1b a2 3b df ab 73 bc
       -0.0045319046 -0.0008644764 0.004947181 -0.01487252
000150 6f ff f7 bb 92 76 8b bc 08 31 1c 3b 63 d2 b5 bb
       -0.007568292 -0.017024312 0.0023832936 -0.0055487617
000160 42 79 ff bb d5 60 b7 3b 3f b0 44 bb d7 63 30 3c
       -0.0077964375 0.00559626 -0.0030012277 0.010765991
000170 bc c0 0c 3a 83 f7 3a 3c 73 49 15 bc ff 61 98 3b
       0.0005369296 0.01141155 -0.00911175 0.004650354
000180 20 e4 dd bb 15 50 eb bb 28 c0 b3 bb 89 84 82 bc
       -0.0067715794 -0.0071811774 -0.0054855533 -0.015932338
000190 c8 3e f2 bb 9c 6b c8 3a 97 f4 91 3b 02 0b cb 3a
       -0.007392738 0.0015290859 0.004454206 0.0015490951
0001a0 e6 1b 0f 3c 96 e9 a4 bc b7 82 8f 3b 38 b6 e2 b9
       0.008734679 -0.020130914 0.004379596 -0.00043241843
0001b0 9d 03 c6 3a 24 4c 0a bc 41 7c 0a 3a 3e f0 94 3b
       0.0015107278 -0.008441005 0.00052827975 0.0045452407
0001c0 17 ec 11 3c 4b 2c 0e bb a4 c9 2e bb 1d 79 00 bc
       0.008906386 -0.002169388 -0.002667048 -0.007841376
0001d0 2e 1f 21 3b 75 d4 e4 3b 45 2c fa 3b a7 b9 12 bb
       0.0024585235 0.0069833347 0.007634672 -0.002238849
0001e0 d2 d8 03 bb 31 90 16 bc 2b 6c 49 3c ab c9 4f bc
       -0.0020118249 -0.009189651 0.012293856 -0.012682359
0001f0 ff c7 b4 3c 3a dc 39 bb a0 23 5a bb 73 fd c4 bb
       0.022068022 -0.0028360025 -0.0033285394 -0.006011659
000200 83 ac 75 3b d0 4e 04 bb 53 7a 12 3c 12 f2 4e bc
       0.0037486858 -0.0020188577 0.008940297 -0.012630956
000210 73 e0 23 3c 5d fc d0 bc 47 c0 94 bb 7a a9 6e 3a
       0.010002243 -0.025510961 -0.004539523 0.00091042335
000220 82 ef 70 ba 15 9c 57 bc ab 5a aa 3b 3c 19 a9 bc
       -0.0009190963 -0.013159771 0.0051987967 -0.020641916
000230 46 b5 0a 3c 80 bb 66 bc 8a a9 bb 3b ff b8 bf b9
       0.0084660705 -0.014082789 0.0057269977 -0.00036568192
000240 a7 32 f3 3b e2 4c d1 bb 37 81 74 3c d1 69 4c bc
       0.0074218097 -0.006387339 0.014923385 -0.0124764005
000250 85 1e 4a 3c f2 e7 5c bc a5 32 7e 3c e7 c9 5d ba
       0.012336378 -0.013483034 0.015515004 -0.0008460567
000260 ad 51 36 bc a3 91 88 3b d9 35 25 bc 7d f2 d3 bb
       -0.011127871 0.004167752 -0.010083639 -0.006468116
000270 70 7e 58 ba 91 39 42 3c 38 cc 60 bb 77 f7 50 bc
       -0.0008258587 0.011854545 -0.0034301411 -0.012754313
000280 8b e4 e0 3b bf 6f 9f bb e8 a8 ca 3b 75 13 ea 3b
       0.006863182 -0.004865616 0.006184686 0.0071434327
000290 73 a2 13 3c b5 81 29 3c 06 ed 3a 3b 0e 6c b1 38
       0.009010899 0.010345866 0.0028522625 8.4601445e-05
0002a0 d4 e8 a6 3b 18 9b aa 3c 9e e1 38 ba 10 12 86 3c
       0.0050936732 0.020825908 -0.00070526625 0.016366035
0002b0 85 60 9c 3b 1f 9a a0 bb c5 ba 54 3c 9e c5 98 bb
       0.004772248 -0.004901185 0.012983982 -0.0046622297
0002c0 bb 75 ef bb 8f bd 40 bc 70 50 2e bc 5f 53 c8 3b
       -0.0073077357 -0.011763944 -0.010639295 0.0061134542
0002d0 45 f8 8f bb da 5f 50 3c 96 14 0f 3c 74 7e 2e 3b
       -0.0043936097 0.012718165 0.008732935 0.0026625665
0002e0 d5 e8 90 3a b1 24 01 bc d8 41 ca 3b 7a 30 37 3c
       0.0011055717 -0.007882283 0.0061724 0.011180991
0002f0 c5 f8 e5 ba 7f 40 ee bb d8 7c ba bb f2 5a 6a bb
       -0.0017545453 -0.007270872 -0.005691152 -0.0035759774
000300 12 a7 d6 ba f2 ce ba ba f0 61 e1 3b af f1 3a 3b
       -0.0016376695 -0.0014252348 0.00687813 0.0028525402
000310 65 2f f9 bb 8f 62 d4 38 ef 72 51 bb c5 23 79 3b
       -0.007604527 0.00010127306 -0.0031959375 0.0038015705
000320 e4 3d 23 bc f3 9c 86 bb 0b ae 83 ba ff fe c2 bb
       -0.009963486 -0.0041080653 -0.0010046376 -0.005950808
000330 4e 29 2b 3b 29 72 9c 3b db ad cb 3a 37 5c 4b 3a
       0.0026117149 0.004774351 0.0015539484 0.00077575765
000340 5c dc 9a bb a3 8c 30 3c 37 9c 90 ba 57 f7 77 3b
       -0.004725976 0.010775718 -0.0011032884 0.0037836635
000350 83 c9 24 3c 03 34 2d bc 7f ae b3 3b cb 54 09 3b
       0.01005781 -0.010571483 0.005483448 0.0020955082
000360 73 ee 4f b7 a3 09 65 3c c4 4f 87 3b 4c 57 46 bb
       -1.239368e-05 0.013979348 0.004129382 -0.0030264435
000370 23 b7 9b bc 63 d4 ee bb 9b 0a 77 bb 77 07 50 3c
       -0.019008225 -0.007288502 -0.003769553 0.012697092
000380 1b 73 3e 3a eb 62 02 bc d9 36 a4 3a 31 7b 25 3c
       0.0007265077 -0.007958154 0.0012528553 0.010100172
000390 e4 c9 1d bc 6b 45 20 bb c5 a1 5b bb 88 28 dc 39
       -0.009630654 -0.0024455439 -0.003351317 0.00041991868
0003a0 60 e9 4f 3c e6 f4 21 bb bf c7 af bb db 66 0d bc
       0.012689918 -0.0024712621 -0.0053643878 -0.00863048
0003b0 4f 6c 8d ba 07 1d bb 3b 9d 8a 73 bb c7 61 ec 3a
       -0.0010789725 0.0057102474 -0.0037161477 0.0018034511
0003c0 94 b7 c6 bc 7b 24 47 bc 03 d8 1d bc 13 47 2e 3c
       -0.024257459 -0.012154694 -0.009634021 0.010637063
0003d0 8c e7 c4 3b fb ff 36 bc 83 7e ac 3a b2 98 75 bb
       0.006009048 -0.011169429 0.0013160262 -0.0037475047
0003e0 73 11 ab 3a 8f 37 03 bc f7 67 b4 3b 65 07 20 3c
       0.0013051465 -0.008008852 0.0055055576 0.009767388
0003f0 88 1b 82 3b 0f be 6c 3b 9f 6e f5 bb 6d 9e 1d 3c
       0.003970567 0.0036124026 -0.0074899937 0.009620291

action_model._discrete_distribution.branches.3.bias f4 [2]
000000 00 00 00 00 00 00 00 00
       0.0 0.0
