results/Test2/Hero Knight Behavior/Hero Knight Behavior-142273.pt (torch, 451287 bytes, 51 tensors)

network_body.linear_encoder.seq_layers.0.weight f4 [128, 5]
000000 a0 f6 2d be 86 5a 44 3e af 15 10 3f 6c 87 4a 3e
       -0.16988611 0.19175157 0.56283087 0.19778222
000010 2b c3 9e 3e 83 55 b5 3c bb c4 81 be 07 84 a4 3e
       0.31008276 0.022135502 -0.25345406 0.3213198
000020 69 b8 22 be 35 23 65 ba 8c 73 33 3e a4 7e 31 3e
       -0.1589066 -0.0008740903 0.17524546 0.17333466
000030 86 5e 82 3e f8 dc a2 3e ef de 2b be 2f b3 c2 be
       0.2546274 0.3180921 -0.16784261 -0.3802733
000040 9d 23 2d bd 7d 84 ab bd c5 4a de bd 56 8a c0 bd
       -0.04227029 -0.083748795 -0.10854105 -0.094013855
000050 f4 03 8d 3d 55 b8 39 be 88 37 62 3e 1c 3d 2f be
       0.068855196 -0.18136723 0.22091496 -0.17113155
000060 11 39 96 3e 7a a8 a0 be 72 3c 15 3e be 6e 0a be
       0.29340413 -0.31378537 0.1457384 -0.13518807
000070 81 51 c1 bc 7d 95 34 bf 0e d9 95 bc 35 ab 8c 3d
       -0.023598434 -0.705406 -0.018291976 0.06868593
000080 ed d2 30 bf c4 e3 f0 3e d0 8e 39 3d f7 0c 7d be
       -0.6907185 0.4704877 0.045302212 -0.24711977
000090 73 b4 84 3f f1 3c a5 3e 3c ff e8 bc a3 86 27 bf
       1.0367569 0.32273057 -0.028442018 -0.65439814
0000a0 e9 3d 10 3c 64 a2 83 be cc 81 e8 3e e8 9f 9f be
       0.008803823 -0.25709832 0.45411527 -0.31176686
0000b0 54 6b 1c 3e 22 71 02 bf 85 4e 19 3f 8f ea ea bd
       0.15275317 -0.50953877 0.59885436 -0.1147052
0000c0 92 db 58 3e ee 0c 0d bb 9f b0 50 be db 2a f2 be
       0.2117751 -0.00215226 -0.20379876 -0.4729832
0000d0 3e 4e ef 3e e2 59 10 bf 0f 2a c9 bd e1 e2 18 be
       0.46739382 -0.5638715 -0.09822475 -0.14930297
0000e0 a5 d0 6b bf d0 17 b5 3e f5 89 1d 3f 14 64 fe 3e
       -0.9211524 0.3536973 0.6153863 0.4968573
0000f0 de 11 5b be f7 40 3d 3e 30 8d 59 3d 84 84 27 3f
       -0.21393535 0.18481813 0.053113163 0.6543658
000100 9f 57 df 3f 38 cf 21 bf f6 03 14 bf 48 7e 35 3f
       1.7448615 -0.63206816 -0.57818544 0.70895815
000110 90 38 82 3f 0b 84 ba 3e 40 28 99 3e 67 70 2c bf
       1.0173512 0.36428866 0.2991352 -0.6735901
000120 97 f5 51 3e 89 ca 04 bf de 89 89 be 21 49 c3 bd
       0.20503841 -0.51871544 -0.26862997 -0.095354326
000130 25 94 63 be 11 10 19 3e 5b ee 83 3e 99 13 b7 3e
       -0.22224481 0.14947535 0.25767788 0.3575714
000140 79 9a 48 bd 10 f6 25 bd a0 a3 80 3c 1e 4a 77 be
       -0.04897544 -0.040517867 0.015703022 -0.24149367
000150 57 69 38 3f dc 3c 2e 3e 0a 5b bd bd d9 06 3d 3d
       0.72035736 0.17015404 -0.0924588 0.04614911
000160 1b e1 a4 bc 61 d6 f2 be e6 b7 2e 3e e4 84 db bc
       -0.02012687 -0.47429183 0.17062339 -0.026796766
000170 5d a2 a1 bd 58 0d fd bd 06 e3 9d be 37 38 f7 be
       -0.078922965 -0.12356061 -0.30837268 -0.48285076
000180 f7 ba 38 be 73 85 08 3f e7 67 93 be 00 c1 7c 3e
       -0.18040071 0.5332863 -0.2879021 0.24682999
000190 d7 84 0d 3d 17 ca f9 3e e5 cc a6 bf 53 bf d4 3e
       0.034550514 0.48786995 -1.3031279 0.4155222
0001a0 95 bd e9 be c7 63 84 be 85 09 aa be e3 8d 82 be
       -0.45652452 -0.25857374 -0.33210388 -0.25498876
0001b0 ff 5e 5e bd c1 07 27 be a9 13 80 bf c8 1c b7 be
       -0.054289814 -0.16311552 -1.0006 -0.35764146
0001c0 75 26 20 3f 3f 7e 51 bf 61 19 c8 be 5b 0b 92 be
       0.6255868 -0.8183326 -0.39081863 -0.2852429
0001d0 b4 02 01 be 98 a6 ce be a5 21 c6 3e e5 77 bf be
       -0.12598687 -0.40361476 0.38697544 -0.3739616
0001e0 1b 99 76 3e 80 dd 22 bd 1e b7 59 3d 72 3a 1c bf
       0.24081843 -0.03976202 0.05315315 -0.6102668
0001f0 7e e3 0b bf b6 f0 8b 3c ca 05 df 3e 67 16 43 be
       -0.54644 0.017082553 0.43559104 -0.19051515
000200 6f 97 a9 be 75 5b 67 3e 4d ab c1 3e c4 39 24 3f
       -0.33123347 0.22593482 0.37826005 0.64150643
000210 62 9c ee 3d 10 c1 16 bd 5e b5 4b 3e ec 01 5c 3f
       0.116509214 -0.036805212 0.19893405 0.8594043
000220 d8 12 b5 3e 0c 3b 16 3f 11 dd 47 3e 03 5a f1 3e
       0.3536594 0.5868385 0.19517924 0.47138986
000230 15 a2 42 3d e2 c3 83 bd 8a db 08 3f 89 8e 3d 3c
       0.047517855 -0.06433846 0.5345999 0.011569628
000240 67 e2 89 be e6 4a 89 be 7d 61 18 bd 4c 16 b7 3e
       -0.26930544 -0.26814955 -0.037202347 0.357592
000250 76 ab a5 bd 6c a1 78 bf b4 8a 7d 3e 29 40 cb 3e
       -0.08089344 -0.9712131 0.24759942 0.39697388
000260 3f 24 3e 3c b8 46 f9 3d fc 09 27 be e6 e5 96 3e
       0.011605321 0.12171692 -0.16312402 0.29472274
000270 ec 6d a4 be 28 41 97 be 1c 61 9a 3e 82 d1 17 3e
       -0.32115114 -0.29541898 0.30152214 0.14826015
000280 10 4a 56 bc 15 d0 f0 be b6 4d 75 3e c3 21 2e bc
       -0.013079181 -0.47033754 0.23955426 -0.010628167
000290 c0 ef ca 3e 72 92 57 3e 98 12 bf bd c2 f3 83 3e
       0.3963604 0.21051958 -0.09329718 0.2577191
0002a0 03 e4 05 be e2 64 90 bd 02 87 81 3e d7 59 82 bd
       -0.13075261 -0.07050492 0.25298315 -0.06364792
0002b0 d1 67 be 3e 9c 7e e2 3d 07 00 33 bd e5 60 72 bf
       0.3718858 0.11059305 -0.043701198 -0.946791
0002c0 e6 b0 ca 3e 1a 1b b4 be 59 5e 17 3f cd fa f9 3c
       0.39588088 -0.35176927 0.5912834 0.030515099
0002d0 5a 60 9d 3e 44 67 8f be 24 ad e4 3e c9 47 cb 3d
       0.30737573 -0.28008473 0.44663346 0.09925801
0002e0 35 d2 9f be b6 de d6 be 1f b6 b8 be 88 34 f8 3e
       -0.31215063 -0.4196679 -0.36076447 0.48477578
0002f0 b1 fb 05 3f 9d a3 9a be 77 86 a3 be aa fa 03 3e
       0.52337176 -0.30202952 -0.31938526 0.1288859
000300 0c 72 85 3e 7d e1 49 bc fe 43 9a 3e 3f 5c 1c 3f
       0.26063573 -0.012321827 0.3013 0.61078256
000310 5d ed e6 be 26 ca 9b bd 99 b2 a5 3e 3f 0a 26 3d
       -0.4510297 -0.07606916 0.32362822 0.040537115
000320 ea 02 c5 be 24 04 52 bf e0 3a 19 bf 27 0f 27 be
       -0.38478786 -0.8203757 -0.5985546 -0.16314374
000330 51 03 77 3e 99 7a 24 3f 97 4b 85 be f6 39 f1 bd
       0.24122359 0.6424957 -0.26034233 -0.11778633
000340 61 da 69 be dc 4a ce bd cd 04 10 3f 6f a1 3a bd
       -0.22837211 -0.10072872 0.56257325 -0.04556411
000350 bb 33 35 3e e5 98 36 3f c6 f3 2d 3f 1d a3 77 be
       0.17695515 0.7132705 0.67950094 -0.24183317
000360 77 86 25 bf 9d c6 02 c0 16 21 5c 3d 1c 2c 6a be
       -0.646583 -2.0433724 0.05374249 -0.22868389
000370 2e 95 e3 3e 64 e7 b5 bd dd b3 30 3e 43 49 95 3e
       0.44449753 -0.08882025 0.17256112 0.29157457
000380 02 f2 dd be 23 ad d1 be a7 ab 00 bf 11 b5 d6 bb
       -0.433487 -0.40952405 -0.5026192 -0.0065523465
000390 b5 40 e3 be 21 ae 56 be 3d c7 7f bf 7f a1 d7 bd
       -0.44385305 -0.20964862 -0.9991339 -0.1052885
0003a0 4d cd e6 be a1 d9 a8 bd 19 f1 e1 3e e2 1d 7e bc
       -0.45078507 -0.082446344 0.44129255 -0.015510054
0003b0 bf e3 cf 3c 7b a8 67 3f eb 29 2f 3e 53 c5 87 be
       0.025377152 0.90491456 0.17105834 -0.26517734
0003c0 78 40 43 3f 30 93 45 be 15 23 aa 3c 31 ea 2a be
       0.76270247 -0.19294429 0.020768682 -0.166909
0003d0 cb fa a3 bc be a2 21 3f e6 b4 59 bf de 37 03 bf
       -0.020017048 0.6313895 -0.85041654 -0.5125712
0003e0 ad 5a 13 bf eb 53 df be 53 e7 91 3e 00 9d a9 3e
       -0.57560235 -0.43618712 0.284968 0.33127594
0003f0 2c 5e aa 3e 06 65 bc be f8 54 70 bf d0 d2 75 be
       0.33274972 -0.36795825 -0.9387965 -0.240062

network_body.linear_encoder.seq_layers.0.bias f4 [128]
000000 81 45 18 3b 6c 72 30 3a e1 8a 38 bc f4 83 c0 3a
       0.0023234787 0.00067309174 -0.01126358 0.0014687763
000010 c0 3d 75 ba 11 c2 35 3b c9 17 82 3a 56 00 bd 3a
       -0.000935521 0.002773408 0.0009925301 0.0014419656
000020 92 f9 2f 38 3e ff d6 3b 69 ae 75 3b 6e 9f 84 ba
       4.195568e-05 0.006561189 0.003748799 -0.0010118315
000030 10 7b 00 bc c1 fd cb ba 01 8b 49 ba 03 5e 67 bb
       -0.00784184 -0.0015563295 -0.00076882547 -0.0035303838
000040 ea d5 1f bc f8 e9 95 bb 7f c5 58 3b 75 64 04 bb
       -0.009755591 -0.0045750104 0.0033076701 -0.0020201479
000050 7e f2 a3 b8 d9 01 50 3b c3 25 a3 ba 07 7e 35 3b
       -7.8176134e-05 0.0031739383 -0.0012447167 0.0027693526
000060 b3 71 40 39 a3 dc 28 bc d4 13 08 b9 19 13 d0 ba
       0.00018352903 -0.01030651 -0.00012977357 -0.0015874832
000070 6b b2 5c bb 38 68 97 3b 96 8b 30 b9 f0 1d 00 bb
       -0.0033675681 0.004620578 -0.00016836668 -0.0019549094
000080 2c 6d 88 bb 16 36 3b 3b 57 f7 f4 ba 0f d5 4d ba
       -0.004163405 0.0028566173 -0.0018689436 -0.00078518776
000090 d1 62 2d ba 7b db 9d 3b 34 c5 28 bb 46 1a 2e 3c
       -0.0006614151 0.004817424 -0.0025752308 0.010626381
0000a0 5c 53 f7 38 a4 4c c0 b8 51 a8 ec ba 99 ff 97 ba
       0.00011793405 -9.169549e-05 -0.0018055533 -0.001159656
0000b0 23 5d d2 3b c0 63 84 bb 30 d5 0b bb aa df c5 3a
       0.006419794 -0.0040402114 -0.0021336786 0.0015096564
0000c0 0b 63 98 ba c7 70 58 b0 6e e0 ee ba 1f 7f d5 3b
       -0.0011626197 -7.874061e-10 -0.0018224844 0.006515398
0000d0 70 f3 a2 3b 41 19 24 3c c7 b8 aa b9 93 20 30 bb
       0.0049728677 0.010015787 -0.00032562597 -0.0026874884
0000e0 7b 44 a7 3a 89 92 9e ba 78 f7 3b 3b 2b 8e 01 b9
       0.0012761498 -0.0012098114 0.0028681438 -0.0001235536
0000f0 e2 9b 29 bb ea 84 78 b9 23 5e 8b 3b f5 9b 82 bb
       -0.0025880267 -0.00023700637 0.0042531653 -0.0039858767
000100 51 a0 14 3a 8c b3 ae 3c 07 04 70 bb f1 c4 a6 b9
       0.0005669641 0.021325849 -0.0036623494 -0.0003180872
000110 96 4f 77 bb 00 79 d8 b9 c7 42 11 bb 7e a7 2a 3a
       -0.0037736646 -0.00041288882 -0.0022165047 0.00065099436
000120 36 36 26 bb d7 cd fe ba 88 64 1c bb 17 7d 59 bb
       -0.0025361902 -0.0019440007 -0.0023863632 -0.0033186132
000130 44 d1 bc bb 3b 6d ce 37 9a 9c c2 ba ad 3c 8e bb
       -0.005762251 2.4607978e-05 -0.0014847696 -0.004340729
000140 45 5a 04 bb da c2 55 bb 9f 02 8d ba 31 28 24 ba
       -0.0020195406 -0.0032617361 -0.0010758227 -0.00062620925
000150 e4 62 79 bb 93 f5 63 3a 70 c2 9d bb 9c df 19 b1
       -0.0038053328 0.0008695956 -0.0048144385 -2.2391538e-09
000160 a5 e3 0b bb 39 d1 15 3b 69 b0 7f 3b 84 43 48 b9
       -0.0021345404 0.0022860302 0.003901506 -0.00019098638
000170 cd d2 5d 3b af 2c eb b9 fb da bb bb 8a 4a bc 3b
       0.003384757 -0.00044855985 -0.0057328916 0.0057461904
000180 31 bd a9 bb 3b 9c 87 bb 18 c8 64 bb cd 60 b8 3b
       -0.005180024 -0.004138497 -0.0034909304 0.005626774
000190 50 d6 f4 ba a2 cb 2f bb 2e c1 05 3a 7c 90 0f bb
       -0.0018679593 -0.0026824255 0.00051023334 -0.0021906188
0001a0 de 6f aa 38 a8 95 eb b9 9f 46 8f 39 4c 54 cc ba
       8.1270686e-05 -0.00044934195 0.00027327702 -0.0015589087
0001b0 35 e3 eb b9 6a 6f cc 38 93 83 22 ba 0b 27 b7 3a
       -0.00044991975 9.7482305e-05 -0.00061994157 0.0013973428
0001c0 1c 32 b4 ba 86 70 a9 ba 4e bc da bb a4 2e e7 ba
       -0.0013747844 -0.0012927211 -0.0066752797 -0.0017637801
0001d0 0e 3c 86 bb 11 0d 52 ba 61 7c 9e 39 5e e8 2e 3b
       -0.0040965145 -0.00080128113 0.00030228778 0.0026688795
0001e0 cf d4 79 3a b2 3f f8 39 a1 ce eb 39 ac fc 2b bb
       0.0009530307 0.00047349703 0.00044976643 -0.0026243133
0001f0 cf 66 00 bb 8d f5 cb bb bb c7 84 bb fa 59 d9 ba
       -0.0019592529 -0.0062243403 -0.00405213 -0.0016582601

network_body.linear_encoder.seq_layers.2.weight f4 [128, 128]
000000 4d 9d 29 bd bd 08 dc 3d 52 50 0e 3e 89 5c 5f bd
       -0.04140978 0.10743854 0.13897827 -0.054531608
000010 45 6b 2d bd 95 f4 03 be ef 90 30 bd 1f 29 05 be
       -0.04233863 -0.1288627 -0.04310697 -0.13003968
000020 9d d7 d6 bc f5 ac fb bb da 40 e1 bd ad c0 3a bd
       -0.02622586 -0.00768053 -0.109986976 -0.045593906
000030 6f a6 7b 3d 64 17 1a 3d e4 a3 26 bd ce 00 a7 3c
       0.06143802 0.037619963 -0.040683642 0.020386126
000040 29 89 9f bd 43 4d a2 3d 07 fd 2c bd b1 33 fe bc
       -0.07789833 0.07924893 -0.042233493 -0.031030508
000050 b0 4c 29 bd 4a b8 35 be 10 47 18 3a cb 64 0e 3e
       -0.0413329 -0.17746082 0.0005808929 0.13905637
000060 91 0a 7b 3d 6f cc 3c bc ac de 3d bd fe 14 b7 3b
       0.061289374 -0.01152335 -0.046354935 0.0055872193
000070 38 f3 e4 3b 53 e6 fe 3d d2 6b 78 3d 7c f9 aa bd
       0.0069870017 0.124462746 0.0606497 -0.083483666
000080 9a 65 82 bc 18 6c 46 3d 48 a8 0d bd 90 3c d9 3c
       -0.015917588 0.04844293 -0.034584314 0.026518136
000090 a1 81 9c 3d f6 a1 e4 3d dd 6d 11 3c 89 c4 24 be
       0.07641912 0.11163704 0.008876291 -0.16090597
0000a0 5b 00 98 3d cc cc a8 bd 1d df ba 3d 34 27 39 3d
       0.07421943 -0.08242187 0.09124587 0.045203403
0000b0 ff 6a 1a 3e 54 3d 77 bb 35 bf 26 be e7 1f 05 bd
       0.15079878 -0.0037725763 -0.16283877 -0.032501128
0000c0 14 b8 80 3c 88 13 13 3e 3e f6 17 3d 37 b0 03 be
       0.015712775 0.1436292 0.03710007 -0.1286019
0000d0 58 d3 f6 bd e8 2b a7 3d 3d 8f 88 3c fc 79 9e 3c
       -0.12052029 0.08162671 0.016669864 0.019345276
0000e0 dd 9f ae bd 7b 6f 0f 3e 59 6a 0a 3d 71 ea 3b be
       -0.08526585 0.1400737 0.033792827 -0.18351151
0000f0 b0 2d f1 3c 25 23 55 3d 8e 85 31 be ca ec 18 3d
       0.02944073 0.05203547 -0.17336103 0.037335195
000100 0b 2b 01 3e 83 0c 1d be 3f e9 ff bc a0 bf 4b 3d
       0.12614076 -0.15336804 -0.03123915 0.049743295
000110 37 55 c4 3d ec e7 ce bd d2 77 11 3e 6b 00 ec 3c
       0.09586566 -0.10102829 0.14205864 0.028808793
000120 b0 ee 1d bc 71 8a 2d 3d 05 82 43 3d 6b bf c6 3d
       -0.009639427 0.042368356 0.04773142 0.09704479
000130 c5 e0 a2 bc 03 55 93 bd ec fa d3 bb 3f de ee 3d
       -0.01988257 -0.07193949 -0.006469121 0.11663484
000140 ce 1b ed 3d 99 e7 df bc 36 59 17 3e 52 f3 80 be
       0.11577569 -0.027332114 0.14780125 -0.2518564
000150 38 57 9d bb 7d 38 0c bd 77 d3 f9 3d 83 05 17 3d
       -0.004801657 -0.03423356 0.12198537 0.03687049
000160 d4 97 b0 3c 71 09 31 be 2f 5c 46 bd 6f f2 7e bc
       0.021556772 -0.17288758 -0.048427757 -0.01556073
000170 2d 2d e0 bd 65 e1 d2 3d c1 cd 8c bc e8 14 ef 3d
       -0.109461166 0.10296897 -0.017187955 0.116739094
000180 04 2c 6b bc 8a 0c bd 3d 89 8e 14 3a 39 14 9c bd
       -0.014353756 0.09230907 0.00056669913 -0.07621045
000190 96 df f2 3d 2b 29 86 3d 1c d0 4e 3d 7b 78 6a 3d
       0.11859052 0.06550821 0.050491437 0.057243805
0001a0 21 5a 7e bd d2 dd 8d 3d ba 47 82 3d 58 13 4e 3d
       -0.062097672 0.069270745 0.06361337 0.050311416
0001b0 21 30 a4 3d 9d a8 26 bd 54 c2 8b 3d 7c 66 cc 3d
       0.08016992 -0.040688146 0.068241745 0.09980485
0001c0 90 43 a0 bc 34 44 c5 bc 84 1e d2 3d 38 c0 1c 3e
       -0.019563466 -0.024080373 0.10259727 0.153077
0001d0 3e 28 22 3d f0 e6 ce bc 57 72 f8 bb 28 86 26 be
       0.03958916 -0.025256604 -0.0075819897 -0.16262114
0001e0 cc 92 c0 bd 43 b1 3b 3e 91 e4 bd bc 89 3b e4 3b
       -0.09402999 0.18329339 -0.023180278 0.006965105
0001f0 55 13 3d be e4 e7 7a bd 67 9a e0 bc b5 59 26 3e
       -0.18464406 -0.061256304 -0.027417375 0.16245158
000200 35 2e 8e bc 02 79 58 3d e5 d1 dc bd 9a 00 8b bd
       -0.017356018 0.052849777 -0.10782222 -0.06787224
000210 92 3d dc bc 44 03 2e bd 3e 85 03 bd f7 91 30 bd
       -0.026884828 -0.042483583 -0.03210949 -0.043107953
000220 08 0f fd 3c 0d f8 05 3e 99 98 80 3d 1f a9 db bd
       0.030890957 0.13082905 0.06279106 -0.10725617
000230 ea 7a 6a bd 1c b9 12 bc 5e 71 82 ba b8 5a db bc
       -0.057246126 -0.008955266 -0.0009951999 -0.026776657
000240 47 db b2 bd b0 b7 7f 3d 4f ea 7c bd 2f e3 c2 bc
       -0.0873323 0.062431037 -0.06174689 -0.02378997
000250 47 9e b2 bd 33 81 84 bc 23 11 02 bd 7d db 07 3e
       -0.08721595 -0.016174888 -0.031754624 0.13267322
000260 75 c5 29 bd e2 cf f7 3a 33 1a a5 3c c4 0a d0 bd
       -0.041448075 0.0018906558 0.020154094 -0.101583034
000270 b5 8a 44 3a 0c 39 b4 3d da e7 2c be 01 b8 0b bd
       0.00074974756 0.08799943 -0.1688532 -0.034111027
000280 88 0d aa 3c b0 bf 64 3d 5e 29 11 3d b7 df 0e be
       0.020758405 0.05584687 0.03543984 -0.13952528
000290 b3 42 d8 3d e0 58 19 3d 2b 8a ab 3c 26 df 3d 3d
       0.10559597 0.037438273 0.020939907 0.04635539
0002a0 b0 78 4f bd f3 63 4d 3d ce f1 0b be 2f d8 54 bd
       -0.050652206 0.050144147 -0.1366646 -0.05196398
0002b0 40 12 49 be a5 af 21 be 10 25 8b 3d f3 06 47 3d
       -0.19635868 -0.1578966 0.067941785 0.04859061
0002c0 af f6 0a bd ce 0d 6c bd e4 95 85 3d 7c 39 22 3c
       -0.033926662 -0.057630353 0.0652273 0.009901401
0002d0 02 8c 0e be 4d b2 2f be 21 84 d9 bc 2e 00 0d be
       -0.13920596 -0.1715786 -0.026552262 -0.137696
0002e0 7d 59 ec ba a5 d3 2a 3d b3 10 37 be 91 5d 45 bd
       -0.0018032041 0.041705746 -0.17877464 -0.048184935
0002f0 86 5b 77 bd 97 a2 24 3d 08 3b b1 bc 94 90 87 bd
       -0.060390018 0.04019412 -0.021634594 -0.06619373
000300 f1 03 0d be e4 5d 73 3c f0 2e a5 3d d8 6b c5 3d
       -0.13771035 0.014853928 0.08065593 0.0963971
000310 8c b3 bb 3c 8b b1 0a 3b f8 90 16 bd 58 45 bc 3d
       0.022912763 0.0021162953 -0.036759347 0.09192914
000320 e4 dc a4 3d d7 cb d3 3d fe 62 be bc f7 f2 d0 bb
       0.08049944 0.10341614 -0.023240563 -0.00637662
000330 d6 ad dd bd 0d c8 0f be 2e 19 86 bd 6f 5f f6 bd
       -0.10824172 -0.14041157 -0.065477714 -0.12029921
000340 f9 19 8c bd f0 11 05 bd 0c 05 b8 3b fc 22 60 3d
       -0.068408914 -0.03248781 0.005615836 0.054720864
000350 b5 06 93 bd 1d c0 d4 3c b4 fb 22 3e c0 30 c8 bd
       -0.07179014 0.025970513 0.1591633 -0.09774923
000360 4c a8 d1 3c 35 44 7f bd b1 57 50 be 1c 7f df 3d
       0.025592946 -0.062320907 -0.20345952 0.10912916
000370 0c 90 fb bd 97 8d 06 be 78 85 7a bd 90 73 19 bb
       -0.12283334 -0.1313995 -0.061162442 -0.0023414828
000380 1f 4e be 3d 3e ea 93 bd 6b 97 80 bd 07 7a d5 3c
       0.09292244 -0.072224125 -0.06278881 0.026059164
000390 d7 ea 62 3d bd b2 87 bc 2f 58 c2 bd b4 5c b2 be
       0.055399742 -0.016564721 -0.09489476 -0.34836352
0003a0 55 78 15 bd b1 64 87 bd a0 7f 05 3e de 40 f5 3d
       -0.03649171 -0.06611002 0.13036966 0.11975263
0003b0 ac 60 ca 3b 13 c6 d8 bd 77 e0 e0 3d b4 bf f3 3c
       0.006176075 -0.10584655 0.10980313 0.029754497
0003c0 04 de b4 bd 79 c8 64 3c 77 76 c9 bd 97 58 90 bd
       -0.088314086 0.013963812 -0.098370485 -0.07048147
0003d0 cd 0b f3 3d 7e 63 05 3c e8 63 9d 3d cc 97 8f 3d
       0.11867485 0.008141397 0.07685071 0.07011375
0003e0 c5 22 05 bd e3 06 3f 3d 85 f4 00 be 50 63 a3 bc
       -0.032503862 0.046637427 -0.12593277 -0.019944817
0003f0 12 00 13 bc b4 07 37 3e cf ac 15 be fb 4f b5 bd
       -0.008972185 0.17874032 -0.14616702 -0.08853146

network_body.linear_encoder.seq_layers.2.bias f4 [128]
000000 e4 34 0d bb a2 b0 4a b9 48 28 4b bb 69 9e 44 ba
       -0.0021546418 -0.00019330022 -0.0030999351 -0.00075004116
000010 ed cf d8 ba 77 71 0b bb 39 17 e3 ba ef 3d 48 b9
       -0.0016541459 -0.0021277347 -0.0017325646 -0.00019096558
000020 3d 46 0a bb 07 85 4d bb d9 ae cd 3a 93 8b 09 ba
       -0.0021098994 -0.0031359808 0.0015692367 -0.00052469334
000030 56 84 df b9 84 28 b6 ba c0 f7 69 ba 37 ff 8f 3a
       -0.00042632472 -0.0013897573 -0.0008925162 0.0010986094
000040 9c b7 48 bb 55 95 84 3a c0 e5 82 bb 6a 46 16 ba
       -0.0030627018 0.0010115305 -0.0039946735 -0.00057325384
000050 f1 d4 f0 ba b9 32 cd 3b 7e 23 9d 36 b2 94 53 bb
       -0.0018374008 0.00626215 4.6830964e-06 -0.0032284674
000060 81 2c 95 bb 37 aa d6 b5 08 c4 69 b7 69 d1 c8 b9
       -0.0045524244 -1.5993782e-06 -1.3933524e-05 -0.00038302995
000070 c3 cd 46 3b 20 34 f7 b9 c4 cf 1e b9 7f ef 98 ba
       0.0030335046 -0.00047150347 -0.00015145453 -0.0011668055
000080 81 58 86 bb 07 81 dc ba 69 54 b0 ba 96 8e 0f b9
       -0.004099906 -0.0016823121 -0.001345289 -0.0001369066
000090 ac d3 74 bb a9 6a fc ba 8c 58 5c ba bb 06 44 ba
       -0.0037357612 -0.0019257861 -0.00084055285 -0.00074778096
0000a0 54 4e 3a b9 0b 84 71 bb 80 eb 37 bb b0 bb 64 3b
       -0.00017767522 -0.0036852385 -0.0028063953 0.003490191
0000b0 0f f7 f0 ba fa ba 91 3a 23 68 0f 39 1a 56 6a ba
       -0.0018384176 0.0011118345 0.00013676337 -0.0008939222
0000c0 c6 1c 6c 36 33 c6 10 bb d0 70 c5 ba f2 1f 05 bb
       3.5183489e-06 -0.0022090792 -0.0015063528 -0.002031323
0000d0 c9 fa 2d bb c6 0d ed ba 18 e2 c9 ba cf 06 34 bb
       -0.0026547185 -0.001808577 -0.0015402464 -0.0027469879
0000e0 1a 63 b6 b9 28 aa b3 ba 3f 0a 48 ba 3f 71 c2 ba
       -0.00034787582 -0.0013707327 -0.00076309213 -0.0014834775
0000f0 f8 4d a4 ba 4d 67 ff ba 9b b4 89 ba 6f 90 b5 3b
       -0.0012535444 -0.0019485742 -0.0010506095 0.0055408995
000100 8b d4 a6 ba 2f df ff b8 a2 7e a7 33 63 3d 4c bb
       -0.0012728138 -0.00012200919 7.799578e-08 -0.003116452
000110 4f 10 97 b9 f7 48 31 bb d8 59 d0 3b 2d 8c f6 3b
       -0.00028813115 -0.0027051547 0.0063583665 0.0075240345
000120 48 8c 58 ba 7d 1c 30 bb eb 6c 87 bb 9e 05 f3 ba
       -0.00082606496 -0.002687245 -0.004132857 -0.0018541103
000130 26 a8 9b ba 3b a2 8f 3b 25 fc b3 bb 78 f8 7b ba
       -0.0011875674 0.004383353 -0.0054927045 -0.0009611915
000140 b6 02 0a 3b d6 ee d8 ba 5c 47 24 bb c3 bf 48 bb
       0.0021058745 -0.0016550671 -0.0025066948 -0.0030631877
000150 46 55 05 3a c7 33 3e 38 49 21 b6 ba d4 c1 17 ba
       0.0005086254 4.534775e-05 -0.0013895418 -0.00057890755
000160 4b 90 14 3b 0a c5 6f 38 5c 4a c7 ba a9 10 fd ba
       0.0022669013 5.7165547e-05 -0.0015204656 -0.0019307333
000170 39 ec 9f b9 e3 48 16 bb 61 c2 e1 b9 99 ee 9e bb
       -0.00030502843 -0.0022931627 -0.00043060168 -0.0048502204
000180 ae 2d 85 ba 57 4a 8e ba f6 e2 2e 3b 1d ad c8 ba
       -0.0010160708 -0.0010855895 0.0026685572 -0.0015310381
000190 ee c8 90 ba 02 b4 7e ba 2a 0a 57 b9 d7 43 35 bb
       -0.001104621 -0.00097161543 -0.00020507784 -0.0027658844
0001a0 a2 8c 31 bb 2f 98 d6 ba 8e ac c5 ba b6 7e 6d 3b
       -0.002709188 -0.0016372259 -0.0015081333 0.0036238856
0001b0 a2 86 ae 3b 04 f5 64 34 76 b0 a3 ba aa 4a 81 ba
       0.005326108 2.1323291e-07 -0.0012488503 -0.000986417
0001c0 a4 91 78 ba c6 06 97 ba c9 a0 2f bb 56 67 c5 3b
       -0.00094821514 -0.0011522404 -0.0026798716 0.0060242815
0001d0 6d b7 bc 39 26 75 28 3a f9 b2 26 b6 82 76 1d 3a
       0.00035994817 0.0006426148 -2.4840103e-06 0.0006006734
0001e0 a6 c3 d7 ba 12 30 c5 ba 28 51 be ba 17 36 0b bb
       -0.0016461506 -0.0015044233 -0.0014520036 -0.0021241957
0001f0 66 92 99 b9 7f 72 d7 ba 89 47 50 38 39 91 8b ba
       -0.0002929151 -0.0016437321 4.9657687e-05 -0.0010648138

action_model._discrete_distribution.branches.0.weight f4 [3, 128]
000000 ef 04 df 3b b1 eb d7 3b 7b 9d 29 3c 29 17 65 3a
       0.006806008 0.006589376 0.010352488 0.0008739108
000010 0e 2c b9 3c b7 07 89 bb 1e 60 30 bc 95 2b e0 bb
       0.022604015 -0.004181828 -0.010765104 -0.006841133
000020 09 64 a0 3b 9d 1d 84 bb db 9b 18 bc 1a 5a 52 3c
       0.0048947376 -0.0040318505 -0.009314503 0.012838865
000030 8f 5a db ba 7c d3 d5 3b 1c 7a b7 3c 9f ec 13 bc
       -0.0016735363 0.006525455 0.022397093 -0.009028583
000040 e7 aa 8b 3b 83 f2 41 3c ba dc 16 3b 9c 86 fc bb
       0.0042623165 0.011837604 0.0023019747 -0.0077064764
000050 1e b7 27 bc c2 07 8e 3c da 71 19 bc c1 e8 b3 3b
       -0.01023653 0.017337684 -0.009365523 0.005490393
000060 d2 d4 af bb ca da 0b 3c 8f 38 7a 3b 84 c5 8d 3a
       -0.0053659463 0.00853605 0.0038180684 0.001081631
000070 e1 5c 81 bc 6e cb e1 3a aa 91 86 3c 8f 22 a9 b9
       -0.015791358 0.0017226764 0.01642688 -0.0003225994
000080 58 e0 0c bc 5d d0 e0 bb c2 f7 07 3c 43 f0 9b 3b
       -0.00859841 -0.0068607763 0.008298816 0.004758866
000090 cf 1b fa 3b c4 67 3a bc 1b 40 91 bb 9a e6 1c bb
       0.0076327096 -0.011377279 -0.004432691 -0.002394116
0000a0 df b1 b1 3b 89 7e 27 3b 5b f5 8e ba 40 6a d7 3c
       0.005422815 0.0025557599 -0.0010906862 0.026295781
0000b0 aa 3a 57 ba 07 80 e8 3b 38 c1 28 bc d4 05 83 bc
       -0.0008210341 0.00709534 -0.010299973 -0.01599399
0000c0 54 74 2a 3b e4 ef a9 ba d3 e8 9e bb c8 96 d3 bb
       0.0026009278 -0.001296517 -0.004849532 -0.0064571835
0000d0 64 8c 28 3c 49 4e cd ba d4 4d b5 bb ca 2c 1d 3c
       0.010287378 -0.001566359 -0.0055329595 0.009593198
0000e0 73 b0 54 bc f7 1a 8d 3b 60 fd 25 3b db 8c 5d bc
       -0.012981522 0.004306193 0.0025328025 -0.013522352
0000f0 6e 50 62 3b 17 cd f4 3b 2a 9f ba 3b 6d 98 f9 3b
       0.0034532803 0.0074707377 0.0056952434 0.0076170475
000100 84 f1 25 3b 39 f6 92 bb c6 66 21 3c f6 f8 e5 3b
       0.0025320956 -0.0044849184 0.009851163 0.007018204
000110 35 7c 09 ba 0a 95 b9 bb 61 b9 b7 bc f7 81 84 3c
       -0.00052446435 -0.005663519 -0.022427263 0.016175253
000120 59 32 2b bb bf 85 a7 bb 56 51 43 3c 29 10 3d bb
       -0.002612254 -0.0051123793 0.0119212475 -0.0028848744
000130 39 3c 97 bb f1 d8 60 bc 1e 24 20 ba a5 18 5f 3c
       -0.0046153334 -0.013723598 -0.00061088975 0.013616716
000140 1c aa d2 bb c7 15 bf 3a 05 f7 8f b9 c8 06 6c bc
       -0.00642897 0.0014578634 -0.0002745913 -0.014405914
000150 a7 37 e3 3b 38 67 9a bc 57 7f 01 3a 5b 0e 4c bb
       0.0069341245 -0.018848047 0.00049399346 -0.0031136486
000160 71 2b 37 3c 2e a3 42 3c da 29 dd 3b 32 8d fa 3b
       0.011179791 0.011879725 0.006749374 0.0076462263
000170 12 28 09 3c 3d e5 93 bc d0 fe 10 3c c2 5f bd b9
       0.00837137 -0.018053645 0.0088498145 -0.00036120234
000180 86 66 9e bc a0 fd e5 b9 4a a2 08 3c b5 17 e4 bb
       -0.019335996 -0.0004386725 0.008339474 -0.006960834
000190 25 70 66 bb 4e 74 30 bc 37 2b 11 bc 37 e6 0b b9
       -0.0035162058 -0.010769917 -0.008860401 -0.00013341835
0001a0 34 e0 b2 b9 bc ea 1f 3c 7e d5 dc ba d0 9c df 3a
       -0.0003411785 0.009760555 -0.0016848294 0.0017060284
0001b0 73 89 24 3c 2f 75 10 3b 1e 9b 06 bb 1b 63 b3 ba
       0.010042536 0.0022042503 -0.0020539234 -0.0013686152
0001c0 99 db 81 3c 5e e6 82 3c b8 e4 81 bb 43 be cc bb
       0.015851783 0.015978988 -0.003964033 -0.006248267
0001d0 25 0c c7 3b 4f 25 d5 bb db 6c 04 3b f7 b4 b7 bc
       0.006074446 -0.0065046917 0.0020206484 -0.022425158
0001e0 db 2e 9f 3b c7 c9 15 3c 80 df bd 3c e3 72 27 bc
       0.0048578805 0.009142346 0.023177862 -0.010220262
0001f0 4d 3e 2a 3a 7a d5 d6 bb b7 d4 02 bc e0 69 8a 3c
       0.0006494269 -0.00655621 -0.0079852855 0.016896188
000200 b6 b2 cb 3b 7c 1d 4e bc 03 c9 b4 bb ac 72 67 b9
       0.0062163724 -0.012580272 -0.0055171265 -0.00022072595
000210 34 1e 1f ba 05 4a 1b 3b b7 9a 3b 3b b4 2c 4e 3c
       -0.0006069869 0.0023695242 0.0028626153 0.0125839
000220 12 c7 f0 bb 81 fd df bb 57 97 f1 bb c4 b0 5a 3c
       -0.00734795 -0.00683564 -0.0073727774 0.013347808
000230 b4 4a 34 3c 8d c7 d4 3b 1c 91 94 b6 1b 86 2c 3c
       0.011004139 0.006493515 -4.4276367e-06 0.01053002
000240 30 6b ae bb 6c e9 2b bc a2 1f ed b9 4a d3 11 3c
       -0.0053228363 -0.010492664 -0.0004522773 0.008900473
000250 f6 51 61 bc aa c0 5a bc 3a 05 42 bc 95 da aa 3b
       -0.013752451 -0.013351599 -0.011842066 0.0052140453
000260 d4 9e e1 bb 27 6e 45 bb 60 d6 a4 3c 85 8e 8a 3b
       -0.006885389 -0.003012547 0.020121753 0.0042284154
000270 11 d7 70 bb f9 3b 56 3b 57 64 84 3b bb 7c 81 3b
       -0.0036749283 0.0032689555 0.0040402818 0.0039516366
000280 24 cc 1c 3c fc f4 5e 3b 18 8d 5c ba 52 ff 05 3c
       0.009570155 0.0034020534 -0.00084133586 0.008178549
000290 2d c2 0a 3c ac 3f c4 bb 92 78 10 3c 0b 1e 34 bc
       0.008469147 -0.0059890356 0.008817809 -0.010993491
0002a0 c2 d2 2c 3c 93 2c 90 bb 56 8a 09 3c 66 83 3d 3c
       0.010548295 -0.004399845 0.008394798 0.011566972
0002b0 6d 25 fc 3b 31 63 24 bc e2 15 16 bb 0c ad 3a 3c
       0.007694891 -0.010033415 -0.0022901227 0.011393797
0002c0 5b da aa 3c ce f0 55 3a fc 27 1e 3b 92 db a8 bb
       0.020856073 0.0008161188 0.002413272 -0.005153128
0002d0 eb 82 25 bc f3 87 fe bb 5d c4 69 bc 92 82 06 3c
       -0.010102014 -0.0077676713 -0.014268008 0.008209841
0002e0 ac 9b c8 bb fb ff 13 bc 49 36 04 bb 12 74 4a 3b
       -0.006122073 -0.0090331985 -0.0020173958 0.0030891937
0002f0 ab fd 42 3c c1 ee 7c b9 3a b5 99 bb b1 ad bb b9
       0.0119012995 -0.00024121536 -0.0046907933 -0.0003579683
000300 d3 7c 66 3c de 59 8d 39 41 7a 78 bb 82 9f 7b 3b
       0.014067846 0.00026960572 -0.0037914666 0.0038394635
000310 23 6f be 3a c8 95 4c bb cd 12 99 3b 2c 70 3f bc
       0.0014528971 -0.0031217206 0.0046714307 -0.011684459
000320 83 a4 76 3b 47 f5 89 bb b0 06 1a 3c 09 6d 5f 3c
       0.0037634678 -0.0042101475 0.0094010085 0.013636836
000330 d5 70 ef bb 8f 4e a0 3c 08 b2 3e 3c e3 a2 9a bb
       -0.007307152 0.01956871 0.011639126 -0.0047191246
000340 4a e5 2c 3b a8 7c 04 3b 23 d7 c3 3b 8f 1d 49 bc
       0.0026381784 0.0020215902 0.005976574 -0.012275114
000350 bd 03 95 bc ac 6e 17 3c a7 60 99 bc cb 03 92 bc
       -0.01819026 0.009242695 -0.018722845 -0.017824074
000360 ef ef 5a bc 20 18 96 3b a7 5a a2 bb f7 4c 16 3c
       -0.013362869 0.0045805126 -0.0049546543 0.009173623
000370 73 8e 69 3c f8 60 52 bc da 9b 18 bb 4c a1 54 3a
       0.014255154 -0.012840502 -0.0023286254 0.00081111933
000380 81 5c 33 bc ae 22 88 38 bb 5f 42 bc c0 f8 e6 3a
       -0.010947348 6.491445e-05 -0.011863644 0.0017621741
000390 00 bf 9d b9 d7 ee 5f bc 9c 38 69 bc c9 da a4 3b
       -0.0003008768 -0.013667784 -0.014234688 0.005030964
0003a0 51 d1 ad 3b 8f 82 bd b9 12 ce 10 3b 83 ef 17 bd
       0.0053044935 -0.00036146163 0.0022095484 -0.03709365
0003b0 ec 85 1d ba 67 d7 0f bc b0 c1 37 bc 7a 20 49 bb
       -0.00060090306 -0.008779383 -0.011215612 -0.0030689524
0003c0 0b cd 0e 3b 52 b6 c0 ba 52 f4 b7 3b 93 70 82 bc
       0.0021789696 -0.0014702773 0.005613842 -0.01592282
0003d0 40 c4 d6 3c 40 8c 70 bc 72 43 d5 bb 74 c8 cd 37
       0.026216626 -0.014681876 -0.0065082842 2.4531248e-05
0003e0 1a 26 37 3c 6e 79 66 bc c9 07 d5 3c 5e dd d8 3b
       0.011178518 -0.014067037 0.026004689 0.006618186
0003f0 a7 5b 9a 3b ff c1 7d 3b 12 c1 0b 3c 3a 0a de 3c
       0.004710633 0.0038720367 0.008529918 0.027104486

action_model._discrete_distribution.branches.0.bias f4 [3]
000000 13 54 e7 39 c0 a3 af 39 6b 10 1f ba
       0.00044122394 0.00033500604 -0.0006067815

action_model._discrete_distribution.branches.1.weight f4 [2, 128]
000000 8c d3 9c 3b 1b 22 20 3c 98 50 99 b9 f2 fe 83 3c
       0.0047859605 0.009773756 -0.0002924248 0.016112778
000010 b9 9f e2 3b 51 64 90 3b 8b 6a d7 3a 6e 10 5b 3b
       0.006916013 0.00440649 0.001643495 0.003342654
000020 ca 1e 3d bb 67 ca 41 3a 22 56 d0 3a 0e 88 9f bb
       -0.0028857463 0.0007392526 0.001589481 -0.004868514
000030 b9 07 5c 3b a4 ff 0a bc ca bf 7b 3c 07 af 1d 3c
       0.003357394 -0.008483801 0.01536555 0.009624249
000040 8d 1b da 3c 76 ab a4 3b 1f f7 26 bb c9 46 a0 bb
       0.026624465 0.0050253225 -0.0025476885 -0.0048912507
000050 80 59 86 3c cb 12 1c 39 52 cb 11 bb ea da f7 3b
       0.016400099 0.0001488432 -0.0022246432 0.0075639384
000060 04 ba 00 3b 68 26 92 3b 0e bc 19 bc b1 59 1d bc
       0.0019642124 0.004460145 -0.009383215 -0.009603904
000070 05 23 10 bc 2c e4 0a 3c 7c 93 12 3c 2f 12 29 3a
       -0.008797412 0.008477252 0.008946296 0.0006449548
000080 56 62 c1 3c ae 58 32 bc 6c fc 11 bb d2 1c 27 bb
       0.02360646 -0.010885401 -0.00222757 -0.0025499356
000090 25 0c bd bb 6c b3 3c 3b 06 f6 8e bb b8 52 e9 bb
       -0.00576927 0.0028793467 -0.0043628244 -0.0071204565
0000a0 62 5f 96 bc 09 a0 83 3c bb 37 7e 3b 75 80 66 3c
       -0.018356029 0.016067522 0.0038790542 0.0140687125
0000b0 ba fa 67 bb 86 ee b4 3b 45 16 7f bb e6 53 7d bb
       -0.0035397247 0.0055215983 -0.0038923186 -0.0038654744
0000c0 8a 60 cd bb 2d 02 7a bb 80 e4 a8 3b b7 7d 60 3b
       -0.006267612 -0.003814827 0.0051541924 0.003425462
0000d0 ef 7a 0b 3c 32 ac 6e 3c ce 45 6c 3c 3c bb 8d bc
       0.008513196 0.014567422 0.01442094 -0.017301194
0000e0 57 30 04 3b e5 ea 2a 3c 3c bd 1e 39 19 45 50 3c
       0.0020170414 0.01043198 0.0001513855 0.012711787
0000f0 3d 65 16 3b 67 8e 99 3b 86 c5 38 bc ce f6 3b bb
       0.0022948526 0.004686165 -0.011277562 -0.0028681043
000100 18 4b c3 3a 53 71 0f bc 18 88 c8 3c 7f c6 b7 bb
       0.0014899699 -0.008755046 0.024478957 -0.0056083794
000110 62 c6 b5 b9 bb 83 18 3b 04 d1 6f bc db f0 b7 3c
       -0.00034670817 0.0023271877 -0.014637236 0.022453716
000120 cb 01 cf bb 86 1c 70 bb 15 90 a3 3c 3e 4d fc 3a
       -0.0063173524 -0.0036638095 0.019966165 0.0019249094
000130 d1 ce a8 3b 5c a0 19 3c 88 b7 01 bc df 8c cd ba
       0.0051516076 0.009376612 -0.007917292 -0.0015682242
000140 e9 48 8e bc a4 5b 70 3c 0f 88 7f 39 08 49 17 bb
       -0.01736875 0.014670286 0.00024369381 -0.0023084302
000150 34 99 8d bb 58 d6 9b bc e6 21 1a 3c 71 1d 9c bc
       -0.0043212418 -0.019023106 0.009407496 -0.019057008
000160 e0 3f d0 3b 1e e3 83 bc df 84 ff 3b 80 12 e3 3b
       0.0063552707 -0.016099509 0.007797822 0.0069296956
000170 c3 05 f9 3a 34 a9 8a bb 66 0f 88 3b ff 65 fa ba
       0.001899891 -0.0042315964 0.0041522263 -0.0019103884
000180 90 14 ac bb a0 72 83 bb 5c b2 a1 3c e8 13 8a 3c
       -0.0052514747 -0.004011467 0.019738369 0.016855195
000190 1b 12 62 3c 76 fc e4 bb 94 ed 0e 3c 2a 9c 36 3c
       0.013798262 -0.0069881035 0.008723635 0.011145631
0001a0 de ad d2 3b b8 5f 1f 3b b5 27 e5 3b 6f a6 69 bc
       0.006429418 0.0024318527 0.006993259 -0.014260872
0001b0 ab 20 0e 3c be ae b2 3b e5 a4 33 3c cc 66 4a 3b
       0.008674781 0.00545296 0.010964607 0.0030884026
0001c0 6a 26 b4 3b 66 f4 34 3c bb 53 eb bb e3 44 e9 3b
       0.0054977434 0.011044597 -0.0071816123 0.0071188076
0001d0 b7 2b cf b9 9f 77 8b bb d9 26 6f bb 63 5c 4c bc
       -0.00039514687 -0.0042562033 -0.003649166 -0.012473199
0001e0 16 27 bb bb c2 34 ac 39 2a 17 90 3c 25 c4 99 3b
       -0.0057114465 0.00032845704 0.01758917 0.0046925717
0001f0 13 ec 16 3a 58 57 06 3b d5 93 41 3c 62 ba 1b 3c
       0.00057572237 0.0020498838 0.011815031 0.009504886
000200 67 32 cf 3b 83 bd 10 bc f3 3a ed ba c3 6e bd bc
       0.006323147 -0.008834246 -0.0018099233 -0.023124104
000210 3f b9 86 bb 43 d9 88 3a 62 4b 01 3c c9 fa b3 bc
       -0.0041114385 0.0010440726 0.007891508 -0.02197017
000220 3c 13 fb bb 54 7a d8 bb 57 6f 2d bb a2 c2 08 3c
       -0.007662205 -0.0066063795 -0.0026464069 0.008347185
000230 8f 2e 8d ba 3e 04 27 bb 2f 78 88 3b 29 1e 65 3c
       -0.0010771322 -0.0025484706 0.0041647176 0.0139842415
000240 df ce 9b 3c 42 b0 74 bc 38 50 03 bc 65 a1 57 3c
       0.019019542 -0.014934601 -0.008014731 0.013161038
000250 f9 cb 0a 3c 26 4a 94 bc e1 b5 4d 3c 4e 91 a0 3b
       0.008471482 -0.018101763 0.01255557 0.004900134
000260 6e d4 66 3b 63 35 40 3b 56 cb 30 ba ac b6 e0 3a
       0.0035221833 0.0029328696 -0.00067441666 0.0017144284
000270 cb 78 59 3c b0 6f 03 bb c5 3a e8 ba 8b 52 3e bb
       0.013273428 -0.0020055585 -0.001771771 -0.0029040899
000280 99 5b fd bb b5 bb 8e 3b da 41 08 3c b2 e5 f1 3b
       -0.0077318666 0.0043558725 0.0083164815 0.007382118
000290 79 f8 46 bb 7b 2b 7c bc 58 13 dc bb eb dd 10 3c
       -0.0030360504 -0.015391226 -0.006716173 0.008841972
0002a0 08 c3 ef 3b ff 10 e0 ba db b5 6b 3b 09 6f f3 bb
       0.0073169507 -0.0017094909 0.0035966549 -0.007429008
0002b0 ce 5c a4 bb c8 89 26 bc 0f 31 a9 bc 76 fd b9 3b
       -0.005015946 -0.010164686 -0.020653276 0.005675967
0002c0 64 a5 17 b7 a4 2e 12 3c 4c e6 91 bb 52 69 c7 bc
       -9.038809e-06 0.008922253 -0.0044525024 -0.024342213
0002d0 e3 47 8f 3c 65 af 8e 3b f2 5e bb 3a dc 4d 2e bc
       0.017490333 0.0043544048 0.0014295264 -0.01063868
0002e0 91 2a 9f bc 15 a0 6b 3c bd 0d 86 bc 44 f9 b2 bb
       -0.019429477 0.014381428 -0.016363973 -0.0054618437
0002f0 23 54 81 bc 38 c1 06 3c 61 fa 20 bc d6 87 94 bb
       -0.01578719 0.008224778 -0.00982532 -0.0045327945
000300 d1 a5 71 bb 41 5b 07 bc 3a 98 46 bb 61 b8 68 3c
       -0.0036872516 -0.008261503 -0.0030303136 0.014204116
000310 ab d3 42 3a 7e 2a b2 bb fb a1 a8 3c 08 86 4d bc
       0.00074320537 -0.0054371944 0.02058505 -0.012544163
000320 56 c2 56 bb ae 9b 6e 3b 56 d5 9d 3c 4b c8 41 bc
       -0.0032769642 0.003640871 0.019266766 -0.011827539
000330 99 8f d1 bb d5 91 86 3b 02 40 a0 ba a5 05 02 ba
       -0.006395292 0.00410674 -0.0012226107 -0.00049599475
000340 7a 5a da 3a b1 ba 83 3a 53 ff bd 3b e7 50 2c 39
       0.0016659044 0.0010050145 0.0057982593 0.00016433337
000350 4f 93 b4 3c 64 f9 e6 3b a6 46 36 3c c0 bf a0 bb
       0.022042898 0.0070487726 0.011125242 -0.004905671
000360 fb c4 a1 bc 3b ad 47 bb 53 98 53 39 7d 4f 00 bc
       -0.019747248 -0.0030468244 0.00020179273 -0.0078314515
000370 dc 61 89 3c 67 77 ee 3b e8 ba d1 3b de 64 06 bc
       0.016770296 0.0072774175 0.006400455 -0.00820276
000380 43 9e 9e 3c bf 79 bd bc db 3b 42 3b 76 e8 84 b7
       0.019362574 -0.023129342 0.0029637727 -1.5843874e-05
000390 7e 21 a2 bc b6 03 29 3c ca d5 b0 bb 11 9b 67 3c
       -0.019791361 0.010315826 -0.0053965794 0.014136092
0003a0 e0 d8 d6 b9 24 3e f7 bb 8c 9e eb 3b b5 17 66 3c
       -0.00040978845 -0.0075452495 0.007190531 0.014043738
0003b0 89 bd e4 bb e0 3a ac bb d4 5a 50 3b dc 3c c2 ba
       -0.006980602 -0.005256042 0.003179242 -0.0014819163
0003c0 56 65 17 bb 6c 56 1a 3c d8 0e 4c bc 68 ab 93 bc
       -0.0023101172 0.009420019 -0.012454711 -0.018026069
0003d0 61 b0 b5 3b 01 ed ca bc 89 17 bd 3b 8e 2b cc bb
       0.0055447076 -0.024771215 0.005770628 -0.006230778
0003e0 00 34 1d bc 3f 6d e5 3a 2d 46 1f bc a1 e0 30 3b
       -0.009594917 0.0017503871 -0.009721321 0.0026989358
0003f0 19 a1 b8 bc 11 b4 24 3c 04 ac a8 bc 40 e3 07 b6
       -0.022537755 0.010052697 -0.020589836 -2.0248845e-06

action_model._discrete_distribution.branches.1.bias f4 [2]
000000 f8 fd 26 ba ec fd 26 3a
       -0.0006370242 0.0006370235

action_model._discrete_distribution.branches.2.weight f4 [2, 128]
000000 b1 de ba 3a ef 54 88 3c 2a 35 03 3b dc f9 5a bc
       0.0014257041 0.016642062 0.0020020702 -0.013365235
000010 8f c0 0b bb ba 91 18 3c 80 5f 1a bc 4f df 3b bb
       -0.002132449 0.009312088 -0.009422183 -0.0028667038
000020 a7 19 16 3c 6f 11 6c bc b4 0d e0 3a c7 f2 48 bc
       0.009161389 -0.014408453 0.0017093928 -0.012264914
000030 b5 cc 94 3c ff f8 36 3b 64 92 1a bc 17 82 47 bb
       0.018164018 0.002791941 -0.009434316 -0.003044253
000040 70 b3 24 bc a2 23 2e 3c 3f 14 fe 3a d6 f0 80 3b
       -0.010052547 0.010628613 0.0019384696 0.00393496
000050 48 1b df 3b 78 16 44 bc 59 f9 9b 3b fa c7 07 3c
       0.006808672 -0.011968248 0.004759949 0.008287424
000060 77 7b d2 3b 05 41 4e bc 6e e4 0f 3c ed a4 85 bc
       0.0064234096 -0.012588744 0.008782489 -0.016313994
000070 a8 c0 ce 3b 02 c0 80 3c 09 10 4a bb 37 5b 1b bc
       0.0063095875 0.015716556 -0.0030832312 -0.0094821965
000080 9c b4 83 3a 39 b4 b9 bb 30 36 03 bc 25 59 8a 3c
       0.0010048333 -0.005667236 -0.008008525 0.01688821
000090 eb 14 19 3c 85 e4 26 bc 01 02 79 3b 73 1d ba 37
       0.009343366 -0.010186319 0.003799558 2.2186641e-05
0000a0 f7 ec 1f bb 8c 53 09 bc 42 ab 72 3c 4e 39 5b 3c
       -0.0024402717 -0.0083817355 0.014811339 0.013380362
0000b0 43 6a ed 3b 7a f3 d9 ba 5b c6 20 bc 3e d8 f0 3b
       0.0072453334 -0.0016628348 -0.009812917 0.007349997
0000c0 d5 ef 05 bc ac 1a 44 bc d7 78 3a 39 27 30 f7 3a
       -0.008174856 -0.01196925 0.00017783359 0.0018858955
0000d0 c9 64 39 3c e7 72 06 bb ab 7c 95 3a 95 62 0d bc
       0.011315533 -0.0020515264 0.0011404952 -0.008629461
0000e0 d1 e2 1f bc 42 df fd bb 8e 49 3f bc 18 35 34 3b
       -0.009758667 -0.0077475617 -0.011675252 0.0027497467
0000f0 ad b3 a3 3b a2 43 07 3c 60 c8 41 3c d3 fc 18 bb
       0.0049957843 0.008255871 0.011827558 -0.0023344054
000100 87 38 64 3c 3d 3a 0f 3c 27 24 cc b8 e3 1f 9e 3b
       0.013929493 0.008741912 -9.734212e-05 0.0048255785
000110 24 27 60 3c ab d8 10 3c 50 ec 58 ba ca b5 41 3b
       0.013681207 0.00884072 -0.00082749594 0.0029557818
000120 ce 04 22 3c a5 45 db 3b c3 c2 6a 3a 8b 01 83 ba
       0.009888841 0.006691652 0.00089554134 -0.0009994967
000130 e0 82 aa 3b d9 85 5e bb e2 16 a1 3c 7c c0 66 3b
       0.00520359 -0.003395429 0.019664232 0.0035209944
000140 c4 3c 58 bc 06 2e 2d bb 2c e8 81 3c f4 dd 05 bb
       -0.013198081 -0.0026425137 0.015857778 -0.0020426484
000150 a3 fe 42 bc d6 44 a8 bb ff 2c f2 3a 85 43 9d bb
       -0.01190153 -0.005135159 0.0018476545 -0.0047993087
000160 6a 38 b1 3c 62 0c 96 3b df db f3 bb 5c 93 79 3c
       0.021633346 0.004579113 -0.007441982 0.015232887
000170 c3 61 16 3c 11 b6 b9 39 9d 2d 4f 3c 9a a6 0b bc
       0.009178582 0.000354216 0.012645152 -0.008523608
000180 69 72 1c 3c c2 d8 d5 39 3e 54 a1 39 28 3a 0a 3c
       0.009548762 0.00040788023 0.00030771078 0.008436717
000190 6c fd 52 3c a4 4c ec bb f3 13 2a 3c 16 3b 82 3c
       0.012877803 -0.0072112847 0.010380733 0.015897315
0001a0 f7 19 f8 3b 08 df b5 3b 70 00 ec ba 5f 38 03 3c
       0.0075714546 0.005550269 -0.0018005501 0.008009045
0001b0 83 c5 cc bb a6 52 ec 38 ea 44 08 bc e7 64 a1 3b
       -0.006249131 0.000112687514 -0.008317212 0.0049253586
0001c0 14 02 d1 bb 85 84 c7 bb 0a 38 52 bc 73 e4 0e ba
       -0.0063784216 -0.0060887956 -0.012830744 -0.00054509117
0001d0 a6 c5 94 3b 33 22 72 3c 69 a2 11 3b b6 4e a3 ba
       0.004540163 0.014778662 0.0022222048 -0.0012459371
0001e0 3f 55 89 bb 1a 76 4d bb a2 9c d3 3b e7 c7 db bb
       -0.0041910703 -0.0031350912 0.006457881 -0.00670718
0001f0 33 d7 fa 3a bb f2 f0 3b 25 7d 4b 3c 44 0f 63 3b
       0.0019137621 0.0073531545 0.0124199735 0.003464655
000200 af 4d 22 bc d3 f0 00 3c 5d ab 87 bc 04 49 7e 3c
       -0.0099062165 0.007869917 -0.016561205 0.015520338
000210 0f 00 98 3b 40 c8 c1 3b 4d 61 35 bb d2 cf 65 bb
       0.004638679 0.0059137642 -0.0027676404 -0.0035066498
000220 f3 e7 90 3b 19 fc b1 3b 5f d7 b1 bc 36 e8 4f ba
       0.0044221818 0.0054316637 -0.021709142 -0.00079310255
000230 8a 6a df bb 2c 3b 7d b9 5d 7c 31 3b 51 fc 15 bc
       -0.0068181204 -0.00024150003 0.0027082183 -0.009154395
000240 2a 20 41 bb 13 1a 84 3a ae 33 51 ba 56 91 02 3c
       -0.0029468634 0.0010078572 -0.0007980418 0.007969221
000250 9f 68 ed bb 67 a0 c4 39 08 e4 18 3c ae 0f 5a bb
       -0.007245138 0.00037503542 0.009331711 -0.0033273506
000260 35 4e 4f 3c 2a 37 70 bc a9 90 9a bb 86 c5 1a bc
       0.012652923 -0.01466159 -0.004716952 -0.009446507
000270 89 f7 27 3c 93 6a ca ba 47 69 0f 3c e9 09 a1 bb
       0.010251888 -0.0015443139 0.008753127 -0.0049145115
000280 b7 69 51 3b 4a 56 b0 b9 0c 4f 6b bb 67 df 08 3c
       0.003195388 -0.00033633626 -0.003590527 0.0083540445
000290 c9 74 39 ba 78 8c 90 3c 3f 00 d6 3a 14 2d 26 bb
       -0.0007074592 0.017645106 0.0016326978 -0.0025356459
0002a0 e3 b5 84 3b 75 41 68 ba 42 59 88 3a a4 8c a2 3a
       0.004050003 -0.00088598515 0.0010402577 0.0012401533
0002b0 8d 3e 60 bc 03 ce ad ba a3 70 9d 3b 2d 3d 73 3b
       -0.013686788 -0.0013260249 0.004804687 0.003711532
0002c0 2e 19 b8 3c 19 f2 9a 3b 2f 80 9c 3c 6e 28 5e 3a
       0.022472944 0.0047285673 0.019104091 0.00084746524
0002d0 4b fc 80 3c 50 93 75 3b ed 28 4f bb c7 4e 2d bc
       0.015745303 0.0037471838 -0.0031610087 -0.010577864
0002e0 ed ea b6 bb 48 10 9d 3b 72 e7 92 3b 09 c6 28 3c
       -0.0055822046 0.0047932006 0.004483157 0.0103011215
0002f0 d3 85 74 bb 82 1c 79 bc ed 70 87 bb 0b cb a5 bb
       -0.003731121 -0.015204551 -0.004133335 -0.005059605
000300 99 d8 2f 3b a5 e7 8b 3c ee 70 a9 39 a5 cb b3 3b
       0.0026831983 0.01707823 0.0003231833 0.005486923
000310 cc 54 2a bc 1b 4f 6c 3a 17 24 66 bb f8 b9 e9 3b
       -0.010396194 0.0009014473 -0.0035116726 0.007132765
000320 50 22 a6 bb 20 c8 15 3c 2e 36 75 3a 56 50 94 3c
       -0.0050700083 0.009141952 0.00093540817 0.018104713
000330 bc 44 a2 bb 1a eb 18 3c e7 78 bf 3b 35 24 40 3b
       -0.0049520414 0.009333396 0.00584327 0.0029318456
000340 af 20 8d 3a fc 2e 82 3b b4 ce 9a 39 36 5c 12 3a
       0.0010767187 0.003972886 0.00029527175 0.00055831985
000350 2b d2 8a 3b 15 db fd 3b b6 55 91 3b e2 eb 85 bc
       0.0042364798 0.007747064 0.0044352664 -0.01634783
000360 71 43 79 3b 2e 14 2a bc 32 b0 03 3c 8a 36 73 3c
       0.0038034583 -0.010380788 0.008037614 0.014844546
000370 3e c3 76 bc 83 33 43 3b 95 ce 18 3c c4 20 a6 bc
       -0.015061198 0.0029785342 0.009326597 -0.020279296
000380 ce 13 3f bb a6 2b 7d bb c4 a9 24 bc cc d8 ab 36
       -0.0029156092 -0.0038630753 -0.010050241 5.1214356e-06
000390 0d ae dc 3b 0d 4a 51 bc 71 eb 5f bc 13 94 44 3c
       0.0067346157 -0.012774003 -0.013666973 0.011998194
0003a0 6e 1b 2e ba 7b 9f 3d ba 17 5b cc bb 1a a7 9d bc
       -0.00066416606 -0.0007233542 -0.0062364447 -0.01924472
0003b0 fc 4f 11 3c cc 76 e2 3b 0f 94 dd bb 4c d1 7d bc
       0.008869167 0.0069111343 -0.0067620347 -0.015491795
0003c0 4c cb ce 3b ad 2b f1 3b a9 60 10 3b 91 f9 00 bb
       0.006310856 0.007359943 0.002203027 -0.0019680003
0003d0 1d 35 52 bb 37 1a 85 3a 51 a6 96 3b b6 d0 a1 bb
       -0.0032075115 0.0010154907 0.004597463 -0.0049382104
0003e0 23 e3 99 bb b0 f1 06 bb e5 f1 d8 bb dc c9 12 3a
       -0.0046962663 -0.0020590834 -0.006620633 0.00055995374
0003f0 7e ac e4 3b e7 b7 bd 3b e7 8a 12 3b 9a b7 e3 ba
       0.0069785705 0.005789745 0.0022360624 -0.0017373443

action_model._discrete_distribution.branches.2.bias f4 [2]
000000 6c 51 39 3a 63 51 39 ba
       0.0007069323 -0.00070693175
