results/Test2/Hero Knight Behavior/Hero Knight Behavior-499937.pt (torch, 451287 bytes, 51 tensors)

network_body.linear_encoder.seq_layers.0.weight f4 [128, 5]
-0.17267556 0.18809487 0.5643617 0.20000137 0.31297162 0.022129135 -0.2549806 0.32108796
-0.1575434 -0.00056487916 0.16731296 0.17985427 0.26359788 0.32597852 -0.15717174 -0.37595963
-0.037905764 -0.08394679 -0.11487525 -0.098362714 0.069685 -0.18125942 0.21908845 -0.17418401
0.29246944 -0.3143247 0.14628293 -0.13467158 -0.023081934 -0.705406 -0.017753081 0.067771755
-0.6913969 0.47051305 0.04587479 -0.24933596 1.0390018 0.32481048 -0.026362065 -0.65439814
0.006334221 -0.26511502 0.45181823 -0.3131777 0.15356106 -0.50973535 0.6033403 -0.1102316
0.21368031 -0.0013860557 -0.20454079 -0.47370464 0.46777815 -0.5626437 -0.09766995 -0.15070672
-0.9281796 0.35115793 0.61412203 0.4973103 -0.20879047 0.18962927 0.0492758 0.6495141
1.739805 -0.6329395 -0.5836384 0.7053984 1.0153259 0.36288312 0.29783866 -0.6746304
0.20542197 -0.5187221 -0.26471534 -0.09179773 -0.21422535 0.14984888 0.25621843 0.35514423
-0.04434875 -0.038351297 0.012173923 -0.24703011 0.7159644 0.17127107 -0.09359004 0.045072917
-0.021203035 -0.47429183 0.17135514 -0.027560007 -0.07957733 -0.12421512 -0.3082935 -0.48358706
-0.18266706 0.5322007 -0.28775048 0.24714436 0.03464172 0.4877774 -1.303358 0.41529262
-0.45652452 -0.25645784 -0.3306915 -0.25299683 -0.058953527 -0.1653652 -0.9991796 -0.35892236
0.6241973 -0.81975126 -0.39116016 -0.2879146 -0.12331356 -0.40095285 0.38963762 -0.3725756
0.24088883 -0.039833855 0.05298736 -0.61043197 -0.54644 0.020201307 0.4327386 -0.19747001
-0.3383751 0.221577 0.37824446 0.64453125 0.1182694 -0.033925284 0.20082414 0.86026025
0.35813025 0.58850807 0.1950374 0.47023225 0.0467182 -0.063537695 0.53528833 0.012267978
-0.2679707 -0.26915148 -0.03619442 0.35856807 -0.07991731 -0.9712131 0.25005516 0.39445046
0.00939638 0.11951076 -0.16282977 0.29829347 -0.31539208 -0.29527605 0.3014145 0.14630696
-0.012490396 -0.4689888 0.23961322 -0.01347729 0.3952216 0.20941705 -0.096194506 0.2575363
-0.13032152 -0.06935481 0.2511465 -0.067132466 0.37255445 0.111479096 -0.043456543 -0.94838554
0.38939288 -0.35399055 0.5901054 0.031178165 0.30808902 -0.28080603 0.44595137 0.09857578
-0.31222683 -0.4163763 -0.35905504 0.48135307 0.51876605 -0.30479902 -0.3169188 0.13066916
0.2585798 -0.015293694 0.29932368 0.6088688 -0.4504797 -0.07363597 0.3263195 0.041918386
-0.38562492 -0.82074493 -0.59863955 -0.16384068 0.24112086 0.6372152 -0.26466283 -0.11482232
-0.22300616 -0.09274377 0.5626536 -0.049682833 0.17449768 0.7124883 0.6781932 -0.24282777
-0.6474245 -2.0431852 0.055636473 -0.22761747 0.4422341 -0.08655529 0.17482257 0.2938358
-0.433487 -0.41546252 -0.5084243 -0.0037188372 -0.43921036 -0.20429438 -1.0005918 -0.11227822
-0.45429257 -0.08525258 0.43975732 -0.013637728 0.022807809 0.9023432 0.1680554 -0.26853058
0.7678871 -0.18787298 0.016147478 -0.17654975 -0.027197842 0.6313895 -0.85041654 -0.5125712
-0.57560235 -0.43618712 0.28444776 0.3317964 0.33327097 -0.367437 -0.9387965 -0.23844913
00000000: ddd1 30be f19b 403e 027a 103f 29cd 4c3e
00000010: d13d a03e 2948 b53c d18c 82be a465 a43e
00000020: 0f53 21be 6614 14ba 1754 2b3e b82b 383e
00000030: 4df6 863e a8e6 a63e a1f1 20be c87d c0be
00000040: 1343 1bbd 4bec abbd b743 ebbd 6472 c9bd
00000050: 02b7 8e3d 129c 39be b958 603e 4b5d 32be
00000060: 8ebe 953e 2bef a0be 31cb 153e 59e7 09be
00000070: 5316 bdbc 7d95 34bf e96e 91bc ebcb 8a3d
00000080: 63ff 30bf 16e7 f03e 34e7 3b3d ed51 7fbe
00000090: 03fe 843f 8f4d a63e 42f5 d7bc a386 27bf
000000a0: 4c8f cf3b 28bd 87be b854 e73e d458 a0be
000000b0: 1c3f 1d3e 047e 02bf 8374 1a3f 1bc1 e1bd
000000c0: 03cf 5a3e 50ac b5ba 2473 51be 6a89 f2be
000000d0: 9e80 ef3e 6b09 10bf 2f07 c8bd dd52 1abe
000000e0: 2e9d 6dbf f9ca b33e 1a37 1d3f 759f fe3e
000000f0: 2bcd 55be 2d2e 423e 6cd5 493d 8e46 263f
00000100: eeb1 de3f 5308 22bf 5469 15bf fd94 343f
00000110: 33f6 813f d1cb b93e 4f7e 983e 94b4 2cbf
00000120: 235a 523e f9ca 04bf c588 87be 7300 bcbd
00000130: e45d 5bbe fc71 193e 102f 833e 77d5 b53e
00000140: 09a7 35bd 4016 1dbd 2275 473c 76f5 7cbe
00000150: 7149 373f af61 2f3e 23ac bfbd 619e 383d
00000160: fdb1 adbc 61d6 f2be b977 2f3e 86c5 e1bc
00000170: 70f9 a2bd 7f64 febd a5d8 9dbe b998 f7be
00000180: 130d 3bbe 4e3e 083f 0854 93be 6913 7d3e
00000190: 7ae4 0d3d f6bd f93e 6fd4 a6bf 3ca1 d43e
000001a0: 95bd e9be 714e 83be 6550 a9be cd88 81be
000001b0: 4179 71bd 7f55 29be 3cca 7fbf acc4 b7be
000001c0: 65cb 1f3f 38db 51bf 2546 c8be 8b69 93be
000001d0: d28b fcbd b149 cdbe 957e c73e 3bc2 bebe
000001e0: 90ab 763e d328 23bd 4609 593d 4545 1cbf
000001f0: 7ee3 0bbf 367d a53c ea8f dd3e 9435 4abe
00000200: 803f adbe 15e5 623e 42a9 c13e 0000 253f
00000210: 3a37 f23d 3df5 0abd d8a4 4d3e 043a 5c3f
00000220: d95c b73e 77a8 163f e2b7 473e 48c2 f03e
00000230: 955b 3f3d 0d20 82bd a808 093f a1ff 483c
00000240: 7533 89be 39ce 89be 9a40 14bd 3c96 b73e
00000250: b0ab a3bd 6ca1 78bf 3b07 803e 69f5 c93e
00000260: 46f3 193c 0fc2 f43d d9bc 26be ecb9 983e
00000270: 127b a1be 6c2e 97be 0053 9a3e 7ed1 153e
00000280: 85a4 4cbc 4d1f f0be 2b5d 753e dacf 5cbc
00000290: 7c5a ca3e 6c71 563e a001 c5bd ccdb 833e
000002a0: 0173 05be e509 8ebd 4696 803e bf7c 89bd
000002b0: 75bf be3e 274f e43d 7dff 31bd 65c9 72bf
000002c0: 815e c73e 403e b5be 2611 173f 5a69 ff3c
000002d0: d8bd 9d3e cfc5 8fbe bd53 e43e 19e2 c93d
000002e0: 32dc 9fbe 462f d5be 10d6 b7be e973 f63e
000002f0: dacd 043f 9e0e 9cbe 2e43 a2be 23ce 053e
00000300: 9264 843e 6792 7abc f440 993e d3de 1b3f
00000310: 46a5 e6be 75ce 96bd 5913 a73e 9db2 2b3d
00000320: a170 c5be 571c 52bf 7140 19bf dac5 27be
00000330: 63e8 763e 8920 233f e381 87be f727 ebbd
00000340: ba5b 64be 72f0 bdbd 110a 103f 3a80 4bbd
00000350: 85af 323e a265 363f 129e 2d3f d8a7 78be
00000360: 9dbd 25bf 8cc3 02c0 12e3 633d 8e14 69be
00000370: 826c e23e e643 b1bd b004 333e a571 963e
00000380: 02f2 ddbe 81b7 d4be 1828 02bf bcb7 73bb
00000390: 2ee0 e0be 8c32 51be 6413 80bf 20f2 e5bd
000003a0: 0999 e8be e898 aebd df27 e13e c770 5fbc
000003b0: 71d7 ba3c f7ff 663f b716 2c3e d77c 89be
000003c0: 4094 443f c661 40be b747 843c 75c9 34be
000003d0: 02ce debc bea2 213f e6b4 59bf de37 03bf
000003e0: ad5a 13bf eb53 dfbe 23a3 913e 38e1 a93e
000003f0: 7ea2 aa3e b420 bcbe f854 70bf 022c 74be

network_body.linear_encoder.seq_layers.0.bias f4 [128]
0.0051372806 0.001282261 -0.0042242017 -0.0030173932 -0.0018546373 0.003269413 0.0019532908 0.003463718
0.0014759367 0.006491939 0.0044759773 0.00018325832 -0.012964426 -0.0020739438 -0.00056710746 -0.0065567074
-0.014244715 -0.0054728547 0.0028608846 -0.0012919931 -9.5383344e-05 0.0012223138 -0.0026248894 0.005337569
0.00017005984 -0.013983205 0.0014149591 -0.0032081434 -0.0027068486 0.005562515 -0.0023367368 -0.004399747
-0.0054811235 0.00435961 -0.0012876715 0.00060061796 -0.0012873649 0.002078254 -0.0044352086 0.012045023
-4.0254586e-06 0.0014537186 -0.002566631 -0.0008520976 0.008646167 0.0016521772 -0.0028366444 -0.00088888855
-0.008258867 -1.1243299e-09 -0.0013172402 0.0047712857 0.0075907707 0.012875787 -0.0019313581 -0.0038585968
-0.0009361249 -0.0027395627 0.0039870935 -0.0022490802 -0.004253836 -0.00062214467 0.0072176927 -0.0041056336
0.0040347762 0.006078161 -0.0045847003 -0.00032249698 -0.0072583756 -0.0019885811 -0.0020107531 0.003109192
-0.0031430665 -0.0014113871 -0.0007184057 -0.0030890843 -0.002399386 -0.0018591514 -0.002831135 -0.0053805034
-0.0025579985 -0.0055149607 -0.0026609409 -0.0022690198 -0.0051443265 0.0012165006 -0.006071796 -1.0116149e-09
-0.005508459 0.0054025636 0.0060515725 -0.0015800386 0.0023757562 -0.0013001196 -0.006937543 0.0073171565
-0.0062602996 -0.0058693443 -0.004655568 0.009453302 -0.0035811889 -0.0006617507 0.0027776652 -0.0018343219
-0.00017461194 -0.0016892785 0.0006738961 -0.0034923437 0.00040096717 -0.0001585913 -0.0033477503 0.0029395956
-0.0011992782 -0.0022718008 -0.0051746103 -0.0019638303 -0.0042559155 -0.0017306618 0.00023883388 0.0029254153
0.00052967854 0.00036884603 0.002456417 -0.0039199525 -0.003910803 0.005708518 -0.0065605957 -0.004972365
00000000: a256 a83b 8a11 a83a 2c6b 8abb 75bf 45bb
00000010: 4d17 f3ba a643 563b c802 003b 8cff 623b
00000020: 3874 c13a 55ba d43b 38ab 923b 0829 4039
00000030: be68 54bc 01eb 07bb f0a9 14ba a6d9 d6bb
00000040: aa62 69bc a255 b3bb ae7d 3b3b 1858 a9ba
00000050: 8b08 c8b8 0c36 a03a 5606 2cbb c6e6 ae3b
00000060: 1752 3239 d019 65bc 2676 b93a b73f 52bb
00000070: 6265 31bb c245 b63b f023 19bb c12b 90bb
00000080: ff9a b3bb 0fdb 8e3b 16c7 a8ba ca72 1d3a
00000090: ccbc a8ba 5133 083b 3a55 91bb 7d58 453c
000000a0: 6d12 87b6 b48a be3a ec34 28bb 4d5f 5fba
000000b0: a7a8 0d3c de8d d83a ffe6 39bb 4d04 69ba
000000c0: 3350 07bc d786 9ab0 3fa7 acba 7258 9c3b
000000d0: 00bc f83b f7f4 523c a025 fdba 83e0 7cbb
000000e0: 4766 75ba 3c8a 33bb 2aa6 823b 4e65 13bb
000000f0: c363 8bbb 6c17 23ba 6582 ec3b 8d88 86bb
00000100: 2836 843b 4f2b c73b 413b 96bb d014 a9b9
00000110: abd7 edbb db52 02bb d7c6 03bb 96c3 4b3b
00000120: e8fb 4dbb 4bfe b8ba 6453 3cba 3c72 4abb
00000130: 043f 1dbb c5ae f3ba 908a 39bb ef4e b0bb
00000140: 18a4 27bb d8b6 b4bb 2e63 2ebb d6b3 14bb
00000150: bd91 a8bb fd72 9f3a ebf5 c6bb 0909 8bb0
00000160: 4e80 b4bb fd07 b13b 454c c63b 4c19 cfba
00000170: 93b2 1b3b c668 aaba 5454 e3bb c2c4 ef3b
00000180: 3323 cdbb a153 c0bb bc8d 98bb 06e2 1a3c
00000190: 61b2 6abb 5679 2dba 7d09 363b a16d f0ba
000001a0: 0918 37b9 c86a ddba 67a8 303a cedf 64bb
000001b0: e738 d239 874b 26b9 ee65 5bbb 3ba6 403b
000001c0: 1931 9dba 7ee2 14bb c78f a9bb 9bb3 00bb
000001d0: 3575 8bbb 60d7 e2ba 7b6f 7a39 53b8 3f3b
000001e0: 20da 0a3a ad61 c139 d7fb 203b f272 80bb
000001f0: 3126 80bb 850e bb3b 44fa d6bb 39ef a2bb

network_body.linear_encoder.seq_layers.2.weight f4 [128, 128]
-0.043009065 0.10685611 0.14444259 -0.05862682 -0.043414347 -0.12858145 -0.039364245 -0.12894207
-0.027316524 -0.009757678 -0.11039786 -0.046594396 0.060283393 0.036376618 -0.040788356 0.019275283
-0.078874305 0.0784496 -0.0425731 -0.031950425 -0.041334894 -0.18127412 0.0007266366 0.14029776
0.061285052 -0.012543508 -0.049363635 0.003485832 0.007903775 0.12545533 0.061665528 -0.0841802
-0.016868027 0.04926191 -0.043029126 0.026214033 0.077221066 0.114867404 0.0076892492 -0.1634725
0.07535282 -0.08376586 0.089775465 0.046506006 0.15163155 -0.010530805 -0.16309981 -0.027887102
0.01770361 0.1436292 0.03675192 -0.1279331 -0.12510745 0.08179788 0.014788913 0.018666944
-0.09168609 0.13827646 0.03326539 -0.18483907 0.03030304 0.051286332 -0.17241374 0.038924556
0.12480768 -0.15275104 -0.030271418 0.04974229 0.09460573 -0.10018961 0.1428285 0.029557949
-0.01121415 0.03765728 0.039975144 0.097967945 -0.025508782 -0.07321652 -0.008064441 0.11742482
0.11453326 -0.031051822 0.14637776 -0.25309297 -0.00661081 -0.03707715 0.12128915 0.03687049
0.02044676 -0.17553931 -0.052491102 -0.016118284 -0.11137366 0.10408193 -0.017453156 0.11788028
-0.015279746 0.09110447 0.001447116 -0.08091629 0.11715487 0.064848855 0.048887584 0.054762043
-0.064311 0.068537034 0.062228054 0.050166976 0.0790557 -0.040762026 0.06621465 0.0987689
-0.022398224 -0.025951046 0.09988667 0.14970882 0.038181104 -0.023001725 -0.007916646 -0.1631511
-0.09496686 0.18328355 -0.023251748 0.006526841 -0.18541227 -0.068823 -0.028473796 0.16139327
-0.017254459 0.052855067 -0.10775459 -0.06787449 -0.026886782 -0.042482693 -0.032110814 -0.04301738
0.03089433 0.13089074 0.062789865 -0.107178405 -0.057149593 -0.008779265 -0.0009952026 -0.026733391
-0.087333225 0.062428705 -0.061747424 -0.023746913 -0.08721595 -0.016175127 -0.031751577 0.13267717
-0.041448075 0.0018904724 0.020175703 -0.10151318 0.0008094331 0.08804371 -0.16883136 -0.03411198
0.02076347 0.055848043 0.03548373 -0.13943958 0.10563525 0.037551884 0.020989645 0.046353493
-0.05065223 0.050144147 -0.13658814 -0.05196398 -0.19632582 -0.1578966 0.06794068 0.048709642
-0.033926662 -0.057630353 0.06522642 0.009901408 -0.13911763 -0.17157903 -0.026493752 -0.13769796
-0.0017132579 0.041751526 -0.17877594 -0.048131704 -0.06036758 0.040208682 -0.021614768 -0.06619373
-0.13755764 0.014923731 0.08082915 0.0963971 0.022910424 0.0021581436 -0.036759317 0.091954224
0.08062546 0.103416 -0.023242917 -0.0063511366 -0.10824172 -0.14041354 -0.06539766 -0.120249294
-0.06841116 -0.032326125 0.005615258 0.054831523 -0.07173446 0.026066326 0.15916145 -0.09774923
0.025633637 -0.062121853 -0.20343512 0.10912918 -0.12281356 -0.13134311 -0.061163433 -0.002328495
0.09299757 -0.07215715 -0.062790416 0.02606868 0.055397924 -0.016567068 -0.094819844 -0.34836286
-0.03643218 -0.06610867 0.13047077 0.11975262 0.0061760414 -0.105803825 0.10988772 0.029754277
-0.088142835 0.014019972 -0.098370485 -0.07034572 0.118779495 0.00814139 0.076850735 0.070147164
-0.03250445 0.046637427 -0.12593277 -0.019944848 -0.008973091 0.17875111 -0.1461671 -0.088533305
00000000: 462a 30bd 60d7 da3d c2e8 133e ad22 70bd
00000010: 3ed3 31bd dbaa 03be 673c 21bd 6409 04be
00000020: e7c6 dfbc abde 1fbc 4618 e2bd c4d9 3ebd
00000030: b8eb 763d a6ff 143d b111 27bd 33e7 9d3c
00000040: da88 a1bd 2faa a03d 2261 2ebd 73de 02bd
00000050: c74e 29bd ec9f 39be c27b 3e3a 37aa 0f3e
00000060: 0906 7b3d 4983 4dbc 8631 4abd 8e72 643b
00000070: d67e 013c 5d77 003e fe94 7c3d ab66 acbd
00000080: d12e 8abc dbc6 493d 4f3f 30bd d0be d63c
00000090: 1426 9e3d 9a3f eb3d 19f6 fb3b 5665 27be
000000a0: 9452 9a3d 6f8d abbd 33dc b73d 157d 3e3d
000000b0: 4d45 1b3e 6689 2cbc a303 27be 7e73 e4bc
000000c0: 2907 913c 8813 133e 2e89 163d e500 03be
000000d0: 2b1c 00be a685 a73d 324d 723c 6beb 983c
000000e0: ebc5 bbbd 5898 0d3e 4a41 083d 7446 3dbe
000000f0: 153e f83c 9e11 523d 3a8d 30be 5b6f 1f3d
00000100: 2b9b ff3d c56a 1cbe c4fb f7bc 92be 4b3d
00000110: a6c0 c13d 3630 cdbd a241 123e 8323 f23c
00000120: 8ebb 37bc 853e 1a3d fabc 233d 6ba3 c83d
00000130: cbf7 d0bc 8bf2 95bd b820 04bc 6d7c f03d
00000140: 6a90 ea3d 6460 febc 0de4 153e 6795 81be
00000150: 7e9f d8bb 36de 17bd 7266 f83d 8305 173d
00000160: f77f a73c 94c0 33be e900 57bd 7e0a 84bc
00000170: e017 e4bd e828 d53d ecf9 8ebc 376b f13d
00000180: e657 7abc fb94 ba3d 28ad bd3a 71b7 a5bd
00000190: e4ee ef3d 7acf 843d 593e 483d 2a4e 603d
000001a0: 7cb5 83bd 255d 8c3d d8e2 7e3d e37b 4d3d
000001b0: f4e7 a13d 15f6 26bd 8c9b 873d 5947 ca3d
000001c0: 7b7c b7bc 4a97 d4bc 6291 cc3d 454d 193e
000001d0: ca63 1c3d 1d6e bcbc d2b4 01bc 1511 27be
000001e0: fc7d c2bd afae 3b3e 737a bebc 1cdf d53b
000001f0: b7dc 3dbe 13f3 8cbd e141 e9bc 4744 253e
00000200: 3959 8dbc 8e7e 583d 70ae dcbd c801 8bbd
00000210: ab41 dcbc 5502 2ebd a186 03bd fe32 30bd
00000220: 1b16 fd3c 3908 063e f997 803d 5a80 dbbd
00000230: b115 6abd e8d6 0fbc 7571 82ba fcff dabc
00000240: c3db b2bd 3eb5 7f3d deea 7cbd e388 c2bc
00000250: 479e b2bd b381 84bc f10d 02bd 86dc 073e
00000260: 75c5 29bd bac9 f73a 8447 a53c 24e6 cfbd
00000270: 2330 543a 4350 b43d 21e2 2cbe 01b9 0bbd
00000280: 2718 aa3c ebc0 643d 6357 113d 40c9 0ebe
00000290: 4b57 d83d 01d0 193d 7af2 ab3c 29dd 3d3d
000002a0: b678 4fbd f363 4d3d c3dd 0bbe 2fd8 54bd
000002b0: a309 49be a5af 21be 7c24 8b3d c383 473d
000002c0: aff6 0abd ce0d 6cbd 6e95 853d 8439 223c
000002d0: da74 0ebe 6ab2 2fbe 6d09 d9bc b200 0dbe
000002e0: 658f e0ba a603 2b3d 0a11 37be c025 45bd
000002f0: ff43 77bd dcb1 243d 7411 b1bc 9490 87bd
00000300: e9db 0cbe aa82 743c c189 a53d d86b c53d
00000310: a4ae bb3c a46f 0d3b f090 16bd 7f52 bc3d
00000320: f61e a53d c5cb d33d ee67 bebc 321d d0bb
00000330: d6ad ddbd 91c8 0fbe 35ef 85bd 4345 f6bd
00000340: 261b 8cbd 6668 04bd 3300 b83b 0597 603d
00000350: 84e9 92bd 0c89 d53c 38fb 223e c030 c8bd
00000360: a2fd d13c 7c73 7ebd 4c51 50be 1f7f df3d
00000370: ad85 fbbd cf7e 06be 8286 7abd aa99 18bb
00000380: 8375 be3d 21c7 93bd 4398 80bd fc8d d53c
00000390: efe8 623d a9b7 87bc e830 c2bd 9e5c b2be
000003a0: e939 15bd fb63 87bd 219a 053e dd40 f53d
000003b0: 6460 ca3b adaf d8bd d00c e13d 3ebf f33c
000003c0: 3b84 b4bd 06b4 653c 7776 c9bd 6b11 90bd
000003d0: aa42 f33d 7763 053c eb63 9d3d 51a9 8f3d
000003e0: 6323 05bd e306 3f3d 85f4 00be 6163 a3bc
000003f0: df03 13bc 880a 373e d4ac 15be f350 b5bd

network_body.linear_encoder.seq_layers.2.bias f4 [128]
-0.0026893583 -0.00018484659 -0.004937177 -0.00080446654 -0.002036234 -0.0053034243 -0.0043238387 -0.00021126319
-0.0022221822 -0.0022197322 0.0002749443 0.0004731026 -0.0014036524 -0.0026807117 -0.00028618524 0.0013729671
-0.0041385456 -2.6574355e-05 -0.0035467818 -0.0014187074 -0.0035985175 0.008344581 3.3329397e-06 -0.005380816
-0.0046049766 -1.659276e-06 6.682063e-05 -0.000110604116 0.0024382817 -0.00044645285 -0.0018471011 -0.00053402944
-0.004329264 -0.0025678948 -0.002395501 -9.321698e-05 -0.0070493864 -0.0022982466 -0.0010841306 -0.001750119
-0.0005950086 -0.0028784482 -0.003007101 0.0024849512 -0.0035286036 0.0015506989 0.0005011184 -0.0026917506
3.2557525e-06 -0.0033988901 0.0001679829 -0.002146037 -0.0028876993 -0.0013264734 -0.0029316992 -0.0031880548
0.0011255841 -0.0012922859 -0.002886511 -0.0016321652 -0.0019411356 -0.0042702863 -0.0015324345 0.006187353
-0.0018697608 -0.00014835225 4.4931215e-07 -0.0028519516 -0.000274623 -0.004859358 0.009035691 0.009651375
-0.0008498791 -0.0051977653 -0.0041684154 -0.0034640464 -0.0017110485 0.00406407 -0.006455091 -0.0009827218
0.0012917554 -0.0018402549 -0.004725698 -0.0038357768 -0.001644855 -0.002221625 -0.0014928782 -0.0016181548
0.0019411558 0.0010615453 -0.0020311088 -0.0030064227 0.0032591783 -0.004651556 -0.0005001547 -0.0055752504
-0.002574156 -0.002389553 0.0018740552 -0.0032801486 -0.0007703133 -0.003255264 -0.0007384609 -0.0030406502
-0.0030448828 -0.0012390608 -0.00272623 0.003391508 0.0075712022 1.832218e-07 -0.0016261549 -0.0025356123
3.385633e-05 -0.00038080616 -0.0033084413 0.0071049007 0.00092725304 0.0011510078 -2.950143e-06 0.0012395639
-0.0036166806 -0.003406836 -0.0028362435 -0.0033591578 0.0026860237 -0.0042084735 8.711745e-05 -0.0011768552
00000000: f23f 30bb 61d3 41b9 0bc8 a1bb d6e2 52ba
00000010: 5672 05bb 59c8 adbb fdae 8dbb 8886 5db9
00000020: 08a2 11bb ed78 11bb 6626 9039 c20a f839
00000030: c2fa b7ba e1ae 2fbb 220b 96b9 22f5 b33a
00000040: a39c 87bb feeb deb7 2071 68bb ecf3 b9ba
00000050: 1bd5 6bbb b6b7 083c 78ab 5f36 8e51 b0bb
00000060: 58e5 96bb 4ab4 deb5 0d22 8c38 22f4 e7b8
00000070: 94cb 1f3b e311 eab9 6e1a f2ba 1cfe 0bba
00000080: 80dc 8dbb 204a 28bb d6fd 1cbb 7c7d c3b8
00000090: 8afe e6bb 2e9e 16bb 6319 8eba 4064 e5ba
000000a0: 5afa 1bba 59a4 3cbb c812 45bb 90da 223b
000000b0: 2540 67bb d240 cb3a 7d5d 033a 1568 30bb
000000c0: 677d 5a36 eabf 5ebb 9124 3039 87a4 0cbb
000000d0: 8e3f 3dbb 10dd adba c021 40bb afee 50bb
000000e0: 5688 933a eb61 a9ba 9e2b 3dbb 60ee d5ba
000000f0: b46d feba c2ed 8bbb f8db c8ba 47bf ca3b
00000100: c312 f5ba 018f 1bb9 fe38 f134 cfe7 3abb
00000110: 46fb 8fb9 403b 9fbb 6f0a 143c cd20 1e3c
00000120: 6cca 5eba 0452 aabb 3497 88bb 0e05 63bb
00000130: 4345 e0ba e42b 853b 3a85 d3bb acce 80ba
00000140: 1e50 a93a b534 f1ba 07da 9abb a861 7bbb
00000150: 2d98 d7ba af98 11bb aeac c3ba 4418 d4ba
00000160: 616e fe3a 8d23 8b3a 5a1c 05bb 6707 45bb
00000170: f097 553b 146c 98bb d01c 03ba 97b0 b6bb
00000180: 2cb3 28bb 0c9a 1cbb dca2 f53a c3f7 56bb
00000190: daee 49ba 4456 55bb 4695 41ba a545 47bb
000001a0: a88c 47bb fb67 a2ba 8daa 32bb 1044 5e3b
000001b0: d917 f83b a0bb 4434 b424 d5ba 842c 26bb
000001c0: f500 0e38 f0a6 c7b9 6fd2 58bb 3ad0 e83b
000001d0: e612 733a 6add 963a 12fb 45b6 dd78 a23a
000001e0: d505 6dbb 3945 5fbb 45e0 39bb 5125 5cbb
000001f0: 0008 303b 3ce7 89bb d3b2 b638 b540 9aba

action_model._discrete_distribution.branches.0.weight f4 [3, 128]
0.007824514 0.0064065186 0.010817419 0.00056660216 0.022408722 -0.004800284 -0.010318681 -0.0077752545
0.005298814 -0.0035269111 -0.012386257 0.012575952 0.005113659 0.0038137273 0.018876275 -0.008920964
0.005019338 0.003249677 0.00061371067 -0.0010586639 -0.009304977 0.01784972 -0.009419593 0.0046054567
-0.004897313 0.008533617 0.002442685 0.0012458214 -0.016063146 0.001526321 0.013839608 0.0015752839
-0.008045035 -0.013937367 0.009146052 0.004581202 0.008094173 -0.0133254845 -0.0037805582 -0.0010764261
0.0071122264 0.0030847676 -0.0010781364 0.026843915 -0.0010263843 0.011258109 -0.014590864 -0.0151573345
0.002598226 -0.00044124955 -0.004701615 -0.005962905 0.009737144 -0.0034903768 -0.0052877152 0.009326952
-0.023063118 0.003907179 -0.005460526 -0.014564474 0.0009790139 0.008208203 0.0050408794 0.0018714835
0.0019373692 -0.004626939 0.0098688975 0.008143043 -0.0005779643 -0.006139672 -0.02169325 0.017699908
-0.0036131328 -0.006966539 0.0108679645 -0.0024368486 -0.005223064 -0.012751816 -0.00022617886 0.01455313
-0.006939108 0.0012575025 0.00054644974 -0.014544156 0.0035704556 -0.015526437 0.00015569046 -0.0028674165
-0.00084899314 0.015845304 0.0027506335 0.0076249256 0.0077156955 -0.017292878 0.009211704 -0.00042175504
-0.018214494 7.068841e-05 0.008835952 -0.00677483 -0.0037595672 -0.010238666 -0.00884974 0.0013209247
-0.0015077047 0.010635437 -0.0010134212 0.0072044465 0.010639311 0.0022030831 -0.0026011714 0.0025431917
0.016726198 0.015745096 -0.002300166 -0.0056633423 0.006121962 -0.007490924 0.0019463864 -0.021716256
0.00078353717 0.0068702884 0.021459196 -0.010164252 4.372134e-05 -0.0070310314 -0.008186528 0.017205097
0.005815948 -0.012336693 -0.006030021 1.3449308e-05 0.00018376838 0.002867038 0.0030794984 0.012709538
-0.0068501807 -0.0076134834 -0.008707242 0.0136048375 0.009046926 0.007890704 0.0015094897 0.010891108
-0.0050238967 -0.010511805 -0.0006381816 0.0059651393 -0.013644854 -0.014779791 -0.011780783 0.005897959
-0.007455572 -0.0030076073 0.020839656 0.004581184 -0.0029092792 0.0035562003 0.006274922 0.0034885746
0.009156437 0.0029484974 -0.00062187074 0.0085379 0.008834139 -0.005323828 0.0089587895 -0.01049889
0.010773366 -0.0053059696 0.00861694 0.010515776 0.008659171 -0.011917945 0.0069959247 0.011549371
0.020859128 0.0010684666 0.0020851304 -0.0059189335 -0.00948384 -0.0069333785 -0.013737105 0.008678416
0.004300044 -0.00835029 0.003665485 0.0029839536 0.013504286 -1.4665503e-05 -0.004123116 0.0029769696
0.01472016 0.0011352974 -0.003770217 0.002707853 0.0015319465 -0.0026969116 0.0038146763 -0.014307281
0.0028459397 -0.004947144 0.010565662 0.01397912 -0.0057547046 0.017909903 0.01129725 -0.004338962
0.003703615 0.0021352833 0.0062452685 -0.012648939 -0.018292706 0.0081436895 -0.018017618 -0.017299248
-0.011299815 0.00523957 -0.0067737265 0.009876895 0.015718196 -0.01265329 -0.002146557 0.0019239766
-0.010877979 -0.00084188354 -0.0130636385 0.002137475 0.00034604987 -0.013369843 -0.014752287 0.0036537955
0.00525728 2.379881e-05 0.0028316735 -0.0379009 -0.0017823057 -0.008777902 -0.009867373 -0.0024106293
0.0029630382 -0.0006252693 0.0052816337 -0.01715192 0.026714245 -0.015275632 -0.0064222915 -0.0015849527
0.012100451 -0.012005858 0.026484562 0.0068056253 -0.00033974342 0.004001455 0.008897894 0.027254911
00000000: 6432 003c c6ed d13b 8b3b 313c 0788 143a
00000010: 7f92 b73c b34b 9dbb af0f 29bc 90c7 febb
00000020: aca1 ad3b c023 67bb baef 4abc 5e0b 4e3c
00000030: 7b90 a73b baef 793b 6ba2 9a3c 3c29 12bc
00000040: 4279 a43b 88f8 543b 6de1 203a dec2 8aba
00000050: e773 18bc 9339 923c a354 1abc 5fe9 963b
00000060: a479 a0bb 95d0 0b3c 7415 203b d44a a33a
00000070: dc96 83bc d60e c83a 86bf 623c c279 ce3a
00000080: 53cf 03bc 8e59 64bc 53d9 153c e81d 963b
00000090: 6c9d 043c 2253 5abc 3ec3 77bb de16 8dba
000000a0: ae0d e93b d029 4a3b 4150 8dba c5e7 db3c
000000b0: be87 86ba ee73 383c 850e 6fbc 7856 78bc
000000c0: 0047 2a3b 8357 e7b9 0110 9abb 7964 c3bb
000000d0: 8b88 1f3c cebe 64bb 9244 adbb 12d0 183c
000000e0: ddee bcbc cb07 803b 36ee b2bb d59f 6ebc
000000f0: 4152 803a b37b 063c f62d a53b 914c f53a
00000100: 53ef fd3a 949d 97bb 28b1 213c 666a 053c
00000110: 8782 17ba 4d2f c9bb 0bb6 b1bc 66ff 903c
00000120: 4fca 6cbb 9147 e4bb 8c0f 323c 89b3 1fbb
00000130: 3d26 abbb feec 50bc 6d2a 6db9 4070 6e3c
00000140: 7561 e3bb c8d2 a43a 9f3f 0f3a 9d4a 6ebc
00000150: 4efe 693b 9962 7ebc d740 2339 44eb 3bbb
00000160: f78e 5eba 03ce 813c f943 343b 83da f93b
00000170: f2d3 fc3b cba9 8dbc b0ec 163c 011f ddb9
00000180: 9036 95bc 8d3e 9438 abc4 103c 65ff ddbb
00000190: 1263 76bb 14c0 27bc 80fe 10bc e122 ad3a
000001a0: 2d9e c5ba 4240 2e3c c6d4 84ba 4713 ec3b
000001b0: 8150 2e3c 9a61 103b 6a78 2abb adab 263b
000001c0: 6105 893c dcfb 803c 62be 16bb 8f93 b9bb
000001d0: bd9a c83b 6d76 f5bb e41d ff3a 4ae6 b1bc
000001e0: 4a66 4d3a 2820 e13b 32cb af3c f687 26bc
000001f0: 6e61 3738 9164 e6bb ca20 06bc b4f1 8c3c
00000200: b593 be3b d71f 4abc 7b97 c5bb 57a4 6137
00000210: f3b1 4039 eae4 3b3b 69d1 493b ab3b 503c
00000220: 7b77 e0bb 877a f9bb d2a8 0ebc d3e6 5e3c
00000230: 8f39 143c 0348 013c 12da c53a 9e70 323c
00000240: 809f a4bb b539 2cbc a44b 27ba 3777 c33b
00000250: aa8e 5fbc f026 72bc 2f04 41bc ab43 c13b
00000260: df4d f4bb 471b 45bb edb7 aa3c c21d 963b
00000270: 9ba9 3ebb 240f 693b dc9d cd3b 92a0 643b
00000280: e104 163c 943b 413b 0a05 23ba 8ce2 0b3c
00000290: 11bd 103c 8273 aebb e3c7 123c 8903 2cbc
000002a0: c682 303c b3dd adbb 112e 0d3c 5d4a 2c3c
000002b0: 32df 0d3c 7c43 43bc 123e e53b 9339 3d3c
000002c0: c3e0 aa3c ca0b 8c3a afa6 083b 9df3 c1bb
000002d0: 1c62 1bbc 6531 e3bb 9811 61bc ea2f 0e3c
000002e0: 62e7 8c3b a8cf 08bc a238 703b 6f8e 433b
000002f0: 1541 5d3c db0b 76b7 341b 87bb 4319 433b
00000300: d32c 713c 42ce 943a bf15 77bb 3c76 313b
00000310: 98cb c83a abbe 30bb a6ff 793b 1669 6abc
00000320: f282 3a3b a71b a2bb 991b 2d3c ae08 653c
00000330: f691 bcbb cab7 923c 1a18 393c da2d 8ebb
00000340: 59b8 723b 1cf0 0b3b 1ca5 cc3b 7f3d 4fbc
00000350: 96da 95bc 1c6d 053c af99 93bc 27b7 8dbc
00000360: dc22 39bc b3b0 ab3b 23f6 ddbb b3d2 213c
00000370: 72c3 803c bf4f 4fbc 40ad 0cbb f12d fc3a
00000380: 8d39 32bc d9b1 5cba df08 56bc e114 0c3b
00000390: 076e b539 300d 5bbc 94b3 71bc 8474 6f3b
000003a0: 4345 ac3b 8ea3 c737 9993 393b f93d 1bbd
000003b0: 419c e9ba 31d1 0fbc c3aa 21bc a6fb 1dbb
000003c0: 882f 423b 1de9 23ba 8e11 ad3b 2f82 8cbc
000003d0: d5d7 da3c a546 7abc 1672 d2bb 30be cfba
000003e0: f840 463c 38b4 44bc 27f6 d83c b901 df3b
000003f0: 971f b2b9 a31e 833b 79c8 113c b145 df3c

action_model._discrete_distribution.branches.0.bias f4 [3]
0.0017470893 0.0007850083 -0.002712201
00000000: 97fe e43a 04c9 4d3a 2fbf 31bb

action_model._discrete_distribution.branches.1.weight f4 [2, 128]
0.0051476276 0.009748354 9.616554e-05 0.0161733 0.0066206814 0.004339308 0.0016918032 0.003291312
-0.0028606215 0.0013652132 -0.0022760883 -0.00501338 0.0030610573 -0.009260173 0.014492179 0.009544657
0.026579417 0.00657825 -0.0030117705 -0.0033393593 0.016206149 -0.00043962646 -0.0022319555 0.0075171012
0.0021579436 0.0044617304 -0.009659023 -0.009710709 -0.009021462 0.008449722 0.007421043 0.0012874971
0.023490658 -0.009891587 -0.002232618 -0.002537213 -0.005897933 0.0026164511 -0.004444382 -0.006933669
-0.017876007 0.016141322 0.003977939 0.014140694 -0.00425525 0.0057314946 -0.008067224 -0.0038482908
-0.0062679076 -0.003583202 0.004930843 0.0035857614 0.008201873 0.014698012 0.014304329 -0.017459314
0.008433805 0.010355715 -0.00025370612 0.012751932 0.0036304796 0.004771981 -0.0115167545 -0.0018989603
0.0014300289 -0.008439301 0.02447939 -0.0056777787 -0.0003547927 0.0021689532 -0.020844497 0.020812161
-0.0065727597 -0.003086166 0.019211033 0.0018775023 0.0042154314 0.008785037 -0.007646118 -0.0015669178
-0.017388878 0.014597516 0.00019052919 -0.00252963 -0.003412797 -0.017731877 0.009727737 -0.019128766
0.0035879135 -0.016043024 0.008492665 0.0059548877 0.0031839337 -0.004042726 0.004180332 -0.0025693323
-0.0051286328 -0.0038945535 0.019938195 0.016788846 0.01336864 -0.007053468 0.008686519 0.010240188
0.0056421435 0.0023963603 0.0066995686 -0.012907162 0.008633708 0.005452809 0.011417739 0.0032839472
0.0052358015 0.011056942 -0.0070052487 0.0070842057 -0.00051274634 -0.0046452875 -0.0036602973 -0.01267921
-0.0060454053 -0.0005639102 0.01718471 0.0046326523 0.0011692612 0.002046759 0.011814393 0.009335688
0.0059614806 -0.008808843 -0.0021985152 -0.023184625 -0.0038161054 0.001111251 0.007843211 -0.021918833
-0.0076873275 -0.0072323414 0.0012191624 0.008492046 -0.00078079733 -0.0017721141 0.005038092 0.014063834
0.01906459 -0.01648756 -0.0075506377 0.011609132 0.008665425 -0.017513288 0.012562878 0.004946969
0.0033284517 0.0029312852 -0.0003986092 0.0018212277 0.013497479 -0.001978035 -0.00024650918 -0.003546633
-0.007616047 0.0033620698 0.008321539 0.0073693986 -0.0029073816 -0.01512834 -0.0066346154 0.008655167
0.0068369145 -0.0017832837 0.0034977659 -0.0075009866 -0.00430042 -0.010374596 -0.016478341 0.005658782
-8.7470025e-06 0.008690634 -0.0042291526 -0.024502527 0.017801626 0.004223808 0.0015461249 -0.010480546
-0.025846187 0.014457693 -0.015958883 -0.00550198 -0.017122785 0.00813898 -0.009586128 -0.0055019446
-0.003627313 -0.008577247 -0.0030307418 0.01427351 0.00075129035 -0.005278952 0.026792308 -0.010902602
-0.0030215613 0.0030632273 0.020021899 -0.011780141 -0.005459116 0.0046982975 -0.0014937831 -0.00049730187
0.0016860518 0.0010777954 0.0058514206 0.00038553207 0.02113444 0.0057575577 0.0108050015 -0.0048339185
-0.01697991 -0.0031033151 -0.0004930569 -0.006856644 0.015486258 0.0070885476 0.0063723517 -0.007543805
0.019239722 -0.02324625 0.0027639645 5.0506107e-05 -0.019361762 0.010381188 -0.005359469 0.015041535
0.0003774804 -0.007509758 0.0074842214 0.012690033 -0.0069395285 -0.005255891 0.002726117 -0.0016774599
-0.002048176 0.009407675 -0.012631081 -0.017991498 0.005662308 -0.024382139 0.0057817586 -0.006024769
-0.009260983 0.0026427545 -0.009316893 0.0027588576 -0.023131276 0.010055814 -0.020589205 0.0001671742
00000000: 6ead a83b 8fb7 1f3c 7bac c938 de7d 843c
00000010: 4df2 d83b c130 8e3b 7fbf dd3a 0db3 573b
00000020: 4479 3bbb f4f0 b23a 6d2a 15bb 4847 a4bb
00000030: 059c 483b fbb7 17bc 9b70 6d3c 3161 1c3c
00000040: 14bd d93c 5c8e d73b 2061 45bb 27d9 5abb
00000050: c2c2 843c aa7d e6b9 0046 12bb 0452 f63b
00000060: 496c 0d3b b533 923b e140 1ebc aa19 1fbc
00000070: c1ce 13bc b470 0a3c 382c f33b 3cc1 a83a
00000080: 7b6f c03c 5310 22bc 1d51 12bb 5f47 26bb
00000090: 7343 c1bb c478 2b3b 2ea2 91bb d533 e3bb
000000a0: b470 92bc ce3a 843c 5f59 823b 5fae 673c
000000b0: a06f 8bbb 43cf bb3b 642c 04bc 9b33 7cbb
000000c0: 0563 cdbb 27d4 6abb e992 a13b 18ff 6a3b
000000d0: 2661 063c eecf 703c b45c 6a3c d606 8fbc
000000e0: f12d 0a3c 04ab 293c dc03 85b9 7bed 503c
000000f0: 57ed 6d3b 475e 9c3b c5b0 3cbc 89e6 f8ba
00000100: cf6f bb3a fe44 0abc 0089 c83c a90c babb
00000110: 7803 bab9 ff24 0e3b 14c2 aabc 447e aa3c
00000120: 4e60 d7bb 4641 4abb 7560 9d3c 8616 f63a
00000130: 9a21 8a3b 1eef 0f3c 498c fabb 0961 cdba
00000140: 1f73 8ebc 6b2a 6f3c cac8 4739 26c8 25bb
00000150: 3ca9 5fbb 7142 91bc 1661 1f3c eeb3 9cbc
00000160: 3323 6b3b a96c 83bc d224 0b3c 3821 c33b
00000170: 8ba9 503b d878 84bb 2bfb 883b 3e62 28bb
00000180: 170e a8bb c43b 7fbb 6d55 a33c c388 893c
00000190: 2408 5b3c c720 e7bb e751 0e3c 76c6 273c
000001a0: bbe1 b83b 410c 1d3b 0e88 db3b 9078 53bc
000001b0: 6574 0d3c 7aad b23b 7811 3b3c 7e37 573b
000001c0: 1691 ab3b 2d28 353c 498c e5bb a022 e83b
000001d0: d369 06ba 7f37 98bb 99e1 6fbb 76bc 4fbc
000001e0: 8918 c6bb 5fd3 13ba f3c6 8c3c 81cd 973b
000001f0: e541 993a eb22 063b 2891 413c b7f4 183c
00000200: 8658 c33b f752 10bc f714 10bb afed bdbc
00000210: a017 7abb 65a7 913a d080 003c 208f b3bc
00000220: fae5 fbbb 47fd ecbb 4dcc 9f3a 3922 0b3c
00000230: 6cae 4cba 4846 e8ba 9416 a53b ff6b 663c
00000240: 582d 9c3c eb10 87bc 576b f7bb 3b34 3e3c
00000250: 6df9 0d3c 0778 8fbc 88d4 4d3c 2f1a a23b
00000260: 2722 5a3b ce1a 403b 6cfc d0b9 43b6 ee3a
00000270: 8824 5d3c eca1 01bb e73d 81b9 a16e 68bb
00000280: 0890 f9bb 2c56 5c3b 1057 083c ff7a f13b
00000290: c589 3ebb dbdc 77bc 3067 d9bb 67ce 0d3c
000002a0: 3208 e03b 12bd e9ba c63a 653b d6ca f5bb
000002b0: 8aea 8cbb 36fa 29bc 96fd 86bc 4e6d b93b
000002c0: 17c0 12b7 2963 0e3c b494 8abb 86b9 c8bc
000002d0: b7d4 913c df67 8a3b 58a7 ca3a 99b6 2bbc
000002e0: 62bb d3bc f6df 6c3c 34bc 82bc f449 b4bb
000002f0: 1545 8cbc 5b59 053c 230f 1dbc a849 b4bb
00000300: 37b8 6dbb 9587 0cbc 699f 46bb 71db 693c
00000310: 3ef2 443a 0ffb acbb 8b7b db3c d4a0 32bc
00000320: 6305 46bb 6dc0 483b f704 a43c 7e01 41bc
00000330: 62e2 b2bb 2df4 993b 0bcb c3ba 5d5d 02ba
00000340: 83fe dc3a d044 8d3a 46bd bf3b 3d21 ca39
00000350: 2222 ad3c e5a9 bc3b 7607 313c d965 9ebb
00000360: 7419 8bbc fd60 4bbb 7d40 01ba b3ad e0bb
00000370: 13ba 7d3c 0c47 e83b 29cf d03b 0632 f7bb
00000380: 9f9c 9d3c eb6e bebc a123 353b 85d6 5338
00000390: 8f9c 9ebc dc15 2a3c 7c9e afbb c570 763c
000003a0: 90e8 c539 6b14 f6bb 333e f53b dbe9 4f3c
000003b0: fc64 e3bb 9c39 acbb a7a8 323b 37de dbba
000003c0: b13a 06bb a622 1a3c 98f2 4ebc e862 93bc
000003d0: e28a b93b 0dbd c7bc e874 bd3b 6d6b c5bb
000003e0: 61bb 17bc 1032 2d3b e2a5 18bc f3cd 343b
000003f0: cd7d bdbc 24c1 243c b1aa a8bc 7c4b 2f39

action_model._discrete_distribution.branches.1.bias f4 [2]
-0.00042551264 0.00042551226
00000000: 5717 dfb9 4a17 df39

action_model._discrete_distribution.branches.2.weight f4 [2, 128]
-0.0002412474 0.01738995 0.001175254 -0.013873047 -0.002294012 0.00897544 -0.009701844 -0.0032153716
0.008784967 -0.016481029 0.0017550569 -0.012202924 0.014694747 0.002609321 -0.008730166 -0.0071790367
-0.0103213405 0.0067610205 0.0016482704 0.004092121 0.0065196576 -0.018543577 0.0049495376 0.00741215
0.005415437 -0.012586829 0.0067266114 -0.016590074 0.008778228 0.016665928 -0.0023198023 -0.009365216
-0.00069371297 -0.004328912 -0.007950753 0.018402737 0.008487793 -0.010093856 0.0029764634 -0.00085227855
-0.0028897936 -0.010544667 0.016052827 0.010801759 0.0070586964 -0.0033025527 -0.024013728 0.0069890697
-0.00816515 -0.012022521 -0.0012071279 0.0001727134 0.012070097 -0.002574674 0.0005174494 -0.008497807
-0.008385187 -0.008104194 -0.01110958 0.0025059208 0.002164537 0.00769249 0.011146252 -2.1946658e-05
0.01314683 0.008200691 -0.00015427021 0.006265821 0.013978831 0.008331009 -0.006883815 -0.0029863229
0.009683709 0.007071102 0.0013976389 -0.0012669109 0.003984223 -0.00090309227 0.019241823 0.0030288459
-0.011122273 -0.0029942407 0.015407922 -0.0024623366 -0.009597481 -0.0053492514 0.002108915 -0.005423616
0.026458558 0.0034857213 -0.005766812 0.014427032 0.015163919 0.00017600614 0.012235103 -0.008462116
0.009128135 -0.0018041208 -0.002129677 0.007632043 0.012490982 -0.007628469 0.009969045 0.017355954
0.007212767 0.0051252977 -0.0016838885 0.008104241 -0.009229424 0.000117437725 -0.011635243 0.0030378376
-0.0062446585 -0.0063778465 -0.012632808 -0.0037825848 0.0041552032 0.015109691 0.002495744 -0.0028025608
-0.0035456773 -0.0027353708 0.006467214 -0.006974355 -0.00043349728 0.0070287827 0.013710344 0.002788478
-0.008239253 0.007122043 -0.015734406 0.016028158 0.004800238 0.0062504155 -0.0024879666 -0.003157982
0.0047986126 0.0075042387 -0.021754805 -0.0008550959 -0.0033488413 -5.8879486e-05 0.0020040714 -0.005019607
-0.0026780749 0.0048754555 -0.00050784217 0.007812066 -0.006956122 0.0069503915 0.009142132 -0.0024520715
0.013660907 -0.014663504 -0.0026610738 -0.009170427 0.007783247 -0.0024937065 0.0079896925 -0.0050315023
0.004893938 -0.0016746605 -0.0036483153 0.0068395087 0.00014813285 0.017552653 0.0024557903 -0.0016611812
0.004499525 0.0012769516 -0.00020124184 0.0038187588 -0.013500151 0.0003136983 0.019005515 0.004072455
0.022463232 0.0047818436 0.020489046 0.0025606463 0.014990737 0.004270323 -0.002537964 -0.010709518
-0.006955684 0.0051498394 0.0039174827 0.010544954 -0.00089987786 -0.01464118 -0.0034520205 -0.0073720664
0.003465865 0.01761948 0.0003801113 0.00404668 -0.010693817 0.0014111495 0.002544648 0.01307488
-0.0048648864 0.0087624965 0.00043330976 0.018372163 -0.0037326727 0.006841061 0.0062657087 0.0034239967
-0.0009990748 0.0043246187 0.00074513245 0.0009780094 0.0019324262 0.007961155 0.0041740113 -0.015723461
-0.0010217717 -0.009287407 0.0063624405 0.015650395 -0.021046536 0.0031567398 0.009736645 -0.02034074
-0.0024949717 -0.0016510738 -0.0076128542 0.00080979016 0.007121446 -0.012356832 -0.013255285 0.010539585
-0.00030548088 -0.0002983835 -0.0063531054 -0.019339899 0.011849462 0.006906384 -0.0034440185 -0.013604244
0.006177091 0.0076489924 0.0020050947 0.0012694949 -0.0028225586 0.00068445253 0.004323926 -0.0033815915
-0.0053416505 -0.0024588024 -0.0066299653 0.00082713406 0.00932584 0.006114116 0.000945715 -0.0010611694
00000000: 5bf7 7cb9 5e75 8e3c fb0a 9a3a c74b 63bc
00000010: 2357 16bb b90d 133c 7cf4 1ebc fcb8 52bb
00000020: d2ee 0f3c 3903 87bc f009 e63a c6ee 47bc
00000030: 3cc2 703c 2401 2b3b f808 0fbc 203e ebbb
00000040: d71a 29bc 8d8b dd3b c70a d83a 3317 863b
00000050: daa2 d53b b3e8 97bc bb2f a23b 9fe1 f23b
00000060: fa73 b13b fd38 4ebc e86a dc3b e8e7 87bc
00000070: 8fd2 0f3c fc86 883c d307 18bb 9070 19bc
00000080: 4ada 35ba 8cd9 8dbb e043 02bc 56c1 963c
00000090: 6210 0b3c b360 25bc c510 433b 726b 5fba
000000a0: b162 3dbb 8ac3 2cbc 3881 833c dcf9 303c
000000b0: a34c e73b a46f 58bb 70b8 c4bc 9104 e53b
000000c0: 1fc7 05bc 1cfa 44bc 7e38 9eba 661a 3539
000000d0: a8c1 453c ddbb 28bb 71a5 073a 633a 0bbc
000000e0: 0662 09bc 74c7 04bc f504 36bc 603a 243b
000000f0: e8da 0d3b 4811 fc3b c59e 363c 171a b8b7
00000100: cd65 573c 315c 063c 98c3 21b9 8451 cd3b
00000110: 7707 653c c97e 083c a091 e1bb 2fb6 43bb
00000120: 6ba8 1e3c b4b4 e73b fb30 b73a 7a0e a6ba
00000130: 168e 823b 7fbd 6cba 07a1 9d3c 9a7f 463b
00000140: 323a 36bc 063b 44bb 8271 7c3c 275f 21bb
00000150: c13e 1dbc c648 afbb b935 0a3b 97b8 b1bb
00000160: 9ebf d83c b370 643b 86f7 bcbb 5c5f 6c3c
00000170: 1672 783c 4a8e 3839 be75 483c b0a4 0abc
00000180: 2c8e 153c 4078 ecba 0d92 0bbb 3816 fa3b
00000190: faa6 4c3c 3cf8 f9bb 3555 233c 132e 8e3c
000001a0: 1359 ec3b 1df2 a73b ecb5 dcba a7c7 043c
000001b0: 0337 17bc e648 f638 bfa1 3ebc 7516 473b
000001c0: fe9f ccbb 41fd d0bb d6f9 4ebc 3ee5 77bb
000001d0: 5f28 883b a38e 773c a38f 233b 2bab 37bb
000001e0: 985e 68bb e843 33bb ecea d33b 2189 e4bb
000001f0: 0547 e3b9 b451 e63b 5aa1 603c e6be 363b
00000200: effd 06bc 0760 e93b 71e5 80bc 7c4d 833c
00000210: 514b 9d3b 49d0 cc3b 270d 23bb 25f6 4ebb
00000220: ae3d 9d3b 1ee6 f53b 2237 b2bc 8428 60ba
00000230: 3c78 5bbb 5ef5 76b8 bd56 033b 847b a4bb
00000240: a482 2fbb 49c2 9f3b b620 05ba 5cfc ff3b
00000250: 2ef0 e3bb 1cc0 e33b e1c8 153c efb2 20bb
00000260: ffd1 5f3c 323f 70bc 6965 2ebb 8f3f 16bc
00000270: 9c0a ff3b 746d 23bb 33e7 023c 4ddf a4bb
00000280: 545d a03b 4880 dbba 9318 6fbb f51d e03b
00000290: 1c54 1b39 95ca 8f3c 53f1 203b febb d9ba
000002a0: c070 933b 635f a73a 7204 53b9 2444 7a3b
000002b0: bd2f 5dbc e077 a439 74b1 9b3c 3b72 853b
000002c0: d004 b83c 03b1 9c3b a5d8 a73c 84d0 273b
000002d0: b59b 753c 11ee 8b3b f853 26bb f976 2fbc
000002e0: 82ec e3bb fcbf a83b 3a5e 803b bec4 2c3c
000002f0: c8e5 6bba 8fe1 6fbc 4b3b 62bb 6091 f1bb
00000300: 9123 633b ba56 903c ad49 c739 039a 843b
00000310: 1f35 2fbc 52f6 b83a 1cc4 263b 0538 563c
00000320: a069 9fbb 9390 0f3c da2d e339 3881 963c
00000330: db9f 74bb fb2a e03b 9350 cd3b 2265 603b
00000340: 63f3 82ba 88b5 8d3b fe54 433a 8d30 803a
00000350: 7749 fd3a 816f 023c 25c6 883b 7dce 80bc
00000360: f8ec 85ba 352a 18bc 057c d03b 4235 803c
00000370: c969 acbc 4ee1 4e3b 7386 1f3c a0a1 a6bc
00000380: ae82 23bb d868 d8ba 4075 f9bb 1948 543a
00000390: 055b e93b 4f74 4abc b22c 59bc 39ae 2c3c
000003a0: f328 a0b9 5b70 9cb9 b62d d0bb b56e 9ebc
000003b0: 3f24 423c f34e e23b 0bb5 61bb 56e4 5ebc
000003c0: 3269 ca3b 66a4 fa3b e867 033b 2e65 a63a
000003d0: adfa 38bb d56c 333a b8af 8d3b b19d 5dbb
000003e0: 0309 afbb dc23 21bb 2e40 d9bb 07d4 583a
000003f0: 68cb 183c ec58 c83b dce9 773a f016 8bba

action_model._discrete_distribution.branches.2.bias f4 [2]
0.00019610027 -0.00019610062
00000000: 44a0 4d39 5ca0 4db9

action_model._discrete_distribution.branches.3.weight f4 [2, 128]
0.0032237358 -0.016017701 0.003718349 0.0037138795 -0.001768077 0.0051615927 0.005705457 -0.0015214497
-0.011162037 0.0003238427 0.010088539 -0.012113286 -0.008291889 -0.008068577 0.013817032 -0.002369836
-0.0016704245 0.0017661831 -0.0025223468 -0.010604439 -0.011787925 0.0048301728 0.00820919 -0.0046800454
-0.005681658 0.009733535 0.0045277094 0.010556849 -0.0063210977 0.004871328 -0.00033027926 -0.007588054
-0.0004945074 -0.015532063 0.0032370025 0.002270485 -0.0003393992 -0.009561863 0.012228568 -0.014866732
0.005494223 -0.012422532 0.0022282745 0.013511785 -0.00032228054 0.02016276 -0.008556948 0.016245518
0.009737607 0.002499386 0.0014820315 0.015241677 7.488539e-05 -0.009190373 -0.0019949458 -0.0023009917
0.004995578 -0.0024165679 -0.0047597503 -0.009472393 -0.005178919 -0.0010562306 -0.010274075 0.016992245
-0.0108009735 0.0036653746 -0.007704829 0.0073672207 -0.008159774 -0.01224317 0.0030957684 0.0051962244
-0.0020962504 0.00082282186 -0.008102847 0.0025877992 -0.011042386 -0.0064407764 0.0025518162 0.0003252043
-0.016139114 0.018233394 0.006547902 0.007901515 0.0025210937 -0.0073164026 -0.0023319782 0.0004652139
-0.00079266075 -0.0037360017 -0.011228327 0.0140514355 -0.009849331 -0.008554234 0.017661335 0.0032222215
-0.007436462 0.009107027 0.00060321396 0.0040288586 -0.005434309 0.0037490383 0.011697542 -0.0008445257
-0.0024846797 0.0010113004 0.011191581 0.0018392865 0.010328769 0.0026452993 0.015380879 0.009522967
-0.0032872607 2.877341e-05 -0.014848741 0.01763938 0.010486462 0.017567528 0.0038393564 -0.007462592
0.009392268 0.005513308 0.005801384 0.00012659634 -0.0028187565 0.0022385644 -0.010188184 0.0022941749
0.01383245 0.0029472285 0.013714505 0.01285502 0.0034855101 -0.008969586 -0.0016877021 0.0015688518
0.01611048 0.0022570158 -0.018039228 0.0042526075 -0.02811797 -0.01716445 -0.0045805476 0.0063494593
0.008009606 0.016619978 -0.008945325 -0.019733796 0.013944039 -0.010566649 0.0046092332 0.0009775079
0.002743232 -0.007894852 0.021313773 -0.005300009 0.004953473 0.0015656494 -0.006106822 0.008376201
-0.01148497 -0.00063734304 0.004898075 0.009709506 -0.0058629815 -0.011030302 0.0043275496 -0.010131044
-0.0062212655 -0.009267281 -0.006318139 0.0035524664 0.005382064 -0.0059304717 0.0018253111 0.0074077128
0.00013221319 -0.012268339 -0.004537263 0.0038859933 0.0047486685 0.0038781404 0.0004659549 0.019381471
-0.025272828 -0.0039521786 0.009149262 0.0039078286 -0.01730063 -0.003842537 -0.007824843 -0.01577662
-0.002464787 -0.008236918 0.0025660624 0.0086763855 0.0027476395 -0.011581386 0.004912088 -0.004531727
-0.0046420335 0.007242693 -0.00659921 -0.0014235309 -0.010981638 0.008202045 -0.010390165 -0.006801952
0.008278779 0.006679404 0.004898263 -0.005355804 0.021987636 0.005596126 0.0046842224 0.003891684
0.0016671737 -0.008881606 0.024369128 -0.011296069 -0.0072919275 -0.002377472 -0.014622239 0.014332754
-0.008576843 6.458592e-05 -0.005767966 -0.004218317 0.005158825 -0.002995319 -0.0062007695 -9.7812015e-05
0.003703321 0.0057465853 -0.0025841794 -0.007942298 -0.015477878 0.014464697 -0.004358686 0.01718676
-0.011433244 0.007936162 -0.0016522511 -0.013129471 0.0049301106 0.0038449422 0.013338639 -0.0076985243
-0.0021567387 -0.0077650743 0.007433777 0.016385997 0.010545626 -0.008138966 0.007216907 -0.0024703525
00000000: 5045 533b 8e37 83bc 8baf 733b 8f64 733b
00000010: d2be e7ba 9422 a93b d8f4 ba3b 616b c7ba
00000020: fae0 36bc 6ec9 a939 664a 253c ce76 46bc
00000030: b4da 07bc 1132 04bc d560 623c 404f 1bbb
00000040: 25f2 daba 457f e73a f54d 25bb 3ebe 2dbc
00000050: 2422 41bc 6d46 9e3b d77f 063c 115b 99bb
00000060: 342d babb 6879 1f3c 2e5d 943b a2f6 2c3c
00000070: 3621 cfbb a99f 9f3b 5529 adb9 36a5 f8bb
00000080: d4a1 01ba 327a 7ebc e423 543b 6bcc 143b
00000090: 64f1 b1b9 5ca9 1cbc 555a 483c 9893 73bc
000000a0: e208 b43b e087 4bbc 3e08 123b 8960 5d3c
000000b0: c3f7 a8b9 5f2c a53c 7132 0cbc 5215 853c
000000c0: 7c8a 1f3c bdcc 233b ba40 c23a 3ab8 793c
000000d0: ca0b 9d38 3893 16bc a3bd 02bb 3ccc 16bb
000000e0: f2b1 a33b 485f 1ebb aef7 9bbb 1932 1bbc
000000f0: ecb3 a9bb 3871 8aba 9854 28bc 5233 8b3c
00000100: 91f6 30bc c836 703b ca78 fcbb ba68 f13b
00000110: 93b0 05bc 9497 48bc 60e2 4a3b 1745 aa3b
00000120: 3f61 09bb a4b2 573a cec1 04bc 1198 293b
00000130: 20eb 34bc 260d d3bb 5f3c 273b 2f80 aa39
00000140: 2d36 84bc 335e 953c c88f d63b 5b75 013c
00000150: ef38 253b 6fbe efbb 1ad4 18bb f4e7 f339
00000160: 90ca 4fba b5d7 74bb 04f7 37bc fe37 663c
00000170: 175f 21bc 0f27 0cbc 81ae 903c e82b 533b
00000180: 91ad f3bb a435 153c 0121 1e3a 8404 843b
00000190: 4a12 b2bb 6db2 753b 0ca7 3f3c 2963 5dba
000001a0: 02d6 22bb 9c8d 843a e55c 373c 3714 f13a
000001b0: ff39 293c c25c 2d3b 1500 7c3c 3806 1c3c
000001c0: 156f 57bb 6d5e f137 2248 73bc 7680 903c
000001d0: 69cf 2b3c c7e9 8f3c b69d 7b3b c288 f4bb
000001e0: 07e2 193c fba8 b43b 8919 be3b f2be 0439
000001f0: e3ba 38bb e1b4 123b 57ec 26bc de59 163b
00000200: 80a1 623c 4a26 413b ceb2 603c dd9d 523c
00000210: 286d 643b 2cf5 12bc e335 ddba eea1 cd3a
00000220: 20fa 833c 71ea 133b 01c7 93bc 7559 8b3b
00000230: a857 e6bc 769c 8cbc 6b18 96bb 200f d03b
00000240: b93a 033c 9f26 883c 6a8f 12bc c5a8 a1bc
00000250: 8a75 643c bd1f 2dbc 0d09 973b b91f 803a
00000260: ccc7 333b 6959 01bc 399a ae3c b3ab adbb
00000270: be50 a23b 7a36 cd3a bc1b c8bb 553c 093c
00000280: 752b 3cbc 5e13 27ba 0880 a03b 9f14 1f3c
00000290: 411e c0bb 71b8 34bc 1ece 8d3b aefc 25bc
000002a0: c2db cbbb cbd5 17bc 6408 cfbb 7fd0 683b
000002b0: 065c b03b 6754 c2bb 473f ef3a 66bc f23b
000002c0: b5a2 0a39 2501 49bc 52ad 94bb 26ac 7e3b
000002d0: b89a 9b3b 6628 7e3b 684b f439 e4c5 9e3c
000002e0: f608 cfbc 4781 81bb c9e6 153c 3e0d 803b
000002f0: 0dba 8dbc 13d3 7bbb c533 00bc f83d 81bc
00000300: 4488 21bb 23f4 06bc 622b 283b 6627 0e3c
00000310: be11 343b dbbf 3dbc 95f5 a03b e27e 94bb
00000320: 331c 98bb 1d54 ed3b 303e d8bb c595 baba
00000330: 54ec 33bc df61 063c 833b 2abc e9e2 debb
00000340: b7a3 073c e7de da3b 9c81 a03b be7f afbb
00000350: 6a1f b43c b55f b73b 1b7e 993b a00b 7f3b
00000360: 1185 da3a 2884 11bc c4a1 c73c 2613 39bc
00000370: 1ff1 eebb 5ccf 1bbb 1e92 6fbc edd3 6a3c
00000380: e385 0cbc 4d72 8738 3501 bdbb cf39 8abb
00000390: 5c0b a93b 1d4d 44bb d32f cbbb 6d20 cdb8
000003a0: 6bb3 723b da4d bc3b 565b 29bb 6a20 02bc
000003b0: ed96 7dbc 56fd 6c3c 4fd3 8ebb 40cb 8c3c
000003c0: 8052 3bbc ad06 023c 5990 d8ba fe1c 57bc
000003d0: c48c a13b 6dfb 7b3b 4f8a 5a3c e743 fcbb
000003e0: 1258 0dbb 2a72 febb 0b97 f33b ed3b 863c
000003f0: 90c7 2c3c 4c59 05bc ce7b ec3b a3e5 21bb

action_model._discrete_distribution.branches.3.bias f4 [2]
9.499597e-05 -9.4998475e-05
00000000: 9338 c738 eb39 c7b8
