results/Test2/Hero Knight Behavior/Hero Knight Behavior-84946.pt (torch, 451223 bytes, 51 tensors)

network_body.linear_encoder.seq_layers.0.weight f4 [128, 5]
000000 bb 6b 6c be a9 19 ea 3e 20 3a 9e bc 9b ed b7 3e
       -0.23087971 0.45722702 -0.019314826 0.35923466
000010 3f 60 e5 3e 8b 5c 65 bc 48 56 1c 3f 30 5f 4f be
       0.44799992 -0.013999115 0.61069155 -0.20251155
000020 56 5a fb 3e 1e 7f 1d be 21 ea 05 bf 35 8a 97 bd
       0.49092358 -0.15380523 -0.5231038 -0.07399408
000030 93 4a f6 bd 97 09 28 bd 90 30 1c 3f b5 71 80 3e
       -0.12025943 -0.04102477 0.610116 0.25086752
000040 53 dc 8a be e3 eb 3f 3c da fb 19 bf 7b e9 35 be
       -0.2712122 0.011713955 -0.6014992 -0.17764847
000050 7b 9e 8a be 6d d4 a3 be 8f 12 bb bd 6f bd ed bc
       -0.27074036 -0.31998006 -0.09134399 -0.029020993
000060 be b3 f5 3e 8a c6 98 be 27 d4 83 3e 2b 5c 0d 3f
       0.47988695 -0.29838973 0.25747797 0.5521876
000070 65 aa c9 be d4 84 80 bf e6 63 34 bf 0a 53 ad be
       -0.39387813 -1.0040536 -0.7046493 -0.33852416
000080 62 8f ec 3e 42 f5 be 3e 20 fc a8 3e e0 b4 b3 3e
       0.46203142 0.37296492 0.33004856 0.35098934
000090 35 ed a1 be e7 46 f5 bd 5c 64 aa 3e 73 a9 f6 3c
       -0.31626287 -0.11976414 0.33279693 0.030110097
0000a0 ab 29 85 3f 17 e9 43 3f 4a e9 31 bf ad 54 52 be
       1.0403341 0.7652754 -0.69496596 -0.20540114
0000b0 c7 6f 5f 3e a3 03 aa be 52 96 21 3f 89 83 87 be
       0.21819983 -0.332059 0.63119996 -0.2646754
0000c0 a6 37 2c 3f 5c 42 57 3e 4a 40 e4 3e 85 96 52 bf
       0.6727241 0.21021408 0.445803 -0.82260925
0000d0 cb ac 05 3d 25 69 2c be 31 c5 84 3e be b6 5f 3e
       0.03263549 -0.16836984 0.25931695 0.21847054
0000e0 97 be d2 3e bc 39 2a 3e 43 13 63 be d3 5d 14 3f
       0.41161034 0.16623586 -0.22175317 0.57955664
0000f0 d3 54 db be 50 00 c7 3b 71 dd 9f bf a7 1f 81 3d
       -0.42838153 0.0060730353 -1.2489454 0.06304865
000100 2b 29 93 be 26 5f a0 3e 27 9b 46 bd 18 65 8d be
       -0.28742346 0.31322592 -0.04848781 -0.2761619
000110 3c 7d 1d bf 80 12 a7 be ac 79 05 be 1e 4f b7 bc
       -0.6151922 -0.32631302 -0.13034695 -0.022376593
000120 c0 a3 7f be 13 00 99 be 23 fb b3 3e 48 a6 8c be
       -0.2496481 -0.2988287 0.3515254 -0.27470613
000130 73 ee 1a bc 30 e6 f4 bd 60 10 20 3c 25 82 1c 3e
       -0.009456265 -0.11957967 0.009769529 0.15284021
000140 08 b2 c9 3e 47 78 f9 3e 28 ae 8d 3d 00 33 c9 3e
       0.3939364 0.48724577 0.06917983 0.39296722
000150 00 c4 94 3e 88 56 e5 3e 17 cb 6d 3d cc 26 02 bf
       0.29055786 0.4479258 0.05805501 -0.5084045
000160 34 95 b9 be 1d 20 c4 bc ea fc 39 3d dc 6d 4b be
       -0.36246645 -0.023941094 0.045407213 -0.19866127
000170 c6 0b f3 be b9 15 ff 3e 1f d2 a5 be bd 9b a0 bb
       -0.4746992 0.4982126 -0.32386872 -0.004901378
000180 0e 01 37 be 57 b1 d6 be 21 3b 2a 3f 30 c4 a2 be
       -0.17871496 -0.41932175 0.66496474 -0.31790304
000190 c9 17 f4 be 6f 70 87 3d 39 3b 12 3f 1c 10 cb be
       -0.47674397 0.06613242 0.57121617 -0.39660728
0001a0 05 4f 1a 3c c4 5f 30 be b8 52 49 3e bf 25 c6 be
       0.009418254 -0.17224032 0.19660461 -0.38700673
0001b0 db 0d 97 3f 40 a2 c3 bd b3 12 be 3e dc b1 29 bf
       1.1801103 -0.09552431 0.3712364 -0.66287017
0001c0 d0 92 e2 3e d1 6a 02 be 57 cd b0 be e3 75 f4 3e
       0.44252634 -0.1273606 -0.34531662 0.4774619
0001d0 1f 54 12 be ff 5b 1c 3e a9 2f fe 3d 37 bc d3 3d
       -0.14289902 0.15269469 0.12411434 0.103386335
0001e0 29 aa 59 be 3e a1 2d 3e b0 83 57 be 78 a0 34 bd
       -0.21256317 0.1695604 -0.21046329 -0.044098347
0001f0 ba a0 54 3e 73 c9 91 3c 00 a4 0d 3f e7 a3 d1 bd
       0.20764437 0.017796254 0.5532837 -0.1023634
000200 3d c9 a3 bd 09 f4 17 3f 0b fb fd be 57 13 c3 3e
       -0.079973675 0.59356743 -0.49605593 0.38100693
000210 28 1d 32 bf 21 48 5b 3e 2e d3 4d bf 81 8a 22 3d
       -0.6957574 0.21414234 -0.8040036 0.03968287
000220 06 0a 4a bf 4b 82 74 be 75 f8 21 be 1d 52 cb be
       -0.78921545 -0.23877828 -0.15817435 -0.39711085
000230 9f 24 40 3c ad 8f c2 3e b7 16 30 3e 32 ed 86 3c
       0.011727481 0.3800024 0.17196165 0.016470525
000240 87 42 36 3e fe 53 97 be 45 0e 4d bd 7b fc 11 3f
       0.17798816 -0.29556268 -0.050062437 0.5702588
000250 93 a6 2c bf 52 41 d7 be 8d 59 2c 3e 0e 1d 21 be
       -0.6744167 -0.42042023 0.16831036 -0.1573374
000260 70 7c 0d 3e 7b 3c 5a be f5 f1 f1 be fd 00 a7 be
       0.13817 -0.21312134 -0.4725491 -0.32617941
000270 5a 01 a7 bd 42 17 1f 3e cb 2e 26 3f b5 4b 12 bf
       -0.08154555 0.15536216 0.6491515 -0.5714677
000280 81 e3 d3 3e 94 72 5d 3d ac 2e af 3c 77 bb a5 3e
       0.4138451 0.05406435 0.02138456 0.32369587
000290 c0 82 73 3d 31 98 1c 3c 32 72 6f bf d4 85 83 be
       0.059450865 0.00955777 -0.93533623 -0.2568804
0002a0 36 ac 46 bf 48 36 7b 3e 58 82 b4 3c 66 2c df 3d
       -0.77606523 0.24532425 0.022034809 0.1089714
0002b0 27 3f 2f bf 10 0a f9 3c 0f 07 c1 ba 06 ee 3e bf
       -0.6845574 0.030400306 -0.0014726835 -0.74581945
0002c0 9c cb 0a 3e b0 72 0e 3f ce e3 b7 be 20 b0 91 3e
       0.13554233 0.5564375 -0.3591599 0.28454685
0002d0 31 77 23 bf 89 6d 15 3e a3 86 52 3d 9b 13 69 3f
       -0.63853747 0.14592566 0.05139793 0.9104554
0002e0 d3 52 a3 bd f1 5e 52 3e 1c 21 6e be 16 ff 42 3e
       -0.07974782 0.2054403 -0.23254818 0.1904262
0002f0 6e 90 c1 bd 40 5a 2c be 1a c5 80 be 21 f0 f3 3e
       -0.09451376 -0.16831303 -0.25150377 0.4764414
000300 24 7b 10 bf da 80 73 bf 59 96 09 bf 5f 7e 49 be
       -0.564379 -0.95118487 -0.5374504 -0.19677113
000310 28 5f b1 bd 6d 4a 26 3e b5 ce 6d be a2 aa ed 3d
       -0.08660728 0.16239329 -0.23223384 0.11604811
000320 24 89 30 3c e0 aa df 3e 38 5e 9d 3f 1d d9 1d be
       0.010774884 0.43685055 1.2294378 -0.15414853
000330 c1 d7 81 3d ad f7 af be 18 1e de 3e 92 d0 15 3e
       0.0633998 -0.3436865 0.43382335 0.14630345
000340 cf 2f 09 be 6c 60 0d be ac bb 05 bf ff dc 9e 3e
       -0.13397144 -0.13806313 -0.5223949 0.31027982
000350 16 eb e3 bd 86 15 a8 be a1 35 bf be 8d d7 b8 3e
       -0.111288235 -0.3282892 -0.37345603 0.36101952
000360 f3 23 3b bf 65 22 bb 3e 37 3f 3c 3e 8c ad 42 3f
       -0.7310173 0.36549678 0.1838349 0.7604606
000370 25 71 ec 3e 6b 9e 91 3e a3 88 b3 be 5f 66 4a bf
       0.46180072 0.28441176 -0.35065183 -0.79062456
000380 88 f0 15 bf eb 58 5d 3f bb 61 da 3e 51 0e 59 be
       -0.58570147 0.86463803 0.42652687 -0.21196868
000390 5d 99 a8 3d 76 dd 32 3f 07 8a 93 bd ed 91 b0 3d
       0.08232377 0.6986917 -0.07204061 0.08621583
0003a0 c4 3d 37 3e da 9c f5 3e c5 24 27 be 48 70 26 3d
       0.17894655 0.4797123 -0.1632262 0.040634423
0003b0 0d da f4 3d 85 ba 64 be b3 7a bf be 61 d9 33 be
       0.119556524 -0.22336777 -0.373983 -0.17563392
0003c0 0b 7d 4b 3d 0d 82 e1 3e 42 a7 2a 3f c4 35 ce be
       0.049679797 0.44044533 0.66661465 -0.40275395
0003d0 c2 b3 74 3e bb 78 b1 3c cc 8e 0a 3e 91 ab 6a 3e
       0.23896697 0.021664014 0.13531035 0.2291701
0003e0 e4 03 d3 bd 5c a1 1b 3e bc eb ee be b9 8b 11 bf
       -0.103034765 0.15198272 -0.46664226 -0.56853825
0003f0 eb 99 15 3d 6d e1 6c be e2 3b 02 bf ae fa 64 3d
       0.03652374 -0.23132868 -0.50872624 0.05590313

network_body.linear_encoder.seq_layers.0.bias f4 [128]
000000 49 0d 18 bb 91 5d d7 bb 67 e8 04 bb d0 5e 16 b9
       -0.0023201278 -0.0065724333 -0.0020280124 -0.00014340435
000010 f9 9b 59 ba 8c d9 38 3b 05 be c7 ba bc 4e fa b9
       -0.0008301135 0.002820584 -0.0015239125 -0.00047742378
000020 f6 ec 93 3a 93 cd d2 b9 36 5b 0d ba 31 c4 a5 ba
       0.001128583 -0.00040207486 -0.00053923146 -0.001264697
000030 9d e7 72 34 9c 96 42 b6 18 d5 dc 3a 0f 89 08 bb
       2.2622267e-07 -2.899592e-06 0.0016848175 -0.0020833646
000040 de ad 06 bb b9 5b 6a 3b b5 b5 f7 3a 94 4c 69 3a
       -0.002055041 0.0035760237 0.0018898757 0.00088996557
000050 20 82 97 ba ac 58 05 3a 81 25 f5 3a 01 cb 82 3a
       -0.0011559166 0.00050867605 0.0018703194 0.0009978713
000060 5b c8 61 bb 33 5b 4a bc 4e ba ee 3a db 06 58 3a
       -0.0034451697 -0.012350845 0.0018213482 0.00082407676
000070 ee 10 1c bb ba 9a f7 37 54 95 0b 3b de 0b 43 bb
       -0.0023813802 2.9516745e-05 0.0021298723 -0.0029761712
000080 00 88 f3 3a 8c b6 45 3a 1d 99 23 3a f8 1b 4c ba
       0.001857996 0.0007542155 0.0006240772 -0.000778615
000090 a9 6d 1e 3a fb 15 1c 3b fe 39 53 b1 5f 52 c3 3a
       0.00060435623 0.0023816812 -3.0737506e-09 0.0014901868
0000a0 b5 5f ae ba 2e 87 38 bb 7f ec 10 3b 53 25 cd ba
       -0.0013303669 -0.0028156745 0.002211362 -0.0015651382
0000b0 ab 23 e7 b3 92 32 85 ba 1c 1d b4 b9 35 74 d8 b9
       -1.0763264e-07 -0.0010162166 -0.00034353964 -0.0004128531
0000c0 56 1b fd ba 11 fe f5 ba 13 fd c5 3a 68 16 10 bb
       -0.0019310515 -0.0018767734 0.0015105329 -0.0021986011
0000d0 78 07 00 3b 2f e4 2a b8 31 c0 27 3b b4 97 dc b9
       0.0019535702 -4.074367e-05 0.0025596733 -0.00042074698
0000e0 39 16 1b bb 7f 4f 1c 3a 81 63 34 bb 90 02 4a bb
       -0.0023664369 0.00059627736 -0.002752513 -0.0030824281
0000f0 25 6d 99 bb 1f fb 42 ba 03 07 d8 ba 6f f5 4d 3b
       -0.0046822005 -0.00074379327 -0.0016481582 0.0031426807
000100 da 5e 8f 3a f9 d6 3f 3b a6 1f 29 bb ae 1c b4 3a
       0.0010938302 0.002927242 -0.0025806217 0.0013741457
000110 60 d9 df ba e6 55 d6 ba 99 0e 36 bb d7 80 ee ba
       -0.0017078333 -0.0016352504 -0.0027779697 -0.0018196356
000120 ef 0a 07 ba 98 5c 3e 3b ce d9 57 ba 83 ec 2d 3b
       -0.00051514705 0.002904689 -0.00082340545 0.0026538677
000130 4f 9c 4b 3b 97 fd 3a 3b b1 51 ef bb c0 4e 86 bb
       0.003106851 0.00285325 -0.0073034395 -0.004098743
000140 70 a1 f2 b8 22 61 55 bb f9 5f f1 ba 67 8a 30 bb
       -0.00011569529 -0.0032559116 -0.0018415443 -0.0026937963
000150 e4 5e 5a 3b 10 e1 8d ba ee 49 1d 3a 25 78 91 ba
       0.003332072 -0.001082452 0.0006000091 -0.0011098428
000160 af b7 3c 39 96 a7 f7 bb 2e a3 de 3a de 4c 7f bb
       0.00017997505 -0.0075578196 0.0016985887 -0.0038955729
000170 44 02 43 bb 64 bc bd ba 9c 35 24 bb 58 5f 27 bb
       -0.002975599 -0.00144757 -0.0025056368 -0.0025539007
000180 e8 73 ff 3a 99 d2 84 ba 1a b6 b7 3b 67 3b 94 3a
       0.0019489499 -0.0010133564 0.005606425 0.0011309207
000190 a7 f1 06 b9 71 08 91 ba 7c b0 af ba c5 1f 0e 3a
       -0.00012869258 -0.0011065138 -0.0013404037 0.0005421604
0001a0 ae 07 0f 39 b3 43 f2 ba 08 76 2a 3b 03 c0 6d ba
       0.00013640404 -0.0018483311 0.0026010294 -0.00090694445
0001b0 c5 0d 62 b6 fb 47 58 3b ab 7f 5b 3a b2 b1 5f 3b
       -3.368464e-06 0.0033001888 0.0008373211 0.0034133014
0001c0 46 ff 13 3b ca 1f cc 39 ff 61 46 ba 76 d6 4a bb
       0.0022582575 0.00038933597 -0.0007567703 -0.0030950583
0001d0 cb 89 44 3a 78 3a ab ba fe b0 da 39 dd a0 85 bb
       0.00074973394 -0.001306369 0.0004171207 -0.0040780143
0001e0 83 76 d6 39 4f 0e 64 3b 84 04 4e bb f7 25 3f 39
       0.0004090556 0.0034798568 -0.0031435797 0.00018229322
0001f0 81 15 d1 39 19 3e 56 bb 16 3b 23 3b 0f 1e 31 bb
       0.00039879608 -0.0032690822 0.0024907044 -0.0027025973

network_body.linear_encoder.seq_layers.2.weight f4 [128, 128]
000000 ab e1 e7 bd ce d5 04 3d db 5e a1 3d c5 3a 06 3d
       -0.113223396 0.032430463 0.0787942 0.03277089
000010 6a 32 c0 bd a0 20 98 bd ce 46 b8 bd 75 2c be bd
       -0.09384616 -0.07428098 -0.0899788 -0.09285823
000020 0a 97 1d 3d 61 f4 c4 3d e0 2e 13 3e b3 92 07 3e
       0.03847412 0.09616924 0.1437335 0.13239555
000030 01 1d 27 3e 82 47 a1 3a d1 9d e3 bc 8a 03 20 3d
       0.16319658 0.0012304636 -0.027785214 0.039065875
000040 37 10 9f bd 06 8b 39 3d 71 da 62 3b e1 4f 98 3d
       -0.077667646 0.0452986 0.0034615065 0.07437111
000050 fe d8 8b 3e 04 0a cf 3b ed 00 8d bc c1 95 ad 3d
       0.2731399 0.0063183326 -0.017212356 0.08475829
000060 e5 8c 11 3e 5f 18 9b bd a4 89 89 bd af 8d d3 bc
       0.14213903 -0.07573008 -0.06715706 -0.025824396
000070 bb 23 72 3d 4c 74 86 3d 50 46 4a 3e 95 ec 9b bd
       0.059116106 0.065651506 0.19753385 -0.07613484
000080 c7 15 20 3d 9e 9e ca 3d 88 76 75 bd c7 72 d1 bd
       0.03908327 0.09893535 -0.059927493 -0.1022697
000090 69 48 d6 3c f1 64 e4 bd 0f 61 7c 3d 15 aa 13 3e
       0.026157575 -0.111520655 0.061616 0.1442035
0000a0 d0 10 f4 bd b3 c6 e2 bd 8e f4 b7 3d 23 fc 58 3d
       -0.11917269 -0.11073055 0.08982192 0.05297483
0000b0 17 c8 a3 bc 6d 94 9f bd dd 2b d4 3d 66 3b 44 be
       -0.019992871 -0.07791982 0.10359929 -0.19163284
0000c0 1f 8a 59 bd 4e fe be bd 58 6b cb 3b 11 e1 04 be
       -0.05311024 -0.093258485 0.0062078647 -0.12976481
0000d0 e3 b6 e8 bc bc dc 9e bb b0 00 5d bd 8b 76 3d 3c
       -0.02840752 -0.004848091 -0.053955734 0.011563907
0000e0 d8 aa 5e bd 9d ca 81 3b 6a d3 aa bd 79 11 22 3e
       -0.054362148 0.003960921 -0.08341105 0.15826978
0000f0 1f 3b 0e 3d e8 24 16 be e7 ed ad 3d fd eb af ba
       0.03472435 -0.14662516 0.08492642 -0.001342177
000100 91 3a cc bd 93 96 52 bd f8 b0 af 3d 12 60 f4 bc
       -0.09972108 -0.05141313 0.08578676 -0.029830966
000110 d8 48 13 3e 04 7e 0b 3e 44 d1 9a 3d 52 b7 27 3d
       0.14383256 0.1362229 0.075594455 0.040946312
000120 0b 6b 27 3b e6 79 48 3e f4 d5 28 be c1 45 f5 3c
       0.002554598 0.1957775 -0.16487867 0.029940488
000130 16 da 2a bd 79 31 dd bd 13 36 b9 bc 78 8c f3 bd
       -0.04171189 -0.10800452 -0.022608792 -0.11892027
000140 65 2c 33 be f3 73 c5 bb 78 e6 12 be 21 55 df bd
       -0.17497404 -0.006025785 -0.1434573 -0.10904909
000150 ee e3 31 be d2 6d 44 bd ab 2a a7 3d 59 18 94 3d
       -0.17372105 -0.047956295 0.08162435 0.072312064
000160 85 6c 85 3d 0e 8e b8 3d 13 57 ec 3a 12 39 bb bb
       0.06514839 0.0901147 0.0018031321 -0.0057135904
000170 bf 9d b3 3d 5a 16 02 3e fe 39 97 bc d4 6e 00 be
       0.08770322 0.12703839 -0.01846027 -0.12542278
000180 e2 71 f7 bd 30 21 34 bd 32 d4 32 3d 9e b5 3f 3c
       -0.12082268 -0.043976963 0.043659396 0.011701016
000190 d0 91 79 bd bd 08 5c bd b6 46 0f 3d 32 95 86 3d
       -0.060930073 -0.05371927 0.034979545 0.065714255
0001a0 3d 60 bf bc 18 27 2b bd e3 a6 b2 3d 64 92 8f 3d
       -0.02336132 -0.04178533 0.08723237 0.07010344
0001b0 ae 59 05 3d f9 ea 1b 3d da 7f ec 3d 8e 2a 4a be
       0.03255623 0.038065884 0.11547823 -0.19742796
0001c0 dc bf 29 3d e5 6a 96 bd 28 44 a7 bd 62 49 4c 3c
       0.041442737 -0.07344607 -0.08167297 0.012468668
0001d0 8a 4c 1c 3c ae 20 14 bc 48 80 27 3d d8 45 3b 3e
       0.009539733 -0.009040995 0.040893823 0.18288362
0001e0 93 dc f2 bc 16 6c 72 3d 6f b0 72 3c bc 94 bb bd
       -0.029646194 0.05918511 0.014812573 -0.09159228
0001f0 cd 40 30 3d 1b 26 56 bc dd 0e 8e bb ae 78 4a bc
       0.04303055 -0.0130706085 -0.004335268 -0.012357874
000200 ab 4d e1 bc 83 24 ef bd f2 56 85 3d b5 37 dc bd
       -0.027502855 -0.11676886 0.06510724 -0.10752813
000210 96 df e4 3a 60 81 91 3e 6e 6d 50 bd f5 53 c6 3b
       0.0017461653 0.28419018 -0.05088561 0.006052489
000220 41 b7 a1 3d 13 10 02 3d f5 48 48 bd f8 c2 ba bc
       0.07896281 0.03175361 -0.048897702 -0.022798046
000230 43 c6 3c 3e 15 77 0e 3d b3 e3 05 be 35 9c ed bd
       0.18435006 0.034781534 -0.13075142 -0.1160206
000240 f9 dc a2 3c 5c 8a 2a 3e b1 76 d1 3d 63 13 15 be
       0.019880759 0.16654342 0.10227717 -0.14558177
000250 f6 a6 31 3e fb 85 4b 3d e7 94 86 bd ca 67 03 3d
       0.17348847 0.04968832 -0.065713696 0.032081403
000260 95 ca 12 3d e4 66 26 3e 12 65 12 be 8f 93 47 bc
       0.03583773 0.16250187 -0.14296368 -0.012181177
000270 78 c7 bf 3d 5f af 4b 3d ad c8 b8 bd 64 2e ff bd
       0.093642175 0.049727794 -0.09022651 -0.1246002
000280 25 2c 83 3c c6 4e 2e bd b8 d0 28 bb 6c 02 61 3e
       0.01601226 -0.042555593 -0.0025759172 0.2197358
000290 fc 6a 17 be e7 00 4c bd 46 1c b4 bb b3 7a be bc
       -0.14786905 -0.049805548 -0.0054965345 -0.023251867
0002a0 dd 0b b3 bd f4 73 4a 3d 2e 3f 00 3d 2f 11 12 be
       -0.08742497 0.049426988 0.031310253 -0.14264368
0002b0 d9 67 59 bd 03 85 01 bd c4 fb 20 3d 1f 0d 97 3d
       -0.053077552 -0.03162099 0.039302602 0.073755495
0002c0 be 4d 90 bc 12 db 39 3d 36 3a 08 be d3 c0 58 bc
       -0.017615195 0.045374937 -0.13303456 -0.013229567
0002d0 9e 0f 8a 3d e7 49 be bb 2f e9 45 3e c4 e1 54 bc
       0.0674126 -0.0058071497 0.19327234 -0.01299328
0002e0 2b d9 a1 bd 45 ee 07 3d be 61 b7 bd bf dd 19 be
       -0.0790275 0.033186216 -0.0895419 -0.15025996
0002f0 e4 ff bb 3c 54 3f 33 be 27 93 df 3b b9 71 fc 3d
       0.022949167 -0.17504627 0.006822962 0.123263784
000300 51 59 25 bc 90 e7 0d bd 2b 51 4e bd cb a9 df bd
       -0.0100920955 -0.034644663 -0.050370377 -0.10921057
000310 69 bc ee bc 0b 9b 4e 3e f9 2e 1c bd 95 74 07 bd
       -0.029142575 0.20176332 -0.038130734 -0.033070166
000320 fc 9d 3a be 1b 17 10 3d c8 6b da 3d 89 38 c2 3d
       -0.18224329 0.035178285 0.10665089 0.094834395
000330 4c 70 2d 3e 76 a7 92 3d 1a f4 7d bd c6 d9 f2 bc
       0.16937369 0.07160847 -0.06200037 -0.029644858
000340 3f b2 f5 bd ca bc a3 3d 67 4c e6 3c 9c 13 52 3d
       -0.11996888 0.07994993 0.028112603 0.051288232
000350 31 13 16 be a9 46 4b bd 7f 95 4a 3d 21 b5 05 be
       -0.14655758 -0.049627934 0.049458977 -0.13057376
000360 74 03 bf 3d 9f 08 a2 3d da 3d 81 3c 4a d6 17 be
       0.093268305 0.079118006 0.015776563 -0.14827839
000370 46 3e a0 3d 88 ec 6e be 32 b2 c7 bc ee ff c5 3c
       0.07824378 -0.23332417 -0.024376962 0.024169888
000380 7b 45 1e 3c 51 81 ad bd d6 f9 22 bd c6 c0 5f 3d
       0.00966012 -0.08471931 -0.039789043 0.054627202
000390 b8 97 f7 bd 1b 0a 4d 3d 67 0b 91 bd 2a dd 35 bc
       -0.12089485 0.050058465 -0.07082253 -0.011100093
0003a0 14 56 12 bd 3a 2c b2 bd 2c 17 6f bd 64 6e f2 bd
       -0.03572662 -0.08699842 -0.058371708 -0.118374616
0003b0 84 27 47 bd d2 b3 9e 3e 93 a6 5f 3e b6 44 05 3e
       -0.04862167 0.30996567 0.21840887 0.13014492
0003c0 d6 e9 5b 3d 46 70 bd 3c 59 23 05 3e 38 9d 62 bd
       0.0536898 0.023124825 0.13001765 -0.055325717
0003d0 c6 54 55 3d 3e 81 dd bd 3b 40 02 be 5c 95 de 3d
       0.0520828 -0.108156666 -0.12719814 0.10868332
0003e0 e4 4d 3e be 81 34 47 bc 2b dc 53 bd 0f 34 aa bd
       -0.185844 -0.012158514 -0.05172364 -0.08310711
0003f0 1b fa 27 3e 58 06 96 bd 09 a7 78 bd 4e d6 eb bc
       0.16404001 -0.07325429 -0.060706172 -0.028788712

network_body.linear_encoder.seq_layers.2.bias f4 [128]
000000 52 d2 27 bb 6b 83 cc 38 41 1f dc ba 3c 2b 12 3b
       -0.0025607538 9.7519565e-05 -0.0016793982 0.0022303602
000010 52 06 e4 ba 19 60 9c ba 10 32 2e bb 8a 80 18 ba
       -0.0017396903 -0.0011930495 -0.0026580133 -0.00058174937
000020 25 05 b5 ba 1c 89 7c ba 26 cf 8d ba be de 67 bb
       -0.0013810737 -0.0009633468 -0.0010819181 -0.0035380567
000030 c1 c6 10 ba 6a 59 cf ba 69 a2 26 39 70 fe c6 ba
       -0.00055227807 -0.0015819494 0.00015891496 -0.001518203
000040 63 a7 22 ba 64 f5 e1 b9 e9 bd 99 ba 34 c3 42 ba
       -0.0006204752 -0.00043098175 -0.0011729571 -0.00074296
000050 34 b2 a4 ba fa d9 29 bb df 27 20 3b 9b c9 ac ba
       -0.0012565316 -0.0025917278 0.0024437828 -0.0013182642
000060 70 9d fd ba c5 1e 91 b9 b1 ea 44 3b 98 d4 9c ba
       -0.0019349288 -0.0002767948 0.0030047114 -0.0011965213
000070 12 28 ae ba a9 f9 05 ba 5a 51 57 3b bc 38 ef ba
       -0.0013287088 -0.00051107496 0.0032854886 -0.0018251161
000080 26 07 06 ba eb 80 74 b9 32 f7 27 3b 24 cb af ba
       -0.00051127595 -0.00023317679 0.0025629518 -0.0013411981
000090 eb 72 3e ba 88 38 f3 ba 5b 9a 1b 3b ee dd f0 b9
       -0.0007265049 -0.0018556276 0.0023743126 -0.00045941718
0000a0 72 3d c7 ba a0 6d 9a b9 06 cd 72 ba 53 35 09 bb
       -0.0015200807 -0.00029454846 -0.0009262118 -0.0020936325
0000b0 17 3f 52 3a 08 93 31 bb b7 a7 5c ba 21 9b 0a bb
       0.00080202654 -0.0027095694 -0.00084173254 -0.0021149593
0000c0 5d b2 e6 ba 4b ba 36 ba a7 e5 9c 3a 35 85 17 3a
       -0.0017600764 -0.0006970509 0.0011970297 0.0005780042
0000d0 18 e5 63 ba 8f 1c b4 ba 94 35 29 ba c3 f8 9f b9
       -0.00086935004 -0.0013741421 -0.0006454822 -0.00030512185
0000e0 e5 d9 d3 ba e3 47 8d ba 07 6c 8e bb 82 bc 03 bb
       -0.001616296 -0.001077887 -0.004346374 -0.0020101373
0000f0 f1 89 61 b9 4b 06 e1 ba fd 22 1b 3b 6e 91 0f bb
       -0.0002150906 -0.0017168013 0.0023671978 -0.0021906751
000100 47 cd 3a ba 7f 5c 51 b9 b3 67 1d bb d7 7e 48 ba
       -0.00071259256 -0.0001996625 -0.0024018108 -0.0007648295
000110 03 5d 4b ba be 59 8d 3a 43 e5 ac ba 64 89 47 ba
       -0.0007757695 0.0010784192 -0.0013190884 -0.00076117204
000120 ff c4 b8 39 10 fb 3d b9 5e 61 a4 ba 24 8d ac ba
       0.00035241988 -0.00018117973 -0.0012541225 -0.0013164622
000130 d3 13 0a bb cc 2f 52 ba ea f0 73 ba f6 0c 5b 3b
       -0.0021068945 -0.00080179865 -0.00093056133 0.0033424473
000140 6f da e9 ba 77 a4 05 ba 75 4d 76 3b 85 dd bd ba
       -0.0017841588 -0.00050980545 0.003758279 -0.0014485574
000150 6a 44 e9 ba 6e 69 c0 ba e9 f7 b1 b9 c2 91 18 bb
       -0.0017796878 -0.0014679858 -0.00033944778 -0.0023280238
000160 33 43 a0 ba 27 4e 2d ba d2 0e 0b ba c1 5a 5c b9
       -0.0012227058 -0.0006611072 -0.00053046376 -0.00021014643
000170 f0 d5 c1 ba 6e 3b 1f 3b fb a9 32 ba 7e 98 28 3a
       -0.001478849 0.0024296897 -0.000681549 0.00064314145
000180 b0 73 fd ba 50 16 14 bb e6 5f 4c b7 b4 f8 4c bb
       -0.0019336846 -0.0022596307 -1.2181676e-05 -0.0031276168
000190 68 93 2e ba 47 05 0f 3b bf 45 08 bb 11 41 19 bb
       -0.00066595385 0.0021823214 -0.0020793525 -0.002338473
0001a0 5a dd 15 3b 09 1f 1f 37 68 c3 c2 b9 38 38 01 3a
       0.0022867532 9.484364e-06 -0.00037148152 0.0004929337
0001b0 43 80 ac 3a 87 6c 82 ba dd 6f b9 ba aa 56 11 ba
       0.0013160784 -0.0009950557 -0.0014147718 -0.0005544225
0001c0 60 eb 4e b9 ff 5a 5f 3b e3 59 fb b7 77 5a 79 b9
       -0.00019733375 0.0034081338 -2.9963388e-05 -0.00023780191
0001d0 15 64 27 3b 08 1e 62 ba e8 5d a6 ba e9 c4 ce 39
       0.0025541831 -0.0008625691 -0.0012692781 0.0003943809
0001e0 bc d2 91 ba 26 f3 4a 3b a6 1f a6 ba 60 e9 4b 3b
       -0.0011125426 0.0030967682 -0.0012674227 0.0031114444
0001f0 cf 45 11 bb 08 64 2f ba ce 99 c7 ba 40 60 2e 3b
       -0.0022166853 -0.0006690626 -0.0015228332 0.0026607662

action_model._discrete_distribution.branches.0.weight f4 [3, 128]
000000 03 f0 d9 3b c4 51 dd 3b f8 74 83 bc a7 41 3e 3c
       0.006650926 0.006754132 -0.016046986 0.011612332
000010 33 d2 65 bb 00 b5 e2 39 5d c4 cd bb 59 b8 b4 3b
       -0.0035067915 0.00043240935 -0.006279512 0.00551514
000020 b6 ed 5c 3b bc 48 59 3c fe 17 d3 3b 05 82 25 3c
       0.0033711023 0.01326197 0.006442069 0.0101018
000030 35 f7 05 bb a1 e0 b8 ba c5 6e f2 3b a7 cb d6 3b
       -0.0020441536 -0.001410503 0.0073984587 0.006555039
000040 91 f9 6b 3b b0 93 ef 3b 69 90 54 3b e4 ed 18 bc
       0.0036006907 0.007311307 0.0032434708 -0.009334061
000050 69 aa 30 3c 56 ff 1f 3c f1 cf 66 3a 62 e5 10 bc
       0.010782816 0.009765467 0.00088047894 -0.008843752
000060 10 88 20 3c 97 45 bc ba 27 38 4a 3b 27 62 46 3c
       0.009798065 -0.0014364001 0.0030856223 0.012108362
000070 ae 51 af ba fa 90 90 3c 8b 0a c5 3b 1d ef 34 3c
       -0.0013375783 0.017647255 0.0060132197 0.011043337
000080 ce 6f 62 bb 0e 50 8e bc 64 8b a8 bb 70 2e 12 bb
       -0.0034551504 -0.017372157 -0.00514357 -0.002230551
000090 73 29 e4 3b 31 49 87 bb be e0 1e bb 5a 33 a4 bb
       0.006962949 -0.004128598 -0.0024242844 -0.0050110044
0000a0 96 72 8d 3b d2 4f d3 3b 7b 95 23 bc ec 74 66 3b
       0.004316638 0.0064487243 -0.009984369 0.0035164906
0000b0 9b 63 01 3b a8 e4 21 bc bb 23 37 bb a9 7b 18 bb
       0.0019743207 -0.009881176 -0.002794488 -0.0023267067
0000c0 1f 70 7f bb 36 4a bd 3b b4 7d f6 bb e2 f7 35 3b
       -0.0038976741 0.005776669 -0.007522309 0.0027766158
0000d0 41 e4 b3 3b bd 0f 9f 3b 58 02 53 3b df 9a 5f bb
       0.0054898565 0.004854171 0.0032197442 -0.003411941
0000e0 0f cd 2e bc 76 d4 b7 bb 52 4d 26 bb 1e ce 91 bb
       -0.010669007 -0.005610044 -0.0025375676 -0.00444962
0000f0 8f 85 87 bb c6 41 13 3b 4d a1 93 3c 8a ad 60 bc
       -0.0041357945 0.0022469624 0.01802125 -0.01371325
000100 b3 67 26 3c 58 2c 1c bc d1 28 11 bc 04 f8 9c 3a
       0.01015656 -0.009532057 -0.008859829 0.001197577
000110 e2 63 5a bc 13 e7 87 3a 85 d7 24 3c fa c3 15 3a
       -0.013329478 0.0010368548 0.0100611495 0.0005713102
000120 01 43 45 3c 8a db a1 bb 46 67 45 3c 7d 5a 8c 3b
       0.012039901 -0.004939501 0.012048548 0.004283248
000130 ac 2b 86 bb bc a6 c0 3b 9c ce 38 bb 9b 22 6f bc
       -0.0040945616 0.0058792513 -0.002819932 -0.014595653
000140 06 f0 c2 bb a4 61 b9 3b 0f c5 12 3c 66 a3 de 3b
       -0.005949023 0.0056573916 0.008958115 0.006794381
000150 3e 43 a2 3c f8 68 27 bb 48 28 6b 3c f5 e1 f8 3a
       0.019807454 -0.0025544744 0.0143528655 0.0018988239
000160 7f 6a 5b 3c 0f 8c 2f 3c e3 e8 20 bc d0 82 6b 3c
       0.01339209 0.010714545 -0.0098211495 0.01437445
000170 74 43 a3 bc 1a fb d3 ba b3 ce 24 3c 8c 38 8e bb
       -0.019929625 -0.0016172857 0.010059047 -0.004340237
000180 eb 48 0a bc c4 12 ae 3a 45 3b d0 38 76 0d 0f bc
       -0.008440237 0.0013280739 9.929253e-05 -0.008731237
000190 81 20 1b bc a6 2c 46 bc d5 26 63 bc ae 84 c9 ba
       -0.009468199 -0.012095606 -0.013864239 -0.0015374625
0001a0 86 0c 72 3c ed ff 2d 3c 3f 70 75 3b 1e 61 56 3c
       0.014773494 0.0106200995 0.0037450937 0.013084678
0001b0 5c bb f9 bb 38 45 09 bc e4 69 f2 3b fc 5c b9 3b
       -0.007621212 -0.008378319 0.007397877 0.0056568366
0001c0 d7 9c 4e 3a e6 f8 47 3b ab cd 01 bc b9 58 d8 39
       0.00078816473 0.0030513345 -0.00792257 0.00041264834
0001d0 ce 40 25 3a dd f9 c6 ba 47 f6 de 3b db a3 8f 39
       0.0006303907 -0.0015180666 0.006804261 0.00027397167
0001e0 6a a4 8e bb fc 4b cb ba a8 b7 82 3b d6 73 90 bb
       -0.004353096 -0.0015510316 0.0039891787 -0.00440834
0001f0 e8 4a 25 3b 5c c0 85 bb f5 ee 16 3c 3f c0 d0 3c
       0.002522165 -0.004081769 0.009212245 0.025482295
000200 4c e6 a0 bb 28 ab 23 bc 2a ba 74 bb 23 2a 0f bc
       -0.004910266 -0.009989537 -0.0037342408 -0.0087380735
000210 f1 a0 31 bc 4a 14 8a 3c 6b a9 2c bb e2 bb 45 3c
       -0.010841594 0.016855378 -0.0026346098 0.012068721
000220 7e 17 5b 3c e2 2a 48 bc 63 bc 05 ba 05 f5 0a 3c
       0.0133723 -0.012217255 -0.0005101619 0.008481269
000230 2d 30 a6 3a e4 e2 af bb 92 a6 23 bb 5a 89 0a 3a
       0.0012679152 -0.0053676236 -0.002497111 0.0005284749
000240 e3 d9 cc bb 99 8c 5f 3a 21 ad 35 3b 31 99 fc bb
       -0.00625156 0.00085277256 0.00277216 -0.0077086915
000250 e6 fd 23 3b 5f 7c 11 b9 9c 67 03 bc 8c 34 13 3c
       0.0025023161 -0.0001387461 -0.008020308 0.008984696
000260 74 61 b4 ba 7b 81 85 ba ec e5 f1 3b d1 90 3c 3a
       -0.0013761953 -0.0010185683 0.007382145 0.000719321
000270 90 37 5f bc 38 1d 4b 3b 58 e1 70 3c 58 13 4d 3c
       -0.013624087 0.0030992758 0.014702164 0.012516819
000280 76 af 8b 39 13 c7 50 3a cf bc eb 3b 62 56 49 bb
       0.00026642875 0.00079642347 0.0071941386 -0.0030721654
000290 e3 04 5b ba 1d e5 a0 3b e6 32 4f 3a 0c 76 d0 3a
       -0.0008354915 0.004910125 0.0007904008 0.0015904321
0002a0 2c a5 aa bb 7f f5 78 bb a4 b6 5f 3b 14 eb 89 3b
       -0.0052076783 -0.0037988124 0.0034135962 0.0042089317
0002b0 c7 67 12 bb 9f 20 04 bc d4 93 4f bc 5c 80 f8 bb
       -0.0022339688 -0.008064418 -0.012669522 -0.007583661
0002c0 13 20 a7 ba dc 83 f7 bb 74 c7 c8 3b 53 bf 90 bb
       -0.0012750648 -0.0075535607 0.0061272923 -0.004417339
0002d0 f7 32 90 bc df 4c 05 3c 39 a3 18 3c f3 2a 1d bc
       -0.017602427 0.008136003 0.009316259 -0.009592759
0002e0 58 1d 9a 3b b4 1c c6 39 41 11 34 3b 55 5c 67 3b
       0.004703205 0.00037786888 0.0027476104 0.0035302837
0002f0 67 74 d5 3b c9 a4 31 bc 3e 4a 89 bb fa fe 91 3b
       0.0065141204 -0.0108425105 -0.0041897586 0.0044554444
000300 85 f3 a6 3b 4c 71 25 3b 51 be 76 bc 7c c5 f2 3b
       0.0050949478 0.0025244532 -0.015060023 0.007408796
000310 9b 3d a0 bc 76 b6 f4 bb 13 16 87 3b 2e 94 25 3c
       -0.019560626 -0.00746804 0.0041225045 0.01010613
000320 28 a6 99 3b b6 2e 2e bc 41 94 d2 bb d0 7d 6c 3b
       0.004688997 -0.010631254 -0.0064263646 0.0036085732
000330 0c fd 08 b9 64 00 0e 3c 12 b0 7b 3b 03 35 4b 3c
       -0.00013064238 0.008667085 0.0038404507 0.012402776
000340 ea 99 3f bc 27 e3 bb 3a 18 95 03 3b 21 bc 77 ba
       -0.011694411 0.0014334664 0.002007788 -0.00094503356
000350 18 6f 2c bc 4a 7a 38 3b 80 82 9a 3b 0a 0c 91 bb
       -0.010524534 0.0028149062 0.004715264 -0.004426484
000360 a8 61 bc 3b 60 36 12 3c 8b 1e 1d bb a8 17 1b 3b
       0.005748946 0.008924097 -0.0023974504 0.0023665223
000370 7e fb 4b ba 1d f6 90 3c 96 32 8a bc b5 ac 83 ba
       -0.00077813107 0.017695481 -0.016869824 -0.0010045978
000380 3d 7e 31 bc 8f 5a 2a 3b c3 7d 6e 3b d4 91 4a 3c
       -0.01083332 0.0025993919 0.0036390878 0.01236387
000390 18 3c e9 ba 14 36 8d 3c 2a 5b 89 bb ad 19 4d bb
       -0.0017794399 0.0172377 -0.004191776 -0.0031295822
0003a0 04 f3 ab ba e3 b6 14 bc bb a4 1d bc 42 1d 61 bb
       -0.0013118689 -0.009076807 -0.009621794 -0.0034349714
0003b0 2e 56 50 bc 8e 01 09 bb f5 88 34 3b 0e aa 3b 3c
       -0.012715859 -0.0020905468 0.0027547453 0.011454118
0003c0 b0 b7 ed 3b bc c3 36 bc a4 bf 72 bb a3 87 aa 3b
       0.0072545633 -0.011155065 -0.0037040496 0.0052041574
0003d0 53 df 4c 3c a7 9e 11 bc e9 33 16 3b 83 ec 83 3b
       0.0125044165 -0.008887923 0.0022919124 0.004025997
0003e0 48 45 de bb 55 24 6c 3c fb 8b 1b bc 2d 25 99 3c
       -0.0067831613 0.014412959 -0.009493823 0.018694485
0003f0 11 4b 95 3c 9d ef ad 3c 4c c5 2b 3c 93 90 5f bc
       0.018224271 0.02123242 0.010484051 -0.013645309

action_model._discrete_distribution.branches.0.bias f4 [3]
000000 98 40 f7 b6 45 80 91 38 94 1f f9 38
       -7.3686933e-06 6.938031e-05 0.00011879127

action_model._discrete_distribution.branches.1.weight f4 [2, 128]
000000 0d e2 3d bb 58 9b cf 3b 56 aa 6a 3c aa df e8 3b
       -0.0028973848 0.006335657 0.014322838 0.007106741
000010 b8 82 24 bc 17 21 25 bc 58 be 07 3b ba 0b 21 3c
       -0.010040931 -0.01007869 0.002071282 0.009829456
000020 0a 1b ac 3b 06 3c 44 3c ae 02 c8 bb 55 36 3d 3b
       0.0052522467 0.011977201 -0.006103835 0.0028871496
000030 fb 0d 5e bc 62 54 85 3b 61 09 37 b8 37 23 a2 bb
       -0.013553138 0.004068897 -4.3639335e-05 -0.0049480456
000040 7c 2d ac bc 91 a7 dc 3b cd e3 96 3b 07 52 17 bc
       -0.021017782 0.0067338427 0.0046047927 -0.009235865
000050 46 b1 f3 bb fe 08 39 3b f9 8f 0d ba ea ed 76 3a
       -0.007436904 0.002823412 -0.0005400177 0.0009419607
000060 ee b8 9c ba d8 5d 9a bc 2c 39 b2 bb f8 3c 64 bb
       -0.0011956969 -0.018843576 -0.0054389443 -0.003482638
000070 8d 6f 3c bc b9 47 b3 bb 52 ac 97 3b 6e 5c b4 3b
       -0.011501205 -0.0054711965 0.0046286965 0.0055041825
000080 be eb 81 3a 4c 64 58 bc ed da a7 3a d6 42 97 bc
       0.0009912176 -0.013207506 0.0012806334 -0.018464487
000090 5d 20 ad bb 22 ef 5b ba 64 27 13 3b c1 c9 40 bc
       -0.005283399 -0.00083898206 0.0022453899 -0.011766852
0000a0 4d c3 39 3c 4d bf 7e bb 82 d7 84 3c 3b b6 92 b9
       0.011338067 -0.0038871348 0.016216043 -0.00027983062
0000b0 c8 be 79 3c 4a 86 0a bc 4e a0 52 bb cf 0e b5 bc
       0.01524324 -0.008454869 -0.0032139006 -0.022101788
0000c0 8e 40 c0 bb 66 44 99 3b 2f bc 40 ba 60 71 15 bc
       -0.0058670705 0.004677343 -0.000735226 -0.009121269
0000d0 f8 0b b5 bb ff bc fe bb 9f 1f 64 bc 57 91 31 3c
       -0.0055251084 -0.007773995 -0.013923555 0.010837874
0000e0 9b 50 80 3b 34 3b c8 bb 25 3e b4 3b 68 9e 28 ba
       0.003915859 -0.006110573 0.0055005723 -0.0006432296
0000f0 16 23 2f 3c 65 e0 e0 b9 cb a0 63 3a d7 ff 5a bc
       0.0106895175 -0.00042891796 0.0008683323 -0.013366661
000100 a1 eb b9 bb 29 e8 e3 3a 54 69 01 bb 80 b3 f0 bb
       -0.005673841 0.0017387915 -0.0019746618 -0.007345617
000110 cd a0 52 3a dd b8 e1 ba 57 8f 22 3b b1 4a 9f bc
       0.00080348254 -0.0017221231 0.0024804675 -0.019444795
000120 e4 aa c1 3a 41 7d 94 3b 78 be 4b 3b 6e 51 8f 3b
       0.0014775661 0.004531533 0.003108887 0.004373721
000130 c4 35 a2 3b 8d f2 60 bc a4 17 bb 3a 07 ba 8e 3c
       0.004950257 -0.013729704 0.0014274013 0.01742269
000140 31 39 b5 b9 f6 55 aa 3a c2 ba 8b bb 44 c8 86 ba
       -0.0003456562 0.0012995589 -0.0042642066 -0.0010283072
000150 8b 1a 8b bb 2e 52 e1 3b d7 65 ea ba 89 7f 35 3c
       -0.0042451075 0.0068762517 -0.0017883134 0.01107777
000160 4d 41 e8 3b b1 3c a3 3c 8c 1b 57 3c 07 b5 c0 b9
       0.0070878626 0.0199264 0.013129126 -0.0003675597
000170 bc 0c 3f 3c 58 fc 3c bc a4 cf 88 bc 54 1a c3 3b
       0.011660751 -0.011534773 -0.016700573 0.0059540663
000180 cc e8 f5 bb 7a fb b2 3b a5 30 c6 3b df 08 f7 3b
       -0.007504558 0.0054621072 0.0060482793 0.0075388993
000190 31 37 ad 3a 48 54 82 3c 0b 3d 25 3c a1 ef 03 3c
       0.0013215301 0.015909329 0.010085355 0.008052737
0001a0 49 d4 7f bb 68 eb b5 bb b1 6c 9c bc 48 f4 9b 3b
       -0.0039036444 -0.0055517443 -0.019094797 0.004759345
0001b0 60 d6 a1 3b 10 43 92 3b e3 0e b6 3a 67 1b a6 3b
       0.0049388856 0.004463561 0.0013889935 0.0050691846
0001c0 24 bf f6 3b 98 47 93 3b 37 a7 8c bc d3 26 a1 bb
       0.00753011 0.0044946186 -0.017169578 -0.0049179583
0001d0 f7 bc 43 3b 6b c2 e2 3b d9 0d 51 3c db 91 06 ba
       0.002986727 0.006920149 0.012759649 -0.00051334285
0001e0 6a 9c 76 3b d3 f8 89 bb 02 21 32 bb e4 b5 7e 3c
       0.003762985 -0.0042105704 -0.0027180319 0.015546296
0001f0 b7 c5 09 bb c8 de 9b 3c 94 1d 2a 3c 50 63 3b bc
       -0.0021022388 0.019027129 0.010383029 -0.011437252
000200 07 1e 44 3b 61 8e cc 3b e2 95 8c 3c 9a 5a 0f 3b
       0.0029925124 0.006242559 0.017161313 0.002187407
000210 32 dc a0 bb c1 6b ee 3b 31 a6 cb 3b 99 70 84 ba
       -0.004909062 0.007276029 0.00621488 -0.0010104357
000220 50 20 66 ba 2f 0b 15 bc 21 cc 5d bc 86 d3 42 bb
       -0.00087786186 -0.009096905 -0.013537438 -0.0029728129
000230 c7 37 b2 3b 64 2d 8e 3c b1 f7 38 bb 6e 44 07 bc
       0.005438778 0.017355628 -0.0028223807 -0.008256061
000240 cc 8f 3e 3c 13 83 59 3b 3c 5d 91 bb 36 67 b9 ba
       0.0116309635 0.0033189699 -0.004436163 -0.0014145139
000250 2f ea f9 3b 0a 92 00 3b 5f 13 6e bc fa 22 f6 3b
       0.007626794 0.0019618296 -0.014530986 0.0075114937
000260 2f b6 80 b9 cc 08 0b 3c 3f 3d b4 ba ed 28 9c 3b
       -0.000245498 0.008485984 -0.0013751163 0.004765621
000270 d6 01 c7 bc bc 62 41 3c 38 26 c7 bb 21 8a e9 bb
       -0.024292868 0.011803325 -0.006077554 -0.007127062
000280 c2 0c 07 bc b4 fd 2f bc d8 16 49 3b ee af 29 bb
       -0.008242788 -0.01074164 0.0030683782 -0.0025892216
000290 76 e6 c5 3b de ce 81 bb 38 37 49 bc 57 d5 1d 3c
       0.006039436 -0.003961428 -0.012281232 0.009633384
0002a0 ab 76 cc bb 1b 74 41 bc 2b 6f f2 bb 6f a8 2b 3b
       -0.0062397323 -0.011807467 -0.007398506 0.0026192924
0002b0 ba b0 6f bb 9c 04 4e ba 22 ac e4 3a 1b 7f a0 3c
       -0.0036573843 -0.0007858963 0.0017446319 0.019591859
0002c0 99 d9 4c bc df 9f 82 3c dd 41 27 bc 79 d8 11 3c
       -0.012503051 0.015945373 -0.010208574 0.008901709
0002d0 b3 96 1b 3c 51 86 c0 3a f7 29 cd ba c2 c6 09 bc
       0.009496379 0.0014688467 -0.0015652765 -0.008409204
0002e0 b2 4f bc bb 7e c2 ee bb 2f c2 63 3b 24 8e c4 bb
       -0.005746805 -0.007286369 0.0034753194 -0.00599839
0002f0 e0 94 e6 bb 68 0f 9a bb d2 88 a1 ba 0c 27 44 3c
       -0.0070367903 -0.0047015436 -0.0012324101 0.0119722
000300 03 1f 34 3c c6 8e 37 3c 8a 38 83 ba d2 c4 e5 3b
       0.010993722 0.011203473 -0.0010011357 0.007011988
000310 fb d4 ed 3b bd d3 d1 ba 58 62 0d 3c 7b 0d 75 bc
       0.0072580553 -0.0016008537 0.008629404 -0.014956827
000320 15 96 21 3c 1f f6 1e 3c 0f a2 57 bc fb 6f 4e 3b
       0.0098624425 0.0097022345 -0.013161196 0.003149985
000330 0b 0c e8 bb 15 0e 9c b9 25 90 2d 3c 5b a5 0b bc
       -0.0070815138 -0.0002976513 0.010593449 -0.008523311
000340 d5 c1 ab 3b 09 c9 a5 bc a8 91 f5 bb 2b ec 67 3c
       0.0052416124 -0.020237463 -0.00749417 0.014155428
000350 61 e6 2e bc d2 80 d2 3a 13 75 03 3c 46 5a e4 3b
       -0.010675044 0.001606012 0.008023518 0.0069687692
000360 f2 a0 03 b8 5e 84 12 3c 5a 24 70 bb f4 27 84 bb
       -3.1382726e-05 0.008942692 -0.003664276 -0.004033083
000370 d4 06 e5 3b 6d 99 10 bc 83 3e 95 3a f6 36 47 bc
       0.0069893394 -0.008825642 0.0011386428 -0.0121591
000380 c6 be 96 3b 70 54 7f 3b e2 ea 81 3b f6 a9 ad 3b
       0.0046003787 0.003896024 0.003964768 0.005299802
000390 99 9a 11 bc 17 11 79 bb 54 b2 74 3b cb cc 38 3b
       -0.008886957 -0.003800457 0.0037337737 0.0028198238
0003a0 52 e1 31 bc 25 72 c3 3b c4 18 86 3b cf 90 1a 3b
       -0.010856943 0.005964535 0.0040923078 0.0023584848
0003b0 3f 6e 4c bb 8c fa d5 bb e3 48 21 bc 2f 31 f9 3a
       -0.0031193641 -0.0065301117 -0.009844038 0.001901185
0003c0 04 ba 89 bc 65 ef d9 bb 31 1a 77 ba a2 e8 83 39
       -0.016812332 -0.0066508525 -0.0009426205 0.00025159592
0003d0 c7 03 40 bc ee f2 13 bb 3e 21 ea bb 1d 3c 46 3c
       -0.011719651 -0.0022575217 -0.007145076 0.012099293
0003e0 ab 03 53 ba 44 62 15 bc 8f b8 e9 ba 93 80 a7 bc
       -0.0008049558 -0.009117667 -0.0017831492 -0.020447051
0003f0 e1 b8 46 bb b3 eb 19 bc 06 5d a8 bb 8b 84 84 3c
       -0.0030322599 -0.009394574 -0.0051380424 0.016176483

action_model._discrete_distribution.branches.1.bias f4 [2]
000000 66 e1 a5 b9 50 e1 a5 39
       -0.00031639187 0.00031639123

action_model._discrete_distribution.branches.2.weight f4 [2, 128]
000000 aa 59 56 bb 09 60 9f bc 30 c9 55 ba df c3 fc 3b
       -0.0032707253 -0.019454973 -0.00081552844 0.0077137793
000010 07 6d a2 3b a1 48 8f 3c 76 44 c2 ba b5 e9 78 3b
       0.0049568447 0.017490687 -0.0014821428 0.0037981097
000020 70 58 eb bc 6c ec 93 3b 59 61 b6 3b 30 74 f5 3b
       -0.028728694 0.0045142677 0.005565804 0.0074906573
000030 38 8e 21 bb a4 ba 53 bc 77 2f 7b bb 06 1b 7f ba
       -0.002465142 -0.012922917 -0.0038327852 -0.0009731505
000040 18 89 48 bb 4f 3c cd ba e2 dd 9e ba e3 d1 62 3b
       -0.0030599292 -0.0015658232 -0.001212057 0.0034609966
000050 8b 70 5d bb 3e 3d 31 3b 13 a5 1a ba 21 69 83 3c
       -0.0033789005 0.002704456 -0.0005899232 0.01604134
000060 67 11 3c 3c db 36 36 bb f6 03 a6 bc aa 88 1a 3c
       0.011478758 -0.0027803693 -0.02026556 0.009431997
000070 87 cb 24 3b 9e 4f 34 bc 6c e3 15 3c c6 76 28 3c
       0.0025145726 -0.01100531 0.00914846 0.010282224
000080 b1 7a 51 bc 99 89 de 3a 2a 4e 6a 3b ef 2a 8d bc
       -0.0127856 0.0016978263 0.0035752156 -0.017232386
000090 f6 5e 85 3c 1b a5 0a 3c bf 82 5a bb 95 5a 03 3b
       0.016280632 0.008462216 -0.003334209 0.0020043005
0000a0 9d dd 6d bb ec 72 ea bb 54 f0 03 3c ae 02 16 bc
       -0.0036295422 -0.007154813 0.008052904 -0.009155912
0000b0 52 14 f4 39 6d 19 68 bc 6f 76 a5 3b 74 42 68 bc
       0.00046554446 -0.014166218 0.005049519 -0.014176
0000c0 38 f4 b1 3c 38 8f 69 bb a3 2e 7c bc fd a9 4f bc
       0.021722898 -0.0035638344 -0.015391978 -0.012674806
0000d0 05 56 74 bb d9 58 44 3b 1e 36 3d bc 6c a7 17 3a
       -0.0037282717 0.0029960184 -0.011548547 0.00057851407
0000e0 1b e5 65 bb 3c ef de bb 1b 29 6a 3c 90 c4 2d bc
       -0.0035079184 -0.0068034213 0.014292027 -0.010605946
0000f0 28 53 75 bb c5 81 9d bb e1 da aa bc dc b7 37 3a
       -0.0037433598 -0.0048067295 -0.020856323 0.0007008293
000100 c8 7f 54 bc 72 8b a6 bb 81 71 de bc dd c4 1f bc
       -0.012969919 -0.005082541 -0.027153732 -0.009751526
000110 df c0 00 bc 39 03 6d 3c d3 8a 5d bc b9 95 c6 bb
       -0.007858484 0.0144661 -0.013521868 -0.006060329
000120 c0 56 00 bc 83 63 2e bb 40 3b f5 3b ae 53 a9 bb
       -0.007833183 -0.0026609607 0.00748387 -0.005167446
000130 e4 64 89 ba 71 fc 74 bc cd 9c 72 3b 15 34 bd 3b
       -0.0010482338 -0.014952765 0.003701973 0.005774031
000140 4e 96 5e 3b 8f 31 7a 3b 3d 85 55 3c d8 69 5c bc
       0.00339641 0.0038176512 0.013032255 -0.0134529695
000150 86 42 ac 3b 58 b6 a8 3b e2 a0 03 bc c7 f5 13 bc
       0.0052569536 0.00514869 -0.008033963 -0.009030766
000160 3d 65 2e 3c 1e 58 cc bb 97 33 7e bb de bf 95 3a
       0.010644254 -0.0062360903 -0.0038788074 0.0011424979
000170 79 3a 2a bc 25 40 2c 3c 8c 10 08 bb da 13 65 bb
       -0.0103899175 0.01051334 -0.0020761816 -0.003495446
000180 bd 64 3e 3a 00 76 80 bb 9a 3f 17 bc a5 1a 89 3b
       0.0007262936 -0.0039203167 -0.009231472 0.0041840845
000190 5c 34 82 38 20 81 53 bc 9f 3e 3c ba d0 35 de 3b
       6.208636e-05 -0.012909204 -0.0007180962 0.0067813173
0001a0 5d 01 72 bc 11 91 0d 3c ff 66 0c 3b 27 e7 ce bc
       -0.014770833 0.008640544 0.0021423695 -0.025256706
0001b0 07 91 75 3b 7a 18 77 bc b5 6a 85 b9 18 4b bb 3b
       0.0037470476 -0.015081519 -0.0002544724 0.005715739
0001c0 19 fb 50 bc 13 8a 1c bc 14 d7 e4 37 80 14 56 ba
       -0.012755179 -0.009554404 2.7279872e-05 -0.0008166507
0001d0 6c 32 03 3c 85 88 a5 3b ac b0 fe 3b a8 6b e3 ba
       0.008007627 0.005051675 0.007772526 -0.001735081
0001e0 ee 40 d8 3a 13 f5 44 3b 36 66 f8 3b 8b a6 6b 3b
       0.0016498843 0.0030053302 0.007580544 0.0035957422
0001f0 9c eb 1b bb fc 7b 42 3c 3e 61 a8 3b b1 0f 83 3c
       -0.0023791557 0.0118703805 0.0051385453 0.015998693
000200 22 14 8d bb fc d5 47 bb ea d3 bd 3a d4 3e a5 bc
       -0.0043053785 -0.0030492535 0.0014482711 -0.02017156
000210 b9 ac 09 bb 31 55 47 3c ac 55 6d bb c7 b6 e4 bb
       -0.0021007492 0.012166307 -0.0036214394 -0.0069797966
000220 a8 37 9e 3a e0 e4 9e 3c cf 89 49 3c 44 6e 7c 3b
       0.001207103 0.019396245 0.012300923 0.0038517872
000230 a5 85 6b bb 6c 9b cd ba 75 45 e0 bb 0f d1 80 3b
       -0.0035937813 -0.0015686578 -0.0068442174 0.0039311717
000240 c5 73 4b 3c 99 91 c4 3b 26 1f 50 3b 3d 76 4b bb
       0.012417738 0.005998802 0.0031756847 -0.0031045817
000250 78 db 32 3c 46 14 21 bb 28 7b ba bc f2 8e 11 3c
       0.010916583 -0.0024578734 -0.022763804 0.0088841785
000260 8e 8a 0c 3c cb 45 89 ba c9 05 0a 3c a9 30 9f 3a
       0.008577956 -0.001047307 0.008424231 0.0012145239
000270 c8 b9 53 3c b4 4b 04 3c 01 2a 1d bb e8 b7 61 3c
       0.012922712 0.00807469 -0.0023981335 0.013776757
000280 95 41 3c bb 22 16 55 3a 3a 6c f2 bb 2f 15 e1 3a
       -0.0028725613 0.0008128603 -0.0073981555 0.0017172451
000290 58 ed c9 3a 3d 16 66 ba 19 c3 fd 3a b9 92 74 3c
       0.0015405817 -0.00087771175 0.0019360512 0.0149275595
0002a0 e8 01 44 3c 49 58 b7 3b 91 21 a0 3b 4e 17 12 bb
       0.011963345 0.005595241 0.004886814 -0.0022291723
0002b0 6e 9f 58 bc 8b 34 6e ba 9b fd 92 bc 7e a4 89 3a
       -0.013221605 -0.0009086809 -0.017943194 0.0010501293
0002c0 8a a3 e9 bb e6 be 23 3c 44 60 36 3b ea fa a9 3b
       -0.007130091 0.009994244 0.0027828375 0.005187382
0002d0 fb 90 b3 3c 35 d0 de 3b 89 1e 80 bb 13 0f 69 3a
       0.021919718 0.0067997226 -0.00390989 0.0008890491
0002e0 1d 9c 32 bb 05 6c 64 3c a3 71 0a b9 61 e9 e5 3b
       -0.0027253695 0.0139417695 -0.00013203039 0.0070163463
0002f0 43 17 9e bc b6 9d 80 bc b3 b0 df 3b 59 6b 2f bb
       -0.019298201 -0.015700202 0.006826484 -0.0026766865
000300 ef 22 e2 bb c1 a6 2a bb c6 38 01 bb 1b 0f e3 bb
       -0.006901137 -0.0026039334 -0.0019717677 -0.006929291
000310 48 17 69 3b be a3 db 3b d1 17 ba ba 88 c0 0a 3b
       0.0035566855 0.006702869 -0.0014197772 0.0021171886
000320 4f d9 df 3b 3e 79 39 bc ae 7c 91 3c c0 72 15 3b
       0.006831325 -0.01132041 0.017759647 0.0022803992
000330 4d 3a 91 bc 8b 6f 2d bc 5a 65 17 bb 94 8b 3c bc
       -0.017727995 -0.010585676 -0.0023101182 -0.011507887
000340 46 7a 82 ba cf ab 70 bc f9 a2 bb bc 8c 9e 41 bb
       -0.0009954653 -0.0146894 -0.02290486 -0.0029543964
000350 68 a7 17 bc ae 88 02 3c 56 74 34 bc 3a 82 cd bb
       -0.009256221 0.007967157 -0.011014065 -0.0062716277
000360 7c f0 33 3c 6d fd af bb e6 a5 3c 3c 07 d2 29 bb
       0.010982629 -0.005370787 0.011514163 -0.002591254
000370 28 34 13 bc f7 f5 38 ba 9a 3a 46 3b 0e c6 da bb
       -0.008984603 -0.00070556946 0.0030247332 -0.006676442
000380 95 87 cb 3a 11 56 84 3c a4 33 b3 3b dc 87 0a 3b
       0.0015528077 0.01615432 0.0054688025 0.0021138107
000390 64 78 bc 3b 25 35 a7 3b 0f 85 6d 3c c2 25 8e bc
       0.0057516564 0.005102771 0.014497056 -0.017351989
0003a0 e7 6d ab 3b b8 93 4f 3b fc c7 f2 3b a2 07 3b bc
       0.0052316072 0.003167374 0.007409094 -0.011415394
0003b0 f8 b2 4d 3c be ec f9 bb a0 b3 00 bc 6e a0 1a 3c
       0.0125548765 -0.007627099 -0.007855326 0.0094376635
0003c0 74 d1 15 bc fb 38 78 3c da 05 0f 3c 96 69 0e 3b
       -0.009144176 0.015150304 0.008729422 0.0021730415
0003d0 22 a5 87 3a 71 5c 36 3c d1 b2 a4 bb 86 b5 29 ba
       0.0010348896 0.011130438 -0.0050261994 -0.00064738875
0003e0 91 e9 f5 bb 6c 43 82 bc f4 19 0e 3c 28 46 8a 3b
       -0.00750465 -0.01590129 0.00867318 0.004219789
0003f0 2b 5b 4d 3b 63 02 6e bc c5 76 b0 3b 41 8b 83 3c
       0.0031334858 -0.014526936 0.005385252 0.016057612

action_model._discrete_distribution.branches.2.bias f4 [2]
000000 41 c0 84 38 56 c0 84 b8
       6.3300606e-05 -6.330076e-05
