results/Test2/Hero Knight Behavior/Hero Knight Behavior-272611.onnx (onnx, 78523 bytes, 12 tensors)

network_body.linear_encoder.seq_layers.0.weight f4 [128, 5]
00000000: decc 2fbe dc47 423e 9655 103f 9cb8 4b3e
00000010: 7fa5 9f3e 28c5 b33c 3ec1 82be b43a a43e
00000020: 0946 22be 3e25 4cba dced 323e 55d2 333e
00000030: fc0b 833e 2435 a33e c33e 29be e9ab c1be
00000040: 911e 25bd 28ac a8bd 9271 e7bd d8ce c4bd
00000050: d140 8d3d 8fb3 39be dd83 613e 0758 31be
00000060: 08fc 953e 2e01 a1be 8cef 153e bac4 09be
00000070: 5101 bcbc 7d95 34bf dd6f 91bc f67c 8b3d
00000080: 80eb 30bf f9a0 f03e 4162 3a3d 6a55 7ebe
00000090: 09de 843f bed6 a53e 5c62 dfbc a386 27bf
000000a0: 97a7 da3b bbe8 85be c413 e83e f402 a0be
000000b0: 3762 1d3e 1860 02bf 2325 1a3f 9dd9 e5bd
000000c0: dc0d 5a3e aa59 00bb c66b 51be 8186 f2be
000000d0: fc79 ef3e 7024 10bf 6f09 c8bd 09a2 1abe
000000e0: c407 6dbf 1e96 b43e 9340 1d3f 72d6 fe3e
000000f0: 3b7c 56be a598 413e 5f46 4d3d 599b 263f
00000100: e4d5 de3f 5308 22bf f90b 15bf 4cdf 343f
00000110: 7a0e 823f 270a ba3e 712a 983e f2ce 2cbf
00000120: 8dc9 523e 03c1 04bf 6aa4 86be 575e bebd
00000130: 18a3 5ebe 7d02 193e ee9a 833e d33a b63e
00000140: 8a2b 3cbd de3e 24bd f5ac 4f3c 5738 7dbe
00000150: 8882 373f 98a7 2e3e 4d33 bebd 1a6f 3b3d
00000160: 9710 a8bc 61d6 f2be 1355 2f3e 22a7 e0bc
00000170: ecb9 a2bd 0525 febd 0dd6 9dbe 8bf9 f6be
00000180: e725 38be 9d64 083f 1b18 93be bec0 7c3e
00000190: 2d90 0d3d a7c8 f93e cbcd a6bf d5bb d43e
000001a0: 95bd e9be 28ad 81be d292 a7be 9a42 82be
000001b0: 0d0a 73bd b5ab 2cbe a2c2 7fbf cffc b7be
000001c0: 82ba 1f3f feee 51bf 1b12 c8be 3d7c 92be
000001d0: 3221 00be 7536 cebe d091 c63e 99c5 bebe
000001e0: e0a7 763e c019 23bd 642d 593d 0843 1cbf
000001f0: 7ee3 0bbf 7262 933c 0329 de3e 2547 46be
00000200: 7cb6 abbe 6a97 653e d7dc c13e 4cdf 243f
00000210: 7ec2 f03d 99d0 0bbd c524 4d3e 672f 5c3f
00000220: ab2e b63e ea4f 163f e186 473e d3d6 f03e
00000230: f928 443d e972 84bd 82c8 083f cd03 393c
00000240: fdf1 89be df81 89be 1da7 16bd c54b b73e
00000250: 86d5 a4bd 6ca1 78bf 1fa6 7e3e baad ca3e
00000260: 5a43 2e3c 514b f73d 35ad 27be b53f 983e
00000270: 83ab a2be 2e74 97be 4c0a 9a3e 7f1c 163e
00000280: 7e3c 55bc 2313 f0be 102c 763e ee1c 4abc
00000290: 74ad ca3e 3347 563e 2fd2 c2bd ed54 843e
000002a0: 2770 04be ff5c 8dbd 0352 813e 9a5f 86bd
000002b0: 352b be3e 07dd e13d 30d1 34bd 89d9 72bf
000002c0: 5a8c c83e 1259 b4be 5f24 173f 31d1 013d
000002d0: c60d 9d3e 6a12 8fbe 1df6 e43e 936b cc3d
000002e0: 11e6 9fbe 030b d6be d7d5 b8be 2622 f73e
000002f0: b734 053f 4364 9bbe 7277 a2be 7620 063e
00000300: bc1b 853e 63fd 6cbc dd74 993e 4030 1c3f
00000310: 01d4 e6be c434 9bbd 0972 a63e 813b 273d
00000320: c043 c5be dac1 51bf 05ff 18bf 5c71 26be
00000330: 6630 773e 83b3 233f c48e 86be 0ed1 edbd
00000340: 229a 65be 7d74 c4bd 1a0c 103f 049a 47bd
00000350: c2e5 323e d83d 363f eda4 2d3f f7e1 78be
00000360: c6c9 25bf f8c1 02c0 44f7 633d 14bf 68be
00000370: 2430 e33e dd52 b4bd a37d 313e 22ae 953e
00000380: 02f2 ddbe 7769 d5be af87 02bf 4e11 24bb
00000390: 48e0 e0be 98d1 4fbe 33e1 7fbf 3c6a ddbd
000003a0: 22f8 e7be 7c79 acbd 9d55 e13e eae4 32bc
000003b0: 86fd ce3c 057a 663f 0478 293e 31ae 8abe
000003c0: 0887 443f 42b3 40be 6dfb 893c b215 33be
000003d0: 0f84 d8bc bea2 213f e6b4 59bf de37 03bf
000003e0: ad5a 13bf eb53 dfbe 3e55 913e 282f aa3e
000003f0: 06f1 aa3e 2cd2 bbbe f854 70bf 182d 76be
-0.17167994 0.18972725 0.56380594 0.19894642 0.3118095 0.021944597 -0.25538057 0.32076037
-0.15847029 -0.0007787532 0.17473549 0.17560704 0.2559508 0.3187648 -0.16527848 -0.3782647
-0.040312354 -0.08235961 -0.11300959 -0.09609765 0.068971284 -0.18134902 0.22022958 -0.17318736
0.29293847 -0.31446213 0.14642161 -0.13453951 -0.022949846 -0.705406 -0.017753536 0.06810944
-0.69109344 0.46997812 0.04550386 -0.2483727 1.038026 0.32390398 -0.027268581 -0.65439814
0.0066728103 -0.26154122 0.4532758 -0.31252253 0.15369497 -0.5092788 0.60212916 -0.11223147
0.2129435 -0.0019584694 -0.20451269 -0.47368243 0.46772754 -0.563056 -0.09767424 -0.15100874
-0.92589974 0.3527078 0.6142666 0.49772984 -0.20945828 0.18905886 0.05011594 0.6508079
1.7409024 -0.6329395 -0.58221394 0.70653224 1.0160668 0.3633587 0.2971988 -0.67503273
0.20584698 -0.5185701 -0.26297313 -0.09295338 -0.21741903 0.14942355 0.2570414 0.35591754
-0.04593996 -0.040099017 0.0126755135 -0.24728523 0.7168355 0.1705612 -0.092871286 0.04576025
-0.020515723 -0.47429183 0.17122297 -0.027423445 -0.07945618 -0.12409405 -0.3082737 -0.4823726
-0.17983209 0.53278524 -0.2872933 0.246829 0.034561325 0.48785898 -1.3031553 0.41549554
-0.45652452 -0.2532742 -0.32729203 -0.25441438 -0.059335757 -0.16862376 -0.9990636 -0.35935065
0.62393963 -0.820053 -0.39076313 -0.2861041 -0.12512663 -0.40275922 0.3878312 -0.3726013
0.24087477 -0.03981948 0.053021803 -0.6103978 -0.54644 0.017991278 0.43390664 -0.19363077
-0.33537662 0.22421041 0.378638 0.64403224 0.117558464 -0.03413448 0.20033558 0.8600983
0.3558248 0.5871569 0.19485046 0.47038898 0.047890637 -0.0646723 0.5343095 0.01129241
-0.26942435 -0.26856896 -0.036780465 0.35799995 -0.08048539 -0.9712131 0.24868058 0.39585668
0.010636175 0.12074912 -0.16374667 0.29736105 -0.31771478 -0.29580826 0.3008598 0.14659308
-0.013014911 -0.468896 0.24040246 -0.012335999 0.3958546 0.20925598 -0.095127456 0.25846043
-0.12933408 -0.06902503 0.25257882 -0.06561203 0.3714234 0.11028486 -0.04414481 -0.9486318
0.3916958 -0.35224205 0.5903987 0.03169364 0.3067457 -0.27943736 0.4471902 0.09981456
-0.31230214 -0.41805276 -0.36100647 0.4826824 0.5203356 -0.3034993 -0.31731755 0.1309832
0.25997722 -0.014464709 0.29971972 0.61011124 -0.4508362 -0.075784236 0.32508877 0.04082823
-0.38528252 -0.8193642 -0.5976413 -0.1625418 0.24139556 0.6394579 -0.26280797 -0.1161214
-0.22422078 -0.09592531 0.56268466 -0.048730865 0.17470458 0.71188116 0.6782978 -0.24304949
-0.64761007 -2.043089 0.055655733 -0.2272914 0.44372666 -0.088048674 0.17333083 0.29234415
-0.433487 -0.41682026 -0.50988287 -0.0025034728 -0.43921113 -0.20294797 -0.99953 -0.10811278
-0.45306498 -0.08421609 0.4401063 -0.010918835 0.025267374 0.9002994 0.16549689 -0.27086022
0.7676854 -0.18818381 0.016843522 -0.17488745 -0.026430158 0.6313895 -0.85041654 -0.5125712
-0.57560235 -0.43618712 0.28385347 0.33239102 0.3338701 -0.36683786 -0.9387965 -0.2404064

network_body.linear_encoder.seq_layers.0.bias f4 [128]
00000000: 2028 853b 7277 873a 84d1 31bc 2559 40ba
00000010: 6264 aeba 1163 5e3b e9ce cb3a 8e9c 293b
00000020: af62 bc3a 7470 c63b 5449 923b 12e1 e039
00000030: 6552 43bc 47ae ebba f6c1 f3b9 0ac3 babb
00000040: 7bec 59bc 45fa a0bb db5b 403b 76b5 f5ba
00000050: a044 a8b8 f013 ebba e53d 37bb 2e0a 6c3b
00000060: 431c 3539 bb9f 3dbc 4919 833a 0e2f 43bb
00000070: 1a30 70bb 856a a43b 9af9 92ba efe3 82bb
00000080: 884f 9ebb c8af 963b 6c9d 0dbb ab02 713a
00000090: 6c82 10b9 7063 663b f073 85bb d36e 333c
000000a0: 114c 1e39 121a 513a 904f 2bbb eb8f 4fba
000000b0: 9b45 eb3b 54db 493b bdf6 3bbb 407b 42bb
000000c0: ae1a fabb 2d06 83b0 cf73 47ba 5326 de3b
000000d0: 8747 cd3b a11b 413c f94f 09bb 0d0b 45bb
000000e0: 31e1 dcb9 4da5 1abb 4bab 8b3b e8c7 08bb
000000f0: 05cf 6ebb 6b5e 6dba a5d4 b03b b74b a9bb
00000100: 97e4 403b 1f74 293c 6893 95bb 39c4 a6b9
00000110: 909a d1bb 981a daba bb93 b0ba 9b53 d93a
00000120: 11c4 15bb 69a7 7aba 8986 83ba eef3 48bb
00000130: a996 29bb f73c a1ba 57eb 28bb ae86 a2bb
00000140: 4874 3bbb 1ab8 afbb 34d7 f2ba 6351 06bb
00000150: f8c1 9abb 9995 d53a dd57 adbb 7a0b 7bb0
00000160: 4693 8bbb 8f92 783b 112d b13b eee3 aaba
00000170: 01d5 393b c0f5 64ba 5412 c6bb b2b6 cf3b
00000180: a32d dbbb 4136 d0bb 4a18 88bb cb1e 0f3c
00000190: af67 39bb 7d2f 48ba 6b07 113b 4d7d a5ba
000001a0: 2490 0cb9 4c6a dcba fffd 413a 64c4 15bb
000001b0: d064 6837 b321 d8b8 8f54 14bb 85ac 4c3b
000001c0: d127 89ba 3aa7 2abb ed2d ccbb f583 d4ba
000001d0: 2f13 86bb 09f7 c2ba 0233 2a39 e203 1c3b
000001e0: 983d 283a 9672 d539 51f9 0d3b 4955 64bb
000001f0: 173e 53bb dd3c f5b9 9c74 c2bb 4b06 85bb
0.004063621 0.001033528 -0.010853175 -0.00073375023 -0.0013305063 0.003393356 0.0015549335 0.0025880667
0.0014372672 0.006055886 0.004464308 0.000428923 -0.0119215 -0.0017981016 -0.00046493084 -0.00569952
-0.01330101 -0.004912647 0.0029351625 -0.0018746096 -8.023647e-05 -0.0017935019 -0.0027960476 0.003601681
0.00017272033 -0.011573727 0.0010002042 -0.0029782685 -0.0036649765 0.005017581 -0.0011213303 -0.003994457
-0.004831258 0.0045985915 -0.0021608723 0.0009193818 -0.00013781496 0.0035154484 -0.0040726587 0.0109517155
0.00015096391 0.0007976602 -0.0026139952 -0.0007917869 0.0071799285 0.0030800896 -0.0028681003 -0.0029675514
-0.007632575 -9.53326e-10 -0.00076085044 0.006779471 0.0062646302 0.011786372 -0.0020952208 -0.0030066401
-0.0004212945 -0.0023597062 0.004262363 -0.0020871107 -0.0036439311 -0.0009054902 0.005396443 -0.0051664966
0.0029433125 0.010342627 -0.0045646913 -0.00031808185 -0.006396599 -0.0016640006 -0.0013471761 0.0016580703
-0.002285246 -0.0009561689 -0.0010034601 -0.0030662972 -0.0025877154 -0.0012301494 -0.002577504 -0.0049599027
-0.0028603245 -0.005362523 -0.001852727 -0.0020495288 -0.00472283 0.0016295194 -0.005290015 -9.132958e-10
-0.0042594997 0.0037929153 0.0054069837 -0.0013037899 0.002835572 -0.00087341294 -0.0060446654 0.0063389177
-0.00668879 -0.006354124 -0.004153286 0.008735369 -0.002829056 -0.0007636471 0.0022129666 -0.0012625844
-0.00013405137 -0.0016816347 0.0007400214 -0.0022852654 1.385175e-05 -0.000103059596 -0.0022633409 0.003123076
-0.0010464137 -0.0026039616 -0.0062310607 -0.0016213643 -0.0040916423 -0.0014874648 0.00016231465 0.0023806025
0.00064178696 0.000407119 0.0021663497 -0.0034840873 -0.0032233053 -0.00046775388 -0.005934311 -0.004059588

network_body.linear_encoder.seq_layers.2.weight f4 [128, 128]
00000000: 481c 2ebd 9d14 d93d 063e 0f3e 20b4 64bd
00000010: 4b93 31bd 3fd6 03be dd7b 20bd 6a9f 04be
00000020: cb80 e0bc 13e4 e9bb bfcb e0bd 4c70 3ebd
00000030: 34e0 773d fc45 163d 3eeb 26bd fc79 9f3c
00000040: 4d66 a1bd 5f78 a13d 3abc 2dbd ef1f 03bd
00000050: e94d 29bd 885c 37be 7f87 2c3a a3fb 0e3e
00000060: f007 7b3d a468 4bbc 6d2e 44bd 00b1 8c3b
00000070: 6e3d f33b 95de ff3d 0665 7a3d 954f acbd
00000080: 5815 8abc a201 493d 5101 18bd 0145 d93c
00000090: 6c4c 9d3d 7d9a e43d a0aa 013c 4e46 26be
000000a0: 5280 973d 9a8b a9bd 55ca b83d 6f88 3f3d
000000b0: 46d2 1a3e a17c 04bc 2d5d 27be 137e 01bd
000000c0: c9ff 913c 8813 133e 3536 173d 63fa 05be
000000d0: 35c5 fabd 3922 ae3d 1ff5 7a3c 68af 9b3c
000000e0: f417 b5bd 056d 0e3e ce50 093d 89df 3cbe
000000f0: bda5 f43c ddeb 513d 2911 31be a4c5 183d
00000100: 7e4e 003e 0dd7 18be 8b1a fcbc 03bf 4b3d
00000110: 104b c23d af12 cebd 22c9 103e d8e5 ee3c
00000120: 7f93 2cbc ca8e 233d 9c3b 283d e7a9 c73d
00000130: 7e65 bdbc cc3b 95bd fdfa f3bb 7ea6 ef3d
00000140: 5c02 eb3d 057a edbc 6a47 163e 4067 81be
00000150: dd32 b9bb 2399 12bd 5b14 f93d 8305 173d
00000160: 96b4 a93c a7a7 30be e045 4ebd df5d 84bc
00000170: 378b e1bd 9efb d33d b1ae 8dbc 912e f03d
00000180: 45e4 78bc 9b22 bb3d d2ca 923a 21e9 97bd
00000190: 418f f03d ffb7 843d 8723 4b3d 2ef8 663d
000001a0: 3a4d 80bd 0b88 8c3d 663d 803d a8cb 4a3d
000001b0: 757d a23d 91c4 28bd 2695 893d d3c5 ca3d
000001c0: e6b1 adbc 3e4d cfbc 6df4 ca3d 7404 1b3e
000001d0: 454b 1e3d 9501 cfbc ec99 0dbc 31c3 25be
000001e0: 8125 c2bd c0af 3b3e 8029 bfbc 5c85 c63b
000001f0: cb07 3ebe fc30 7cbd 297c e8bc 5b7c 253e
00000200: a2e5 8dbc f87a 583d a9c5 dcbd 0301 8bbd
00000210: 123f dcbc eb02 2ebd bc85 03bd 3271 30bd
00000220: 8611 fd3c a2fd 053e 6298 803d 249b dbbd
00000230: 5558 6abd 66c2 11bc 6571 82ba 503b dbbc
00000240: 84db b2bd d3b6 7f3d 82ea 7cbd e5c3 c2bc
00000250: 479e b2bd 5d81 84bc fa0f 02bd e4db 073e
00000260: 75c5 29bd d4cc f73a b429 a53c 30fe cfbd
00000270: 6eec 493a 3241 b43d dee5 2cbe 62b8 0bbd
00000280: 2111 aa3c 14c0 643d 6339 113d f7d7 0ebe
00000290: ca49 d83d 9f81 193d 74ae ab3c 76de 3d3d
000002a0: c278 4fbd f363 4d3d ebea 0bbe 2fd8 54bd
000002b0: 370f 49be a5af 21be ce24 8b3d 8931 473d
000002c0: aff6 0abd ce0d 6cbd b195 853d 7c39 223c
000002d0: 1684 0ebe 57b2 2fbe ab59 d9bc 5c00 0dbe
000002e0: b952 e8ba 54e4 2a3d d210 37be 464a 45bd
000002f0: 5c53 77bd f5a7 243d 3a2c b1bc 9490 87bd
00000300: 82f6 0cbe 96c5 733c 4d4d a53d d86b c53d
00000310: 99b1 bb3c 26a4 0b3b f890 16bd f949 bc3d
00000320: 4cf3 a43d d2cb d33d ba64 bebc 5ba9 d0bb
00000330: d6ad ddbd 3dc8 0fbe c20a 86bd 7456 f6bd
00000340: 681a 8cbd fdd8 04bd 0a03 b83b 6d4a 603d
00000350: 81fc 92bd d504 d53c 89fb 223e c030 c8bd
00000360: e6c5 d13c e2fe 7ebd 8255 50be 1c7f df3d
00000370: 808c fbbd 7c88 06be ea85 7abd 0624 19bb
00000380: af5b be3d 12de 93bd b797 80bd 1380 d53c
00000390: 1dea 623d a2b4 87bc a64a c2bd ab5c b2be
000003a0: e062 15bd 8364 87bd a788 053e d440 f53d
000003b0: 2e60 ca3b 43be d8bd bdef e03d 80bf f33c
000003c0: f8bf b4bd ad19 653c 7776 c9bd 8940 90bd
000003d0: 901e f33d 4f63 053c e863 9d3d f49d 8f3d
000003e0: 0523 05bd e306 3f3d 85f4 00be 7463 a3bc
000003f0: b001 13bc 9b08 373e ddac 15be 5850 b5bd
-0.04250744 0.10599635 0.13988504 -0.055835843 -0.04335336 -0.12874697 -0.039180625 -0.12951437
-0.027405163 -0.0071377843 -0.109763615 -0.046493813 0.06051655 0.036687836 -0.04075169 0.019467346
-0.078808405 0.07884287 -0.042415835 -0.032012876 -0.041334067 -0.17906392 0.000658147 0.1396318
0.061286867 -0.012415085 -0.047895838 0.004293561 0.0074230945 0.12493626 0.0611315 -0.084136166
-0.01685588 0.049073823 -0.03711063 0.026522161 0.07680592 0.11162279 0.007914215 -0.16237757
0.07397522 -0.0827858 0.09022967 0.046760973 0.15119275 -0.0080863545 -0.16344137 -0.031614374
0.017822163 0.1436292 0.03691693 -0.13083796 -0.122446455 0.08502621 0.0153172305 0.019004539
-0.08842459 0.13908775 0.033524327 -0.18444647 0.029864186 0.051250327 -0.17291702 0.03729786
0.12529942 -0.14925785 -0.030774375 0.04974271 0.09486973 -0.10062157 0.14139226 0.029162332
-0.010533213 0.039931096 0.041072473 0.09749203 -0.023119684 -0.07286796 -0.0074456916 0.11701678
0.114750594 -0.028988848 0.1467568 -0.25274086 -0.0056518153 -0.035790574 0.121620856 0.03687049
0.020715993 -0.17251454 -0.050359607 -0.016158042 -0.11012881 0.103507265 -0.017295213 0.11727632
-0.015191142 0.0913746 0.0011199361 -0.07417513 0.117460735 0.06480407 0.04959443 0.056389026
-0.0626473 0.06861886 0.06261711 0.049510628 0.07934085 -0.041203085 0.06717901 0.09901013
-0.021202993 -0.025305387 0.09909902 0.15138417 0.038646 -0.025269309 -0.008642655 -0.16187741
-0.094798096 0.18328762 -0.023335218 0.006058378 -0.1855766 -0.061570153 -0.028379517 0.16160719
-0.017321412 0.052851647 -0.10779888 -0.06787302 -0.026885543 -0.04248325 -0.03210996 -0.0430767
0.030892145 0.13085034 0.06279065 -0.1072295 -0.057213146 -0.008896446 -0.0009952007 -0.02676168
-0.087332755 0.062430214 -0.06174708 -0.02377505 -0.08721595 -0.016174966 -0.031753518 0.13267475
-0.041448075 0.0018905648 0.020161487 -0.10155904 0.0007702772 0.088014975 -0.16884562 -0.034111388
0.02076012 0.055847242 0.03545512 -0.13949572 0.10560949 0.037477132 0.02095721 0.046354733
-0.050652273 0.050144147 -0.13663833 -0.05196398 -0.1963471 -0.1578966 0.06794129 0.048631225
-0.033926662 -0.057630353 0.06522692 0.009901401 -0.13917574 -0.17157875 -0.026532015 -0.13769668
-0.0017724849 0.041721657 -0.1787751 -0.048166536 -0.060382232 0.04019924 -0.021627534 -0.06619373
-0.1376591 0.014878651 0.080713846 0.0963971 0.022911834 0.0021307557 -0.036759347 0.09193797
0.08054218 0.1034161 -0.02324139 -0.006367845 -0.10824172 -0.14041229 -0.06545021 -0.120282084
-0.06840974 -0.0324335 0.0056155967 0.054758478 -0.071770675 0.02600328 0.15916266 -0.09774923
0.02560706 -0.062254794 -0.20345119 0.10912916 -0.122826576 -0.13138002 -0.061162867 -0.002336742
0.09294831 -0.07220091 -0.06278937 0.026062047 0.05539905 -0.016565625 -0.09486894 -0.34836325
-0.036471248 -0.06610968 0.1304041 0.119752556 0.0061760163 -0.105831645 0.109832264 0.0297544
-0.08825678 0.013983172 -0.098370485 -0.07043559 0.11871064 0.008141353 0.07685071 0.07012549
-0.0325041 0.046637427 -0.12593277 -0.019944884 -0.00897257 0.17874376 -0.14616723 -0.08853215

network_body.linear_encoder.seq_layers.2.bias f4 [128]
00000000: b576 39bb 7c94 47b9 914d 8ebb 075a 89ba
00000010: 30b7 d1ba 25f2 8ebb 4162 6bbb b53a 08ba
00000020: c7b3 14bb c8b2 50bb 1421 0fba 3854 5637
00000030: 9a96 5aba 6308 0dbb 16c3 50b8 8327 513b
00000040: 7760 6fbb ab4e 8939 b6dc 72bb d21a 5cba
00000050: 43c4 4ebb 7cf5 dc3b 9fd7 8f36 68ae a6bb
00000060: 2261 9abb 7973 dcb5 c80b 143a 33e3 14b9
00000070: 35c5 083b 6be7 f0b9 25b0 f0ba 89d4 98ba
00000080: e5ac 89bb cbce 0fbb 8397 eaba 1e16 fbb8
00000090: fbd9 c8bb 2d15 10bb 8e00 acba 6f47 acba
000000a0: 3e7b eeb9 b384 6abb 5b4c 4abb 39b5 293b
000000b0: de21 62bb 908e b53a 89c6 8cba 4041 1ebb
000000c0: aff9 6036 60a4 3cbb 4dfb 4aba e598 25bb
000000d0: 675a 3bbb e6a0 c5ba e91d 19bb 456e 57bb
000000e0: 6d01 eb3a 191b 7eba 6de7 2fbb 513e e0ba
000000f0: a15f 84ba 7d9b 61bb 8d30 a7ba 491e cf3b
00000100: 1a42 0fbb f99a 17b9 eb80 0e34 e875 40bb
00000110: d45d 93b9 e56e 90bb 0091 313c fa2b f33b
00000120: 04d9 b6ba 3fb0 95bb a1f6 8ebb e63e 4cbb
00000130: dc73 d9ba c31d da3b 3941 ccbb 8cac 14ba
00000140: 8c2c 7d3a b25b ddba a171 8fbb bdae 79bb
00000150: 0362 6dba 1697 fcba 295e c4ba 92f1 8eba
00000160: 1043 cb3a 0939 293a bd23 04ba de2d 3dbb
00000170: 4f46 873a dfad 82bb e8fc aab8 63be 96bb
00000180: 480c 10bb d5ff 07bb cd0b c93a 157d 3abb
00000190: c821 8aba 4564 1abb fd6f 3fba f181 3cbb
000001a0: 85c4 3ebb 67f8 acba b1d0 f0ba 6e41 953b
000001b0: 6260 c03b f404 5034 c5d3 d2ba fdca 0fbb
000001c0: 43c2 82b7 03b6 ceb9 49d2 61bb a312 c23b
000001d0: eb21 da39 dfbb ba39 1ef2 38b6 30c5 833b
000001e0: b1fb 72bb 4d16 5ebb 3e46 2bbb 1acb 62bb
000001f0: b1af 913a b605 65bb 7ddc 6938 ed62 bbba
-0.0028299515 -0.00019033434 -0.0043427427 -0.0010479101 -0.0016000029 -0.004362362 -0.0035916718 -0.00051967363
-0.0022690163 -0.0031844843 -0.0005459946 1.2775003e-05 -0.00083384814 -0.0021519891 -4.9772752e-05 0.003191442
-0.0036526003 0.00026189288 -0.0037057824 -0.00083963305 -0.0031550087 0.006743131 4.2868337e-06 -0.005086709
-0.004711286 -1.6424884e-06 0.00056475075 -0.00014199018 0.0020869498 -0.00045948787 -0.0018363042 -0.001166002
-0.004201519 -0.0021943327 -0.0017897937 -0.00011972732 -0.006129501 -0.0021985278 -0.0013122724 -0.0013143847
-0.0004548672 -0.0035784661 -0.0030868265 0.002589537 -0.003450505 0.0013851691 -0.001074032 -0.0024147779
3.3523936e-06 -0.0028784499 -0.0007743135 -0.0025268134 -0.002858782 -0.0015077859 -0.0023363775 -0.0032872122
0.0017929502 -0.0009693369 -0.0026840821 -0.0017108415 -0.00100993 -0.0034424954 -0.0012755558 0.006320749
-0.0021859468 -0.00014458214 1.327168e-07 -0.0029367153 -0.00028107932 -0.004407751 0.010837793 0.007421014
-0.0013950174 -0.0045681293 -0.0043628966 -0.003116542 -0.0016590315 0.00665638 -0.006233361 -0.00056714634
0.0009657822 -0.0016888289 -0.0043775593 -0.0038098537 -0.00090554374 -0.0019271101 -0.0014981675 -0.0010905734
0.0015507657 0.0006455337 -0.0005040726 -0.002886645 0.0010320636 -0.003988012 -8.153339e-05 -0.0046003326
-0.0021979976 -0.0020751853 0.00153386 -0.0028455902 -0.0010538632 -0.00235583 -0.00073027593 -0.0028763975
-0.0029108834 -0.0013196588 -0.0018372742 0.004554919 0.0058708647 1.9373311e-07 -0.0016084841 -0.0021941059
-1.5587668e-05 -0.0003942699 -0.0034457615 0.005922632 0.0004160547 0.0003561666 -2.7559067e-06 0.0040213093
-0.003707629 -0.0033887804 -0.0026134397 -0.0034605921 0.0011114982 -0.003494603 5.5756875e-05 -0.001429645

action_model._discrete_distribution.branches.0.weight f4 [3, 128]
00000000: 1eb5 f03b 3061 d63b d804 303c b447 ed39
00000010: e513 b93c fa8b 8cbb f278 26bc 7d80 fbbb
00000020: 9bf1 ae3b 1db0 7dbb c537 2bbc 284f 573c
00000030: 5ceb fb3a bc2b b13b 0c43 a93c e01b 2ebc
00000040: 4aeb a33b c1ef c73b f2b7 4f3a f8e1 1dbb
00000050: 4101 17bc 67db 873c b5c1 19bc fa92 a43b
00000060: e8bf a4bb c0c9 0b3c 9052 0f3b 2837 c73a
00000070: 3e25 80bc cbae db3a f762 643c 5b92 ff39
00000080: adc2 09bc 6929 30bc 081d 163c 5d51 9d3b
00000090: 1e47 053c ca0e 4abc afc2 7abb ff3c c5ba
000000a0: b27c d93b b60e 323b 1f40 64ba be03 d83c
000000b0: a6a6 bcb9 75da 083c a392 44bc 1928 78bc
000000c0: 4266 2a3b c4b7 f9b9 2a0e a0bb 9d09 ccbb
000000d0: 3e12 213c 5210 3ebb 294a aabb 9701 183c
000000e0: 85f5 c0bc fac0 8b3b dcbb 3abb 408d 6bbc
000000f0: ca95 023a fbfd 053c 6305 b83b 7a4f 1b3b
00000100: 5626 173b d17d 97bb ba66 213c 327a ed3b
00000110: c337 0cba 12e6 babb adc4 c8bc b215 7d3c
00000120: b258 2bbb 3ca5 bdbb caad 393c ccd2 17bb
00000130: af56 b1bb d3b0 5bbc ff81 74b9 2734 6c3c
00000140: c740 d7bb cb6f d33a f911 133a bd21 6bbc
00000150: d108 873b f4bf 7dbc 5cf9 1839 9d82 32bb
00000160: cd8d 1c3b 4075 6c3c 42f2 4c3b 9ef2 f63b
00000170: 3c83 0f3c e4bf 8dbc 6b19 193c 7e14 0cba
00000180: bcee 95bc 996e a2b9 6f19 0a3c f8c1 dabb
00000190: 181f 5abb 2fba 25bc 43cb 12bc e020 293a
000001a0: 8332 a3ba b23a 2c3c d182 64ba 7fa5 f73b
000001b0: ce0c 253c 6a70 103b 2766 4abb 88de 4b3a
000001c0: f5f6 863c 3518 823c 473b 2abb 1fdf cdbb
000001d0: 093f d13b 8ed3 d9bb 45cd 023b 5543 bdbc
000001e0: 2c35 3c3b 77ad e93b f10b b23c 2214 21bc
000001f0: 708d ab3a b993 d3bb 554a 02bc 7331 8e3c
00000200: 5e9a c43b 229c 4dbc 4f63 c0bb 7b62 fe38
00000210: 1804 85b9 5ab0 1e3b 0f8f 303b 26d4 523c
00000220: dffc ecbb df25 e1bb 5247 07bc cd41 553c
00000230: 2500 223c ca49 df3b 8d85 053a 3660 4f3c
00000240: 5b8d b1bb a6c1 28bc 297c 46b8 4f95 c93b
00000250: 5fec 66bc 2f0e 4ebc 66d5 41bc 4b90 b63b
00000260: 1862 ebbb 2c07 45bb 44ab ac3c 8d7d 853b
00000270: 4c1f 7bbb bf63 583b 4d87 cf3b d1d5 7e3b
00000280: 8ad6 1b3c 00df 423b 9df1 89ba 2166 053c
00000290: f3ab 0a3c 7d6f bebb 6182 0d3c 7c56 31bc
000002a0: 1769 2c3c 74be 94bb f26c 063c 2f8c 3c3c
000002b0: 1558 fb3b 356b 28bc 1292 bd3b e0fe 363c
000002c0: 56db aa3c f177 313a 4d43 203b cf91 afbb
000002d0: 2eac 1ebc 958f e9bb c794 67bc b09a 103c
000002e0: 0d1e 963b 18ef 10bc 8264 023b 0839 543b
000002f0: 15b5 653c 6938 b5b9 4518 9abb fb8a 433b
00000300: 2d05 6a3c 9eb1 873a 1dec 75bb 0eef 683b
00000310: b55a bf3a 9782 4bbb 1c60 de3b 65c8 34bc
00000320: 982f 2f3b 2cc1 9abb c4f2 223c 2b61 5e3c
00000330: 5c07 b8bb 4ac5 9d3c ea51 393c f649 9bbb
00000340: d78b 3a3b d707 ec3a 2d1a be3b cfe3 4dbc
00000350: 6922 94bc 481e 063c 0aec 93bc baa7 91bc
00000360: 9948 46bc 0446 953b dbd8 86bb dc9b 233c
00000370: 83db 633c 0bd8 53bc a026 24bb fdf6 093b
00000380: ab23 38bc 3dd1 3db8 470c 44bc a581 ec3a
00000390: 2137 95b9 d696 62bc fe87 6cbc c666 8c3b
000003a0: 2998 ae3b 36c7 b8b9 d74f 183b 758f 1fbd
000003b0: 4437 22ba 69d6 0fbc cad0 1abc 2b99 22bb
000003c0: 0cd0 213b 3494 87ba f05a a73b 0413 82bc
000003d0: f7c1 d63c a141 80bc c0c8 d4bb 794d 303a
000003e0: 7b83 3b3c 8be7 44bc 7da1 d73c 1975 d13b
000003f0: 3c1a 4a3a 5f30 6c3b 8676 0b3c 2130 dc3c
0.0073458096 0.0065423474 0.010743342 0.00045257586 0.022592494 -0.0042891474 -0.010160672 -0.007675229
0.00533886 -0.0038709708 -0.010450308 0.013141431 0.0019219923 0.005406825 0.020661853 -0.010626763
0.005002414 0.006101579 0.00079238333 -0.0024090987 -0.009216608 0.016584111 -0.009384562 0.005022404
-0.00502776 0.008531988 0.002186928 0.0015198933 -0.015642758 0.0016760466 0.013939611 0.00048746433
-0.008408231 -0.01075206 0.009162195 0.004800959 0.008134631 -0.012332628 -0.0038263013 -0.0015048085
0.0066371793 0.0027169413 -0.00087070646 0.026368972 -0.00035982317 0.008352865 -0.011997852 -0.015146279
0.0026000892 -0.00047629897 -0.004884501 -0.006226732 0.009831009 -0.0029001427 -0.005196829 0.009277723
-0.023554573 0.004264948 -0.002849332 -0.014376938 0.0004981427 0.008178229 0.0056158765 0.0023698495
0.0023063621 -0.004623153 0.009851152 0.007247233 -0.00053488853 -0.005703696 -0.024507845 0.015447067
-0.0026145396 -0.0057875197 0.011332938 -0.0023166416 -0.005411945 -0.013408857 -0.0002331808 0.014416731
-0.0065690014 0.0016131339 0.0005610283 -0.014351306 0.004120924 -0.01548766 0.00014588743 -0.0027238496
0.002388823 0.014432251 0.0031272327 0.0075362464 0.008759316 -0.017303415 0.009344439 -0.000534363
-0.018302314 -0.0003098145 0.008428915 -0.006675955 -0.0033282693 -0.01011519 -0.008959594 0.0006451737
-0.0012450967 0.010512041 -0.0008717003 0.0075575705 0.010073854 0.002203966 -0.0030883641 0.0007776995
0.01647518 0.015880683 -0.0025975273 -0.0062827016 0.006385688 -0.0066475337 0.0019958776 -0.023103395
0.0028718216 0.0071312743 0.02173421 -0.00983146 0.0013088416 -0.006456819 -0.007952292 0.017357564
0.0059998473 -0.012549432 -0.0058712135 0.00012130007 -0.00025370787 0.0024214 0.0026940738 0.012867963
-0.007232293 -0.0068709697 -0.00825675 0.013016176 0.00988773 0.0068142163 0.0005093448 0.012657216
-0.005418462 -0.010300076 -4.732251e-05 0.006151832 -0.014094441 -0.012576624 -0.011830663 0.0055714003
-0.0071833245 -0.003006409 0.02107776 0.0040738047 -0.0038318215 0.0033018438 0.006333268 0.0038884769
0.009511599 0.002973497 -0.0010524277 0.008142025 0.008463847 -0.0058116303 0.008637042 -0.010823842
0.010523102 -0.0045393053 0.0082046855 0.011508032 0.0076704123 -0.010279466 0.005785235 0.011169165
0.02085654 0.0006769887 0.0024454177 -0.005357958 -0.0096846055 -0.007127712 -0.014134592 0.008825943
0.004581219 -0.008846067 0.0019896333 0.0032382626 0.014020224 -0.0003456504 -0.0047026 0.0029837477
0.014283461 0.0010352617 -0.0037524768 0.0035542878 0.0014599176 -0.003105318 0.0067863595 -0.011034106
0.002673125 -0.004722735 0.009945575 0.013572971 -0.0056161117 0.019259114 0.011311034 -0.0047390414
0.0028464699 0.0018007708 0.0058014602 -0.012566521 -0.018082814 0.008185931 -0.018056888 -0.017780174
-0.01210227 0.0045554657 -0.0041152067 0.00998589 0.013907316 -0.012929927 -0.0025047436 0.0021051758
-0.011238973 -4.525598e-05 -0.011965818 0.0018044008 -0.0002846057 -0.013829907 -0.01443672 0.0042847125
0.0053281975 -0.0003524364 0.0023240948 -0.03895517 -0.0006188045 -0.008779147 -0.009449193 -0.0024810534
0.0024690656 -0.0010343851 0.005107276 -0.015878208 0.026215537 -0.015656294 -0.006493658 0.00067254115
0.011444922 -0.012018095 0.02632212 0.006392133 0.00077095977 0.0036039574 0.008512145 0.026878418

action_model._discrete_distribution.branches.0.bias f4 [3]
00000000: 3d2b dc3a 86b7 6b39 7a0b f4ba
0.0016797554 0.00022479714 -0.0018619143

action_model._discrete_distribution.branches.1.weight f4 [2, 128]
00000000: 9dc7 a73b e7fe 1e3c 3250 2e39 1939 853c
00000010: 49ee d93b 5a28 8e3b f7c1 d63a 8b91 5c3b
00000020: 8c1e 40bb e37e ee3a f90c 31ba f5d9 a3bb
00000030: ef9d 473b 414f 12bc 39e5 713c d025 333c
00000040: 6271 d93c d0aa e23b 6883 26bb 66fc 76bb
00000050: aad4 843c 84b5 a83a 36d4 12bb 7b15 f63b
00000060: ce6f 173b a042 923b 5952 17bc f020 1fbc
00000070: 5f05 1dbc 0b5b 093c 3ea8 f53b 5719 793a
00000080: c535 c13c 1a34 25bc 9dc4 17bb b13b 2fbb
00000090: f7f9 bfbb 11bc 333b 7de0 8fbb 3b3b e6bb
000000a0: 2b58 94bc 13cd 873c 8ce7 753b bac7 703c
000000b0: 8f6c 87bb af67 be3b 29e3 b0bb fbc3 7fbb
000000c0: 9366 cdbb 3583 73bb 68a1 aa3b f52a 813b
000000d0: 81a5 043c 13ab 723c a5fc 6a3c d063 8dbc
000000e0: aa75 113c 9cd3 293c 42db 9ab9 e9a4 503c
000000f0: 7f59 8a3b 9265 9a3b a206 3bbc 7045 4038
00000100: c839 be3a 9711 0cbc 988c c83c b9b3 bebb
00000110: 2649 c3b9 4378 113b 577c 83bc 8304 bc3c
00000120: 0aae d7bb 2a05 54bb 8837 9f3c 6207 f23a
00000130: 580f 8a3b 5d8b 073c 7971 fabb 616f d3ba
00000140: 44ba 91bc 20d8 6f3c d67c 1e39 9806 24bb
00000150: 605c 62bb fa33 91bc bd6d 203c cfa5 9cbc
00000160: 8062 733b 3201 85bc e859 193c ac1d c43b
00000170: 92b6 c63a 7146 89bb a8ce 873b 2573 22bb
00000180: 8bd8 abbb 0640 62bb c324 a53c 6fed 893c
00000190: 510f 5d3c 79b9 e7bb 654b 0d3c b817 283c
000001a0: ef4a be3b e07d 193b 63ff e33b e2af 64bc
000001b0: 5327 183c abab b23b d6ba 3d3c 4d4c 463b
000001c0: 5f96 ab3b ff81 343c 7ec7 e9bb 4514 013c
000001d0: ab3b 07ba 99b2 a6bb f2af 70bb cfca 49bc
000001e0: 049d c4bb a581 ddb9 76bd 8d3c f9ee 973b
000001f0: 150b 303a 2f66 073b 9231 403c 995f 1a3c
00000200: 573e c43b 4f9a 0fbc 91ac 14bb eaa8 bebc
00000210: 9e0f 7cbb f0c8 913a 7460 013c ef2a b4bc
00000220: 5393 f9bb c6e0 fbbb 4708 c8b9 94eb 0a3c
00000230: fbb5 48ba e4c5 09bb 562d 9c3b 60a7 4f3c
00000240: 0a79 9c3c 01d8 89bc 226d 03bc 193d 453c
00000250: a2d5 0d3c 5a9d 9dbc 12f8 4d3c bb56 a23b
00000260: a31e 503b f5fc 3f3b 7f66 57ba 97f0 ee3a
00000270: 265b 663c 7e96 faba abfe a8b9 5554 52bb
00000280: 45a9 fcbb 18e5 683b e3b3 093c 21f5 f53b
00000290: cd1c 41bb a7ed 79bc e128 dbbb 2452 0f3c
000002a0: 1ca6 e73b cb70 11bb 0c06 743b c9fe 03bc
000002b0: 9bed 90bb 6446 2bbc 09db 9cbc 8135 bb3b
000002c0: 629d 0bb7 e68e 103c 34a3 93bb 61a4 cbbc
000002d0: 8eb2 923c a1b1 863b 34a8 c53a a5fc 2ebc
000002e0: 555f d7bc 5fb7 6c3c d764 82bc d2b8 b3bb
000002f0: cf1d 91bc a855 063c 46b9 1ebc d103 f4bb
00000300: 2e1d 6fbb fdba 0abc 20bc 46bb fb2e 6c3c
00000310: 1295 493a b3a4 aebb cc35 b43c 60ad 55bc
00000320: e969 45bb 5084 523b e42d a23c 937f 40bc
00000330: 20d0 b2bb c9bb aa3b 6036 c4ba 4981 ecb9
00000340: 73b8 083b 02d7 873a a907 c13b 0615 bc39
00000350: 8a78 ad3c e86f bc3b cffa 2f3c 559e 9ebb
00000360: 5521 8cbc babc 3ebb d048 b2ba 27aa e1bb
00000370: d086 8c3c a414 ed3b abfb d13b 9429 fabb
00000380: 418f 9e3c 660e c2bc b6a8 263b 20b0 2736
00000390: 20a0 9fbc 3162 2a3c 7d91 adbb 831f 763c
000003a0: e6ac 5e39 3b4d f4bb dec6 ec3b 2d21 613c
000003b0: dfca f8bb cd37 acbb 2803 283b d807 baba
000003c0: 4245 06bb d3c8 1a3c f4d4 4cbc 59e4 99bc
000003d0: 1fa5 b93b 3f1e c4bc 16dc bd3b be4e d1bb
000003e0: 1279 18bc 6ded 233b e392 1abc 048b 343b
000003f0: 166a b9bc 5570 243c e5fa a7bc 7725 a938
0.0051202313 0.009704328 0.00016623808 0.016262578 0.0066507203 0.0043383064 0.001638471 0.0033656086
-0.0029315082 0.0018195774 -0.0006753947 -0.0050003477 0.0030459126 -0.008930028 0.014764124 0.010934308
0.026543323 0.006917335 -0.0025407914 -0.0037687062 0.016214687 0.0012871479 -0.002240432 0.007509885
0.0023107412 0.0044635087 -0.009235942 -0.009712443 -0.0095838 0.008383523 0.0074968627 0.0009502372
0.02358521 -0.010083223 -0.0023157962 -0.002673846 -0.0058586556 0.0027425329 -0.0043907748 -0.007026104
-0.018108448 0.01657728 0.0037522046 0.014696056 -0.0041328142 0.0058107 -0.0053981734 -0.0039026726
-0.0062683313 -0.0037157063 0.0052072294 0.0039418885 0.0080961 0.014811295 0.014342462 -0.017259508
0.008878151 0.010365393 -0.0002953653 0.01273463 0.0042220945 0.004711815 -0.011415156 4.5841036e-05
0.001451307 -0.008549116 0.024481103 -0.0058197645 -0.00037247798 0.0022196926 -0.0160505 0.02295137
-0.0065820264 -0.003235171 0.019435659 0.0018465335 0.004213255 0.008272973 -0.0076429215 -0.0016131216
-0.017789014 0.014638931 0.00015114559 -0.0025028344 -0.0034539923 -0.01772498 0.009791789 -0.019122032
0.0037137568 -0.016235922 0.009359814 0.0059849825 0.0015160611 -0.0041893055 0.0041445084 -0.002478787
-0.00524432 -0.0034523024 0.02015913 0.01683685 0.013492421 -0.0070716706 0.0086239325 0.010259561
0.0058072726 0.0023420975 0.0069579347 -0.013957949 0.009286719 0.0054525933 0.01158019 0.003025788
0.0052364315 0.011017322 -0.007134377 0.007878368 -0.00051587325 -0.0050872085 -0.0036725965 -0.01231642
-0.006000163 -0.00042248997 0.017302256 0.004636642 0.00067155185 0.0020660271 0.0117305685 0.009422206
0.005988877 -0.008764817 -0.0022685865 -0.023273904 -0.0038461457 0.0011122506 0.007896531 -0.021993129
-0.0076164394 -0.007686707 -0.0003815314 0.008479018 -0.0007656512 -0.0021022493 0.0047661467 0.012674183
0.019100685 -0.016826632 -0.008021625 0.012038493 0.008656891 -0.01924007 0.012571352 0.0049541867
0.0031756542 0.0029295061 -0.0008216872 0.001822966 0.014059817 -0.0019118336 -0.000322332 -0.0032093723
-0.007710608 0.003553694 0.008404705 0.0075060283 -0.002946663 -0.015254415 -0.0066882228 0.008747611
0.0070693623 -0.0022192474 0.003723505 -0.008056351 -0.004422856 -0.010453794 -0.019147413 0.0057131653
-8.321689e-06 0.008823132 -0.0045055393 -0.024858655 0.017907407 0.0041105305 0.0015080036 -0.010680352
-0.026290575 0.014448016 -0.015917225 -0.005484679 -0.01771441 0.008199133 -0.009687727 -0.007446744
-0.0036485898 -0.008467433 -0.0030324534 0.014415498 0.0007689755 -0.0053296923 0.021998309 -0.013041824
-0.0030122942 0.0032122321 0.019797273 -0.011749166 -0.0054569393 0.005210374 -0.0014969818 -0.00045109753
0.0020861893 0.001036376 0.0058908057 0.00035873818 0.021175642 0.005750645 0.01074095 -0.004840652
-0.017105738 -0.002910419 -0.0013602022 -0.006886739 0.017154127 0.0072351266 0.006408175 -0.007634351
0.019355418 -0.023688506 0.002543015 2.4987457e-06 -0.019485533 0.010399387 -0.0052968846 0.015022161
0.0002123598 -0.0074554957 0.0072258553 0.01374082 -0.0075925435 -0.0052556754 0.0025636647 -0.0014193011
-0.0020488058 0.009447294 -0.012501944 -0.018785642 0.005665436 -0.023940204 0.0057940586 -0.0063875606
-0.009306209 0.0025013343 -0.009434435 0.002754868 -0.022633594 0.010036548 -0.020505378 8.065526e-05

action_model._discrete_distribution.branches.1.bias f4 [2]
00000000: 07f8 08ba 02f8 083a
-0.0005224947 0.00052249443

action_model._discrete_distribution.branches.2.weight f4 [2, 128]
00000000: 4c1c a339 80db 8b3c 0d9e af3a 557b 5ebc
00000010: 87b5 0cbb ae79 163c 0490 1ebc 5c88 31bb
00000020: 93d0 123c 6481 7dbc 2f33 07ba 75fc 4bbc
00000030: 84d5 7a3c 701b 273b fd2e 10bc 53d1 9bbb
00000040: 8fb5 29bc ae67 033c 9359 a03a 2e05 303b
00000050: a880 cc3b f22c 7cbc 8fd0 9f3b 55cb 033c
00000060: a8cf bd3b e838 4ebc 4348 143c e51a 88bc
00000070: c659 003c 9805 853c f85e ffba 4697 0ebc
00000080: 31f7 3038 eddc 75bb 2f5f 07bc 5675 903c
00000090: 6f4f 0e3c 3c64 21bc eac4 513b 1479 10ba
000000a0: 7352 34bb fe03 1cbc 74fc 783c 6dbe 443c
000000b0: 94c7 e03b 2fd0 0fbb c0f8 90bc 3469 e53b
000000c0: 25d7 05bc 7d93 46bc 2aef 3db9 3ec4 6a3a
000000d0: 6788 423c cb71 fbba 673a 373a c33d 08bc
000000e0: 2e77 ebbb 796b 01bc 0cac 25bc 5d69 443b
000000f0: dcdb 583b fe11 ff3b 6fba 363c 0e27 c4b9
00000100: 9d7c 5f3c 25bf 0e3c 0cc8 03b9 da87 b93b
00000110: 70e7 623c 1224 0c3c 0e91 33bb fce4 18ba
00000120: c260 143c 14cf e33b 7d35 933a 6c74 9dba
00000130: 9c3f 9a3b da54 a4ba 5bbf 9d3c d7c2 493b
00000140: 27ce 43bc 0d8a 42bb fe3e 7c3c 5d16 34bb
00000150: e1b1 1ebc fb46 bbbb 6a25 093b c7cc acbb
00000160: 76b0 d53c 1689 5c3b 75e2 94bb e344 743c
00000170: a126 3d3c 7fdd 8639 96a6 483c bfec f9bb
00000180: def1 143c 93f7 52ba 5d78 84ba 1d2f 023c
00000190: 92a6 4d3c cc80 fabb 2141 293c ae2e 883c
000001a0: fa23 f53b f70d ab3b 1ea5 10bb 88de 9f3b
000001b0: b1a6 febb e178 f238 1436 28bc 90a9 7c3b
000001c0: a0b6 cebb b510 c5bb 15e5 52bc aa7a 10bb
000001d0: f221 8d3b 8b0d 6e3c 7cd3 1c3b fbac a5ba
000001e0: e4fa 52bb 81bc 16bb edbb e03b 9755 e4bb
000001f0: 83a4 23ba e207 e63b d0a7 563c d6f0 3d3b
00000200: ad0a 10bc 7ec7 f33b 9d3e 82bc 42e5 803c
00000210: 787a 983b 45f8 c53b 3b9f 24bb c526 70bb
00000220: 267a 973b 04dc d43b ed9c 9fbc b84d 1fba
00000230: d2e2 81bb 6047 1e35 c0ee 073b 50e8 f3bb
00000240: b617 2dbb fefc 6c3b 9df2 adb8 7b08 173c
00000250: facd dabb 11ee 783b 74f8 163c 0d1d 4abb
00000260: 1ea4 593c 473f 70bc 6258 a3bb 9dd9 15bc
00000270: 19fe 0e3c 0362 07bb 40a2 f93b be91 babb
00000280: 1740 883b 5d96 13bb 3fab 5abb f64d f93b
00000290: 5fca 51b8 57cc 8d3c 2f3d 123b 949a 00bb
000002a0: a1e8 8e3b 008c 8539 5a9f 2b3a cb31 2b3b
000002b0: 2fed 59bc 1c42 50ba 8ce3 4f3c 9b0d 853b
000002c0: d20c b83c a3e3 9f3b 0971 9f3c 41e2 f03a
000002d0: f6d4 783c 54d9 6c3b 3639 32bb 9973 32bc
000002e0: b39c 05bc f907 a23b ed58 3f3b f4b8 243c
000002f0: 5cfa 05bb e361 71bc faa9 62bb 0007 e6bb
00000300: 37c8 423b 2e25 8c3c e64b b839 ac63 983b
00000310: 1815 2dbc 87cc 9b3a 269c d1ba cad8 2e3c
00000320: 26da 8abb 6883 113c 008e 393a 88f7 953c
00000330: 7601 92bb 7ba8 eb3b 3bd7 cc3b e421 5d3b
00000340: 6ba0 32b9 f6dc 8c3b e17c 463a 019f a53a
00000350: 4871 043b 9a6e 083c 414e 893b 8809 82bc
00000360: 1cf3 29ba 4430 16bc f366 a83b 0385 783c
00000370: 0ac4 8ebc 938e 493b 9b55 1f3c d578 adbc
00000380: 9211 21bb a4b2 2dbb 1610 0fbc 2c08 023a
00000390: c35b e73b fc2f 4abc 9e18 5fbc efac 383c
000003a0: 636b 16ba e72d ceb9 a908 bfbb 8602 84bc
000003b0: 9440 2a3c 2e5e e23b bbb1 9dbb 3049 6cbc
000003c0: d57f cc3b deb7 ee3b d414 133b 14c0 a1b9
000003d0: bbed 42bb 59bf a53a cf0d 913b 2e39 a1bb
000003e0: e5ba b9bb 44ab 3dbb 3011 e6bb 3b37 573a
000003f0: 73eb 1b3c bfa2 c83b 25c1 cb3a d47a 99ba
0.00031110866 0.01707244 0.0013398543 -0.013579209 -0.0021470503 0.009184284 -0.009677891 -0.0027089333
0.008960861 -0.015472744 -0.0005157468 -0.012450327 0.015309695 0.0025498532 -0.008800265 -0.004755178
-0.010358228 0.008020325 0.0012233726 0.0026858556 0.006240923 -0.015391575 0.004877157 0.008044084
0.005792577 -0.01258681 0.009050432 -0.016614387 0.007833904 0.016238019 -0.0019483259 -0.008703059
4.2191885e-05 -0.0037515715 -0.00826244 0.017634075 0.008685931 -0.009850558 0.003200824 -0.0005511206
-0.0027514964 -0.009522436 0.015196908 0.012008292 0.006859729 -0.0021944155 -0.017696738 0.0070010666
-0.00816897 -0.012120125 -0.0001811354 0.0008955634 0.011873341 -0.0019183693 0.00069895986 -0.008315506
-0.007185838 -0.007899159 -0.01011182 0.0029970028 0.003309003 0.0077841273 0.011152848 -0.0003741313
0.01364055 0.008712565 -0.00012567657 0.0056619467 0.013849124 0.008553522 -0.0027399692 -0.0005832461
0.009056272 0.006952176 0.0011231151 -0.0012012846 0.00470729 -0.0012537495 0.019256284 0.00307863
-0.011951006 -0.0029684335 0.015395878 -0.002747915 -0.009685964 -0.0057152486 0.0020926842 -0.005273435
0.02608512 0.0033651046 -0.0045435973 0.014909002 0.011544854 0.000257235 0.012246748 -0.0076270993
0.009090869 -0.00080477557 -0.0010106672 0.007945803 0.0125519205 -0.0076447483 0.010330469 0.016623821
0.0074810954 0.0052201706 -0.0022071074 0.0048788227 -0.007771336 0.00011561975 -0.0102667995 0.0038553216
-0.0063083917 -0.0060139545 -0.012872 -0.002204577 0.004307025 0.014529596 0.0023929765 -0.0012640053
-0.0032193 -0.002300054 0.00685834 -0.006968211 -0.00062424707 0.0070199827 0.013101533 0.002898266
-0.008791608 0.007439553 -0.015898997 0.015734319 0.0046532713 0.006041559 -0.0025119323 -0.0036644202
0.0046227155 0.0064959545 -0.019484008 -0.00060769496 -0.0039638067 5.896345e-07 0.0020741671 -0.0074434653
-0.0026411838 0.0036161537 -8.294473e-05 0.0092183305 -0.0066773864 0.0037983696 0.009214509 -0.003084007
0.0132837575 -0.014663524 -0.0049849013 -0.009146121 0.008727574 -0.0020657785 0.0076182187 -0.0056936434
0.0041580307 -0.0022520043 -0.003336623 0.0076081706 -5.0017956e-05 0.01730935 0.00223143 -0.0019623386
0.0043612276 0.00025472045 0.00065468776 0.0026122208 -0.013301178 -0.00079444214 0.012688529 0.00406046
0.02246705 0.0048794313 0.019463079 0.0018377976 0.015187493 0.003614028 -0.0027194745 -0.010891818
-0.008155036 0.004944798 0.002919729 0.010053862 -0.0020443415 -0.014732811 -0.0034586177 -0.0070198774
0.0029721388 0.017107572 0.00035151764 0.0046505537 -0.010564111 0.0011886515 -0.001599197 0.010671804
-0.004237431 0.008881427 0.00070783496 0.018306509 -0.0044557406 0.0071917153 0.0062512434 0.0033742124
-0.00017035163 0.0042988015 0.0007571709 0.0012635888 0.0020209122 0.008327151 0.004190237 -0.015873685
-0.00064830645 -0.009166781 0.0051392256 0.015168431 -0.017427463 0.0030755147 0.009725 -0.021175781
-0.0024577123 -0.0026504183 -0.0087318625 0.0004960324 0.0070604994 -0.012340542 -0.013616709 0.011271699
-0.0005738048 -0.00039325582 -0.00582989 -0.016114485 0.010391373 0.0069081997 -0.004812447 -0.014421746
0.0062408247 0.0072851023 0.0022442834 -0.00030851422 -0.002974375 0.0012645527 0.004426695 -0.0049201464
-0.0056680315 -0.0028941194 -0.007021092 0.0008209829 0.009516585 0.0061229165 0.0015545232 -0.0011709579

action_model._discrete_distribution.branches.2.bias f4 [2]
00000000: 5fd1 5139 6dd1 51b9
0.0002000979 -0.0002000981

action_model._discrete_distribution.branches.3.weight f4 [2, 128]
00000000: eed8 4f3b 8f62 81bc dbf7 683b 6d01 703b
00000010: 9cdd cdba afcc a93b 45bc c43b 0a7b 0bbb
00000020: abb0 32bc ad4e e9b9 b48a 0c3c fa1f 41bc
00000030: 345f d0bb 7cfc 08bc 20eb 5d3c 86be 0cbb
00000040: ca23 a3ba 6e5c 05bb 0488 84bb 347f 10bc
00000050: 1dab 38bc 4351 313b 4658 073c d79e a3bb
00000060: 45e9 c3bb 5581 1f3c 4f7f 983b bf6c 333c
00000070: 5752 b3bb d0d0 a83b 0eaa dbb9 5105 01bc
00000080: de45 86ba 07e9 97bc 8ffd 7f3b c298 323b
00000090: 265b 4d38 07a3 23bc d7e0 4d3c 54c9 6bbc
000000a0: 5b9b c73b 41ac 58bc d273 323b 3607 4d3c
000000b0: aa91 a339 fd9c a43c 55af 13bc bac4 883c
000000c0: bd95 1f3c f085 463b 1358 883a 8c43 703c
000000d0: 4d50 8d39 e4a1 25bc 6abd e8ba 1915 f4ba
000000e0: 4a24 aa3b f658 16bb a96c 03bc dca8 27bc
000000f0: 5cea a3bb a105 2fba 62c9 24bc 3993 883c
00000100: a1ab 33bc 0df4 873b 4311 fcbb 7de2 0a3c
00000110: 125c 04bc 9979 48bc 32e1 0e39 cc6c 7d3b
00000120: 5f1b daba 0ee3 00ba 981c 07bc 45a6 3d3b
00000130: 234e 2ebc 06b0 fcbb c85a 263b d076 623a
00000140: 379a 7abc 94b3 963c 08e3 e73b d1a9 ef3b
00000150: 6450 143b ec7c f0bb 90fb 08bb 97f1 4a3a
00000160: ad87 3fbb 6a6e e5ba e5b5 77bc 75a2 693c
00000170: 0eeb 00bc 89b0 07bc a1e3 933c c7e4 553b
00000180: 2a58 e1bb 37be 073c 114c 9ab9 b018 883b
00000190: be7b a9bb 776c 893b fbb4 393c a7d6 2f3a
000001a0: 2bc1 46bb d428 c33a 4449 383c 690f 233b
000001b0: c2d0 163c 8f73 2d3b 6402 843c 5471 2d3c
000001c0: f2a0 1fbb cc69 c438 a1ad 6abc 343c 863c
000001d0: 5117 303c bcbb 893c b339 803b 5ea4 1ebc
000001e0: b118 033c 5336 af3b 8a1c c13b 81dd a639
000001f0: 5061 a4bb 92d5 183b ee11 20bc 2069 293b
00000200: a57c 633c 387e 323b ba60 633c a576 533c
00000210: 8f7c 573b 414a 13bc c029 02bb 4f96 0e3b
00000220: fbe1 813c 6b4d 463b 1f67 87bc c7ab 803b
00000230: 352d f6bc 3d37 8abc ce2c 8dbb d4c6 c83b
00000240: d181 f83b 224a a73c dd3d f3bb 5748 b0bc
00000250: 83fe 5b3c e250 0abc 2658 953b da2e a93a
00000260: ed3f 473b 5661 01bc ba91 ad3c d997 babb
00000270: de81 863b cd71 a83a b033 c5bb 07ef 0d3c
00000280: ce7c 33bc 929a 1b3b 4393 8a3b 8aa1 173c
00000290: 07d8 ccbb c6be 2dbc 11c1 823b f2c6 2dbc
000002a0: 396e dfbb 6ab1 0abc 283e dfbb 1f1b 953b
000002b0: 6c93 9b3b a016 c0bb 2c93 153b bdfe e33b
000002c0: e6d0 0739 76af 51bc 2b33 86bb 683f 923b
000002d0: e639 953b 9431 9d3b e453 8139 aa2d 9b3c
000002e0: 89a5 d0bc 6284 85bb 9657 4b3c defa 983b
000002f0: 692c 8fbc 25a5 8abb f9be 03bc bc3b 7dbc
00000300: 01b4 16bb 71e0 0ebc 6a5c 273b b5f2 f73b
00000310: b0bf 2e3b d5dd 3dbc d3f7 003c 65e0 51bb
00000320: f845 a6bb 6a33 0c3c a488 d3bb 2ab2 e2ba
00000330: 5089 3abc 4033 1b3c 2303 2abc bd89 f0bb
00000340: 78a3 f33b 4189 d53b 5b2e 8f3b de3e 9cbb
00000350: 733c b63c 301e b83b e291 913b 4acc 6a3b
00000360: 9fd7 783b 4a0c 32bc 2a81 e73c 9d7d 3cbc
00000370: 99ec 17bc 73a9 2dbb 69fc 75bc b025 6a3c
00000380: a2b0 15bc 3665 683a 5a98 9fbb fb4d 8ebb
00000390: d174 a03b 9873 61bb c04b bfbb e86e d3ba
000003a0: 484f 8b3b 12a7 ac3b f00c 2dbb c4c1 0cbc
000003b0: b02d 6bbc a6f7 6c3c d1dc a6bb b215 843c
000003c0: 0246 49bc 86f6 003c 30b2 0ebb 6d94 42bc
000003d0: f3fc 983b a2b5 963b e654 593c ee83 b3bb
000003e0: 26cb 48ba 82ff f8bb 0994 f03b f4a9 843c
000003f0: 7bc9 503c 77e1 06bc 04c7 de3b e5f4 34bb
0.0031714994 -0.015794067 0.0035548124 0.0036621944 -0.0015706304 0.005181871 0.006003889 -0.0021283054
-0.010906379 -0.0004449984 0.008577991 -0.011787409 -0.0063590053 -0.008360978 0.013544828 -0.0021475866
-0.0012446579 -0.0020349282 -0.0040445346 -0.00881939 -0.011271265 0.0027056492 0.008260792 -0.0049933004
-0.0059787356 0.009735425 0.0046538482 0.01095122 -0.005472462 0.0051518455 -0.00041897636 -0.007874803
-0.0010244211 -0.018543733 0.0039061045 0.0027251695 4.8960697e-05 -0.009987599 0.012565813 -0.014391262
0.006091518 -0.013224662 0.0027229679 0.012513926 0.0003119831 0.02009439 -0.00901397 0.016695369
0.00974029 0.0030292235 0.0010402225 0.014664542 0.00026953444 -0.0101093985 -0.0017756645 -0.001862201
0.0051923143 -0.0022941208 -0.008021512 -0.01023313 -0.005002303 -0.0006676559 -0.010057779 0.016671764
-0.0109662125 0.004148966 -0.0076924874 0.008476851 -0.008078592 -0.012236022 0.00013626067 0.0038669584
-0.0016640237 -0.0004916646 -0.008246563 0.0028938216 -0.010638746 -0.0077114133 0.00253837 0.000863892
-0.015295557 0.018396176 0.007076625 0.007313945 0.0022630924 -0.0073391106 -0.0020901896 0.0007741688
-0.0029225156 -0.001750422 -0.015119051 0.014259924 -0.007868541 -0.008281835 0.018052878 0.0032637583
-0.006876965 0.008285097 -0.00029429843 0.0041533336 -0.005172222 0.004193838 0.011334653 0.0006707706
-0.003032754 0.0014889487 0.011247937 0.0024881011 0.009205045 0.0026466583 0.016114421 0.010586102
-0.0024357405 9.3657145e-05 -0.014323623 0.016386129 0.010747747 0.016813152 0.0039131283 -0.009682743
0.008001492 0.005347052 0.0058932947 0.0003182702 -0.0050164834 0.0023320657 -0.0097699 0.0025850013
0.013884698 0.0027235877 0.013878042 0.012906705 0.003288064 -0.0089898715 -0.001986131 0.0021757071
0.015854826 0.0030258547 -0.016528664 0.0039267275 -0.030050853 -0.016872043 -0.0043083197 0.006127218
0.0075838347 0.020421091 -0.007423146 -0.02151887 0.01342738 -0.0084421355 0.0045576273 0.001290764
0.0030403093 -0.007896742 0.021187652 -0.005694371 0.004104837 0.0012851298 -0.0060181245 0.008662946
-0.010955049 0.0023743254 0.0042289807 0.0092548225 -0.0062513384 -0.010604566 0.0039903005 -0.010606514
-0.0068185595 -0.00846515 -0.0068128295 0.004550352 0.0047477987 -0.005862072 0.0022823317 0.0069578574
0.00012952424 -0.012798181 -0.004095455 0.004463125 0.004554021 0.00479717 0.000246673 0.018942673
-0.025469558 -0.004074619 0.012411019 0.0046685776 -0.017477231 -0.0042311125 -0.008041137 -0.015456136
-0.0022995474 -0.008720503 0.002553726 0.0075667747 0.0026664548 -0.011588533 0.007871586 -0.0032024619
-0.005074259 0.00855718 -0.006455498 -0.0017295529 -0.011385277 0.009472668 -0.010376724 -0.0073406384
0.0074352585 0.006516606 0.0043695397 -0.0047682365 0.022245621 0.005618833 0.0044424394 0.0035827332
0.0037970317 -0.010867188 0.028259832 -0.011504558 -0.009272718 -0.0026498705 -0.015013793 0.014291212
-0.009136351 0.0008865179 -0.0048704566 -0.004342792 0.004896738 -0.0034401175 -0.0058378875 -0.0016131075
0.0042513944 0.00526894 -0.0026405416 -0.008591119 -0.0143541545 0.014463341 -0.0050922413 0.016123626
-0.012284758 0.007871276 -0.0021773688 -0.011876208 0.004668826 0.004599289 0.01326487 -0.0054783737
-0.0007659666 -0.0075988183 0.007341866 0.016194321 0.012743349 -0.008232466 0.006798627 -0.0027611789

action_model._discrete_distribution.branches.3.bias f4 [2]
00000000: 1f85 1a3a 4985 1aba
0.00058944704 -0.0005894495
