results/Test2/Hero Knight Behavior/Hero Knight Behavior-124739.pt (torch, 451287 bytes, 51 tensors)

network_body.linear_encoder.seq_layers.0.weight f4 [128, 5]
0	0xbe2d860d	-0.16945668
1	0x3e44fed7	0.19237839
2	0x3f1008d2	0.5626346
3	0x3e4a64ab	0.19764964
4	0x3e9e9bcb	0.30978236
5	0x3cb4ebd3	0.022085106
6	0xbe81d72c	-0.25359476
7	0x3ea4749d	0.3212022
8	0xbe22bb1a	-0.15891686
9	0xba6306cf	-0.00086603774
10	0x3e3517e5	0.17684896
11	0x3e2f7ffa	0.17138663
12	0x3e8179c8	0.25288224
13	0x3ea1f9c8	0.3163588
14	0xbe2b92be	-0.16755196
15	0xbec29746	-0.38006037
16	0xbd2c0e2e	-0.04200571
17	0xbdab7f6b	-0.083739124
18	0xbde0eb77	-0.10982411
19	0xbdc0fb85	-0.094229735
20	0x3d8c61a7	0.06854563
21	0xbe3a3e68	-0.18187869
22	0x3e61f41a	0.22065774
23	0xbe2f7349	-0.17133822
24	0x3e964bb3	0.2935463
25	0xbe9f5afd	-0.31124106
26	0x3e129aca	0.1431686
27	0xbe0cec0a	-0.13761917
28	0xbcd53bf0	-0.026029557
29	0xbf34957d	-0.705406
30	0xbc9c3813	-0.019069707
31	0x3d89b94c	0.06724796
32	0xbf310a52	-0.6915637
33	0x3ef0d47e	0.4703712
34	0x3d3ab5e2	0.045583613
35	0xbe79593f	-0.24350451
36	0x3f843c55	1.0330912
37	0x3ea381c7	0.3193495
38	0xbd0258e1	-0.031823043
39	0xbf2786a3	-0.65439814
40	0x3c110a2b	0.008852522
41	0xbe838a8a	-0.25691634
42	0x3ee8598e	0.45380825
43	0xbe9fb3ca	-0.31191856
44	0x3e1c5a75	0.15268882
45	0xbf0250ac	-0.50904346
46	0x3f198102	0.59962475
47	0xbdea7503	-0.114480995
48	0x3e588512	0.21144512
49	0xbb1ef4ef	-0.0024254879
50	0xbe510809	-0.20413221
51	0xbef2569b	-0.473317
52	0x3eef6770	0.46758604
53	0xbf1037c7	-0.5633511
54	0xbdc882e3	-0.0979059
55	0xbe192e25	-0.14959009
56	0xbf6be08b	-0.921395
57	0x3eb4ee8f	0.35338256
58	0x3f1d91be	0.6155051
59	0x3efe7c1e	0.4970407
60	0xbe5bd8fb	-0.2146949
61	0x3e3c3333	0.18378906
62	0x3d5b876a	0.053595938
63	0x3f27b374	0.655082
64	0x3fdf6add	1.7454487
65	0xbf21f1f7	-0.63259834
66	0xbf143991	-0.5790034
67	0x3f3584eb	0.7090594
68	0x3f8238a7	1.0173539
69	0x3ebabb9c	0.3647126
70	0x3e990990	0.29890108
71	0xbf2c622c	-0.673373
72	0x3e525f2c	0.20544118
73	0xbf04ae9e	-0.51828945
74	0xbe897f16	-0.2685477
75	0xbdc3bf03	-0.09557917
76	0xbe6418c4	-0.22275072
77	0x3e18fcab	0.14940135
78	0x3e83d572	0.25748783
79	0x3eb71b0c	0.35762823
80	0xbd495be8	-0.049159914
81	0xbd24f720	-0.04027474
82	0x3c8121da	0.015763212
83	0xbe76c218	-0.24097478
84	0x3f387a00	0.7206116
85	0x3e29d515	0.1658519
86	0xbdb46893	-0.088090084
87	0x3d4db484	0.05022098
88	0xbc8385c5	-0.016054997
89	0xbef2d661	-0.47429183
90	0x3e30dccf	0.17271732
91	0xbced7105	-0.028984556
92	0xbda562c2	-0.08075477
93	0xbe0066df	-0.12539242
94	0xbe9de36f	-0.3083758
95	0xbef75b86	-0.48312014
96	0xbe392c2a	-0.18083254
97	0x3f088701	0.53331
98	0xbe9365d6	-0.28788632
99	0x3e7ce0a1	0.24695064
100	0x3d0c652b	0.03427617
101	0x3ef9ee9c	0.48814857
102	0xbfa6b68d	-1.302446
103	0x3ed518ab	0.41620383
104	0xbee9bd95	-0.45652452
105	0xbe8349ad	-0.25642148
106	0xbea797cf	-0.32733008
107	0xbe805aef	-0.25069377
108	0xbd61c134	-0.055115893
109	0xbe2a75c0	-0.1664648
110	0xbf8038b0	-1.00173
111	0xbeb674bf	-0.35635945
112	0x3f2076d2	0.62681305
113	0xbf5128ca	-0.81702864
114	0xbec81ac7	-0.3908293
115	0xbe8f8392	-0.28030068
116	0xbe0614de	-0.13093898
117	0xbed12a21	-0.40852454
118	0x3ec39e1b	0.38206562
119	0xbebf75bd	-0.37394515
120	0x3e76ad66	0.24089584
121	0xbd233035	-0.039840896
122	0x3d58fb6b	0.052974146
123	0xbf1c462d	-0.6104458
124	0xbf0be37e	-0.54644
125	0x3c85a004	0.016311653
126	0x3ede9823	0.43475446
127	0xbe431ed3	-0.19054727
128	0xbea93f81	-0.33056262
129	0x3e67ea88	0.2264806
130	0x3ec1aaa7	0.3782551
131	0x3f24286b	0.6412417
132	0x3dee51b9	0.11636681
133	0xbd15b676	-0.03655096
134	0x3e4b9967	0.19882737
135	0x3f5c09bb	0.8595235
136	0x3eb54f36	0.35411996
137	0x3f1651ac	0.5871837
138	0x3e4814f4	0.19539243
139	0x3ef16140	0.47144508
140	0x3d385a10	0.045007765
141	0xbd7d0600	-0.0617733
142	0x3f0964eb	0.53669614
143	0x3c5fc58f	0.0136579415
144	0xbe89cae4	-0.26912606
145	0xbe86fa01	-0.26362613
146	0xbd2b07e0	-0.041755557
147	0x3eb4d766	0.35320586
148	0xbdaea70e	-0.08527957
149	0xbf78a16c	-0.9712131
150	0x3e7ad003	0.24493413
151	0x3ecca630	0.3997054
152	0x3c65073a	0.013978774
153	0x3dfe2340	0.12409067
154	0xbe264945	-0.16238888
155	0x3e96ca77	0.29451343
156	0xbea48fc3	-0.3214093
157	0xbe973a02	-0.29536444
158	0x3e9a8766	0.30181426
159	0x3e17f52f	0.14839624
160	0xbc5d0209	-0.013489255
161	0xbef10198	-0.47071528
162	0x3e755895	0.23959573
163	0xbc2d5d62	-0.010581346
164	0x3ecb146a	0.39664012
165	0x3e57d182	0.21076015
166	0xbdbf159a	-0.09330292
167	0x3e83ce87	0.25743505
168	0xbe067c76	-0.13133416
169	0xbd90b761	-0.07066227
170	0x3e8153ce	0.2525925
171	0xbd827350	-0.0636965
172	0x3ebe9078	0.37219596
173	0x3de33ab0	0.11095178
174	0xbd3192b9	-0.043352816
175	0xbf7271a3	-0.94704646
176	0x3eca9077	0.39563343
177	0xbeb44e1b	-0.3521584
178	0x3f175e1a	0.5912796
179	0x3cfb13da	0.030649114
180	0x3e9bb6f7	0.3041303
181	0xbe8db0ec	-0.27674043
182	0x3ee62240	0.44948006
183	0x3dd11c32	0.10210456
184	0xbe9fdafe	-0.31221765
185	0xbed64a39	-0.41853502
186	0xbeb8c421	-0.36087134
187	0x3ef78cd6	0.48349637
188	0x3f05b54a	0.5222975
189	0xbe9acee1	-0.3023596
190	0xbea39886	-0.31952304
191	0x3e03672a	0.12832323
192	0x3e854133	0.26026306
193	0xbc51ea37	-0.012812189
194	0x3e9a3c89	0.3012431
195	0x3f1c99ef	0.61172384
196	0xbee640bb	-0.4497126
197	0xbd9affb5	-0.075683035
198	0x3ea551ca	0.32288963
199	0x3d23a89f	0.03995573
200	0xbec4f30a	-0.38466674
201	0xbf52043d	-0.8203772
202	0xbf193ff5	-0.59863216
203	0xbe279600	-0.16365814
204	0x3e76e453	0.24110536
205	0x3f244ab0	0.64176464
206	0xbe85bc49	-0.26120213
207	0xbdf13d82	-0.1177931
208	0xbe6a07df	-0.22854565
209	0xbdcbb757	-0.09947079
210	0x3f100864	0.56262803
211	0xbd396ea4	-0.04527153
212	0x3e356ff4	0.17718488
213	0x3f36abc3	0.7135584
214	0x3f2df9c9	0.67959267
215	0xbe7785f3	-0.24172191
216	0xbf25803b	-0.6464879
217	0xc002c6ef	-2.043392
218	0x3d5e6fc6	0.054305814
219	0xbe6a2a4f	-0.22867702
220	0x3ee618b7	0.4494073
221	0xbdbff769	-0.093733616
222	0x3e2bafa1	0.16766216
223	0x3e92c724	0.28667557
224	0xbeddf202	-0.433487
225	0xbed2df94	-0.41186202
226	0xbf0148fb	-0.50501984
227	0xbbc5f60e	-0.006041295
228	0xbee2a8ba	-0.44269353
229	0xbe543ec1	-0.20727064
230	0xbf7fd59a	-0.99935305
231	0xbdd772b7	-0.10519927
232	0xbee694e4	-0.4503547
233	0xbda7b871	-0.08189476
234	0x3ee21bbd	0.44161788
235	0xbc8763b8	-0.016527042
236	0x3ce337a5	0.027736494
237	0x3f680c06	0.90643346
238	0x3e312f7f	0.17303275
239	0xbe87e565	-0.26542202
240	0x3f4334c0	0.76252365
241	0xbe45c2f1	-0.19312645
242	0x3cad079a	0.021121789
243	0xbe2ada95	-0.16684945
244	0xbca27714	-0.019832171
245	0x3f21a2be	0.6313895
246	0xbf59b4e6	-0.85041654
247	0xbf0337de	-0.5125712
248	0xbf135aad	-0.57560235
249	0xbedf53eb	-0.43618712
250	0x3e9156b5	0.28386465
251	0x3eaa2cd0	0.33237314
252	0x3eaaf053	0.33386478
253	0xbebbd2df	-0.3668432
254	0xbf7054f8	-0.9387965
255	0xbe77e1b0	-0.24207187

network_body.linear_encoder.seq_layers.0.bias f4 [128]
0	0x3b014266	0.0019723414
1	0x3a308184	0.00067331665
2	0xbc53ffb5	-0.012939383
3	0x3aa52992	0.001260089
4	0xba349479	-0.0006888579
5	0x39e994a9	0.00044551984
6	0x3ac67e1c	0.0015143785
7	0xbaf4353f	-0.0018631591
8	0x3493d980	2.7539136e-07
9	0x3bca5b77	0.0061754542
10	0x3b85b985	0.0040809535
11	0xba4b97af	-0.0007766438
12	0xbbeb0b19	-0.007172954
13	0xba9211d9	-0.0011144235
14	0xba3b6efb	-0.0007150021
15	0xbb5e5516	-0.0033925227
16	0xbc1c2e8b	-0.009532581
17	0xba8aa218	-0.0010576872
18	0x3b03ac52	0.0020091725
19	0xbaebe2f0	-0.001799671
20	0xb7da8d1c	-2.6053334e-05
21	0x3af7d429	0.0018907833
22	0xb8cbd668	-9.7197306e-05
23	0xbb02c3ba	-0.0019953088
24	0x3930dc26	0.0001686668
25	0xbc1de023	-0.009635958
26	0xb93d4324	-0.00018049456
27	0xbad5a932	-0.0016301034
28	0xbaabc324	-0.0013104421
29	0x39ba01e4	0.00035478093
30	0x3b0e78c7	0.002173947
31	0xbaea72cd	-0.0017886997
32	0xbb77ad46	-0.0037792488
33	0x3b29465c	0.002582929
34	0xbac58db5	-0.0015072139
35	0xba1a7484	-0.0005891996
36	0x3b04b744	0.0020250836
37	0x3b6678ce	0.003516722
38	0xbb25348c	-0.0025208322
39	0x3c2171ae	0.0098537635
40	0x366db400	3.5420526e-06
41	0x38a41b0d	7.825168e-05
42	0xbaeef497	-0.0018230852
43	0xba9c54a9	-0.0011927086
44	0x3acf907b	0.0015835905
45	0xbaf085d0	-0.0018350426
46	0xbaf44b69	-0.0018638197
47	0x3b3f4499	0.0029185174
48	0xba7d2d0e	-0.0009657898
49	0xb036a12e	-6.6440264e-10
50	0xba1c7dda	-0.0005969681
51	0x3c0bb0a9	0.008526006
52	0x3bba35fe	0.005682706
53	0x3c37ba63	0.011213872
54	0xb9b3e779	-0.00034314
55	0xba6af167	-0.00089623634
56	0x3b1edc3e	0.0024240161
57	0xbaa95bbc	-0.0012921016
58	0x3b3e9086	0.0029077842
59	0xb9b9f99e	-0.0003547193
60	0x39bf1e9a	0.0003645316
61	0xb9fcd36e	-0.00048222713
62	0xb865559d	-5.467759e-05
63	0xbb6c5865	-0.003606343
64	0x3a14a90e	0.0005670943
65	0x3cb8d303	0.022561556
66	0xba87906a	-0.0010342721
67	0xb997072d	-0.0002880631
68	0xbb4fd746	-0.0031714006
69	0x3b0c3a5e	0.0021397094
70	0xbaf537fa	-0.0018708699
71	0xbb2fe2a4	-0.002683797
72	0xbb084256	-0.0020791492
73	0xbaef7815	-0.001827004
74	0xbb188b78	-0.002327649
75	0xbad14bd0	-0.0015968028
76	0xbb8090eb	-0.0039235256
77	0xb9256f28	-0.00015777035
78	0xbac89c0f	-0.0015305298
79	0xb9d7fe19	-0.00041197313
80	0xbb24cb66	-0.002514565
81	0xbb516abc	-0.0031954488
82	0xba7de647	-0.0009685498
83	0xba36b25b	-0.0006969326
84	0xbb6961bd	-0.0035611235
85	0x3a8ede78	0.0010900041
86	0xba81742a	-0.0009876539
87	0xb1d4d66c	-6.194389e-09
88	0xbb0db736	-0.0021624095
89	0x3b16d4cf	0.0023015027
90	0x3ba36bc0	0.00498721
91	0xb99eec89	-0.0003031234
92	0x3b5f2e77	0.0034054795
93	0x3abe8427	0.0014535234
94	0xbaabe470	-0.0013114344
95	0x3ab674fa	0.001392036
96	0xbb90537b	-0.004404483
97	0xbb8a36a1	-0.004217938
98	0xbb5bf903	-0.003356517
99	0x3bc23f51	0.005927958
100	0xbae608e4	-0.0017550257
101	0xbb22ddce	-0.0024851444
102	0x3a265725	0.0006345383
103	0xbaeff16d	-0.0018306203
104	0x3910079f	0.00013735749
105	0xb97355b1	-0.00023206208
106	0x38749144	5.8309422e-05
107	0xbac8ce21	-0.001532022
108	0xba06fef3	-0.0005149685
109	0x390d34b7	0.00013466446
110	0xba283623	-0.00064167584
111	0x3aa5fcaa	0.0012663801
112	0xba986e02	-0.0011629465
113	0xbaa51ca4	-0.0012597037
114	0xbb946113	-0.0045281737
115	0xbace2b8b	-0.001572953
116	0xbb78d0a5	-0.0037966159
117	0xba901dfd	-0.0010995265
118	0x39dcf43a	0.00042143633
119	0x3b3b57df	0.002858631
120	0x3a5842f3	0.00082497223
121	0x3a078b39	0.0005170587
122	0x3a3c3a39	0.0007180307
123	0xbb212b88	-0.0024592597
124	0xbb024d52	-0.0019882512
125	0xbbd1290a	-0.006383066
126	0xbb879edb	-0.00413881
127	0xbacc478a	-0.0015585285

network_body.linear_encoder.seq_layers.2.weight f4 [128, 128]
0	0xbd291e96	-0.041288935
1	0x3ddd13de	0.10794805
2	0x3e0cf599	0.13765563
3	0xbd5ce790	-0.053931773
4	0xbd2cf422	-0.04222501
5	0xbe042e75	-0.12908347
6	0xbd394a65	-0.045236964
7	0xbe06f436	-0.13179097
8	0xbcd52131	-0.026016803
9	0xbc08ae09	-0.008342274
10	0xbde14cac	-0.11000952
11	0xbd3a7e52	-0.045530625
12	0x3d7be33e	0.061496012
13	0x3d1a61ee	0.03769105
14	0xbd269cec	-0.040676996
15	0x3ca788a0	0.02045089
16	0xbd9f62e1	-0.077825315
17	0x3da50dbd	0.08059261
18	0xbd2a80eb	-0.041626852
19	0xbcfd04f5	-0.030886153
20	0xbd294853	-0.04132874
21	0xbe33a588	-0.17543614
22	0xb96d4b68	-0.00022630172
23	0x3e0ce961	0.13760902
24	0x3d7b13d4	0.061298206
25	0xbc3bcc2d	-0.0114622535
26	0xbd3d34f2	-0.04619307
27	0x3bbba4c0	0.005726427
28	0x3bb4b449	0.0055146557
29	0x3dfbb4b3	0.12290325
30	0x3d71a2d5	0.05899318
31	0xbdab2c73	-0.083580874
32	0xbc81ad2c	-0.015829645
33	0x3d450188	0.048097163
34	0xbd0db883	-0.034599792
35	0x3cd6fbbf	0.026243089
36	0x3d99cffd	0.07510374
37	0x3de1e3f4	0.11029807
38	0x3c12fe73	0.008971798
39	0xbe250a6b	-0.16117255
40	0x3d97d8bf	0.07414388
41	0xbda8a02e	-0.08233677
42	0x3dbaff6a	0.091307476
43	0x3d3d288d	0.04618125
44	0x3e191b52	0.14951828
45	0xbb7323c9	-0.0037100187
46	0xbe26be7e	-0.16283605
47	0xbd0aab30	-0.033854663
48	0x3c7c9d36	0.015418341
49	0x3e131388	0.1436292
50	0x3d1a4048	0.03765896
51	0xbe036751	-0.12832381
52	0xbdf67e5c	-0.1203582
53	0x3da359e0	0.07976127
54	0x3c8aad83	0.01692844
55	0x3ca79447	0.020456446
56	0xbdadd65f	-0.08488154
57	0x3e0f696b	0.14005058
58	0x3d0e2350	0.034701645
59	0xbe3bdc8c	-0.1834585
60	0x3ce53315	0.02797846
61	0x3d554a3d	0.052072752
62	0xbe32f81d	-0.1747746
63	0x3d1778e2	0.036980517
64	0x3e012b61	0.12614204
65	0xbe1f8c8d	-0.1558096
66	0xbd065c48	-0.03280285
67	0x3d4bc1d5	0.0497454
68	0x3dc47e51	0.095944054
69	0xbdd1bd30	-0.10241163
70	0x3e118b6f	0.14213346
71	0x3ce294e7	0.027658893
72	0xbc1e1bf5	-0.00965022
73	0x3d2eba62	0.042658217
74	0x3d4c1340	0.049823046
75	0x3dc3a092	0.09552111
76	0xbca1c149	-0.019745486
77	0xbd933eea	-0.07189734
78	0xbbd24c40	-0.006417781
79	0x3dec348b	0.11533459
80	0x3ded3b0d	0.11583529
81	0xbcde0e8f	-0.027106551
82	0x3e1768b6	0.14786038
83	0xbe80eed9	-0.25182226
84	0xbb9f3f0e	-0.0048598116
85	0xbd0b3d8e	-0.03399425
86	0x3dfc7701	0.12327386
87	0x3d170583	0.03687049
88	0x3cb0b824	0.02157218
89	0xbe3235b7	-0.17403303
90	0xbd476adb	-0.04868589
91	0xbc80961e	-0.015696581
92	0xbde0dcf7	-0.10979646
93	0x3dcf2612	0.10114683
94	0xbc8c174d	-0.017100954
95	0x3debabc9	0.11507375
96	0xbc6a4328	-0.014298238
97	0x3dbd2cb0	0.09237039
98	0x39d416a0	0.00040452648
99	0xbd9cc810	-0.076553464
100	0x3df315a1	0.1186936
101	0x3d862cd1	0.06551517
102	0x3d4eb4e0	0.050465465
103	0x3d69c906	0.057076477
104	0xbd7fde37	-0.06246778
105	0x3d8db3e4	0.06919077
106	0x3d827177	0.06369298
107	0x3d4e6e2b	0.050398033
108	0x3da42022	0.08013941
109	0xbd26ae41	-0.040693525
110	0x3d8bcfb1	0.06826723
111	0x3dcc2cb0	0.09969461
112	0xbc9db780	-0.019252539
113	0xbcc42a26	-0.02394588
114	0x3dd510b0	0.104035735
115	0x3e1cfaaa	0.15329996
116	0x3d226a71	0.03965229
117	0xbccfabfc	-0.025350563
118	0xbbf1b790	-0.0073766187
119	0xbe274768	-0.16335833
120	0xbdc0a2d8	-0.0940606
121	0x3e3bb6a2	0.18331388
122	0xbcbcf84e	-0.02306762
123	0x3be7a892	0.0070696557
124	0xbe3cf993	-0.1845458
125	0xbd803e05	-0.06261829
126	0xbcdfe9fc	-0.027333252
127	0x3e2658d3	0.16244821
128	0xbc8d4bb1	-0.017248007
129	0x3d587f35	0.05285569
130	0xbddcac68	-0.107750714
131	0xbd8b01f1	-0.0678748
132	0xbcdc4202	-0.026886944
133	0xbd2e029c	-0.042482957
134	0xbd0386cd	-0.032110978
135	0xbd302d4b	-0.043011945
136	0x3cfd173f	0.030894874
137	0x3e060984	0.13089567
138	0x3d8097df	0.06278967
139	0xbddb7d63	-0.10717275
140	0xbd6a0e4e	-0.05714255
141	0xbc0fbeea	-0.008773545
142	0xba82717f	-0.0009952037
143	0xbcdaf819	-0.02672963
144	0xbdb2dbd7	-0.087333374
145	0x3d7fb513	0.062428545
146	0xbd7ceaee	-0.061747484
147	0xbcc280d9	-0.02374308
148	0xbdb29e47	-0.08721595
149	0xbc8481dd	-0.016175205
150	0xbd020d38	-0.031750888
151	0x3e07dc3d	0.13267608
152	0xbd29c575	-0.041448075
153	0x3af7c8ad	0.001890441
154	0x3ca54b3a	0.020177472
155	0xbdcfe358	-0.10150784
156	0x3a559b2f	0.00081484293
157	0x3db45191	0.0880462
158	0xbe2ce138	-0.16882789
159	0xbd0bb927	-0.034112122
160	0x3caa197e	0.020764109
161	0x3d64c0de	0.055847995
162	0x3d115b8d	0.0354877
163	0xbe0ec77f	-0.13943289
164	0x3dd85992	0.10563959
165	0x3d19d6f8	0.037558526
166	0x3cabfbff	0.020994185
167	0x3d3ddcf4	0.046353295
168	0xbd4f78b0	-0.050652206
169	0x3d4d63f3	0.050144147
170	0xbe0bdc34	-0.1365822
171	0xbd54d82f	-0.05196398
172	0xbe490956	-0.19632468
173	0xbe21afa5	-0.1578966
174	0x3d8b2461	0.06794048
175	0x3d478c00	0.0487175
176	0xbd0af6b9	-0.0339267
177	0xbd6c0dce	-0.057630353
178	0x3d859590	0.065226674
179	0x3c22397c	0.009901401
180	0xbe0e7340	-0.13911152
181	0xbe2fb275	-0.1715792
182	0xbcd8fef9	-0.026488768
183	0xbe0d00bc	-0.13769811
184	0xbadfc61a	-0.0017072589
185	0x3d2b07f6	0.04175564
186	0xbe37111a	-0.17877617
187	0xbd4520cd	-0.048126984
188	0xbd774074	-0.0603642
189	0x3d24b3b2	0.040210433
190	0xbcb111a3	-0.021614855
191	0xbd879094	-0.06619373
192	0xbe0cda3e	-0.13755128
193	0x3c74a6dc	0.0149323605
194	0x3da58d5c	0.08083603
195	0x3dc56bd8	0.0963971
196	0x3cbbae11	0.02291015
197	0x3b0dc0aa	0.002162973
198	0xbd1690f8	-0.036759347
199	0x3dbc52fa	0.09195514
200	0x3da52282	0.080632225
201	0x3dd3cbbc	0.103415936
202	0xbcbe6879	-0.023243176
203	0xbbd00260	-0.0063479394
204	0xbdddaddb	-0.10824176
205	0xbe0fc8a7	-0.14041387
206	0xbd85ec00	-0.06539154
207	0xbdf64268	-0.12024385
208	0xbd8c1b50	-0.06841147
209	0xbd046172	-0.032319494
210	0x3bb7ffcc	0.00561521
211	0x3d609e0f	0.054838236
212	0xbd92e699	-0.07172889
213	0x3cd595eb	0.026072463
214	0x3e22fb19	0.15916099
215	0xbdc830c0	-0.09774923
216	0x3cd2066b	0.025637826
217	0xbd7e6e67	-0.062117007
218	0xbe50509d	-0.20343252
219	0x3ddf7f1c	0.10912916
220	0xbdfb84ce	-0.1228119
221	0xbe067d37	-0.13133703
222	0xbd7a85e2	-0.061162837
223	0xbb18a2fe	-0.002329051
224	0x3dbe78da	0.09300394
225	0xbd93c408	-0.07215124
226	0xbd809860	-0.06279063
227	0x3cd58d77	0.026068432
228	0x3d62e8b2	0.055397697
229	0xbc87b826	-0.016567301
230	0xbdc22ddf	-0.094814055
231	0xbeb25c8e	-0.3483624
232	0xbd153519	-0.03642759
233	0xbd8763ef	-0.06610858
234	0x3e059be8	0.13047755
235	0x3df540de	0.11975263
236	0x3bca6068	0.0061760433
237	0xbdd8ad9b	-0.105799876
238	0x3de11053	0.10989442
239	0x3cf3bf34	0.029754259
240	0xbdb48126	-0.088136956
241	0x3c65c78b	0.0140246255
242	0xbdc9767b	-0.098370515
243	0xbd900de6	-0.07033901
244	0x3df34651	0.11878646
245	0x3c05637e	0.008141397
246	0x3d9d63e8	0.07685071
247	0x3d8fab32	0.07015075
248	0xbd05237a	-0.032504536
249	0x3d3f06e3	0.046637427
250	0xbe00f485	-0.12593277
251	0xbca36350	-0.019944817
252	0xbc13042f	-0.008973165
253	0x3e370a97	0.17875133
254	0xbe15accf	-0.14616702
255	0xbdb55110	-0.08853352

network_body.linear_encoder.seq_layers.2.bias f4 [128]
0	0xbb0bc60f	-0.002132777
1	0xb940e780	-0.00018396787
2	0x392838fa	0.00016042954
3	0xba2b7693	-0.0006540801
4	0xbac628df	-0.0015118382
5	0xbaf4c06f	-0.0018673072
6	0xbae07920	-0.0017125942
7	0xb96881d2	-0.00022173606
8	0xbb049e27	-0.0020235868
9	0xbb0c46f4	-0.0021404596
10	0x3aa31cd3	0.0012444503
11	0xba3319b6	-0.00068321393
12	0x3ab56543	0.0013839382
13	0xbab885ff	-0.001407802
14	0xba3ec6e7	-0.00072775636
15	0x3a98e897	0.0011665997
16	0xbb3eaca2	-0.0029094596
17	0x3a187089	0.0005815109
18	0xbb62c21e	-0.0034600566
19	0xba49991a	-0.00076903554
20	0xbadfd252	-0.001707623
21	0x3ac74593	0.001520323
22	0x36a0b721	4.7896906e-06
23	0xbb421f80	-0.0029620826
24	0xbaefc9b4	-0.0018294365
25	0xb5b63ca4	-1.3577705e-06
26	0x39afab69	0.00033506312
27	0xb9e59a02	-0.00043793028
28	0x3b27980e	0.002557281
29	0xb9f7f2a7	-0.000472923
30	0xba10071e	-0.00054942246
31	0xba9d6a41	-0.0012009816
32	0xbb756e4e	-0.003744978
33	0xbac2d0f7	-0.0014863302
34	0xbab11065	-0.0013508914
35	0xb955e022	-0.00020396759
36	0xbb64cb3c	-0.0034911176
37	0xbaf31278	-0.0018544933
38	0xba515b11	-0.0007986287
39	0xba4bcb48	-0.0007774127
40	0xb990323f	-0.00027503257
41	0xbabcfedf	-0.0014419219
42	0x39259a67	0.00015793146
43	0x3b24cc47	0.0025146173
44	0xbadd078d	-0.0016863212
45	0x3a9c18d1	0.0011909251
46	0xb980bd7e	-0.00024555245
47	0xba6e794a	-0.0009097053
48	0x367fae64	3.809947e-06
49	0xbb11bca2	-0.0022237678
50	0xbb00e26b	-0.0019666206
51	0xb71f8150	-9.507246e-06
52	0xba91ee72	-0.0011133684
53	0xbae577b2	-0.0017506985
54	0xbaab78b5	-0.0013082238
55	0xbb24784f	-0.0025096124
56	0xba4e220a	-0.00078633486
57	0xbab161a0	-0.0013533123
58	0xb9655167	-0.00021869467
59	0xbac2e271	-0.001486851
60	0xbab6483a	-0.0013907023
61	0xbaea721e	-0.0017886793
62	0xba689934	-0.00088729267
63	0x3ad947b0	0.0016577151
64	0xba9dbd6c	-0.0012034602
65	0xb8b9d895	-8.861829e-05
66	0x32d367b4	2.4610792e-08
67	0xbb4cf31b	-0.0031272832
68	0xb9a20062	-0.00030899333
69	0xbb1f44f8	-0.0024302583
70	0x3b24d714	0.002515261
71	0x3b351cc5	0.0027635556
72	0xba245c61	-0.0006269869
73	0xbb324d39	-0.0027206673
74	0xbb83359e	-0.0040041944
75	0xbae6ddf7	-0.0017613758
76	0xbaac8ea1	-0.0013165065
77	0x3ada00dc	0.0016632336
78	0xbaf42766	-0.0018627464
79	0xba4fb554	-0.00079234433
80	0x3b3d435d	0.0028879263
81	0xbabde1ab	-0.001448681
82	0xbb1de063	-0.0024090044
83	0xbb34b240	-0.0027572066
84	0x39f18184	0.000460636
85	0xb8b6e0d8	-8.720317e-05
86	0xbaa022b0	-0.0012217369
87	0xba0e38fe	-0.00054253626
88	0x3b119125	0.0022211757
89	0x38af1de6	8.350219e-05
90	0xb9b29c96	-0.0003406747
91	0xbb0e3da0	-0.0021704212
92	0xbaf08c11	-0.001835229
93	0xbb1940c5	-0.0023384553
94	0xb94e9314	-0.00019700482
95	0xbba2ab43	-0.0049642636
96	0xba8eae60	-0.0010885708
97	0x39a49bf4	0.00031396712
98	0x3b1810bf	0.002320334
99	0xbaabe9c1	-0.0013115929
100	0xba7dbd49	-0.000967939
101	0xba7925d0	-0.00095042307
102	0x38040318	3.1474134e-05
103	0xbb3252d0	-0.0027210005
104	0xbb2ecb24	-0.0026671374
105	0xbabd6a6b	-0.0014451271
106	0xbaa18d20	-0.0012325384
107	0x3b7a9713	0.003823702
108	0x3a0a5bfe	0.000527799
109	0x3464b392	2.1299482e-07
110	0xbaaabff0	-0.0013027173
111	0xba43b4af	-0.00074655836
112	0xba6206fb	-0.0008622256
113	0xba91f7ba	-0.001113645
114	0xbb31638d	-0.0027067394
115	0x3b1a2277	0.0023519078
116	0x39a47590	0.00031368108
117	0x3ab0d38a	0.0013490778
118	0xb58fdfbe	-1.0719448e-06
119	0xba94c513	-0.0011350237
120	0xbabb4ada	-0.0014289275
121	0xbb0c5106	-0.0021410598
122	0xbaa3da94	-0.0012501054
123	0xbb0e45c3	-0.0021709062
124	0x395296a4	0.00020083279
125	0xbad33faa	-0.0016116996
126	0xb815e484	-3.573719e-05
127	0xba7b62dd	-0.0009589622

action_model._discrete_distribution.branches.0.weight f4 [3, 128]
0	0x3bdea26e	0.0067942655
1	0x3c025783	0.007955435
2	0x3be12675	0.0068710395
3	0x3a597312	0.000829504
4	0x3cb9687e	0.022632834
5	0xbb89f4d4	-0.004210094
6	0xbc30765f	-0.010770409
7	0xbbe065c0	-0.006848067
8	0x3ba2ead1	0.00497184
9	0xbbe99c00	-0.0071291924
10	0xbc0384e4	-0.008027289
11	0x3c51a2a7	0.012795127
12	0xbb73bd07	-0.0037191526
13	0x3bcbd476	0.0062203957
14	0x3cb63bfa	0.022245396
15	0xbc10aa45	-0.008829658
16	0x3b8d37e8	0.004309643
17	0x3c40b457	0.011761746
18	0x3afaa6dc	0.0019123214
19	0xbbf5b180	-0.0074979663
20	0xbc27a1ab	-0.010231416
21	0x3c4de744	0.012567345
22	0xbc11fb0c	-0.008909952
23	0x3bb401db	0.0054933853
24	0xbc07a349	-0.008278676
25	0x3c0c0c10	0.008547798
26	0x3b773e7b	0.003772645
27	0x3a8a3d8c	0.0010546907
28	0xbc3a186c	-0.011358362
29	0x3b46c0d5	0.003032734
30	0x3c83041d	0.015993172
31	0x395e5440	0.00021202955
32	0xbc2a7ef6	-0.010406246
33	0xbbe7a5a5	-0.007069307
34	0x3c087ba5	0.00833026
35	0x3bc0fd02	0.005889536
36	0x3bf7c552	0.007561364
37	0xbc3c15c7	-0.0114798015
38	0xbb93b4cf	-0.004507638
39	0xbb1aa7d5	-0.002359857
40	0x3bb5d4f1	0.0055490662
41	0xba607da5	-0.00085636444
42	0xbabf875d	-0.0014612485
43	0x3cb7f465	0.022455404
44	0xba74944f	-0.0009329961
45	0x3be0023e	0.006836205
46	0xbc322bf1	-0.010874734
47	0xbc82e9a6	-0.015980553
48	0x3b2bed49	0.0026233962
49	0xbaa2bc11	-0.0012415667
50	0xbba97796	-0.0051717265
51	0xbc23c9a9	-0.00999681
52	0x3c661cea	0.01404498
53	0xbaca1fbc	-0.0015420835
54	0xbbb54ff3	-0.0055332123
55	0x3c2e9718	0.010656141
56	0xbc51cbad	-0.012804908
57	0x3b8c0cf4	0.004274005
58	0x3b17254a	0.0023062997
59	0xbc5cd601	-0.013478757
60	0x3b6911db	0.0035563621
61	0x3bf61014	0.007509241
62	0x3bb825ad	0.0056197257
63	0x3b7273f3	0.003699538
64	0x3b22957c	0.0024808338
65	0xbb503d35	-0.0031774763
66	0x3c21721e	0.009853868
67	0x3bea48ff	0.007149815
68	0xb91d9c8a	-0.00015031002
69	0xbbbb540d	-0.0057168067
70	0xbc8d206d	-0.017227376
71	0x3c32df49	0.010917493
72	0xbb36bb3e	-0.00278826
73	0xbba80316	-0.005127321
74	0x3c4261b1	0.011864112
75	0xbb3bd5b1	-0.0028661306
76	0xbb9da9d8	-0.0048115067
77	0xbc1472f9	-0.009060615
78	0xbb50a3c1	-0.0031835886
79	0x3c5fd3da	0.013661349
80	0xbb11113b	-0.0022135514
81	0x3abc8b1c	0.001438472
82	0xb98b1a7a	-0.00026531873
83	0xbc69a3c4	-0.014260236
84	0x3be5cf8e	0.007013268
85	0xbc9836d6	-0.018580835
86	0x3ae6f4c5	0.0017620554
87	0xbb4e942f	-0.003152143
88	0x3c35e8b8	0.011102848
89	0x3c442448	0.011971541
90	0x3bfdd55c	0.0077463817
91	0x3bf80070	0.0075684115
92	0x3c2ad7bc	0.010427412
93	0xbc93c231	-0.018036934
94	0x3c114819	0.008867287
95	0xb9d923b4	-0.00041416066
96	0xbc9e2029	-0.019302445
97	0xbb82e2ef	-0.0039943377
98	0x3b90b677	0.0044162828
99	0xbbe59ecc	-0.0070074555
100	0xbb6be438	-0.0035994183
101	0xbc30cb7f	-0.010790705
102	0xbc1310a1	-0.008976133
103	0xb8a663a9	-7.93406e-05
104	0xb9f4660d	-0.0004661534
105	0x3c212eba	0.009837801
106	0xbaf93f2c	-0.0019016019
107	0x3b134718	0.0022472795
108	0x3bcc6752	0.0062379027
109	0x3b112c92	0.002215181
110	0xbb086f75	-0.0020818387
111	0xba935b89	-0.001124249
112	0x3c82c1d7	0.01596157
113	0x3c835937	0.016033752
114	0xbb7b1dd9	-0.003831735
115	0xbc2a4cc3	-0.010394278
116	0x3bc62a99	0.0060475585
117	0xbbcca60f	-0.0062453817
118	0x3b2e6e28	0.0026615951
119	0xbc97531f	-0.018472252
120	0x3b9b5369	0.004740168
121	0x3c104baf	0.008807107
122	0x3cbd35d3	0.023096954
123	0xbc27df3d	-0.010246095
124	0xba089234	-0.0005209774
125	0xbbd98635	-0.006638313
126	0xbbd4038b	-0.006470149
127	0x3c89f958	0.01684253
128	0x3bcdc902	0.0062800655
129	0xbc5da3ea	-0.01352785
130	0xbb1ab058	-0.0023603644
131	0xb8cfb01a	-9.903331e-05
132	0xba1ecb57	-0.00060575217
133	0x3b1ecaa8	0.002422968
134	0x3b3bbf2a	0.0028647878
135	0x3c4eaaeb	0.012613992
136	0xbbf3063d	-0.007416515
137	0xbb86104b	-0.0040912977
138	0xbc1ec9c7	-0.009691662
139	0x3c5bce7e	0.013415931
140	0x3c44d1b0	0.012012884
141	0x3be06faf	0.006849251
142	0x399e0fdf	0.00030147933
143	0x3c2dd6b7	0.010610274
144	0xbbb02199	-0.005375099
145	0xbc25a1d0	-0.01010938
146	0xb8cb495c	-9.6934586e-05
147	0x3c0aefd0	0.008480027
148	0xbc61e810	-0.013788238
149	0xbc0f4bd6	-0.008746108
150	0xbc4696e3	-0.012120935
151	0x3bac4de9	0.005258311
152	0xbb8d6151	-0.0043145795
153	0xbb45e15b	-0.0030194137
154	0x3ca87df6	0.020567875
155	0x3b8bf097	0.004270624
156	0xbc023e55	-0.007949431
157	0x3b15b82a	0.0022845366
158	0x3b9d494f	0.004799999
159	0x3b61983b	0.0034423012
160	0x3c2fd338	0.010731511
161	0x3b78f2ea	0.0037986585
162	0xba6850b1	-0.00088621216
163	0x3beeb408	0.007284645
164	0x3c0bf682	0.008542659
165	0xbbbde03a	-0.005794552
166	0x3c11e8d6	0.00890561
167	0xbc351338	-0.011051945
168	0x3c29d967	0.010366774
169	0xbaae5e7f	-0.0013303309
170	0x3c0eab5a	0.008707846
171	0x3c774735	0.015092661
172	0x3bfea8ca	0.007771586
173	0xbc256771	-0.010095463
174	0x3afb807b	0.001918807
175	0x3c3a6a60	0.011377901
176	0x3caabe96	0.020842832
177	0x3a41a778	0.00073873205
178	0x3b2fd784	0.0026831338
179	0xbafeab97	-0.00194298
180	0xbc5ddd66	-0.013541555
181	0xbbfb8b00	-0.007676482
182	0xbc69c6bf	-0.014268576
183	0x3c02db5c	0.00798687
184	0xbba00a37	-0.00488403
185	0xbc12e936	-0.008966735
186	0xbb17bf90	-0.0023154952
187	0x3b4ace76	0.0030945814
188	0x3c47ec7c	0.012202378
189	0xb9925ed0	-0.0002791793
190	0xbb95f252	-0.004576006
191	0x3b54fdd1	0.003249992
192	0x3c6792d8	0.014134131
193	0xb9ca8159	-0.00038624814
194	0xbb787890	-0.0037913658
195	0x3b732e7d	0.0037106567
196	0x3a9a4b1d	0.0011771653
197	0xbb46ae73	-0.0030316382
198	0xba014d60	-0.0004932489
199	0xbbd2ad8a	-0.006429379
200	0x3b841536	0.004030849
201	0xbb8486b9	-0.0040443805
202	0x3c1b5161	0.009479851
203	0x3c5f19fd	0.013617036
204	0xbbdfdf17	-0.0068320143
205	0x3c7735fc	0.0150885545
206	0x3c6395af	0.013890668
207	0xbb9c50f8	-0.0047703944
208	0xba898e04	-0.0010494594
209	0x3b08db79	0.002088277
210	0x3bc301aa	0.005951126
211	0xbc4f72b4	-0.012661625
212	0xbc931990	-0.017956525
213	0x3c0ff93f	0.008787452
214	0xbca05a1c	-0.019574217
215	0xbc91a5f1	-0.017779322
216	0xbc566312	-0.013085144
217	0x3b8f076e	0.0043648994
218	0xbbb6c23d	-0.005577354
219	0x3c19c828	0.0093861
220	0x3c4ca8c7	0.0124914115
221	0xbc52fc33	-0.012877512
222	0xbb1842f3	-0.0023233264
223	0x3a8a1acd	0.0010536552
224	0xbc34284c	-0.010995936
225	0x3b575c6f	0.0032861491
226	0xbc0713c6	-0.00824446
227	0x3aeeefae	0.0018229389
228	0xb944a154	-0.00018752116
229	0xbc5f9017	-0.013645194
230	0xbc6826f1	-0.014169441
231	0x3ba4775a	0.0050191106
232	0x3bb42d7a	0.0054985853
233	0xb9e5700e	-0.0004376177
234	0x3b13e52f	0.0022567024
235	0xbd1d6832	-0.038429447
236	0x3b3cdd3f	0.0028818396
237	0xbc0ff262	-0.008785816
238	0xbc33850c	-0.010957014
239	0xbb63c62a	-0.0034755566
240	0x3b086b98	0.0020816084
241	0xbac27473	-0.001483573
242	0x3bb2b6f8	0.0054539405
243	0xbc459149	-0.012058564
244	0x3cd7215d	0.026261026
245	0xbc7dfed2	-0.015502648
246	0xbbe25c99	-0.006908011
247	0xbb6de238	-0.0036298167
248	0x3c3ac8ad	0.011400384
249	0xbc5b22ae	-0.0133749675
250	0x3cd980f0	0.02655074
251	0x3bda70b5	0.0066662678
252	0x3bc318f6	0.0059539033
253	0x3b82f72b	0.00399675
254	0x3bf324ee	0.007420174
255	0x3cdea5b3	0.02717862

action_model._discrete_distribution.branches.0.bias f4 [3]
0	0x39f42bdf	0.00046571993
1	0x3984fffe	0.0002536773
2	0xba0cd6b1	-0.00053725677

action_model._discrete_distribution.branches.1.weight f4 [2, 128]
0	0x3b9d0117	0.0047913897
1	0x3c23fc21	0.010008843
2	0xbb1118c5	-0.0022140008
3	0x3c839ef9	0.016067015
4	0x3be3b3a2	0.006948904
5	0x3b9008a5	0.0043955618
6	0x3adc11d7	0.0016789985
7	0x3b593108	0.0033140797
8	0xbb383f93	-0.0028114065
9	0xba958e85	-0.0011410272
10	0x3b937bb5	0.004500831
11	0xbb9f28ff	-0.004857182
12	0x3a4a6dec	0.0007722068
13	0xbc0cca67	-0.008593178
14	0x3c79cb56	0.015246233
15	0x3c1b68d6	0.009485444
16	0x3cdabe46	0.026702058
17	0x3b9b5f81	0.0047416096
18	0xbb2bd71d	-0.0026220747
19	0xbb98c528	-0.0046621747
20	0x3c870f62	0.016486827
21	0xbb30e00f	-0.0026989018
22	0xbb0e3d1d	-0.0021703907
23	0x3bf72831	0.007542633
24	0x39eed381	0.0004555248
25	0x3b922f75	0.0044612237
26	0xbc1d2bef	-0.009592994
27	0xbc1cdb88	-0.009573825
28	0xbbd15241	-0.0063879793
29	0x3c10190a	0.008795032
30	0x3c05d265	0.008167838
31	0x3a670ea3	0.0008814132
32	0x3cbec313	0.023286378
33	0xbc3a3e01	-0.011367322
34	0xbb0d1674	-0.0021528276
35	0xbb0f0627	-0.0021823735
36	0xbbbc2851	-0.005742111
37	0x3b36e369	0.0027906543
38	0xbb8e2640	-0.004338056
39	0xbbe64954	-0.0070277844
40	0xbc95300f	-0.018211393
41	0x3c6991e5	0.014255975
42	0x3b74ba8a	0.0037342631
43	0x3c44588e	0.011984004
44	0xbb649ca3	-0.0034883402
45	0x3bb3c7bd	0.005486457
46	0xbbba5369	-0.005686213
47	0xbb794c4f	-0.0038039868
48	0xbbcd4be3	-0.00626515
49	0xbb751b73	-0.0037400394
50	0x3ba38ee0	0.0049913973
51	0x3aba129e	0.0014196222
52	0x3c2e68f4	0.01064514
53	0x3c6e560a	0.0145468805
54	0x3c6d4b98	0.014483355
55	0xbc9067a8	-0.017627552
56	0x3a8dad56	0.0010809104
57	0x3c2b138f	0.010441675
58	0xb94a07de	-0.00019267152
59	0x3c4f2780	0.012643695
60	0x3b05f38e	0.002043936
61	0x3b9ba0be	0.0047493866
62	0xbc38eb4f	-0.011286571
63	0xbba58b60	-0.005052015
64	0x3ac2ee02	0.0014871957
65	0xbc104d79	-0.008807533
66	0x3cc881f0	0.024476022
67	0xbbb7a217	-0.0056040394
68	0xb9889f0f	-0.0002605845
69	0x3b17f075	0.0023184095
70	0xbc2ade70	-0.01042901
71	0x3c92f33d	0.01793825
72	0xbbd1d877	-0.0064039784
73	0xbb7db674	-0.0038713487
74	0x3ca427a7	0.020038439
75	0x3b0255b0	0.00198875
76	0x3b9a8c29	0.0047164154
77	0x3c46c9ed	0.012133104
78	0xbc188972	-0.009310113
79	0xbac1801f	-0.0014762915
80	0xbc81e265	-0.015855024
81	0x3c705e81	0.014670969
82	0x39a6ff61	0.0003185226
83	0xbb097f9c	-0.0020980602
84	0xbb9c3d31	-0.004768037
85	0xbc9a5c35	-0.018842796
86	0x3c1b269f	0.009469657
87	0xbc9bcddf	-0.019019065
88	0x3bcb3ab9	0.0062020686
89	0xbc81812b	-0.015808662
90	0x3bfc8880	0.0077067018
91	0x3bdc04e2	0.0067144493
92	0x3b4862e8	0.003057653
93	0xbb898db4	-0.0041978005
94	0x3b8960a2	0.0041924277
95	0xbb0123a2	-0.0019705077
96	0xbba9c586	-0.0051810173
97	0xbbc2c4e3	-0.005943881
98	0x3c90354f	0.017603545
99	0x3c8a40c1	0.01687658
100	0x3c62697d	0.013819096
101	0xbbe39eee	-0.006946436
102	0x3c10670f	0.008813634
103	0x3c369d09	0.011145839
104	0x3bcc9071	0.0062428047
105	0x3b25beeb	0.0025290798
106	0x3beb38d6	0.007178406
107	0xbc63f7b7	-0.01391404
108	0x3bd76aec	0.0065740254
109	0x3bb2b8c9	0.005454157
110	0x3c307e67	0.010772324
111	0x3b5d5af0	0.0033776127
112	0x3bb8e16e	0.0056421077
113	0x3c3584fb	0.011079068
114	0xbbe772cc	-0.0070632454
115	0x3b9aaabc	0.00472006
116	0xb9bf267a	-0.00036459026
117	0xbb88f5cc	-0.004179692
118	0xbb69e7ee	-0.003569122
119	0xbc31ce55	-0.010852416
120	0xbbc13080	-0.005895674
121	0xb8f1fec2	-0.00011539228
122	0x3c8cab6d	0.017171586
123	0x3b9a509f	0.004709318
124	0xb96c14c8	-0.00022514455
125	0x3b03b3d5	0.0020096202
126	0x3c469a4e	0.01212175
127	0x3c1c401f	0.009536772
128	0x3bcf04dc	0.006317718
129	0xbc149789	-0.009069332
130	0x38ea2621	0.000111650916
131	0xbcbd0eca	-0.023078341
132	0xbb87cd28	-0.0041443296
133	0x3a8a47f2	0.0010550006
134	0x3c00b678	0.007856004
135	0xbcb3bedb	-0.021941593
136	0xbbfd82da	-0.007736546
137	0xbb9add67	-0.0047261002
138	0xbbb61dd7	-0.0055577564
139	0x3c08931b	0.008335854
140	0x3ac5a9e4	0.0015080539
141	0xbb1fd932	-0.0024390933
142	0x3b8c611e	0.004284038
143	0x3c67645a	0.014123047
144	0x3c9b2c26	0.01894195
145	0xbc700a46	-0.014650887
146	0xbc02183a	-0.007940346
147	0x3c53e094	0.012931962
148	0x3c096035	0.008384754
149	0xbc79ebff	-0.01525402
150	0x3c4cd255	0.012501319
151	0x3ba14408	0.00492144
152	0x3ba4d9fe	0.0050308695
153	0x3b402347	0.0029317902
154	0xb9f39ac8	-0.00046463893
155	0x3adcc54b	0.0016843466
156	0x3c31fee6	0.010863995
157	0xbb184327	-0.0023233385
158	0xba823229	-0.0009933162
159	0xbb4dd1a9	-0.0031405485
160	0xbbf2de91	-0.007411786
161	0x3b9e8662	0.004837797
162	0x3c070860	0.008241743
163	0x3be5da5d	0.0070145563
164	0xbb48c01c	-0.0030632084
165	0xbc7ab77c	-0.015302535
166	0xbbdce31e	-0.0067409417
167	0x3c0f5936	0.008749297
168	0x3beb05b5	0.007172311
169	0x38d605fe	0.00010205431
170	0x3b75330a	0.0037414455
171	0xbbaf1f3c	-0.0053442996
172	0xbba60bdb	-0.0050673313
173	0xbc25f665	-0.010129546
174	0xbc9a7eff	-0.018859385
175	0x3bb7f9aa	0.005614479
176	0xb740f843	-1.1501895e-05
177	0x3c10f4f7	0.008847467
178	0xbb8c90ac	-0.004289707
179	0xbcb6fac7	-0.022336377
180	0x3c7ba1c8	0.015358396
181	0x3b8f5bb8	0.0043749474
182	0x3ab3309f	0.0013671106
183	0xbc28f505	-0.010312323
184	0xbc977f5c	-0.018493347
185	0x3c6b776b	0.014371733
186	0xbc833c31	-0.016019912
187	0xbbb0be15	-0.0053937533
188	0xbc7e8bdc	-0.015536275
189	0x3c05b80c	0.008161556
190	0xbc20d498	-0.009816311
191	0xbb19efba	-0.0023488835
192	0xbb717746	-0.0036844774
193	0xbc067f1b	-0.008209015
194	0xbb466704	-0.0030273804
195	0x3c68a62d	0.014199776
196	0x3a2c4005	0.0006570819
197	0xbbb1e0db	-0.005428416
198	0x3c8628b2	0.016376827
199	0xbc038acf	-0.0080287
200	0xbb5114f7	-0.0031903365
201	0x3b7c359c	0.0038484102
202	0x3c9d3dc4	0.019194491
203	0xbc42d410	-0.01189138
204	0xbbc34cf1	-0.0059601
205	0x3ab0facd	0.0013502479
206	0x393279cf	0.0001702078
207	0xba1a1f21	-0.00058792724
208	0x391f91fa	0.00015217802
209	0x3a83a3c6	0.0010043315
210	0x3bbb8b9f	0.0057234312
211	0xb8411668	-4.6035653e-05
212	0x3cb83c51	0.022489699
213	0x3be110c8	0.0068684556
214	0x3c3541ed	0.011063081
215	0xbba1fe0e	-0.0049436158
216	0xbca083b3	-0.01959405
217	0xbb5abcd2	-0.0033376706
218	0x39999206	0.0002929123
219	0xbbf9915d	-0.0076162056
220	0x3c7fcbb6	0.015612533
221	0x3bed5be7	0.0072436216
222	0x3bd069ac	0.0063602533
223	0xbc0568b3	-0.008142638
224	0x3c9e0a81	0.019292118
225	0xbcada52e	-0.021196928
226	0x3ba71222	0.005098597
227	0xb81c2309	-3.7225927e-05
228	0xbca24d2e	-0.019812193
229	0x3c2854f3	0.01027416
230	0xbbb3c8bf	-0.0054865773
231	0x3c679a32	0.014135884
232	0xb96a0453	-0.0002231759
233	0xbbfa6dbd	-0.0076424764
234	0x3be58d6c	0.007005384
235	0x3c6068fd	0.013696906
236	0xbb9fe71e	-0.0048798462
237	0xbbac44eb	-0.005257239
238	0x3b5cf4c1	0.003371522
239	0xbae82527	-0.0017711268
240	0xbb20db5f	-0.0024544818
241	0x3c19c5d7	0.009385548
242	0xbc4dff4f	-0.012573077
243	0xbc8004e2	-0.015627328
244	0x3bb4b00e	0.0055141514
245	0xbccb8d74	-0.024847724
246	0x3bba7816	0.005690585
247	0xbc00a3d4	-0.00785156
248	0xbc1a2f4b	-0.00941069
249	0x3b0fcd2f	0.0021942367
250	0xbc186eae	-0.009303732
251	0x3b2fc7ae	0.00268219
252	0xbcb21191	-0.021736892
253	0x3c255cf0	0.010092959
254	0xbcab2f3c	-0.020896547
255	0xb80e3b4c	-3.3910663e-05

action_model._discrete_distribution.branches.1.bias f4 [2]
0	0xba00794a	-0.0004900886
1	0x3a00793e	0.0004900879

action_model._discrete_distribution.branches.2.weight f4 [2, 128]
0	0x3abc0207	0.0014343866
1	0x3c7f325b	0.0155759705
2	0x3baaf2ce	0.005216933
3	0xbc5bfab2	-0.01342647
4	0xbb0cb823	-0.0021472059
5	0x3c1875e9	0.009305456
6	0xbc19903e	-0.009372769
7	0xbb42361b	-0.00296343
8	0x3c1587db	0.009126629
9	0xbc3bbd53	-0.011458713
10	0xbb27cd09	-0.0025604388
11	0xbc46cce9	-0.012133815
12	0x3cadcad6	0.021214884
13	0x3b44c836	0.0030026562
14	0xbc1a3d6e	-0.00941406
15	0xbb616907	-0.0034394877
16	0xbc23d012	-0.009998338
17	0x3c2442c0	0.01002568
18	0x3b11fc43	0.0022275604
19	0x3b900e03	0.0043962016
20	0x3be4db8d	0.0069841803
21	0xbc0fe0fb	-0.008781667
22	0x3b91a671	0.00444489
23	0x3c05bb89	0.008162388
24	0x3c1a19fe	0.009405611
25	0xbc4e6142	-0.01259643
26	0x3c07ac27	0.00828079
27	0xbc84f91e	-0.01623207
28	0x3b426114	0.0029659914
29	0x3c6c5cd6	0.014426431
30	0xbb2b8e05	-0.002617718
31	0xbc256ec0	-0.010097206
32	0x3b544c56	0.0032394133
33	0xbbc6beda	-0.0060652317
34	0xbc01211a	-0.007881427
35	0x3c8007d8	0.01562874
36	0x3c1a8bfe	0.009432791
37	0xbc281b2a	-0.010260383
38	0x3b7da236	0.0038701422
39	0x37a7bd52	1.999611e-05
40	0xbb219482	-0.0024655168
41	0xbbae391a	-0.0053168656
42	0x3c8c50ca	0.017128367
43	0x3c878381	0.016542198
44	0x3bf43055	0.0074520507
45	0xbaab4f35	-0.001306987
46	0xbc293936	-0.010328582
47	0x3bf2d607	0.007410768
48	0xbc062fe0	-0.008190125
49	0xbc4375d6	-0.01192995
50	0x39c446d2	0.00037436798
51	0x3ba6588b	0.005076473
52	0x3c045dc7	0.008078999
53	0xbb19eaee	-0.0023485976
54	0x3a97f7a9	0.0011594194
55	0xbc25532a	-0.010090629
56	0xbc27ff78	-0.01025378
57	0xbbfe193f	-0.0077544744
58	0xbc501897	-0.012701175
59	0x3b2b2392	0.002611373
60	0x3b947dae	0.0045315837
61	0x3c07ece9	0.00829623
62	0x3c43ff36	0.0119627025
63	0x3a57fbd7	0.0008239126
64	0x3c6354fb	0.013875241
65	0x3bf6a25d	0.0075266794
66	0xb8cc17ad	-9.731888e-05
67	0x3b915c03	0.0044360175
68	0x3c599a38	0.0132813975
69	0x3c112c57	0.008860669
70	0xbb8baf49	-0.004262839
71	0x3bd16fca	0.0063915
72	0x3c27ab0c	0.010233652
73	0x3bda4c1f	0.0066619064
74	0x3a7ba21d	0.0009599047
75	0xba7fd87f	-0.00097597385
76	0x3bafb0ee	0.005361668
77	0xbbdb0a67	-0.0066845897
78	0x3cb926ba	0.022601474
79	0x3b69dfc2	0.0035686349
80	0xbc8bef13	-0.017081773
81	0xbb29de60	-0.00259199
82	0x3c82a12d	0.015945995
83	0xbb0118b9	-0.0019698574
84	0xbc4bbe5e	-0.012435524
85	0xbba890f9	-0.005144235
86	0x38ccabf8	9.75951e-05
87	0xbb9b31db	-0.004736168
88	0x3cb02259	0.021500753
89	0x3b9d3f6f	0.0047988216
90	0xbc128b0c	-0.008944284
91	0x3c7c5165	0.015400265
92	0x3be3277c	0.006932197
93	0x39bd7689	0.00036137205
94	0x3c503041	0.012706817
95	0xbc0fffda	-0.008789027
96	0x3c1df284	0.00964034
97	0x3b67bccb	0.0035360332
98	0x3b6500ef	0.0034943183
99	0x3c0a6bd4	0.00844856
100	0x3c547a1a	0.012968564
101	0xbbe925ad	-0.007115087
102	0x3c2ba393	0.010476011
103	0x3c820240	0.015870214
104	0x3bf9c934	0.0076228622
105	0x3bb62444	0.0055585224
106	0xbac73bb6	-0.001520029
107	0x3c116948	0.008875199
108	0xbb4cf91f	-0.0031276417
109	0x38dceb5c	0.000105342566
110	0xbc09e920	-0.008417398
111	0x3b9e046c	0.0048223045
112	0xbbd1f093	-0.0064068525
113	0xbbcc3e01	-0.0062329774
114	0xbc51d27f	-0.012806534
115	0x3b2f426e	0.0026742476
116	0x3b95b4fd	0.0045686946
117	0x3c79cd1b	0.015246655
118	0x3ae8c5a5	0.0017759098
119	0xbb8ed37e	-0.004358708
120	0xbb923fff	-0.0044631953
121	0xbb495611	-0.0030721466
122	0x3bc5593b	0.0060226
123	0xbbd9d009	-0.006647114
124	0x3b6643af	0.0035135557
125	0x3bf3d294	0.0074408744
126	0x3c37e50b	0.011224042
127	0x3b685264	0.00354495
128	0xbc22721a	-0.009914899
129	0x3c126854	0.008936007
130	0xbca2016b	-0.019776067
131	0x3c7f49da	0.015581572
132	0x3b987bd9	0.0046534357
133	0x3bc1ffe8	0.005920399
134	0xbb389e56	-0.0028170547
135	0xbb5f7905	-0.0034099233
136	0x3b920b93	0.004456946
137	0x3b22a7be	0.002481922
138	0xbc8edce1	-0.017439308
139	0xba72461e	-0.00092420157
140	0xbc21b18a	-0.009868989
141	0xb9ed1756	-0.0004522155
142	0x3b302885	0.002687962
143	0xbc0f8296	-0.008759161
144	0xbb44ad98	-0.0030010697
145	0x3ad3211c	0.001610789
146	0xba8e7e1d	-0.0010871325
147	0x3bf60581	0.0075079803
148	0xbbf328e4	-0.007420646
149	0xbb3841ea	-0.002811546
150	0x3c1e0d80	0.009646773
151	0xbb51ddea	-0.003202314
152	0x3c1e71f0	0.0096707195
153	0xbc7016ed	-0.014653903
154	0xbb8a201a	-0.0042152526
155	0xbc1c1d1d	-0.0095284255
156	0x3c5ebf9b	0.013595487
157	0xb98544af	-0.0002541891
158	0x3c07c8c5	0.008287613
159	0xbb8ce2d6	-0.004299502
160	0x3a7bdebf	0.0009608082
161	0x38814ea0	6.1658444e-05
162	0xbb73a362	-0.0037176241
163	0x3c1d8203	0.009613517
164	0xba50e623	-0.00079688634
165	0x3c9127c8	0.017719164
166	0x3accbfd8	0.0015621139
167	0xbb260854	-0.0025334554
168	0x3b8589aa	0.0040752487
169	0xbb817630	-0.0039508566
170	0xbaa75964	-0.0012767729
171	0xbafbe0fc	-0.0019216831
172	0xbc63a195	-0.013893505
173	0xbadc724a	-0.0016818729
174	0x3bae565a	0.0053203525
175	0x3b6f419f	0.003650762
176	0x3cb83937	0.02248822
177	0x3b99a870	0.004689269
178	0x3c9ae405	0.018907556
179	0xbb198ee5	-0.002343112
180	0x3c9b7fca	0.018981833
181	0x3b8485ad	0.0040442557
182	0xbb50666c	-0.003179933
183	0xbc155e32	-0.009116696
184	0xbba6b1a1	-0.005087093
185	0x3b9d4a45	0.0048001134
186	0x3bb48580	0.0055090785
187	0x3c2b0a68	0.010439493
188	0xbb5619dd	-0.0032669224
189	0xbc79c5c8	-0.015244909
190	0xbb8bdea2	-0.0042684833
191	0xbc06a478	-0.008217923
192	0x3b3366c5	0.0027374488
193	0x3c95dc2e	0.018293466
194	0x39a96dcf	0.00032316006
195	0x3bc08f83	0.005876483
196	0xbc23c7e0	-0.009996384
197	0x3a67143a	0.00088149647
198	0xb8a0131c	-7.632954e-05
199	0x3b724a21	0.0036970454
200	0xbbb16ecb	-0.005414819
201	0x3c1644e3	0.009171697
202	0x3a6456d5	0.0008710449
203	0x3c941f02	0.018081192
204	0xbba772c9	-0.005110119
205	0x3c4eced7	0.012622557
206	0x3b3e731c	0.002906031
207	0x3b3d04ef	0.0028842052
208	0x3ba28af4	0.004960412
209	0x3b80872a	0.003922363
210	0x39591e2d	0.00020705974
211	0x39fe8e95	0.00048552887
212	0x3b9c519c	0.004770471
213	0x3bfe2739	0.0077561405
214	0x3bcaae44	0.006185325
215	0xbc86704d	-0.016410971
216	0x3b80f9ff	0.003936052
217	0xbc2dadb4	-0.010600496
218	0x3c1c4d4f	0.009539916
219	0x3c707881	0.014677168
220	0xbc51f53b	-0.012814815
221	0x3b42bb75	0.0029713784
222	0x3c17cbf0	0.009264931
223	0xbca3f422	-0.020013873
224	0xbb451434	-0.0030071856
225	0xbbe516ae	-0.006991229
226	0xbc58df60	-0.0132368505
227	0xb6e1973c	-6.7231285e-06
228	0x3bd9b4b6	0.006643857
229	0xbc52dd8a	-0.012870202
230	0xbc617b11	-0.0137622515
231	0x3c4505c5	0.012025301
232	0xba3b954f	-0.00071557326
233	0xba3fc96b	-0.00073160854
234	0xbbd58c46	-0.006516966
235	0xbca4bf91	-0.020110877
236	0x3bbc5705	0.005747678
237	0x3be2b46a	0.0069184797
238	0xbbda4ba0	-0.0066618472
239	0xbc7c210b	-0.015388737
240	0x3bcfb9cb	0.006339287
241	0x3bf5e529	0.0075041247
242	0x3b0eca7e	0.0021788175
243	0xbba9fa8c	-0.005187338
244	0xbb5413cb	-0.003236043
245	0x3a0f85f6	0.0005474979
246	0x3ba5461d	0.0050437585
247	0xbaef439a	-0.00182544
248	0xbb90f863	-0.0044241413
249	0xbb0b11b9	-0.002122028
250	0xbbcaae7f	-0.0061853523
251	0x3a030aef	0.00049988827
252	0x3bb04073	0.0053787767
253	0x3bbad80e	0.0057020253
254	0x3b60eb48	0.0034319926
255	0xbaee3dda	-0.0018176392

action_model._discrete_distribution.branches.2.bias f4 [2]
0	0x3a5d2319	0.0008435711
1	0xba5d230f	-0.0008435705

action_model._discrete_distribution.branches.3.weight f4 [2, 128]
0	0x3b529fb6	0.0032138652
1	0xbc6ed379	-0.014576786
2	0xba2c078b	-0.0006562403
3	0x3b7f6232	0.003896844
4	0xbaa70a7f	-0.0012744217
5	0x3bbd495a	0.0057765665
6	0x3bd41447	0.006472144
7	0xbb02910f	-0.0019922887
8	0xbc2962e7	-0.010338522
9	0xbb8cb3f5	-0.0042939135
10	0x3bbc3527	0.005743641
11	0xbc40a95a	-0.011759127
12	0xbc0f7428	-0.008755721
13	0xbc11c602	-0.008897306
14	0x3c5bfd9e	0.013427166
15	0xba1046a1	-0.00055036886
16	0xba5a568c	-0.00083289365
17	0x3b2879ab	0.0025707285
18	0xbb98bac0	-0.004660934
19	0xbc0abd2f	-0.008467956
20	0xbc3709f6	-0.0111718085
21	0xbaea2008	-0.0017862329
22	0x3c0d1ab1	0.008612321
23	0xbb920667	-0.0044563296
24	0xbc1dad77	-0.009623877
25	0x3c1fa412	0.009743707
26	0x3ba0ee3d	0.0049112127
27	0x3c37055d	0.011170712
28	0xba77aea1	-0.0009448324
29	0x3bd4d824	0.0064954925
30	0xbaf3337e	-0.0018554775
31	0xbbdecb34	-0.006799126
32	0xbb870293	-0.00412018
33	0xbc81f08d	-0.015861774
34	0x3b87e4c3	0.0041471436
35	0x3b80ce4c	0.0039308425
36	0x38f26708	0.0001155865
37	0xbc1c8b01	-0.0095546255
38	0x3c4ec6b0	0.012620613
39	0xbc65f654	-0.01403578
40	0x3be93d2a	0.007117887
41	0xbc8d0455	-0.01721398
42	0x3b03e806	0.002012731
43	0x3c066a97	0.008204124
44	0xb8d35e03	-0.00010078775
45	0x3c9b3345	0.018945346
46	0xbc497f6a	-0.012298444
47	0x3c8c297d	0.017109627
48	0x3c1fdbda	0.009757007
49	0x3b72e3be	0.0037062014
50	0x3a328de4	0.00068113045
51	0x3c2c489c	0.010515358
52	0x3b971507	0.004610661
53	0xbc130c64	-0.008975122
54	0xbaaa2f36	-0.0012984041
55	0xbafbe9e2	-0.0019219483
56	0xbb9ce974	-0.004788572
57	0xbaff27ef	-0.0019466857
58	0xbbd470d4	-0.0064831767
59	0xbc23fcd6	-0.010009011
60	0xbb1d8cd1	-0.0024040232
61	0xb9220144	-0.00015449995
62	0xbc25ffe2	-0.010131808
63	0x3c8506c7	0.016238583
64	0xbc2ceb41	-0.010554136
65	0x3bc4163c	0.005984096
66	0xbbfbe783	-0.0076875105
67	0x3c09b6f7	0.008405439
68	0xbbfc2ab8	-0.007695522
69	0xbc4355f6	-0.01192235
70	0x3be91729	0.0071133566
71	0xba79e25d	-0.0009532327
72	0xbb0895a4	-0.0020841146
73	0x392f6bfa	0.00016729525
74	0xbc0f8cfc	-0.008761641
75	0x3b601ecf	0.003419805
76	0xbc346c29	-0.0110121155
77	0xbb458465	-0.0030138728
78	0xba60a52e	-0.00085695356
79	0x3aa5bdf0	0.0012645107
80	0xbc26cb5a	-0.010180319
81	0x3c99c22a	0.018769342
82	0x3bf1f1d0	0.0073835626
83	0x3c09062b	0.008363287
84	0x3b48c580	0.0030635297
85	0xbbceba1b	-0.0063088066
86	0xba410bd7	-0.000736413
87	0x3a7f74be	0.0009744874
88	0x3af30296	0.0018540199
89	0xbb02017d	-0.0019837313
90	0xbc6102f4	-0.013733614
91	0x3c68de5c	0.014213171
92	0xbbbcbd8b	-0.0057599
93	0xbc012efe	-0.007884739
94	0x3c97ac4c	0.018514775
95	0x3b6432f3	0.0034820407
96	0xbbd663bd	-0.0065426514
97	0x3b895f78	0.004192289
98	0xbb9976e6	-0.0046833633
99	0x3b93deb9	0.0045126346
100	0xbbac5e87	-0.005260292
101	0x3b8f6d19	0.004377019
102	0x3c40a048	0.011756964
103	0xba07bb77	-0.0005177776
104	0xbb8f4574	-0.004372293
105	0x3b01b7cb	0.0019793387
106	0x3c408273	0.0117498515
107	0x3b965d1a	0.0045887353
108	0x3ba31206	0.004976514
109	0x3b2dfb3f	0.002654746
110	0x3c8af1e6	0.01696105
111	0x3c3d967e	0.011571525
112	0xbb06765a	-0.002051732
113	0x3a39cba1	0.0007087533
114	0xbc606b6b	-0.013697485
115	0x3c42c493	0.011887687
116	0x3c351ad4	0.01105376
117	0x3c8c94be	0.01716077
118	0x3b90aecd	0.004415369
119	0xbba0e31e	-0.004909887
120	0x3c189ba4	0.009314451
121	0x3b7e7982	0.0038829749
122	0x3b4a2a64	0.003084802
123	0x3a2027e3	0.0006109459
124	0xbbde78e5	-0.006789314
125	0x3b28e227	0.0025769563
126	0xbc092e8d	-0.008372915
127	0x3b3550a9	0.0027666485
128	0x3c62cae6	0.01384232
129	0x3ac56ef4	0.0015062974
130	0x3c942f97	0.018089099
131	0x3c4f9e76	0.012672057
132	0x3b441300	0.0029918551
133	0xbc1d0892	-0.009584563
134	0xbb20d9b1	-0.0024543817
135	0x3b05ac50	0.0020396896
136	0x3c7a7637	0.015286974
137	0x3be145c4	0.006874772
138	0xbc605e0e	-0.013694299
139	0x3b7f7d15	0.0038984467
140	0xbce28aeb	-0.027654132
141	0xbc85d26d	-0.01633569
142	0xbb8951ac	-0.0041906442
143	0x3b947064	0.0045299996
144	0x3beb03b1	0.007172071
145	0x3c818f5b	0.015815428
146	0xbbdf0b21	-0.0068067466
147	0xbcb32954	-0.021870293
148	0x3c5a5d5c	0.013327923
149	0xbb817111	-0.003950246
150	0x3b89d34b	0.0042060963
151	0x3a459a82	0.0007537977
152	0x3bdb119c	0.006685449
153	0xbc018413	-0.007905024
154	0x3cab7606	0.020930301
155	0xbbc1c905	-0.005913856
156	0xb9ddaa4a	-0.0004227928
157	0xb8756dab	-5.8514688e-05
158	0xbb962177	-0.004581626
159	0x3bf89eb2	0.0075872773
160	0xbc00c446	-0.007859295
161	0xb9a1493a	-0.0003076287
162	0x3b82ad47	0.0039879414
163	0x3c03e094	0.008049149
164	0xbbcf06ee	-0.0063179648
165	0xbc34d6c8	-0.011037536
166	0x3b80f55e	0.0039355
167	0xbc3399f3	-0.010961997
168	0xbc008805	-0.00784493
169	0xbb92a9fe	-0.004475831
170	0xbbc7f84b	-0.006102597
171	0x3c112a37	0.008860162
172	0x3ba919fe	0.005160569
173	0xbb9a6fd8	-0.00471304
174	0x3bb669c3	0.005566807
175	0x3bd66b95	0.0065435865
176	0x38ec929c	0.00011280665
177	0xbc5cc6f2	-0.013475167
178	0xbb74dddd	-0.0037363686
179	0x3c0d1aa2	0.008612307
180	0x395f3b57	0.00021289043
181	0x3b700d55	0.003662904
182	0xb971c9cc	-0.00023058726
183	0x3c9baaf4	0.019002415
184	0xbc7dc423	-0.015488657
185	0xbb90e6e1	-0.004422054
186	0x3c32235a	0.010872686
187	0x3b91a2ca	0.004444455
188	0xbca4756c	-0.020075522
189	0xbb9b75ca	-0.004744266
190	0xbc028877	-0.007967106
191	0xbc7622d5	-0.015022953
192	0xbb31b598	-0.0027116295
193	0xbc2cf190	-0.01055564
194	0x3b2708f5	0.0025487517
195	0x3bfa49b2	0.0076381797
196	0x3b15a4da	0.0022833855
197	0xbc430179	-0.011902207
198	0x3a6a7bcf	0.00089448405
199	0x3ad409f1	0.0016177279
200	0xbb9881fb	-0.0046541668
201	0x3c01678a	0.007898221
202	0xbbc2a7e5	-0.0059404247
203	0xbb13d19c	-0.0022555357
204	0xbc346b4e	-0.011011912
205	0x3b9c78b6	0.004775132
206	0xbbe4c42d	-0.006981394
207	0xbbfdaa57	-0.0077412534
208	0x3b180b86	0.0023200228
209	0x3bc94f0a	0.0061434554
210	0x3b851f95	0.0040626028
211	0xbbbea15f	-0.005817577
212	0x3cafadc5	0.021445164
213	0x3b965b60	0.0045885295
214	0x3b4a6b33	0.003088665
215	0x3b5dab88	0.0033824164
216	0xba8062b2	-0.0009795038
217	0xbc2e39c2	-0.010633888
218	0x3cdc27ab	0.026874384
219	0xbc3bb984	-0.011457805
220	0xbc3a78e0	-0.011381358
221	0xbb47afa4	-0.003046968
222	0xbc7d8dd1	-0.015475706
223	0x3c66922c	0.014072936
224	0xbc1b2ae2	-0.009470673
225	0x3ba3299d	0.004979326
226	0xb9fc642b	-0.00048139816
227	0xbb9a13ff	-0.0047020908
228	0x3ba3579c	0.004984809
229	0xbb6d74e4	-0.0036233002
230	0xbbcd2256	-0.0062601967
231	0xb9de9778	-0.00042455993
232	0x3bb73421	0.005590931
233	0x3b9c956b	0.004778554
234	0xbb4df187	-0.003142448
235	0xbc2f2c6d	-0.010691744
236	0xbc25e5f0	-0.010125622
237	0x3c6cd5b5	0.014455249
238	0xbbc29aeb	-0.005938878
239	0x3c780636	0.0151382
240	0xbc4f90a8	-0.012668766
241	0x3bedc534	0.0072561745
242	0xbb37bb04	-0.0028035054
243	0xbbf1c140	-0.0073777735
244	0x3b8ef5e3	0.004362808
245	0x3b8b519b	0.0042516715
246	0x3c511a55	0.012762626
247	0xbc27f4c4	-0.010251228
248	0xbb083ea0	-0.002078928
249	0xbbc905ef	-0.0061347405
250	0x3c264daf	0.010150357
251	0x3c824429	0.015901642
252	0x3c6dd548	0.014516182
253	0xbc0ae492	-0.008477347
254	0x3bb10037	0.005401637
255	0xbb40dc6d	-0.002942826

action_model._discrete_distribution.branches.3.bias f4 [2]
0	0x3a7c35bd	0.0009621045
1	0xba7c35c4	-0.0009621049
