results/ppo/Dark Knight Behavior/Dark Knight Behavior-740.onnx (onnx, 78011 bytes, 12 tensors)

network_body.linear_encoder.seq_layers.0.weight f4 [128, 4]
0	0xbe100bcf	-0.14067005
1	0xbf7a1d69	-0.97701126
2	0xbd9b1485	-0.07572273
3	0x3d836aa6	0.06416826
4	0x3f992a4a	1.1966031
5	0xbe972902	-0.29523474
6	0x3e04b91f	0.12961243
7	0xbe0e2765	-0.13882215
8	0x3ee8acbf	0.45444295
9	0xbf5bb342	-0.858204
10	0xbeb0e587	-0.34550115
11	0x3e9427a4	0.28936493
12	0x3f190456	0.5977224
13	0xbee9c6f9	-0.45659617
14	0xbe3a4b73	-0.18192844
15	0x3df16468	0.11786729
16	0xbdb48126	-0.088136956
17	0x3f0dff2d	0.5546749
18	0xbf80704a	-1.0034268
19	0x3f220aef	0.63297933
20	0x3f0b897e	0.5450667
21	0xbe8c6255	-0.2741877
22	0xbf5305a5	-0.8243049
23	0x3eee4763	0.4653884
24	0xbf03d0e2	-0.51490605
25	0xbea0aa56	-0.31379956
26	0xbf28ecfd	-0.65986615
27	0xbed0bf09	-0.40770748
28	0x3f17a338	0.5923343
29	0xbf14d0ae	-0.5813092
30	0x3f203b6a	0.6259066
31	0x3f6aac2d	0.9166897
32	0xbd851b54	-0.06499353
33	0x3f4b2602	0.7935487
34	0x3e564601	0.20925142
35	0x3e5b6cb3	0.21428184
36	0xbd8e3ed1	-0.06945575
37	0xbf14eed8	-0.58176947
38	0x3f0df968	0.5545869
39	0xbeef3096	-0.46716756
40	0xbe2464c7	-0.16054069
41	0xbeb1321d	-0.34608546
42	0xbf7c9225	-0.986605
43	0xbeb913a7	-0.36147806
44	0x3de71a29	0.112842865
45	0x3ea9db1f	0.3317499
46	0xbdab6a26	-0.083698556
47	0x3e4253f3	0.18977337
48	0xbd88fd9b	-0.066889964
49	0x3e996615	0.29960695
50	0x3d27d0ee	0.040970735
51	0xbe195c91	-0.14976718
52	0xbe144236	-0.14478382
53	0xbeecdb67	-0.4626114
54	0x3f73f6c0	0.95298386
55	0x3e3e3721	0.18575718
56	0x3edec2f7	0.4350812
57	0xbe85119f	-0.25990006
58	0xbe8baff4	-0.2728268
59	0x3d1dcb16	0.038523756
60	0x3f0e2e85	0.55539733
61	0x3e8a42d1	0.27004102
62	0x3f519c33	0.81878966
63	0x3ccb3fe6	0.024810743
64	0xbe2e2ba2	-0.17008832
65	0x3f0abada	0.5419136
66	0x3f4fa5d5	0.81112415
67	0xbe18ef87	-0.14935122
68	0xbf469b2d	-0.7758053
69	0x3df27818	0.11839312
70	0x3e85c002	0.26123053
71	0xbeb9ea9b	-0.36311802
72	0x3f4a2367	0.7896027
73	0x3f57c955	0.84291583
74	0xbf05684d	-0.52112275
75	0xbca06a18	-0.01958184
76	0xbd3e87ab	-0.0465161
77	0x3ec50e16	0.3848731
78	0x3e8bd91d	0.27314082
79	0x3c4731c9	0.012157866
80	0xbeb7554c	-0.35807264
81	0xbeeac821	-0.4585581
82	0x3da83e57	0.082150154
83	0x3e93d576	0.28873795
84	0x3f51a5c3	0.8189356
85	0x3f64a130	0.8930845
86	0xbedcbd62	-0.43113238
87	0x3f582bb0	0.8444166
88	0x3e8f9598	0.28043818
89	0x3c4d0273	0.012512791
90	0xbe366041	-0.17810155
91	0x3eef6284	0.4675485
92	0xbe76b4b9	-0.24092378
93	0x3e86f86f	0.26361415
94	0x3dc72617	0.09724062
95	0xbe6e8211	-0.23291804
96	0xbda26685	-0.0792971
97	0xbf27e794	-0.65587735
98	0x3ecfbbdb	0.4057301
99	0x3f297fb9	0.66210514
100	0x3e0d83f3	0.13819866
101	0x3e677407	0.22602855
102	0xbe875902	-0.26435095
103	0x3f4d3ed9	0.8017402
104	0xbf655624	-0.89584565
105	0x3efcd0e8	0.49378133
106	0xbe989149	-0.29798344
107	0xbee56564	-0.44803917
108	0x3edec4ff	0.4350967
109	0xbf28034c	-0.6563003
110	0x3f37f318	0.71855307
111	0x3edff145	0.43738762
112	0xbf3a798b	-0.7284171
113	0xbee92cf9	-0.45542124
114	0xbf2abf4f	-0.66698164
115	0xbf489be7	-0.7836289
116	0x3e90e8de	0.28302664
117	0x3eead567	0.45865938
118	0x3eab2136	0.33423775
119	0x3e9337e5	0.28753582
120	0xbd6d2641	-0.05789781
121	0xbe941dc8	-0.2892897
122	0xbdcc9f78	-0.09991354
123	0xbf371f91	-0.7153254
124	0x3eb32e75	0.3499638
125	0x3e9bd10c	0.30432928
126	0xbe888ab3	-0.2666832
127	0xbd862827	-0.06550627
128	0xbe97db15	-0.29659334
129	0xbf1fc6e4	-0.6241286
130	0x3e3d33bc	0.18476766
131	0x3eda24d6	0.4260623
132	0x3e552b7e	0.20817372
133	0xbeb581a9	-0.35450485
134	0xbd3f83dd	-0.046756614
135	0x3eaa65d7	0.33280823
136	0xbf1b1110	-0.6057291
137	0xbe178d5c	-0.14800018
138	0xbe1b5a63	-0.15171199
139	0xbe99f6e6	-0.3007118
140	0xbf16ec36	-0.5895418
141	0x3f052992	0.52016556
142	0xbf7c126d	-0.98465616
143	0x3ee92532	0.4553619
144	0xbeaa24f1	-0.3323131
145	0x3e8df892	0.27728707
146	0x3e38e374	0.18055516
147	0x3f4728ca	0.77796614
148	0xbf4c5456	-0.79816186
149	0x3f46568c	0.7747581
150	0xbec4fc46	-0.3847372
151	0x3de7fb78	0.11327261
152	0xbe2852ff	-0.1643791
153	0xbf1863af	-0.59527105
154	0xbd759d0f	-0.059964236
155	0xbe97fb1e	-0.29683775
156	0xbd24eb15	-0.040263254
157	0x3ce89459	0.02839105
158	0x3da8316a	0.0821255
159	0x3e06a969	0.13150562
160	0x3ed5d79a	0.41766053
161	0xbe1df651	-0.15425994
162	0x3f0e76b7	0.55649894
163	0x3d8538eb	0.06504997
164	0xbea45aac	-0.32100427
165	0x3e2b8a46	0.16751966
166	0x3e3d8087	0.1850606
167	0x3f358d82	0.7091905
168	0xbf8a41fb	-1.0801386
169	0xbdc41794	-0.0957481
170	0x3e800b48	0.25008607
171	0xbc73014f	-0.014831855
172	0xbe00c290	-0.1257422
173	0x3f36c1a9	0.7138925
174	0xbd60123d	-0.054704893
175	0xbdd60fd5	-0.104522385
176	0x3f306f5b	0.68919915
177	0xbfedbe37	-1.8573674
178	0x3f8b2d93	1.0873283
179	0x3e4377a4	0.19088608
180	0x3eeba654	0.46025336
181	0xbeb477ea	-0.35247737
182	0x3f5e361c	0.86801314
183	0x3e26c06a	0.16284338
184	0xbe8c2a70	-0.27376127
185	0xbe129449	-0.14314379
186	0xbf4059cd	-0.75137025
187	0x3ef79c83	0.48361596
188	0x3c69c301	0.014267684
189	0x3e09a8aa	0.13443246
190	0x3e67c1d4	0.22632533
191	0x3eacdf5d	0.33764163
192	0x3e2f9319	0.17145957
193	0xbe30cb04	-0.17264944
194	0xbf40b388	-0.7527394
195	0x3ea01cd6	0.31272
196	0x3d349b7f	0.044093605
197	0x3ebfedfb	0.37486252
198	0x3e17f202	0.14838412
199	0x3f2b949b	0.6702363
200	0x3ed3fd10	0.4140401
201	0xbe5cfc69	-0.21580662
202	0xbf1c19f4	-0.609771
203	0x3f0b2bc4	0.54363656
204	0xbf0b48fe	-0.5440825
205	0xbe1db7b2	-0.15402105
206	0xbf4542e2	-0.7705518
207	0x3e3b26d2	0.18276528
208	0x3cb2cfe1	0.02182764
209	0xbe6bb52f	-0.23018335
210	0x3ebe93b6	0.3722207
211	0xbd526475	-0.051365335
212	0x3e837e44	0.2568227
213	0xbf2fdfdf	-0.68700975
214	0x3f0aa587	0.54158825
215	0xbec2295d	-0.37922183
216	0xbe22af2c	-0.15887135
217	0x3ed896be	0.42302507
218	0xbf3df768	-0.74205637
219	0xbf147a5c	-0.57999206
220	0xbc8452f5	-0.016152838
221	0x3e9e172b	0.3087705
222	0x3e31a41d	0.1734776
223	0xbf28c681	-0.6592789
224	0xbe894fdb	-0.26818737
225	0xbf10a9c2	-0.5650903
226	0xbe0c71da	-0.13715306
227	0x3e17c9b1	0.14823033
228	0xbf3f2720	-0.74669075
229	0xbd743c83	-0.05962802
230	0xbdfa84a9	-0.12232334
231	0xbe871801	-0.263855
232	0xbdb2fac3	-0.08739235
233	0xbf918dc7	-1.1371392
234	0x3ea5ff8b	0.32421526
235	0xbc754a13	-0.014971274
236	0xbf1569a0	-0.58364296
237	0x3ee637c4	0.4496442
238	0xbec1d5e0	-0.37858486
239	0x3fb8764f	1.4411105
240	0xbee1a53a	-0.4407137
241	0x3e15e808	0.14639294
242	0x3f0df212	0.55447495
243	0x3d918f8a	0.07107456
244	0x3f036950	0.5133257
245	0xbe286b6b	-0.16447227
246	0x3ec6fd9e	0.3886537
247	0xbe945e6b	-0.28978285
248	0x3e156215	0.14588197
249	0x3f03d09b	0.5149018
250	0x3eae21cf	0.3401017
251	0x3dd8a8c0	0.105790615
252	0x3ea297e5	0.3175651
253	0xbf03b10f	-0.51442045
254	0x3dbcc0c1	0.092164524
255	0xbd02bf32	-0.03192062

network_body.linear_encoder.seq_layers.0.bias f4 [128]
0	0x00000000	0.0
1	0x00000000	0.0
2	0x00000000	0.0
3	0x00000000	0.0
4	0x00000000	0.0
5	0x00000000	0.0
6	0x00000000	0.0
7	0x00000000	0.0
8	0x00000000	0.0
9	0x00000000	0.0
10	0x00000000	0.0
11	0x00000000	0.0
12	0x00000000	0.0
13	0x00000000	0.0
14	0x00000000	0.0
15	0x00000000	0.0
16	0x00000000	0.0
17	0x00000000	0.0
18	0x00000000	0.0
19	0x00000000	0.0
20	0x00000000	0.0
21	0x00000000	0.0
22	0x00000000	0.0
23	0x00000000	0.0
24	0x00000000	0.0
25	0x00000000	0.0
26	0x00000000	0.0
27	0x00000000	0.0
28	0x00000000	0.0
29	0x00000000	0.0
30	0x00000000	0.0
31	0x00000000	0.0
32	0x00000000	0.0
33	0x00000000	0.0
34	0x00000000	0.0
35	0x00000000	0.0
36	0x00000000	0.0
37	0x00000000	0.0
38	0x00000000	0.0
39	0x00000000	0.0
40	0x00000000	0.0
41	0x00000000	0.0
42	0x00000000	0.0
43	0x00000000	0.0
44	0x00000000	0.0
45	0x00000000	0.0
46	0x00000000	0.0
47	0x00000000	0.0
48	0x00000000	0.0
49	0x00000000	0.0
50	0x00000000	0.0
51	0x00000000	0.0
52	0x00000000	0.0
53	0x00000000	0.0
54	0x00000000	0.0
55	0x00000000	0.0
56	0x00000000	0.0
57	0x00000000	0.0
58	0x00000000	0.0
59	0x00000000	0.0
60	0x00000000	0.0
61	0x00000000	0.0
62	0x00000000	0.0
63	0x00000000	0.0
64	0x00000000	0.0
65	0x00000000	0.0
66	0x00000000	0.0
67	0x00000000	0.0
68	0x00000000	0.0
69	0x00000000	0.0
70	0x00000000	0.0
71	0x00000000	0.0
72	0x00000000	0.0
73	0x00000000	0.0
74	0x00000000	0.0
75	0x00000000	0.0
76	0x00000000	0.0
77	0x00000000	0.0
78	0x00000000	0.0
79	0x00000000	0.0
80	0x00000000	0.0
81	0x00000000	0.0
82	0x00000000	0.0
83	0x00000000	0.0
84	0x00000000	0.0
85	0x00000000	0.0
86	0x00000000	0.0
87	0x00000000	0.0
88	0x00000000	0.0
89	0x00000000	0.0
90	0x00000000	0.0
91	0x00000000	0.0
92	0x00000000	0.0
93	0x00000000	0.0
94	0x00000000	0.0
95	0x00000000	0.0
96	0x00000000	0.0
97	0x00000000	0.0
98	0x00000000	0.0
99	0x00000000	0.0
100	0x00000000	0.0
101	0x00000000	0.0
102	0x00000000	0.0
103	0x00000000	0.0
104	0x00000000	0.0
105	0x00000000	0.0
106	0x00000000	0.0
107	0x00000000	0.0
108	0x00000000	0.0
109	0x00000000	0.0
110	0x00000000	0.0
111	0x00000000	0.0
112	0x00000000	0.0
113	0x00000000	0.0
114	0x00000000	0.0
115	0x00000000	0.0
116	0x00000000	0.0
117	0x00000000	0.0
118	0x00000000	0.0
119	0x00000000	0.0
120	0x00000000	0.0
121	0x00000000	0.0
122	0x00000000	0.0
123	0x00000000	0.0
124	0x00000000	0.0
125	0x00000000	0.0
126	0x00000000	0.0
127	0x00000000	0.0

network_body.linear_encoder.seq_layers.2.weight f4 [128, 128]
0	0x3d8a6f8b	0.067595564
1	0x3d503762	0.050834067
2	0x3d582c46	0.052776597
3	0x3d6aff73	0.05737252
4	0xbdbcd132	-0.09219588
5	0xbce0f681	-0.027461292
6	0x3d207553	0.03917439
7	0xbdde7108	-0.10861403
8	0x3e3541b3	0.17700844
9	0x3ddae4f9	0.10688204
10	0xbcdbf3c5	-0.026849637
11	0x3dc30f13	0.095243596
12	0x3d20d8ef	0.039269384
13	0x3dab9681	0.08378316
14	0xbd4f5164	-0.05061473
15	0x3cf52347	0.029924048
16	0x3d94bdb9	0.07262749
17	0x3c5d4c2a	0.013506928
18	0xbdc47c74	-0.0959405
19	0x3d0bd9ae	0.034143142
20	0xbe44144b	-0.19148366
21	0x3da82597	0.08210295
22	0x3d93cbdf	0.0721662
23	0x3da6ad05	0.081384696
24	0x3d61653d	0.05502819
25	0xbd5244bb	-0.051335078
26	0x3dd07ba9	0.10179836
27	0xbccc1a36	-0.024914842
28	0x3de3b394	0.11118236
29	0xbd913ac3	-0.07091286
30	0x3d07dbcd	0.033168603
31	0xbd4c81cb	-0.049928468
32	0x3e1f284c	0.15542716
33	0xbcae33ff	-0.021265028
34	0xbd27ab2d	-0.04093473
35	0xbdbcd43a	-0.092201665
36	0xbd2e753f	-0.042592283
37	0xbc2d4d9b	-0.010577585
38	0xbceaf09e	-0.028679188
39	0x3dea2d94	0.114344746
40	0xbdfd49f6	-0.123676226
41	0x3c9f8884	0.019474275
42	0xba00713e	-0.0004899687
43	0xbe236f68	-0.15960467
44	0xbc8d2641	-0.017230155
45	0x3e906c4b	0.2820762
46	0xbd7a99a6	-0.061181687
47	0xbdf3b0f1	-0.11898983
48	0x3d02ebb4	0.031963065
49	0x3d4cc173	0.049989175
50	0xbd9b3b80	-0.07579708
51	0xbda6260d	-0.08112726
52	0x3d808c4f	0.06276762
53	0xbc62ea54	-0.0138498135
54	0x3e09c32f	0.13453363
55	0x3d13aeb8	0.036055297
56	0xbdc16532	-0.094431296
57	0x3caf38d3	0.0213894
58	0x3d8975dc	0.06711933
59	0xbca750a6	-0.020424198
60	0x3d9fc0b6	0.078004286
61	0xbc0a2eda	-0.008434022
62	0x3da8dc0b	0.08245095
63	0xbce0e646	-0.027453553
64	0xbde76aef	-0.11299693
65	0xbd3840df	-0.04498374
66	0x3db71c19	0.08940906
67	0x3e38e178	0.1805476
68	0x3dafc659	0.08582754
69	0x3e2dd21a	0.16974679
70	0xbc8207fe	-0.015872952
71	0x3d2acb32	0.04169769
72	0x3de39211	0.11111844
73	0xbd573f54	-0.05255063
74	0x3d6255ee	0.05525773
75	0x3d5e0211	0.05420119
76	0x3dcd38a3	0.10020568
77	0x3cf1fecc	0.029540442
78	0xbdb00595	-0.08594815
79	0x3dd2e4b8	0.10297531
80	0x3cfb159d	0.030649954
81	0x3d2b721f	0.04185688
82	0xbd3d61b4	-0.046235755
83	0xbcbed21d	-0.02329355
84	0x3e0e81f3	0.13916759
85	0x3d49ac0c	0.049236342
86	0x3db7ea1c	0.089802
87	0x3c7cce5f	0.015430062
88	0xbd835af9	-0.06413836
89	0xbcaa0c5c	-0.020757847
90	0x3e7b0eb9	0.24517335
91	0x3dc86496	0.0978481
92	0xbbf28150	-0.007400669
93	0x3d8ea457	0.06964939
94	0x3c21bace	0.009871198
95	0x3e046f80	0.12933159
96	0xbe0624f7	-0.13100038
97	0x3d9e7dba	0.07738824
98	0x3de06233	0.1095623
99	0xbdb1be69	-0.08678896
100	0xbc5e0653	-0.0135513125
101	0x3dde1add	0.108449675
102	0xbce058cb	-0.02738609
103	0xbd388f21	-0.045058373
104	0xb8ddf050	-0.00010582863
105	0x3d90d01e	0.07070945
106	0xbd895230	-0.06705129
107	0x3d265b71	0.04061455
108	0x3ab48aa1	0.0013774225
109	0xbc0de2ab	-0.008659999
110	0xbc8a22f1	-0.016862364
111	0x3da291e3	0.07937982
112	0x3dff5cf1	0.12468899
113	0xbe083000	-0.1329956
114	0xbe1407f1	-0.14456154
115	0x3c85cb30	0.016332239
116	0xbdbf17e8	-0.09330732
117	0x3d6957d2	0.056968518
118	0x3dd2307c	0.10263154
119	0xbd821ff2	-0.06353749
120	0xbe075696	-0.13216624
121	0xbdfc17a7	-0.12309199
122	0x3ca7e617	0.020495458
123	0xbdc62f7c	-0.09677026
124	0xbdba41d4	-0.09094587
125	0xbdc06dfe	-0.09395979
126	0x3dbf9a9f	0.093556635
127	0xbd4c7612	-0.049917288
128	0xbcd8d4b2	-0.026468609
129	0x3d7a1ced	0.061062742
130	0x3d92c557	0.07166546
131	0xbdb99c85	-0.09063057
132	0x3e03ff1a	0.12890282
133	0xbdd48e3b	-0.10378691
134	0x3e117b9f	0.14207314
135	0x3d0e4000	0.034729004
136	0xbd830c00	-0.06398773
137	0x3d4f9584	0.0506797
138	0x3cf4c414	0.029878654
139	0xbd93ae08	-0.07210928
140	0x3deab981	0.11461163
141	0x3c87bbe7	0.016569091
142	0xbc89b709	-0.01681091
143	0x3d82280c	0.063552946
144	0x3e396f2a	0.18108812
145	0xbe35bcc4	-0.1774779
146	0x3daf0af9	0.08547015
147	0x3e03bfe9	0.12866177
148	0xbdd7e05f	-0.10540842
149	0xbd433af5	-0.047663648
150	0xbdefb530	-0.11704481
151	0xbdbc370c	-0.09190187
152	0x3da2b8c0	0.079453945
153	0xbd426bb7	-0.047466006
154	0xbd3606ae	-0.044439964
155	0xbd7529ef	-0.059854444
156	0xbe14bb18	-0.14524496
157	0x3b2c1537	0.0026257762
158	0xbd1e0aa9	-0.038584385
159	0xbcd6aa7a	-0.026204336
160	0xbc82c871	-0.015964719
161	0x3d94c5c8	0.07264286
162	0xbd7735bf	-0.06035399
163	0xbd36ff4c	-0.044677064
164	0xbd30535b	-0.043048244
165	0xba0d9c0d	-0.00054019765
166	0xbd34c109	-0.044129405
167	0x3e0f9bed	0.14024325
168	0x3dc0d876	0.09416287
169	0xbdb1a99a	-0.08674927
170	0xbd46c0c3	-0.048523676
171	0x3d72f83a	0.05931876
172	0x3c139ef9	0.00901007
173	0x3d86941a	0.06571217
174	0x3e871ff7	0.26391575
175	0xbc78f1bd	-0.015194354
176	0x3b39b9b4	0.0028339447
177	0xbe22d211	-0.15900446
178	0x3c766e96	0.015041014
179	0x3dc3f3d1	0.09567989
180	0xbcd1fc84	-0.025633104
181	0xbe63b483	-0.22236829
182	0x3cf9de7a	0.030501593
183	0x3e0fe0a4	0.14050537
184	0x3d359b5c	0.044337615
185	0x3d6b0b0c	0.057383582
186	0x3e7198d4	0.23593456
187	0xbdaae95c	-0.08345291
188	0xbd06e4ad	-0.032932926
189	0xbc91ac3b	-0.017782321
190	0x3b1cc7ae	0.002392273
191	0xbc81fdfd	-0.015868181
192	0x3cd1a6a6	0.02559216
193	0xbd65a252	-0.056063004
194	0x3e5b5b18	0.21421468
195	0x3d1f3eea	0.03887836
196	0xbb0956c1	-0.002095625
197	0x3e001dd9	0.12511386
198	0x3dc2154b	0.094767176
199	0xbcc7c366	-0.024385165
200	0xbddb6d18	-0.10714167
201	0xbcb30c47	-0.02185644
202	0xba97bdac	-0.0011576912
203	0x3dfc407e	0.123169884
204	0xbe1e462b	-0.15456454
205	0x3cdefa25	0.027218888
206	0xbe12c8f7	-0.14334475
207	0x3d1e6132	0.03866691
208	0x3db1368b	0.08652981
209	0xbd50d81c	-0.050987348
210	0x3e0e028f	0.13868164
211	0xbdab3d71	-0.083613284
212	0xbdde0fe0	-0.10842872
213	0xbdc93f02	-0.09826471
214	0x3ccd3a63	0.025052255
215	0x3b626699	0.0034546016
216	0xba5068b0	-0.000795017
217	0xbd7fb663	-0.062429797
218	0x3d91f9f6	0.071277544
219	0x3e0d5423	0.13801627
220	0x3ce7b379	0.028283821
221	0x3e0a6cf4	0.13518125
222	0x3a4e7dca	0.00078770204
223	0x3d20c784	0.039252773
224	0xbd18a30b	-0.037264865
225	0x3b832abb	0.0040028966
226	0x3d6d7dad	0.057981182
227	0xbd8f9982	-0.07011701
228	0xbce452f8	-0.027871594
229	0xbe0b81ea	-0.13623777
230	0xbc21d3f4	-0.009877194
231	0xbd5df22c	-0.05418603
232	0xbc480263	-0.0122076
233	0xbd736a50	-0.05942756
234	0x3dd3141b	0.10306569
235	0x3d51e0c7	0.051239755
236	0xba00dff5	-0.00049161847
237	0x3e7eddcc	0.24889296
238	0x3e17aebe	0.14812753
239	0x3de54229	0.1119426
240	0xbd63c369	-0.05560628
241	0x3dd5817a	0.10425086
242	0xbd535c2e	-0.05160158
243	0x3d0fe4f9	0.035130475
244	0xbd5f7d83	-0.054563057
245	0xbd0e1d60	-0.034695983
246	0x3ca8b09b	0.020592025
247	0x3e280149	0.1640674
248	0xbc281f34	-0.010261346
249	0xbe197b24	-0.1498838
250	0x3cfa1e9f	0.03053218
251	0x3c4fe74f	0.012689426
252	0x3cb9dbe9	0.02268787
253	0x3d4cbbfc	0.049983963
254	0xbda3bed2	-0.079953805
255	0xbdd0aee1	-0.101896055

network_body.linear_encoder.seq_layers.2.bias f4 [128]
0	0x00000000	0.0
1	0x00000000	0.0
2	0x00000000	0.0
3	0x00000000	0.0
4	0x00000000	0.0
5	0x00000000	0.0
6	0x00000000	0.0
7	0x00000000	0.0
8	0x00000000	0.0
9	0x00000000	0.0
10	0x00000000	0.0
11	0x00000000	0.0
12	0x00000000	0.0
13	0x00000000	0.0
14	0x00000000	0.0
15	0x00000000	0.0
16	0x00000000	0.0
17	0x00000000	0.0
18	0x00000000	0.0
19	0x00000000	0.0
20	0x00000000	0.0
21	0x00000000	0.0
22	0x00000000	0.0
23	0x00000000	0.0
24	0x00000000	0.0
25	0x00000000	0.0
26	0x00000000	0.0
27	0x00000000	0.0
28	0x00000000	0.0
29	0x00000000	0.0
30	0x00000000	0.0
31	0x00000000	0.0
32	0x00000000	0.0
33	0x00000000	0.0
34	0x00000000	0.0
35	0x00000000	0.0
36	0x00000000	0.0
37	0x00000000	0.0
38	0x00000000	0.0
39	0x00000000	0.0
40	0x00000000	0.0
41	0x00000000	0.0
42	0x00000000	0.0
43	0x00000000	0.0
44	0x00000000	0.0
45	0x00000000	0.0
46	0x00000000	0.0
47	0x00000000	0.0
48	0x00000000	0.0
49	0x00000000	0.0
50	0x00000000	0.0
51	0x00000000	0.0
52	0x00000000	0.0
53	0x00000000	0.0
54	0x00000000	0.0
55	0x00000000	0.0
56	0x00000000	0.0
57	0x00000000	0.0
58	0x00000000	0.0
59	0x00000000	0.0
60	0x00000000	0.0
61	0x00000000	0.0
62	0x00000000	0.0
63	0x00000000	0.0
64	0x00000000	0.0
65	0x00000000	0.0
66	0x00000000	0.0
67	0x00000000	0.0
68	0x00000000	0.0
69	0x00000000	0.0
70	0x00000000	0.0
71	0x00000000	0.0
72	0x00000000	0.0
73	0x00000000	0.0
74	0x00000000	0.0
75	0x00000000	0.0
76	0x00000000	0.0
77	0x00000000	0.0
78	0x00000000	0.0
79	0x00000000	0.0
80	0x00000000	0.0
81	0x00000000	0.0
82	0x00000000	0.0
83	0x00000000	0.0
84	0x00000000	0.0
85	0x00000000	0.0
86	0x00000000	0.0
87	0x00000000	0.0
88	0x00000000	0.0
89	0x00000000	0.0
90	0x00000000	0.0
91	0x00000000	0.0
92	0x00000000	0.0
93	0x00000000	0.0
94	0x00000000	0.0
95	0x00000000	0.0
96	0x00000000	0.0
97	0x00000000	0.0
98	0x00000000	0.0
99	0x00000000	0.0
100	0x00000000	0.0
101	0x00000000	0.0
102	0x00000000	0.0
103	0x00000000	0.0
104	0x00000000	0.0
105	0x00000000	0.0
106	0x00000000	0.0
107	0x00000000	0.0
108	0x00000000	0.0
109	0x00000000	0.0
110	0x00000000	0.0
111	0x00000000	0.0
112	0x00000000	0.0
113	0x00000000	0.0
114	0x00000000	0.0
115	0x00000000	0.0
116	0x00000000	0.0
117	0x00000000	0.0
118	0x00000000	0.0
119	0x00000000	0.0
120	0x00000000	0.0
121	0x00000000	0.0
122	0x00000000	0.0
123	0x00000000	0.0
124	0x00000000	0.0
125	0x00000000	0.0
126	0x00000000	0.0
127	0x00000000	0.0

action_model._discrete_distribution.branches.0.weight f4 [3, 128]
0	0xbba13427	-0.004919547
1	0x3c9de158	0.019272491
2	0xbc3e9789	-0.0116328085
3	0xbb8e1802	-0.004336358
4	0xbb07f7b3	-0.0020747005
5	0xba891d3f	-0.0010460987
6	0xbb324218	-0.002720004
7	0x3b4d299a	0.0031305314
8	0xb8fe543b	-0.00012127353
9	0x3acad734	0.0015475512
10	0xbbf27f83	-0.0074004545
11	0xbb7e1a15	-0.003877287
12	0x3b5dd448	0.0033848453
13	0xbc76ed47	-0.01507122
14	0xbc577117	-0.013149521
15	0xbba6b381	-0.0050873165
16	0x3c2722ae	0.010201139
17	0xbbf3777b	-0.0074300147
18	0x3bcf2270	0.006321244
19	0xbb799383	-0.0038082309
20	0x3ab12a5f	0.0013516656
21	0xbc39d50f	-0.011342301
22	0x3adedbe3	0.0017002787
23	0x3b14ae77	0.0022686997
24	0xba968d37	-0.0011486177
25	0xbc88a9d2	-0.01668254
26	0xbc09eb93	-0.008417982
27	0x3c715942	0.014730753
28	0x3bd88ef7	0.0066088396
29	0x3a94ff7f	0.0011367648
30	0x3ba0ad08	0.0049034394
31	0x3c1a0fe9	0.009403207
32	0x3c6a273f	0.014291584
33	0x3b67c012	0.0035362286
34	0x3b8a1976	0.004214461
35	0x3c9bc00b	0.019012472
36	0xbb900997	-0.0043956744
37	0xbc88a267	-0.016679002
38	0x3c180c9e	0.009280352
39	0x3c00098b	0.007814775
40	0xbca4bcb0	-0.020109504
41	0x3baf7be2	0.005355344
42	0xbc4acc2a	-0.012377778
43	0xbb2869ea	-0.0025697895
44	0xba5da8ff	-0.00084556633
45	0x3b28ab04	0.00257367
46	0xb9c6b6b4	-0.00037901627
47	0x3aa12b1f	0.0012296176
48	0xbbaae83e	-0.0052156737
49	0xbc04213f	-0.008064567
50	0x3bd118f2	0.0063811475
51	0xbc36c620	-0.011155635
52	0x3bcbcf39	0.006219771
53	0xbbc60a57	-0.006043713
54	0x3adf62fa	0.0017043047
55	0x3babce9e	0.0052431365
56	0x3aedbb3d	0.0018137466
57	0x3b957e01	0.00456214
58	0xbbb5fc8c	-0.0055537876
59	0xbb7fbcb3	-0.0039022386
60	0x3bd2aa62	0.0064290026
61	0xb91bb7cb	-0.0001485042
62	0xbc3e55c2	-0.011617126
63	0x3c222207	0.009895808
64	0xbcbe18b1	-0.023205133
65	0xbb42f348	-0.0029747058
66	0xbb567ba5	-0.0032727506
67	0xbbeb19d3	-0.0071747093
68	0xbb955b6d	-0.004558018
69	0xbc5f1ee8	-0.0136182085
70	0xbc27c92b	-0.010240833
71	0xb9c4998b	-0.00037498432
72	0x3ba5b88d	0.0050574006
73	0xbb7c98c8	-0.0038543213
74	0xbb2ec5f3	-0.002666828
75	0xb85868f3	-5.1596155e-05
76	0xbb4a9a0f	-0.003091458
77	0xbbaa89ad	-0.0052044005
78	0xbcac71cb	-0.021050354
79	0xbc0d3bbf	-0.008620202
80	0x3b6b8cf5	0.0035942171
81	0xbc226e93	-0.009914058
82	0x3bf9f122	0.007627622
83	0x3bd725d2	0.006565788
84	0xbabaf317	-0.001426312
85	0xbb9a0a30	-0.0047009215
86	0xbbd46312	-0.0064815367
87	0x3b530b92	0.0032202941
88	0x3b3672b4	0.0027839364
89	0x3bd98a58	0.0066388063
90	0xbaf67222	-0.0018802325
91	0x3bf4b6fa	0.0074681016
92	0x3b0b9b2d	0.0021302209
93	0x3b18bbaf	0.0023305228
94	0xbb02948f	-0.0019924974
95	0x390ace31	0.00013237518
96	0xbb71a4c5	-0.0036871892
97	0x38b6f3ed	8.723871e-05
98	0xb9ad6ac7	-0.00033076687
99	0x398fbe80	0.0002741702
100	0xbc405550	-0.01173909
101	0x3c8dcb76	0.017308932
102	0x39f34f78	0.0004640778
103	0x3c58da10	0.013235584
104	0x3c91d895	0.01780347
105	0x3c3ca04f	0.01151283
106	0x3c43ce65	0.011951064
107	0xbb1f05cf	-0.0024264937
108	0x3c3c32f0	0.011486754
109	0x3a833e67	0.0010013104
110	0xbc2e1575	-0.010625233
111	0x3bc66b07	0.006055239
112	0x3a8a324b	0.0010543553
113	0x3b228522	0.0024798592
114	0xba86b551	-0.0010277425
115	0xbc89a4d7	-0.016802235
116	0xbc0d4f45	-0.008624856
117	0xbb347402	-0.0027534966
118	0xbbbc5c5d	-0.0057483152
119	0x3b261116	0.0025339774
120	0xbb37551d	-0.0027974315
121	0xb95fd0b5	-0.00021344687
122	0xbbb78f57	-0.0056018042
123	0x3be7b13f	0.00707069
124	0xbbce30a8	-0.0062924214
125	0xbbd28ab8	-0.006425228
126	0x3be3a6ca	0.006947373
127	0xbb9db813	-0.004813203
128	0x3c9965dd	0.01872533
129	0xbc108890	-0.008821622
130	0xbad8bff3	-0.0016536698
131	0x3c8bd643	0.017069941
132	0x3b670bdf	0.0035254878
133	0x3b8a2a28	0.004216451
134	0x3c5549f8	0.013018124
135	0xbb08c05b	-0.0020866606
136	0xbbefa045	-0.007312807
137	0x3b9d006c	0.00479131
138	0x3c2a588e	0.01039709
139	0xbb48a6e4	-0.0030617053
140	0x3bdb760a	0.006697421
141	0xbc15866a	-0.009126285
142	0x3c13ed9b	0.0090288175
143	0x3c3f7c79	0.011687391
144	0x3c4d0fd8	0.0125159845
145	0xbb9c1feb	-0.004764547
146	0xbb7ded15	-0.0038746048
147	0x3bfe73f8	0.0077652894
148	0xb8b1f77c	-8.486115e-05
149	0x3abaf174	0.0014262632
150	0xbc8d2271	-0.017228337
151	0x3bcd7778	0.0062703453
152	0x3c6fff30	0.014648244
153	0x3ab2b121	0.0013633111
154	0x3c00d276	0.007862678
155	0x3b85c87b	0.004082737
156	0xbc01a666	-0.007913208
157	0xbc132d14	-0.008982915
158	0xbbf5520f	-0.007486589
159	0x3c67aaab	0.0141398115
160	0x3c1e5e0a	0.009665975
161	0x3b73d0e2	0.0037203361
162	0xbb33ddc9	-0.0027445427
163	0x3bafa6af	0.0053604464
164	0xbc7a21f5	-0.015266885
165	0xbc13eb9f	-0.009028344
166	0xbbd50987	-0.00650138
167	0x3b2e6d61	0.0026615488
168	0xbba9300b	-0.005163198
169	0xbc067125	-0.008205687
170	0xbae69667	-0.0017592431
171	0x3b3dbdb5	0.0028952186
172	0x3b01d45e	0.0019810419
173	0x3c50b390	0.012738124
174	0xbc88747b	-0.016657105
175	0xbb8ef7c3	-0.0043630316
176	0xbc5f0f43	-0.0136144785
177	0xbc28f133	-0.010311413
178	0x3b1c5cc7	0.002385901
179	0x3ca82990	0.020527631
180	0x3be99937	0.0071288603
181	0xbbcae5d2	-0.0061919475
182	0x3c37b710	0.011213079
183	0x3b130a28	0.0022436474
184	0x3b25086e	0.0025182026
185	0x3c267a47	0.010160989
186	0xbc689aa0	-0.014197022
187	0x3c97a887	0.018512977
188	0x3b9d6f6f	0.0048045437
189	0xbc152785	-0.0091036605
190	0x3c08f763	0.008359763
191	0x3b4448bf	0.0029950587
192	0x3ab26243	0.0013609607
193	0xba5d7ef5	-0.0008449399
194	0x3c1bd3ca	0.009510944
195	0xbc2baf12	-0.010478752
196	0x3bb6df6e	0.005580834
197	0x39a1bc6f	0.00030848707
198	0xbc0cc6ea	-0.008592347
199	0xbaf0496d	-0.001833243
200	0x3c8bee9c	0.017081551
201	0xba9091ac	-0.0011029742
202	0x3c923e0b	0.01785185
203	0x3c3d0656	0.011537155
204	0x3bc20f1e	0.0059222123
205	0x3ca38527	0.019960953
206	0xbbd2036d	-0.0064091
207	0x3bf7f737	0.007567312
208	0x3c31b234	0.01084571
209	0x3b7969a5	0.0038057354
210	0xbc29cda3	-0.010363969
211	0x3c263bdb	0.010146107
212	0x3bbeac5f	0.005818888
213	0xbb144ffc	-0.0022630682
214	0x3b148317	0.0022661143
215	0x393ed076	0.0001819747
216	0x3c0a446b	0.008439164
217	0xba3179e7	-0.0006770179
218	0x3b845d18	0.004039418
219	0xbc7612df	-0.015019148
220	0x3c989817	0.01862721
221	0xbaef8b98	-0.0018275855
222	0xbbc5db06	-0.0060380725
223	0x3957f413	0.00020594923
224	0x3c75f5ef	0.015012248
225	0x3c18419a	0.009292984
226	0x3b37d519	0.00280506
227	0xbbbbbb0a	-0.005729084
228	0x3b8a84d3	0.0042272597
229	0xbae6a0a3	-0.0017595481
230	0x3c549550	0.012975052
231	0xbbf78fef	-0.007555
232	0x3bdea39a	0.006794405
233	0x3bdc3bef	0.006721012
234	0x3b29f532	0.0025933501
235	0xbbcb947b	-0.0062127686
236	0xbbabf72f	-0.0052479724
237	0xbb0bcad9	-0.0021330623
238	0x3bdb2c3f	0.006688624
239	0x3be53187	0.0069944295
240	0xbb8211b4	-0.0039693955
241	0x3bcdf60d	0.006285435
242	0x3b93fc2e	0.004516146
243	0xbc0913d2	-0.008366542
244	0xbb15794b	-0.0022807892
245	0x3bf51aaf	0.0074799876
246	0x3cce0f72	0.02515385
247	0x3c401aae	0.011725111
248	0x3bbd1267	0.005770016
249	0x3c09385a	0.008375252
250	0xbb920726	-0.0044564186
251	0xbd048c93	-0.032360625
252	0x3c4f301a	0.012645746
253	0x3c5cb6f3	0.013471353
254	0x3c03d87f	0.008047222
255	0xbb32c166	-0.002727592

action_model._discrete_distribution.branches.0.bias f4 [3]
0	0x00000000	0.0
1	0x00000000	0.0
2	0x00000000	0.0

action_model._discrete_distribution.branches.1.weight f4 [2, 128]
0	0xbc357fb7	-0.011077813
1	0xbc1ca8d1	-0.009561733
2	0x3ce368d3	0.027759945
3	0xbc0f3d31	-0.0087426165
4	0xbc79d245	-0.015247886
5	0x3bfd2045	0.007724794
6	0x39841216	0.00025190477
7	0xbb648b8b	-0.0034873213
8	0xbc549347	-0.012974567
9	0xbb494913	-0.0030713722
10	0x3be32897	0.006932329
11	0xb9959d50	-0.00028536702
12	0xbc094cdb	-0.00838014
13	0xba9a83e2	-0.0011788572
14	0xbbac7238	-0.0052626394
15	0xbb708eeb	-0.003670628
16	0xb9a181f5	-0.00030805139
17	0x3b335650	0.0027364679
18	0x3cb17344	0.021661408
19	0xbc5cbbdb	-0.013472523
20	0x3c1a603d	0.009422359
21	0xbbd62452	-0.0065350914
22	0x3c1a7540	0.009427369
23	0x3c7db69a	0.01548543
24	0x3c2b8d20	0.010470659
25	0x3b40c2cb	0.002941298
26	0x3c43fa2d	0.011961502
27	0xbb478113	-0.0030441924
28	0x3ba51f59	0.0050391373
29	0xbbe61d75	-0.0070225545
30	0x3c2c852c	0.0105297975
31	0x3c7a106f	0.015262707
32	0x3bb79da8	0.005603511
33	0xbc9ac2fa	-0.0188918
34	0xbb237062	-0.0024938812
35	0x3bf3535d	0.007425709
36	0x3b1c73c4	0.0023872713
37	0xbaabe76a	-0.0013115231
38	0xbc170b7f	-0.0092190495
39	0xbbb04fcb	-0.005380606
40	0xbbf3e3cf	-0.0074429284
41	0x3bb19ea6	0.0054205237
42	0x3b5746af	0.0032848527
43	0x3b5b7d8a	0.0033491575
44	0xbc0b4a4f	-0.008501603
45	0x3c16d0ef	0.009205087
46	0xbb50b5ef	-0.0031846722
47	0xbc1967d2	-0.009363132
48	0x3bbfb2f9	0.0058501926
49	0xbbfe2b85	-0.007756653
50	0x3b69c9df	0.0035673303
51	0xbb8ebda3	-0.0043561026
52	0xba4453c3	-0.0007489288
53	0x3bd3a092	0.0064583505
54	0xba9ab717	-0.0011803833
55	0xbba0ef4f	-0.0049113403
56	0xbae785df	-0.0017663798
57	0x3c301b30	0.0107486695
58	0xbaf9c34a	-0.0019055393
59	0xbc4addff	-0.01238203
60	0xbc1999f7	-0.009375087
61	0x3bbd2ad9	0.00577293
62	0xbc675638	-0.014119677
63	0xbb6c510b	-0.0036059048
64	0x3b54ca5a	0.0032469244
65	0xbcb3f38a	-0.021966714
66	0xbbb39644	-0.0054805595
67	0xbc046d0b	-0.0080826385
68	0x3b6e4f5a	0.0036363215
69	0xbc2117cd	-0.009832335
70	0xbb7551ea	-0.0037432858
71	0xbc66b795	-0.014081855
72	0x3bf6bd3f	0.007529884
73	0x38a52747	7.875129e-05
74	0xbb017e3f	-0.0019759086
75	0xbc05c0a3	-0.008163604
76	0x38480dea	4.7696674e-05
77	0xbbe3d7e3	-0.006953226
78	0xbb976449	-0.004620109
79	0xbcece3c0	-0.028917193
80	0x3b1185d3	0.002220501
81	0xbaff0e5f	-0.0019459239
82	0xbc60e007	-0.013725287
83	0x3aca2cf3	0.0015424773
84	0x3c32299c	0.010874178
85	0x3c944247	0.01809801
86	0x3bcab8d7	0.0061865854
87	0x3c9f0171	0.019409867
88	0xba86c27b	-0.0010281348
89	0x3c997317	0.018731637
90	0xbba5ac1b	-0.005055917
91	0x3b6037dd	0.0034212985
92	0xbbb88c56	-0.0056319637
93	0x3c5a983d	0.0133419605
94	0x3b49e54e	0.0030806842
95	0x3c515ebf	0.012778937
96	0x3b1ad486	0.002362521
97	0xbc0c52a6	-0.008564627
98	0xbbe945b2	-0.007118904
99	0x3be62353	0.007023254
100	0x3b2b5dea	0.0026148506
101	0xbad86892	-0.0016510657
102	0xbc8561cc	-0.016281985
103	0xbc5a5183	-0.013325098
104	0xbb91e879	-0.0044527617
105	0x39271599	0.00015934407
106	0x3c85c824	0.016330786
107	0x38f4ec9a	0.00011678897
108	0xbaad7ea3	-0.0013236593
109	0xbc17638f	-0.009240045
110	0xbb1e8010	-0.0024185218
111	0x3c56f2c5	0.013119404
112	0xbba3e2a6	-0.005001384
113	0xbb946d06	-0.004529598
114	0xbc306518	-0.01076629
115	0xbc39f73d	-0.01135045
116	0xbbc75b17	-0.006083857
117	0xbb2a4844	-0.0025983015
118	0xbc2f2acc	-0.010691356
119	0x3c78e642	0.0151916165
120	0x3c96a459	0.018388914
121	0x3b85825d	0.0040743784
122	0x3c4d115b	0.012516345
123	0xbb108a03	-0.0022054918
124	0xbbe1c818	-0.006890308
125	0xbbb2267b	-0.005436716
126	0xbc053a42	-0.0081315655
127	0x3ac09214	0.0014691972
128	0x3b813ad1	0.003943779
129	0x3bfbeb4d	0.007687962
130	0x3cb0035c	0.021485977
131	0xbb05c714	-0.002041285
132	0x3c26434f	0.010147884
133	0xbba32b17	-0.004979502
134	0xbc4f66b0	-0.01265876
135	0x3b861d60	0.0040928572
136	0x3ba494bc	0.0050226133
137	0xbbbef71b	-0.005827797
138	0xbc008006	-0.007843023
139	0xbc02c543	-0.007981601
140	0x3b50bac0	0.0031849593
141	0xbbad4649	-0.0052879197
142	0xbba6bcf7	-0.0050884443
143	0x3b971cdf	0.004611596
144	0xbb8157e4	-0.003947245
145	0xba8c1abf	-0.0010689123
146	0x3c0f5adf	0.008749693
147	0x3c23d823	0.0100002615
148	0x39f7db0f	0.00047274723
149	0xba0c06aa	-0.0005341569
150	0x3c610c5d	0.013735858
151	0xb7a16237	-1.923843e-05
152	0x3c77ed20	0.015132219
153	0x3c84ac0a	0.016195316
154	0x3c0a65da	0.008447135
155	0x3a84100c	0.0010075583
156	0xbb5e0a17	-0.0033880526
157	0x3be818d5	0.0070830383
158	0xbb995006	-0.004678729
159	0x3c24375d	0.010022965
160	0x3c1d2199	0.00959053
161	0xba9a8227	-0.0011788056
162	0x3c417a4f	0.011808946
163	0x3a1b890f	0.0005933204
164	0x3bfd543d	0.0077309893
165	0xbc77da25	-0.015127693
166	0x3b326277	0.0027219334
167	0x3cba6d8b	0.022757312
168	0x3b428c6f	0.0029685756
169	0xbb79651b	-0.0038054648
170	0x3a9623c3	0.001145475
171	0xbbf5601b	-0.0074882633
172	0x3b187350	0.002326209
173	0xbc194d1b	-0.009356762
174	0xba178583	-0.00057800877
175	0xb9b42434	-0.0003435925
176	0xbb990f0b	-0.0046709827
177	0x3c4a9499	0.01236453
178	0x3babff68	0.0052489527
179	0x3c10d4c5	0.008839791
180	0x3c1c6067	0.0095444685
181	0x3b5e3270	0.0033904575
182	0x3910689d	0.00013771882
183	0xbc82573c	-0.015910737
184	0xbbbd6c0b	-0.005780702
185	0xbc4c4ce0	-0.0124695
186	0x3ba1755b	0.00492732
187	0xbbf075e5	-0.007338273
188	0xbc42a8dd	-0.01188108
189	0xbc8d6917	-0.017262025
190	0xba773152	-0.00094296515
191	0xbb8f0315	-0.004364381
192	0x3b0dc58e	0.0021632644
193	0x3b0d8073	0.0021591454
194	0x38a0dbe8	7.670355e-05
195	0xbc27664f	-0.010217263
196	0x3b9c6aff	0.004773497
197	0xbbd4527f	-0.006479561
198	0xbc3a3ae0	-0.011366576
199	0x3be3765d	0.0069416002
200	0x3bb0fa86	0.0054009585
201	0x3c7e97a7	0.015539086
202	0xbac6f67f	-0.0015179663
203	0x3938232c	0.0001756071
204	0xbc0a93bb	-0.008458073
205	0xba09a69b	-0.00052509614
206	0xbbf300b2	-0.0074158544
207	0xbbd18443	-0.0063939407
208	0x3cac84b4	0.021059372
209	0x3af5950d	0.0018736437
210	0x3ba13d22	0.0049206177
211	0xbb32b5f3	-0.0027269095
212	0x3c8eabc1	0.017415883
213	0x3ba1f6b7	0.004942741
214	0x3bf51288	0.0074790157
215	0xba4194d2	-0.00073845417
216	0xbbbf1964	-0.005831884
217	0xbb139d31	-0.0022524113
218	0x3c4be8da	0.012445653
219	0xbc13dcb8	-0.009024791
220	0x3bbdd390	0.0057930425
221	0x3b616282	0.003439099
222	0xbb980d93	-0.00464029
223	0x3beabeaf	0.0071638445
224	0xbb897ae3	-0.0041955574
225	0xbbd9c17b	-0.006645379
226	0xbc49a513	-0.012307423
227	0x3b8ea3f0	0.004353039
228	0xbc65d080	-0.014026761
229	0xbb668e25	-0.003517994
230	0x38743d88	5.823144e-05
231	0x3bf307b5	0.0074166902
232	0x3bd7b6ef	0.0065830867
233	0x3c6f0b80	0.014590144
234	0xb998d29d	-0.00029148618
235	0xbb2ff3e2	-0.0026848246
236	0x3c316a64	0.010828588
237	0x3bf40145	0.0074464404
238	0x3b41c6d5	0.0029567976
239	0xbab8949f	-0.0014082378
240	0xbc400ae5	-0.011721347
241	0xbc090730	-0.00836353
242	0xbc017386	-0.007901078
243	0x3aa13e24	0.0012301845
244	0xbc30c9ff	-0.010790347
245	0xbb26afe3	-0.0025434426
246	0xbc0586c3	-0.0081498055
247	0x3b80d132	0.003931188
248	0x3c215983	0.009848001
249	0x3bbb2355	0.005710999
250	0xbbf2a658	-0.0074050836
251	0x398a4e00	0.00026379526
252	0x3b47ff57	0.0030517185
253	0xbba8362b	-0.0051334105
254	0xbc8b1897	-0.016979499
255	0xba69e94f	-0.00089230103

action_model._discrete_distribution.branches.1.bias f4 [2]
0	0x00000000	0.0
1	0x00000000	0.0

action_model._discrete_distribution.branches.2.weight f4 [2, 128]
0	0xbbccc977	-0.0062496024
1	0x3bb755b1	0.005594932
2	0xbbc9e219	-0.006160986
3	0x39ba8598	0.0003557622
4	0xbbfad6eb	-0.0076550147
5	0xbcb7627f	-0.022385834
6	0x3b54b0e8	0.0032454077
7	0x3c256d6b	0.010096888
8	0x3ad43ae2	0.0016191865
9	0x3bc2038d	0.0059208334
10	0xbb6840cd	-0.0035439015
11	0xbc003416	-0.007824918
12	0xbbc2b421	-0.005941883
13	0x3b98d012	0.004663476
14	0xbbbd3822	-0.005774514
15	0x3bf5d90b	0.00750268
16	0xbc1e71c1	-0.009670676
17	0xba7f06dd	-0.0009728501
18	0xbcb34716	-0.021884482
19	0x3bb8de13	0.0056417077
20	0xba8de2d7	-0.001082505
21	0xba733723	-0.00092779304
22	0xbbb93ef7	-0.005653258
23	0xbc1a21ff	-0.009407519
24	0x38c72ad9	9.4970404e-05
25	0x3a0ce37c	0.0005374474
26	0x3a35b7c6	0.00069319864
27	0xb9a7e057	-0.00032019868
28	0x3ba1eeed	0.0049418123
29	0x3c8996ff	0.016795633
30	0xbb9b7650	-0.0047443286
31	0xbc40adef	-0.011760219
32	0x3c11a9c9	0.008890578
33	0x3b899be6	0.0041994927
34	0xbc97d6de	-0.018535074
35	0x3b3af15d	0.0028525211
36	0x3b707a58	0.0036694016
37	0xbc0848d0	-0.008318141
38	0x3b83e1c8	0.004024718
39	0x3ac7e0f9	0.0015249542
40	0x3c73ea72	0.014887439
41	0xbc7d5d18	-0.01546409
42	0x3baee1d9	0.0053369817
43	0xbc0464bf	-0.00808066
44	0x3c0aa213	0.008461493
45	0xbc2f412b	-0.01069669
46	0x3b4a23c6	0.0030844077
47	0xbafb5c4d	-0.0019177288
48	0xba9e52ff	-0.0012079178
49	0x3bbab962	0.005698369
50	0xbb9d7617	-0.004805337
51	0x3c652b30	0.0139873475
52	0x3c3f3a2b	0.011671583
53	0xbc888e19	-0.01666932
54	0x3bd13928	0.0063849874
55	0x3a9d7b53	0.0012014903
56	0xbb49b154	-0.0030775862
57	0x3c0e8cdb	0.008700575
58	0x3ad1b332	0.0015998839
59	0x3c46ea2f	0.012140795
60	0x3c299fa5	0.010353004
61	0x3c2b944b	0.0104723675
62	0x3c3cb4cb	0.011517714
63	0x3bb939ef	0.005652658
64	0x3ac3b4ac	0.0014931164
65	0x3c5dc92d	0.013536734
66	0xbc4188f8	-0.011812441
67	0x3c2c11f4	0.010502327
68	0x3c53b3af	0.012921258
69	0x3c9712a0	0.018441498
70	0x3a988353	0.0011635817
71	0x393e1290	0.00018126727
72	0x3ad2621f	0.0016050971
73	0x3c1e922b	0.009678404
74	0xbbe1955d	-0.0068842606
75	0xbc2e014d	-0.010620427
76	0x3b6040c3	0.0034218288
77	0xbb37ce9b	-0.002804673
78	0x3c07f74f	0.008298709
79	0xbc3d36b6	-0.011548689
80	0x3c3a15c9	0.011357733
81	0x3c08bac0	0.008345306
82	0x3c2f4b8c	0.010699164
83	0xbc3969fb	-0.011316772
84	0x3c15423f	0.009110033
85	0x3b1d482a	0.0023999312
86	0xbc180889	-0.009279379
87	0x3acc7f29	0.0015601862
88	0x3c56589f	0.013082652
89	0xbbf26165	-0.0073968642
90	0xbc82a9e0	-0.015950143
91	0xbae1ab9f	-0.0017217285
92	0x3c34daf5	0.011038532
93	0x3c643c8d	0.013930452
94	0xbc79ae53	-0.015239316
95	0x3bdef752	0.006804385
96	0xbaebb017	-0.0017981556
97	0xbc1424ee	-0.009042008
98	0x3c9611cd	0.018319035
99	0x3bf66aba	0.007520047
100	0x3c74d075	0.014942278
101	0x3c27ed9d	0.0102495225
102	0xbba87cd2	-0.005141833
103	0xbcc4ee0f	-0.024039296
104	0x3ba8f321	0.0051559363
105	0x3c4b4d4b	0.012408565
106	0xbc724d1d	-0.014788893
107	0x3b4229c7	0.0029626952
108	0x3bc25373	0.005930358
109	0xbba70e84	-0.005098166
110	0xbaece688	-0.0018074075
111	0x3bdc3e68	0.0067213066
112	0x3c473332	0.012158202
113	0x3c053ffb	0.00813293
114	0xbc16fc38	-0.009215407
115	0x3c8d0bbf	0.017217515
116	0x3b265df9	0.0025385602
117	0x3b77bad7	0.0037800574
118	0x3b96e98a	0.0046054767
119	0xbbb9bb32	-0.0056680674
120	0x3b1383b0	0.0022508912
121	0x3c92c6a3	0.017916983
122	0x3bef8653	0.007309714
123	0x3c0c677e	0.008569596
124	0xbc4dd2cf	-0.012562468
125	0x3be4d25d	0.006983085
126	0xbca1f5e2	-0.019770566
127	0xbbd64ab2	-0.006539666
128	0xbbb0f1e8	-0.005399931
129	0x3b8dd8a0	0.004328802
130	0x3b86080e	0.0040903157
131	0xbb36ccaa	-0.0027892985
132	0xbc8a4bad	-0.016881788
133	0xbae662d7	-0.0017577064
134	0xbac29b00	-0.0014847219
135	0x3ca27c6b	0.019834718
136	0xbbfa1e0d	-0.007632977
137	0xbc643fdb	-0.01393124
138	0x3c6a3c7f	0.01429665
139	0x3c50b887	0.012739307
140	0xbc1166cb	-0.008874605
141	0xbc92127b	-0.017831078
142	0xbbdb9a23	-0.006701724
143	0xbc15e4ae	-0.00914876
144	0xbb43d160	-0.0029879436
145	0x3cbdbe10	0.023161918
146	0x3be070bf	0.006849378
147	0x3bdf7c0a	0.0068202065
148	0xbb856cd7	-0.0040718126
149	0x3b81e3e1	0.003963933
150	0x3b8369af	0.004010401
151	0x3bd00ae7	0.006348956
152	0x3c629a45	0.013830726
153	0x3b0c8037	0.0021438727
154	0x3c83b51f	0.016077576
155	0xbc8e1a7a	-0.01734661
156	0x3c17be23	0.009261641
157	0x3c52892f	0.01285009
158	0xba2a96e3	-0.0006507469
159	0x3bd669a8	0.006543357
160	0x3b49904d	0.0030756176
161	0xbc04c358	-0.008103214
162	0x3c2e918f	0.010654821
163	0xbb44c9dd	-0.0030027546
164	0x3b97a531	0.0046278466
165	0x3bbfa72b	0.0058487854
166	0xbc601070	-0.013675794
167	0xbb03f989	-0.0020137748
168	0xbc0e328b	-0.008679043
169	0xbb5529f0	-0.0032526217
170	0xbc062b4b	-0.008189033
171	0x3aaad17b	0.0013032401
172	0xbc0ff252	-0.008785801
173	0x3bebfe8d	0.0072019757
174	0xbc864782	-0.01639152
175	0x39b1e0e5	0.0003392763
176	0xbc2668dc	-0.010156836
177	0x3c805ebb	0.015670171
178	0x3c6fa89b	0.014627601
179	0xb9bce96e	-0.00036032073
180	0xba803015	-0.0009779955
181	0xbc21d161	-0.00987658
182	0x3b829817	0.0039854157
183	0xbb54c982	-0.003246874
184	0x3bafdfd7	0.00536726
185	0xbbaddd37	-0.005305912
186	0x3bbed62b	0.0058238707
187	0x3c4f3b0a	0.012648353
188	0x3c42c98e	0.011888875
189	0xba981fb5	-0.0011606129
190	0xbc81f573	-0.01586411
191	0x3ba39404	0.00499201
192	0x3b2672eb	0.0025398086
193	0x3afcc33b	0.0019284257
194	0x3c6c08ff	0.014406442
195	0x3c288d79	0.010287636
196	0x3c23f29d	0.010006574
197	0x3ab45e5c	0.0013761031
198	0xbbfe627b	-0.0077632046
199	0xbb1f465b	-0.002430341
200	0x3a12ce5d	0.00056002085
201	0x3bda920a	0.0066702412
202	0x3becd2fa	0.007227299
203	0xbc5231c3	-0.012829247
204	0xbc036067	-0.00801859
205	0xbc9c133f	-0.019052146
206	0xbc1a4663	-0.009416196
207	0xbc81c92e	-0.015843
208	0x3c73e628	0.0148864165
209	0xbc0cd470	-0.008595571
210	0x3b9a9c90	0.0047183707
211	0xbb945b8d	-0.0045275153
212	0xba4656a6	-0.0007566012
213	0xbc195227	-0.009357966
214	0xbba8e403	-0.0051541342
215	0x3c150290	0.009094849
216	0x3bf2eabf	0.007413238
217	0xbca08a03	-0.01959706
218	0xbc08d685	-0.008351927
219	0xbc47336c	-0.012158256
220	0x3b871f17	0.0041235792
221	0xb5cf087b	-1.542517e-06
222	0x3c8c0bf7	0.017095549
223	0xbb80552f	-0.0039164047
224	0x3bb57d47	0.005538616
225	0xbb64e09b	-0.0034923914
226	0xbb334a5c	-0.0027357554
227	0xbc041a6b	-0.008062939
228	0xbc244db8	-0.010028295
229	0x3c499a53	0.01230486
230	0x3b89a8e7	0.004201043
231	0xbba795f2	-0.0051143104
232	0x3c2952d6	0.010334691
233	0x3b179cf2	0.0023134318
234	0xbc043ab0	-0.008070633
235	0x3bc7824a	0.0060885297
236	0x3bcec0d5	0.0063096085
237	0x3c2e6010	0.01064302
238	0x399aac4b	0.00029501537
239	0x3bc8e43c	0.0061307233
240	0xbc842d57	-0.016134901
241	0xbc51e443	-0.0128107695
242	0xbc3a0648	-0.011354037
243	0x3b1e534c	0.0024158536
244	0x3bab8690	0.005234547
245	0xbb89d51b	-0.0042063124
246	0xba6246c8	-0.0008631763
247	0x3c5a4a8b	0.0133234365
248	0x3b87f70e	0.0041493243
249	0x3c27da4f	0.01024492
250	0xbba1934b	-0.004930889
251	0x3b8f39ce	0.0043709045
252	0xbbc21277	-0.0059226113
253	0xba9e6aba	-0.001208625
254	0x3c7f8648	0.01559598
255	0x3b487823	0.0030589185

action_model._discrete_distribution.branches.2.bias f4 [2]
0	0x00000000	0.0
1	0x00000000	0.0

action_model._discrete_distribution.branches.3.weight f4 [2, 128]
0	0x3b2fe828	0.0026841257
1	0x3c38375f	0.01124367
2	0xba7652bb	-0.0009396483
3	0xbbf26605	-0.0073974156
4	0x3be704c7	0.00705013
5	0x3bb5a24b	0.0055430285
6	0xbc7e0208	-0.015503414
7	0x3aff59dd	0.0019481737
8	0xbbbf6951	-0.005841412
9	0xbaba6f35	-0.0014223816
10	0xbbfbf2ef	-0.007688872
11	0x3c2a6a83	0.010401371
12	0xbc61bef7	-0.01377844
13	0x3b925b85	0.0044664764
14	0x3b3901a5	0.002822974
15	0x3c6f6068	0.014610387
16	0x3c00b86f	0.007856472
17	0xbb94c9ac	-0.0045406427
18	0xbbb72c4b	-0.005589997
19	0xbb8bd42f	-0.0042672376
20	0x3ba08e55	0.00489978
21	0xbc127207	-0.008938319
22	0x3b972a81	0.004613221
23	0xb9b29b0e	-0.0003406633
24	0xbbfa4a38	-0.007638242
25	0x3b5042c2	0.0031778072
26	0x3b308bc7	0.0026938783
27	0xbbc03ccf	-0.005866624
28	0xba9eaea3	-0.0012106489
29	0xbb207f96	-0.002449011
30	0x3ab5d907	0.0013873883
31	0xbc198a6b	-0.00937138
32	0xbbd9852d	-0.0066381902
33	0xbc8fba8f	-0.017545013
34	0x3ae273a2	0.0017276893
35	0x3bf7c6a5	0.007561522
36	0xbb70cba7	-0.003674248
37	0xbab48bbf	-0.0013774558
38	0xba9975eb	-0.0011708116
39	0x3c85137f	0.016244648
40	0x3b88bab4	0.0041726474
41	0xbaeb7650	-0.0017964337
42	0xbb52d1c0	-0.0032168478
43	0x3c753f5d	0.01496872
44	0xbc0d684a	-0.0086308215
45	0xbbf2f63b	-0.007414607
46	0x3b9df6a4	0.0048206616
47	0x3b980bc7	0.004640076
48	0x3c0a795b	0.008451785
49	0xbb977a75	-0.0046227523
50	0xbb306be7	-0.0026919784
51	0x3b921e8e	0.004459209
52	0xbc863dda	-0.016386915
53	0x3b13045a	0.0022433014
54	0xbc7a9c7d	-0.015296099
55	0xbbddedd0	-0.006772734
56	0xbc505e55	-0.012717803
57	0xbc1a258f	-0.009408369
58	0xbc265f92	-0.010154622
59	0xba3ffbf0	-0.00073236134
60	0x3acf505a	0.0015816793
61	0x3bc7ffda	0.006103498
62	0xbc88502f	-0.016639797
63	0xbc98b9f9	-0.018643366
64	0xbbec1a75	-0.0072053024
65	0x3b5c0bf7	0.0033576468
66	0xbc0c0331	-0.008545683
67	0xbc0b2987	-0.008493788
68	0xba64a9df	-0.00087228225
69	0x3b6772dd	0.0035316267
70	0x3bc458fb	0.0059920526
71	0x3c002af2	0.007822739
72	0x3c6a5d3b	0.014304454
73	0xbcb385c6	-0.021914374
74	0xbc03d6de	-0.008046834
75	0x3b7cb2f0	0.0038558803
76	0xbb802370	-0.0039104745
77	0xbc32163d	-0.01086956
78	0xbc2bb12b	-0.010479252
79	0x3c3fac7e	0.01169884
80	0x3c4e0ea2	0.012576731
81	0x3bdf06bd	0.006806223
82	0x3c7a62ab	0.015282313
83	0x3ba677b4	0.0050801877
84	0xbc1b7a37	-0.0094895875
85	0x3b95625e	0.0045588454
86	0xbc11da19	-0.008902096
87	0x3b802c9b	0.0039115674
88	0xbb1f5dbd	-0.0024317347
89	0x3be9338d	0.007116741
90	0x3c1a40a0	0.009414822
91	0xbb93fbc2	-0.004516096
92	0xbb8e3f79	-0.0043410626
93	0xbc4c36ff	-0.012464284
94	0xbbe2491b	-0.0069056875
95	0x3ba43847	0.0050115916
96	0xbc42f709	-0.011899718
97	0xb8f7991d	-0.000118063974
98	0x3c733e25	0.014846359
99	0xbc24da1e	-0.010061769
100	0x3bb3ee5c	0.005491061
101	0x3bb64e17	0.0055635083
102	0xbc96c1fb	-0.018403044
103	0x3c911223	0.017708844
104	0x3b59f9e2	0.0033260514
105	0x3b9c1be8	0.004764069
106	0xbbf6ef53	-0.007535854
107	0xbb81f6b7	-0.0039661783
108	0x395e6192	0.00021207918
109	0xbc250f7e	-0.010074494
110	0x3a81fc8b	0.0009917183
111	0xbc10ce14	-0.008838195
112	0xbba1d5d7	-0.004938822
113	0x3ca901c7	0.02063073
114	0x3be56d63	0.0070015653
115	0x3c1fff78	0.009765498
116	0xbc3c0a45	-0.011477058
117	0xbc06716b	-0.008205752
118	0xba29ec7b	-0.0006482077
119	0x3bf7e835	0.007565523
120	0x3cb1fc0f	0.021726636
121	0x3b234988	0.0024915654
122	0x3add3377	0.00168763
123	0xbc3fc8a2	-0.011705549
124	0xbb7a5335	-0.0038196568
125	0xbb902099	-0.004398417
126	0x3c52f272	0.012875186
127	0x3c430896	0.0119039025
128	0xbaed6082	-0.0018110427
129	0x3b8edeca	0.0043600546
130	0xbc3d767b	-0.0115638925
131	0xbad4bf42	-0.0016231316
132	0xbbb4cdd1	-0.0055176993
133	0xbc77c66f	-0.015122994
134	0x3ba5032e	0.0050357794
135	0x3b6f8052	0.003654499
136	0xbb8d4845	-0.0043115937
137	0xbc35945c	-0.011082735
138	0xbb8e3dbf	-0.004340857
139	0x37ea0fab	2.790227e-05
140	0xbb33e293	-0.0027448281
141	0x3ace3965	0.0015733658
142	0x3cd89dfb	0.026442518
143	0x3c0eb12f	0.008709236
144	0xbac33e33	-0.0014895856
145	0xbbbe9b94	-0.005816886
146	0x3b4adee0	0.0030955598
147	0x3b136e8b	0.0022496309
148	0x3bd586cb	0.0065163127
149	0xb917ece3	-0.0001448873
150	0x3c4ed5ed	0.012624246
151	0x3b7e9dd8	0.0038851406
152	0x3b762a05	0.0037561667
153	0x3b6ddfa7	0.0036296637
154	0xbc48d013	-0.01225664
155	0x3be92d9b	0.0071160323
156	0xbc14da0c	-0.00908519
157	0xbc81e20f	-0.015854863
158	0xbb874aaf	-0.004128776
159	0x3c8c21f6	0.017106038
160	0xbc233034	-0.009960223
161	0xbcecc865	-0.02890415
162	0x3c3aa936	0.011392882
163	0x3cb16617	0.021655126
164	0x3b02d16b	0.0019961249
165	0x3b0ebacb	0.0021778818
166	0xbb69f1da	-0.0035697133
167	0xba085487	-0.0005200584
168	0xbb08ecf7	-0.0020893195
169	0x3bdb892d	0.0066997022
170	0xba2fed83	-0.0006711112
171	0x3be0187b	0.006838856
172	0xbb6c8ec2	-0.0036095832
173	0x3c25667c	0.010095235
174	0x3bba58c5	0.0056868517
175	0x3bbf30c3	0.0058346703
176	0xbbf6770b	-0.0075215152
177	0x3c9bd647	0.019023074
178	0x39d9e26d	0.00041558166
179	0x3c1d2eaf	0.00959365
180	0x3c09195f	0.008367865
181	0x3c1677ef	0.009183868
182	0x3b23e123	0.0025006018
183	0x3c15f05d	0.009151545
184	0xbb7c3b9d	-0.003848768
185	0xbc431ed8	-0.011909209
186	0xbbff35d7	-0.0077884006
187	0x3b258a3d	0.0025259398
188	0xbbd11a2b	-0.0063812933
189	0xbbd126ad	-0.0063827843
190	0x3c919a39	0.017773734
191	0xbbffdf9b	-0.0078086383
192	0x3bf32c0d	0.0074210227
193	0x3ac67d23	0.0015143495
194	0xbba823d3	-0.0051312237
195	0x3aa10e1b	0.0012287529
196	0x3b998713	0.0046852916
197	0xbc2506b2	-0.010072397
198	0xbc95b474	-0.018274523
199	0x3c3d164b	0.01154096
200	0xbb89d6f3	-0.004206532
201	0xbc1305fa	-0.008973593
202	0x3b8fc252	0.0043871785
203	0xbc5dfce7	-0.013549066
204	0x3c3a8484	0.011384133
205	0x3bbfd9bc	0.0058548134
206	0xbbd3b0cd	-0.0064602853
207	0xbbedfeeb	-0.0072630546
208	0xbbba26af	-0.005680881
209	0xbb3c9f23	-0.0028781376
210	0x3b65cf22	0.0035066088
211	0xbc111dba	-0.008857185
212	0xbc491c77	-0.012274853
213	0x3b8b11a3	0.004244046
214	0xbb5c6082	-0.003362686
215	0x3be27cbd	0.0069118426
216	0x3c97c50c	0.018526576
217	0xbcda8d5b	-0.026678732
218	0x3a517525	0.0007990173
219	0x3c1a2a04	0.009409431
220	0x3b26d435	0.0025456075
221	0xbbce3332	-0.006292724
222	0xbb8ab498	-0.0042329542
223	0x3c1eaa40	0.009684145
224	0x3b69786a	0.003562475
225	0x3c999671	0.018748494
226	0xbb29fa5f	-0.0025936586
227	0xbc852c06	-0.016256344
228	0x3bf2323f	0.0073912437
229	0xbca4c579	-0.020113694
230	0x3c01dd87	0.007926351
231	0x3b989b3c	0.0046571773
232	0x3b8385cb	0.004013752
233	0x3ad2cd92	0.0016082993
234	0x3b9ab6aa	0.0047214823
235	0x3bff66b0	0.0077942237
236	0x3c7ba65b	0.015359486
237	0x3c4fac1a	0.01267531
238	0x3c1b6f04	0.009486917
239	0x3c098e53	0.008395749
240	0xbc0737ca	-0.008253047
241	0xbbe6dcbd	-0.007045357
242	0x3a775a88	0.00094357925
243	0xbb027003	-0.001990319
244	0x3bc428c8	0.005986307
245	0xbc14d674	-0.009084333
246	0x3bb034e5	0.0053773993
247	0x3ce17dcb	0.027525803
248	0x3b9c6ef8	0.0047739707
249	0xbc492154	-0.012276012
250	0x3ba70c78	0.005097922
251	0x3b8be867	0.004269648
252	0x3aa8ce63	0.0012878891
253	0xbab534bb	-0.0013824919
254	0x3b2b119b	0.0026103023
255	0x3b1c6afd	0.002386748

action_model._discrete_distribution.branches.3.bias f4 [2]
0	0x00000000	0.0
1	0x00000000	0.0
