results/DarkKnightDebuff1/Hero Knight Behavior.onnx (onnx, 81950 bytes, 14 tensors)

network_body.observation_encoder.processors.0.normalizer.running_mean f4 [11]
-3.058298 4.6556506 11.91524 11.648506 52.577465 0.07296229 0.07645926 0.4242086
0.081675805 0.09509327 0.33506534
00000000: 28bb 43c0 17fb 9440 d3a4 3e41 4860 3a41
00000010: 534f 5242 416d 953d ac96 9c3d df31 d93e
00000020: a545 a73d 43c0 c23d af8d ab3e

network_body.linear_encoder.seq_layers.0.weight f4 [128, 11]
-0.09821823 0.16743137 -0.07122875 -0.42045638 0.78126806 0.0833861 0.23265904 0.4460545
-0.01322706 0.0473324 0.22319251 -0.7294098 -0.34246013 0.24670953 -0.08484666 0.33655816
0.00916562 0.049577273 0.267728 0.039881427 -0.19492361 -0.17661385 0.74004 -0.8656458
-0.3936743 -0.14993262 0.09253606 -0.3695615 -0.24026081 -0.27112108 -0.24319972 -0.02147795
0.034256704 0.84435624 -0.5373435 0.039647378 -0.69119066 -0.30037883 -0.2689793 -0.17813161
-0.31791526 -0.37678653 0.016879395 -0.02384084 -0.21707118 -0.53114396 0.92317176 -0.081406735
-0.4182535 0.13081639 0.068281576 0.14722571 -0.42052343 -0.043390587 -0.3929139 -0.08448146
0.23330425 0.947184 0.07135936 -0.014885128 -0.46630535 -0.14403237 0.654459 -0.67294925
-0.5093762 -0.54125434 0.4666276 -0.31244478 -0.8055098 0.35353 0.9848072 -0.018810902
-0.35363936 0.15557712 -0.04767106 0.18971746 0.32531968 0.3613719 -0.10621275 -0.5394546
0.5179358 -0.8943091 0.18952565 0.30780676 -0.38466007 0.26019153 0.03835238 0.13620347
-0.6146311 -0.62371325 0.8373127 0.018570904 0.06104782 -0.31293336 -0.051101062 0.31064248
0.39008006 -0.7962904 0.50857055 0.101951994 -0.07654018 0.32586613 0.19501185 -0.06831668
-0.031076565 0.03644746 -0.14230157 0.20525996 -0.100248836 0.2637301 0.012912115 -0.26283902
-0.16416164 0.828457 0.079959825 -0.8050895 -0.655484 0.36563265 -0.19418815 0.24258146
0.13105167 -0.019772563 -0.5991811 0.038823288 -0.079863854 0.97224534 -0.118694544 0.06937147
0.2947792 0.23119436 -0.09659253 0.001968432 -1.0827284 0.8194493 0.028247269 -1.3422326
0.14431323 0.041001387 0.12116864 0.27904096 -0.16706248 -0.1855573 0.015402922 -0.57191175
-0.35147208 0.45601258 -0.008904394 -1.1370597 0.34318078 0.22049996 -0.54147553 0.7158204
0.30011222 -0.04771027 -0.2708176 -0.59755707 0.22427718 -0.47631648 -0.13865538 0.009332736
0.17827907 -0.44436985 -0.5562895 -0.5692253 0.57328963 -0.5466782 0.2543956 -1.1344082
0.36613044 0.04722724 -0.16821954 0.13961668 -0.23577727 -0.11158073 -0.13429783 -0.11001903
-0.28744945 0.44790557 0.37669057 -0.8417861 0.33325168 -0.1432314 0.10881244 0.11896769
-0.04882268 0.046046797 0.04065117 0.29195815 -0.5355431 0.10325476 -0.040534064 0.72182125
-0.016820878 -0.01128193 0.031423982 0.03927635 0.034995526 0.12443148 -0.38172624 -0.54341173
-0.6710462 -0.90107316 0.4830191 -0.12147249 -0.21944113 0.021766575 -0.21960297 0.103245266
0.41444957 0.18532975 0.3559343 0.98118484 -0.23470823 -0.86643165 -0.0884844 -0.95282495
0.22477429 -0.11862975 -0.2507995 0.048151728 -0.7243779 -0.2985588 0.15709774 -0.2797336
-1.0191293 -0.6364561 -0.053334642 0.41801536 -0.05902991 0.0042668064 -0.06791524 0.42974252
-0.2344255 -0.42367494 -0.5071804 0.38824165 -0.87832665 0.28389406 0.24409133 0.116965905
0.34322092 0.08331717 0.45598286 -0.52497923 0.49461544 -0.41017598 -0.70070016 0.0321621
0.039257903 -0.84395194 -0.28376096 0.23584433 0.23205456 0.28389254 -0.35184014 -0.86291075
00000000: a426 c9bd 2173 2b3e 61e0 91bd 0f46 d7be
00000010: 2f01 483f 55c6 aa3d 2c3e 6e3e 4161 e43e
00000020: 50b6 58bc 9edf 413d 948c 643e 9aba 3abf
00000030: ef56 afbe 6ca1 7c3e 16c4 adbd 5a51 ac3e
00000040: 662b 163c 8a11 4b3d a513 893e b55a 233d
00000050: 0e9a 47be 43da 34be 4373 3d3f f79a 5dbf
00000060: ae8f c9be f087 19be 8c83 bd3d 2a37 bdbe
00000070: ee06 76be 62d0 8abe 5909 79be 87f2 afbc
00000080: c250 0c3d bb27 583f 588f 09bf 4a65 223d
00000090: dff1 30bf 41cb 99be a8b7 89be 2268 36be
000000a0: cac5 a2be 2aea c0be a846 8a3c de4d c3bc
000000b0: e847 5ebe 0df9 07bf fc54 6c3f 93b8 a6bd
000000c0: 5325 d6be bbf4 053e 36d7 8b3d 56c2 163e
000000d0: d94e d7be 54ba 31bd 032c c9be 9e04 adbd
000000e0: 4fe7 6e3e a77a 723f db24 923d c0e0 73bc
000000f0: 93bf eebe 397d 13be a08a 273f 6746 2cbf
00000100: 7b66 02bf a58f 0abf d0e9 ee3e c3f8 9fbe
00000110: e435 4ebf e201 b53e 531c 7c3f 5219 9abc
00000120: 3810 b5be 9c4f 1f3e bb42 43bd 4b45 423e
00000130: 4d90 a63e bd05 b93e 1286 d9bd b219 0abf
00000140: 7197 043f 71f1 64bf 0313 423e d998 9d3e
00000150: 2af2 c4be d337 853e 6317 1d3d ec78 0b3e
00000160: 7758 1dbf acab 1fbf 205a 563f 0222 983c
00000170: 470d 7a3d cd38 a0be 594f 51bd 880c 9f3e
00000180: 93b8 c73e b0d9 4bbf ae31 023f 35cc d03d
00000190: 19c1 9cbd edd7 a63e 30b1 473e 9ee9 8bbd
000001a0: 4894 febc ef49 153d 81b7 11be ab2f 523e
000001b0: 434f cdbd a207 873e 568d 533c d692 86be
000001c0: fd19 28be c215 543f fac1 a33d 581a 4ebf
000001d0: cdcd 27bf 3434 bb3e 42d9 46be 4667 783e
000001e0: 6932 063e 12fa a1bc ef63 19bf 2b05 1f3d
000001f0: a98f a3bd 12e5 783f 2016 f3bd a112 8e3d
00000200: 4ded 963e 37be 6c3e 4ed2 c5bd cf00 013b
00000210: d896 8abf 6ec7 513f d166 e73c 47ce abbf
00000220: d9c6 133e 12f1 273d 4427 f83d 75de 8e3e
00000230: 6d12 2bbe bc02 3ebe 8a5c 7c3c cf68 12bf
00000240: 26f4 b3be 7b7a e93e bce3 11bc 2c8b 91bf
00000250: 64b5 af3e beca 613e 249e 0abf 0140 373f
00000260: 4fa8 993e d86b 43bd 9ba8 8abe 80f9 18bf
00000270: eba8 653e c1df f3be adfb 0dbe 55e8 183c
00000280: ca8e 363e 7284 e3be fd68 0ebf c0b8 11bf
00000290: 1cc3 123f 1af3 0bbf 2440 823e 4a34 91bf
000002a0: 7375 bb3e 5a71 413d be41 2cbe adf7 0e3e
000002b0: 996f 71be 7084 e4bd 5f85 09be a851 e1bd
000002c0: 932c 93be e153 e53e 96dd c03e 4b7f 57bf
000002d0: f79f aa3e 41ab 12be 0ed9 de3d 55a5 f33d
000002e0: 4afa 47bd 919b 3c3d d781 263d 8a7b 953e
000002f0: 5a19 09bf 3b77 d33d 0c07 26bd 47c9 383f
00000300: f0cb 89bc d8d7 38bc 6fb6 003d 3de0 203d
00000310: 7857 0f3d efd5 fe3d 9f71 c3be 081d 0bbf
00000320: afc9 2bbf bbac 66bf 484e f73e 92c6 f8bd
00000330: 2db5 60be d14f b23c 9adf 60be 4172 d33d
00000340: bc32 d43e 15c7 3d3e 053d b63e ee2e 7b3f
00000350: 5b57 70be 77ce 5dbf 4f37 b5bd 56ec 73bf
00000360: 3b2b 663e 28f4 f2bd cb68 80be bf3a 453d
00000370: d470 39bf b3dc 98be 3bde 203e 3e39 8fbe
00000380: d472 82bf c9ee 22bf 6d75 5abd 1c06 d63e
00000390: 59c9 71bd 91d0 8b3b 2517 8bbd 3607 dc3e
000003a0: 3d0d 70be eceb d8be 93d6 01bf 9cc7 c63e
000003b0: 04da 60bf 905a 913e 14f3 793e d28b ef3d
000003c0: a7ba af3e 31a2 aa3d 9676 e93e 0a65 06bf
000003d0: 3c3e fd3e 9602 d2be 1661 33bf 68bc 033d
000003e0: e5cc 203d 3c0d 58bf 1e49 91be 2d81 713e
000003f0: b69f 6d3e 5d5a 913e 6424 b4be b8e7 5cbf

network_body.linear_encoder.seq_layers.0.bias f4 [128]
-0.17425016 -0.063861944 -0.15595984 0.04569548 -0.23876365 0.09947429 -0.13544974 0.0044176336
-0.17247821 -0.39578298 0.06805099 -0.3208988 -0.07434531 0.20203908 -0.07590943 0.20855825
0.13052922 -0.36477965 0.110324815 0.12536825 -0.07208811 0.15708333 0.12568387 0.02973349
0.15265407 -0.135352 0.124069825 0.026163809 -0.049649313 -0.17845623 -0.3063172 0.30393553
-0.19756433 -0.05702439 0.46062586 0.14472374 0.012732524 0.011227028 0.014869916 -0.39754087
0.015942847 -0.17005761 -0.0022145137 -0.17507742 0.13845733 0.32443762 -0.2928632 0.02730524
0.06131289 -0.088030905 -0.03550614 0.22324641 -0.18818626 -0.010317099 -0.14569882 -0.034553792
0.13169707 -0.07018783 -0.073248945 0.11989056 -0.14005348 0.003003404 0.19211298 -0.0065293666
0.05661277 -0.28617898 -0.08464235 -0.04806779 -0.14305574 -0.09022317 -0.1090378 -0.08167951
-0.053740118 0.05767833 0.3231725 -0.25663364 -0.3030826 0.04855951 0.07720314 -0.4578621
0.02592461 0.1930874 -0.40073693 -0.13204534 0.039466843 -0.51921433 0.15424295 -0.06028821
-0.18129449 -0.46292847 -0.03912269 -0.020796003 -0.21705455 0.22463971 -0.0076481975 0.24972661
0.2672062 0.046678692 -0.52330804 0.16141863 -0.113536984 0.30963054 -0.05554298 -0.13109334
-0.25251287 -0.0358542 -0.08323783 -0.1907981 0.0892312 -0.121662565 0.4194377 -0.06355237
-0.020758092 -0.08515307 -0.3513352 0.018377287 -0.10531945 0.085679166 0.06297018 0.09677323
-0.3231695 0.08239971 0.18062729 -0.27523035 -0.07906568 -0.04501598 -0.2853634 0.04298101
00000000: a26e 32be 0dca 82bd f0b3 1fbe 2f2b 3b3d
00000010: 757e 74be 2db9 cb3d 56b3 0abe ccc1 903b
00000020: 219e 30be 11a4 cabe 515e 8b3d d94c a4be
00000030: 5b42 98bd 55e3 4e3e 6776 9bbd 4b90 553e
00000040: 74a9 053e 66c4 babe faf1 e13d 8960 003e
00000050: eea2 93bd 74da 203e 46b3 003e a693 f33c
00000060: 5951 1c3e b799 0abe 5218 fe3d 7c55 d63c
00000070: 145d 4bbd 3bbd 36be 9cd5 9cbe 709d 9b3e
00000080: 4e4e 4abe 6892 69bd 27d7 eb3e 7632 143e
00000090: 149c 503c 92f1 373c f3a0 733c 7a8a cbbe
000000a0: 939a 823c 9523 2ebe 6021 11bb 7f47 33be
000000b0: c2c7 0d3e b01c a63e 2af2 95be 3daf df3c
000000c0: 3a23 7b3d 8c49 b4bd e36e 11bd b59a 643e
000000d0: e6b3 40be 0d09 29bc 1232 15be 4788 0dbd
000000e0: 99db 063e a3be 8fbd 8b03 96bd 2f89 f53d
000000f0: 2e6a 0fbe c2d4 443b 44b9 443e 4cf4 d5bb
00000100: cbe2 673d 0d86 92be f858 adbd bbe2 44bd
00000110: 347d 12be edc6 b8bd 364f dfbd 9647 a7bd
00000120: 991e 5cbd 1d40 6c3d de76 a53e 7c65 83be
00000130: a42d 9bbe 56e6 463d ae1c 9e3d e76c eabe
00000140: d95f d43c b4b8 453e 642d cdbe e536 07be
00000150: fca7 213d 3beb 04bf ddf1 1d3e c5f0 76bd
00000160: 43a5 39be f604 edbe 1d3f 20bd 615c aabc
00000170: 8c43 5ebe f407 663e bb9d fabb 55b8 7f3e
00000180: 40cf 883e 2832 3f3d 84f7 05bf ed4a 253e
00000190: 1486 e8bd e587 9e3e 0981 63bd 553d 06be
000001a0: 5e49 81be dbdb 12bd 9878 aabd 9460 43be
000001b0: d9be b63d 392a f9bd 8ac0 d63e bf27 82bd
000001c0: e00c aabc bc64 aebd 35e2 b3be f78b 963c
000001d0: b9b1 d7bd 8f78 af3d 82f6 803d 0b31 c63d
000001e0: 7976 a5be 2ec1 a83d 5cf6 383e feea 8cbe
000001f0: 30ed a1bd ad62 38bd 271b 92be db0c 303d

network_body.linear_encoder.seq_layers.2.weight f4 [128, 128]
-0.28872114 -0.31819487 -0.00041401852 -0.44179812 0.016247341 -0.24783078 0.14669883 -0.35566497
0.07344043 0.11474531 -0.34748706 0.2118555 -0.19174367 -0.85818404 -0.15653187 -0.61051583
-0.32675192 0.30931073 -1.0166202 -0.088880576 0.006088724 -0.18873017 -0.27771226 -0.4059885
-0.26671907 0.015771631 -0.21572573 -0.144852 -0.3941541 -0.32864794 -0.026529491 -0.23630445
0.24327539 -0.2184358 -0.4882001 -0.14514984 -0.21080565 0.07403728 -0.4912053 0.2746287
-0.5608527 0.45016578 -0.5406984 -0.03550537 -0.047131915 -0.6680143 -0.17939514 -0.24178447
-0.27119374 0.38149014 -0.3733052 0.04690086 0.06353383 -0.28124905 -0.43736297 -0.010171085
-0.3514445 -0.03815299 0.15138325 -0.18906978 -0.36467552 -0.28111294 -0.24111336 0.3241564
-0.15376908 -0.27982563 0.047902595 -0.24249546 -0.24675958 -0.06385683 -0.082811594 -0.21682553
-0.15784806 -1.2971531 -0.2748087 -0.4677924 0.09466883 -0.19293322 -0.64733493 0.26671976
-0.4185686 -0.11457201 -0.305465 -0.49570665 -0.086501226 0.33070433 0.0485575 -0.118020445
-0.63279223 0.47823104 -0.07375298 0.25379893 -0.23943233 -0.21046433 -0.40334895 -0.23410115
0.05068098 -0.1090273 0.28045928 -0.0057421653 -0.25004327 -0.70356834 0.06802262 -0.48053116
0.28381637 -0.106188715 0.021020604 -0.19281769 -0.2222403 -0.13074213 -0.03573306 -0.35860196
0.22584726 -0.5683799 0.055181682 -0.72015244 0.25938207 -0.20089416 -0.15020846 -0.22272055
0.17351526 -0.046788536 -0.17293291 -0.09436883 0.014503935 -0.11103329 -0.42257705 0.0397425
0.12197477 -0.046153657 -0.57060486 -0.21468562 -0.23047552 -0.68582773 -0.285026 0.052442513
-0.3570849 -0.12200109 -0.102266766 -0.25656444 0.10652804 0.13741423 -0.070793405 0.3043289
0.16269399 -0.43751976 -0.26154384 -0.30833578 0.16381586 -0.20688671 -0.040792823 -0.010374362
-0.124005064 -0.060996097 -0.46557525 -0.07368929 -0.29942602 -0.15386327 -0.19347592 0.13736308
-0.7411443 0.20675054 0.23898481 0.09636546 0.01477495 -0.44196093 -0.03599066 -0.34787843
-0.014756486 -0.21859398 0.024392122 0.24262004 0.0043751607 0.028904602 -0.060008492 0.052760337
-0.13005112 0.10856432 -0.107308306 -0.031433046 0.00434924 0.1763476 -0.5436133 -0.33896735
-0.07959284 -0.6167475 -0.1692247 -0.17551024 0.27691746 -0.52426094 -0.046843167 0.123900324
0.14316665 0.15741822 0.4286567 -0.24136305 0.21854065 0.18438908 0.083028235 -0.02786271
-0.14071311 -0.46440965 -0.21657315 -0.4279592 0.11581523 0.12704447 -0.0074638273 0.031882584
0.3032465 -0.37181243 -0.13507868 -0.101653405 -0.56557184 -0.11619222 0.18032631 -0.03339435
-0.00266405 -0.19067226 -0.060518183 0.04893289 0.16638786 -0.19112992 -0.10242729 -0.17269616
0.23077217 0.036916547 -0.22349782 -0.16874146 -0.18812929 -0.21352941 0.34985042 0.025434034
-0.3907004 -0.0032365758 -0.43250978 -0.036459263 0.11445195 0.18745624 -0.060497534 0.045968536
-0.29017746 -0.021318886 -0.38812366 -0.20268829 0.36603114 0.06747514 -0.13003111 0.08027418
-0.1471345 -0.04352146 -0.0063833124 -0.16337338 0.15231657 -0.32452244 -0.26837474 0.10745994
00000000: 42d3 93be 70ea a2be a010 d9b9 5d33 e2be
00000010: 2519 853c 5ac7 7dbe 3838 163e b819 b6be
00000020: f067 963d 97ff ea3d d3e9 b1be a6f0 583e
00000030: 7458 44be f3b1 5bbf e449 20be c44a 1cbf
00000040: 074c a7be fa5d 9e3e 9c20 82bf 0507 b6bd
00000050: eb83 c73b 7b42 41be 4d30 8ebe badd cfbe
00000060: 678f 88be 8233 813c 35e7 5cbe 1554 14be
00000070: 91ce c9be 8b44 a8be 6054 d9bc cbf9 71be
00000080: 2f1d 793e a2ad 5fbe 5df5 f9be 29a2 14be
00000090: 70dd 57be dca0 973d 437f fbbe 229c 8c3e
000000a0: 0b94 0fbf 217c e63e 366b 0abf 146e 11bd
000000b0: 650d 41bd fc02 2bbf 5cb3 37be 5996 77be
000000c0: e8d9 8abe ad52 c33e dc21 bfbe 1e1b 403d
000000d0: 061e 823d e0ff 8fbe 0aee dfbe 9fa4 26bc
000000e0: 89f0 b3be 4f46 1cbd 3604 1b3e 829b 41be
000000f0: c0b6 babe 09ee 8fbe 6ce6 76be d4f7 a53e
00000100: a475 1dbe 4e45 8fbe 8335 443d bb50 78be
00000110: 8bae 7cbe 5fc7 82bd 2099 a9bd 8307 5ebe
00000120: eca2 21be 1d09 a6bf bab3 8cbe 7c82 efbe
00000130: bbe1 c13d 4990 45be beb7 25bf 7e8f 883e
00000140: a04e d6be bba4 eabd e965 9cbe 43cd fdbe
00000150: 8e27 b1bd 1452 a93e 3be4 463d b4b4 f1bd
00000160: acfe 21bf b3da f43e cd0b 97bd eff1 813e
00000170: c02d 75be f683 57be c183 cebe 36b8 6fbe
00000180: dc96 4f3d b449 dfbd 5c98 8f3e c628 bcbb
00000190: ac05 80be 0e1d 34bf 724f 8b3d 2e08 f6be
000001a0: 6150 913e 7879 d9bd 6733 ac3c 0072 45be
000001b0: f692 63be 44e1 05be d45c 12bd ad9a b7be
000001c0: 8144 673e 5881 11bf 3006 623d e95b 38bf
000001d0: bacd 843e 33b7 4dbe 3fd0 19be db10 64be
000001e0: fcad 313e 56a5 3fbd 5315 31be 7244 c1bd
000001f0: eaa1 6d3c 6c65 e3bd 055c d8be 08c9 223d
00000200: e9cd f93d 9e0b 3dbd 2913 12bf 8cd6 5bbe
00000210: c601 6cbe 6892 2fbf eeee 91be f6cd 563d
00000220: d5d3 b6be b5db f9bd 3d71 d1bd 6a5c 83be
00000230: 5f2b da3d 51b6 0c3e 22fc 90bd ffd0 9b3e
00000240: 4199 263e 9702 e0be 13e9 85be 30de 9dbe
00000250: 58bf 273e 1cda 53be 6016 27bd 3af9 29bc
00000260: 5ef6 fdbd 0bd7 79bd e15f eebe 69ea 96bd
00000270: 5e4e 99be 558e 1dbe 8d1e 46be e8a8 0c3e
00000280: a2bb 3dbf 6ab6 533e 6fb8 743e 415b c53d
00000290: a212 723c b448 e2be f16a 13bd 1f1d b2be
000002a0: 30c5 71bc 1ad7 5fbe fdd1 c73c 6371 783e
000002b0: 825d 8f3b 58c9 ec3c 77cb 75bd 391b 583d
000002c0: 1f2c 05be f856 de3d 75c4 dbbd f0bf 00bd
000002d0: 1284 8e3b 7794 343e 3e2a 0bbf 218d adbe
000002e0: 9201 a3bd 2ae3 1dbf 3d49 2dbe f5b8 33be
000002f0: 20c8 8d3e f735 06bf 9fde 3fbd 74bf fd3d
00000300: 479a 123e 3e32 213e e478 db3e e027 77be
00000310: 1fc9 5f3e 7ed0 3c3e b50a aa3d 5740 e4bc
00000320: 1917 10be 1ac7 edbe 5ac5 5dbe 781d dbbe
00000330: 8930 ed3d f217 023e 1f93 f4bb 5097 023d
00000340: 2043 9b3e 335e bebe 1152 0abe a92f d0bd
00000350: 51c9 10bf 30f6 edbd 76a7 383e 84c8 08bd
00000360: 5897 2ebb 973f 43be eae1 77bd db6d 483d
00000370: 9461 2a3e 90b7 43be 66c5 d1bd 43d7 30be
00000380: 8a4f 6c3e ce35 173d 9ddc 64be 90ca 2cbe
00000390: f7a4 40be 74a7 5abe 981f b33e 095b d03c
000003a0: e209 c8be bb1c 54bb ec71 ddbe 4f56 15bd
000003b0: c965 ea3d 87f4 3f3e 43cc 77bd 8149 3c3d
000003c0: 2492 94be f2a4 aebc 25b8 c6be 858d 4fbe
000003d0: 6f68 bb3e 6830 8a3d e026 05be ca66 a43d
000003e0: 6daa 16be 8f43 32bd 1b2b d1bb 5a4b 27be
000003f0: e0f8 1b3e ce27 a6be 6a68 89be f513 dc3d

network_body.linear_encoder.seq_layers.2.bias f4 [128]
-0.18938793 -0.0664087 -0.2020206 0.31589425 0.00310824 -0.14365798 -0.15568884 0.10499516
-0.3769483 -0.14676468 0.07394847 -0.06812136 -0.19142729 -0.06201794 -0.08524559 -0.10405786
-0.119349316 -0.030748025 -0.014467596 -0.06242283 0.014814955 -0.012198676 -0.17805512 -0.28225052
-0.08237562 -0.033793908 -0.11984784 0.08499788 -0.11784849 -0.059781786 -0.1766952 -0.100942224
-0.072157055 -0.087095864 -0.12912898 -0.23782541 -0.063656114 -0.26588887 -0.08116516 -0.15845439
0.04905671 0.06167925 -0.15717807 -0.21808591 -0.13207142 0.06466876 -0.13022317 -0.029029759
-0.10172679 -0.035268553 -0.19596477 -0.13640606 0.0026763184 -0.031677883 -0.07464936 -0.31251502
-0.22652796 -0.17131566 -0.043761283 0.015308977 -0.1121057 -0.057723265 -0.055232834 -0.09743604
-0.18354388 -0.057272423 0.07602281 -0.0033954915 -0.025063379 -0.1963843 0.07958442 -0.0047224397
-0.07337978 -0.22131163 -0.25467065 -0.21007878 -0.061802298 0.02821136 -0.123410195 -0.09267476
-0.1565572 -0.096412316 0.08740904 -0.1774772 -0.06751409 -0.11730274 0.06571201 -0.10848399
0.05319056 0.0121636065 0.08872365 -0.19913088 -0.011951284 -0.116993666 -0.22550283 0.15163286
-0.10266897 -0.022157488 -0.25567865 0.002055999 0.027819347 -0.07708312 -0.02107769 -0.086245626
-0.042714383 -0.051864684 0.03045026 -0.09566187 -0.18981858 0.13124458 -0.109876074 0.0948931
-0.09094477 -0.05683572 0.002004996 -0.15561183 -0.1733431 -0.029867856 0.10178309 0.06541063
-0.09599868 0.14048558 0.04396689 0.045859963 -0.23990366 0.076482125 -0.05698833 -0.08323689
00000000: e9ee 41be 4901 88bd 7dde 4ebe e4bc a13e
00000010: 9db3 4b3b 141b 13be e56c 1fbe b407 d73d
00000020: 5eff c0be 7b49 16be 4c72 973d 3683 8bbd
00000030: 8405 44be 8606 7ebd 3d95 aebd 4a1c d5bd
00000040: 6a6d f4bd 48e3 fbbc 7f09 6dbc 15af 7fbd
00000050: 6dba 723c f5dc 47bc 1554 36be 2483 90be
00000060: 8db4 a8bd 7b6b 0abd c972 f5bd 5e13 ae3d
00000070: 8d5a f1bd bfdd 74bd 96ef 34be ccba cebd
00000080: 14c7 93bd 515f b2bd 633a 04be 8188 73be
00000090: 235e 82bd 9622 88be eb39 a6bd de41 22be
000000a0: b0ef 483d 62a3 7c3d 4af3 20be ea51 5fbe
000000b0: bb3d 07be 0e71 843d 3959 05be d1cf edbc
000000c0: 2356 d0bd c275 10bd fdaa 48be 08ae 0bbe
000000d0: 2c65 2f3b abc0 01bd c3e1 98bd f801 a0be
000000e0: f2f6 67be 5f6d 2fbe 083f 33bd 81d2 7a3c
000000f0: ac97 e5bd 3b6f 6cbd d33b 62bd 8c8c c7bd
00000100: edf2 3bbe 7d96 6abd d9b1 9b3d e586 5ebb
00000110: b751 cdbc f718 49be 28fd a23d b2be 9abb
00000120: 2348 96bd 849f 62be 3164 82be e41e 57be
00000130: 6824 7dbd 831b e73c 7cbe fcbd 44cc bdbd
00000140: 8850 20be d273 c5bd 8303 b33d 95bc 35be
00000150: d444 8abd 6b3c f0bd 0594 863d db2c debd
00000160: 58de 593d dd49 473c bfb4 b53d f7e8 4bbe
00000170: 51cf 43bc 609a efbd 37ea 66be a545 1b3e
00000180: 1c44 d2bd 9f83 b5bc 50e8 82be f0bd 063b
00000190: 66e5 e33c c1dd 9dbd 1fab acbc 8ca1 b0bd
000001a0: 47f5 2ebd 1070 54bd d372 f93c 5fea c3bd
000001b0: cd5f 42be fb64 063e b506 e1bd 5057 c23d
000001c0: 4041 babd 92cc 68bd 4066 033b b558 1fbe
000001d0: db80 31be 6fad f4bc a773 d03d 02f6 853d
000001e0: f59a c4bd 74db 0f3e a016 343d a8d7 3b3d
000001f0: 4ea9 75be a9a2 9c3d 986c 69bd 1a78 aabd

action_model._discrete_distribution.branches.0.weight f4 [3, 128]
-0.055744458 -0.11135011 -0.14923139 -1.3810891 -0.35174555 -0.117611475 0.013311627 0.1974469
0.024826521 0.023315405 0.3426359 0.21194495 -0.023225151 -0.15822293 0.21267897 -0.15338945
-0.16220495 -0.3454977 -0.34242663 -0.22811614 -0.2506749 -0.21294168 0.029261976 -0.07955715
-0.0026317379 -0.0798647 0.10145761 -0.5845358 -0.124974295 0.078752495 0.3288477 0.008587156
-0.016033733 -0.0013839154 0.006797341 0.5814904 -0.18165532 0.04360717 0.047722194 -0.0803136
0.20731981 0.16361003 0.23913549 0.1149608 0.006556797 0.052545674 -0.1781171 0.3943112
-0.6770063 -0.16360506 -0.19840874 0.20144838 0.19214185 -0.3870032 -0.10333889 0.31641087
0.16045262 -0.45370796 -0.17040336 0.27982137 0.10490955 0.09233523 -0.021853633 -0.13465531
-0.015134724 0.32768124 -0.5528992 -0.06879349 -0.02490406 -0.22085148 -0.33588782 -0.84770626
-0.022127802 0.0015144803 0.04669205 -0.15052864 -0.48469418 -0.07873084 0.30967295 -0.18990467
-0.047845833 0.6426333 0.11858455 0.078393176 -0.3001576 -0.036446147 -0.2654516 0.06889467
-0.28040078 -0.1992619 -0.00088981364 -0.18380305 -0.24999753 0.02144103 -0.33570966 -0.241715
0.25104427 -0.2998831 0.08127804 0.30748406 0.43163368 0.14931035 0.26286992 0.103905365
-0.2677729 -0.24748416 -0.23300356 -0.5698953 0.16743857 0.2517879 0.09158344 -0.7120204
-0.5207766 0.09101264 -0.118142806 -0.20693311 -0.19621947 -0.08052691 -0.18864696 -0.10732611
0.2656034 -0.090516634 0.27069438 0.18755284 0.18758497 0.2519182 0.17042467 0.20846055
-0.2050623 -0.26657012 0.22986904 -0.18944217 0.10600089 0.18799064 -0.03665943 -1.0115622
0.36647284 -0.11353326 0.17068963 -0.17313457 -0.13845894 0.07123857 0.2110552 0.094333984
0.34757552 0.29588863 0.036342215 0.13621007 -0.13162184 -0.052606642 -0.2571195 0.49347094
0.3260021 -0.5554291 -0.3604859 -0.87958765 -0.648456 -0.023353273 0.5506042 -0.20098852
-0.4073775 -0.22296126 -0.112419076 -0.042540822 0.3888713 -0.14974463 0.12551348 -0.4551319
-0.35414577 0.037359584 0.1299334 -0.08181091 -0.32167542 0.18962678 -0.17644395 -0.36408278
-0.26111865 -0.114304416 0.09147772 -0.08446257 -0.82734025 0.3063321 -0.32344884 0.08887549
-0.04731012 -0.10060465 -0.202973 0.2800232 0.07038163 0.30413723 -0.34873155 -0.099251024
-0.91669023 0.221894 0.22193521 -0.23023777 -0.06070451 0.3383247 0.27604377 -0.0047083437
0.032277822 -0.18278739 0.13628867 -0.19021305 0.07845639 0.23499793 0.23112565 -0.12996726
-0.011649866 0.24346584 0.24325058 -0.18322384 0.15671642 -0.490982 -0.45424503 0.071509965
-0.042666443 -0.23487955 -0.09604133 0.19796807 0.19155377 -0.31677142 0.19705312 -1.1633912
0.33963588 -0.35561857 -0.20654841 0.10055214 -0.91147643 -0.064273335 -0.0029105183 -0.31790245
0.11745177 0.007899923 -0.004597367 -0.23961474 -0.34495908 -0.032403212 -0.44697008 -0.8370942
-0.5005218 0.04606966 -0.33497217 0.060428362 0.27577013 0.09487556 0.18321986 -0.052118853
-0.35890794 -0.35617888 -0.7085321 0.04829628 0.1265717 -0.49842918 -0.050331183 -0.36738324
00000000: 4d54 64bd 870b e4bd 1dd0 18be 87c7 b0bf
00000010: fe17 b4be 49de f0bd 0319 5a3c 852f 4a3e
00000020: fd60 cb3c f3ff be3c f96d af3e 1908 593e
00000030: ac42 bebc 3105 22be 84c8 593e 2012 1dbe
00000040: 0e19 26be 13e5 b0be 8b52 afbe 4797 69be
00000050: 7658 80be 620d 5abe d0b6 ef3c dcee a2bd
00000060: 3c79 2cbb 1b90 a3bd 02c9 cf3d 23a4 15bf
00000070: 86f2 ffbd fd48 a13d ba5e a83e 25b1 0c3c
00000080: 2d59 83bc 7f64 b5ba 3bbc de3b 8edc 143f
00000090: da03 3abe 6f9d 323d 5978 433d 757b a4bd
000000a0: a54b 543e 6389 273e efdf 743e 9170 eb3d
000000b0: 66da d63b 223a 573d 5464 36be 28e3 c93e
000000c0: 4950 2dbf 1688 27be a92b 4bbe 7c48 4e3e
000000d0: d5c0 443e 4925 c6be 57a3 d3bd 9b00 a23e
000000e0: b14d 243e 694c e8be 387e 2ebe bf44 8f3e
000000f0: d1da d63d 411a bd3d 6406 b3bc 15e3 09be
00000100: a2f7 77bc d6c5 a73e cd8a 0dbf 9ae3 8cbd
00000110: 9903 ccbc e426 62be 7df9 abbe 4703 59bf
00000120: 5d45 b5bc 8781 c63a 2a40 3f3d 2e24 1abe
00000130: d629 f8be a23d a1bd 748d 9e3e 5f76 42be
00000140: fef9 43bd 9e83 243f 75dc f23d 9a8c a03d
00000150: 42ae 99be 8e48 15bd 46e9 87be a618 8d3d
00000160: b190 8fbe 500b 4cbe 6242 69ba de36 3cbe
00000170: 5aff 7fbe 19a5 af3c 23e2 abbe 2384 77be
00000180: e088 803e 478a 99be 1a75 a63d 8d6e 9d3e
00000190: 17ff dc3e d0e4 183e e396 863e 56cc d43d
000001a0: 8819 89be 7d6c 7dbe 7c98 6ebe a9e4 11bf
000001b0: 0475 2b3e 58ea 803e 1990 bb3d f846 36bf
000001c0: 9e51 05bf d664 ba3d dbf4 f1bd 46e6 53be
000001d0: c2ed 48be 4beb a4bd ab2c 41be cbcd dbbd
000001e0: 2bfd 873e c960 b9bd 7498 8a3e da0d 403e
000001f0: 4616 403e 6cfb 803e ce83 2e3e af76 553e
00000200: dafb 51be e17b 88be ca62 6b3e 21fd 41be
00000210: ff16 d93d 9e80 403e 3328 16bd df7a 81bf
00000220: 54a2 bb3e 2084 e8bd 43c9 2e3e 304a 31be
00000230: 2ec8 0dbe 87e5 913d db1e 583e 2d32 c13d
00000240: 6bf5 b13e b77e 973e 93db 143d a77a 0b3e
00000250: e0c7 06be 107a 57bd 2ba5 83be 39a8 fc3e
00000260: bfe9 a63e 9a30 0ebf 9c91 b8be a82c 61bf
00000270: 3601 26bf 5d4f bfbc 66f4 0c3f efcf 4dbe
00000280: c993 d0be f54f 64be f93b e6bd 493f 2ebd
00000290: 241a c73e a856 19be 9b86 003e 0c07 e9be
000002a0: 9852 b5be 5d06 193d 430d 053e 7a8c a7bd
000002b0: a4b2 a4be 862d 423e b9ad 34be 0f69 babe
000002c0: 58b1 85be 6f18 eabd ac58 bb3d b6fa acbd
000002d0: 92cc 53bf 90d7 9c3e 169b a5be 5a04 b63d
000002e0: 42c8 41bd d009 cebd 27d8 4fbe 335f 8f3e
000002f0: 3e24 903d e0b7 9b3e f18c b2be 1f44 cbbd
00000300: 36ac 6abf 2e38 633e fc42 633e 73c3 6bbe
00000310: 4ba5 78bd e538 ad3e 9c55 8d3e 7348 9abb
00000320: c035 043d 9e2c 3bbe 428f 0b3e 36c7 42be
00000330: bead a03d 4ca3 703e 34ac 6c3e 2316 05be
00000340: 14df 3ebc 1c4f 793e ae16 793e 089f 3bbe
00000350: 457a 203e fe61 fbbe ce92 e8be d173 923d
00000360: 02c3 2ebd 4484 70be 51b1 c4bd 24b8 4a3e
00000370: ac26 443e dd2f a2be 4bc8 493e 01ea 94bf
00000380: c1e4 ad3e a313 b6be 6d81 53be 48ee cd3d
00000390: 8556 69bf bda1 83bd 65be 3ebb 1cc4 a2be
000003a0: 8e8a f03d ae6e 013c 82a5 96bb 915d 75be
000003b0: 7a9e b0be 3bb9 04bd 43d9 e4be ce4b 56bf
000003c0: 3222 00bf 8ab3 3c3d 7981 abbe bb83 773d
000003d0: be31 8d3e 1e4e c23d fd9d 3b3e 947a 55bd
000003e0: c8c2 b7be 145d b6be 5c62 35bf 52d2 453d
000003f0: 039c 013e 1c32 ffbe 1228 4ebd a819 bcbe

action_model._discrete_distribution.branches.0.bias f4 [3]
-0.13659076 -0.1282248 0.21751894
00000000: 73de 0bbe 5d4d 03be 49bd 5e3e

action_model._discrete_distribution.branches.1.weight f4 [2, 128]
0.24048942 -0.051530804 -0.17131223 -0.045658596 0.45124212 0.0056358236 0.1341335 0.00559303
-0.024254546 0.06131218 -0.24357031 -0.32960504 0.105630815 0.58975023 -0.18511279 0.026302826
0.00574256 0.123361014 0.030579984 0.07303678 0.018412722 0.0383972 -0.06622235 -0.32039744
-0.055763155 -0.45620286 0.021567557 -0.021946333 0.14082198 0.18071604 -0.41829747 -0.022769807
0.1429974 0.28898886 0.1109311 -0.5173856 -0.09430262 -0.014837806 0.27590284 -0.0027008776
0.2966644 0.08082533 0.3009611 -0.037731137 -0.17596342 0.146206 0.1297959 -0.20863244
0.16169435 0.58915704 -0.08879266 0.5580848 0.013903959 0.023873126 0.11537745 -0.20733124
-0.019634057 -0.063397154 0.19375609 0.13589144 -0.5822401 -0.028660549 -0.16616356 0.54567945
0.07950214 -0.20244715 -0.106787115 0.4133824 0.29127228 -0.24183439 -0.021649953 -0.07187657
0.13069905 0.096118025 -0.10933435 -0.31568366 -0.04613875 0.13156505 -0.54698735 -0.2674965
0.088191755 -0.9275613 0.41799453 0.055215225 -0.27421466 -0.09698413 -0.22069986 0.28495005
0.033747647 0.0016273822 -0.019580096 0.17892355 -0.34875008 0.1932048 -0.09170032 0.641011
0.34824234 -0.38009351 -0.14289811 -0.06863796 0.386692 -0.005085826 0.58685046 -0.28926644
-0.02811954 0.12050475 -0.03835946 0.12621915 0.06172528 -0.48643166 -0.21251959 -0.16801201
0.29480052 -0.22098374 0.035426985 -0.038940202 0.037933826 0.11343442 -0.10970229 0.36379075
-0.07640806 0.82090926 -0.111613825 0.9810547 -0.20757428 -0.27825823 0.014596965 -0.022781193
-0.23820849 0.05623039 0.16925529 0.041429557 -0.45619255 0.013200093 -0.1372719 -0.016745398
0.017759092 -0.0571317 0.25806838 0.3348971 -0.11724838 -0.5723086 0.16934004 -0.041253515
-0.025559079 -0.12608887 -0.027174523 -0.09666202 -0.004761799 -0.040584132 0.06909225 0.30871055
0.04492615 0.45987928 -0.019036572 0.0013174113 -0.167531 -0.17604093 0.4047936 0.013861492
-0.16659702 -0.2893662 -0.11033813 0.49883983 0.095333755 0.009391555 -0.24844806 -0.02066575
-0.27088177 -0.09405699 -0.30734754 0.046794046 0.18228981 -0.13512886 -0.13089235 0.20839152
-0.1478291 -0.60285866 0.08144957 -0.5906137 -0.0058793677 -0.020409059 -0.11121473 0.1940476
0.0027029838 0.060346063 -0.19946106 -0.12541297 0.5984751 0.042468827 0.17279324 -0.55361086
-0.09022085 0.21285465 0.109373845 -0.41924807 -0.30567113 0.24346903 0.026673164 0.07702009
-0.13151343 -0.07737477 0.10159161 0.31826195 0.040922992 -0.14695461 0.55820066 0.2565993
-0.07165728 0.93319297 -0.4164457 -0.054543722 0.27332383 0.10752583 0.23330934 -0.2931652
-0.035662383 -0.017852366 0.05093954 -0.18612914 0.36037195 -0.179964 0.08043264 -0.6454111
-0.3635165 0.39925346 0.124164194 0.06607579 -0.39094502 0.011560727 -0.57715845 0.27498123
0.053013723 -0.10485439 0.030349143 -0.121506095 -0.057058856 0.47073075 0.20854647 0.1594569
-0.29406852 0.19361404 -0.028291956 0.048437383 -0.03228017 -0.107746005 0.122944444 -0.34637818
0.09064826 -0.7965991 0.08829433 -0.97188175 0.21709567 0.28118643 -0.014299849 0.018704262
00000000: dc42 763e f711 53bd 796c 2fbe 8204 3bbd
00000010: 3509 e73e b7ac b83b 4b5a 093e bc45 b73b
00000020: 78b1 c6bc 7b22 7b3d 7f6a 79be fec1 a8be
00000030: f854 d83d dff9 163f 358e 3dbe 0679 d73c
00000040: 162c bc3b b3a4 fc3d e082 fa3c 4f94 953d
00000050: 47d6 963c 6246 1d3d 959f 87bd 220b a4be
00000060: e867 64bd 6c93 e9be 72ae b03c ccc8 b3bc
00000070: a333 103e a00d 393e 162b d6be bf87 babc
00000080: e96d 123e 59f6 933e d82f e33d 6273 04bf
00000090: bb21 c1bd 451a 73bc 2343 8d3e 3501 31bb
000000a0: 65e4 973e c087 a53d 9317 9a3e f78b 1abd
000000b0: c12f 34be 07b7 153e 37e9 043e bea3 55be
000000c0: 3493 253e ffd2 163f edd8 b5bd a5de 0e3f
000000d0: 6ecd 633c 9391 c33c 034b ec3d a44e 54be
000000e0: 9ad7 a0bc 5ed6 81bd ff67 463e 2027 0b3e
000000f0: b00d 15bf 87c9 eabc c826 2abe a6b1 0b3f
00000100: 05d2 a23d 4e4e 4fbe 34b3 dabd dca6 d33e
00000110: a421 953e 6fa3 77be 3e5b b1bc 0634 93bd
00000120: f9d5 053e 87d9 c43d b0ea dfbd 4aa1 a1be
00000130: fcfb 3cbd fdb8 063e 5d07 0cbf 4df5 88be
00000140: e19d b43d a874 6dbf 6103 d63e 5c29 623d
00000150: dd65 8cbe 9e9f c6bd 25ff 61be f9e4 913e
00000160: f93a 0a3d e34d d53a 7066 a0bc bc37 373e
00000170: 5f8f b2be 7bd7 453e 61cd bbbd 4c19 243f
00000180: d24c b23e 9e9b c2be e253 12be 0f92 8cbd
00000190: 7efc c53e 00a7 a6bb d53b 163f bb1a 94be
000001a0: f35a e6bc 32cb f63d cf1e 1dbd 983f 013e
000001b0: a6d3 7c3d 920d f9be bc9e 59be 570b 2cbe
000001c0: 18f0 963e 9049 62be e31b 113d c37f 1fbd
000001d0: 8060 1b3d 4e50 e83d 98ab e0bd c842 ba3e
000001e0: d47b 9cbd 1c27 523f ca95 e4bd 6726 7b3f
000001f0: 5a8e 54be dd77 8ebe 1c28 6f3c a09f babc
00000200: edec 73be d651 663d 4251 2d3e 0ab2 293d
00000210: 1292 e9be 3445 583c 0191 0cbe a52d 89bc
00000220: 847b 913c ee02 6abd 8a21 843e a277 ab3e
00000230: eb1f f0bd d182 12bf 7a67 2d3e 72f9 28bd
00000240: 4661 d1bc 711d 01be 1b9d debc bdf6 c5bd
00000250: dd08 9cbb 8c3b 26bd 3d80 8d3d 4f0f 9e3e
00000260: 7c04 383d 4c75 eb3e 96f2 9bbc fdac ac3a
00000270: 3f8d 2bbe 1344 34be 1b41 cf3e 501b 633c
00000280: 6998 2abe ce27 94be f5f8 e1bd ef67 ff3e
00000290: 583e c33d 09df 193c 2b69 7ebe 384b a9bc
000002a0: 04b1 8abe f4a0 c0bd a85c 9dbe 1dab 3f3d
000002b0: 2eaa 3a3e 385f 0abe a508 06be 9664 553e
000002c0: 8360 17be f254 1abf 08cf a63d 7632 17bf
000002d0: b6a7 c0bb e630 a7bc 8cc4 e3bd 6ab4 463e
000002e0: 8b24 313b 6f2d 773d 853f 4cbe 426c 00be
000002f0: aa35 193f cbf3 2d3d b6f0 303e 71b9 0dbf
00000300: b6c5 b8bd 92f6 593e 65ff df3d afa7 d6be
00000310: ed80 9cbe f24f 793e ae81 da3c b5bc 9d3d
00000320: 75ab 06be aa76 9ebd 430f d03d 3bf3 a23e
00000330: de9e 273d 457b 16be 3de6 0e3f fc60 833e
00000340: 0dc1 92bd bce5 6e3f 5f38 d5be 3d69 5fbd
00000350: 1af1 8b3e 8136 dc3d a5e8 6e3e c019 96be
00000360: b812 12bd 203f 92bc fba5 503d a398 3ebe
00000370: ac82 b83e 7c48 38be deb9 a43d a939 25bf
00000380: d61e babe f36a cc3e cc49 fe3d be52 873d
00000390: f229 c8be 3469 3d3c a8c0 13bf 57ca 8c3e
000003a0: eb24 593d e6bd d6bd c49e f83c 30d8 f8bd
000003b0: 8cb6 69bd 9f03 f13e 358d 553e ab48 233e
000003c0: 2690 96be c242 463e 88c4 e7bc 4766 463d
000003d0: 3638 04bd f0a9 dcbd 4cca fb3d 7b58 b1be
000003e0: cca5 b93d ebed 4bbf a8d3 b43d 3ecd 78bf
000003f0: 544e 5e3e abf7 8f3e ea49 6abc ae39 993c

action_model._discrete_distribution.branches.1.bias f4 [2]
0.20947132 -0.20947088
00000000: a67f 563e 897f 56be

action_model._discrete_distribution.branches.2.weight f4 [2, 128]
0.03348252 -0.06932607 0.74926937 -0.023503695 0.14065747 0.38151598 0.21011466 0.5974997
0.0025016596 0.08147361 -0.2521075 -0.010274476 -0.031232517 0.6579588 -0.061624106 0.13365601
-0.045291845 0.10057029 0.143968 0.044734024 -0.035634767 0.12530844 -0.06277173 0.09961231
-0.11165479 -0.26473302 0.096672826 0.1366447 -0.28122032 -0.071388595 -0.3000118 0.06886637
0.12040398 -0.036511853 0.08012198 -0.61149406 0.651508 0.25018293 -0.081623636 0.2903499
0.008164082 1.003438 -0.07533776 0.24086432 -0.013544475 0.11659369 0.15035051 -0.21533
-0.14267392 0.15496434 0.3621681 0.17567863 0.82248986 0.02578052 0.073345184 -0.68146014
0.008873516 -0.0536085 0.0002596369 -0.23817098 -0.3115635 -0.15827984 -0.2658953 0.07641866
0.03151749 -0.4601486 -0.06069924 0.18248865 0.38604775 0.027485041 -0.0067261397 -0.032774467
0.07257128 0.019971214 -0.34173664 -0.22729835 0.03782539 0.05449257 -0.6913819 0.10306344
-0.005379291 -0.97051084 -0.33321235 0.015632398 -0.062019046 -0.30434385 0.414818 0.6825597
-0.112012126 0.095043674 0.58009946 -0.001154281 0.06782606 0.3203656 -0.038504064 -0.14860532
0.017614402 -0.14644855 -0.26915935 0.40536427 -0.3792184 -0.12102246 -0.048204325 0.0042559346
-0.15465026 0.1924775 -0.11652777 0.03489741 -0.012140369 -0.12954494 -0.09089419 -0.0069790604
-0.146625 0.23950453 0.07222155 0.2998406 0.18966396 0.2739903 -0.5784395 0.304357
0.031102842 0.63185287 -0.11356826 -0.041140065 0.10275384 0.3697952 0.05322673 0.04019986
-0.033212177 0.06915758 -0.74626 0.011764523 -0.13429357 -0.3757108 -0.18508112 -0.5847538
-0.0003394621 -0.082757995 0.24490215 0.0013860734 0.016458642 -0.6618625 0.060168676 -0.1320957
0.052264873 -0.08857882 -0.14795634 -0.025706865 0.03156753 -0.12317777 0.06321173 -0.09852533
0.11055921 0.268144 -0.099775024 -0.1440567 0.29175457 0.080211006 0.30468497 -0.06752165
-0.105877094 0.026798844 -0.069579996 0.6028254 -0.6528038 -0.23401964 0.072174884 -0.30177405
-0.007737946 -1.006342 0.089569256 -0.25125015 -0.00825537 -0.11746633 -0.1431785 0.20132166
0.14669338 -0.16687107 -0.34917313 -0.19556786 -0.8193458 -0.019543873 -0.089465454 0.68166584
-0.013244272 0.06254907 -0.016643403 0.2536432 0.3079767 0.16295286 0.26963475 -0.09142402
-0.014096111 0.4641001 0.072202556 -0.19938852 -0.40049407 -0.017801233 0.003934883 0.02962967
-0.07908726 -0.026290797 0.33556777 0.22962008 -0.0304627 -0.07189205 0.70864266 -0.092014946
-0.0013690855 0.9740904 0.33192837 -0.014395995 0.074581765 0.32027388 -0.4154283 -0.6875859
0.1075786 -0.113648266 -0.582142 0.009002785 -0.056960944 -0.322256 0.03403452 0.12622789
-0.0033832905 0.15180457 0.27334622 -0.41944718 0.3963216 0.10881449 0.03203376 6.6012515e-05
0.16866243 -0.19786265 0.1279286 -0.027665833 0.01699632 0.12131119 0.07991673 0.0030128192
0.13748744 -0.2331159 -0.07569217 -0.30745688 -0.18674558 -0.2581373 0.5842206 -0.31278923
-0.028503722 -0.6456459 0.10853407 0.048432514 -0.10994242 -0.42032284 -0.050626233 -0.041677658
00000000: f824 093d d4fa 8dbd 1ed0 3f3f d28a c0bc
00000010: 8308 103e 1056 c33e 4c28 573e bef5 183f
00000020: e2f2 233b a3db a63d 3c14 81be 4756 28bc
00000030: 56db ffbc fd6f 283f 8f69 7cbd 1fdd 083e
00000040: f183 39bd ccf7 cd3d 596c 133e 063b 373d
00000050: c3f5 11bd db50 003e 778e 80bd 8a01 cc3d
00000060: 44ab e4bd 168b 87be 67fc c53d 97ec 0b3e
00000070: 1cfc 8fbe 2f34 92bd 269b 99be d009 8d3d
00000080: 5d96 f63d 748d 15bd fe16 a43d e08a 1cbf
00000090: 3ac9 263f fa17 803e 4b2a a7bd bea8 943e
000000a0: a4c2 053c a870 803f af4a 9abd 23a5 763e
000000b0: a5e9 5dbc acc8 ee3d 7cf5 193e 787f 5cbe
000000c0: 1d19 12be f9ae 1e3e 196e b93e 19e5 333e
000000d0: b28e 523f ab31 d33c 0036 963d 2c74 2ebf
000000e0: 3962 113c 9694 5bbd e01f 8839 18e3 73be
000000f0: 4085 9fbe 1c14 22be 6e23 88be 6381 9c3d
00000100: 7c18 013d 9998 ebbe c49f 78bd 4ede 3a3e
00000110: 0da8 c53e 4f28 e13c f366 dcbb 853e 06bd
00000120: 40a0 943d ac9a a33c 1bf8 aebe e6c0 68be
00000130: ccee 1a3d 9a33 5f3d 67fe 30bf ed12 d33d
00000140: c344 b0bb 6673 78bf cf9a aabe 840f 803c
00000150: af07 7ebd f5d2 9bbe 0663 d43e 3cbc 2e3f
00000160: 9d66 e5bd 42a6 c23d 6681 143f 3e4b 97ba
00000170: 64e8 8a3d f606 a43e 70b6 1dbd fe2b 18be
00000180: 144c 903c 9cf6 15be 41cf 89be e88b cf3e
00000190: ea28 c2be a0da f7bd e671 45bd 5e75 8b3b
000001a0: a35c 1ebe d218 453e 1da6 eebd 96f0 0e3d
000001b0: 66e8 46bc 6ea7 04be bc26 babd 9ab0 e4bb
000001c0: dd24 16be ad40 753e e4e8 933d b584 993e
000001d0: 4537 423e 7548 8c3e 9c14 14bf aed4 9b3e
000001e0: 63cb fe3c 1cc1 213f 7a96 e8bd 7c82 28bd
000001f0: 9b70 d23d cc55 bd3e 4604 5a3d 9ca8 243d
00000200: 7e09 08bd 7da2 8d3d e50a 3fbf fcbf 403c
00000210: 4184 09be 2a5d c0be e885 3dbe 6db2 15bf
00000220: d5f9 b1b9 067d a9bd a1c7 7a3e e8ac b53a
00000230: 46d4 863c d26f 29bf 6e73 763d 1844 07be
00000240: b113 563d d068 b5bd de81 17be 3497 d2bc
00000250: f44c 013d a044 fcbd 2775 813d a6c7 c9bd
00000260: de6c e23d 2c4a 893e d956 ccbd 9983 13be
00000270: db60 953e ab45 a43d abff 9b3e ca48 8abd
00000280: 17d6 d8bd 4089 db3c f57f 8ebd c452 1a3f
00000290: 261e 27bf d8a2 6fbe 6dd0 933d 2182 9abe
000002a0: 998e fdbb d1cf 80bf 1670 b73d dca3 80be
000002b0: 8841 07bc 3092 f0bd 629d 12be 4427 4e3e
000002c0: ca36 163e 40e0 2abe d2c6 b2be f142 48be
000002d0: a5c0 51bf 791a a0bc aa39 b7bd a781 2e3f
000002e0: 81fe 58bc ba19 803d bf57 88bc 86dd 813e
000002f0: 1faf 9d3e 1ddd 263e 910d 8a3e 843c bbbd
00000300: 60f3 66bc 879e ed3e efde 933d 812c 4cbe
00000310: 8f0d cdbe e4d3 91bc 31f0 803b ecb9 f23c
00000320: 80f8 a1bd cc5f d7bc 8acf ab3e 8721 6b3e
00000330: ea8c f9bc 243c 93bd 9b69 353f 5572 bcbd
00000340: e372 b3ba fd5d 793f 84f2 a93e 2edd 6bbc
00000350: 53be 983d f0fa a33e 05b3 d4be a105 30bf
00000360: 2b52 dc3d 6cc0 e8bd 4207 15bf 6b80 133c
00000370: e14f 69bd bdfe a4be c867 0b3d e241 013e
00000380: 32ba 5dbb a872 1b3e 09f4 8b3e c8c1 d6be
00000390: aaea ca3e 22da de3d d535 033d 3370 8a38
000003a0: d8b5 2c3e 829c 4abe b7ff 023e 75a3 e2bc
000003b0: de3b 8b3c 0072 f83d 62ab a33d b872 453b
000003c0: 82c9 0c3e efb5 6ebe 7f04 9bbd fd6a 9dbe
000003d0: 3c3a 3fbe 922a 84be 7b8f 153f e925 a0be
000003e0: a380 e9bc 0d49 25bf 1c47 de3d 2c61 463d
000003f0: 7e29 e1bd 8e34 d7be 745d 4fbd 31b6 2abd

action_model._discrete_distribution.branches.2.bias f4 [2]
0.13675465 -0.13675457
00000000: 6909 0c3e 6409 0cbe

action_model._discrete_distribution.branches.3.weight f4 [2, 128]
0.6656542 -0.1877057 -0.050402977 0.06356474 -0.029122295 -0.0967861 0.072180815 -0.30439073
0.6956869 0.2392059 0.61952466 0.34189042 -0.006535167 0.2118988 0.34092683 0.30930415
-0.12695616 0.15992048 0.09393821 0.117352016 -0.08636957 0.31769505 -0.21835725 -0.12527825
-0.0049312124 -0.059378278 0.2719916 -0.34067753 -0.797755 0.2624472 -0.43960777 0.19949743
0.051690333 0.04884402 0.18795289 -0.21644981 0.10013789 -0.55358756 -0.5189611 0.066423334
-0.07565463 0.26022187 -0.23611078 0.22148477 -0.035614505 0.4875305 0.3411355 0.23446102
-0.061818168 0.019679137 0.20294456 -0.2692793 -0.22042179 0.05541674 0.30923262 -0.33432233
-0.085665375 0.118110456 0.03295964 -0.081027605 0.30108193 -0.31480044 -0.112459406 0.08687724
0.18675825 -0.5428338 -0.08141994 0.34892526 0.054036744 -0.47203177 0.40877146 0.014634903
0.24398035 0.018972028 -0.50257003 -0.33939257 0.0153680025 -0.22641312 0.09266836 -0.48117208
-0.020020531 -0.29311618 0.3127873 -0.06261751 -0.027607631 -0.0987542 -0.2359361 0.14310855
-0.030796945 -0.03578095 0.036803022 0.16344595 -0.23664168 0.050799273 0.025256472 -0.12658074
-0.017602613 -0.751706 -0.31851447 -0.4092428 -0.119320534 0.39491105 -0.19607513 -0.8680879
-0.19372527 -0.07590548 0.18325253 0.0057580117 -0.06488494 -0.32713345 0.16890638 0.114421695
-0.43723556 -0.11596437 -0.3922721 -0.5788398 -0.3108742 0.11991995 -0.39656398 -0.009923011
-0.07451125 -0.03033275 0.12511732 0.20052372 -0.6589019 -0.20233214 0.37548283 -0.054492105
-0.65712327 0.20871736 0.037499927 -0.05566324 0.046851583 0.09522258 -0.0686287 0.30105078
-0.6879388 -0.23198669 -0.609587 -0.32581517 0.013421707 -0.20726776 -0.34346864 -0.3007724
0.10231994 -0.13161701 -0.10512929 -0.121994734 0.10332494 -0.31106946 0.2184217 0.1317947
-0.009540284 0.04253393 -0.25931248 0.3154029 0.79429466 -0.25732878 0.44757178 -0.19768353
-0.044094328 -0.05844995 -0.18571006 0.2038123 -0.08450451 0.5202426 0.5123576 -0.04116501
0.05875338 -0.27477723 0.24149218 -0.23070382 0.0062274477 -0.47815102 -0.34239674 -0.21682338
0.07967791 -0.014457308 -0.21499468 0.26583844 0.22722107 -0.050340466 -0.30526 0.34391952
0.07916776 -0.10053861 -0.042771347 0.10177125 -0.31165576 0.3103805 0.10493717 -0.08777605
-0.1813083 0.5365294 0.08525123 -0.34266216 -0.051636416 0.479828 -0.41806304 -0.028174652
-0.2540596 -0.027283443 0.50048834 0.33615753 -0.008582303 0.21574311 -0.08848578 0.45572934
0.015489837 0.2744126 -0.3252509 0.072262265 0.041536 0.10157589 0.22924909 -0.1540963
0.027149172 0.03699222 -0.03776501 -0.14769329 0.2365506 -0.041394554 -0.030484544 0.13207391
0.01817186 0.72886115 0.3201072 0.4041551 0.119124785 -0.38013893 0.20902729 0.86458653
0.19070064 0.07290761 -0.20959322 -0.01452703 0.06366149 0.3263542 -0.17898397 -0.0963611
0.43908912 0.09698866 0.38250688 0.5886065 0.30827916 -0.12880073 0.39326444 0.01244172
0.08037242 0.023237053 -0.113771535 -0.19303672 0.6839629 0.1964707 -0.3786473 0.05995486
00000000: 5068 2a3f ec35 40be 5a73 4ebd 3b2e 823d
00000010: e191 eebc ca37 c6bd 89d3 933d 1ad9 9bbe
00000020: 8918 323f 64f2 743e 2b99 1e3f 430c af3e
00000030: f424 d6bb 00fc 583e f68d ae3e 1d5d 9e3e
00000040: cc00 02be 32c2 233e ad62 c03d 4156 f03d
00000050: 87e2 b0bd eda8 a23e 0b99 5fbe f148 00be
00000060: 0296 a1bb a336 73bd 7c42 8b3e 496d aebe
00000070: ac39 4cbf 7b5f 863e 4514 e1be 0e49 4c3e
00000080: 3eb9 533d ab10 483d b976 403e 05a5 5dbe
00000090: 1815 cd3d eab7 0dbf a2da 04bf f508 883d
000000a0: d1f0 9abd cd3b 853e 06c7 71be e7cc 623e
000000b0: 84e0 11bd 999d f93e 50a9 ae3e 8d16 703e
000000c0: 0c35 7dbd 2436 a13c b3d0 4f3e fade 89be
000000d0: 40b6 61be aafc 623d bd53 9e3e 4c2c abbe
000000e0: 5471 afbd e5e3 f13d b000 073d cdf1 a5bd
000000f0: 6927 9a3e 862d a1be 1e51 e6bd b2ec b13d
00000100: 8e3d 3f3e 28f7 0abf 7fbf a6bd 55a6 b23e
00000110: a255 5d3d 26ae f1be 7e4a d13e 3bc7 6f3c
00000120: fcd5 793e 3a6b 9b3c 6ea8 00bf ddc4 adbe
00000130: 13ca 7b3c d7d8 67be e9c8 bd3d 305c f6be
00000140: 1902 a4bc 5313 96be a825 a03e 9c3d 80bd
00000150: 6629 e2bc a43f cabd 3c99 71be 0c8b 123e
00000160: e049 fcbc 0c8f 12bd c4be 163d 605e 273e
00000170: 3252 72be e612 503d a9e6 ce3c 629e 01be
00000180: 5b33 90bc ce6f 40bf 5414 a3be 4688 d1be
00000190: 535e f4bd c831 ca3e ebc7 48be 023b 5ebf
000001a0: eb5f 46be 5574 9bbd 8da6 3b3e b4ad bc3b
000001b0: 65e2 84bd 097e a7be cbf5 2c3e ec55 ea3d
000001c0: 57dd dfbe ba7e edbd e4d7 c8be d82e 14bf
000001d0: e72a 9fbe 9798 f53d 6f0a cbbe 2094 22bc
000001e0: 5b99 98bd 637c f8bc c11e 003e 1756 4d3e
000001f0: cbad 28bf 2830 4fbe 493f c03e 1d33 5fbd
00000200: 3b39 28bf 01ba 553e 8699 193d 23ff 63bd
00000210: 72e7 3f3d 0e04 c33d 348d 8cbd 5423 9a3e
00000220: c21c 30bf eb8d 6dbe e50d 1cbf 3fd1 a6be
00000230: b8e6 5b3c 003e 54be 1fdb afbe d7fe 99be
00000240: 1e8d d13d 9cc6 06be 064e d7bd 60d8 f9bd
00000250: 079c d33d 7f44 9fbe f0a9 5f3e 31f5 063e
00000260: da4e 1cbc 0f38 2e3d 9bc4 84be 7d7c a13e
00000270: e556 4b3f 99c0 83be 2128 e53e 8d6d 4abe
00000280: 419c 34bd 3769 6fbd c72a 3ebe 2cb4 503e
00000290: b310 adbd 9e2e 053f de29 033f a49c 28bd
000002a0: 62a7 703d 9aaf 8cbe ba49 773e 9f3d 6cbe
000002b0: 9e0f cc3b 36d0 f4be a04e afbe f306 5ebe
000002c0: 2c2e a33d 58de 6cbc 9127 5cbe fa1b 883e
000002d0: a4ac 683e ce31 4ebd 0a4b 9cbe 3816 b03e
000002e0: b522 a23d 30e7 cdbd 0231 2fbd 726d d03d
000002f0: 5891 9fbe 31ea 9e3e 4de9 d63d eec3 b3bd
00000300: e2a8 39be fe59 093f 3298 ae3d 6a71 afbe
00000310: b580 53bd 04ac f53e 5c0c d6be 87ce e6bc
00000320: 1a14 82be 8781 dfbc 0120 003f d71c ac3e
00000330: ca9c 0cbc c3eb 5c3e 0838 b5bd 5b55 e93e
00000340: 16c9 7d3c cf7f 8c3e 4987 a6be 3dfe 933d
00000350: a721 2a3d 0507 d03d 46c0 6a3e 6ccb 1dbe
00000360: f167 de3c 2785 173d 7caf 1abd e93c 17be
00000370: 523a 723e 568d 29bd b9ba f9bc 623e 073e
00000380: 27dd 943c a596 3a3f 17e5 a33e 6bed ce3e
00000390: b2f7 f33d 92a1 c2be 400b 563e 8b55 5d3f
000003a0: 0747 433e 9650 953d 9b9f 56be c802 6ebc
000003b0: f560 823d e617 a73e 9347 37be f858 c5bd
000003c0: 4ad0 e03e fea1 c63d f1d7 c33e eaae 163f
000003d0: c4d6 9d3e 57e4 03be f559 c93e 5bd8 4b3c
000003e0: 4c9a a43d a25b be3c 0d01 e9bd 6bab 45be
000003f0: 3118 2f3f 9d2f 493e 0fde c1be 3a93 753d

action_model._discrete_distribution.branches.3.bias f4 [2]
-0.018394716 0.018394813
00000000: 84b0 96bc b8b0 963c

98 f4 [11]
2.5152555 2.7370625 4.334394 4.4884844 23.680593 0.26007524 0.26573223 0.49422255
0.27387044 0.29334447 0.47201332
00000000: f2f9 2040 082c 2f40 5bb3 8a40 aaa1 8f40
00000010: db71 bd41 9528 853e 0e0e 883e bd0a fd3e
00000020: bf38 8c3e 3f31 963e bbab f13e
