results/Imitation1/Dark Knight Behavior/Dark Knight Behavior-999660.onnx (onnx, 81950 bytes, 14 tensors)

network_body.observation_encoder.processors.0.normalizer.running_mean f4 [11]
00000000: 0544 9a40 89cc 35c0 6eb3 4441 f4cb 3e41
00000010: c41d 5042 52b0 9c3d 53fd 8c3d 48f3 e53e
00000020: d14e a53d a1f5 d53d 7a74 ab3e
4.820803 -2.8406088 12.293806 11.924793 52.029068 0.07650818 0.06884255 0.4491217
0.08071674 0.104472406 0.33487302

network_body.linear_encoder.seq_layers.0.weight f4 [128, 11]
00000000: 10b0 473e 5471 9b3e 8ed3 2cbe 904e b93e
00000010: bb3d 723e e5af 04bc 88a5 a1be ab1f ab3a
00000020: dc9a a5be 8554 0cbe 3d60 eb3e 33c9 97be
00000030: 7a12 0bbd 0fcb 933f 9fac a0be ddc5 083d
00000040: 0189 a93e a7ba d1bd d428 293e 03c6 1a3d
00000050: 1f8b e8be f156 31be dd2b ea3e e3f5 a5bc
00000060: 5fa4 acbe 9599 943e e4b5 3a3e 7a9a c43d
00000070: 7214 d73d 0b92 04bf d30e 33be 29f1 bd3e
00000080: 847c 123e 8f53 ebbe 3c7c 0bbf 2de2 fa3e
00000090: 623e a43d 737d a1bd 78a3 e53d 9959 e9be
000000a0: 836e b9be 8282 723e 48be adbe 26dc cb3e
000000b0: 54ad f8be b874 963e 8005 4d3e 1f23 08be
000000c0: fb41 93bf 19a6 b93e 762b 2b3f f7cc 50bd
000000d0: 07db 6fbe 0bc2 abbd ea39 6dbe 5ff1 d3be
000000e0: c570 913e 7a49 e3be a84e f83e 148b 653f
000000f0: f2fe 063e 7d52 0dbc e121 1fbe 2bda 983e
00000100: e484 7cbe f6a7 24bd cbd0 383e 4138 55be
00000110: 8903 44be 13e0 793f b928 823e 200f 10bf
00000120: f79b 19be 413c 223f bd78 6abe 00f3 de3d
00000130: fe5a cc3e dd30 84bc 2c7b c83d d482 ca3c
00000140: 4c67 583e 67b6 c43e 30bf 0e3e 54ba b9bb
00000150: 953b 9cbe 7052 4abe 3502 0abe 455d b03e
00000160: e608 cc3e 2302 eb3e 15e6 c13c 5a08 213d
00000170: 8b56 b7be 0be3 32be 0645 a9be 1803 c33e
00000180: c369 c0be be41 f23d b856 b93d 603c b0be
00000190: edc5 9fbe e641 703f dd3c 94be 8c72 a6be
000001a0: e40e 1b3e 525e be3c 8647 c6bd 3093 bd3e
000001b0: 023c 243f 1505 123e a654 543f 17ef 083f
000001c0: 9ce0 a43e 1d92 0cbf 447e cd3e 810d 36bf
000001d0: b5b5 40bd e7cb 283e 36d5 b4bd da01 20bf
000001e0: 1a06 973d 9cdc 01bf fe00 7fbe 3898 06bd
000001f0: 6b22 85be 13fa d4bd 1540 03bf 08e0 92bd
00000200: 821e b03d 23f1 d73e 0cac b3bc 6326 c13e
00000210: be08 96be 9ccf 0d3e a406 febe 6751 ae3e
00000220: 6fb2 033f 7e58 8c3d 3f7d 7abd 9a03 32be
00000230: a5bf f23d e2d0 7dbd 9d5c 8e3c 4ed0 403d
00000240: 6df4 2abf f212 01bf 1b0a 26be 96f7 1dbf
00000250: 9572 033f 73ab f4be 4c32 af3d 0bc6 f23d
00000260: 9835 6abd 443d 93be ead3 623d d999 f63e
00000270: 1f85 563d b904 e9be ff87 93bf 7590 023f
00000280: 320e 433e 5051 efbe b31c d33e 7d1b 0b3f
00000290: 4748 103f 7d22 233e a46a aebe 0fb1 a6be
000002a0: ed9f 2f3c 1f0d bc3d 4994 9d3d 6b1a b23e
000002b0: 2df0 1a3f d5c3 bb3e e767 cf3d c1b2 0ebf
000002c0: 38fb 7f3c ffc6 673e ca79 2abf 5494 5d3e
000002d0: d228 473f cdf3 033e e444 8a3e 1e55 733e
000002e0: 7030 51bc e594 eb3d 8610 463e f4b0 04be
000002f0: fa58 dfbe 5e3d c43e e2b3 e73e 464a 7c3d
00000300: f89b 6a3e 051a 99be 4451 c9be 0718 ecbe
00000310: 2ace 11be 811e c5bd 6278 96be d694 143f
00000320: b25f 803e ffb5 8abf 0f3f 10bf 2f56 903e
00000330: 4bc8 083d 46a7 6f3e b728 ffbe 5d0f 7e3e
00000340: 64f1 a1bd 9b4f 093f b71d 1fbf d670 333f
00000350: 68c6 163f 0af1 e4be 9f02 513c 1197 54bc
00000360: 4a64 d6be c79c abbe a934 873e b45c 42be
00000370: 8805 80be 6a2d 173f b251 e33e c02b 19bb
00000380: bad7 8bbe 364c fdbd 61ad 073f 43c7 48bc
00000390: a8a5 34be 61ad 7bbf cc77 133f 9ca7 3b3e
000003a0: 62b3 433f 4079 d0bd 941c 343e 7a1a 9abe
000003b0: 4b85 d4bd 680a 8a3e 62e5 f23c 6d05 693e
000003c0: f03d 22bf 9687 023f b726 4a3f 0a39 01bf
000003d0: 0ffc 61bd 63d8 02be 8849 e23c 5484 b93d
000003e0: 1e79 f7bd 671d b5be c5f9 873c 6539 df3e
000003f0: 37c6 8cbe 32bd 89be 6388 34bf b754 863e
0.19500756 0.303599 -0.16877577 0.3619275 0.23656361 -0.008098577 -0.31571603 0.0013055702
-0.3234471 -0.13704117 0.4597186 -0.2964569 -0.033953167 1.1546344 -0.313817 0.033391822
0.33112338 -0.10240679 0.16519481 0.037786495 -0.4541864 -0.17318322 0.4573659 -0.02025885
-0.33719155 0.29023424 0.18233448 0.095997766 0.105019465 -0.51785344 -0.17486124 0.37098053
0.14305311 -0.45962188 -0.5448644 0.49000683 0.08019711 -0.07885256 0.1121282 -0.4557617
-0.36217126 0.23682597 -0.33934236 0.39816397 -0.4856974 0.29385924 0.2002163 -0.13294648
-1.1504511 0.36259535 0.6686319 -0.05097672 -0.23423396 -0.0838662 -0.23166624 -0.4139509
0.2840635 -0.44391996 0.4849751 0.8966534 0.13183191 -0.008625624 -0.15540268 0.2985395
-0.24660069 -0.040199243 0.18048398 -0.2082224 -0.19141974 0.97607535 0.25421694 -0.5627308
-0.15000902 0.6337319 -0.2289762 0.10886192 0.39913172 -0.016136581 0.09789118 0.024720587
0.21133155 0.38420412 0.1394012 -0.005667964 -0.30514207 -0.1975801 -0.13477404 0.3444616
0.3985054 0.45900068 0.023669282 0.039314605 -0.35808215 -0.17469423 -0.33060473 0.38088298
-0.3758069 0.118289456 0.090497434 -0.34421062 -0.31205693 0.93850553 -0.28952685 -0.32509267
0.15142399 0.023238335 -0.09681611 0.37026358 0.64154065 0.14259751 0.82941663 0.5348982
0.32202613 -0.5491045 0.40135396 -0.71114355 -0.04704829 0.16484033 -0.08829729 -0.62502825
0.07374211 -0.5072725 -0.24902722 -0.03286001 -0.2600282 -0.1039926 -0.51269656 -0.07171637
0.08599569 0.4217616 -0.021932624 0.377246 -0.29303545 0.13848728 -0.4961444 0.3404648
0.51444143 0.06852816 -0.0611546 -0.17384186 0.118529595 -0.061966784 0.017378146 0.047073655
-0.66779214 -0.50419533 -0.16214792 -0.6170591 0.51346713 -0.47787055 0.08554515 0.1185418
-0.057180017 -0.2875768 0.05537788 0.4816425 0.052373048 -0.45511416 -1.1525878 0.51001674
0.19048384 -0.46741724 0.41232833 0.5433882 0.56360286 0.15931125 -0.34065735 -0.3255696
0.010719282 0.0918219 0.07694299 0.3478578 0.6052273 0.36672845 0.1012724 -0.55741507
0.01562386 0.22634505 -0.66592085 0.21638614 0.7779666 0.12885971 0.27005684 0.23762938
-0.012767896 0.11503009 0.1934224 -0.12958127 -0.4362257 0.3832807 0.45254427 0.06159427
0.2291106 -0.29902664 -0.39319813 -0.4611208 -0.14238802 -0.09624959 -0.2938872 0.58039606
0.2507301 -1.0836791 -0.5634622 0.28190753 0.03339414 0.23403654 -0.4983575 0.24810548
-0.0790737 0.53637093 -0.62154716 0.7009405 0.58896494 -0.44715148 0.012756973 -0.01297547
-0.4187339 -0.3351805 0.26407364 -0.18980676 -0.2500422 0.5905367 0.44398266 -0.0023372024
-0.27313024 -0.12368052 0.5299893 -0.012254539 -0.17641318 -0.9831143 0.5760467 0.18325657
0.7644559 -0.101793766 0.17589027 -0.30098325 -0.10376986 0.26961064 0.029650394 0.22755976
-0.6337576 0.5098814 0.78965324 -0.5047766 -0.055172022 -0.12777857 0.027622953 0.09058443
-0.12083648 -0.35373995 0.016598592 0.43598476 -0.27494976 -0.26902157 -0.7052061 0.26236507

network_body.linear_encoder.seq_layers.0.bias f4 [128]
00000000: 11f9 cebd 01c4 16be 3708 15be 0284 95bd
00000010: 6d91 a5bd 59d8 92be 65fa e03d 4c89 36be
00000020: 9475 8dbd f859 33bb 9ec1 9c3d 2f39 13be
00000030: 1cdb 16be b072 583e c229 653d a8e1 913d
00000040: 8d47 33bd f345 b8be 8e25 da3d 6cbb d13d
00000050: e6fc e23d 260f 68bc 623b 2e3d 61c3 6cbe
00000060: 2e94 c6bd 7d11 15be ea55 6b3e 0950 ec3d
00000070: 5551 733e f421 44bd 8b1e 933d 0486 eb39
00000080: f83c 343e fc80 1a3d 15dc 1d3e dfa8 21be
00000090: f8ce 90be 14c1 523d 6318 0e3e 0cf5 83be
000000a0: cc56 6c3c 7d57 b9bd 1da9 ecbc f046 d43c
000000b0: c060 4dbc 319c d23d b006 f1bd b8a1 86be
000000c0: a8d3 723c b207 33be 48a8 9abe 2bcc 493d
000000d0: 7e4f 2e3e bd82 07be d369 70bb eca0 1bbe
000000e0: cc66 623c 8667 733e 9ede 393e 4812 23bc
000000f0: 1ca1 d73d d16c 32bd 86f0 a0bd a73b 3abd
00000100: 6c1e 903d acf1 bc3d 3b5b 28be 29eb 5b3d
00000110: bbb2 e9bd 89c9 bcbc 347f b4bc ceb8 123d
00000120: 4351 a3bd 4630 3cbe b4b7 003d 1954 513e
00000130: c212 1d3e 81a1 be3d e865 9d3d e632 2fbe
00000140: 9065 53be 660a 1bbe 11b7 afbd 9267 9c3c
00000150: edd5 793e 1b21 853d ca2c a03d faa3 8fbd
00000160: d31d 843e 4a22 09be 324f f9bd 4dfa 3c3c
00000170: 2ddc 353c b6a4 24bd 3f6e 913e c8c6 03bd
00000180: 39c2 dbbd 7c01 8ebd 6952 15be 0520 f0bd
00000190: 1871 22be e227 4bbe 3c64 23bd 3a94 963c
000001a0: 012d 833d 594e a53e dbfd 59bd eb3d 08be
000001b0: e2d3 21be 7d3b 133d 9fe4 2ebd 05dc dabd
000001c0: dc43 bcbd a1e6 a2bd 018f 0dbd 6621 8abe
000001d0: b2f1 453c 5fc8 b93d 70c3 a3bd 4608 44be
000001e0: 9a5c bebd 2f7b 333e d6b2 07bd ca61 7ebd
000001f0: e83d 9ebe 819a 603e 68dd 69bd 61e8 adbc
-0.101060994 -0.14723207 -0.14553915 -0.07300569 -0.080843784 -0.28680685 0.10985259 -0.17825812
-0.06907192 -0.0027366858 0.07654117 -0.14377283 -0.14732021 0.211375 0.055948026 0.07123119
-0.043769408 -0.35990867 0.10651694 0.10240826 0.11083393 -0.014163768 0.0425371 -0.23121406
-0.09696232 -0.14557452 0.22981992 0.11538703 0.23761494 -0.047883943 0.0718356 0.00044922542
0.17601383 0.037720665 0.15415986 -0.15787075 -0.28282905 0.051453665 0.1387649 -0.25772893
0.014424991 -0.0904989 -0.028889233 0.025912732 -0.012535274 0.102836974 -0.11768854 -0.26295257
0.014820971 -0.17483404 -0.30206513 0.049266975 0.17022511 -0.13233466 -0.003668417 -0.15198106
0.013818454 0.2376996 0.18151328 -0.009953089 0.10528776 -0.043560807 -0.07858376 -0.045467045
0.070370525 0.09225783 -0.16441052 0.053691063 -0.11411043 -0.023045318 -0.022033311 0.035820775
-0.07974484 -0.1837779 0.031425193 0.20442237 0.15339187 0.09308148 0.07685453 -0.1710926
-0.20644212 -0.15140685 -0.08579839 0.019092355 0.24398012 0.06500455 0.07821043 -0.07013698
0.25804004 -0.13391986 -0.121733084 0.011534286 0.011099857 -0.040196143 0.28404424 -0.032171994
-0.107304044 -0.06933877 -0.14582218 -0.11724857 -0.15863454 -0.19839433 -0.039890513 0.018381227
0.06405068 0.32286337 -0.05322061 -0.1330487 -0.15803483 0.035945404 -0.0426985 -0.10686497
-0.09192631 -0.07954145 -0.034560207 -0.26978606 0.01208155 0.09071421 -0.07996261 -0.19143781
-0.09295006 0.1752746 -0.033129536 -0.062104978 -0.30906606 0.21933939 -0.057095915 -0.021228971

network_body.linear_encoder.seq_layers.2.weight f4 [128, 128]
00000000: a595 77be ae42 53be 1a5a 05be 5011 75bc
00000010: 7814 8c3e 1959 ff3d a061 7e3d d304 b7be
00000020: ccf7 63be e4ab b9bd 1bab fabe a5d6 d43d
00000030: 02ef e33d 4a16 efbd 4a69 ff3c c8fd b53d
00000040: 871a 0e3e 0a6c 5bbe d4fa c3bd 25b8 eebe
00000050: 9777 8cbd c954 66be 5a14 9dbe 5122 213d
00000060: 24f1 08bf 40eb eebc 244d 8e3d 39a3 81be
00000070: 78c5 a2be 53ac c23b f384 0dbd 774e 323d
00000080: d220 06bf 15d8 cbbe 2ae9 39bf 9c81 0cbd
00000090: f858 3d3c 27a9 5abd 8bdd a5bd f5a3 343b
000000a0: 264e 8dbd f3a2 a43e 79a2 ab3e 449a 723c
000000b0: f8ef 08be ba4b a0be f42d 37be 8597 17be
000000c0: 9328 46be 8eaf 8a3d 2820 49be 8fb8 afbe
000000d0: 4b32 9bbe 4aca b0be fc96 84be f413 7cbe
000000e0: 3a3a e7be 8a2e c5be d070 a5be f3b7 0a3e
000000f0: 4ee9 f9bd eb43 12be 17e0 c2be 784d 39bd
00000100: 1267 8b3d 654f 2dbd a5b7 fdbd d30c b33d
00000110: b7b8 41bd 243f 2d3e e210 5abe ba93 ac3d
00000120: f48a b23d 6df6 afbe 9c70 ee3c 4183 88be
00000130: ebd1 84bf 9fa0 abbe d3c7 acbd 4488 9f3c
00000140: cd2a 97bd 688c 293e 7a1b aabc fec4 30be
00000150: 32dd d6be 6a2c 44be 5217 dcbd c0d6 42bf
00000160: 88fa a5bc 328e 84bb efd2 b33d 6bd2 4c3d
00000170: 5bbb 1bbd e3eb abbd c053 b23d a9dd f7bd
00000180: aca0 24be 80dd 46be 75af 58bd dddd 163d
00000190: 0d7f acbc 987a e0be 473f 093d e85a c0bc
000001a0: 3b01 dd3d 873c 47be 8705 f0be 3b79 443e
000001b0: deda 1c3e f0b5 0fbe cf42 9dbe 15db a93d
000001c0: ff47 d93d 874c ca3d d5e4 e2bd 4fcc 643d
000001d0: da70 d7be 8d2e 58be d3a9 913e 20a9 bbbd
000001e0: 13db 7bbd ffd5 a6bd a34a 6dbe cf80 75be
000001f0: 16eb e23d 6775 61be db02 b93d b35c b73d
00000200: e65b 73be dc7a 21bd 29bc 8c3d c0ca 86be
00000210: 14e4 08be 655e e43d 9660 babe ae43 9d3b
00000220: 16f4 8fbe 15ce e2bd 9fb9 ae3d 76db 1ebd
00000230: 758e b53b 3add bc3d 3d40 93be 92d8 033d
00000240: 630c 9ebd 168d 573b 85f8 22bc f4d2 bbbe
00000250: 67a1 8cbe 9364 3ebe a227 e53d 3b4c 7a3e
00000260: 206b 00be 4f61 98be 3717 26be 5d44 aabe
00000270: 7c98 febd 6fd9 b5be f661 103f da40 2ebe
00000280: c795 103e 4adf b23d 153f cbbb e2a2 d43e
00000290: 914d 2abc 934e 84be 27aa 0cbe ab59 703e
000002a0: 4882 b33d b4c9 efbe 4cc9 33be b00a 06be
000002b0: 7f56 ce3d e262 d8be 1ce8 59be ce18 b2bd
000002c0: 6023 acbe 3d16 013e e488 fcbc 0dac f0bc
000002d0: 7c20 263e 37d3 f83d c7b0 59bd 239e 143e
000002e0: 9fb7 ac3d 4e14 ebbd 3148 a5be aeae a6bd
000002f0: 4efa d5bc acdf 8cbc 3125 87bd a663 153e
00000300: d470 42be 8fda df3d 1305 c73e d5f4 413d
00000310: 9583 8a3e 1b83 76bd 3ed5 90be ca46 8a3e
00000320: fc00 fa3c fec6 12bd e6f1 493c c9b8 193e
00000330: 35dd 243e fd2a 2e3e 78c6 9a3c b292 2c3d
00000340: b815 393e 5178 72be 8ad1 0fbb a119 0abe
00000350: 6c36 32be 5f74 9b3d 1f74 0ebe cdc3 37bc
00000360: c601 bb3c a97d dfbd ff06 093e 8094 f53d
00000370: 5740 b6be 4a9f b5bd 5027 d63d 7d36 58be
00000380: 6629 003f 9abd 723d 8845 d3bd 57c1 1f3e
00000390: b112 523d 5f81 88bb 1701 653d 9e58 7d3e
000003a0: 077b b4bd 8490 78be cecb 4dbd aa50 60be
000003b0: ab76 bfbc e82e cc3e 557e 4ebd 9e84 163e
000003c0: 1116 05bd f208 15bd 9710 033e 334e 893d
000003d0: c7ca 373d 11c5 83be e491 b23d 8f29 903e
000003e0: ad29 603e 05e7 8a3d f5fc bc3d caed 953e
000003f0: 80d7 b23d 5979 fb3c 9054 cd3d 16a7 67bc
-0.24178179 -0.20630905 -0.13022652 -0.014957741 0.27359366 0.12468166 0.06210482 -0.35745868
-0.22262496 -0.09065989 -0.48958668 0.10392503 0.111295715 -0.11674173 0.031178135 0.088862956
0.13877307 -0.21427932 -0.09569326 -0.46624866 -0.068587475 -0.2249328 -0.3067959 0.039339367
-0.5349295 -0.02916491 0.06948307 -0.25319842 -0.31791282 0.005940953 -0.03455062 0.04353186
-0.5239383 -0.39813295 -0.72621405 -0.034303293 0.011556856 -0.053383972 -0.080988966 0.0027563546
-0.06899671 0.3215557 0.33522394 0.014807288 -0.13372791 -0.31307775 -0.17888623 -0.14803894
-0.19351415 0.06771766 -0.19641173 -0.34320495 -0.30311808 -0.34529334 -0.25896442 -0.24616987
-0.4516161 -0.3851207 -0.32312632 0.13546734 -0.122027025 -0.14283721 -0.38061592 -0.045239896
0.068067685 -0.042312045 -0.12388543 0.087426804 -0.0472953 0.16918617 -0.21295503 0.08426614
0.087179095 -0.34367695 0.02910643 -0.2666264 -1.0376562 -0.33520982 -0.08436551 0.019474156
-0.073812105 0.16557467 -0.020765055 -0.17262647 -0.41965634 -0.19157568 -0.107466355 -0.7610893
-0.020261064 -0.0040452713 0.08780467 0.050005358 -0.038020473 -0.08394601 0.0870738 -0.12102825
-0.16076916 -0.19420433 -0.052901704 0.03683268 -0.021056676 -0.43843532 0.03350761 -0.023480847
0.1079125 -0.19456683 -0.46879217 0.19186871 0.15317866 -0.14034247 -0.30715033 0.0829374
0.10609435 0.09877878 -0.110788025 0.055858906 -0.42078286 -0.21111508 0.28449878 -0.091631174
-0.061488222 -0.08146285 -0.23173003 -0.23974918 0.11079995 -0.22017442 0.09033748 0.08953228
-0.23765525 -0.03942381 0.06871826 -0.2632656 -0.13368255 0.11150817 -0.36401814 0.004799328
-0.2811591 -0.11074463 0.08531498 -0.038783513 0.005540664 0.09221883 -0.28759947 0.03218896
-0.07717206 0.003289049 -0.009946947 -0.36684382 -0.2746689 -0.18593054 0.111892 0.24443142
-0.12540865 -0.2976174 -0.16219793 -0.33255282 -0.12431428 -0.3551745 0.56399477 -0.17016926
0.14119636 0.08733995 -0.0062025883 0.4153052 -0.01039447 -0.25841197 -0.13736783 0.23471706
0.087650836 -0.46833575 -0.17557257 -0.13090014 0.100750916 -0.42262942 -0.21279949 -0.08696137
-0.3362074 0.1260614 -0.030826993 -0.029378915 0.1622333 0.12149661 -0.053147104 0.1451345
0.084334604 -0.11478482 -0.3228164 -0.08138786 -0.026120331 -0.017196499 -0.065988906 0.14588794
-0.18988353 0.109303586 0.3887106 0.04735263 0.27053514 -0.060183626 -0.2828769 0.27007133
0.030518048 -0.035834305 0.0123257395 0.15011896 0.16100009 0.17008586 0.018893465 0.042132087
0.18074691 -0.2367871 -0.0021944963 -0.13486339 -0.17403573 0.075905554 -0.13911484 -0.011216116
0.022827994 -0.1091264 0.13381575 0.11991215 -0.35595962 -0.088682726 0.10456717 -0.21114536
0.5006317 0.05926285 -0.103159964 0.15601097 0.051287357 -0.004165813 0.055909242 0.24740836
-0.08812528 -0.24273878 -0.05024319 -0.21905771 -0.023372015 0.39879537 -0.05041345 0.14699027
-0.032491747 -0.036385484 0.12799297 0.067043684 0.044871118 -0.25736287 0.08719233 0.28156707
0.21890898 0.06782345 0.09227935 0.2928298 0.087325096 0.030697512 0.10025895 -0.0141389575

network_body.linear_encoder.seq_layers.2.bias f4 [128]
00000000: 0fc1 793c dec4 0d3d ece9 a9bc d2d9 58bc
00000010: 2135 0a3e 6837 81bb e9ef bbbd d160 32be
00000020: dbbb 693d 5893 60bd 810b b63b 4d8b 83bd
00000030: 3a72 22be 2a76 6abe 2fda 18bd c63b e3bd
00000040: ceb0 0cbe 7cec d33d cdd3 94bd ddc1 22be
00000050: f106 00be ce75 36be 3eb1 533d 6d88 ecbd
00000060: 580e 5b3d 62a2 b33c 6b17 8ebc 4263 86bd
00000070: fbcc 803d 9797 89bc 1c13 16b9 c749 14be
00000080: c6e4 b93d 7ad5 dfbd 7c28 aabd 0279 37bd
00000090: bcf0 813d ccd5 e7bd 28aa bf3c c14c f6bd
000000a0: 20ee 70bd a36c 403c 14fd 6cbd 4754 d43d
000000b0: 7019 13bd 147e 94bd 7f0a a8bc b3ed b6bd
000000c0: 6588 d2bd 566b b4bd e0fc 3fbe 426d 24be
000000d0: 8233 34be 9830 53be b7b7 693d 8579 9cbd
000000e0: 32a0 1c3d f0ac 8bbe ca68 05be f5f5 adbb
000000f0: 20db df3c bb09 c1bd 6158 183d 7d23 87bd
00000100: 3a21 2bbd 8a66 cebd a9c4 31be 9de8 2abe
00000110: 537a 933d 9a37 87bd b393 f7bd a14b b0bc
00000120: 2b1c 263c 9178 093e 580b e8bd e46b ac3d
00000130: 9b8b 76bd be59 18bd 2f1b 8a3c a71d f33c
00000140: 467e 5cbd a975 963d d732 683b 991a f0bd
00000150: 681e 56be 23ba bbbd 654f 8f3d 55c0 3ebd
00000160: 5f56 d0bd 1a8c 9cbd 21d0 f3bd 5a80 ddbd
00000170: dec2 d8bd 38bd 13be e924 dcbd de7a ef3d
00000180: fdb7 643a ffa6 cabd 653a 8f3d 60ef 873c
00000190: 9937 293d 519f 26bd 602e 46bd a1e7 1bbe
000001a0: f690 70bd b142 0cbe d7b7 dabd ad81 0d3e
000001b0: 5613 1abd 1f5b 623d 1f74 43be 28d9 21be
000001c0: 8045 a6bd 7836 203d 5d61 1ebe 64ec bbbd
000001d0: 722a 8abe bd75 38be de45 a0bc 3c3a e4bd
000001e0: a22c f2bd 966b d5bd 0278 c23b 0164 193e
000001f0: a315 cabd ff7c 3abd 198e 8dbd 848f 623d
0.015243783 0.034611575 -0.020741425 -0.013235526 0.1349683 -0.0039433725 -0.091766186 -0.17419745
0.05706392 -0.054828018 0.0055555706 -0.06423054 -0.15863886 -0.22896639 -0.03731745 -0.11095385
-0.1373932 0.1034784 -0.0726696 -0.15894265 -0.12502648 -0.17818376 0.051682703 -0.11549459
0.053480476 0.021928016 -0.017345151 -0.06561901 0.06289097 -0.016795916 -0.00014312234 -0.14481269
0.09076838 -0.10929389 -0.08308503 -0.044793136 0.063447446 -0.113200754 0.023396567 -0.120263584
-0.058820844 0.011744651 -0.05785854 0.10367637 -0.03591293 -0.0725061 -0.020512817 -0.08932056
-0.102799214 -0.08809535 -0.18748808 -0.16057304 -0.17597774 -0.20624006 0.05705997 -0.076403655
0.03823871 -0.27280378 -0.13028255 -0.0053088614 0.027326167 -0.09425684 0.03719366 -0.06598566
-0.041779734 -0.100781515 -0.17360176 -0.16690297 0.07201066 -0.06602402 -0.12088718 -0.021520438
0.010138552 0.13424899 -0.11330289 0.08419016 -0.060191732 -0.03719496 0.016858665 0.029677225
-0.05383136 0.07346661 0.0035430694 -0.11723823 -0.20910037 -0.09166362 0.06997565 -0.04657014
-0.10172724 -0.0764391 -0.11904932 -0.10815497 -0.10584043 -0.1442765 -0.107492276 0.11693357
0.0008724926 -0.09895133 0.0699356 0.016593635 0.041312788 -0.04067928 -0.04838407 -0.15225078
-0.058731996 -0.13697316 -0.10679596 0.13818999 -0.037616096 0.05526268 -0.19087265 -0.15805495
-0.08118725 0.039114445 -0.15466829 -0.09175947 -0.26985508 -0.18013664 -0.019564565 -0.1114392
-0.11824919 -0.10420911 0.005934716 0.14979555 -0.09867408 -0.04552936 -0.069118686 0.05531265

action_model._discrete_distribution.branches.0.weight f4 [3, 128]
00000000: f479 3b3e e5a3 0fbe d99a fb3e 4159 85bc
00000010: 1594 9b3d 8beb 8c3d f2a5 9e3d fb39 47be
00000020: f65d 39bd b281 873e 0638 8fbd ae41 37be
00000030: ac75 e5bc 05d5 923e 893d 0abe 3260 74be
00000040: 5e18 f7bd b922 3abd 2b29 fe3b 7991 003d
00000050: ee75 dd3e 6f2c c8bd 40a2 99bd eab7 1e3d
00000060: 54f4 d63d eef9 62bb e85a 3abc 73f8 d3bd
00000070: 8b20 ba3d c3e3 703d 6bd0 b83d dbd1 213f
00000080: 5186 cabd 1123 b23e d2d8 123d d179 233c
00000090: b785 c4be 8900 b83d 42fa c33c 7110 d33c
000000a0: 9802 ac3d 73b4 90be 28ce 23be 8880 3cbe
000000b0: 02fc b0bd a779 ed3d 1eda 81bb cf20 4b3d
000000c0: 4a99 a0be fb5e 5cbd 1d66 713e 51d1 75bd
000000d0: 6032 d43e d86a bdbd 6c89 d0bc a837 243d
000000e0: b946 3cbd 96ef d03d 88c4 6ebd 5634 78bc
000000f0: 3a5a a43c ea0b b0bc acf9 eabd 9e78 4dbe
00000100: b0e4 15be 0eea a4be 1263 eebc c977 b13d
00000110: 53b4 bdbe 3546 203e ed01 27be 5c15 e2bd
00000120: a30a af3d a58c aebe 7016 4bbc 2d68 4c3e
00000130: 0045 01be 755e e8bd 05fc 3cbf 9ebc 00be
00000140: f37b 443e 4d45 843d d607 8c3d b41b 9c3d
00000150: bd97 c43d 3342 e8be 0e5b 61be eb58 cdbd
00000160: 9df7 093e 293f 81be 236d bcbc e5c3 863d
00000170: 03ed bebe 38e9 1dbd ee6a 42be 4609 10bf
00000180: a029 9cbe d5e2 0b3d e3cb 25bf 9cfb b5bd
00000190: ac81 febd 0e00 e13c 74c5 10bf 27cf f2bd
000001a0: fbac 3d3d 6176 a53d db38 a23e 8222 82be
000001b0: 7dba 3ebe 4d47 f3bd 5276 b0be 125d 383c
000001c0: cb6d c6be 22ed 92be ab53 9bbd 1f7f 6d3d
000001d0: fd77 5b3d 46de 86be b44a 1d3d a9cd 0f3e
000001e0: cda2 3b3e 87d4 19bf 0e65 613e 80af 08bd
000001f0: 6eb3 0bbe 110c a93d d121 bcbd 2a74 7fbe
00000200: 167d 9c3e 4607 bdbd f0d9 363e e152 71be
00000210: 76f0 42be 6479 79be 5574 db3d 5286 743e
00000220: 5294 173e 7b6d b7be feda 7a3d 9b74 a8bd
00000230: f95a 3e3d fac8 313f 6c04 5cbd 7e47 bf3e
00000240: 8f4a 5c3d cf6f 58be aa61 88bd 344d 98bd
00000250: b5b9 bcbe e00b 313f 454b c43e d818 d6bd
00000260: fb2c 00bf f7b6 70be 5a17 0abe b661 0abe
00000270: 1902 0dbf ddd0 c73c 0b1c b53c 0ebb 66bf
00000280: 2ab0 3abf 9c1c 993b b234 243d ae7f 9ebd
00000290: 54cd 0b3e 5cdc 84be eef5 65be 8a43 eebd
000002a0: 131e 853e 9501 8ebd 8c12 b4bd e15f 833e
000002b0: 869e fc3c 4628 96bf df06 5a3e c769 fc3a
000002c0: 0442 53bc add6 6f3e ea13 dbbe be2e aa3d
000002d0: 538d bebd 099c 543e bc67 c2be a660 7cbd
000002e0: cc99 edbd 3714 dbbe b78b 45bd 3ffd 25bf
000002f0: f239 f73b 06f5 773d cfbf 9a3e d2a3 473e
00000300: 9a2d 84b9 76ab 553d 1b1e 56be bf29 e03e
00000310: 9ddc cfbe 419b 32bc 8132 233d f475 16be
00000320: 61e9 e6bd 3e63 eabd 308f 0f3e 7406 85bf
00000330: 3197 a4bd 1fda 473d 721b 6c3e 6758 1e3e
00000340: 354d 65bd 116e 8cbf 70aa 89be 032a 45be
00000350: 4490 2bbf b0e8 1d3e 1e80 67bd c9af 403e
00000360: 4e9e a2bd aae3 e03d 3261 883d 1c83 22be
00000370: 241e febd 139b 473e ad5c f83d 5e9b 903e
00000380: af0b 82be 1beb b4bd 1041 bc3e dedc b03c
00000390: 224d b7be 1d57 5d3d 5ddf 8f3e 4098 9f3d
000003a0: 8d9e 1fbf 3adc 0e3f c486 13bf 370a 44bf
000003b0: d659 153e a308 b6bd 05f9 cbbe b4e7 7c3d
000003c0: e8c5 ee3c e4c6 103e 3d11 2b3e eefc 11bf
000003d0: 119a 3f3f a2ac 8e3e 40be cd3d f249 813c
000003e0: 6f5d 383e a6a8 c2be 43c0 32bf ce45 f7be
000003f0: 972d e33e bb45 24bc c16f a3be 77b7 393e
0.1830824 -0.14027365 0.49141577 -0.016277911 0.07596604 0.06880864 0.07746495 -0.19455712
-0.045255624 0.26466137 -0.069931075 -0.17896149 -0.028010212 0.28678146 -0.13500036 -0.2386482
-0.120651945 -0.04544327 0.0077563724 0.031388734 0.43254036 -0.097741 -0.0750165 0.038749613
0.10495821 -0.0034633833 -0.011374213 -0.10350122 0.09088238 0.05881096 0.090241276 0.6321084
-0.098889 0.3479238 0.035851307 0.009977774 -0.38383266 0.08984477 0.023923043 0.025764676
0.08398932 -0.28262672 -0.15996611 -0.18408406 -0.08641817 0.11595469 -0.003962769 0.049591836
-0.3136695 -0.053801518 0.2357411 -0.060014073 0.41444683 -0.092488945 -0.025456153 0.04009214
-0.045965884 0.102019474 -0.058292896 -0.015149197 0.020062555 -0.021490056 -0.114734024 -0.20065543
-0.14638019 -0.3220982 -0.029099975 0.08665425 -0.3705164 0.15651782 -0.16309328 -0.1103923
0.08546951 -0.34091678 -0.012395486 0.19961615 -0.12623978 -0.11346141 -0.7382205 -0.12571952
0.19187908 0.064585306 0.06837432 0.076224715 0.09599254 -0.45363006 -0.22007391 -0.100267254
0.13473363 -0.252435 -0.02300126 0.06580333 -0.372902 -0.038552493 -0.18986103 -0.5626415
-0.30500507 0.03415187 -0.6476423 -0.08885881 -0.12427077 0.027465846 -0.5655129 -0.118559174
0.046307545 0.080792196 0.31684002 -0.25416952 -0.18625827 -0.11878834 -0.3446527 0.011252658
-0.3875564 -0.28696543 -0.07584318 0.05798256 0.053581227 -0.26341456 0.03840132 0.14043297
0.18323822 -0.60089916 0.22011206 -0.033370495 -0.13642666 0.082542546 -0.091861375 -0.24946657
0.30564183 -0.09229903 0.17856574 -0.23566772 -0.19037041 -0.24362713 0.10715548 0.23879364
0.14802673 -0.35825714 0.061244003 -0.08225366 0.046473477 0.6944729 -0.053715155 0.37359232
0.053782042 -0.21136402 -0.06659253 -0.074366 -0.36860433 0.69158745 0.38338676 -0.10453957
-0.50068635 -0.23507296 -0.1348547 -0.13513836 -0.55081326 0.024391586 0.022108098 -0.9012917
-0.72925055 0.0046726 0.040089317 -0.07739197 0.13652545 -0.2594937 -0.22457096 -0.11633976
0.25999507 -0.069338955 -0.087926 0.25659087 0.030837309 -1.173104 0.21291684 0.0019257598
-0.012894157 0.23421736 -0.4278863 0.083096966 -0.09304299 0.20762648 -0.37969768 -0.06161561
-0.116016 -0.4278886 -0.048228946 -0.6483955 0.0075447494 0.060536407 0.30224463 0.19496086
-0.00025210978 0.05216547 -0.20909922 0.4378185 -0.40598002 -0.010901273 0.039843086 -0.14693433
-0.11274982 -0.1144471 0.14019465 -1.0392594 -0.0803665 0.048792 0.23057345 0.1546341
-0.055981833 -1.097109 -0.26887846 -0.19254307 -0.67017007 0.15420794 -0.056518666 0.18817057
-0.079403505 0.109809235 0.066591635 -0.15870327 -0.124080926 0.1949275 0.121270515 0.28243536
-0.2539954 -0.08833905 0.3676839 0.021589693 -0.35801035 0.054038156 0.281001 0.07792711
-0.62351304 0.5580479 -0.5762751 -0.76578087 0.14585051 -0.08888366 -0.39838424 0.061744407
0.029147103 0.14138371 0.16705795 -0.57026565 0.7484446 0.27866083 0.10046053 0.01578233
0.18004392 -0.38019294 -0.6982462 -0.48295444 0.4437072 -0.010026391 -0.319212 0.18136393

action_model._discrete_distribution.branches.0.bias f4 [3]
00000000: 7966 abbd ec2c 42be 7930 023e
-0.083691545 -0.18962449 0.12713803

action_model._discrete_distribution.branches.1.weight f4 [2, 128]
00000000: d1a4 7cbd 1917 b83d 168f b8be c233 e9bd
00000010: 21fc f13d 7d00 393f 1235 c8bc 9045 843e
00000020: f6ca 223e 5d21 8b3d 5229 b7bd 974c 083e
00000030: 40cf b73c b3c7 b3ba 94a0 f83d f25f 32bb
00000040: d375 15be a6fc 663e aa59 1ebe d94d 5dbd
00000050: 2e49 c6bd a3ae 19bf 4e76 d83e 54c8 b4bd
00000060: 3c1d 0dbe 10c7 013d 7d4d 0e3d 91af 09bd
00000070: 9251 623e 67dc 85bd c9f9 4f3e 1845 2c3e
00000080: c54c 193f 118b 933c da14 953d f5d1 1fbe
00000090: 97ca 06bc 0f5e dfbc f090 09bf c83b 5abd
000000a0: 59e0 f53d eba6 7abd b9e7 a43d 6141 913d
000000b0: 60c4 e6bd 586c 113d 3bc7 aebd ae29 bb3d
000000c0: a33f 223e 2ec0 a3be b8f1 52be 3ba4 0d3d
000000d0: 2e4d 29bf 6d08 acbd 4f0f 483f 8562 23be
000000e0: 0fa1 e23c d25b 31be d26f 6bbb 69d5 52bd
000000f0: 80e0 9e3e eb8a 4c3e 7bab 643e abbd 5fbe
00000100: 0be3 a9bd 8a8e ce3d 4353 08be c75d 86be
00000110: 79e7 253d 3c3b d83e a4a8 e0bd d251 1c3e
00000120: 2f5f bbbd 1097 5ebe 7350 14be b2d9 0f3e
00000130: 41f1 233d e83a 0d3e a932 dabe f2a7 aa3d
00000140: ffed 2dbe 004b 48bc f326 253e 9cca f5bc
00000150: 19a5 5e3d 91f6 1c3d a831 323e dfbd d4bd
00000160: 26f6 363c c7bc 0f3d 9304 ac3d c455 7d3b
00000170: b8f1 a2be 0673 e2bd a77f fb3b 749e c4bd
00000180: 287b 8f3d cc88 9dbc 2fe9 b63e 76e9 b13b
00000190: fb21 1d3f 907a b6bd 5f3d 80bd 2a77 92bd
000001a0: cc22 0a3e fe54 29bf d739 10be 3174 8f3e
000001b0: 30b0 f23d aa24 453e b5cd 853e cec6 a8bd
000001c0: 95a6 37bd 4b09 8f3d 70e8 39bd 7531 d03b
000001d0: 32bd 4cbf 7da2 2cbf f24d 0a3f 8c7d d0bc
000001e0: 254a cebe ee76 863e 559c b6be c62a bf3e
000001f0: db7a 22be 2b96 273c e6ad 693e 7583 27bd
00000200: 7339 993d 4178 95bd 4500 b63e 3ac3 c23d
00000210: 65da f9bd 080a 3cbf 1ccf 81b9 2ceb 84be
00000220: 20a2 27be a1b0 43bd 7dc8 a43d 7fbe 04be
00000230: c80d cebc 01b6 59bb 92ec 14be 4d19 103c
00000240: e149 1d3e a2f5 59be 1a4e 3c3e 3f69 7c3d
00000250: 7c2d 9d3d ef4d 1b3f 1745 d8be 4920 b53d
00000260: fa5e 1e3e 035a 23bd 32f1 d7bc bc0c 373d
00000270: 4a0f 5ebe 1644 513d 6951 42be 5213 33be
00000280: c9e7 18bf 7724 ebbc 4467 85bd 2200 3d3e
00000290: d8b7 2b3b 0575 163d 5ebe 0c3f febb 5c3d
000002a0: f461 debd 3dcf 913d 854c afbd 8ff6 b8bd
000002b0: 0098 e43d 9b76 f2bc 0d49 c93d 70b6 b3bd
000002c0: 1c64 06be 4a98 a83e 32ca 473e 0d7d 2bbd
000002d0: cbab 263f 0095 dc3d 9de4 48bf cf35 1d3e
000002e0: 8a33 e0bc d2f5 3b3e e863 ebba 16e3 653d
000002f0: 6791 9dbe 5f3d 57be 8d67 75be 9c98 563e
00000300: 648f 943d 2c3e dbbd 4fe6 fb3d 2f07 863e
00000310: 694e 34bd 7751 d6be 1b9c da3d 7789 1bbe
00000320: f1f8 af3d c5e2 563e 3c8d 133e ed75 05be
00000330: 7364 62bd 0cd5 f4bd f91b d93e 3190 b1bd
00000340: 0e51 2b3e 7d24 183d 1176 31be 9d9d 523d
00000350: 6aff 4fbd 9ccd 3dbc dc6e 32be 5902 e33d
00000360: 1765 98bc bb64 19bd d4e1 8abd 9d61 323c
00000370: fb1f a13e cd42 dc3d 1140 8bbc 82df a13d
00000380: 0218 8fbd 81c5 d73c b01d b4be 30d7 04bc
00000390: d268 1abf 3972 be3d 2569 a73d 897b 9a3d
000003a0: 13e9 14be 70bb 263f 6ca6 003e 488c 97be
000003b0: 6090 e5bd 4d9b 5fbe 9751 83be 850c c43d
000003c0: 6a23 e83c ec7f 4cbd 04fb 403d 2d87 f93a
000003d0: 3a22 493f ba15 2c3f 1593 07bf a814 063c
000003e0: ec59 d93e 365f 85be 68c9 b93e 7293 bcbe
000003f0: c2a4 1d3e 23a0 83ba c14f 74be ebcc 763d
-0.06168062 0.089887805 -0.36046666 -0.11386825 0.11815668 0.7226637 -0.024439368 0.25834322
0.15897736 0.06793473 -0.08943428 0.13310467 0.022437692 -0.0013716131 0.12140003 -0.0027217832
-0.14595728 0.22557315 -0.15463892 -0.05402932 -0.09681927 -0.600321 0.4227776 -0.08827272
-0.13780683 0.03168398 0.034741867 -0.0336147 0.22101429 -0.06536179 0.20310129 0.16823232
0.59882766 0.018010648 0.07279368 -0.15607436 -0.008227012 -0.02726653 -0.5373678 -0.053279668
0.120056815 -0.06119434 0.0805201 0.07092548 -0.11267924 0.035503715 -0.08534094 0.09138809
0.15844588 -0.3198256 -0.20600021 0.03458045 -0.6613339 -0.084000446 0.7814836 -0.15955551
0.02766469 -0.17320183 -0.0035924804 -0.051473055 0.31030655 0.19974868 0.2233104 -0.21849696
-0.08295258 0.10085781 -0.13313012 -0.2624342 0.040503953 0.42232692 -0.10969666 0.15265587
-0.09149014 -0.21737313 -0.14483814 0.14047888 0.040025 0.13792002 -0.42616776 0.08332814
-0.1698532 -0.012224913 0.16128139 -0.030003838 0.05435667 0.03832108 0.17401755 -0.103877775
0.011167085 0.03509214 0.0839931 0.0038655857 -0.31825042 -0.11057095 0.0076751295 -0.09600535
0.07005912 -0.019230269 0.3572478 0.005429442 0.61379975 -0.08910096 -0.062617056 -0.07151635
0.13489836 -0.6614531 -0.14084564 0.28018335 0.11850011 0.19252267 0.26133505 -0.08241044
-0.0448366 0.06984194 -0.045387685 0.006353552 -0.7997619 -0.6743544 0.54025185 -0.02545049
-0.40290943 0.2626261 -0.35666147 0.3733732 -0.15867178 0.010228674 0.22820243 -0.04089685
0.07481661 -0.07298327 0.3554708 0.09509893 -0.121998586 -0.73452806 -0.00024759106 -0.25960672
-0.1637044 -0.04777587 0.080460526 -0.12963293 -0.025153056 -0.0033220055 -0.1454337 0.008795095
0.15360214 -0.21285108 0.18389168 0.061623808 0.07674691 0.6066579 -0.4224021 0.088440485
0.15465918 -0.039880764 -0.026360128 0.04468988 -0.2168552 0.051090322 -0.18976368 -0.17487839
-0.59728676 -0.028703911 -0.06513837 0.18457082 0.0026202109 0.036732692 0.5497798 0.05389022
-0.10858527 0.07119606 -0.08559517 -0.09031402 0.11161804 -0.029597571 0.098283865 -0.087750316
-0.13124126 0.32928687 0.19510725 -0.041867305 0.65105885 0.10770607 -0.78473836 0.15352558
-0.027368326 0.18355492 -0.0017958852 0.05612477 -0.30774996 -0.21019505 -0.23965283 0.20956653
0.07253912 -0.10705218 0.12299787 0.26177356 -0.04402009 -0.41859028 0.10674306 -0.15189157
0.08592404 0.20984943 0.14409345 -0.13033266 -0.055271577 -0.11954698 0.42404154 -0.086700805
0.16730139 0.037144173 -0.17330195 0.051419843 -0.05078069 -0.011584666 -0.17425102 0.11084432
-0.01860289 -0.03744958 -0.067813545 0.010887531 0.31469712 0.10754929 -0.016998323 0.07903959
-0.06987001 0.026339294 -0.351789 -0.008107945 -0.60316193 0.0929913 0.081743516 0.07543094
-0.14542036 0.65129757 0.12563485 -0.29599214 -0.11209178 -0.21836586 -0.25648186 0.095727004
0.0283372 -0.049926683 0.047114387 0.0019037478 0.7856785 0.6722065 -0.52958804 0.008183636
0.42451417 -0.26049203 0.36286473 -0.36831242 0.15394881 -0.0010042231 -0.23858549 0.06025402

action_model._discrete_distribution.branches.1.bias f4 [2]
00000000: 2e75 383e 3575 38be
0.1801345 -0.18013461

action_model._discrete_distribution.branches.2.weight f4 [2, 128]
00000000: 05de 233e 50cf 4f3d 1056 5e3e 7669 85bd
00000010: 58e6 483e d5b2 713e 180b a8be b2e1 11be
00000020: 22a0 7cbe fca4 7abe 0407 13be f0c0 df3c
00000030: c5f2 853c 8962 01be 2af6 9fbc e4a5 32bd
00000040: a37f 2abe 1ed8 09be f619 513d a8f7 f83d
00000050: 7396 53be d359 2abf 6cca 673e 22ca 843d
00000060: fa93 e23e 9f60 eb3d e458 b63c bc91 103d
00000070: cbbd af3d d964 aebe 1873 fb3c b87f a4be
00000080: f670 053f 4e71 8a3d cc95 8a3d 5859 703f
00000090: 212d 02bd 2e59 9c3d 58e1 83be 99b7 963d
000000a0: 2561 ff3d f30d 9ebb beb7 3a3e b411 ff3d
000000b0: 4c45 0b3f cd29 013c d3f4 a1bd feff 333d
000000c0: 3f75 d23d 42e1 7d3d 301a f4bd f8ff d23c
000000d0: 1690 17be 00f8 803d 929c 10be 5f7c e0bd
000000e0: ae66 0d3e e1ba d23e 3f32 d5bd 94bd c63e
000000f0: b704 78bd 6cef 6dbd 43b7 923d 782a 893e
00000100: 9d69 b0bd 8cc4 0a3e abaa d23e 0fe7 f6bd
00000110: bea2 2a3f b321 12be 8f5b 8b3d ed9a ce3d
00000120: a892 323e 5f5c e5bd c938 f43c d27c 4c3f
00000130: a595 5e3e 3a8a 883e d2b9 8dbd 9185 21be
00000140: 837f 00be b905 be3e 2830 cd3d ff6c 5abc
00000150: be9e a0bd 6b8f 863e 6224 213e c8b9 2b3f
00000160: e63f 5f3e ee97 acbd 099a 17bc 92ce 02be
00000170: 6759 94be 40a7 253f d7ce 73bb a15a c0be
00000180: 0ad7 b83e 7e9e b83d 3a34 343f 527a 6a3e
00000190: e5d7 4ebe 2ec7 013d 3811 11be 6cd0 1ebe
000001a0: cde5 993e 1184 34bf 7f26 0dbe 1543 4e3d
000001b0: 056f e5bb 0a58 3c3f 70c9 0fbe 0eb3 8b3d
000001c0: 1f0e a13d 0dcc 283d 4585 283d 1b27 82bd
000001d0: 42fa 01bf 55d8 bdbe 9caa 89bc b0b9 50bd
000001e0: 8f2e 56be 33ae 93bd 5638 6fbc 5dc3 353e
000001f0: d9f4 853e 31ac 9b3d 156c 643e 7271 78bd
00000200: de98 42be aa8b 53bd 6734 5ebe dbbe b63d
00000210: 0e2e 4abe d8e2 7bbe 46f7 a73e 104f 183e
00000220: 6aca 823e 0923 793e 0b10 0e3e 540f fabc
00000230: 4f16 abbc 95ea f43d f8a6 99b9 88e6 243d
00000240: 9535 1d3e 1f7b fd3d 19d6 0bbd f73a c5bd
00000250: 3696 513e e670 283f c3b6 54be 2a10 87bd
00000260: 9e55 e5be 9a25 dabd 9e82 0c3c e6ae 07bd
00000270: 1746 b4bd ff11 ae3e b7e4 d7bc 298b aa3e
00000280: 5e4e 01bf 99f7 97bd b268 7bbd e523 6ebf
00000290: 0a18 473d 0db1 8fbd d5c5 833e cd97 a9bd
000002a0: a092 06be be85 0a3b 4c22 4dbe 0ffa f3bd
000002b0: c687 08bf be34 ffbb e7ed 853d e4e9 32bd
000002c0: dbe1 ddbd 8f0d 3cbd 09c6 d83d 5ce4 8cbc
000002d0: 5fac 153e 63b0 8bbd e654 0d3e bdd6 fb3d
000002e0: 56f1 0fbe d944 d8be 759f e73d ca92 c8be
000002f0: 46ff 903d ec42 4b3d d580 4fbd aceb 8abe
00000300: 54ab ca3d 4434 13be c8ff dcbe 608a cd3d
00000310: 9c05 2dbf 57ec 0d3e ad34 57bd eb29 dfbd
00000320: f970 42be e926 cb3d 5ace 2abd 80df 49bf
00000330: de1e 63be e451 91be 9476 8b3d afb9 183e
00000340: 1a54 e63d 852a b6be d755 b3bd 1c7e 853c
00000350: e5e9 bd3d 6163 8bbe e908 18be 4b26 2ebf
00000360: d4e8 69be 6f12 cb3d d35a e03b 599c 033e
00000370: 0e6e 993e 6b69 24bf edff 853c ea2a bf3e
00000380: f463 bbbe 10c9 d1bd 70c7 36bf 83ff 5dbe
00000390: 5424 623e 26ed 8abb 778b 0f3e a356 133e
000003a0: ace5 93be 661e 3b3f 362b 173e dbe9 2bbd
000003b0: 2581 83b8 aa34 3bbf eab7 293e 46c5 b3bd
000003c0: 70fa aabd e3a6 09bd 07c5 0dbd 55f5 933d
000003d0: 05a9 023f b21e bb3e 9cd5 c33c dd30 5f3d
000003e0: 7d0c 523e ad8f 653d 6f8e c93c 8d48 4bbe
000003f0: 18ed 77be e75c 6bbd d0d0 5cbe 9b51 4a3d
0.16002662 0.050734818 0.21712518 -0.06514256 0.19619119 0.23603375 -0.32820964 -0.14246252
-0.24670461 -0.24476999 -0.14358145 0.02731368 0.016351113 -0.12635244 -0.01952656 -0.043615237
-0.16650252 -0.13461348 0.05105015 0.12156612 -0.2066286 -0.6654331 0.22635812 0.06483866
0.44253522 0.114930384 0.022259183 0.035295233 0.08581122 -0.34061316 0.03069453 -0.32128692
0.5212549 0.067598924 0.06766853 0.9388633 -0.03178132 0.07634197 -0.2575786 0.07359237
0.12469701 -0.00482344 0.18234155 0.124545485 0.54402614 0.007883501 -0.07908025 0.043945305
0.10276269 0.0619824 -0.11919057 0.025756821 -0.14801058 0.06297302 -0.14122227 -0.10961222
0.138087 0.41158202 -0.10409974 0.38816512 -0.06055137 -0.05808966 0.07163861 0.26790214
-0.08613894 0.13551539 0.41145834 -0.1205579 0.66654575 -0.14270668 0.06804573 0.100881435
0.17438757 -0.11199259 0.029812234 0.7987796 0.21736772 0.26667958 -0.06920208 -0.15773608
-0.12548642 0.3711374 0.10018951 -0.013331651 -0.07842778 0.26281294 0.15736535 0.67080355
0.21801719 -0.08427416 -0.009253033 -0.12774113 -0.2897446 0.6470833 -0.0037202144 -0.37569144
0.36101562 0.09014605 0.7039219 0.22898224 -0.20199545 0.031684093 -0.14166725 -0.15509194
0.30058137 -0.7051402 -0.13784216 0.050356943 -0.00700176 0.73571837 -0.14041686 0.06821261
0.078640215 0.041210223 0.04114272 -0.06355115 -0.5077249 -0.3707911 -0.016804986 -0.050958335
-0.20916198 -0.0721096 -0.014600834 0.17750306 0.26163366 0.07601202 0.22306855 -0.060655065
-0.19003627 -0.051646866 -0.21699677 0.089231215 -0.19744131 -0.24598253 0.32805842 0.1487391
0.25545055 0.24329771 0.13873307 -0.030524887 -0.020884661 0.119588055 -0.00029306835 0.040258914
0.15352471 0.12376999 -0.034139726 -0.09630387 0.20467457 0.6579727 -0.20772843 -0.0659488
-0.44791883 -0.10651703 0.008576063 -0.03312578 -0.08802431 0.33998105 -0.026354177 0.33309296
-0.50510204 -0.074202724 -0.061379142 -0.9302352 0.04860691 -0.07016192 0.2573687 -0.08280907
-0.1314187 0.0021136845 -0.20032614 -0.11912929 -0.53332174 -0.00778827 0.06539517 -0.043680087
-0.10834094 -0.045911368 0.10584647 -0.017198734 0.14616536 -0.068207525 0.13801917 0.122968175
-0.14056906 -0.42240027 0.11309711 -0.3917449 0.070799395 0.04962437 -0.050659973 -0.27132928
0.098959595 -0.14375407 -0.43163896 0.100361586 -0.67586684 0.13859688 -0.05254047 -0.10896667
-0.18988408 0.09919531 -0.0417007 -0.7885666 -0.22179744 -0.2838279 0.06809726 0.14914583
0.1124651 -0.35579315 -0.08756607 0.016295485 0.092731275 -0.27224258 -0.14847149 -0.6802718
-0.22842723 0.09915625 0.0068467646 0.1285261 0.29966778 -0.64223355 0.016357386 0.37337428
-0.36599696 -0.10243428 -0.7139807 -0.21679501 0.2208417 -0.004239696 0.14018045 0.14388518
-0.28886163 0.7309326 0.14762577 -0.04197107 -6.270622e-05 -0.73127234 0.16574064 -0.08777861
-0.083485484 -0.03360642 -0.034611728 0.07224528 0.51039153 0.36546856 0.023905568 0.05448996
0.20512576 0.056045223 0.02460405 -0.19851895 -0.24211538 -0.057461645 -0.2156403 0.04939423

action_model._discrete_distribution.branches.2.bias f4 [2]
00000000: ca47 523e c847 52be
0.20535198 -0.20535195

action_model._discrete_distribution.branches.3.weight f4 [2, 128]
00000000: 1d37 b8be afa8 a73e cb89 30bc dd0a 5c3e
00000010: 6e8c 0bbd eb6a ae3d 2259 12bf 419f 10bf
00000020: 3a77 82be 49fd a0be 3c76 163e 65ba 853e
00000030: a876 68bd 918b a3be 469a c23d e069 16be
00000040: ac62 99bd 3cea 23bf 6424 543d be4a b63c
00000050: 1329 8ebd f68b e4bd 3ded 023c 3aba 82bd
00000060: 61c7 963e f9ff 443c 2273 893e ede3 163d
00000070: ebbd 84be 8d1d 1b3f ba38 c9bb 4286 d7be
00000080: ad52 73be 487b 46be 6e13 c7be bd09 9d3d
00000090: b23c 77bc a376 75bc 182b 413e 910c 243d
000000a0: aeab 0abf f894 06be 5e17 b23d 6aec ccbc
000000b0: 7925 863e ebcd 813d 47e6 033f 5671 81ba
000000c0: 5cd6 803c 6e00 d4be bd3f 6d3d 296f afbc
000000d0: 43b0 90be fc40 1dbe d808 b03d 2aba 6a3d
000000e0: 26a6 abbc b6af 793f 881c 9fbd c0a7 40be
000000f0: bc4e 1b3d 30b6 94be 6298 333c afa7 3cbe
00000100: 9155 81bd 3735 5bbe 38ba b33d 6b35 b4be
00000110: c80c 49be b1fa 87bc 3b0a 1c3d fedd 813e
00000120: 1733 fcba 0375 a33e 5310 343d fd67 9dbe
00000130: f35c 773b b712 073d a248 c1be 43eb 9e3e
00000140: 4cd0 233d 5e5e b0be ecc4 9dbd 1d5a 9d3c
00000150: ccb4 2b3e 14d0 49be 7afe a43e 4856 953d
00000160: 8b89 52be 0af5 fa3d 9433 d8bd 3751 83bd
00000170: 3933 073f 6edc 6cbe 155a 4a3c b231 c73e
00000180: ec14 9d3e e904 fa3c e014 713e 8f0c 28be
00000190: 0ba7 bbbe 1cfc 0fbe 2507 a8be eafb cbbe
000001a0: bed3 953e 85e9 903d 8484 743e a9ae 163e
000001b0: 8fe5 c53c 4dbf 003f 453f 783c 9a76 893e
000001c0: fddf 773d 9bc8 133e 4306 453c 3c97 11be
000001d0: 659e 3bbe 395d abbe 2937 353e cf66 c0be
000001e0: 97f4 e1bd 8a76 c13d 6e07 77be 3ca8 0bbe
000001f0: f8bf 97be 5276 933e 32a1 7c3e 0e5e 31bd
00000200: 377f b83e 95c5 acbe e723 cabb 725c 6bbe
00000210: d594 a73c dde4 84bd 424c 0f3f e8f1 103f
00000220: f6ad 833e 3cf4 a23e aee9 06be 736c 88be
00000230: 1a03 7c3d 261b 943e e34d 9dbd 4fda 183e
00000240: a2b4 7d3d ea06 203f 968c 29bd d976 f8bc
00000250: 0a47 2e3d e14d 053e 1496 40b9 a406 643d
00000260: 3ecc 9bbe 50cd 97bc c281 88be 40ff d5bc
00000270: b73d 643e 2894 1abf a297 563b 733e de3e
00000280: 333d 7b3e 87c9 5a3e 8c6d cb3e fd27 b1bd
00000290: c741 e03b 3d0b a63b dfb4 36be c4c9 40bc
000002a0: 2ade 083f 8d3a 0b3e c471 96bd 0f6c 443d
000002b0: 556a 81be dc65 8cbd 6e14 f9be 5af9 55ba
000002c0: 9756 b6bb 69f2 d13e 1e12 abbd 4b62 fd3c
000002d0: 655f 8f3e 9094 203e b250 bbbd 396d 73bd
000002e0: 7585 573c 1495 79bf 766a 8e3d c4fe 4c3e
000002f0: 8ff2 62bd e85f 913e 88a1 573b 51bf 2f3e
00000300: 902d 5c3d 9615 5f3e 6095 c6bd 2868 ba3e
00000310: 3115 4f3e a71e 883c de94 4cbd da38 88be
00000320: b1f7 663b e5b0 a0be 92e0 33bd 1764 a33e
00000330: 2392 8cbc db41 ccbc 601e cf3e e713 a4be
00000340: 8305 1ebd 1be9 ac3e af8a 8e3d deb9 24bc
00000350: 4ba9 1abe f30c 4f3e 7c32 a5be 5f8c cdbd
00000360: b562 773e e7aa 19be ef41 dc3d 49bf 743d
00000370: b870 04bf 271f 7e3e ead2 3cbc 47aa c1be
00000380: 85a8 a3be de2c d2bc 5615 70be d092 423e
00000390: b8bf b63e 2fe0 133e be27 a43e e989 cd3e
000003a0: aae1 94be 5ca1 96bd 439a 83be 9d5f 12be
000003b0: b0d8 a4bc 6367 02bf 2b32 92bb c160 8cbe
000003c0: 6075 6ebd 6faa 32be 845a 9cbc 8639 e53d
000003d0: c9bf 433e 1296 b53e 3d74 39be 6b5f bf3e
000003e0: 65da b93d 4ea6 9ebd d826 713e 5631 143e
000003f0: 88a8 983e c6b2 9bbe 7e35 8abe a6f6 863d
-0.35979548 0.32745883 -0.01077504 0.21488519 -0.03406947 0.08516487 -0.57167256 -0.56493
-0.25481588 -0.3144324 0.1469354 0.2611877 -0.056753784 -0.31942418 0.095020816 -0.14688826
-0.07489523 -0.6402929 0.051792517 0.022252437 -0.06941428 -0.11159508 0.007991132 -0.06383176
0.2944899 0.012023919 0.26845652 0.03683846 -0.25926146 0.60591966 -0.0061407955 -0.42094618
-0.23762007 -0.19382966 -0.3888201 0.07667873 -0.0150901545 -0.0149818985 0.18864095 0.040051047
-0.5416821 -0.13142765 0.08695863 -0.025015075 0.26200464 0.06338104 0.5152325 -0.0009875696
0.015727215 -0.41406578 0.057922114 -0.02141531 -0.28259477 -0.15356821 0.08595437 0.057306446
-0.02095325 0.9753374 -0.07769114 -0.18813992 0.037916884 -0.29045248 0.010961624 -0.18423341
-0.063151486 -0.21407019 0.08775753 -0.35197005 -0.19633782 -0.016599031 0.038095694 0.2536468
-0.00192413 0.3192521 0.04396088 -0.307434 0.003774461 0.032976832 -0.37750727 0.31038865
0.03999357 -0.34446996 -0.077035755 0.019208008 0.16768187 -0.19708282 0.322254 0.072918475
-0.20560281 0.12253769 -0.10556713 -0.06411975 0.52812535 -0.23130962 0.012350579 0.38905102
0.30680025 0.03051992 0.2354312 -0.1641104 -0.3665088 -0.14061016 -0.3281795 -0.39840633
0.2926311 0.0707579 0.23878676 0.14715065 0.024157314 0.502919 0.015151803 0.26848298
0.060516346 0.14431994 0.012025419 -0.14217848 -0.18322141 -0.3346956 0.17696823 -0.37578437
-0.1103298 0.09446438 -0.24123928 -0.13638395 -0.29638648 0.2880121 0.24670866 -0.04330259
0.36034557 -0.33744493 -0.0061688307 -0.22984484 0.02045671 -0.06488965 0.55975735 0.5661912
0.2571866 0.3182696 -0.13175079 -0.2664524 0.061526395 0.28926963 -0.07680871 0.14927028
0.061939843 0.6251055 -0.04139384 -0.030330108 0.042548217 0.1301799 -0.00018366455 0.055670395
-0.30429262 -0.018530518 -0.26661497 -0.02612269 0.22289167 -0.6038232 0.0032744189 0.4340702
0.24535064 0.21365939 0.39732015 -0.08650205 0.006843779 0.0050672577 -0.17842434 -0.011766855
0.53463995 0.13596554 -0.07345918 0.047954615 -0.25276437 -0.06855366 -0.486484 -0.00081624615
-0.0055645215 0.41005257 -0.08353065 0.030930659 0.28002468 0.15681672 -0.09146251 -0.059430335
0.013154377 -0.974931 0.069538996 0.2001906 -0.055407103 0.28393483 0.0032902677 0.17162825
0.05375439 0.21785578 -0.0969646 0.3640759 0.20222928 0.016616179 -0.04994666 -0.26605874
0.003524285 -0.3138496 -0.04391534 0.319123 -0.017159527 -0.024933746 0.40452862 -0.32046434
-0.038579475 0.33771595 0.069600455 -0.01005408 -0.15103643 0.20219783 -0.3226508 -0.10036539
0.24158747 -0.150066 0.10754763 0.059752736 -0.51734495 0.24816571 -0.011524895 -0.37825224
-0.31964508 -0.02565616 -0.23445639 0.19001317 0.35693145 0.14440988 0.3206157 0.4014428
-0.29078418 -0.073549956 -0.2570363 -0.14294286 -0.020122856 -0.50939006 -0.004461547 -0.27417567
-0.058217406 -0.17447828 -0.01908613 0.11192612 0.19116129 0.35466057 -0.18110748 0.37377486
0.090748586 -0.07746564 0.23549974 0.14471945 0.2981608 -0.3040983 -0.26993936 0.06590013

action_model._discrete_distribution.branches.3.bias f4 [2]
00000000: edaf a83d 07b0 a8bd
0.0823668 -0.082366996

98 f4 [11]
00000000: 0826 2540 ac0e 1d40 4b29 8640 51ba 8b40
00000010: 1ee1 bd41 4618 883e bfa1 813e cfab fe3e
00000020: 0e78 8b3e 719b 9c3e f4a2 f13e
2.5804462 2.4540205 4.1925406 4.3664937 23.73492 0.2658102 0.25318715 0.49740455
0.27240032 0.30587342 0.47194636
