results/Imitation1/Dark Knight Behavior/Dark Knight Behavior-1745948.pt (torch, 552039 bytes, 67 tensors)

network_body.observation_encoder.processors.0.normalizer.running_mean f4 [11]
00000000: f33e 9740 b740 40c0 d1d6 4041 8c02 3d41
00000010: f5d9 5142 8e01 943d d384 983d b2c6 e03e
00000020: 5a93 a63d 1d69 c73d 0763 ab3e
4.726434 -3.0039499 12.052445 11.813122 52.46285 0.07226859 0.07447209 0.43901592
0.08133574 0.09736846 0.3347399

network_body.observation_encoder.processors.0.normalizer.running_variance f4 [11]
00000000: dd37 b24b 463a 9b4b 8b6a 6e4c 1641 7a4c
00000010: 983f e04e de29 5c48 7056 6248 a32e 4a49
00000020: 445d 7548 594d 9048 86d0 3649
2.3359418e+07 2.0345996e+07 6.2499372e+07 6.560265e+07 1.881132e+09 225447.47 231769.75 828138.2
251253.06 295530.78 748808.4

network_body.processors.0.normalizer.running_mean f4 [11]
00000000: f33e 9740 b740 40c0 d1d6 4041 8c02 3d41
00000010: f5d9 5142 8e01 943d d384 983d b2c6 e03e
00000020: 5a93 a63d 1d69 c73d 0763 ab3e
4.726434 -3.0039499 12.052445 11.813122 52.46285 0.07226859 0.07447209 0.43901592
0.08133574 0.09736846 0.3347399

network_body.processors.0.normalizer.running_variance f4 [11]
00000000: dd37 b24b 463a 9b4b 8b6a 6e4c 1641 7a4c
00000010: 983f e04e de29 5c48 7056 6248 a32e 4a49
00000020: 445d 7548 594d 9048 86d0 3649
2.3359418e+07 2.0345996e+07 6.2499372e+07 6.560265e+07 1.881132e+09 225447.47 231769.75 828138.2
251253.06 295530.78 748808.4

network_body.linear_encoder.seq_layers.0.weight f4 [128, 11]
00000000: 07ea 7c3e 4130 963e 3a6e 52be 4ede bf3e
00000010: 2f4e 813e 7a49 27bd c935 99be e18b 3fbd
00000020: b7e9 91be ab09 d7bd 7d9c d53e 48a4 a4be
00000030: c18d b3bd f9dc 9e3f 649a c7be fa1b 2bbc
00000040: 1eb7 9e3e 827b d5bd 56f7 373e 755c a03c
00000050: 7764 ebbe c38d 17be bea9 013f 0b16 4b3d
00000060: 9375 e9be 7ef5 913e f37d 073e 751b dd3d
00000070: 573c b93d ba15 12bf 81a1 3bbe dd41 bf3e
00000080: 6869 3b3e 29c4 dcbe 7176 0fbf e8aa fe3e
00000090: 0d58 c93d f4d9 93bc 5142 003e 1a68 c1be
000000a0: 14a0 d9be e0b3 3f3e 64ca c9be 1be9 e23e
000000b0: cf2d 00bf e29a a43e 2ac8 393e 5828 00be
000000c0: e607 9ebf 4628 ac3e 8650 213f 4a01 bc3b
000000d0: d700 8dbe 0439 65bc 6ea6 4fbe 8292 c8be
000000e0: 9311 873e 5de8 f0be bd06 033f 529d 7e3f
000000f0: 0dad d93d b5b6 06bd 716f 1cbe b619 863e
00000100: 1d8d 36be bf4f 1f3b 5cb0 403e e8c5 7dbe
00000110: 76c1 2ebe fdde 853f 4147 ae3e e5a2 0bbf
00000120: 5320 0bbe 7772 183f ffe1 6cbe 072b 3e3e
00000130: 96c8 ce3e c2a6 a8bb ff90 bc3d 6587 51bd
00000140: bcf9 183e 9cd2 c03e 0d67 bd3d bb74 0e3d
00000150: 03c9 8cbe 8449 22be 3d17 ffbd 9712 a93e
00000160: f9ab c63e 114b d93e 547b 3c3d 163e 293d
00000170: f63f a9be c2ff 7cbe 8bbf a5be b96d d03e
00000180: 50f1 b7be 9dbc df3d 2c8d 013e aaa5 c4be
00000190: 309b bebe 3fb4 863f d5d5 84be 5256 b0be
000001a0: a585 013e a24f ad3d 254a f0bd 9353 e23e
000001b0: 4ac1 293f 6a75 203e b8a0 583f 835e f83e
000001c0: 038c b63e 59d1 1bbf 679b ae3e 7fcb 4bbf
000001d0: 1f8f 7fbc d2e9 4b3e faed debd 57f2 1abf
000001e0: 6f24 a43d ef7f 19bf 8377 8bbe 8ad7 96bd
000001f0: 9863 76be f3e7 03be fb64 0fbf ecdf 93bd
00000200: 22c6 543d fb51 f03e 5f0f 6bbc eb49 c23e
00000210: 2ad5 a6be 127a 9e3d 8c07 10bf 09c9 bb3e
00000220: 2611 113f 5c05 243d a6ca a0bc 0eb2 24be
00000230: f793 843d fa76 41bd a30a fa3c fd11 a63d
00000240: 530f 2cbf d8ff 08bf 9e66 18be d873 22bf
00000250: 90cc f43e 4d61 f2be 5cbf ff3c b308 053e
00000260: 2012 c7bc b470 94be a3c1 363c 8b98 dd3e
00000270: f4c5 6b3d 716f 07bf 93c0 93bf abba f43e
00000280: e0c1 713e 5830 cfbe 38d8 dd3e 2c8b 023f
00000290: 5686 153f bf09 093e 2aaf b6be 07af b9be
000002a0: 2169 3c3c 187c d03d ec58 af3d 6fa8 b13e
000002b0: 54ae 163f 8bb2 b33e 9b64 e43d 983c 12bf
000002c0: 5ac0 d639 6be9 323e 67d2 3abf f46b 803e
000002d0: 9ba6 4d3f 82fe f33d 99fc 8d3e 13fd 733e
000002e0: 16f4 64bc 8e5d c83d 1b56 4d3e 4ad4 f3bd
000002f0: f094 e2be 4a68 b63e 74b6 fb3e 5012 bb3d
00000300: cf7f 193e c1cb 83be d9d6 97be a168 b9be
00000310: 9648 1dbe 8fbb 123a 159b a5be f8ff 1f3f
00000320: 4f88 ad3e 8065 98bf 0f74 18bf 0380 773e
00000330: 586e 343d fde7 893e 2598 01bf 45b5 5f3e
00000340: 3dd1 c1bd 93d4 0c3f d3b6 2fbf 3b2a 2e3f
00000350: a743 283f 73d6 fdbe cd46 0bbc 8807 883b
00000360: 9847 f3be 1742 babe 7d80 943e 25a5 5fbe
00000370: 8e0d 92be 4207 233f 0c13 ef3e 7766 803c
00000380: 5de1 babe 94ac ffbd f70b 033f ea33 563b
00000390: f251 34be 7e37 82bf 57ec 143f 31ba 533e
000003a0: 3575 4d3f 8669 ecbd 26f3 1c3e c3dd c0be
000003b0: 6ea0 19be 2025 813e f0ee 513d 54cc 373e
000003c0: f25e 2bbf 16ee fe3e cd64 5c3f e962 f6be
000003d0: f0ff 10be 0489 39be 1042 57bd 14da ac3d
000003e0: 2ce8 e1bd ecad ccbe a79e c3bc 3080 e03e
000003f0: b346 96be e852 9abe 2895 3bbf f188 8c3e
0.2469865 0.2933369 -0.2054986 0.37474293 0.25254962 -0.040841557 -0.29923847 -0.04676426
-0.28498623 -0.10499891 0.41720954 -0.32156587 -0.08767272 1.2411186 -0.38984978 -0.010443682
0.30999082 -0.10423948 0.17965445 0.019575337 -0.45975086 -0.14800172 0.5064963 0.04958157
-0.45597515 0.28507608 0.1323164 0.10796253 0.09044712 -0.570644 -0.18323328 0.37354937
0.18301928 -0.43118408 -0.560401 0.49739766 0.098312475 -0.018048264 0.12525298 -0.37774736
-0.42504942 0.1872096 -0.39412224 0.4431847 -0.500699 0.32149416 0.18142763 -0.1251539
-1.234616 0.33624476 0.63013494 0.0057374584 -0.27539703 -0.013990644 -0.20278332 -0.39174277
0.26380596 -0.4705228 0.51182157 0.994588 0.1062871 -0.032889087 -0.15276887 0.2619149
-0.17827268 0.0024309007 0.18817276 -0.24782526 -0.17065987 1.0458676 0.34038737 -0.5454543
-0.1358655 0.5954966 -0.23133086 0.18571101 0.4038741 -0.005146832 0.09207343 -0.051154513
0.14939016 0.37660682 0.09248171 0.03477929 -0.2749711 -0.15848356 -0.12455604 0.33021995
0.3880308 0.42440084 0.046016052 0.041318975 -0.3305661 -0.24706939 -0.32372698 0.40708712
-0.35926294 0.10924647 0.12651509 -0.38407642 -0.37227774 1.0523757 -0.2594439 -0.34440857
0.12648638 0.084624544 -0.11732892 0.44204387 0.6631056 0.1566979 0.8462024 0.48509607
0.35653695 -0.60866314 0.34102938 -0.79607385 -0.015598088 0.19913414 -0.10885234 -0.6052603
0.08014762 -0.59960836 -0.27239618 -0.073653296 -0.2406143 -0.1288145 -0.5601346 -0.07220444
0.051946767 0.46937546 -0.0143469265 0.3794702 -0.32584506 0.07738127 -0.56261516 0.36676815
0.5666679 0.040044174 -0.01962788 -0.16083547 0.064735346 -0.047232606 0.03052265 0.081089
-0.6721088 -0.53515387 -0.14882895 -0.63458014 0.4781232 -0.4733986 0.031219177 0.129916
-0.024300635 -0.28992236 0.011154565 0.43280444 0.05756183 -0.5290442 -1.1543144 0.47798666
0.23609114 -0.4046657 0.43329024 0.5099361 0.58408105 0.13382624 -0.35680515 -0.36266348
0.011499674 0.10179919 0.085618824 0.34698817 0.58859754 0.35097155 0.111520015 -0.5712371
0.00040960574 0.17471854 -0.729773 0.25082362 0.80332345 0.11913778 0.2773178 0.23827009
-0.01397421 0.09783469 0.20052378 -0.11905725 -0.44254255 0.3562644 0.49162638 0.09134352
0.14990161 -0.2574139 -0.29656103 -0.36212638 -0.1535972 0.00055974064 -0.3234488 0.6249995
0.33893058 -1.1905975 -0.5955209 0.24169926 0.044050545 0.26934806 -0.5062278 0.21846493
-0.09463737 0.5501186 -0.6863834 0.6803319 0.6572823 -0.49577674 -0.008500767 0.0041512884
-0.4751556 -0.36378548 0.2900428 -0.21840341 -0.28525966 0.6368295 0.4669422 0.015673859
-0.36500064 -0.124840885 0.5119013 0.0032684752 -0.17609385 -1.0173185 0.58173126 0.20676495
0.8025697 -0.115435645 0.15327129 -0.3766919 -0.15002605 0.25223637 0.05125326 0.17949039
-0.6694175 0.4979102 0.8609131 -0.48122337 -0.14160132 -0.18118674 -0.052553236 0.084400326
-0.110306114 -0.39976442 -0.023879362 0.438478 -0.29350814 -0.30141377 -0.7327447 0.27448228

network_body.linear_encoder.seq_layers.0.bias f4 [128]
00000000: 7c09 38be 6585 5abe ff95 31be 4742 0dbe
00000010: 09fb c5bd 2773 c6be ffec f33d 702b 86be
00000020: 607e 04be e4f4 ce3b cba0 823d 5b03 fbbd
00000030: 1429 63be ff4d 453e 5192 b23c bd27 f03c
00000040: 0ade cdbd e0b0 f6be be40 9f3d cb78 273e
00000050: 9881 353e d305 1cbd 8020 873d cbac 95be
00000060: 2aae 1cbe 5e30 1fbe 3e57 703e 355e 263e
00000070: 73d2 633e 035c ffbd 2246 a23d 8b03 8c3c
00000080: de93 373e 46bd 9f3d 3778 573e bd73 44be
00000090: 0b50 92be 51ab cb3d 73da 023e aa27 90be
000000a0: ced5 7a3c 3efd e9bd 47af 93bd 97c5 7a3d
000000b0: 394b c9bd 8c7e 313e 8803 55be 972f 8fbe
000000c0: a7a3 1dbc ee3e 87be 1670 c3be c117 003d
000000d0: 8e89 4a3e 4242 4cbe 6c1c b93c d6a7 4bbe
000000e0: 8ee5 0a3c 328c 793e b39c 323e 4458 15bd
000000f0: a156 d43d bfdb 9d3b 4584 c2bd f006 a0bd
00000100: 48da b13d 36d6 f83d 281f 54be 8cbb 323d
00000110: d8d8 2ebe f30d b3bd d596 71bd 2e12 1c3d
00000120: 740f 30bd 1a58 75be dcae 493d 1e60 7d3e
00000130: e05f 173e 0192 8f3d 3c9f d33d 1683 86be
00000140: 77b8 9dbe ce71 3ebe 2cb0 d3bd 2129 1d3d
00000150: 29a7 a33e 2325 7a3c 5be7 7b3d 777f 05be
00000160: f6b2 5d3e fabe e5bd fb7c 3abe cf87 a63c
00000170: ad7e 8bbc 0fd3 02bd 9649 8b3e 937b b4bd
00000180: 5a32 35be 7103 4fbc ce54 c5bd f64c 12be
00000190: 35a4 01be 81ba 38be 1451 00be 9847 18bd
000001a0: 55a1 933d 147c d63e b2d2 c4bd 6429 fdbd
000001b0: 2eba 2bbe 1502 613c 8372 35bd 7329 2fbe
000001c0: f72e 0ebe 171f dabd 9b91 a8bd 139e a2be
000001d0: 6b5a 5a3c e4f2 083e 6757 18be c842 91be
000001e0: b024 03be 26ec 383e 5427 c0bd 6c12 0abe
000001f0: 35a9 bebe 8ab4 753e a09d 94bd 8cba 34bd
-0.17972368 -0.21339948 -0.17342375 -0.13794814 -0.09667022 -0.3875973 0.11910438 -0.26205015
-0.12938833 0.0063158143 0.06378325 -0.122564994 -0.22183639 0.19268034 0.021798285 0.029315824
-0.10052116 -0.4818182 0.077760205 0.16354673 0.17725217 -0.038091492 0.06597996 -0.29233393
-0.15300813 -0.15545794 0.2347078 0.16246875 0.22248249 -0.12468722 0.07923533 0.017091533
0.179275 0.07799773 0.21041952 -0.19184776 -0.28576693 0.099447854 0.12778644 -0.2815526
0.015309764 -0.11425255 -0.07211166 0.061223593 -0.09828801 0.1733343 -0.20802128 -0.27965996
-0.009621537 -0.264152 -0.38171452 0.031272653 0.19779035 -0.1994715 0.02259656 -0.19888243
0.008477582 0.24369887 0.17442589 -0.03646113 0.10368086 0.0048174555 -0.09497885 -0.07813823
0.08684212 0.121502325 -0.2071501 0.04363589 -0.17074907 -0.08742895 -0.058981735 0.038103275
-0.042983487 -0.2395939 0.049239025 0.24743697 0.14782667 0.0701027 0.10333106 -0.26271886
-0.30804798 -0.185981 -0.103363365 0.0383693 0.3196347 0.015267643 0.061499935 -0.13036905
0.216503 -0.112180665 -0.18211739 0.02032843 -0.017028177 -0.031939562 0.2720458 -0.088126324
-0.17694989 -0.012635098 -0.09635316 -0.14287171 -0.12660296 -0.18039896 -0.12530929 -0.037177652
0.07208506 0.4189154 -0.096104994 -0.1236141 -0.1677024 0.013733407 -0.04429866 -0.17105655
-0.13885103 -0.10650461 -0.08230897 -0.31761226 0.013327221 0.13373905 -0.14877091 -0.28371263
-0.12806964 0.18058833 -0.09382501 -0.1348359 -0.3723847 0.23994651 -0.07256627 -0.044123217

network_body.linear_encoder.seq_layers.2.weight f4 [128, 128]
00000000: 1934 85be e61b 69be c15a ffbd ea82 68bd
00000010: c83d 983e 83c2 063e 7870 d83c 8a41 d9be
00000020: 10bc 72be 1366 d1bd b302 01bf ed79 bb3d
00000030: fecc de3d 50d6 0ebe 58c3 f53c 0627 eb3d
00000040: 6811 1e3e 1850 8cbe 943c 6cbd edd2 0dbf
00000050: 1ccd 69bd 83cc 2dbe 7815 adbe a131 033d
00000060: 94f6 13bf adf7 88bc fe4c 263d f218 5fbe
00000070: 293e 7cbe 8daa 3ebd 541a 8bbb 34fe 8cbd
00000080: f068 16bf a047 cabe 5b0c 3fbf 2db8 153c
00000090: f959 d2bb e21d 91bd b58a ddbd bb1f 9dbc
000000a0: c2c2 6ebd d5bb b43e 31ea b53e d462 87bc
000000b0: f61a 0abe 0ae9 b0be 71a0 90be b68b 20be
000000c0: 625e 4abe 990f e63d ef56 83be 196d c4be
000000d0: e1a5 c3be fc36 acbe 7d4a 84be fcf7 5dbe
000000e0: 25f6 fbbe e2db c0be fc26 a0be 71ea 1d3e
000000f0: e68f babd a143 febd ba13 c5be 4f67 5bbd
00000100: b443 843d f3be b5bc df4c 07be 1ae4 8e3d
00000110: aa79 b9bd fce2 403e d726 7bbe 8fba 893d
00000120: 85d9 713d 1e29 adbe 39c2 353d 2d6b a3be
00000130: 9b0e 82bf 2a8d a5be ec56 0ebe 3f75 9c3c
00000140: 2c58 dfbc 835f 3f3e 3c3c 64bd 0717 31be
00000150: d899 f2be 437e 40be d308 13be 3ec6 4dbf
00000160: df2b b8bb 15c8 d23b 87d9 293d 346e 153d
00000170: 210f aa3c 082f 77bd 9576 be3d 8016 e7bd
00000180: 4978 ccbd 7ffc 50be d409 1cbd 1269 0d3d
00000190: 1ae2 68bd 5b5c 09bf 986f 643d 9671 3cbc
000001a0: af1c 0f3e 4314 4cbe a098 02bf e3fa 543e
000001b0: b1bb 103e 4dce ccbd 3419 aabe f8f1 cb3d
000001c0: b439 163e f819 cd3d 4171 f6bd 6440 0a3d
000001d0: 06a0 e6be f7b5 c3be 19ed 973e a04b 35be
000001e0: f90f f4bc 2945 57bd e75f 7abe 93e3 59be
000001f0: 8b70 d33d 5a3a 86be cffc ce3d 9fed eb3d
00000200: e2f1 7ebe 46b8 dbbb 6e68 513d 178d 5dbe
00000210: 9c7d 08be 72fc b83d 82b0 dfbe b09e 2ebc
00000220: e4d1 9fbe 1618 5cbd e619 d33d 37b9 4dbc
00000230: bc15 d4bc 2530 bc3d f55b 88be 542e 5b3d
00000240: aaa4 66bd 86f3 b23c 4052 0a3c 804c b9be
00000250: cc36 86be 9742 48be aa0f b43d e2fe 9f3e
00000260: 2116 f9bd e8aa b0be 3069 24be 8f56 b1be
00000270: 223c 0dbe 87e9 c0be ab5b 173f f7be 45be
00000280: a7fd 0f3e d0c0 c33d 18b5 d43c a443 cc3e
00000290: 4479 4dbc ea67 87be 45e3 0cbe 7d3e 813e
000002a0: 4d3d c43d 118f ffbe 15e9 29be a68a e6bd
000002b0: 4fde d83d 5404 c3be 3148 7abe c5a3 cabd
000002c0: 7ed9 b6be 70a0 123e 9fda 04bd cac3 15bc
000002d0: af52 263e 0c78 c93d d3f4 5cbd 9681 553e
000002e0: f9c7 9f3d 0f0a 0fbe f729 a7be ac09 9fbd
000002f0: f6be 4d3c 015f 8b3c f397 16bd 17ec 233e
00000300: 6091 59be c8a3 fb3d fa5c d73e 8b89 2b3d
00000310: ac9b b03e 5acb 98bd 3018 aabe cdbe 973e
00000320: e853 1f3d 8ed7 69bc 027d 8c3c 8b87 143e
00000330: 4cfa 2b3e 25c0 2d3e 75b2 db3c ef22 f73d
00000340: 22f2 173e 359a 65be 5b99 90bc 58f9 16be
00000350: bd6d 2ebe 08cc c33d afe2 9dbd fb0e 2abd
00000360: fa49 d53c bbb9 87bd 1bf1 183e 87ba 2b3e
00000370: ed32 d5be ff17 d2bd 77c6 ba3d 59df 86be
00000380: 5b96 123f ab27 833d 9aa2 17be 3335 763e
00000390: 9eea 8b3d 8b03 d6bc 29da 933d 7347 893e
000003a0: b339 90bd ae13 79be 6159 47bd 02e3 7abe
000003b0: 6580 f93b 7b21 e03e 54c9 6cbd 7773 2e3e
000003c0: 28ef 71bd 0b31 fcbc 5b24 ed3d 0d17 883d
000003d0: f014 5b3d cdbc 87be f05b 6e3d 7fcf 8c3e
000003e0: 288d 883e a8dc d73d 6e56 a93d b46e bf3e
000003f0: 5ed5 cb3d 59a0 743c 3733 e63d 72a3 2ebc
-0.2601631 -0.22764549 -0.12468482 -0.056765474 0.29734635 0.13160138 0.026420817 -0.42432815
-0.23704553 -0.10224547 -0.50394744 0.09154115 0.10878943 -0.13948941 0.030000374 0.114820525
0.15436327 -0.27404857 -0.05767496 -0.5539997 -0.057080373 -0.16972546 -0.33805442 0.03202975
-0.57798123 -0.016719664 0.04060077 -0.2178686 -0.24633087 -0.04654937 -0.004245082 -0.06884423
-0.5875387 -0.3950777 -0.7462823 0.009138149 -0.006419417 -0.07085778 -0.10817472 -0.01918017
-0.058291204 0.35299554 0.35530236 -0.016526617 -0.13486847 -0.34552795 -0.28247407 -0.15678295
-0.19762567 0.11233444 -0.25652263 -0.38364485 -0.38212493 -0.336357 -0.2583808 -0.2167663
-0.4921123 -0.37667757 -0.31279743 0.15421464 -0.09109478 -0.12415243 -0.38491613 -0.05356532
0.06458226 -0.022185778 -0.13212918 0.06977101 -0.09056409 0.18836588 -0.24526535 0.06725036
0.059045333 -0.33820432 0.04437468 -0.31917706 -1.0160707 -0.32334262 -0.13900346 0.019098876
-0.027263723 0.18688779 -0.055721506 -0.1729394 -0.47382998 -0.18798165 -0.14358835 -0.8038062
-0.005620464 0.006432543 0.041467216 0.03648205 0.020759167 -0.060347587 0.092999615 -0.112835884
-0.0998388 -0.2040882 -0.03809531 0.03452403 -0.056856252 -0.5365655 0.055770487 -0.01150169
0.13975786 -0.19929604 -0.5101414 0.2079883 0.14134099 -0.10000286 -0.33222353 0.09958261
0.1467045 0.10014719 -0.1203332 0.033752814 -0.45043963 -0.38224766 0.2967308 -0.1770463
-0.029792773 -0.05255619 -0.24450646 -0.21278219 0.103242 -0.26216394 0.10106813 0.11519932
-0.24896958 -0.0067053167 0.051124983 -0.21635853 -0.13329166 0.09032525 -0.43689352 -0.010657951
-0.3121482 -0.053733908 0.10307674 -0.012556366 -0.02588927 0.0918887 -0.26632658 0.05351098
-0.05630938 0.021844637 0.0084424615 -0.36191177 -0.26213682 -0.19556652 0.0879205 0.31249148
-0.12162424 -0.3450539 -0.16055751 -0.3463635 -0.1379247 -0.37678167 0.5912425 -0.19311129
0.14061604 0.095582604 0.025965258 0.39895356 -0.012541119 -0.26446468 -0.13758571 0.25242987
0.09582005 -0.49913839 -0.1659282 -0.11256914 0.10589277 -0.3808924 -0.24441601 -0.09894518
-0.35712808 0.14319015 -0.032435056 -0.009140918 0.16242479 0.0983735 -0.05394442 0.20850214
0.07801814 -0.13968681 -0.32649204 -0.07765517 0.012557736 0.017013075 -0.036766004 0.1600803
-0.21246862 0.12287098 0.42063123 0.041879218 0.34493768 -0.07460661 -0.3322158 0.29637757
0.03889838 -0.014272584 0.017149452 0.1450483 0.167947 0.16967829 0.026818493 0.1206721
0.1483846 -0.22422107 -0.01765125 -0.14743555 -0.1703405 0.095604 -0.07709252 -0.041518193
0.026036251 -0.06627222 0.14935724 0.16770373 -0.41640416 -0.10258483 0.091198854 -0.26342276
0.57260674 0.064040504 -0.14808121 0.24043731 0.06831859 -0.026124736 0.07219345 0.26812324
-0.07042255 -0.24323913 -0.048669223 -0.24500659 0.007614183 0.43775544 -0.05780919 0.17036234
-0.059065968 -0.030785104 0.115792 0.066450216 0.053486764 -0.2651123 0.058193147 0.27502057
0.26670194 0.10540134 0.08268438 0.37389147 0.09952806 0.014930808 0.11240237 -0.010659086

network_body.linear_encoder.seq_layers.2.bias f4 [128]
00000000: 2ffd 803c bbc8 123d 9cdc 14bd 1a10 95bc
00000010: 50c1 f33d 5bec 82bb 0174 19be ba0b 59be
00000020: 635a 6e3d 81d2 48bd 439a fa3c c542 c3bd
00000030: 75c9 54be eb33 73be 24a9 5ebd 9bc7 06be
00000040: 64e7 14be 1b73 103e a9e0 1cbd 755b 37be
00000050: edbf d6bd 55b8 4cbe bcd5 743d 13d9 1abe
00000060: cab7 293d af34 9bbd 12e3 10bd 3fc2 e0bd
00000070: 9f2c 643d ab29 c3bb 419f 15bd 9d40 fbbd
00000080: d2e5 783d ff7a fabd f01d bebd 6d68 0fbd
00000090: a943 ca3d e70d 00be 8a2e 153d 9cf5 12be
000000a0: cf65 70bd d5f8 b43c 7ce0 9cbd 54ee 913d
000000b0: c17b 8dbd 8f9e debd 85ed a8bc d0fb dcbd
000000c0: 979d cfbd ff21 c1bd 670c 65be 9f0a 23be
000000d0: 0f35 5bbe a83c 8ebe 88a3 f03c cdec 9abd
000000e0: 7c6f b9bb 3c38 b6be e826 1abe 52cd febc
000000f0: b83f 33b8 74ac e4bd 9e83 3a3d 0360 e4bd
00000100: 4c02 8bbd e982 f0bd f01b 45be 6f10 2fbe
00000110: c8a0 413d 6c86 2dbd 34f2 1cbe f921 bfbc
00000120: 03fe aebc 04dc 073e 6b2d 0fbe f4ac 1d3e
00000130: 1da8 f5bd 5ec8 28bd 1cf4 61bc 0367 803d
00000140: c520 e9bc b634 013e 735e a63b c2ae c5bd
00000150: 9ec5 4bbe 76af ffbd ea95 043d 3b2e 98bd
00000160: b2a3 b6bd d8af adbd 6785 40be 1a8f e8bd
00000170: 2da3 e1bd a83c 26be 0657 30be 18c7 033e
00000180: 88e9 00bc e201 dabd 610a a43d 08e2 153c
00000190: d102 2b3d 2d1d 7a3c 6813 94bd bd0a 27be
000001a0: e3cb 80bc 0bd9 d6bd 5470 cbbd 5010 0f3e
000001b0: afa6 7bbd 9b51 5b3c 6bd8 87be 40a4 3cbe
000001c0: a0bc f0bd 2ff3 6c3c a71c 2ebe 7635 0ebe
000001d0: 19de 7cbe 6d28 21be 4c33 d2bc d9c8 cebd
000001e0: 709d cfbd 29a0 e3bd 9e44 f83c ba96 4b3e
000001f0: 83b8 d2bd 11a3 d4bc 6996 b2bd 5727 9b3d
0.015745727 0.035835963 -0.036343202 -0.018196154 0.11902106 -0.003995461 -0.14985658 -0.2119588
0.05819167 -0.049028877 0.030591136 -0.0953422 -0.20779975 -0.23750274 -0.054360524 -0.13162081
-0.14541394 0.14106409 -0.03830019 -0.17905982 -0.10485826 -0.19992192 0.059774145 -0.1512187
0.04143504 -0.07578408 -0.0353728 -0.109745495 0.055706616 -0.005955895 -0.03652883 -0.122681834
0.06076605 -0.12230491 -0.09283054 -0.035011698 0.098761864 -0.12505303 0.036421336 -0.14351505
-0.058690842 0.022091309 -0.076600045 0.071255356 -0.0690837 -0.108700864 -0.02062107 -0.10790217
-0.1013748 -0.09430312 -0.22368012 -0.1592202 -0.21406959 -0.27780652 0.029374853 -0.075646974
-0.005659042 -0.35589778 -0.15053904 -0.031103764 -4.273627e-05 -0.11165705 0.045535676 -0.11151125
-0.067875475 -0.11743719 -0.19248939 -0.17096113 0.047272474 -0.042364523 -0.15326768 -0.02333163
-0.021361357 0.13267523 -0.1398217 0.15398008 -0.11994956 -0.04120671 -0.01379111 0.06269648
-0.028458009 0.12617764 0.005077177 -0.09652473 -0.19899604 -0.124846384 0.03236953 -0.07430693
-0.08917941 -0.08480805 -0.18800889 -0.113554195 -0.110174514 -0.16234076 -0.17220697 0.12868917
-0.007868178 -0.1064489 0.08009792 0.009148128 0.041750733 0.015265745 -0.07230264 -0.1631269
-0.01572222 -0.104906164 -0.09933534 0.13971066 -0.06143826 0.0133861555 -0.265323 -0.18422031
-0.11754727 0.014462276 -0.17003118 -0.13887581 -0.24694099 -0.15738077 -0.025659226 -0.100969024
-0.10137451 -0.111145325 0.030306157 0.19881716 -0.10289099 -0.025956662 -0.08720095 0.07575863

action_model._discrete_distribution.branches.0.weight f4 [3, 128]
00000000: 93e5 4a3e d1a4 07be d8fe 0c3f cf6c cdbc
00000010: 0c7b 0a3e 3831 a83a b718 373e bd02 4dbe
00000020: 819f febd ca9c 933e 841c 59be 4930 37be
00000030: b977 973c 0ca2 953e dc33 2abe 4c72 80be
00000040: b3c7 5abe 8dbe 3abe e1c0 bfbc 8704 373d
00000050: 23ea f73e bce2 66be 93ac b03b 5faa 2cbc
00000060: f2b3 1c3e f41c 163c c3d2 593d 2fcd 0bbe
00000070: ac4f 083e 29f3 ba3c 00b0 5c3d 95ae 243f
00000080: 0f8e 5fbd fedb ce3e 950b 82bc 5a18 dd3c
00000090: 3f7f 0ebf 618a 863d 75d0 673a 091e b8bc
000000a0: fab0 a63d e71a a9be d93f 40be 9079 5bbe
000000b0: 93c6 54bd 0f8c f13d ee89 183d acb2 5e3d
000000c0: c6f2 b9be 0601 5dba 5919 953e 2032 89bd
000000d0: dab9 d83e 5b4e febc be55 9abd f09d 4c3d
000000e0: 3f63 b0bb efbd 8a3d f4e7 4bbe 5330 98bd
000000f0: d18e b4bb 9cee 03be d6fc 51be 8655 90be
00000100: 8022 0ebe a9fb a0be 3b58 b3bb 2b89 6a3b
00000110: 316a a9be 222f 4e3e d734 2ebe f1d3 17be
00000120: a0a1 833d 6d7d cfbe 8c45 c6bd cf77 4f3e
00000130: dd80 eebd d9d5 fbbd 657e 52bf d924 ddbd
00000140: ab07 7f3e 121e 063c c1ed cd3d f0e6 db3d
00000150: e0ed f63d 2129 e9be 05f2 64be e4ed 1dbe
00000160: 439f c33d bce6 53be 86d9 9fbd cf35 f93d
00000170: 6748 f9be cedc 4dbd 34b3 6cbe e4f4 29bf
00000180: a487 a6be a7d1 c63b 441c 29bf c832 24be
00000190: d0c3 81be 44a6 ab3d 4d8f 12bf 558a b1bd
000001a0: 4d7c b33d 8f02 653d 5c78 c63e aeb9 82be
000001b0: a86b 5fbe dbe4 33bc cca7 bebe dcfd 9cbd
000001c0: 6ff6 c6be 7098 a9be acbb ccbd 7e3d 2b3e
000001d0: 2d22 f83d d82a 99be a484 ac3d 5660 293e
000001e0: 3600 203e 201e 23bf 0455 393e 5be5 0dbc
000001f0: bd65 17be 1033 033e 121f 2bbe 4607 6ebe
00000200: 61ea a93e 9767 ebbd 509d 793e b908 83be
00000210: be85 43be e3b3 86be b013 18be c4ac 783e
00000220: 539b 233e a1c8 82be 08bc 453e 7dad b8bc
00000230: 345b 2c3c 3132 563f abfa 1dbd 0d4a ae3e
00000240: da4e ae3d 970b 69be e555 44be d5ac b2bd
00000250: 14d6 efbe 50f5 363f f87f bf3e 8dc0 b5bd
00000260: c83c 24bf 064b 62be 4f90 30be a43a efbd
00000270: e939 15bf 1298 e23a 1004 edbc 444f 91bf
00000280: 3307 60bf 8c19 e8bc f3c3 1f3d 4912 84bd
00000290: c9e3 403e 6e31 b9be 7c80 2abe 42b9 47be
000002a0: 8590 a83e c4a3 41be b8e2 8bbd 3bdf 7a3e
000002b0: 30a9 5b3c 1ce5 aabf afbd 683e 0b97 6cbd
000002c0: 0e2a f0bc 5488 883e 8530 ddbe 6027 923d
000002d0: ebdc 20be 8713 d83d 8037 24bf dfbb 65bc
000002e0: cca9 1bbd a907 ebbe f08b 89bd f955 33bf
000002f0: 5b8c a0bd 54f4 e4bc 5452 a63e f0cf 6d3e
00000300: 7fd7 2abd cd92 033e d31f 22be 93dd ed3e
00000310: b1bd f8be d8f5 a8bc f55e 9a3d 0de4 1cbe
00000320: d684 66bd b068 cbbd da39 103e 5ae2 8dbf
00000330: 7fc5 bcbd 4860 883d 3572 6d3e 4fb7 4e3e
00000340: 0346 29be 4171 97bf d790 cabe e376 82be
00000350: 9a3d 45bf fc71 8d3e c15e be3b 1d16 673e
00000360: 7046 0abe 198d ef3d 0c3e 903d 3483 4cbe
00000370: ddd8 cdbd 6840 513e 708f d83d c243 ab3e
00000380: 4e9b 57be 8b7e dabd 5d44 d33e 6be3 b33c
00000390: 7e20 f3be bab5 933d 1a38 ab3e a531 0d3e
000003a0: 2b17 64bf 3a1e 363f 552f 45bf 5bd8 59bf
000003b0: bdee 0d3e 2717 31be ebfb 06bf 0b3d 1b3d
000003c0: 06fd d93d 0d0d 863e cbc7 493e e30b 22bf
000003d0: febe 613f 43ff 053e 2cd8 5d3e 0c38 1bbd
000003e0: 24eb cb3c 013d cbbe b87e 55bf 8593 0abf
000003f0: 2430 de3e b643 b1bd 19dd aabe 1f7b 4f3e
0.19814138 -0.13246466 0.5507636 -0.025076298 0.13523501 0.0012832051 0.17880522 -0.20020576
-0.12432767 0.28830558 -0.21202284 -0.17889513 0.018489705 0.29225194 -0.16621345 -0.25087202
-0.21365242 -0.18236752 -0.023407402 0.044682052 0.4842082 -0.2254743 0.005391666 -0.0105386665
0.15303019 0.009162176 0.053179514 -0.1365249 0.13311642 0.022821026 0.053878784 0.6432889
-0.054578837 0.40402216 -0.015874663 0.02698915 -0.5566291 0.065693624 0.0008843013 -0.02247526
0.08139224 -0.33028337 -0.18774356 -0.21433091 -0.051947188 0.11794292 0.037240915 0.054369614
-0.36318034 -0.00084306335 0.291209 -0.06699014 0.42329293 -0.031043222 -0.07535885 0.04995531
-0.005382925 0.06774508 -0.19912702 -0.07431092 -0.005510189 -0.12883991 -0.20506606 -0.2819025
-0.13880348 -0.31442 -0.0054731644 0.0035787325 -0.3308883 0.20135167 -0.17012344 -0.14826943
0.06427312 -0.4052538 -0.09681234 0.20260547 -0.116456725 -0.122966476 -0.8222411 -0.10798044
0.24905269 0.00818588 0.100551136 0.10737407 0.1205709 -0.4553919 -0.22357948 -0.1542278
0.09551861 -0.20693487 -0.07805161 0.12168466 -0.4868805 -0.050259404 -0.23115236 -0.663893
-0.3252536 0.006067473 -0.66058755 -0.16034997 -0.25344706 0.08381322 -0.5724991 -0.08668963
0.08763943 0.055910643 0.38763702 -0.25532287 -0.21818411 -0.010979856 -0.37237394 -0.07665607
-0.3885989 -0.33124113 -0.09996733 0.16722676 0.121158935 -0.299155 0.08423737 0.16540655
0.1562508 -0.6371784 0.18098837 -0.00866064 -0.14784904 0.12812448 -0.16711071 -0.23244962
0.3318663 -0.114943676 0.24376416 -0.25592592 -0.19093987 -0.26309118 -0.1485126 0.24284655
0.1597722 -0.25543693 0.1931001 -0.022543663 0.010519791 0.83670336 -0.038569134 0.3404087
0.085111335 -0.22758327 -0.19173391 -0.08724371 -0.46843016 0.7146807 0.3740232 -0.08874617
-0.64155245 -0.22098932 -0.1724255 -0.11681107 -0.5829149 0.0017287752 -0.028932601 -1.1352315
-0.87510985 -0.028332494 0.03900523 -0.064488 0.18836893 -0.36170524 -0.16650575 -0.19504264
0.3292276 -0.18910128 -0.068303525 0.24499218 0.013407037 -1.3351169 0.22728609 -0.057761233
-0.029316928 0.2666651 -0.4320108 0.071364164 -0.15709274 0.105505995 -0.64147186 -0.014021843
-0.038003728 -0.45904282 -0.06716144 -0.7005306 -0.07839271 -0.027948536 0.32484686 0.23223853
-0.04170942 0.12848969 -0.15832452 0.4645811 -0.48582223 -0.02062504 0.07537643 -0.1532137
-0.056279026 -0.09932077 0.14084569 -1.1084702 -0.09217357 0.06658989 0.23188098 0.20187114
-0.16530614 -1.1831437 -0.3956363 -0.25481328 -0.7704712 0.27626026 0.0058096354 0.2256703
-0.13503432 0.11696834 0.070430845 -0.19971925 -0.10051129 0.20434725 0.105742335 0.33450133
-0.21055338 -0.106686674 0.41263095 0.021959027 -0.47485727 0.07212396 0.3344124 0.13788469
-0.8909785 0.7113987 -0.7702535 -0.8509576 0.13860603 -0.17293988 -0.52728146 0.037900012
0.106439635 0.26181832 0.19705121 -0.6329939 0.88182056 0.13085656 0.21664494 -0.037895247
0.024892397 -0.3969498 -0.8339648 -0.54131347 0.43396103 -0.08655493 -0.3337181 0.2026181

action_model._discrete_distribution.branches.0.bias f4 [3]
00000000: 1e21 ecbd ffa4 65be 33e1 213e
-0.11529754 -0.22426222 0.15808563

action_model._discrete_distribution.branches.1.weight f4 [2, 128]
00000000: f842 7fbd a9a9 d03d 23bd e8be aa52 10be
00000010: b122 c03d 44e7 7d3f 6fb0 f63c 7d95 cf3e
00000020: 482e 853e b09d c63d edce 34be 7510 b63d
00000030: 7253 f73c dc93 543d 7c93 053e 3d70 903a
00000040: 67d5 35be d85f 6e3e bc97 98be 70be 23bd
00000050: 89e7 dfbd f9dc 13bf a26a e93e 749f 83bd
00000060: b8ca ecbd fe93 e23c 5e25 fe3c 4991 95bd
00000070: 805b 973e cd4a 6cbd eb10 313e eab7 a43d
00000080: f87b 0b3f 2408 053d d052 f33d 93db 57be
00000090: d900 0fbd 2f25 81bc b16f 04bf 9d26 a8bd
000000a0: 5e75 113e 798d 29bd a280 923d 6d36 d23d
000000b0: a91e 37be 575b d53c 213b 6dbd 3fcc c93d
000000c0: 5642 123e dd36 c4be c27a 52be b9b5 013e
000000d0: 07ca 3bbf 8208 eebd e66e 723f 4f55 34be
000000e0: 8a54 003c 3627 72be b8db a43b 82ee 8abd
000000f0: c2eb ac3e 1013 593e 5a23 8e3e 75d5 37be
00000100: 8f4d 1ebd d8b7 b73d 07c8 16be 6e86 7fbe
00000110: 78f3 273d 3a89 ee3e 75cc 0abe d3d7 143e
00000120: 1b14 b2bd 97c2 6abe ae61 23be e658 073e
00000130: 226e 993c 3603 263e b0fb dfbe 9691 163e
00000140: d675 60be 6b71 6f3d 851a 483e e1a3 edbd
00000150: 122c 8b3d 9e61 4c3d 433d b73d 4386 06be
00000160: 7828 59bc 46f5 5e3d 2fa4 663d 6ecf 39bd
00000170: f116 84be 8f67 01be 1ac6 49bc b4f1 88bd
00000180: 6efe 013d a584 6ebd f04c 9d3e f19e cd3c
00000190: 31f1 1d3f a4ac b8bd d005 d5bd a564 b3bd
000001a0: 3563 413e 50b8 43bf 12b6 f4bd d9af b73e
000001b0: 914b 473e 3b45 713e c232 b83e 62ed 03be
000001c0: 7bf0 cd3b 0707 7cbd bf1b 88bd e267 b63d
000001d0: cfbf 61bf bef1 2cbf d1da 253f 8136 173d
000001e0: 0b57 d8be 7beb 973e bb8a cdbe 41fb e23e
000001f0: c4c4 3dbe 2859 a83c fdc0 373e 7350 31bd
00000200: 7288 9a3d 960a aebd 582e e63e 0e35 fa3d
00000210: ad00 c8bd 6a78 80bf 8d76 60bd 223b d0be
00000220: df99 87be 8f54 9dbd 7c9e 2b3e 40f4 aebd
00000230: 0bc9 06bd 92cd 67bd ca2f 1ebe 89e4 a23b
00000240: 6aa9 3d3e c958 61be 2292 a73e d7d9 423d
00000250: d6cb b63d 487c 153f 6239 e9be 6af7 833d
00000260: 05a7 073e d7dc 12bd f97a b9bc c53f ac3d
00000270: 5a3a 95be 39d6 313d 7e68 23be 3654 b2bd
00000280: fc16 0bbf ddd4 30bd 50a5 e3bd b809 753e
00000290: d112 f03c dfaf ce3c 1c9d 073f a966 a93d
000002a0: 73b6 05be 6784 523d 66e5 9cbd 62eb f9bd
000002b0: 7b08 363e 66f8 a4bc 841f 913d 0859 c2bd
000002c0: 51cd ecbd fd0e c93e 3c53 473e ef2b 09be
000002d0: a328 393f 7a4a 0f3e 2544 73bf 9128 2e3e
000002e0: baf2 f6bb 27c1 7c3e 3db6 2abc af75 943d
000002f0: a99c abbe 8dc5 63be 5f81 96be 5cb0 2e3e
00000300: b64c e73c 9067 c4bd 0f68 0c3e 38d9 7e3e
00000310: 5c5a 36bd 669f ecbe 39c6 073e 800f 14be
00000320: cead a63d 570e 633e 899e 223e f0e9 f9bd
00000330: 112a 0bbd 0433 13be 00e5 de3e a805 1abe
00000340: e1d8 5d3e 7d5f 09bd 9169 54be 50c0 0c3e
00000350: f5d8 83bd e5bc bdbc 7eb7 b7bd 87a8 0d3e
00000360: aba6 be3b 079d 68bd 975e 24bd 3e3d 763d
00000370: 4245 823e 7d9e fc3d 1d15 443b 7665 4c3d
00000380: 4838 01bd 9cd1 853d 5c81 9abe 3290 e3bc
00000390: 0838 1bbf 83a4 c03d 0131 fc3d dd68 bb3d
000003a0: 7f29 4cbe ba1e 413f 2c8f d53d f3c7 bfbe
000003b0: aabb 40be 29de 85be 83b6 b5be 3090 113e
000003c0: daa5 babc 0bcd a63d 0da5 8b3d ac7e a5bd
000003d0: d824 5e3f fd64 2c3f f81f 23bf ffef 5dbd
000003e0: d666 e33e bdd3 96be c6b7 d03e ed63 e0be
000003f0: adee 383e 3290 39bc df62 42be 094d 803d
-0.062319726 0.1018861 -0.454568 -0.14094034 0.09381617 0.9918101 0.030113427 0.40543738
0.26011872 0.09698045 -0.17657061 0.08889858 0.030191157 0.051898822 0.13044542 0.0011019778
-0.17757188 0.23278749 -0.29803264 -0.039976537 -0.10932834 -0.5775905 0.45589167 -0.06426898
-0.11562103 0.027658459 0.031023677 -0.073031016 0.29561996 -0.057688523 0.1729161 0.08042891
0.54486036 0.032478467 0.118810296 -0.21079855 -0.034912918 -0.0157648 -0.5173293 -0.0821049
0.14204928 -0.041394684 0.07153441 0.10264287 -0.1788279 0.02604453 -0.057917718 0.0985341
0.14283118 -0.38323107 -0.20554641 0.12666978 -0.73355144 -0.116227165 0.9470047 -0.17610668
0.007832656 -0.2364777 0.0050310753 -0.06783773 0.3377362 0.21198678 0.27761346 -0.17952521
-0.038648184 0.08970612 -0.14724742 -0.24953625 0.041003674 0.4658907 -0.13554557 0.14535455
-0.08695241 -0.22925793 -0.1595523 0.13217506 0.018729273 0.16212162 -0.4374671 0.14703974
-0.21919951 0.058457773 0.19541366 -0.11603523 0.06795515 0.049897783 0.089472316 -0.13137154
-0.013254277 0.05443313 0.05630892 -0.045363836 -0.25798753 -0.1263716 -0.0123152975 -0.06686726
0.031736784 -0.05823197 0.3072276 0.025100203 0.61696154 -0.090173036 -0.10401499 -0.08759431
0.188855 -0.76453114 -0.1194879 0.3587635 0.1946242 0.23561566 0.35976225 -0.12883523
0.006284771 -0.06153014 -0.06645917 0.08906533 -0.881833 -0.6755637 0.6478701 0.036917213
-0.4225391 0.29671845 -0.40144905 0.44332317 -0.18532091 0.020550326 0.17944713 -0.043289613
0.07545556 -0.08498113 0.44957232 0.12217151 -0.09765754 -1.0036747 -0.05480056 -0.40670115
-0.26484582 -0.07682144 0.16759676 -0.08542681 -0.032906573 -0.05659253 -0.15447918 0.004971091
0.18521658 -0.22006525 0.32728678 0.04757103 0.08925597 0.58392763 -0.45551592 0.06443675
0.13247307 -0.03585514 -0.022641646 0.084106006 -0.2914608 0.04341719 -0.1595783 -0.08707468
-0.54331946 -0.043171752 -0.11115515 0.23929489 0.029305847 0.025230346 0.52974105 0.08271534
-0.1305788 0.0513958 -0.07660942 -0.12203099 0.17776673 -0.020137977 0.07086089 -0.094896376
-0.115625985 0.39269248 0.19465345 -0.13395666 0.7232763 0.13993254 -0.95025855 0.17007662
-0.0075362595 0.24683057 -0.010419426 0.07249009 -0.3351796 -0.22243328 -0.29395577 0.17059463
0.02823482 -0.095900655 0.1371157 0.2488755 -0.044519767 -0.4621536 0.1325921 -0.14459038
0.08138619 0.22173439 0.15880789 -0.12202823 -0.033975665 -0.1437493 0.43534088 -0.1504122
0.21664764 -0.03353833 -0.20743395 0.13745236 -0.06437866 -0.023161361 -0.08970545 0.1383382
0.005818208 -0.056790378 -0.04012927 0.060117 0.25443465 0.12334917 0.002991981 0.04990145
-0.031547815 0.065341204 -0.30176818 -0.027778719 -0.6063237 0.09406378 0.12314034 0.091508605
-0.19937705 0.7543751 0.104276985 -0.37457237 -0.18821588 -0.26146057 -0.35490808 0.1421516
-0.022784162 0.081445776 0.0681859 -0.08080801 0.8677497 0.67341596 -0.63720655 -0.054183956
0.44414395 -0.29458418 0.40765208 -0.43826237 0.18059798 -0.011325883 -0.18983029 0.06264693

action_model._discrete_distribution.branches.1.bias f4 [2]
00000000: 9892 513e 9892 51be
0.20466077 -0.20466077

action_model._discrete_distribution.branches.2.weight f4 [2, 128]
00000000: 334e 213e 669a ad3d e4a4 ba3e 934a 3abd
00000010: 4d5d 7e3e e458 b83e dd4d 95be 41d8 c8bd
00000020: 7b69 5fbe ce99 9abe 079d 4ebe c743 a2bd
00000030: 796e 413c bb18 9dbc 080f 39bc 6b21 19bd
00000040: a3f0 3abe 12e5 50be f731 5a3d d7bd 1c3e
00000050: a5a6 9bbe 0c60 32bf 56e6 893e c7c0 8a3d
00000060: dc4e 063f b1f2 163e 1324 463c 13cf e53d
00000070: aabf df3d 6fed 86be f689 243d 1e0c a1be
00000080: a422 1b3f 13fd 1c3e b08c 8e3d 386a 953f
00000090: 6dc7 06bc 177f 013e 7b5a 64be 08ad 8f3d
000000a0: 6e2e b53d a3f6 b83a 488c 5e3e 8d27 193e
000000b0: 6f92 063f c524 f8ba a09e 86bd 62c4 943c
000000c0: 0b09 073e b014 913d 8aa5 8cbd 9cad 983d
000000d0: 607f 54be cd59 ab3d 4ba4 ccbd ceca c8bd
000000e0: 64cc 403e 31a2 af3e 17d4 dfbd 37ac e13e
000000f0: 5d3b e3bd 1890 b4bd 6c88 013e 18e0 b53e
00000100: d6fb d9bd 39af d23d f869 de3e 5b05 13be
00000110: 905a 523f 2805 d6bd 2cea 743d 911b 253e
00000120: e853 5a3e 24f2 e3bd 5ad4 55bb bd5f 3f3f
00000130: dbbc 723e 7b82 d63e 48e3 383e 52f8 3bbe
00000140: f0a8 10be 9e9b ea3e 2f1a 2c3e cc3e 48bd
00000150: ecf2 a9bc d261 b63e 3bc7 e43d 79d9 3e3f
00000160: a70d 853e 9de6 e4bd 0f17 e83c ede8 3bbe
00000170: 810c cebe c482 1c3f 3137 9bbc f94a 11bf
00000180: cab9 af3e 54dc 853d 9321 5c3f 3f5f 753e
00000190: 3829 a0be b086 0cbc b422 40be d1ab 67bd
000001a0: cda2 9f3e b9ff 63bf 0786 67bd 489b 1d3d
000001b0: be65 1cbc 3326 5b3f 4494 d0bd ad84 f73d
000001c0: b5fa 513d c25d 4d3d 99d1 003e f8b4 fbbc
000001d0: b60f 2ebf c1d5 afbe c581 82bc 72e8 c2bd
000001e0: 7f36 88be d87a f2bd b27f 72bd 48bf 433e
000001f0: a896 ab3e 5595 8b3d 64d1 143e 3f88 4dbd
00000200: 1509 40be 5c78 afbd 1394 babe 9b7a 8e3d
00000210: d5a4 7fbe d570 bdbe 0d3a 953e fab2 d53d
00000220: 0c5e 683e d6d8 993e 0ca6 493e 41b0 9b3d
00000230: fdda 85bc c95c 4b3c 3da9 0bbc f161 0b3d
00000240: 96a6 2d3e c8ca 453e 38ee 14bd 6edf 02be
00000250: a6a6 9a3e 1c77 303f 375c 80be b406 8dbd
00000260: adaf 07bf 0355 0ebe 3588 993c ab5d e1bd
00000270: f147 e4bd 969a 863e 77c2 12bd 8a17 a73e
00000280: 0500 17bf 32c0 23be 42ab 81bd a84f 94bf
00000290: e639 cd3c 2a56 f6bd 7523 643e 478d a2bd
000002a0: 70f2 c2bd 1d08 87bb bff6 70be 6e9b 13be
000002b0: fdd4 03bf 5654 023b 402f 553d 5f98 92bc
000002c0: 70bf 0cbe 6e55 60bd aaa2 623d 8926 87bd
000002d0: a89b 523e 1e12 b6bd 6415 c63d a025 e43d
000002e0: 0657 43be 2b2c b5be 5741 f23d 6b81 e3be
000002f0: 1338 f83d e839 a33d a719 d8bd 48a1 b7be
00000300: ae3d f43d aa8e e3bd f4be e8be 38ae fc3d
00000310: 6dbd 54bf 389a cd3d d567 35bd 2563 2dbe
00000320: 3732 6abe c0bc c93d e850 0dbc 68c2 3cbf
00000330: d445 77be 184a dfbe ef04 3abe 722c 333e
00000340: a553 033e 72c0 e2be 292d 1fbe b962 543d
00000350: 0090 0f3d cf35 bbbe 2790 d2bd fc45 41bf
00000360: fd61 8abe 9ab0 013e 40cd fbbc c8b6 3c3e
00000370: 2421 d33e ed44 1bbf be5e 013d 1eb3 103f
00000380: b646 b2be d006 9fbd c7b4 5ebf 6ae4 68be
00000390: 66cf a93e 268b 133d f29c 3e3e 87c4 393d
000003a0: b2a2 99be 139a 6a3f 6bcc 873d cf83 f6bc
000003b0: cca1 223b cd02 5abf 9238 023e b4cb 0fbe
000003c0: 01d3 65bd 3139 2ebd ef42 f4bd 2f77 213d
000003d0: 77be 2e3f 271c ad3e c3ac bc3c f923 ca3d
000003e0: 8e25 863e 8694 d13d a8bc 8d3d 5544 59be
000003f0: 6f98 a1be 7e2f 4bbd 1a36 0dbe 2468 1f3d
0.15752487 0.08476715 0.36453927 -0.045481276 0.24840279 0.36005318 -0.29160967 -0.09806872
-0.21817581 -0.3019547 -0.20177089 -0.07923084 0.011806124 -0.019176831 -0.011295088 -0.037385385
-0.18255858 -0.20399883 0.053270306 0.15306793 -0.30400577 -0.69677806 0.26933545 0.067750506
0.5246408 0.14741017 0.012093562 0.11221137 0.10925229 -0.26353022 0.040170632 -0.31454557
0.6059973 0.15330915 0.06960428 1.167304 -0.008226258 0.12646137 -0.2230014 0.07015425
0.088467464 0.0014111589 0.217332 0.14956494 0.5256719 -0.0018931857 -0.06573224 0.018160049
0.13187043 0.07084024 -0.068675116 0.07454988 -0.20751715 0.083667375 -0.09992274 -0.09804307
0.18827969 0.3430343 -0.10929125 0.44076702 -0.11095307 -0.08816546 0.12649697 0.35522532
-0.10643737 0.10287327 0.43440223 -0.14357512 0.8216944 -0.10450202 0.059793636 0.16123797
0.2132107 -0.11130169 -0.0032627792 0.7475546 0.23704855 0.41896424 0.18055451 -0.18356445
-0.14126945 0.45821851 0.16806863 -0.048888013 -0.020745717 0.35621506 0.11170813 0.74550587
0.25986978 -0.111767985 0.028331308 -0.18350573 -0.40243915 0.6113703 -0.018947216 -0.56755024
0.34321433 0.06536165 0.8598873 0.23962115 -0.31281447 -0.008577034 -0.18763238 -0.05656034
0.31178895 -0.89062077 -0.056524303 0.038478166 -0.009545742 0.8560516 -0.101845294 0.12085853
0.051264483 0.050138243 0.12579955 -0.030725941 -0.67992723 -0.3434277 -0.01593102 -0.09516992
-0.26604077 -0.11839837 -0.05920381 0.19115937 0.3351338 0.06815592 0.14533001 -0.050178763
-0.18753465 -0.085678786 -0.36441097 0.06956979 -0.24965222 -0.37000147 0.29145852 0.10434528
0.22692126 0.30048245 0.19692248 0.07601977 -0.016339773 0.012412258 -0.008524236 0.03402895
0.16958079 0.19315636 -0.036359996 -0.12780544 0.30205268 0.68931746 -0.25070354 -0.06886044
-0.53002435 -0.13899617 0.018741706 -0.11004194 -0.11146534 0.26289815 -0.035829987 0.32635146
-0.58984405 -0.15991285 -0.06331493 -1.1586809 0.025052022 -0.12028153 0.22279151 -0.07937103
-0.095188975 -0.00412084 -0.23531626 -0.1441476 -0.5149687 0.0019886694 0.052047014 -0.017894922
-0.13744903 -0.054768972 0.05533091 -0.06599147 0.2056719 -0.08890174 0.09672049 0.11139989
-0.19076166 -0.3538526 0.11828869 -0.44434676 0.1212007 0.07970029 -0.10551768 -0.35865235
0.11925827 -0.111111954 -0.45458186 0.12337917 -0.8310154 0.100391805 -0.044288475 -0.16932352
-0.22870718 0.09850454 -0.008625247 -0.7373414 -0.24147731 -0.43611217 -0.18165945 0.17497423
0.12824877 -0.4428745 -0.15544571 0.05185196 0.03504944 -0.3656449 -0.10281401 -0.7549741
-0.27027884 0.12665024 -0.03073752 0.184291 0.41236222 -0.6065205 0.031584494 0.5652331
-0.34819573 -0.07764971 -0.86994594 -0.22743383 0.33166045 0.036021374 0.18614557 0.04535344
-0.3000694 0.9164135 0.066307865 -0.030092148 0.0024815677 -0.85160524 0.12716892 -0.1404255
-0.056109432 -0.04253501 -0.11926829 0.039420303 0.68259376 0.3381054 0.023031598 0.098701425
0.26200527 0.10233407 0.06920749 -0.21217473 -0.3156161 -0.04960584 -0.1379017 0.038917676

action_model._discrete_distribution.branches.2.bias f4 [2]
00000000: cc22 4e3e c222 4ebe
0.20130461 -0.20130447

action_model._discrete_distribution.branches.3.weight f4 [2, 128]
00000000: 79b3 dbbe 84ab c03e 88a1 003d 9471 2e3e
00000010: 40f7 af3c e8b5 8d3d a325 2dbf 598a 1bbf
00000020: fe22 81be d6d4 98be bf31 483e 2c69 993e
00000030: 0797 a7bd 6d61 a9be 35c5 c83d 6a96 03be
00000040: 16e3 d9bd ec01 39bf 377f 8dbc fe8e 4b3b
00000050: d400 1ebe 81f0 4abe 422f d0bb 6394 98bd
00000060: b9e7 c53e 8888 583d 4e91 b33e 6098 c23b
00000070: 9b53 45be 8e38 2c3f 8948 1abd 4ca8 12bf
00000080: 2a73 61be f610 23be a580 d9be 342d 513d
00000090: a17b 66bc a6bb a7bc 1d9a 453e 9298 713c
000000a0: d6ad 13bf a699 13be 15b9 693d 6929 af3c
000000b0: 1394 973e 2a51 0e3d 7586 0f3f 2958 46bd
000000c0: c72f a43c f01c fdbe c7a2 0e3d 87d2 e1bc
000000d0: b4eb 90be 5caa 69be de71 e43c c514 dc3d
000000e0: db5a 15bb 05a5 ab3f ba87 9fbd 3347 33be
000000f0: fab7 5b3c 57f9 c4be 67a9 993d 5a01 4bbe
00000100: a8b3 0ebd 87db 80be 77a0 393e fdd5 d6be
00000110: fdc0 74be 4a8e 75bd 2901 433d 63b4 8d3e
00000120: e149 623b e3b1 8c3e ff1a 0e3d 21af afbe
00000130: 3c28 5d3c d21a 2d3d 15ce cebe 7df0 d23e
00000140: 68f5 2fbd 5c8e d4be e33c 1bbe 9d45 2b3d
00000150: 7736 7f3e 2809 3ebe 2bc1 973e 11af 003e
00000160: 5a87 81be 9850 053e 081e f6bd 5f01 f3bc
00000170: e768 2a3f 3896 95be aa94 f83b 4870 da3e
00000180: 837d b83e 5c8d d93c f156 9f3e e835 51be
00000190: 647e c2be 500a 52be 4b3e 88be f6dc 05bf
000001a0: 7792 ac3e 69bb e33d 20c1 4d3e b541 553e
000001b0: 81d3 0e3c 7843 073f 644b 4d3c 74cd b13e
000001c0: 982c 643d 97e4 7b3e 0587 bf3c aa0f 1dbe
000001d0: 1a68 22be 4d00 e4be 85e2 953e d26f bebe
000001e0: 0c34 88bd 51fa dd3d 3550 afbe d9eb 10be
000001f0: 4619 a0be b93e 9a3e ecc3 893e bca7 88bc
00000200: 91fb db3e 68c8 c5be de07 46bd 10c3 3dbe
00000210: bebd 0fbd 4c5f 48bd c518 2a3f fddc 1b3f
00000220: c259 823e cacb 9a3e 4fa5 38be 321b 9cbe
00000230: 785d b13d fef0 993e ad78 a3bd 0807 063e
00000240: ca5a bf3d 9a1e 353f 3aaf e23c b03b 37bc
00000250: ab7e 023e 7ff8 5d3e a704 683c 9bdd 873d
00000260: 93ec cabe 252f 73bd f89f b2be 5088 9c3b
00000270: f515 203e 2eaf 2bbf 158b 0e3d 6304 163f
00000280: d45d 693e 315f 373e beda dd3e 8f69 79bd
00000290: 7fc0 be3b f605 2d3c e323 3bbe 19d0 5d3c
000002a0: 52e0 113f 4e3f 183e d06d 32bd ba21 cc3a
000002b0: e1d8 92be a180 23bd 342a 08bf ddf4 3e3d
000002c0: 74de 21bc e90e fb3e 8a87 77bd ebe2 173d
000002d0: e09a 8f3e f0fd 6c3e 8dc8 08bd 606e e0bd
000002e0: a8df b4bb b697 abbf f3d5 8e3d 409e 3f3e
000002f0: 2524 fdbc 14a3 c13e 46f2 78bd fc18 3e3e
00000300: 426c d03c bfcb 823e bf0d 43be b508 dd3e
00000310: 6bc9 7a3e 6ea0 753d ab8b 73bd 3f0f 94be
00000320: f4d6 f2ba b8ed 89be 68eb 0dbd 3dab b53e
00000330: 583a dcbc 0529 0cbd caa3 dc3e 2019 d8be
00000340: 40c0 353d 1519 d13e b49f 133e e6c6 05bd
00000350: c32a 6ebe 0646 433e 2ff5 97be 00ca 1cbe
00000360: 4ef4 933e c980 21be 5e2c fa3d 3f3b cf3c
00000370: 68a6 27bf 6e37 9e3e 9283 ddbb dbe8 d4be
00000380: 1a11 bfbe cdb5 b1bc 31d7 9ebe e1bb 6b3e
00000390: 1697 bd3e 6cee 553e df5e 843e f6a3 063f
000003a0: 5aa0 abbe 1f73 e9bd e970 60be abf2 50be
000003b0: ed73 99bb 89eb 08bf e621 f1ba 9db7 b4be
000003c0: d7c1 5abd 5e63 8dbe 095e f9bc 602b fc3d
000003d0: 8a89 2a3e 2839 ee3e ce00 98be 7168 bd3e
000003e0: e033 403d fa29 bbbd 0860 ac3e e374 193e
000003f0: e601 a13e 327b a2be d0a8 95be a8e3 203d
-0.42910364 0.37630856 0.03140405 0.17035514 0.021480203 0.069194615 -0.67635554 -0.60757977
-0.2522201 -0.2984988 0.19550227 0.29963052 -0.08183103 -0.33082142 0.09803239 -0.12850347
-0.10639016 -0.7226856 -0.017272575 0.0031060572 -0.15430003 -0.19818307 -0.00635329 -0.074501775
0.38653353 0.05286458 0.35071796 0.0059385747 -0.19270174 0.67273796 -0.03766683 -0.5728805
-0.22016588 -0.15924439 -0.4248096 0.0510685 -0.014067561 -0.02047522 0.19297071 0.014745848
-0.5768713 -0.14414081 0.057061274 0.02138205 0.2960516 0.034745373 0.5606454 -0.04842392
0.020042313 -0.4943614 0.034823205 -0.027566208 -0.28304827 -0.22818893 0.027886327 0.10746149
-0.002278975 1.3409735 -0.0778956 -0.17507629 0.013410563 -0.3847148 0.07503014 -0.19824734
-0.034839302 -0.25167486 0.18127619 -0.41960135 -0.23901744 -0.05995015 0.04760853 0.27676687
0.0034528899 0.27479467 0.034693714 -0.343133 0.013498362 0.042261906 -0.40391603 0.41199103
-0.042958647 -0.41514862 -0.15159945 0.041814435 0.2492312 -0.1855818 0.29639563 0.12566783
-0.25298578 0.13019025 -0.12017447 -0.02966374 0.6656632 -0.2921617 0.0075860815 0.4266379
0.36033258 0.026556663 0.3112102 -0.2043072 -0.37987053 -0.20511746 -0.26610026 -0.52290285
0.33705494 0.1111973 0.20093203 0.20825846 0.008717419 0.52837324 0.012530182 0.3472706
0.05570659 0.24598919 0.023379812 -0.15338007 -0.15860024 -0.4453148 0.29274383 -0.37194687
-0.06650552 0.1083876 -0.3424088 -0.14152469 -0.31269282 0.3012598 0.2690729 -0.016681544
0.42965367 -0.3862946 -0.048347346 -0.18531442 -0.03509306 -0.048919007 0.66444045 0.60884076
0.25459105 0.30233604 -0.1803181 -0.30489498 0.08660406 0.30066675 -0.079820015 0.1308862
0.093434885 0.7074982 0.027671445 -0.011183664 0.12743632 0.21676825 0.014161265 0.06634065
-0.39633617 -0.059371132 -0.3488767 0.004776992 0.15633376 -0.6706418 0.034800608 0.58600444
0.22789699 0.17907406 0.4333095 -0.060891684 0.005821287 0.010560503 -0.18275408 0.013538384
0.5698291 0.14867899 -0.043561757 0.0015574016 -0.2868109 -0.039917592 -0.53189397 0.04662024
-0.009879697 0.49034813 -0.060431994 0.03708164 0.28047848 0.23143744 -0.033394385 -0.10958552
-0.005519826 -1.3405674 0.06974401 0.18712711 -0.030901024 0.3781973 -0.060777925 0.18564218
0.025442246 0.2554607 -0.19048212 0.43170705 0.24490897 0.05996745 -0.05945937 -0.28917882
-0.0018527196 -0.26939178 -0.03464833 0.35482207 -0.02688329 -0.034218807 0.4309371 -0.4220667
0.044372797 0.4083945 0.1441639 -0.032660387 -0.232585 0.1906968 -0.29679248 -0.15311432
0.28897327 -0.15771784 0.122154936 0.025296805 -0.6548829 0.30901664 -0.006760069 -0.41583905
-0.37317735 -0.021693135 -0.31023553 0.23020889 0.37029332 0.20891732 0.2585363 0.52593935
-0.33520776 -0.11398911 -0.21918072 -0.2040507 -0.004683009 -0.534844 -0.0018396943 -0.35296336
-0.053407516 -0.27614874 -0.030440347 0.123129606 0.1665403 0.46527982 -0.29688114 0.36993745
0.04692447 -0.09138866 0.33667016 0.14985995 0.3144676 -0.31734616 -0.29230356 0.03927961

action_model._discrete_distribution.branches.3.bias f4 [2]
00000000: ca82 823d db82 82bd
0.06372602 -0.06372615
