results/Run3/Hero Knight Behavior/Hero Knight Behavior-499998.onnx (onnx, 78523 bytes, 12 tensors)

network_body.linear_encoder.seq_layers.0.weight f4 [128, 5]
0	0xbf5266a4	-0.8218787
1	0x3e7a61b0	0.24451327
2	0x3e92a130	0.286386
3	0xbf83bf6d	-1.0292794
4	0x3d948b22	0.072531
5	0xbe912453	-0.28348026
6	0xbf602348	-0.87553835
7	0x3f065c91	0.52484995
8	0xbe122e80	-0.14275551
9	0x3e858200	0.26075745
10	0x3e76ae5f	0.24089955
11	0xbe0e57da	-0.139007
12	0xbe301013	-0.17193632
13	0x3a007770	0.000490061
14	0xbd853e5c	-0.06506035
15	0xbf158036	-0.5839876
16	0x3e54d0b9	0.20782746
17	0xbe9e7a99	-0.3095291
18	0xbed65e1c	-0.41868675
19	0xbe9b0b8a	-0.3028224
20	0x3e0bfa31	0.13669659
21	0xbf62ed3c	-0.8864324
22	0xbd1b360a	-0.037893333
23	0x3ea19846	0.31561488
24	0xbeebb6c1	-0.46037868
25	0xbe7fa001	-0.2496338
26	0x3e0f59b3	0.13999061
27	0x3ee6bac5	0.4506437
28	0xbf0e337a	-0.55547297
29	0xbf5b35a7	-0.8562874
30	0xbf2f26fe	-0.6841887
31	0x3e9d906d	0.3077425
32	0xbe6a253f	-0.22865771
33	0xbecfc311	-0.4057851
34	0x3e334e05	0.17510231
35	0x3e51b953	0.20480852
36	0xbdd31e02	-0.10308458
37	0xbf65ccad	-0.89765435
38	0xbf687e4b	-0.9081771
39	0x3f204e6e	0.62619674
40	0xbf2e1ea6	-0.68015516
41	0xbe22634e	-0.15858194
42	0x3ef9040f	0.4863591
43	0xbf08b0f2	-0.53395
44	0x3dc27b51	0.09496177
45	0xbc64e0c7	-0.013969607
46	0xbe452654	-0.19252902
47	0xbe87c779	-0.26519373
48	0xbeb7b1d7	-0.3587787
49	0xbf4b39a5	-0.79384834
50	0x3cf00177	0.029297573
51	0xbf41c8ff	-0.7569732
52	0xbe9439b0	-0.28950262
53	0xbf2b583e	-0.6693152
54	0xbe9798eb	-0.29608855
55	0xbe63ba85	-0.2223912
56	0xbebae7bf	-0.36504933
57	0x3f22d06a	0.63599265
58	0xbf8408dc	-1.0315204
59	0x3ee3fca6	0.44528693
60	0x3f0b3e1d	0.5439165
61	0x3f4541da	0.77053607
62	0xbec4ccce	-0.38437504
63	0x3efdf4cd	0.4960083
64	0x3f445e87	0.7670674
65	0x3e860c6f	0.2618136
66	0x3e551ace	0.20811006
67	0xbf26a869	-0.65100724
68	0xbe1f43a5	-0.15553148
69	0x3d5bea90	0.053690493
70	0xbebad9c9	-0.36494282
71	0x3edf0769	0.4356034
72	0xbf368553	-0.71297187
73	0x3efd1e09	0.49436978
74	0x3c222214	0.00989582
75	0x3ef1ab1e	0.47200865
76	0x3eb87da2	0.3603335
77	0xbd2804f0	-0.041020334
78	0xbe19ee7d	-0.15032382
79	0xbf7b58fc	-0.98182654
80	0xbec71b98	-0.3888824
81	0x3f2243bf	0.6338462
82	0x3c1ab7bb	0.009443219
83	0x3e0ad9b9	0.13559617
84	0x3ea050ef	0.31311747
85	0xbfb34c08	-1.4007578
86	0xbef7a17f	-0.483654
87	0x3dbe9ab2	0.093068495
88	0x3f246341	0.6421395
89	0xbe98e4ac	-0.29861963
90	0xbefe58d7	-0.49677154
91	0xbefaea66	-0.49006957
92	0x3e0db787	0.13839541
93	0x3f1e74a0	0.61896706
94	0x3eed1a3f	0.46309087
95	0xbf20dd71	-0.6283789
96	0xbee66080	-0.449955
97	0x3ed8bf6f	0.42333552
98	0xbe3852e0	-0.18000364
99	0xbe7830d2	-0.24237373
100	0xbc1216a8	-0.0089165345
101	0x3e738800	0.23782349
102	0x3eaf36ed	0.34221593
103	0xbed3ac7b	-0.4134253
104	0xbdbebc36	-0.09313242
105	0xbef1bbcf	-0.472136
106	0xbe118dce	-0.1421425
107	0xbf1a45cb	-0.60262746
108	0xbeee3834	-0.46527255
109	0x3fa6a15c	1.3017993
110	0x3f00e348	0.50346804
111	0xbe722fed	-0.23651095
112	0x3eb1eed9	0.3475254
113	0xbe85ceeb	-0.26134428
114	0xbe669332	-0.22517088
115	0x3f28ac86	0.6588825
116	0x3e213c57	0.15745674
117	0x3cca2ad8	0.024678633
118	0xbefa5cef	-0.48899028
119	0xbdd1d775	-0.10246173
120	0xbf0d3f5d	-0.5517481
121	0xbf3ce782	-0.7379075
122	0x3e6d1e3e	0.23156068
123	0xbee520ad	-0.44751492
124	0x3edcc226	0.43116874
125	0x3e07a3e4	0.13246113
126	0xbe7a349f	-0.24434136
127	0xbee737c0	-0.4515972
128	0xbe9befe2	-0.30456454
129	0x3ec2a526	0.38016623
130	0xbede6b2f	-0.4344115
131	0x3c0a7f27	0.008453167
132	0xbe5d8f45	-0.21636684
133	0x3ed31ec3	0.41234407
134	0x3ea2aaef	0.31771037
135	0x3ee1e1d8	0.44117618
136	0xbade2e3d	-0.0016951036
137	0x3e11ddbf	0.14244746
138	0x3e2ae9a1	0.16690685
139	0xbf000094	-0.5000088
140	0xbf96829b	-1.1758608
141	0xbea6e9b6	-0.32600182
142	0xbe6b6198	-0.22986448
143	0x3dba7906	0.09105115
144	0x3e6c1ae0	0.23057127
145	0x3d4c3861	0.049858455
146	0xbe1196c3	-0.14217667
147	0xbe579d71	-0.21056153
148	0xbd64f70f	-0.055899676
149	0xbe4e2677	-0.2013186
150	0x3f0cf175	0.55055934
151	0x3df1bafe	0.11803244
152	0xbf3e759f	-0.74398226
153	0xbf2a2479	-0.664619
154	0xbf2f34c7	-0.68439907
155	0xbe5bdb4e	-0.21470377
156	0x3f2dfe0e	0.6796578
157	0x3f049ff0	0.51806545
158	0x3deab7e5	0.11460856
159	0xbc302a56	-0.010752281
160	0x3db31af6	0.08745377
161	0xbe9639f0	-0.29341078
162	0xbeea7b20	-0.45797062
163	0x3f2f58f2	0.68495095
164	0xbf6ea35b	-0.9321801
165	0xbe773f0b	-0.24145143
166	0xbec14aab	-0.3775228
167	0x3ea1a61b	0.3157204
168	0x3c1d5593	0.009602922
169	0xbe0b5398	-0.13606107
170	0x3ef67aec	0.48140657
171	0x3ea2b070	0.31775236
172	0xbe845db9	-0.25852755
173	0x3f17c566	0.5928558
174	0x3c83a1fc	0.016068451
175	0xbe48e994	-0.19620353
176	0x3f72fda9	0.94918305
177	0x3e5b1cfb	0.21397774
178	0x3eb211aa	0.34779102
179	0xbf49355e	-0.78597057
180	0xbf13b539	-0.576984
181	0xbecbd6d0	-0.39812326
182	0xbf3efe6d	-0.7460697
183	0xbdcf6723	-0.10127094
184	0xbdfc00f4	-0.12304869
185	0x3ea7ad90	0.32749605
186	0xbeac32cc	-0.33632505
187	0xbcacb582	-0.021082643
188	0xbf1910be	-0.5979117
189	0xbe4cfb0b	-0.2001764
190	0xbe93a36a	-0.28835613
191	0x3f029cb3	0.51020354
192	0xbe31e059	-0.17370738
193	0xbc47ef8b	-0.012203108
194	0xbea93684	-0.33049405
195	0x3f0e454c	0.5557449
196	0x3f7afffd	0.9804686
197	0xbf4d1e4e	-0.80124366
198	0x3e59a6b7	0.21255003
199	0x3e7a4501	0.24440385
200	0x3eebbd5f	0.46042916
201	0xbea1bbaf	-0.31588504
202	0x3d70f584	0.058827892
203	0xbf3a5cd7	-0.7279791
204	0xbeda1e0e	-0.42601055
205	0xbf5b7168	-0.8571992
206	0xbbc9ae5c	-0.0061548185
207	0xbf4cb97a	-0.79970515
208	0xbe532b34	-0.2062195
209	0xbf3e60c5	-0.7436641
210	0xbf0e0c25	-0.5548728
211	0xbe35a88c	-0.17740077
212	0xbea088f7	-0.31354496
213	0xbe5e6de9	-0.21721615
214	0xbee4ae8b	-0.44664416
215	0xbf4c7b84	-0.7987597
216	0xbe249f1b	-0.16076319
217	0x3eaf1f29	0.3420346
218	0xbf006cf8	-0.50166273
219	0x3f2a92d8	0.66630316
220	0x3e37949a	0.17927781
221	0xbe87a6a6	-0.2649433
222	0x3eba5f07	0.36400625
223	0x3f1b61ce	0.60696113
224	0x3ecdd3ad	0.40200558
225	0xbcc765df	-0.024340568
226	0x3ee34faa	0.44396716
227	0x3d66c353	0.05633862
228	0xbeed97c4	-0.4640485
229	0x3e7f4854	0.24929935
230	0x3f001868	0.5003724
231	0x3ebdcac9	0.37068775
232	0xbe42ea07	-0.19034587
233	0xbd93cf84	-0.07217315
234	0xbe3f07d1	-0.18655325
235	0xbebce21e	-0.36891264
236	0x3e1e45dd	0.15456338
237	0xbddf348f	-0.10898697
238	0x3e2bcf25	0.16778238
239	0xbf070b54	-0.5275166
240	0xbe061efa	-0.13097754
241	0x3e986942	0.29767805
242	0x3f6f2df2	0.9342948
243	0xbf389c2c	-0.721133
244	0xbf1a1241	-0.60184103
245	0x3e8251cf	0.2545304
246	0x3f2ecf66	0.68285215
247	0x3eedeb59	0.4646862
248	0xbd022795	-0.03177603
249	0x3ecae5a5	0.3962833
250	0xbee15ec8	-0.44017625
251	0x3e2cc1fe	0.16870877
252	0x3e9d41f8	0.30714393
253	0x3ed95b86	0.4245264
254	0xbe851cf9	-0.25998667
255	0xbdcfeb0d	-0.10152254

network_body.linear_encoder.seq_layers.0.bias f4 [128]
0	0x3b1b4a20	0.0023695305
1	0x3bba7fe9	0.0056915176
2	0xbb4d8f51	-0.003136594
3	0x3bfac40e	0.007652766
4	0xbbf4c04e	-0.0074692136
5	0x3c908404	0.017641075
6	0xba134af6	-0.0005618775
7	0xba8a02be	-0.0010529382
8	0x38220cd9	3.8635775e-05
9	0x3c425e4b	0.0118633015
10	0x3b978ad9	0.004624706
11	0xbbe3d48e	-0.0069528287
12	0x3a3c165a	0.00071749615
13	0x3b9904c3	0.004669757
14	0xba253141	-0.000630159
15	0x3c9d469e	0.019198712
16	0xbbb7daa6	-0.0056107817
17	0x3c789abb	0.015173609
18	0xbc3bd3bc	-0.011464056
19	0x3c4d8438	0.01254373
20	0xbca1c8a6	-0.019748997
21	0xbb87f411	-0.004148968
22	0xbb96124b	-0.0045798174
23	0xbb9bfc94	-0.0047603343
24	0xbc1b4a2c	-0.009478133
25	0xba24d4b1	-0.0006287797
26	0xb9a48027	-0.00031375999
27	0x3c366121	0.011131556
28	0xbb403819	-0.0029330312
29	0xb96468cb	-0.00021782813
30	0x3bc7baa9	0.0060952497
31	0xbc3d2cb9	-0.011546307
32	0xbbd781d0	-0.006576754
33	0xbcc2f2c0	-0.023797393
34	0x3c6aae43	0.014323774
35	0x3c2dbb17	0.010603688
36	0x3c09b9c6	0.008406108
37	0xbc0510a7	-0.008121646
38	0x3a88ce6c	0.0010437495
39	0xbae85c8c	-0.0017727776
40	0x3bbe68f2	0.0058108503
41	0x3c1e94fd	0.009679076
42	0x3acffa01	0.0015867354
43	0x3adc4c08	0.0016807327
44	0xbad54ece	-0.0016274096
45	0xbb2d642d	-0.0026457414
46	0xb8172d2d	-3.604328e-05
47	0xbb558175	-0.0032578383
48	0xbbd0c173	-0.006370717
49	0x3ac3183c	0.0014884542
50	0xbc25f4bc	-0.01012915
51	0xbbba0afd	-0.0056775794
52	0xbb47dcf6	-0.0030496693
53	0x3a0a2065	0.00052691094
54	0x3b2b6b78	0.0026156586
55	0xbc3f3ada	-0.011671746
56	0xbb44ca2e	-0.0030027735
57	0x3b9635d1	0.004584052
58	0x3afabba2	0.0019129405
59	0xbbbac73f	-0.0057000215
60	0xba96e768	-0.0011513056
61	0xb9d343ff	-0.00040295717
62	0xbb5e6990	-0.0033937432
63	0x3aacad21	0.0013174155
64	0x3c32d921	0.010916025
65	0x3be00da3	0.006837563
66	0xbba6daf3	-0.0050920187
67	0xbb55b177	-0.0032606998
68	0xba2beda0	-0.0006558541
69	0xbc0bea29	-0.008539715
70	0xbc98e115	-0.018662015
71	0x3bc073ba	0.0058731707
72	0x3ba143e8	0.004921425
73	0xbb497c47	-0.003074424
74	0xbb9f5e59	-0.004863542
75	0xbb13e49e	-0.0022566686
76	0xbb0633df	-0.0020477695
77	0x3ca3b4ce	0.019983675
78	0xbc0857ba	-0.008321697
79	0xba3149a3	-0.0006762987
80	0xbb66ad75	-0.0035198603
81	0x3c382bc4	0.011240903
82	0x3c03cbd2	0.0080442
83	0xbb2ad3d2	-0.0026066196
84	0xbbb0927f	-0.0053885574
85	0xbb3fc874	-0.0029263766
86	0xba06d56e	-0.0005143498
87	0x39ad3923	0.00033039702
88	0x3b8b9441	0.0042596166
89	0x3c8658c2	0.016399745
90	0x39bb967e	0.00035779545
91	0x3bdf4718	0.006813895
92	0xbb9cce3d	-0.0047853277
93	0xb85867c1	-5.159504e-05
94	0x39a03bc4	0.00030562107
95	0x3b180fb4	0.002320272
96	0x39725128	0.00023109152
97	0xb9fc75d6	-0.0004815298
98	0xbbf97df8	-0.0076138936
99	0x3bc6d065	0.006067323
100	0xbbf1eaa0	-0.007382706
101	0x3bb2788c	0.005446499
102	0xbae5ef2c	-0.0017542592
103	0x3b0d3324	0.0021545375
104	0xba6bc538	-0.00089939265
105	0x3ab30606	0.0013658411
106	0x3c00ebfc	0.007868763
107	0xb9b018c3	-0.00033587785
108	0xbc1ca07f	-0.00955975
109	0x3bd827fe	0.0065965643
110	0xbc6be0cf	-0.01439686
111	0xbc05c56a	-0.008164743
112	0x3b28daab	0.0025765102
113	0xbc378f08	-0.011203535
114	0xbc11c538	-0.008897118
115	0xbaae1fa2	-0.0013284574
116	0x3aee7e76	0.0018195647
117	0x3b06fb68	0.0020596627
118	0xb93c11c8	-0.00017935701
119	0xbc2bdc2f	-0.010489508
120	0x3b961066	0.0045795916
121	0x3b5bbcc6	0.0033529266
122	0xbc1452d3	-0.00905295
123	0x3b3f3480	0.002917558
124	0xbc1f6745	-0.009729211
125	0x3ba84a5d	0.005135818
126	0x3d0e62d1	0.034762207
127	0x3a5d929e	0.00084523286

network_body.linear_encoder.seq_layers.2.weight f4 [128, 128]
0	0x3d135995	0.035974104
1	0xbcfc9274	-0.030831553
2	0xbd89d73a	-0.06730504
3	0xbdafe91e	-0.085893854
4	0xbd2dece6	-0.042462252
5	0x3dc46b8d	0.09590826
6	0xbd804f01	-0.06265069
7	0x3e1107b2	0.14163092
8	0x3e57bcde	0.21068141
9	0x3d8f7610	0.070049405
10	0xbc9059d3	-0.017620957
11	0x3d807794	0.06272808
12	0xbbf8ea90	-0.0075963214
13	0x3d294e4e	0.041334443
14	0xbe4e1fb2	-0.20129278
15	0x3d21acdb	0.03947149
16	0x3dbab72f	0.09116971
17	0x3d3da060	0.046295524
18	0x3d895c2d	0.06707034
19	0xbc819dec	-0.015822373
20	0xbe062e10	-0.13103509
21	0xbd16dc9f	-0.036831494
22	0x3d4a4e19	0.049390886
23	0xbe03e734	-0.12881166
24	0xbe35eda7	-0.17766438
25	0x3ca670b3	0.020317411
26	0xbb9ad6ff	-0.0047253366
27	0xb8bad1c7	-8.908245e-05
28	0xbd5bbd5a	-0.053647377
29	0xbca551d0	-0.020180613
30	0x3d9428d1	0.072343476
31	0xbc135c5d	-0.008994189
32	0xbd0b5c7e	-0.034023754
33	0xbd8528bf	-0.06501912
34	0x3d5f9756	0.054587685
35	0x3d16c0d4	0.03680499
36	0x3d83417f	0.06408977
37	0xbd72b2ea	-0.059252657
38	0x3de15e78	0.110043466
39	0x3da26379	0.07929129
40	0x3e092579	0.13393201
41	0x3d18cc0f	0.03730398
42	0xbd7b94f9	-0.06142137
43	0x3db1a3bf	0.0867381
44	0xbe05f382	-0.13081172
45	0xbdb81d59	-0.089899726
46	0xbe6b9963	-0.23007731
47	0x3df95abd	0.1217551
48	0xbe01aeb0	-0.12664294
49	0xbd24b9ea	-0.040216364
50	0x3d0eb025	0.034835953
51	0xbda23fe5	-0.07922343
52	0xbda7e8f8	-0.08198732
53	0x3d3e35d0	0.04643804
54	0xbdc79f36	-0.09747164
55	0xbd18acb2	-0.03727407
56	0xbc5d5d90	-0.013511077
57	0xbd1ecd77	-0.038770165
58	0xbc4d2804	-0.0125217475
59	0xbe0a7eec	-0.1352498
60	0x3cf6ea63	0.030141061
61	0x3e022c13	0.12712125
62	0xbc00a951	-0.007852868
63	0x3b367370	0.0027839802
64	0x3d835f7a	0.06414695
65	0x3c7c03a8	0.015381731
66	0xbdc88861	-0.09791637
67	0x3e02f30d	0.12788029
68	0xbd864f49	-0.06558091
69	0x3d90d9d7	0.070728
70	0x3d20e993	0.039285254
71	0x3cb0b2a8	0.021569565
72	0x3d9c91c7	0.07644992
73	0xbdbf7c28	-0.09349853
74	0x3e05d598	0.13069761
75	0xbca72317	-0.020402474
76	0x3c7e5e13	0.015525359
77	0x3de9bb15	0.11412636
78	0xbb85ab4a	-0.004079257
79	0x3cbb191d	0.022839123
80	0xbd4c9a50	-0.04995185
81	0xb927a94c	-0.00015989429
82	0x3e2e7805	0.17037971
83	0xbcc5686f	-0.02409765
84	0xbd01db48	-0.031703264
85	0xbe10e21c	-0.14148754
86	0x3ccc1a4c	0.024914883
87	0xbda70a17	-0.08156221
88	0x3d92982f	0.07157933
89	0x3d8a6c23	0.06758907
90	0x3d96aa2b	0.07356676
91	0xbd3708eb	-0.04468624
92	0xbcff9590	-0.031199247
93	0xbdf30ec3	-0.1186805
94	0x3d09d642	0.033651598
95	0xbd05b3e8	-0.032642275
96	0x3e1981dc	0.14990944
97	0x3daa4334	0.08313599
98	0x3d7b8f7c	0.061416134
99	0xbbc04e55	-0.005868713
100	0x3d8248c1	0.06361533
101	0xbcb96459	-0.022630857
102	0xbe0e2c21	-0.13884021
103	0x3cfe501c	0.031044059
104	0xbe37b0d3	-0.17938547
105	0x3d44992f	0.04799765
106	0x3de306ea	0.11085303
107	0x3d574e46	0.05256488
108	0x3d94ba24	0.07262066
109	0x3d8b0d4a	0.06789644
110	0x3d67ec10	0.05662161
111	0xbe19c662	-0.15017083
112	0x3a91d24e	0.0011125298
113	0x3d9f5dca	0.07781561
114	0x3d74179c	0.05959283
115	0xbdc6770b	-0.096906744
116	0x3e374ea0	0.17901087
117	0x3d3db4cd	0.046315003
118	0xbda446ef	-0.08021342
119	0xbca6fc5f	-0.020384012
120	0xbd691d8b	-0.05691294
121	0xbdf5fbd3	-0.12010922
122	0xbdd67bcb	-0.104728304
123	0xbc347b43	-0.011015716
124	0xbe0e8e90	-0.13921571
125	0x3dd01148	0.10159546
126	0xbe4bdf7d	-0.19909473
127	0xbdbe4cd1	-0.09291995
128	0x3c2bbaa1	0.0104815075
129	0xbd776eec	-0.060408518
130	0x3e385caa	0.18004099
131	0xbd73b9e2	-0.059503444
132	0x3d648832	0.05579395
133	0xbbeaac0a	-0.007161622
134	0xbd3e78e9	-0.046502028
135	0xb98a150f	-0.000263371
136	0x3d296f27	0.04136577
137	0xbc745157	-0.014911971
138	0xbcc58dca	-0.024115462
139	0xbc971cbd	-0.01844632
140	0x3d985050	0.074371934
141	0xbb8eb7d0	-0.0043554083
142	0xbda24915	-0.079240955
143	0x3cb5d47f	0.022196053
144	0x3dcc192d	0.099657394
145	0xbdecc07e	-0.115601525
146	0x3e0d5280	0.13801003
147	0x3d6e4d9f	0.058179494
148	0x3d649094	0.055801943
149	0x3d991f3d	0.07476661
150	0xbdc354c6	-0.095376536
151	0xbce8ea93	-0.028432166
152	0x3da5abc0	0.08089399
153	0xbdf76135	-0.12079088
154	0x3e3caa6b	0.18424384
155	0xbd0ebe00	-0.034849167
156	0xbe252acb	-0.16129605
157	0x3e54389d	0.20724721
158	0x3c676947	0.014124221
159	0xbb004fb3	-0.0019578754
160	0x3d6d7384	0.057971492
161	0xbd0ebd61	-0.034848575
162	0x3dd81153	0.10550179
163	0xbdc27275	-0.09494487
164	0x3c1aade5	0.009440874
165	0xbdc5119a	-0.09622498
166	0xbd49aa87	-0.049234893
167	0xbc6fac35	-0.01462846
168	0x3e1d3938	0.15353858
169	0x3e3cc316	0.18433794
170	0xbd8e4187	-0.06946092
171	0xbcf8394a	-0.030300755
172	0x3d3687ea	0.04456321
173	0x3cdba667	0.026812745
174	0x3e91a94b	0.28449473
175	0xbd048ec3	-0.03236271
176	0xbd24e243	-0.040254842
177	0x3df3f141	0.1191125
178	0x3d77d877	0.06050917
179	0x3d069aac	0.03286235
180	0x3d027480	0.031849384
181	0xbcfd4496	-0.030916493
182	0x3e00b721	0.12569858
183	0x3da2bd09	0.07946212
184	0xbd250364	-0.040286437
185	0xbe01843e	-0.12648103
186	0x3c3ca9e2	0.011515113
187	0x3ce64f9a	0.028114129
188	0xbe2cef11	-0.16888072
189	0x3e6ab843	0.22921853
190	0x3e53256b	0.20619743
191	0xbe268730	-0.16262507
192	0x3cee281d	0.029071862
193	0xbdb934a8	-0.090432465
194	0xbe383ae7	-0.1799122
195	0xbcf16c4d	-0.029470587
196	0xbd4e3e32	-0.050352283
197	0x3ce9c539	0.028536426
198	0xbcf1dd53	-0.02952448
199	0x3b3fac4d	0.0029246986
200	0x3c09e19b	0.008415605
201	0xbe276492	-0.16346958
202	0x3dd4af2b	0.10384973
203	0x3c8f0d82	0.017462496
204	0xbc987561	-0.018610658
205	0xbe3695f1	-0.17830636
206	0x3cf384a3	0.029726332
207	0x3d6f8af0	0.05848211
208	0x3db6624a	0.08905466
209	0x3d2d5cfc	0.042325005
210	0xbde07f65	-0.109617986
211	0x3d8dcfca	0.06924398
212	0x3d8b1ddd	0.06792805
213	0x3c4f18c7	0.012640185
214	0xbdf521b9	-0.11969323
215	0x3d5b139a	0.05348549
216	0xbd982453	-0.07428803
217	0x3cdd8505	0.027040968
218	0xbd948ff6	-0.07254021
219	0xbdca23ed	-0.098701335
220	0x3d82f02b	0.06393465
221	0x3d292622	0.041296132
222	0x3d5fd17c	0.05464314
223	0xbd8bc6d5	-0.068250336
224	0x3db7a827	0.089676194
225	0xbdf7f184	-0.12106612
226	0xbd9cbd17	-0.076532535
227	0x3aa4a566	0.00125615
228	0x3c7fdfcb	0.015617321
229	0x3cd04792	0.025424752
230	0x3db101c2	0.086429134
231	0x3c162b55	0.009165605
232	0x3db73de3	0.08947351
233	0xbd8a5837	-0.06755107
234	0xbdb028ea	-0.08601554
235	0xbd3bf96a	-0.045892157
236	0xbd82ae5f	-0.06380915
237	0x3dd9d1e1	0.10635734
238	0xbe557f85	-0.20849426
239	0x3c8ad2fd	0.01694631
240	0xbde45164	-0.111483365
241	0x3b422801	0.0029625895
242	0x3d05f893	0.032707762
243	0x3cf937f8	0.030422196
244	0x3daadfab	0.083434425
245	0xbd91ffcb	-0.07128867
246	0x3dea1d0a	0.1143132
247	0x3b3b65ee	0.002859469
248	0x3da73819	0.08164997
249	0xbdb950a8	-0.09048587
250	0x3d8531dc	0.065036505
251	0xbd0d28b4	-0.034462646
252	0xbd9d789b	-0.07689019
253	0x3dcce2a2	0.10004164
254	0xbe87cec6	-0.26524943
255	0xbd592520	-0.05301392

network_body.linear_encoder.seq_layers.2.bias f4 [128]
0	0x3af8ba5b	0.0018976437
1	0xbc17d631	-0.009267376
2	0xbbbdf311	-0.005796798
3	0xbbda5c38	-0.0066638254
4	0xbbcf2a02	-0.0063221464
5	0xbbbfcd77	-0.0058533507
6	0x3adeb485	0.0016991055
7	0xbc3ce486	-0.011529094
8	0xbb99fc22	-0.004699246
9	0xbb30a718	-0.0026955064
10	0xbbfb3129	-0.0076657725
11	0x3a067d67	0.0005130381
12	0xbc5b0343	-0.013367477
13	0xbba8d019	-0.0051517603
14	0xbbe9f40d	-0.007139689
15	0xbbf8de79	-0.00759488
16	0x3b89f3c7	0.0042099687
17	0xbb0f68e7	-0.0021882595
18	0x3b8bcac1	0.0042661135
19	0xb9061f0b	-0.000127908
20	0x3b8cf8f5	0.004302139
21	0xbba7394d	-0.0051032663
22	0xbc5fc4bc	-0.013657745
23	0xbb7d14cf	-0.003861714
24	0x3c08fb0e	0.008360637
25	0xbbba1292	-0.0056784833
26	0xbbe41d99	-0.006961536
27	0x3a3859f8	0.00070324494
28	0xbb1a0c5f	-0.002350591
29	0x3aebab0c	0.0017980053
30	0xbb489d2e	-0.0030611265
31	0xbc052b5c	-0.008128013
32	0xbc010854	-0.007875521
33	0xbc01155a	-0.007878626
34	0x3b598b29	0.0033194518
35	0xbc15ff1f	-0.009155064
36	0x3b5995cf	0.0033200865
37	0x3b0e074c	0.002167183
38	0xbb8952f9	-0.0041907993
39	0xba05a80d	-0.0005098589
40	0xbbf409d7	-0.007447462
41	0x3a945a13	0.0011318348
42	0xbac886f7	-0.0015299012
43	0x3b08c9bf	0.0020872203
44	0x3bafd471	0.005365901
45	0x3b1ed675	0.0024236713
46	0xbc370f1b	-0.011173035
47	0x3b8a3d66	0.004218745
48	0xbb8697c9	-0.0041074497
49	0xbb21dd9a	-0.0024698735
50	0x39142bcc	0.00014130695
51	0x3c20b1b7	0.0098079955
52	0x3b455374	0.0030109556
53	0xbcb475f8	-0.022028908
54	0x3a8d684a	0.0010788527
55	0xbbbbd5c5	-0.0057322704
56	0xbc5c221d	-0.013435868
57	0x3aacf4de	0.0013195535
58	0xbb04e3cc	-0.002027738
59	0xbc4e12c3	-0.012577715
60	0xba352917	-0.0006910725
61	0x3ae0701d	0.0017123256
62	0xbaca8e70	-0.0015453827
63	0xbabe9f0f	-0.0014543253
64	0x3befe645	0.0073211514
65	0xbbcff837	-0.006346728
66	0x3bd7abea	0.006581773
67	0x3b883e4a	0.004157816
68	0xbbf3884c	-0.0074320193
69	0xba68c1eb	-0.00088789937
70	0xbba15f7d	-0.004924713
71	0x3c996c27	0.018728329
72	0xba2c85a5	-0.0006581194
73	0x3bfb7717	0.0076741087
74	0x3abb2752	0.0014278686
75	0xbb9c1f30	-0.00476446
76	0xbb16487d	-0.002293139
77	0xbb30b8eb	-0.0026965688
78	0xbb96aada	-0.004598004
79	0x3c201e0d	0.00977279
80	0xba503eec	-0.00079439464
81	0xbbc2a3fe	-0.0059399595
82	0xbbfa2342	-0.0076335976
83	0x3b56e6fe	0.003279149
84	0xbc89a0de	-0.01680034
85	0x3a41d661	0.00073943107
86	0xbb970f0c	-0.004609948
87	0xbae31f33	-0.0017328024
88	0xbb6e3e91	-0.003635321
89	0xbb8b70ff	-0.0042554135
90	0xbb7801fe	-0.0037842984
91	0xbb031081	-0.001999885
92	0xba7ab88e	-0.0009564244
93	0xbb71bf7a	-0.003688781
94	0xbc005fb3	-0.0078353165
95	0x3bbdbbe8	0.0057902224
96	0xbbece87b	-0.0072298623
97	0xbc88739c	-0.01665669
98	0xbb287490	-0.0025704242
99	0xbbf916cc	-0.0076015946
100	0x3c415ffe	0.0118026715
101	0x3aee0000	0.0018157959
102	0xbc320c95	-0.010867258
103	0x3a488b63	0.0007650165
104	0x3abab42a	0.0014244367
105	0xbc17fbc6	-0.009276336
106	0xbbc9af73	-0.0061549484
107	0x3c041559	0.00806173
108	0xb80d42e1	-3.3679305e-05
109	0xbc6cd8c9	-0.0144559825
110	0xbc037fe5	-0.008026098
111	0x3c19dd9a	0.009391213
112	0x3b195c29	0.002340088
113	0x3c059b75	0.00815474
114	0xbb18da72	-0.0023323563
115	0x3c009927	0.007849014
116	0x3b541f1f	0.0032367182
117	0x3bba6d27	0.0056892815
118	0xbb6dfa62	-0.003631257
119	0x3b98188b	0.0046415976
120	0x3bb4f062	0.00552182
121	0x3b10fd0b	0.0022123482
122	0x3b93bf13	0.004508862
123	0x3b1461be	0.0022641267
124	0x3b5f161a	0.0034040273
125	0xb8660d39	-5.4848588e-05
126	0xbc232841	-0.009958328
127	0xbc038306	-0.008026844

action_model._discrete_distribution.branches.0.weight f4 [3, 128]
0	0xbcd06907	-0.025440706
1	0x3c5e1c28	0.013556518
2	0xbb38a497	-0.0028174275
3	0xbc60ad48	-0.0137131885
4	0x3c6dcede	0.014514653
5	0xbab395b9	-0.0013701237
6	0x3b783a53	0.003787656
7	0xbb840ee3	-0.004030095
8	0xbb94c1fd	-0.004539727
9	0xbb0c86ef	-0.0021442731
10	0xbc2fffe6	-0.010742163
11	0xbbfe2d86	-0.0077568917
12	0xbc36ad7b	-0.011149759
13	0xbc6a9277	-0.0143171465
14	0x3b9ce815	0.0047884085
15	0xbc3d367f	-0.011548637
16	0xbc7e0d6c	-0.01550613
17	0xbb6ccbd6	-0.0036132238
18	0x3c9ec936	0.019383054
19	0x3c5032cf	0.012707426
20	0x399b8fa8	0.00029670936
21	0x3aa37bbc	0.0012472789
22	0x39aa681d	0.00032502497
23	0x3a924a64	0.0011161086
24	0x3cd9af64	0.02657289
25	0xbbf74665	-0.0075462335
26	0x3c2b39c1	0.010450781
27	0x3b7d6ab2	0.0038668332
28	0xbb7cbaa2	-0.003856339
29	0x3bcecd56	0.006311099
30	0x3b07324f	0.0020629351
31	0xbb1c07ed	-0.0023808435
32	0x3c5de32e	0.013542933
33	0xbb5d2918	-0.0033746418
34	0x3b382fe4	0.0028104717
35	0x3c17064b	0.009217809
36	0xbb92d2a5	-0.004480677
37	0xbb955e50	-0.004558362
38	0x3c2cc6cb	0.010545443
39	0xbc873eab	-0.016509375
40	0xbc8659bc	-0.01640021
41	0x3c2defb4	0.010616232
42	0xbb4307b1	-0.0029759223
43	0xbbf43986	-0.0074531464
44	0x3b0d6470	0.0021574758
45	0xbb916cc3	-0.0044380142
46	0x3c2c56a1	0.010518701
47	0x3abd7e21	0.0014457145
48	0x3c479520	0.01218155
49	0x3c7a71b1	0.015285895
50	0xbc7ba231	-0.015358494
51	0xbc393b43	-0.011305633
52	0xbba6a1ec	-0.0050852206
53	0x3a289eaf	0.0006432337
54	0x3c8e2950	0.017353684
55	0x3c2dae61	0.010600657
56	0x3ba92dc2	0.0051629255
57	0xbb78fb19	-0.0037991463
58	0x3c7dbc07	0.015486724
59	0xbb9d1402	-0.004793645
60	0x3c520aeb	0.012819986
61	0xbc27380d	-0.010206235
62	0x3baad72c	0.005213639
63	0xbb07ccee	-0.0020721513
64	0xbc97408e	-0.0184634
65	0x3b42d2ab	0.0029727619
66	0xbca86e12	-0.020560298
67	0x3cb81e47	0.022475375
68	0xbb72caba	-0.0037047104
69	0x3993bb8b	0.00028177755
70	0xbc656700	-0.014001608
71	0x3b69f046	0.0035696193
72	0xbca0085c	-0.019535236
73	0x3d09d6a6	0.03365197
74	0xbbfbdf25	-0.007686513
75	0xbb8be7dc	-0.004269583
76	0xbc78e632	-0.015191602
77	0xbc844235	-0.016144851
78	0xbaaff6f4	-0.0013425038
79	0xbbd42b1a	-0.0064748647
80	0xbaff6b80	-0.0019486994
81	0xbbe278fa	-0.006911394
82	0x3bfadca4	0.007655697
83	0xbbb24fe3	-0.005441652
84	0x3c15cf9f	0.009143739
85	0x3c82daeb	0.015973529
86	0x3bc3a770	0.005970888
87	0x3c5aaf38	0.0133474395
88	0xbd157a2f	-0.036493476
89	0xbbdd5d5a	-0.006755513
90	0x3ba4a581	0.0050246124
91	0xbc6541e0	-0.013992757
92	0xbcaaeafb	-0.020864
93	0xbbd65cb5	-0.0065418133
94	0x3c0d78fc	0.008634802
95	0xbbfdd5b3	-0.007746422
96	0xbbe47341	-0.006971747
97	0x3c8781a3	0.016541308
98	0xbb773496	-0.0037720553
99	0xbb329ba4	-0.0027253414
100	0x3a365def	0.0006956746
101	0x3c560edd	0.013065067
102	0xbccf39c5	-0.025296101
103	0x3c5c1a7e	0.013434051
104	0xbc043d7c	-0.0080713
105	0x389cbdc8	7.474009e-05
106	0x3cc4f3c5	0.02404202
107	0x3b960394	0.0045780633
108	0x3b5b4a11	0.0033460895
109	0x3c526b02	0.012842895
110	0xbb724977	-0.0036970058
111	0x3c118744	0.0088823475
112	0xbb7a42fa	-0.0038186894
113	0xbd15fb74	-0.036616758
114	0xbcb29805	-0.021801004
115	0xbca5b85e	-0.020229515
116	0xbbbf1a27	-0.005831975
117	0xbc9285f4	-0.01788614
118	0xbc4d8a1b	-0.012545134
119	0xbb5318a2	-0.0032210727
120	0xbc35ed25	-0.011103903
121	0xbc166bf0	-0.009181008
122	0xbc663c1e	-0.014052419
123	0xbb06497f	-0.0020490584
124	0xba27a842	-0.0006395617
125	0x3c1a2198	0.009407423
126	0xbc72b203	-0.014812949
127	0xbba13889	-0.0049200696
128	0x37bbba98	2.2379027e-05
129	0xbc376456	-0.011193356
130	0xbba8da77	-0.005152996
131	0xb98b69b4	-0.000265909
132	0x3ba48215	0.00502039
133	0xbb026c00	-0.0019900799
134	0xbae84684	-0.0017721211
135	0x3be613bd	0.007021396
136	0xbc12c39a	-0.008957768
137	0x3aa4e723	0.0012581091
138	0xbc1fe131	-0.00975828
139	0xbb471c7f	-0.0030381975
140	0x3c2aa0e2	0.010414334
141	0xbc897bfa	-0.01678275
142	0x3b6fedd1	0.0036610255
143	0x3be60d6f	0.0070206444
144	0x3be172c9	0.0068801385
145	0x3c961b96	0.0183237
146	0xba0cf57d	-0.0005377157
147	0xbb00bf34	-0.0019645216
148	0x3c88731f	0.016656457
149	0x3ba2b36d	0.004965237
150	0xbc2239c9	-0.009901472
151	0xbbdcdef2	-0.0067404443
152	0x3c57fde4	0.013183091
153	0x3a0299e7	0.00049820397
154	0x3c15496f	0.009111746
155	0xbb12504b	-0.002232569
156	0x3babc204	0.0052416343
157	0x3ac76514	0.0015212619
158	0xbbbdbd92	-0.005790421
159	0x3a58daee	0.0008272369
160	0xbc15fec2	-0.009154977
161	0x3bf1e1c4	0.0073816497
162	0x3ba58a5a	0.005051893
163	0xbbbd1e6d	-0.0057714493
164	0x3b050e09	0.0020302555
165	0x3b6cb730	0.003611993
166	0xbaaafdc2	-0.0013045596
167	0xbb35715c	-0.0027685976
168	0x3b67a465	0.003534579
169	0x39861bdf	0.00025579237
170	0x39ede3cc	0.00045373884
171	0xbc189d7f	-0.009314894
172	0x3c7dbc9f	0.015486865
173	0x3b97ffdd	0.0046386556
174	0xbb954ee8	-0.0045565255
175	0xbc3cd076	-0.01152431
176	0x3c2f8152	0.010711985
177	0x3b2bbe66	0.0026206016
178	0xb9d846d2	-0.00041251496
179	0x3cf5f7f1	0.030025454
180	0xbb9860a8	-0.004650194
181	0x3be9a3be	0.0071301153
182	0x3c6dcb1d	0.014513758
183	0x3c4e4523	0.012589726
184	0xbb2017dd	-0.0024428286
185	0x3c137627	0.009000338
186	0x3bac1659	0.0052516875
187	0x3c3733df	0.011181801
188	0x3bf47b5c	0.0074609946
189	0x3c86b497	0.016443534
190	0xb9a0f725	-0.00030701715
191	0x3c393b0c	0.011305582
192	0xbc5538ff	-0.013014077
193	0x3a9db80b	0.0012032998
194	0x3c82d9ad	0.015972937
195	0xbc32ab2c	-0.010905068
196	0xbc8ca300	-0.017167568
197	0xbc5453e9	-0.012959459
198	0x3bfff4ee	0.0078111803
199	0x3cc954b6	0.024576526
200	0xbba1082a	-0.0049143033
201	0xbbdec0f5	-0.0067979046
202	0xbc168f2f	-0.009189411
203	0xbb010a53	-0.0019689992
204	0xbb8cdb11	-0.0042985757
205	0xbacc5194	-0.0015588277
206	0xbbe6bd56	-0.0070416136
207	0xbbe7fc86	-0.0070796637
208	0xbc1cbb1e	-0.009566097
209	0xbc5cdf9f	-0.01348105
210	0x3a8bb0fd	0.0010657605
211	0xbc1bbb04	-0.009505037
212	0xbc31c5bf	-0.010850369
213	0x3bc03223	0.0058653518
214	0xbbaddfee	-0.0053062355
215	0xbb6948e5	-0.0035596427
216	0xbc14091a	-0.009035373
217	0xbc288b8a	-0.010287175
218	0xb9af63f2	-0.00033453066
219	0xbb873ac6	-0.0041268794
220	0xbb4a3128	-0.0030852053
221	0x3c9fc809	0.019504564
222	0xbb9d2a57	-0.004796307
223	0x3c2fc93e	0.010729132
224	0x3b2824e3	0.0025656752
225	0xbb9cc716	-0.004784475
226	0x3b936238	0.0044977926
227	0xbb94966a	-0.0045345323
228	0xbcb1585e	-0.021648582
229	0xbc92d98a	-0.017925996
230	0xbbd90412	-0.0066227997
231	0x3b463b8d	0.0030247897
232	0x3bac36c9	0.0052555543
233	0xbb8514c1	-0.004061312
234	0x39d91120	0.00041402224
235	0xbc2e1e74	-0.010627378
236	0xbc33c074	-0.010971177
237	0xbb02b6bc	-0.0019945344
238	0xbb9e837f	-0.004837453
239	0xbc4b1665	-0.012395476
240	0xbc38554c	-0.011250805
241	0x3bc861d1	0.0061151762
242	0x3c12650c	0.008935224
243	0x3cb0c220	0.021576941
244	0x3ae8ffbe	0.0017776412
245	0x3b9f8292	0.00486786
246	0xbb5a8a09	-0.0033346436
247	0x3b26adaa	0.0025433102
248	0xbcb675ee	-0.02227303
249	0x3caa7b42	0.020810727
250	0x3cc85c3d	0.024458045
251	0xbc1d54a8	-0.009602703
252	0xbc261394	-0.010136504
253	0x3ca4ae8f	0.020102767
254	0xbcb8fc71	-0.022581311
255	0xbb4c1cc7	-0.0031145082

action_model._discrete_distribution.branches.0.bias f4 [3]
0	0xbadfe19b	-0.0017080785
1	0x3b67265f	0.0035270674
2	0xbb15479d	-0.002277828

action_model._discrete_distribution.branches.1.weight f4 [2, 128]
0	0xbc682a26	-0.014170205
1	0xbc35d206	-0.011097437
2	0xbc1c1fb5	-0.009529044
3	0xbc51ad62	-0.012797685
4	0x3b3e07f7	0.0028996447
5	0xbbc8f79f	-0.0061330344
6	0xbc13af06	-0.009013897
7	0xbbf45b2e	-0.0074571585
8	0xbc1ee8af	-0.009699031
9	0x3c6cd332	0.01445465
10	0xbc8d2ab6	-0.01723228
11	0xb9ac93e6	-0.0003291659
12	0x3c632808	0.013864525
13	0xbb1c264d	-0.002382654
14	0xba8f1435	-0.0010916056
15	0xbb77d4cb	-0.0037816043
16	0xbc24c747	-0.010057277
17	0x3bcdb197	0.006277274
18	0xbc22c235	-0.009933998
19	0xbb2fc4f9	-0.0026820286
20	0xbcc5a291	-0.02412537
21	0xbc1f27d1	-0.009714083
22	0xbca24758	-0.01980941
23	0xbbc70c49	-0.0060744626
24	0x3c47823e	0.012177048
25	0xbb2113ae	-0.002457838
26	0x3bbf0232	0.005829119
27	0x3c1928b3	0.009348082
28	0x3cbb30c9	0.022850411
29	0xbc62c499	-0.013840818
30	0x3b03ce07	0.0020111816
31	0x3c120617	0.008912585
32	0x3bc3e02c	0.005977651
33	0x3c6e6b44	0.014551941
34	0xbc91f53e	-0.017817136
35	0x3c8029be	0.015644904
36	0xbc1d6b51	-0.009608106
37	0x3a5c1326	0.00083951873
38	0xbb60a7a2	-0.0034279604
39	0x3bb26ca2	0.005445079
40	0x3c06f014	0.00823595
41	0x3bd30ebf	0.006440967
42	0xbae7474b	-0.0017645148
43	0x3c28d330	0.010304257
44	0x3bcf8b66	0.0063337563
45	0x3cc98245	0.02459825
46	0xbb7c8807	-0.0038533227
47	0x3cae6b71	0.021291466
48	0x3bd1ed78	0.0064064823
49	0xbb0bae9e	-0.0021313797
50	0x3c667d22	0.01406792
51	0x38b15bd2	8.4571206e-05
52	0xbb447301	-0.0029975774
53	0xbb91981d	-0.004443182
54	0x3c7fb9c5	0.015608256
55	0x3ac5e6be	0.0015098674
56	0xbbd19a61	-0.006396577
57	0xba5d19b0	-0.00084343087
58	0xbc2d9542	-0.010594668
59	0xbc405649	-0.011739322
60	0xbb273b1a	-0.0025517405
61	0xbc010cd8	-0.007876597
62	0xbc83137e	-0.016000506
63	0x3bdcb0da	0.0067349495
64	0xbcc422b5	-0.02394233
65	0x3b81a776	0.0039567305
66	0xbc3b9d93	-0.011451143
67	0x3cb9801f	0.0226441
68	0x3b68356d	0.0035432235
69	0xbc3a0b00	-0.011355162
70	0x3b0cc54a	0.0021479898
71	0xbcc74cf5	-0.024328688
72	0xbc34214c	-0.010994267
73	0xbbb9241b	-0.005650056
74	0xbbf007ce	-0.007325149
75	0x3bc64c18	0.0060515516
76	0x3cb90868	0.022587016
77	0x3c8098be	0.015697833
78	0x3c01f297	0.007931373
79	0xbc2a58fc	-0.010397192
80	0x3b093f97	0.0020942444
81	0xbb40a697	-0.002939617
82	0xbbc122c6	-0.005894038
83	0xbc9e27b0	-0.019306034
84	0x3bc348a4	0.005959587
85	0xbc689801	-0.014196397
86	0xbcb7a15c	-0.02241581
87	0x3aaa4330	0.0012989994
88	0x3b9cc9b4	0.004784787
89	0x3c189b21	0.009314329
90	0x3c3c10c9	0.011478611
91	0xbabd72fa	-0.0014453821
92	0x3c21e8a5	0.009882127
93	0x3c8207bd	0.01587283
94	0x3c37713a	0.011196429
95	0xbb890fa4	-0.0041827727
96	0xbba19f47	-0.0049323174
97	0x3bf044c6	0.007332417
98	0xba6adfde	-0.00089597504
99	0x3b6ee62b	0.0036453109
100	0x3c36f1a6	0.011166012
101	0x3b49e4e2	0.003080659
102	0xbb8721b5	-0.0041238912
103	0xbc367049	-0.011135169
104	0xbc84de91	-0.01621941
105	0xbb6e073c	-0.003632023
106	0x3b9c5413	0.0047707646
107	0xbcedc6f4	-0.029025532
108	0xbcacd355	-0.021096865
109	0xbc5873fa	-0.013211245
110	0xbbb55f66	-0.005535054
111	0xbc8a0c74	-0.016851641
112	0xbbb10fdc	-0.005403502
113	0xbc92a0f5	-0.017899016
114	0xbb87fc16	-0.004149924
115	0xbcc6b155	-0.02425448
116	0xbc02e413	-0.007988947
117	0xbc070c27	-0.008242643
118	0x3bc9e66d	0.006161502
119	0x3bbe7b72	0.0058130557
120	0xbc876fce	-0.016532805
121	0xbc92a882	-0.017902616
122	0xbc784cf6	-0.015155068
123	0xbb532dd5	-0.0032223363
124	0xbb367d75	-0.0027845774
125	0xbc7d7b00	-0.01547122
126	0xb8bf435e	-9.120138e-05
127	0x3c007a8d	0.007841718
128	0xbb1be9bb	-0.0023790437
129	0xbbd94ede	-0.006631716
130	0xbbf0e150	-0.007351078
131	0xbbe35876	-0.0069380356
132	0xba64da7c	-0.00087300665
133	0xbbe77eb9	-0.007064667
134	0x3cba3ab0	0.022733063
135	0x3ceeeb72	0.029165003
136	0x3b2749e2	0.0025526215
137	0xbba7eb9a	-0.0051245214
138	0xbcd069e2	-0.025441114
139	0x3c00ae13	0.0078540025
140	0x3c20e5a0	0.009820372
141	0x3bed59a5	0.0072433525
142	0xbbd6767f	-0.0065448876
143	0xbbb9d043	-0.0056705787
144	0x3cc89820	0.024486601
145	0xbbf5e7d0	-0.007504441
146	0x3c6b59f6	0.01436471
147	0x3c8bff7d	0.0170896
148	0xbb6d4b92	-0.0036208373
149	0x3bc24a33	0.0059292554
150	0xbab79be3	-0.001400825
151	0xbc13328e	-0.008984221
152	0xba9d9fee	-0.0012025812
153	0xbc7857bb	-0.015157635
154	0x3c1ff474	0.009762872
155	0x3c06af2c	0.008220475
156	0x3ba67854	0.005080262
157	0x3afa7379	0.00191079
158	0x3c23daa8	0.010000862
159	0x3bd78e2d	0.006578228
160	0x3b927f9d	0.004470779
161	0x3bd26277	0.0064204293
162	0x3c498bef	0.012301429
163	0x3ca79370	0.020456046
164	0xbc2aac3d	-0.010417041
165	0x3bc8ee0b	0.0061318926
166	0x3ab2ca77	0.0013640661
167	0x3b3e5e38	0.0029047858
168	0xbcb0bd12	-0.02157453
169	0xbbf4d977	-0.007472213
170	0x3ba55875	0.0050459453
171	0xbbad4949	-0.0052882773
172	0x3ca1f445	0.019769797
173	0xbcc39d7c	-0.023878805
174	0xbbfc5017	-0.007699977
175	0xbc54b93a	-0.012983615
176	0xbc466556	-0.012109121
177	0x3c950958	0.018192932
178	0x3ba3c85b	0.0049982495
179	0xbc278eed	-0.010226947
180	0x3bfd5312	0.00773085
181	0xbc4b7a55	-0.012419303
182	0x3c0f310c	0.008739721
183	0x39da4303	0.00041630128
184	0xbbf5978c	-0.0074948724
185	0xbb48eb7f	-0.0030657945
186	0xbbd03eb7	-0.0063551324
187	0xbbccd781	-0.006251276
188	0x3b5694db	0.0032742533
189	0xbc184b15	-0.009295245
190	0x3c255f43	0.010093513
191	0xbc4ae650	-0.012384012
192	0x3cd60420	0.026125014
193	0x3ac95dd8	0.0015363051
194	0x3aa28dc6	0.0012401871
195	0xba9e91a7	-0.0012097851
196	0x3c1258a8	0.00893227
197	0xbc862628	-0.016375616
198	0xbab853cc	-0.0014063059
199	0x3cc15f3e	0.023604985
200	0x3c192d27	0.009349144
201	0x3c0fda7d	0.008780119
202	0xbaebfc2e	-0.0018004233
203	0xbbf21495	-0.0073877075
204	0xbc6deadf	-0.01452133
205	0xbc88fbe6	-0.016721677
206	0x3b30790a	0.0026927614
207	0x3ce35651	0.02775112
208	0xbc98ae18	-0.018637702
209	0x3b691c5f	0.003556989
210	0x3b68498f	0.0035444235
211	0xbbc6771e	-0.0060566803
212	0x3b3168dd	0.002707056
213	0x3c0330b8	0.008007221
214	0x3bd4f5ff	0.0064990516
215	0xbb94444d	-0.0045247437
216	0x3be4eaf6	0.0069860173
217	0xbb8a0beb	-0.0042128465
218	0xbba5c41e	-0.0050587794
219	0x3cee4058	0.029083416
220	0xbb85d485	-0.004084172
221	0xbc01f246	-0.007931298
222	0x3ba4f128	0.005033631
223	0x3b990890	0.00467021
224	0xbb277d56	-0.0025556884
225	0x3c83c659	0.01608579
226	0xbbc7d27b	-0.0060980893
227	0xbc03acb4	-0.008036781
228	0xbc5bdb7f	-0.013419031
229	0xbb7fc141	-0.00390251
230	0xbbba7db1	-0.005691253
231	0xba3c9529	-0.00071938575
232	0x3bb556c3	0.0055340244
233	0xbbdcd6dd	-0.006739481
234	0xbc6a8621	-0.014314205
235	0x3c88d1fe	0.016701695
236	0x3c97affd	0.018516535
237	0xbc1c4795	-0.009538551
238	0xbbf4b102	-0.00746739
239	0x3d00bb6d	0.031428743
240	0x3aca52bb	0.0015436033
241	0x3b9ee0f6	0.004848595
242	0x3aad50dc	0.001322295
243	0x3cfcad3a	0.03084432
244	0x3c551ead	0.013007802
245	0xbac9a810	-0.001538517
246	0x3b80d81f	0.0039320136
247	0xbb528a19	-0.003212577
248	0x3ca58594	0.020205297
249	0x3c58d9ac	0.013235491
250	0x3cca263e	0.024676438
251	0x3af4168d	0.0018622443
252	0xbb124bc1	-0.0022322985
253	0x3c0f7480	0.008755803
254	0xba2ccf42	-0.0006592163
255	0x3bd841e6	0.0065996526

action_model._discrete_distribution.branches.1.bias f4 [2]
0	0xbb91b62f	-0.004446767
1	0x3b91b62e	0.0044467663

action_model._discrete_distribution.branches.2.weight f4 [2, 128]
0	0x3bdc9ca3	0.0067325397
1	0x3ca1dc2e	0.01975831
2	0x3c3767a2	0.011194142
3	0x3c260dc8	0.010135122
4	0x3c9e448d	0.019319797
5	0x3c1a38fa	0.009412998
6	0xbc93bea1	-0.018035235
7	0xbc51ad1a	-0.012797618
8	0xbc4d28b7	-0.012521914
9	0xbbc2f001	-0.005949021
10	0xbaef3f25	-0.0018253071
11	0x3cca49c2	0.024693374
12	0x3c1fa0a2	0.009742888
13	0xbb2c938f	-0.002633307
14	0xbbf1a19f	-0.007374003
15	0x3b2def58	0.0026540365
16	0x3c27e807	0.010248191
17	0xbc50c899	-0.012743139
18	0xbabbe82b	-0.0014336159
19	0x3c6a0266	0.014282798
20	0x3c951ff2	0.01820371
21	0xbbfb0630	-0.0076606497
22	0x3939558d	0.00017674845
23	0x3c574ab6	0.013140371
24	0xbc95a0e5	-0.018265197
25	0xba92060d	-0.0011140719
26	0x3c03df15	0.008048792
27	0xbc6e9747	-0.0145624345
28	0x3b8c3eff	0.0042799707
29	0xbb51748a	-0.0031960332
30	0xbc22ed3e	-0.009944258
31	0x3bc8f560	0.0061327666
32	0x3abcf1cf	0.0014415326
33	0x3c55e620	0.013055354
34	0xbad18c35	-0.001598722
35	0x3b8adfa8	0.0042380877
36	0xbc338107	-0.0109560555
37	0xbadaf2f5	-0.0016704487
38	0xbb904d0f	-0.0044037174
39	0x3b657407	0.0035011785
40	0xbc12eb52	-0.008967238
41	0x3b4715ea	0.0030378052
42	0x3c866428	0.01640518
43	0x3b2a8441	0.002601877
44	0xbc9d1fd9	-0.019180225
45	0x3c9067db	0.017627647
46	0x3c085bb4	0.008322645
47	0x3ae38876	0.0017359394
48	0xba6554f5	-0.00087483163
49	0x3986023d	0.0002556014
50	0xbc1322f2	-0.0089805
51	0x3b974539	0.0046164063
52	0x3c1c9611	0.009557263
53	0xbc1f9b3b	-0.0097416
54	0xbbb136bf	-0.0054081376
55	0x3b9cfa81	0.0047906046
56	0x3bbb159b	0.0057093627
57	0xbc59244c	-0.013253283
58	0x3ac76a3a	0.0015214153
59	0x3b7e6848	0.003881948
60	0xbc57bc38	-0.013167433
61	0x3c769213	0.015049475
62	0xbb736433	-0.003713858
63	0x3c2e81cc	0.010651063
64	0x3cdb8c4b	0.026800295
65	0x3ad1e9ea	0.0016015146
66	0xbc000454	-0.007813532
67	0x3a14b24b	0.00056723197
68	0x3c890dc9	0.016730206
69	0x3bb1f60e	0.0054309433
70	0x3b894472	0.0041890675
71	0x3cb1fa63	0.021725839
72	0xbb661e96	-0.0035113445
73	0x3b12a353	0.002237518
74	0xbc0a0f0c	-0.008426439
75	0xbc07e0f0	-0.008293375
76	0x3be04d8b	0.0068451813
77	0xbc38b81b	-0.011274363
78	0xbab0fe32	-0.001350349
79	0xbc0aa718	-0.00846269
80	0x3a724c08	0.0009242897
81	0xbb7f6137	-0.0038967857
82	0x3c4ee383	0.012627485
83	0xbb4f1503	-0.0031598217
84	0xbc8dc1aa	-0.01730426
85	0xbaa17c3f	-0.0012320353
86	0x3ca9a46d	0.020708287
87	0xba75e2df	-0.0009379815
88	0xbb21207c	-0.0024586013
89	0xbc2fba4c	-0.010725569
90	0xbba72e08	-0.005101923
91	0xbba18df6	-0.004930253
92	0x3c4adb05	0.01238132
93	0x3c5a2c7f	0.013316273
94	0x3b856b02	0.004071594
95	0xbb969f79	-0.0045966473
96	0x39d7d3a8	0.00041165692
97	0x3aa6ffc2	0.0012741017
98	0xbabac1af	-0.0014248396
99	0xbbe660d4	-0.007030586
100	0x3cafb07b	0.021446457
101	0x3cf7b73b	0.030238738
102	0x3c480be1	0.012209863
103	0xbc976ecb	-0.018485447
104	0xbb5b7233	-0.0033484816
105	0xb825f5cd	-3.9567985e-05
106	0x3b6b1c7c	0.0035875132
107	0x3c88027a	0.016602743
108	0xbb4b271a	-0.0030998648
109	0x3c029187	0.007969267
110	0xbbdf7b2d	-0.0068201036
111	0x3c88f398	0.016717717
112	0xbb97d751	-0.004633822
113	0xbcaf6bb4	-0.021413662
114	0x3baa04a6	0.0051885424
115	0x3afea7b5	0.0019428643
116	0x3c8afdbb	0.016966691
117	0xbc1f10a1	-0.0097085545
118	0xbc349f48	-0.011024304
119	0xbc884047	-0.016632212
120	0x3cac5574	0.021036841
121	0x3a41ab25	0.0007387868
122	0x3b8af15c	0.004240198
123	0xbbd4d66a	-0.0064952867
124	0xbbb51976	-0.005526717
125	0x3cd241eb	0.025666198
126	0xbc88342d	-0.016626442
127	0x3bd802a1	0.0065921103
128	0x3bf1a301	0.007374168
129	0xbbaca75f	-0.0052689756
130	0xbc1ad442	-0.00945002
131	0xbb5f4233	-0.0034066557
132	0x3bfe3833	0.0077581643
133	0x3bb86d79	0.0056282845
134	0xbc5e29ed	-0.013559801
135	0x3bc0d5fc	0.005884884
136	0xbc5c65b9	-0.013451987
137	0x3beaaefb	0.0071619726
138	0x3b80b975	0.003928358
139	0xbcbab156	-0.022789638
140	0xbb761794	-0.0037550675
141	0x3c32b579	0.010907524
142	0x3b0e3004	0.00216961
143	0xbbc82d24	-0.006108897
144	0x3cb95d1a	0.022627402
145	0xbc19d292	-0.009388583
146	0xbb1e867a	-0.002418904
147	0xbae4e25d	-0.0017462481
148	0x3c782ba4	0.0151471235
149	0xbca03c41	-0.019559981
150	0x3c1bd568	0.009511329
151	0xbc2e37b4	-0.010633398
152	0x3c6bde1b	0.014396216
153	0xbc30a12a	-0.010780612
154	0x3b429d36	0.0029695756
155	0xbbedf3ee	-0.0072617447
156	0xbb81c5fc	-0.003960369
157	0xbc1024ab	-0.008797805
158	0x3c4ba068	0.012428381
159	0xbb65f7cc	-0.0035090325
160	0xbac335e7	-0.0014893383
161	0xbc19138e	-0.009343041
162	0x3be3bdf0	0.0069501325
163	0xbb82b789	-0.0039891643
164	0x3bafc194	0.0053636525
165	0xbc4474bf	-0.011990725
166	0xbad15015	-0.0015969301
167	0x3bbd6b58	0.0057806186
168	0x3b00701f	0.001959808
169	0xbc192364	-0.009346817
170	0x3bbeb493	0.005819866
171	0xba36ad51	-0.0006968575
172	0xbc103a9e	-0.008803038
173	0xbb4432b0	-0.0029937439
174	0xbb86af56	-0.004110257
175	0xbca69819	-0.020336198
176	0xbb8d485d	-0.004311605
177	0x3c831b3b	0.016004195
178	0x3c5ce102	0.01348138
179	0x3cad0e8f	0.021125106
180	0x3bd5963a	0.0065181525
181	0x3bfb9031	0.007677101
182	0x3c75b906	0.014997726
183	0x3b47127b	0.0030376005
184	0xbc49296c	-0.012277942
185	0xbc39f20d	-0.011349213
186	0xbb0bb936	-0.002132011
187	0xbc5c9c91	-0.013465063
188	0xbbfb19ae	-0.0076629734
189	0x3c1a59d4	0.009420831
190	0x3bf4ec86	0.007474485
191	0x3c815b57	0.015790625
192	0xbc83c5cb	-0.016085526
193	0xbc19ed99	-0.009395027
194	0x3cbadef0	0.022811383
195	0x3aabd348	0.0013109231
196	0xbc8b00ce	-0.016968157
197	0xb8c9d747	-9.6245254e-05
198	0x3bc46338	0.005993273
199	0xbcae5e88	-0.02128531
200	0xbade20a0	-0.0016946979
201	0xbc813ee1	-0.015777053
202	0xbc132897	-0.008981845
203	0x3ab4b846	0.0013787828
204	0x3a9aa984	0.0011799787
205	0x3b12db27	0.0022408457
206	0x3c071b26	0.008246219
207	0x3a8773f7	0.0010334243
208	0x3b7da84a	0.0038705044
209	0xbb97a38f	-0.004627652
210	0x3a3817f6	0.00070226134
211	0x3b763dcc	0.0037573455
212	0x3c6fe62f	0.014642282
213	0xbc3528ec	-0.01105712
214	0xbaf803a6	-0.0018921986
215	0x3c11ddac	0.008902948
216	0xbc8c3ca2	-0.017118756
217	0x3ac02680	0.0014659911
218	0xba9ed668	-0.0012118341
219	0x3b457c44	0.0030133883
220	0xbc84cec8	-0.016211882
221	0xbbe3ae69	-0.0069482815
222	0xbb3e4517	-0.002903288
223	0x3b9a52a7	0.00470956
224	0xbc2e8679	-0.010652178
225	0x3bb256f3	0.005442494
226	0x3c29e004	0.010368351
227	0xbb63982c	-0.0034728153
228	0xbc31d1e0	-0.010853261
229	0xbb351620	-0.0027631596
230	0x3c97b8f1	0.018520804
231	0x3c938808	0.0180092
232	0x3ba11b26	0.0049165664
233	0xbb8ff3f0	-0.0043930933
234	0xbc264a5b	-0.010149564
235	0xbcda404a	-0.026641984
236	0x3c4f83e2	0.012665721
237	0xbb11a3d7	-0.00222229
238	0xbc83ba19	-0.01607995
239	0xbadee76c	-0.0017006225
240	0x3c57b871	0.013166533
241	0x3c7b287c	0.015329476
242	0xbc35cbb4	-0.01109593
243	0xbbfbfbb3	-0.007689917
244	0x3b401870	0.002931144
245	0x3c5e157d	0.013554928
246	0x3b38ac3e	0.0028178836
247	0x3ad6f405	0.0016399628
248	0xbc8d1e3c	-0.017226331
249	0x3c090ef2	0.00836538
250	0x3c11b576	0.008893361
251	0xbb901c3f	-0.0043978984
252	0x3996f481	0.000287924
253	0xbc083a5b	-0.008314694
254	0x3c0557c3	0.0081386
255	0x3c1ea4bf	0.009682833

action_model._discrete_distribution.branches.2.bias f4 [2]
0	0xbb54f120	-0.0032492355
1	0x3b54f11d	0.0032492348

action_model._discrete_distribution.branches.3.weight f4 [2, 128]
0	0x3c5c8425	0.01345924
1	0xbc055e5a	-0.008140171
2	0x3be8bf7a	0.007102904
3	0xbb46b49f	-0.003032006
4	0xbc2a219e	-0.0103839915
5	0x3b8c657d	0.0042845593
6	0xbc734d14	-0.01484992
7	0xbc016cda	-0.007899487
8	0xbc9f4fdd	-0.019447261
9	0xbbf26fcb	-0.0073985807
10	0xbb07ea2d	-0.0020738945
11	0x3bbe46b0	0.0058067665
12	0xbc03969e	-0.008031515
13	0x3b244e10	0.0025070943
14	0xbc066ac2	-0.008204164
15	0xbc82bed8	-0.015960142
16	0x3b89818e	0.0041963523
17	0xbc951d31	-0.018202396
18	0xbba8c47a	-0.005150375
19	0xbc72e488	-0.014824994
20	0x3c83fb0b	0.016110918
21	0xbb10316d	-0.0022002116
22	0x3a4553f7	0.00075274653
23	0x3ad5ae51	0.0016302561
24	0xbc69f19c	-0.014278796
25	0x3bb5c41b	0.0055470592
26	0x3be09b51	0.0068544527
27	0x3a40d639	0.00073561404
28	0x3c03ec06	0.008051878
29	0x3be24b45	0.0069059455
30	0x3b379e10	0.0028017797
31	0xbbddc008	-0.0067672767
32	0x3c478434	0.012177516
33	0xbb003178	-0.0019560736
34	0xbac4a4b0	-0.0015002694
35	0xbb515f64	-0.0031947726
36	0xb98ef6d2	-0.00027268246
37	0x3c1222c9	0.008919426
38	0xbb6092f4	-0.0034267278
39	0xbbe40a4e	-0.006959236
40	0x3ccc61df	0.024949012
41	0xbca2f279	-0.01989101
42	0x3be5011a	0.0069886567
43	0x3c711971	0.014715538
44	0xbc3a1d3d	-0.01135951
45	0xbb820e5b	-0.0039689965
46	0x3a6ee9c6	0.00091138144
47	0xbc505845	-0.012716358
48	0x3c08fb22	0.008360656
49	0x3b206bbd	0.002447828
50	0x3b3d891c	0.0028920835
51	0x3862efe0	5.4106e-05
52	0x3b003a0c	0.0019565849
53	0xbbbea4c8	-0.0058179833
54	0x3bb7c513	0.00560821
55	0x39e4797a	0.00043578056
56	0x3a8ee97d	0.0010903325
57	0x3b3a2e80	0.0028409064
58	0x3b31af79	0.0027112646
59	0xba4247c5	-0.0007411207
60	0x3bb6db7f	0.005580365
61	0x3c2cd21c	0.010548141
62	0xbc71bd63	-0.014754626
63	0xbb1a6a9c	-0.002356208
64	0xbb5f40e7	-0.0034065784
65	0xbb1e5ae7	-0.0024163069
66	0x3a2d10e0	0.0006601941
67	0xbb82a048	-0.003986392
68	0x3bb114dc	0.005404098
69	0x3bd6b1f3	0.006551975
70	0xbbdf8fd7	-0.006822567
71	0x3b10da33	0.0022102713
72	0xbb63dc74	-0.0034768851
73	0xbc94b7a0	-0.018153965
74	0xbb44d898	-0.0030036326
75	0xba03138f	-0.0005000168
76	0xbad2fc81	-0.001609698
77	0x3be995a0	0.0071284324
78	0xbba82925	-0.005131858
79	0xbb6cab5f	-0.0036112887
80	0x3c8ddc36	0.017316919
81	0x3b23b9ab	0.0024982493
82	0xbb974310	-0.004616149
83	0x3c92ac74	0.017904498
84	0xbc824345	-0.015901217
85	0x3c60e132	0.013725566
86	0xbb719bb2	-0.0036866483
87	0x3a4e39ac	0.000786687
88	0x3c98e1ac	0.018662296
89	0xbbbdad88	-0.005788509
90	0x3b4cb6e4	0.003123694
91	0xbc429c93	-0.0118781505
92	0xb9fcd813	-0.00048226173
93	0xba885877	-0.0010402341
94	0x3c177643	0.009244504
95	0x3c11a4ca	0.008889386
96	0xb9ef4cd7	-0.00045642882
97	0x39cd0a03	0.00039108106
98	0x3a1a3e51	0.00058839197
99	0xbaa888b2	-0.0012858121
100	0xbcc9968c	-0.02460792
101	0xbc9bfbac	-0.019040905
102	0x3b01c8e4	0.0019803578
103	0x3a9aa338	0.001179791
104	0x3b55f01a	0.0032644332
105	0xbbc2aef7	-0.0059412676
106	0x3b0ab712	0.0021166247
107	0xbb933d60	-0.0044934005
108	0xbc869131	-0.016426655
109	0xbc524413	-0.012833613
110	0x3c9b8ae0	0.01898712
111	0xbbd07a58	-0.0063622408
112	0x3bd92472	0.006626659
113	0xbac40106	-0.0014953918
114	0xbb893709	-0.004187469
115	0x3c8e58bc	0.017376296
116	0x3b0d4e65	0.002156162
117	0x3c8088da	0.015690256
118	0xbbc1d454	-0.005915204
119	0x3c2a6621	0.010400326
120	0xbc1b14ef	-0.00946544
121	0xbb46594b	-0.0030265625
122	0x3b992565	0.004673647
123	0x3bd6318b	0.0065366677
124	0x3c2a571d	0.010396746
125	0xbbadf004	-0.005308153
126	0x3c729479	0.014805906
127	0xbbb45bd2	-0.00550411
128	0xbcd591d9	-0.026070522
129	0x3c4a05bd	0.01233047
130	0xbc1596da	-0.009130204
131	0x3c5ff392	0.0136689115
132	0xbc3b694b	-0.011438678
133	0x3ab720b2	0.0013971536
134	0xb8d742e5	-0.00010264459
135	0x3b271cd4	0.002549936
136	0xbc1d4e52	-0.009601193
137	0xbc61ad6a	-0.013774255
138	0xbb38032b	-0.002807806
139	0xbbd5d7f3	-0.0065259873
140	0x3bd74344	0.006569298
141	0x3c9371f1	0.017998667
142	0x3c513d1d	0.012770918
143	0xbc176d05	-0.009242301
144	0xbcba3781	-0.022731544
145	0x3c54e833	0.012994814
146	0xbb272778	-0.0025505703
147	0x3b3fe0a7	0.002927819
148	0x3c2ec043	0.010665956
149	0x3c37a9bc	0.011209901
150	0xbc0ddd27	-0.008658684
151	0xbafa94a8	-0.0019117789
152	0x3bf22cb9	0.0073905853
153	0x3bbcf90f	0.005766995
154	0x3bf759b0	0.0075485334
155	0xbbf5d008	-0.007501606
156	0xbaa67d23	-0.0012702089
157	0xba7e73c3	-0.0009706581
158	0x3c3e8d9a	0.01163044
159	0x3b175a26	0.0023094504
160	0x3c77acb3	0.015116858
161	0x3b711720	0.0036787465
162	0xba7439dc	-0.0009316483
163	0x39117a92	0.00013873939
164	0xbbd0b0aa	-0.0063687162
165	0xba82fead	-0.0009994112
166	0xbbb8a49a	-0.0056348564
167	0xbc9550cd	-0.018227005
168	0x3c645303	0.013935807
169	0x3c48adb9	0.01224845
170	0x3ae0df65	0.001715642
171	0xbc566b12	-0.013087051
172	0xbc91aedd	-0.017783577
173	0xbb646c47	-0.0034854577
174	0xbc4c87b7	-0.012483529
175	0x3c26d7e4	0.010183308
176	0xbb05c0a5	-0.0020409015
177	0xbb64e954	-0.0034929113
178	0x3b536d94	0.0032261359
179	0xbc460b57	-0.012087665
180	0xbbf337be	-0.0074224165
181	0x3b1df946	0.0024104877
182	0x3ac3a24b	0.0014925686
183	0x3c83b250	0.016076237
184	0x3bbfb864	0.0058508385
185	0xbc4491a2	-0.011997612
186	0x3b938067	0.0045013907
187	0x3c8f05cf	0.017458824
188	0x3bb5676c	0.0055360105
189	0xbb03557a	-0.0020039962
190	0x3b189d91	0.0023287276
191	0xbc81117e	-0.015755411
192	0xbb5f6db5	-0.003409249
193	0xbbc26372	-0.005932265
194	0xbcc20917	-0.023685975
195	0x3c52f6e5	0.012876247
196	0x3b32911d	0.0027247139
197	0xbb80337e	-0.0039123883
198	0xbbb460c8	-0.0055047013
199	0x3c3cad42	0.011515917
200	0x3bd981e1	0.006637797
201	0x3c686c79	0.014186018
202	0xbb7cd42b	-0.003857861
203	0x3bb53e13	0.0055310815
204	0x3c8f8900	0.017521381
205	0xbc83cd39	-0.016089069
206	0xbbd95c1c	-0.0066332947
207	0xba12357c	-0.0005577428
208	0xbc16dfdf	-0.009208648
209	0x3b648376	0.0034868396
210	0x3b92db19	0.004481685
211	0xb92d1621	-0.0001650681
212	0xbb26edfd	-0.0025471442
213	0x3c1507ce	0.009096099
214	0x3cbb8bbf	0.022893785
215	0xbb950cc0	-0.004548639
216	0x3c4ddfb1	0.012565539
217	0xbbedd9fe	-0.0072586527
218	0x3b42e295	0.0029737104
219	0x3bc0e97d	0.005887209
220	0xbbe06794	-0.006848285
221	0xbb7d6dc4	-0.0038670162
222	0x3ba64e9d	0.0050752894
223	0x3996e27f	0.00028778982
224	0x3b876d31	0.0041328897
225	0xbc2336ee	-0.009961827
226	0xbbdf2c18	-0.0068106763
227	0x3aaca8ee	0.0013172904
228	0x3bfd724d	0.007734573
229	0xbb020ea5	-0.0019845155
230	0x3a0f71db	0.0005471983
231	0xbc55e780	-0.013055682
232	0x3c05d6ff	0.008168935
233	0x3bf09920	0.0073424727
234	0x3c45cb5f	0.012072413
235	0x3b120fc3	0.0022287227
236	0x3c9e59ce	0.019329932
237	0xbc407317	-0.01174619
238	0x3a75e03f	0.00093794236
239	0x3823c3d1	3.9044597e-05
240	0x3b7822d8	0.0037862565
241	0xbc0d5385	-0.00862587
242	0xbc9ff2fb	-0.019525042
243	0xbca1fd3c	-0.019774072
244	0xbaa7612f	-0.0012770052
245	0xbcb4f275	-0.022088269
246	0x3a09b534	0.00052531366
247	0xbc83c32c	-0.016084276
248	0x3ca5cf73	0.020240521
249	0xbac99076	-0.0015378136
250	0x3b5fb40c	0.0034134416
251	0xba4bdb37	-0.0007776501
252	0xbbf994a8	-0.007616598
253	0xbb5c3730	-0.003360223
254	0x39f00761	0.00045781865
255	0x3a357884	0.000692256

action_model._discrete_distribution.branches.3.bias f4 [2]
0	0x3bc3a9f2	0.005971187
1	0xbbc3a9f1	-0.0059711863
