results/Imitation/Dark Knight Behavior/Dark Knight Behavior-499045.pt (torch, 551975 bytes, 67 tensors)

network_body.observation_encoder.processors.0.normalizer.running_mean f4 [11]
5.794094 -3.0413132 14.546534 14.170566 45.132576 0.093247905 0.10764531 0.50175947
0.07811302 0.14941911 0.4366511
00000000: 3869 b940 e0a4 42c0 9abe 6841 a3ba 6241
00000010: c287 3442 c2f8 be3d 2575 dc3d 4f73 003f
00000020: b8f9 9f3d 5301 193e bc90 df3e

network_body.observation_encoder.processors.0.normalizer.running_variance f4 [11]
2.2942705e+06 2.566239e+06 1.2541492e+06 1.7108536e+06 3.3529568e+08 42196.664 47938.305 124760.91
35938.0 63426.234 122759.86
00000000: fa07 0c4a 7ca1 1c4a 2a18 9949 2dd8 d049
00000010: a6e1 9f4d aad4 2447 4e42 3b47 74ac f347
00000020: 0062 0c47 3cc2 7747 eec3 ef47

network_body.processors.0.normalizer.running_mean f4 [11]
5.794094 -3.0413132 14.546534 14.170566 45.132576 0.093247905 0.10764531 0.50175947
0.07811302 0.14941911 0.4366511
00000000: 3869 b940 e0a4 42c0 9abe 6841 a3ba 6241
00000010: c287 3442 c2f8 be3d 2575 dc3d 4f73 003f
00000020: b8f9 9f3d 5301 193e bc90 df3e

network_body.processors.0.normalizer.running_variance f4 [11]
2.2942705e+06 2.566239e+06 1.2541492e+06 1.7108536e+06 3.3529568e+08 42196.664 47938.305 124760.91
35938.0 63426.234 122759.86
00000000: fa07 0c4a 7ca1 1c4a 2a18 9949 2dd8 d049
00000010: a6e1 9f4d aad4 2447 4e42 3b47 74ac f347
00000020: 0062 0c47 3cc2 7747 eec3 ef47

network_body.linear_encoder.seq_layers.0.weight f4 [128, 11]
0.030876484 0.24640302 -0.17199989 0.2767908 0.14531252 -0.08377398 -0.19769113 -0.00795493
-0.2590417 -0.24781719 0.51821005 -0.16473733 -0.010075898 0.5509356 -0.05273139 0.15146905
0.34950238 -0.22812249 0.13415122 0.11185939 -0.42373267 -0.3072686 0.22601442 -0.05328182
-0.14695364 0.24692412 0.09541151 0.022418818 -0.0027534766 -0.46554035 -0.25736803 0.46970037
-0.014125297 -0.29111636 -0.33977628 0.2910843 0.21376336 -0.031046657 0.11944613 -0.43231568
-0.34261042 0.3342595 -0.2635456 0.24391179 -0.36234176 -0.038167305 0.13275681 -0.17578705
-0.66120875 0.5079455 0.6996907 -0.2120419 -0.22589825 -0.067709774 -0.2762316 -0.49174982
0.18626627 -0.28389972 0.3634483 0.6082012 0.2854698 -0.1225144 -0.19640575 0.35123125
-0.39640126 -0.16248956 0.051286604 -0.17685883 -0.18483633 0.6223675 0.19633676 -0.3939696
0.010508983 0.4374539 -0.23176485 0.091877006 0.3909301 -0.12303844 0.066246696 0.11926977
0.3571989 0.38227254 0.24448624 -0.074913144 -0.40683845 -0.4089394 -0.19939223 0.38135535
0.40087816 0.4729803 -0.011352989 0.08701088 -0.61818486 -0.14350994 -0.23865835 0.40969986
-0.3356739 0.16664335 -0.010640679 -0.20162174 -0.2222993 0.5581049 -0.26718625 -0.34259078
0.26004884 -0.20599702 -0.19714658 0.45197645 0.47070503 0.07309514 0.51882577 0.47859505
0.13512774 -0.4012447 0.48078135 -0.47715253 -0.0948537 0.24453524 -0.044655923 -0.72142917
0.07589376 -0.25895402 -0.13594323 -0.003752978 -0.19799604 -0.067598216 -0.45371118 -0.10485203
-0.025024377 0.43565997 -0.008979527 0.19642103 -0.20135531 0.2007466 -0.31128794 0.33064494
0.20862938 0.14091592 -0.16671863 -0.091638505 0.19348015 -0.21287784 0.14494692 -0.024961941
-0.61491674 -0.4219191 -0.16177005 -0.63248366 0.71814615 -0.5294032 0.14251195 0.062936895
-0.076275714 -0.062328767 0.07660921 0.20342875 -0.0102001205 -0.27666277 -0.76884365 0.52180815
0.17210755 -0.5463148 0.17981541 0.43714452 0.3550803 0.08090206 -0.3524911 -0.30792284
0.011192715 0.088450015 0.17525509 0.38384926 0.4693882 0.37592578 0.09655777 -0.4393198
-0.06382163 0.11824026 -0.4808519 0.15003684 0.26689994 0.082793064 0.32425156 0.4665774
-0.04781895 0.06599809 0.38652062 -0.1845906 -0.40946248 0.3983709 0.51920444 0.26978403
0.20065619 -0.52082527 -0.60033095 -0.47834453 -0.036893692 -0.3213968 -0.021449877 0.24328259
0.1281313 -0.55968386 -0.40168625 0.20066111 0.1052881 0.17201075 -0.40643498 0.140206
-0.051743664 0.28449577 -0.44131532 0.520421 0.1629731 -0.45096895 0.12942176 0.093143456
-0.41661832 -0.14814068 0.21560948 -0.104016416 -0.10762612 0.4222001 0.14834748 -0.094036594
0.008160996 -0.12268899 0.39086983 0.07966046 -0.16263597 -0.8535597 0.530311 0.16494283
0.6125429 -0.08685597 0.10193564 -0.06714209 -0.18740566 0.34759632 0.086288854 0.27256098
-0.608281 0.307587 0.5480184 -0.45976245 -0.07481532 -0.16051194 0.051897172 0.14404042
-0.26910892 -0.33458972 0.0431816 0.4968067 -0.17703934 -0.07565636 -0.53832597 0.19807096
00000000: aef0 fc3c 1351 7c3e bd20 30be 86b7 8d3e
00000010: cecc 143e b191 abbd 8b6f 4abe 6555 02bc
00000020: 1da1 84be cac3 7dbe 6aa9 043f e7b0 28be
00000030: 6115 25bc 1e0a 0d3f dffc 57bd b41a 1b3e
00000040: faf1 b23e f198 69be f05e 093e 8916 e53d
00000050: 7df3 d8be 4f52 9dbe 5370 673e 0a3e 5abd
00000060: 047b 16be add9 7c3e 1c67 c33d aba7 b73c
00000070: ac73 34bb 4e5b eebe bec5 83be 917c f03e
00000080: ca6d 67bc 340d 95be 28f7 adbe 0009 953e
00000090: c8e4 5a3e 8f55 febc 2ca0 f43d 7b58 ddbe
000000a0: a26a afbe 1024 ab3e 73ef 86be 03c4 793e
000000b0: dc84 b9be 5255 1cbd 67f1 073e 8501 34be
000000c0: fa44 29bf b708 023f ee1e 333f 8321 59be
000000d0: df51 67be 6cab 8abd 3a6e 8dbe a2c6 fbbe
000000e0: 96bc 3e3e 4e5b 91be e515 ba3e 13b3 1b3f
000000f0: 1929 923e d4e8 fabd 971e 49be 95d4 b33e
00000100: 1bf5 cabe aa63 26be e711 523d 7b1a 35be
00000110: bc45 3dbe 7a53 1f3f 810c 493e 62b6 c9be
00000120: df2d 2c3c f5f9 df3e c453 6dbe 032a bc3d
00000130: fd27 c83e 94fb fbbd 59ac 873d b643 f43d
00000140: c6e2 b63e 3ab9 c33e 9a5a 7a3e 106c 99bd
00000150: 214d d0be 8160 d1be 7a2d 4cbe 0241 c33e
00000160: e73f cd3e 792a f23e e301 3abc c332 b23d
00000170: 5d41 1ebf 45f4 12be db62 74be 2ec4 d13e
00000180: 73dd abbe 8ea4 2a3e 3e56 2ebc ee75 4ebe
00000190: 6da2 63be f6df 0e3f a3cc 88be 0f68 afbe
000001a0: 1f25 853e e2f0 52be cbe0 49be 7569 e73e
000001b0: 4000 f13e e8b2 953d c4d1 043f 690a f53e
000001c0: ed5e 0a3e f26f cdbe f928 f63e 564d f4be
000001d0: a842 c2bd 7267 7a3e 21e9 36bd 95af 38bf
000001e0: 306e 9b3d 9f95 84be b434 0bbe 86f4 75bb
000001f0: 79bf 4abe ef70 8abd d54c e8be a9bc d6bd
00000200: ecff ccbc d30e df3e de1e 13bc 9822 493e
00000210: 1630 4ebe 8490 4d3e 2261 9fbe 4b4a a93e
00000220: f1a2 553e 434c 103e 4ab8 2abe f8ac bbbd
00000230: a91f 463e a6fc 59be f76c 143e fc7c ccbc
00000240: 2f6b 1dbf c805 d8be 0ca7 25be 73ea 21bf
00000250: 6dd8 373f f886 07bf a7ee 113e 0fe5 803d
00000260: 7136 9cbd 734c 7fbd 4ae5 9c3d a04f 503e
00000270: 681e 27bc bea6 8dbe f0d2 44bf 3895 053f
00000280: f63c 303e 49db 0bbf 8821 383e 68d1 df3e
00000290: 16cd b53e fbaf a53d b779 b4be 10a8 9dbe
000002a0: a661 373c 4825 b53d 1276 333e e487 c43e
000002b0: a653 f03e 5879 c03e 15c0 c53d 86ee e0be
000002c0: eab4 82bd f327 f23d 3832 f6be 42a3 193e
000002d0: 1ca7 883e 698f a93d 4d04 a63e 3ce3 ee3e
000002e0: cedd 43bd 022a 873d 08e6 c53e 5105 3dbe
000002f0: 11a5 d1be 45f7 cb3e 95ea 043f 2221 8a3e
00000300: d178 4d3e ce54 05bf 4aaf 19bf 93e9 f4be
00000310: d71d 17bd 1f8e a4be a7b7 afbc 121f 793e
00000320: da34 033e 7147 0fbf d2a9 cdbe 1b7a 4d3e
00000330: 4aa1 d73d 9623 303e 3f18 d0be 2992 0f3e
00000340: 2af1 53bd 6ea9 913e 15f4 e1be 503a 053f
00000350: 6ce2 263e 67e5 e6be 2387 043e ffc1 be3d
00000360: ff4e d5be 31b2 17be bbc8 5c3e 8f06 d5bd
00000370: 156b dcbd 9d2a d83e 67e8 173e 4296 c0bd
00000380: b3b5 053c 5d44 fbbd 1720 c83e 0625 a33d
00000390: 0b8a 26be e382 5abf 76c2 073f c6e6 283e
000003a0: 9dcf 1c3f 8be1 b1bd a2c3 d03d cb81 89bd
000003b0: 45e7 3fbe 25f8 b13e 36b8 b03d 1d8d 8b3e
000003c0: 4eb8 1bbf 0b7c 9d3e ef4a 0c3f fc65 ebbe
000003d0: c638 99bd 3e5d 24be 2192 543d 557f 133e
000003e0: a5c8 89be 584f abbe 30df 303d 735d fe3e
000003f0: cd49 35be b9f1 9abd bbcf 09bf 1dd3 4a3e

network_body.linear_encoder.seq_layers.0.bias f4 [128]
0.010910603 0.045654215 -0.009159843 0.05454581 -0.019416241 -0.021164378 0.040750667 0.038426947
1.658131e-05 0.00722946 0.031067198 -0.09689761 -0.023783721 0.019875543 0.060581733 0.056472413
0.055803727 -0.079910494 -0.015524778 0.05714058 0.03951239 0.06689316 0.0014840144 -0.034016106
0.046033096 0.033813637 0.10443538 0.017051116 0.10164838 -0.0117708165 0.038252342 0.009218473
0.11676157 0.029516287 -0.010113835 0.022414504 -0.050785545 -0.036893524 0.0041666697 -0.029465891
-0.033061057 0.09616315 0.070881024 0.06516549 0.03104647 -0.016379794 -0.030077817 0.005126266
-0.056432147 0.021770025 -0.059531055 0.054475807 0.046041463 -0.08834463 0.059504315 -0.017388033
-0.05182361 0.08692377 0.1501979 0.0018957361 -0.014434257 -0.06372788 0.0038970045 0.017255204
0.0029160588 0.021537166 0.0008360376 0.027561618 0.0061188745 0.011649039 0.032244332 -0.03352743
-0.0035551323 -0.027451545 0.019058237 0.032981012 0.016041597 0.008234277 -0.07519723 0.003252448
-0.005680586 0.024955528 -0.018407846 0.02542177 0.05795841 0.017545821 0.060846217 0.020794364
0.07334767 -0.06643666 0.049902476 0.052724957 0.012258318 0.017827556 0.07692254 0.0066409707
0.009808202 -0.010701611 0.021604124 0.0013046 -0.00918485 -0.06525406 0.029587634 0.13252427
0.068890795 0.04879946 0.054356676 -0.038602557 -0.030116415 0.05773302 0.0063317884 -0.035912264
0.04083584 -0.042787764 -0.035859887 -0.04653613 0.025853075 0.032750506 -0.0025695974 -0.020370763
0.00018182542 0.042278286 -0.026914515 -0.019670334 -0.08575253 0.08532794 -0.01508806 0.09348517
00000000: 63c2 323c eaff 3a3d 2b13 16bc 6d6b 5f3d
00000010: cf0e 9fbc eb60 adbc 2cea 263d 9365 1d3d
00000020: 1818 8b37 1be5 ec3b a380 fe3c 4172 c6bd
00000030: 14d6 c2bc 09d2 a23c 8d24 783d 9e4f 673d
00000040: 7392 643d 1da8 a3bd a35b 7ebc 3e0c 6a3d
00000050: bed7 213d 48ff 883d 4383 c23a 7954 0bbd
00000060: 338d 3c3d 2b80 0a3d 37e2 d53d c8ae 8b3c
00000070: 072d d03d 62da 40bc 7dae 1c3d 1409 173c
00000080: b120 ef3d 24cc f13c 80b4 25bc 9f9e b73c
00000090: 8104 50bd aa1d 17bd 8f88 883b 7462 f1bc
000000a0: 086b 07bd 30f1 c43d 122a 913d 7c75 853d
000000b0: 2b55 fe3c eb2e 86bc c165 f6bc 3cfa a73b
000000c0: 6525 67bd 0d57 b23c d6d6 73bd 0622 5f3d
000000d0: f995 3c3d 08ee b4bd ccba 733d 5971 8ebc
000000e0: fe44 54bd 1705 b23d 7acd 193e 597a f83a
000000f0: a97d 6cbc c383 82bd e364 7f3b c95a 8d3c
00000100: 591b 3f3b b66e b03c 8929 5b3a e7c8 e13c
00000110: d780 c83b 9cdb 3e3c a212 043d 0f54 09bd
00000120: 39fd 68bb 10e2 e0bc 0520 9c3c 1917 073d
00000130: ab69 833c 10e9 063c 0101 9abd 0627 553b
00000140: 3624 babb 896f cc3c 0dcc 96bc 5141 d03c
00000150: cc65 6d3d 41bc 8f3c e239 793d f158 aa3c
00000160: 4e37 963d f20f 88bd 8a66 4c3d 20f6 573d
00000170: 1dd7 483c 180b 923c 9189 9d3d 809c d93b
00000180: 95b2 203c cf55 2fbc 22fb b03c 1dff aa3a
00000190: 0e7c 16bc eca3 85bd c461 f23c 71b4 073e
000001a0: 9e16 8d3d f1e1 473d 1ba5 5e3d b71d 1ebd
000001b0: b3b6 f6bc 7679 6c3d e47a cf3b bd18 13bd
000001c0: 7b43 273d 3942 2fbd d1e1 12bd ab9c 3ebd
000001d0: d4c9 d33c 6525 063d b166 28bb 96e0 a6bc
000001e0: 64a8 3e39 ff2b 2d3d d47b dcbc ae23 a1bc
000001f0: 069f afbd 6ac0 ae3d e933 77bc 2775 bf3d

network_body.linear_encoder.seq_layers.2.weight f4 [128, 128]
-0.15460382 -0.07296313 -0.041940305 -0.00910751 0.21226081 0.112581216 0.12914224 -0.28097942
-0.17858166 -0.049829364 -0.14577715 0.058537222 0.1286444 -0.06510025 0.137619 0.051128123
-0.010067573 -0.035815854 -0.096983194 -0.1411522 -0.075335726 -0.012781619 -0.16328259 -0.06926582
-0.18356076 0.11066686 0.12795725 -0.033726238 0.07197365 0.11374251 -0.16783814 0.076604374
-0.24712521 -0.07168831 -0.20514067 -0.033378832 0.037792146 -0.016156996 -0.06669091 0.006920464
-0.10132914 0.1543317 0.2881913 0.07183533 -0.19165567 -0.10678373 -0.00231831 -0.092987835
-0.01712424 -0.03155862 -0.12083427 -0.04963978 0.012015534 -0.097909264 -0.06760872 -0.2404273
-0.15330517 0.035961423 -0.037381668 0.15427405 -0.20281056 -0.027336339 -0.24010852 -0.009008427
0.047845624 -0.031719293 -0.19513144 0.18913347 0.015317935 0.18647492 -0.12414274 0.12486322
0.05842322 -0.14062099 0.1014182 -0.088188015 -0.18274964 -0.1294783 -0.011368109 0.031371042
-0.047765844 0.103612326 0.024465453 -0.112282366 -0.11227159 -0.117879584 -0.2492429 -0.22688463
-0.013601238 0.071257845 0.04485919 0.08396826 -0.059092857 -0.1156961 0.009589951 -0.08107285
-0.18015707 -0.06416919 -0.019989243 0.08572092 0.15476608 -0.0024752303 0.01285354 0.0030841636
0.13000679 -0.15731473 -0.2963656 0.1070986 0.12929668 -0.31047815 -0.0956969 0.06925815
-0.003249332 0.008022735 -0.1678468 0.13604927 -0.14065894 0.025404504 0.15030156 -0.09260445
-0.046072878 0.065822415 -0.13352238 -0.13166644 0.08111064 -0.117171496 0.053222187 -0.06574619
-0.08376921 -0.06291391 0.033821385 -0.24586914 0.02415306 0.09689168 -0.14368817 -0.04019644
-0.12605171 -0.11622292 -0.012729513 -0.039710496 0.03361127 0.09227405 -0.22586992 0.08804287
-0.03858215 -0.025498377 -0.029271614 -0.3854399 -0.19692382 -0.07463989 0.0291231 0.12615949
-0.043721434 -0.11727537 -0.2701172 -0.18681301 -0.1322902 -0.1394255 0.30427814 -0.09564568
0.08815394 0.08575623 -0.0047932775 0.2819957 -0.018511213 -0.08302482 -0.110925935 0.14514092
0.08359227 -0.34839866 -0.10355599 -0.12066638 0.010017102 -0.2837969 -0.10777551 -0.106971
-0.21063833 0.14406517 -0.046163432 -0.100507 0.1074915 0.10655961 0.009828942 0.074095264
0.04277853 -0.13077053 -0.16345167 -0.08729272 -0.04407587 0.023191497 -0.080988176 0.09934816
-0.05053766 0.09221946 0.15326393 0.064822495 0.20758627 0.005579703 -0.1250097 0.15035515
-0.07910508 0.03305258 0.022379668 0.12092903 -0.036983076 0.08334229 -0.0436039 -0.06420288
0.20065963 -0.1046204 0.009930899 -0.1018422 -0.1159265 -0.024513364 -0.13883562 -0.07122758
0.052813105 -0.15984067 0.10912653 0.044795264 -0.10547824 -0.058217138 0.089253314 -0.09278638
0.20941725 -0.03688231 0.042993568 0.028236505 -0.005120911 0.15633598 -0.06784216 0.19493788
-0.039925873 -0.21473867 -0.03230688 -0.16540883 -0.05766574 0.15885082 -0.08922209 0.20836471
-0.06305922 -0.0037393207 0.19914365 0.103515044 -0.09592146 -0.15750913 0.113326974 0.15596087
0.05829594 -0.09278183 0.008882077 0.14579238 0.0028000036 -0.028182171 0.17861238 0.018726178
00000000: 7750 1ebe b26d 95bd 99c9 2bbd aa37 15bc
00000010: e65a 593e fb90 e63d dd3d 043e 89dc 8fbe
00000020: 1cde 36be e019 4cbd 9b46 15be bac4 6f3d
00000030: 5cbb 033e 4853 85bd ffeb 0c3e b96b 513d
00000040: 76f2 24bc a5b3 12bd 209f c6bd 348a 10be
00000050: 9e49 9abd ff69 51bc 8d33 27be 3ddb 8dbd
00000060: 5af7 3bbe 4fa5 e23d 3a07 033e 8624 0abd
00000070: ec66 933d d5f1 e83d c3dd 2bbe c1e2 9c3d
00000080: 640e 7dbe 52d1 92bd 6510 52be 3eb8 08bd
00000090: f0cb 1a3d ad5b 84bc 3e95 88bd 0fc5 e23b
000000a0: a785 cfbd 2109 1e3e cf8d 933e 671e 933d
000000b0: 6241 44be 6eb1 dabd caee 17bb 6870 bebd
000000c0: 2248 8cbc 9d43 01bd f577 f7bd 1553 4bbd
000000d0: cddc 443c a784 c8bd 7176 8abd 9332 76be
000000e0: 08fc 1cbe 494c 133d 851d 19bd 04fa 1d3e
000000f0: 92ad 4fbe 75f0 dfbc 02df 75be 1598 13bc
00000100: c6f9 433d 17ec 01bd 89d0 47be 34ac 413e
00000110: 13f8 7a3c 48f3 3e3e 8d3e febd 4ab8 ff3d
00000120: 304d 6f3d f3fe 0fbe 58b4 cf3d eb9b b4bd
00000130: b922 3bbe f695 04be 4e41 3abc ec7e 003d
00000140: 1ea6 43bd b332 d43d c66b c83c 4cf4 e5bd
00000150: a6ee e5bd da6a f1bd 8839 7fbe 7254 68be
00000160: bad7 5ebc a2ef 913d 45be 373d 8df7 ab3d
00000170: 5a0b 72bd 14f2 ecbd 2b1f 1d3c 8609 a6bd
00000180: 187b 38be 236b 83bd 7bc0 a3bc 738e af3d
00000190: 007b 1e3e 7937 22bb a797 523c ae1f 4a3b
000001a0: 8020 053e 1d17 21be 3bbd 97be 8356 db3d
000001b0: 5966 043e fef6 9ebe bcfc c3bd 38d7 8d3d
000001c0: bff2 54bb ca71 033c 08e0 2bbe 8050 0b3e
000001d0: e608 10be 1b1d d03c a7e8 193e 67a7 bdbd
000001e0: eab6 3cbd e7cd 863d 17ba 08be 91d3 06be
000001f0: 561d a63d 9cf7 efbd 82ff 593d f0a5 86bd
00000200: 318f abbd 02d9 80bd 4b88 0a3d 1fc5 7bbe
00000210: a3dc c53c 256f c63d fe22 13be 06a5 24bd
00000220: b313 01be 4806 eebd 738f 50bc 79a7 22bd
00000230: f9ab 093d 2dfa bc3d 724a 67be d24f b43d
00000240: 5108 1ebd f9e1 d0bc 06cb efbc 6158 c5be
00000250: 66a6 49be ccdc 98bd 9193 ee3c f42f 013e
00000260: 3f15 33bd 122e f0bd cd4c 8abe e94b 3fbe
00000270: 1577 07be 8fc5 0ebe 58ca 9b3e e2e1 c3bd
00000280: 0e8a b43d f6a0 af3d ed10 9dbb be61 903e
00000290: d4a4 97bc eb08 aabd 232d e3bd d29f 143e
000002a0: 6d32 ab3d 4f61 b2be 2a15 d4bd ef1f f7bd
000002b0: c51e 243c d44d 91be 68b9 dcbd 9d13 dbbd
000002c0: 93b1 57be d285 133e de15 3dbd 9dd6 cdbd
000002d0: 8124 dc3d ed3b da3d 9209 213c 42bf 973d
000002e0: 8a38 2f3d b6e8 05be e05f 27be 87c6 b2bd
000002f0: e688 34bd 18fc bd3c 21dd a5bd 0c77 cb3d
00000300: 9400 4fbd 8edd bc3d 38f1 1c3e a8c1 843d
00000310: 7f91 543e f1d5 b63b 8b02 00be b3f6 193e
00000320: d801 a2bd 2462 073d 9155 b73c a4a9 f73d
00000330: 917b 17bd 5daf aa3d 019a 32bd cd7c 83bd
00000340: b879 4d3e 3843 d6bd 36b5 223c a592 d0bd
00000350: df6a edbd 40d0 c8bc ed2a 0ebe c4df 91bd
00000360: 8e52 583d 46ad 23be bb7d df3d 3d7b 373d
00000370: fa04 d8bd 1875 6ebd 71ca b63d c906 bebd
00000380: 7a71 563e e811 17bd 061a 303d 3e50 e73c
00000390: 51cd a7bb 8a16 203e d5f0 8abd cc9d 473e
000003a0: 5089 23bd 74e4 5bbe 3854 04bd ef60 29be
000003b0: e932 6cbd caa9 223e 12ba b6bd 8f5d 553e
000003c0: 3125 81bd 640f 75bb 50ec 4b3e b2ff d33d
000003d0: 7872 c4bd 134a 21be f917 e83d 35b4 1f3e
000003e0: b9c7 6e3d 6604 bebd 2286 113c 994a 153e
000003f0: 4480 373b 4cde e6bc 2ae6 363e a467 993c

network_body.linear_encoder.seq_layers.2.bias f4 [128]
0.0038085124 0.008860145 -0.022849215 -0.019342149 0.07401382 9.041652e-05 0.0016039171 0.0328634
0.003977012 -0.007279379 0.052819908 -0.012556859 0.0010154556 -0.069371216 -0.0029036151 -0.028827447
0.024206854 -0.012947406 0.02747724 -0.031573053 -0.023485968 -0.049838327 -0.026334884 -0.044602957
0.018341858 -0.014008729 -0.016269669 0.047519 -0.01235258 -0.049368307 -0.0488698 -0.055885535
0.072269075 -0.03717797 0.0003430802 -0.03339921 0.06499594 -0.0049678604 0.028262954 0.017019734
-0.0465911 0.0059169056 -0.0014530348 0.0011482398 -0.013296921 -0.03422309 -0.008215297 -0.044086546
-0.013782443 0.052188206 -0.017691672 -0.00068845454 -0.068750635 -0.0026475575 -0.015208216 -0.012497398
0.042759225 -0.052022133 -0.02543687 -0.02572704 -0.036117416 -0.017523957 -0.02152814 -0.039151896
0.015013466 0.0025649564 -0.024021992 -0.048596628 0.0043863924 -0.02472912 0.00042572038 0.00064022135
0.007038066 0.017945565 -0.030265544 -0.025274452 0.05834282 0.014973966 0.023462795 -0.04185508
0.044328127 -0.017880563 0.018645192 0.0016811498 -0.053142067 -0.02890942 -0.025160313 -0.02777738
-0.07372064 -0.0067813885 -0.023248011 -0.041329708 -0.023733282 -0.026837595 -0.03114147 -0.014264474
-0.011227839 0.008851887 0.023161817 0.07589026 0.07297435 0.0081601115 0.010846507 -0.046206452
0.0022991651 -0.07241243 -0.035028037 0.020795925 0.042458277 0.01467557 -0.009630137 -0.03411763
0.0061443527 -0.012654762 -0.00097618107 -0.030447863 -0.046423435 -0.072384425 -0.03040909 -0.034010623
-0.0588176 0.0047369287 -0.019531896 0.06612507 -0.06808005 0.02348721 -0.027401656 0.020905212
00000000: 3c98 793b 242a 113c 472e bbbc 6d73 9ebc
00000010: 8f94 973d 009e bd38 873a d23a c69b 063d
00000020: 9851 823b db87 eebb b059 583d 49bb 4dbc
00000030: 0919 853a 7f12 8ebd 944a 3ebb 8a27 ecbc
00000040: 744d c63c 5b21 54bc f317 e13c bf52 01bd
00000050: a565 c0bc 4623 4cbd 41bc d7bc 97b1 36bd
00000060: aa41 963c de84 65bc f847 85bc 48a3 423d
00000070: 7a62 4abc 6c36 4abd b32b 48bd 3be8 64bd
00000080: cf01 943d ed47 18bd 72df b339 9ccd 08bd
00000090: 971c 853d 6fc9 a2bb b687 e73c f86c 8b3c
000000a0: 4fd6 3ebd 9ae2 c13b c273 beba 8980 963a
000000b0: 54db 59bc 832d 0cbd 7499 06bc 1894 34bd
000000c0: c1cf 61bc 4dc3 553d 20ee 90bc 6779 34ba
000000d0: 22cd 8cbd a582 2dbb e22b 79bc e3c1 4cbc
000000e0: 4c24 2f3d 2915 55bd fc60 d0bc 83c1 d2bc
000000f0: dbef 13bd 678e 8fbc c85b b0bc bd5d 20bd
00000100: 0afb 753c d418 283b c5c9 c4bc 420d 47bd
00000110: babb 8f3b b994 cabc 3933 df39 87d4 273a
00000120: 949f e63b 9402 933c 72ef f7bc 5e0c cfbc
00000130: e1f8 6e3d 5e55 753c 0c35 c03c 3b70 2bbd
00000140: 6991 353d 427a 92bc cdbd 983c 075a dc3a
00000150: 7fab 59bd 73d3 ecbc 001d cebc 638d e3bc
00000160: d9fa 96bd 6936 debb 9d72 bebc 5749 29bd
00000170: 4d6c c2bc 84da dbbc 651c ffbc 8ab5 69bc
00000180: f8f4 37bc 8107 113c dabd bd3c 5a6c 9b3d
00000190: 9373 953d fdb1 053c 8cb5 313c fa42 3dbd
000001a0: 97ad 163b f84c 94bd 8f79 0fbd 375c aa3c
000001b0: bbe8 2d3d cd71 703c b9c7 1dbc eebe 0bbd
000001c0: 9156 c93b eb55 4fbc 67e6 7fba cc6d f9bc
000001d0: 8026 3ebd 493e 94bd 7c1c f9bc b94e 0bbd
000001e0: b9ea 70bd 3d38 9b3b 5b01 a0bc 956c 873d
000001f0: 8e6d 8bbd 4068 c03c 7079 e0bc 6841 ab3c

action_model._discrete_distribution.branches.0.weight f4 [3, 128]
0.12583812 -0.05773165 0.010906648 -0.027145384 -0.009019408 0.04387709 0.034389544 -0.025091762
0.07722606 0.10041247 -0.14127089 0.0011915144 -0.05192053 -0.019947587 -0.03856203 -0.017868992
-0.04691429 0.033274796 -0.036126044 0.0015231495 0.021968164 -0.06925771 0.02471387 0.042506088
-0.027198434 -0.039871074 0.012119991 -0.069923535 0.073519476 0.10973314 0.029224206 0.106764466
-0.11027885 -0.041524976 0.016477758 -0.024519084 -0.1574453 -0.0026888847 0.046334773 0.0008973728
-0.023177499 -0.11900812 -0.053147312 -0.055417325 -0.0010147025 0.04149382 -0.008237798 0.01139374
-0.04325582 -0.02779421 0.098801605 -0.035816174 0.031055268 0.005236157 -0.03656488 0.041774955
-0.057362475 0.1047583 -0.014603599 0.105030224 -0.031471893 -0.007654154 -0.06245504 -0.022888646
-0.046496768 -0.104731135 -0.0063573173 0.045291465 -0.1252225 0.062016062 -0.020600518 -0.016652986
-0.014403974 -0.029666018 -0.038999595 0.1220427 -0.060125366 -0.039947532 0.010901984 0.012897837
-0.1688977 0.09943958 0.022635108 0.010471642 0.017097365 -0.028705256 -0.044514865 -0.08107905
0.04082043 -0.04391343 -0.03495163 -0.03382367 0.01983032 -0.06502276 -0.10049625 -0.029440178
-0.09861977 -0.033275075 -0.23805523 -0.027346717 -0.18261197 -0.051492468 -0.06836989 -0.040421937
0.03166282 -0.020290386 -0.016094927 -0.0606075 -0.107105836 -0.098863214 -0.08513049 -0.08461783
-0.07617851 -0.023906428 -0.058483474 0.033857968 -0.04101669 -0.012799499 0.060300153 -0.0006562032
0.032618593 -0.22665647 0.22227478 -0.10378427 -0.104590565 0.06870662 0.012191704 -0.13442013
-0.008158443 -0.022818558 -0.030140402 -0.2014296 -0.07079164 -0.019815343 -0.022161456 0.18258822
0.098353945 -0.06918398 0.0053389547 -0.16947474 0.0018864803 0.22040945 -0.018098677 -0.025741968
-0.048639968 0.04498402 -0.018129341 -0.06073924 -0.025314845 0.1596098 0.024248492 -0.046235394
-0.07065836 -0.025544439 -0.05148367 -0.004221102 -0.33807492 0.01116625 -0.0045145587 -0.090022385
-0.19415525 0.027682524 0.0599826 -0.062456686 0.05374381 -0.109410346 0.0049821334 -0.02270094
0.1237633 0.0067040827 -0.065351486 -0.0108556915 0.025135532 -0.19874413 0.08483668 -0.045100994
-0.055593874 0.027966453 -0.027512975 -0.037095148 0.14548403 -0.11971848 0.02626915 -0.08366392
-0.025492266 -0.3871268 -0.08028825 -0.2348722 0.02795588 -0.004605483 0.038664933 -0.015052082
-0.076121785 0.04470687 0.022267679 -0.034933288 -0.046248615 -0.06475819 0.053937286 -0.027275912
-0.0615979 0.0110375015 0.004078169 -0.286738 -4.957314e-05 -0.0004405101 0.16081718 0.0028760568
0.13228495 -0.09655056 -0.13938665 -0.09555617 -0.11184245 -0.007899024 0.05569865 0.06500373
0.034848664 0.038307108 0.017634049 -0.033716813 -0.014617345 -0.04336891 0.067768104 0.08250244
0.022906566 -0.051554136 0.101441264 0.06748183 0.05817602 -0.07434095 0.11497733 -0.008587229
-0.048478156 0.1402107 -0.060199033 -0.032725047 -0.016088989 -0.02845895 -0.07587245 -0.016717099
0.027156772 0.037699558 -0.006136244 -0.18867591 0.18177775 0.12691325 -0.004545817 -0.03233758
-0.08294607 -0.23896024 -0.33291575 -0.24468228 0.24778941 0.0068596406 -0.09923112 0.097518794
00000000: b5db 003e 0678 6cbd ccb1 323c ff5f debc
00000010: 24c6 13bc 77b8 333d 0ddc 0c3d 3d8d cdbc
00000020: b228 9e3d 0ea5 cd3d 51a9 10be 972c 9c3a
00000030: 9faa 54bd 1f69 a3bc 38f3 1dbd fe61 92bc
00000040: 3329 40bd 274b 083d e7f8 13bd 6ba4 c73a
00000050: 94f6 b33c fcd6 8dbd be74 ca3c dd1a 2e3d
00000060: 40cf debc da4f 23bd ed92 463c 1234 8fbd
00000070: 6191 963d c5bb e03d 9a67 ef3c 54a7 da3d
00000080: e1d9 e1bd 1816 2abd 5dfc 863c 3fdc c8bc
00000090: 5739 21be 0038 30bb 88c9 3d3d ab3d 6b3a
000000a0: bdde bdbc 87ba f3bd ffb0 59bd 47fd 62bd
000000b0: c4ff 84ba 6cf5 293d d4f7 06bc cfac 3a3c
000000c0: 042d 31bd afb0 e3bc 7f58 ca3d fbb3 12bd
000000d0: 9e67 fe3c 1294 ab3b 0ec5 15bd 371c 2b3d
000000e0: eaf4 6abd 858b d63d ef43 6fbc 161a d73d
000000f0: ace8 00bd b3cf fabb dbd0 7fbd f880 bbbc
00000100: 6573 3ebd 477d d6bd 0b51 d0bb 8b83 393d
00000110: 543a 00be 8e04 7e3d 6bc2 a8bc d86b 88bc
00000120: a5fe 6bbc 2606 f3bc 0abe 1fbd 86f1 f93d
00000130: 0446 76bd 06a0 23bd 3c9e 323c 7351 533c
00000140: 85f3 2cbe fba6 cb3d 436d b93c 4091 2b3c
00000150: c60f 8c3c 4927 ebbc 3855 36bd c60c a6bd
00000160: 5333 273d 92de 33bd 7129 0fbd b08a 0abd
00000170: 3273 a23c a72a 85bd fad0 cdbd 872c f1bc
00000180: 29f9 c9bd 724b 08bd c0c4 73be 3906 e0bc
00000190: a2fe 3abe c4e9 52bd 8305 8cbd 7991 25bd
000001a0: e0b0 013d 0638 a6bc 82d9 83bc 923f 78bd
000001b0: 4e5a dbbd cc78 cabd e558 aebd 1d4c adbd
000001c0: 7b03 9cbd 6ad7 c3bc 5e8c 6fbd a7ae 0a3d
000001d0: 1e01 28bd fdb4 51bc 4bfd 763d 0d05 2cba
000001e0: 139b 053d a218 68be 009c 633e d98c d4bd
000001f0: 9433 d6bd 0eb6 8c3d b6bf 473c 6ea5 09be
00000200: fdaa 05bc fced babc 01e9 f6bc 9043 4ebe
00000210: 35fb 90bd c953 a2bc f18b b5bc 68f8 3a3e
00000220: cb6d c93d 55b0 8dbd 66f2 ae3b c98a 2dbe
00000230: c643 f73a 04b3 613e ad43 94bc d2e0 d2bc
00000240: b43a 47bd 2a41 383d fc83 94bc b6c9 78bd
00000250: 1461 cfbc c070 233e c6a4 c63c 5361 3dbd
00000260: 55b5 90bd 9242 d1bc 8ae0 52bd 2c51 8abb
00000270: 2818 adbe a6f2 363c ddee 93bb a85d b8bd
00000280: a2d0 46be 76c6 e23c 51b0 753d 95d2 7fbd
00000290: 7822 5c3d 8812 e0bd 2a41 a33b 52f7 b9bc
000002a0: 9d77 fd3d ecad db3b 00d7 85bd 12dc 31bc
000002b0: 08e9 cd3c 9583 4bbe dabe ad3d d2bb 38bd
000002c0: 67b6 63bd e719 e53c e462 e1bc 15f1 17bd
000002d0: c4f9 143e f62e f5bd 6732 d73c fd57 abbd
000002e0: 28d5 d0bc 7c35 c6be 2b6e a4bd 5782 70be
000002f0: bb03 e53c 97e9 96bb 1f5f 1e3d 029d 76bc
00000300: bde5 9bbd 8d1e 373d b56a b63c 3516 0fbd
00000310: 306f 3dbd f19f 84bd 58ed 5c3d bc71 dfbc
00000320: 144e 7cbd a3d6 343c 29a2 853b 53cf 92be
00000330: c1ec 4fb8 44f4 e6b9 42ad 243e 3a7c 3c3b
00000340: b575 073e 4dbc c5bd 60bb 0ebe f4b2 c3bd
00000350: a80d e5bd e86a 01bc 4524 643d ad20 853d
00000360: 79bd 0e3d eae7 1c3d 4875 903c a41a 0abd
00000370: 977d 6fbc 99a3 31bd 01ca 8a3d 0af7 a83d
00000380: 8da6 bb3c 6e2a 53bd 70c0 cf3d ea33 8a3d
00000390: fa49 6e3d 1140 98bd 3c79 eb3d 73b1 0cbc
000003a0: 0891 46bd 6593 0f3e 4393 76bd b30a 06bd
000003b0: 0ecd 83bc be22 e9bc 0463 9bbd 4cf2 88bc
000003c0: e177 de3c da6a 1a3d 8c12 c9bb 4234 41be
000003d0: f223 3a3e 8cf5 013e 14f5 94bb 6974 04bd
000003e0: a1df a9bd feb1 74be ef73 aabe fe8d 7abe
000003f0: 82bc 7d3e d6c6 e03b af39 cbbd efb7 c73d

action_model._discrete_distribution.branches.0.bias f4 [3]
-0.023750067 -0.059909705 0.046974257
00000000: 808f c2bc e163 75bd 1468 403d

action_model._discrete_distribution.branches.1.weight f4 [2, 128]
-0.00931548 0.06088101 -0.011578164 -0.059472635 0.07784504 0.13461092 0.009402951 0.0597116
-0.038664512 -0.06583849 -0.006748447 0.113785 -0.03485535 -0.12328181 -0.023229608 0.031522702
-0.005758526 -0.15790491 0.019971197 -0.009518616 -0.013990332 -0.13378063 0.052104965 0.0113900425
-0.0076302835 0.019840376 0.011367055 0.015239753 0.1009026 -0.12734756 0.12337948 -0.0002666804
0.23235637 -0.07660164 0.062453534 -0.103750184 -0.008098417 0.011321007 -0.21229756 0.0161221
-0.068285115 -0.047048204 0.05026162 0.05874089 -0.022406245 0.016226817 -0.06471454 0.021157643
0.032105442 0.038763717 -0.013989793 0.02411953 -0.24251848 0.021981247 0.009290528 -0.008466398
0.03540829 -0.014539839 -0.008058752 -0.053331178 0.029819855 0.0023717387 0.023371449 -0.043896638
0.01260574 -0.012848316 -0.0110533405 0.027283605 -0.011641804 0.053238872 -0.004809939 0.055662744
0.004669514 -0.2058513 0.011383436 -0.027983697 0.029349927 0.05876432 -0.11906331 -0.008061223
-0.08375042 -0.02977433 0.032353822 -0.006261814 -0.008605861 -0.07034149 0.01725735 -0.036082257
0.035386994 0.0018552038 0.01158666 0.02800005 -0.2062433 -0.117236234 0.018084453 -0.1938652
0.0019044392 0.030184729 0.05151683 -0.015685955 0.08259531 -0.0021884746 -0.07646637 -0.039159503
0.044669155 -0.25974894 -0.043530162 0.0415309 0.057315763 0.07345502 0.058232386 0.018474387
-0.025960032 0.028104138 0.023069732 -0.03111131 -0.23696458 -0.11559709 0.077371866 -0.06046944
-0.094357245 0.06310061 -0.008259293 0.14434856 -0.11089516 0.089182794 0.007814002 -0.015756993
0.022451956 -0.043976486 0.0065832096 0.040703494 -0.08168675 -0.14647505 -0.03408989 -0.060974997
0.033937056 0.085996784 -0.002226095 -0.11031282 0.03214009 0.11858932 -0.000804148 -0.02544967
0.013403011 0.1706273 0.009281612 0.01711288 -0.006082067 0.14011618 -0.05172935 -0.011222192
0.024484089 -0.028038086 -0.0029852043 -0.0041643907 -0.09674343 0.11307663 -0.11004172 -0.0063797617
-0.23081544 0.065908596 -0.0547982 0.1322445 0.0024913454 -0.0018547557 0.22470683 -0.015511599
0.079756215 0.057050336 -0.055337284 -0.07812931 0.02134473 -0.0103206225 0.07765752 -0.017520135
-0.004900703 -0.029303519 0.0030966378 -0.03140627 0.23224115 0.0017243931 -0.012544918 0.0024364842
-0.035111718 0.02489356 0.0026702702 0.05798331 -0.027263634 -0.012816461 -0.039713547 0.034966122
-0.023018777 0.006654183 0.00092096016 -0.027944006 0.008125806 -0.049502112 0.0018563663 -0.054898303
-0.010235693 0.19832769 -0.012128364 0.038129844 -0.044596933 -0.040389854 0.116936654 0.004688597
0.0811984 0.054693688 -0.044374928 0.027677096 0.012181978 0.097077526 -0.017490605 0.043048862
-0.042822894 -0.0042128344 0.004593375 -0.013247624 0.20268962 0.11421447 -0.027407872 0.17690268
-0.0017152958 -0.023075862 -0.04605901 0.013007557 -0.07195622 0.00607866 0.09559431 0.043074213
-0.05519008 0.249594 0.028319722 -0.0573401 -0.050907098 -0.099297486 -0.053379446 -0.0051584197
0.009460767 -0.008189136 -0.021342792 0.039368507 0.2228814 0.11344951 -0.066708684 0.043202497
0.11596373 -0.06096467 0.014461474 -0.13928875 0.10617213 -0.07995864 -0.018197197 0.035114516
00000000: f49f 18bc 5e5e 793d 57b2 3dbc 9499 73bd
00000010: 386d 9f3d 72d7 093e d60e 1a3c 2794 743d
00000020: ae5e 1ebd 55d6 86bd 1422 ddbb 1c08 e93d
00000030: 7cc4 0ebd 2c7b fcbd 054c bebc f31d 013d
00000040: 04b2 bcbb d3b1 21be a39a a33c f8f3 1bbc
00000050: b537 65bc cafd 08be 046c 553d 4d9d 3a3c
00000060: 7507 fabb 4988 a23c e23c 3a3c 28b0 793c
00000070: 06a6 ce3d 6667 02be 61ae fc3d 3dd1 8bb9
00000080: d4ee 6d3e 52e1 9cbd 47cf 7f3d fa7a d4bd
00000090: 39af 04bc bf7b 393c 8864 59be 7f12 843c
000000a0: 11d9 8bbd 9eb5 40bd 21df 4d3d 4a9a 703d
000000b0: 4d8d b7bc 1aee 843c 0f89 84bd cb52 ad3c
000000c0: ff80 033d b4c6 1e3d 7235 65bc 5296 c53c
000000d0: c456 78be 0412 b43c 4c37 183c a6b6 0abc
000000e0: 4808 113d 8138 6ebc db08 04bc cb71 5abd
000000f0: c548 f43c 2c6f 1b3b 7b75 bf3c f6cc 33bd
00000100: 4e88 4e3c be81 52bc 1219 35bc de81 df3c
00000110: 44bd 3ebc 0111 5a3d b19c 9dbb 9efe 633d
00000120: b902 993b afca 52be 9781 3a3c 113e e5bc
00000130: 426f f03c dbb2 703d 77d7 f3bd 3813 04bc
00000140: 5785 abbd 4ce9 f3bc 7185 043d e72f cdbb
00000150: 99ff 0cbc 330f 90bd 495f 8d3c fdca 13bd
00000160: f4f1 103d 4f2a f33a f9d5 3d3c 5c60 e53c
00000170: 7231 53be 8d19 f0bd d925 943c 9984 46be
00000180: 609e f93a f745 f73c 5003 533d d57f 80bc
00000190: bb27 a93d 836c 0fbb 669a 9cbd b765 20bd
000001a0: 01f7 363d d0fd 84be af4c 32bd 4e1c 2a3d
000001b0: efc3 6a3d 966f 963d 1585 6e3d 9957 973c
000001c0: 22aa d4bc a63a e63c bcfc bc3c 25dd febc
000001d0: d8a6 72be 2bbe ecbd 2475 9e3d ceae 77bd
000001e0: 5f3e c1bd e53a 813d fc51 07bc 1cd0 133e
000001f0: 001d e3bd 78a5 b63d 4d06 003c cf14 81bc
00000200: 2aed b73c b020 34bd f7b7 d73b b5b8 263d
00000210: 624b a7bd 8efd 15be d7a1 0bbd ebc0 79bd
00000220: 9501 0b3d 151f b03d ade3 11bb b0eb e1bd
00000230: 54a5 033d f5de f23d 75cd 52ba d47b d0bc
00000240: 4d98 5b3c ecb8 2e3e e711 183c 4f30 8c3c
00000250: 134c c7bb 9e7a 0f3e 28e2 53bd 49dd 37bc
00000260: db92 c83c 21b0 e5bc 6ba3 43bb 7175 88bb
00000270: 6b21 c6bd b894 e73d 8e5d e1bd 520d d1bb
00000280: e25a 6cbe 16fb 863d 1474 60bd 1a6b 073e
00000290: d745 233b 461b f3ba 8c19 663e 5d24 7ebc
000002a0: 3a57 a33d 9dad 693d 59a9 62bd 4202 a0bd
000002b0: 25db ae3c d417 29bc e80a 9f3d 6386 8fbc
000002c0: 1496 a0bb ef0d f0bc f6f0 4a3b dca3 00bd
000002d0: a0d0 6d3e 0805 e23a 3389 4dbc 6cad 1f3b
000002e0: 4ed1 0fbd 94ed cb3c b3ff 2e3b e87f 6d3d
000002f0: fc57 dfbc 22fc 51bc acaa 22bd a338 0f3d
00000300: e091 bcbc 550b da3b 976c 713a d4ea e4bc
00000310: 1a22 053c bac2 4abd 5151 f33a 0bdd 60bd
00000320: 9cb3 27bc 6a16 4b3e 0cb6 46bc 0a2e 1c3d
00000330: 46ab 36bd d56f 25bd 7c7c ef3d cda2 993b
00000340: 594b a63d 7d06 603d 7cc2 35bd 14bb e23c
00000350: eb96 473c 95d0 c63d 7548 8fbc 0154 303d
00000360: 0f67 2fbd d10b 8abb 0684 963b 900c 59bc
00000370: de8d 4f3e 47e9 e93d 7986 e0bc fa25 353e
00000380: c7d3 e0ba 9709 bdbc 5fa8 3cbd a61d 553c
00000390: c85d 93bd 7f2f c73b f3c6 c33d 966e 303d
000003a0: fe0e 62bd 9295 7f3e c3fe e73c 74dd 6abd
000003b0: f683 50bd 7b5c cbbd 68a4 5abd f607 a9bb
000003c0: 5501 1b3c ba2b 06bc 14d7 aebc df40 213d
000003d0: 063b 643e 3758 e83d 909e 88bd 1af5 303d
000003e0: 647e ed3d 17b6 79bd d1ef 6c3c b6a1 0ebe
000003f0: c670 d93d 5bc1 a3bd 4a12 95bc 3dd4 0f3d

action_model._discrete_distribution.branches.1.bias f4 [2]
0.055208113 -0.055208087
00000000: e721 623d e021 62bd

action_model._discrete_distribution.branches.2.weight f4 [2, 128]
-0.13603498 -0.009748151 0.0046413834 -0.047389988 0.062173333 0.06633054 0.091267906 -0.11880197
-0.1440709 -0.18137373 0.03746831 0.27418062 0.07607932 -0.068318725 -6.1702194e-06 -0.004346117
0.03505131 -0.05779945 0.07424879 0.040761538 0.013850307 -0.16997582 -0.0023454437 0.029423216
0.074122526 0.0018686617 0.062702976 0.005386506 -0.0103167305 -0.08221644 -0.0026500858 -0.13310783
0.18247947 -0.049976535 -0.03247508 0.058933567 -0.036510635 0.052488703 -0.23379408 0.02575306
-0.11076939 -0.125547 0.04855589 -0.009186231 0.23432533 0.01092469 -0.06076701 0.0071064313
0.034406327 -0.108993925 0.012667944 0.06760787 -0.120766036 0.021137247 0.03141553 0.03619323
0.09517051 0.23946981 0.0075489376 0.07261811 0.03925813 0.008963176 0.0141550265 0.012110064
0.03361488 -0.0054570097 0.05353191 0.011781234 0.14027348 0.00809085 -0.0040762997 0.016686248
0.03332494 -0.20789671 -0.010656048 -0.008293995 0.0596145 0.103544265 -0.18602596 0.055867407
-0.08707224 -0.04021255 0.018958913 0.022715531 0.028165001 0.027147753 0.059212994 0.07245994
-0.031221591 0.03793452 0.004509211 -0.020116465 -0.059027832 0.122572064 -0.0038019049 -0.10275121
0.107799895 0.022775518 0.11558629 0.15981212 -0.0019995568 0.05652527 -0.0016799022 -0.033862222
0.16308819 -0.11905373 0.0046390016 0.03810302 0.064789146 0.06223381 -0.0076584127 0.03404276
0.04696529 0.008173229 0.019731743 -0.012706441 -0.1363608 -0.104071915 0.007653007 -0.10015756
-0.031508796 -0.020307198 0.14577216 0.045212906 0.07424242 0.016912727 0.18869978 -0.09637975
0.10602351 0.008835827 -0.004512851 0.07147758 -0.06342377 -0.07627994 -0.091419 0.12507907
0.15281773 0.17990135 -0.042316716 -0.27739167 -0.08061272 0.061554387 -0.01981343 0.0009897456
-0.048029155 0.046956353 -0.057339128 -0.015498979 -0.015804274 0.16251652 0.02097554 -0.030533524
-0.079506055 0.006543387 -0.031867724 -0.0032171695 0.008104125 0.081584096 0.0069905645 0.14491326
-0.16632873 0.043372236 0.038763978 -0.050306574 0.053336386 -0.046308983 0.233584 -0.034969997
0.10404778 0.12283687 -0.066541664 0.01460175 -0.22362043 -0.010829803 0.047081474 -0.006841339
-0.03998456 0.1250649 -0.026011016 -0.059049994 0.11892087 -0.026371567 -0.034618385 -0.022835828
-0.09765263 -0.2502886 0.0014487995 -0.076197766 -0.029010631 -0.017429043 0.0068229632 -0.015536834
-0.020793429 -0.0027812019 -0.07371335 -0.031976994 -0.1495942 -0.012200899 0.019581314 -0.02477195
-0.048823606 0.1950996 -0.0012324542 0.018505087 -0.06404438 -0.120692074 0.18492179 -0.06445692
0.07405112 0.05555691 -0.0063353158 -0.019751819 -0.013861248 -0.03657857 -0.05032044 -0.08192865
0.020811506 -0.023052748 -0.0069157933 0.020901022 0.06895096 -0.11772228 0.016438704 0.100434646
-0.11278065 -0.035064105 -0.12564652 -0.14762545 0.020846663 -0.029079577 0.00019302756 0.022655345
-0.15136908 0.14484671 0.0051453845 -0.029716559 -0.07185389 -0.05778664 0.032981694 -0.053609256
-0.05181027 -0.0005699133 -0.0132016335 0.021400046 0.13902548 0.09874852 -0.0005526008 0.1036895
0.027473342 0.004241604 -0.13576852 -0.0662282 -0.054720934 0.0016374451 -0.18127155 0.08511919
00000000: c14c 0bbe b5b6 1fbc bf16 983b 011c 42bd
00000010: 77a9 7e3d 4ed8 873d abea ba3d 724e f3bd
00000020: 5287 13be 09ba 39be 5f78 193d 6761 8c3e
00000030: 79cf 9b3d b0ea 8bbd c809 cfb6 df69 8ebb
00000040: f691 0f3d 1ebf 6cbd c00f 983d 92f5 263d
00000050: 66ec 623c 240e 2ebe 04b6 19bb f508 f13c
00000060: 8dcd 973d e2ed f43a 6b6a 803d 4a81 b03b
00000070: 8107 29bc 1861 a8bd 10ad 2dbb 6b4d 08be
00000080: e6db 3a3e 32b4 4cbd 9704 05bd 5364 713d
00000090: 2d8c 15bd 65fe 563d b767 6fbe 15f8 d23c
000000a0: 10db e2bd 658f 00be 8ae2 463d d881 16bc
000000b0: fbf2 6f3e 79fd 323c d4e6 78bd 11dd e83b
000000c0: a6ed 0c3d 3538 dfbd 358d 4f3c ff75 8a3d
000000d0: 2f54 f7bd 0528 ad3c 92ad 003d 5a3f 143d
000000e0: c2e8 c23d 9337 753e 145d f73b ceb8 943d
000000f0: 22cd 203d 49da 123c 7cea 673c 4a69 463c
00000100: c2af 093d b7d0 b2bb 4744 5b3d 1406 413c
00000110: daa3 0f3e 7c8f 043c 7b92 85bb 99b1 883c
00000120: bb7f 083d e0e2 54be b496 2ebc 89e3 07bc
00000130: 552e 743d 040f d43d 977d 3ebe 39d5 643d
00000140: ee52 b2bd eab5 24bd b94f 9b3c ec15 ba3c
00000150: 4aba e63c f764 de3c 5389 723d e165 943d
00000160: 6cc4 ffbc 3a61 1b3d 01c2 933b 49cb a4bc
00000170: 2bc7 71bd 1007 fb3d 6129 79bb 3a6f d2bd
00000180: 31c6 dc3d b993 ba3c 81b8 ec3d caa5 233e
00000190: ff0a 03bb 0b87 673d 2a30 dcba 1db3 0abd
000001a0: 9700 273e 71d2 f3bd c402 983b ea11 1c3d
000001b0: 2cb0 843d e1e8 7e3d 6cf3 fabb 6c70 0b3d
000001c0: ad5e 403d 02e9 053c 77a4 a13c ad2e 50bc
000001d0: 2aa2 0bbe a823 d5bd 13c6 fa3b 681f cdbd
000001e0: 5e0f 01bd 485b a6bc 4c45 153e 2b31 393d
000001f0: 690c 983d 8f8c 8a3c 843a 413e bf62 c5bd
00000200: db22 d93d 25c4 103c 8ae0 93bb d662 923d
00000210: 52e4 81bd a838 9cbd e239 bbbd ba14 003e
00000220: 407c 1c3e 0f38 383e 4b54 2dbd 4806 8ebe
00000230: 4818 a5bd 7420 7c3d c64f a2bc 5aba 813a
00000240: 38ba 44bd 4e55 403d 6fdc 6abd 6eef 7dbc
00000250: f777 81bc bb6a 263e e5d4 ab3c 7121 fabc
00000260: 12d4 a2bd e969 d63b bb87 02bd 26d7 52bb
00000270: 2ac7 043c 9015 a73d 1b11 e53b 2464 143e
00000280: 1452 2abe 16a7 313d fac6 1e3d 440e 4ebd
00000290: 4177 5a3d 7dae 3dbd a530 6f3e b33c 0fbd
000002a0: 0117 d53d e691 fb3d ff46 88bd 2e3c 6f3c
000002b0: c1fc 64be 7c6f 31bc 81d8 403d 502d e0bb
000002c0: dac6 23bd 0311 003e 0e15 d5bc 68de 71bd
000002d0: c98c f33d 2f09 d8bc 02cc 0dbd 3412 bbbc
000002e0: 1afe c7bd d425 80be a5e5 bd3a 930d 9cbd
000002f0: b4a7 edbc 5ac7 8ebc 2a93 df3b 348e 7ebc
00000300: fb56 aabc d344 36bb 06f7 96bd 4ffa 02bd
00000310: 392f 19be 48e6 47bc fe68 a03c 8bee cabc
00000320: 43fb 47bd 31c8 473e 4d8a a1ba fb97 973c
00000330: b329 83bd 682d f7bd 235c 3d3e fd01 84bd
00000340: 1da8 973d a48f 633d 7b98 cfbb 91ce a1bc
00000350: 4a1a 63bc 69d3 15bd ce1c 4ebd 35ca a7bd
00000360: e47c aa3c 1ed9 bcbc e19d e2bb 9f38 ab3c
00000370: 2936 8d3d 6118 f1bd 76aa 863c aeb0 cd3d
00000380: 8bf9 e6bd 619f 0fbd 7ba9 00be 202b 17be
00000390: 9fc6 aa3c 4b38 eebc 7167 4a39 b497 b93c
000003a0: 7f00 1bbe b252 143e 9d9a a83b 2470 f3bc
000003b0: 2228 93bd afb1 6cbd d017 073d 6195 5bbd
000003c0: 0137 54bd 3c66 15ba aa4b 58bc 264f af3c
000003d0: b25c 0e3e aa3c ca3d 69dc 10ba 295b d43d
000003e0: c60f e13c 27fd 8a3b e706 0bbe a7a2 87bd
000003f0: 0f23 60bd 8a9f d63a 409f 39be f852 ae3d

action_model._discrete_distribution.branches.2.bias f4 [2]
0.06261405 -0.06261405
00000000: cc3b 803d cc3b 80bd

action_model._discrete_distribution.branches.3.weight f4 [2, 128]
-0.09207515 0.14125943 -0.04497124 0.12126966 -0.008362026 0.023943208 -0.19137777 -0.18384622
-0.12996562 -0.14171255 -0.00046492362 0.10027361 -0.05629186 -0.09124371 0.09395187 -0.028988067
-0.03782055 -0.1471261 -0.016182493 -0.06064083 -0.0016623884 -0.010870734 0.02845959 -0.043867555
0.027137907 -0.07860055 0.098955795 -0.0660854 -0.12050675 0.05008321 -0.051175985 -0.113978736
-0.052696913 -0.09557931 -0.24491997 -0.006177545 -0.010363276 -0.0037266552 0.03751546 -0.08140423
-0.10271195 -0.12133113 0.05519302 0.004313144 0.10901494 -0.0046032704 0.1383833 0.06583957
0.0023634327 -0.2413124 0.040982585 -0.062140808 -0.0287119 -0.01656913 0.028762765 0.029385116
-0.03494051 0.121880285 -0.038506307 -0.047610663 0.004910834 -0.07988397 0.029953288 -0.09562083
-0.014656789 -0.114656694 0.013714667 -0.11674798 -0.03951919 0.022935417 0.033913724 0.097240716
-0.08181534 0.09209436 0.03141664 -0.12932344 -0.030528074 -0.014561307 -0.14090994 0.024039656
0.02563906 -0.14782573 -0.022405349 -0.032121994 0.055922385 -0.024032433 0.04180883 0.050025605
-0.059553925 0.065422066 -0.0707345 -0.11246675 0.07023577 -0.0902407 -0.020009603 0.05740372
0.027429625 -0.0261165 0.03255583 -0.036052022 -0.19012217 -0.0010689449 -0.1702917 -0.10178933
0.099901825 -0.005591927 -0.029411538 -0.011989707 -0.034561954 0.03771436 -0.053616773 0.08422285
0.023538696 0.0032958537 -0.021584906 -0.12584096 -0.05991182 -0.048418872 0.025332052 -0.08808554
-0.020678217 -0.003804044 -0.07277487 -0.030170897 -0.123728946 0.14275093 0.080873184 0.018055156
0.09262488 -0.15124628 0.028027032 -0.13622944 -0.005250726 -0.0036679446 0.17945766 0.18510687
0.13233656 0.14555056 0.015649809 -0.10553742 0.061064564 0.061085127 -0.07573957 0.03137006
0.02486531 0.13194038 0.026581151 0.052563146 -0.02520374 0.029455839 -0.020652771 0.035705183
-0.036941454 0.07209407 -0.09711318 0.07680163 0.08413498 -0.047985643 0.048309598 0.1271028
0.060428996 0.115407676 0.25341997 -0.0036457651 0.0021165689 -0.006188051 -0.027298342 0.109688506
0.09567128 0.125868 -0.041694414 0.018626565 -0.0997743 -0.0005695966 -0.10963767 -0.06764326
0.0077993446 0.23729914 -0.06659113 0.07165591 0.026141148 0.019817227 -0.034270823 -0.031509228
0.02714171 -0.12147358 0.030354088 0.05966009 -0.02240064 0.07336549 -0.015701374 0.083015196
0.0052598375 0.11844305 -0.022922307 0.12885264 0.04541081 -0.022918312 -0.04576465 -0.109652594
0.08341551 -0.08669364 -0.03137103 0.14101078 0.017142959 0.022604601 0.1679319 -0.034115028
-0.024224782 0.14107147 0.014970531 0.041275986 -0.039277315 0.029147726 -0.04220558 -0.07747233
0.09553833 -0.09295092 0.07271505 0.10809974 -0.059457246 0.10709659 0.02083533 -0.04660581
-0.040274058 0.030980365 -0.03158123 0.061954405 0.18054268 0.0048684473 0.16272736 0.104825884
-0.098054305 0.0027996963 0.011162148 0.01619714 0.038596373 -0.044183888 0.064307325 -0.089916736
-0.021239972 -0.033455927 0.014524349 0.09558928 0.06785316 0.06838297 -0.029471304 0.08607603
0.0010970485 0.020803818 0.067035444 0.038506646 0.12550375 -0.15883744 -0.10410063 0.0045428057
00000000: e591 bcbd 50a6 103e c333 38bd 3a5c f83d
00000010: e100 09bc 8c24 c43c 89f8 43be 2f42 3cbe
00000020: b515 05be 181d 11be fec0 f3b9 405c cd3d
00000030: 4b92 66bd fbdd babd d769 c03d 6278 edbc
00000040: b9e9 1abd 39a8 16be 2691 84bc 8562 78bd
00000050: 80e4 d9ba 2a1b 32bc 1624 e93c 77ae 33bd
00000060: 5150 de3c 53f9 a0bd 56a9 ca3d c857 87bd
00000070: 3ecc f6bd 0d24 4d3d e99d 51bd af6d e9bd
00000080: b8d8 57bd 16bf c3bd 4dcc 7abe 016d cabb
00000090: bbca 29bc e63a 74bb d0a9 193d 43b7 a6bd
000000a0: a55a d2bd 757c f8bd 1312 623d 4655 8d3b
000000b0: 3a43 df3d 08d7 96bb 5ab4 0d3e e5d6 863d
000000c0: d2e3 1a3b 991a 77be 5bdd 273d 5c87 7ebd
000000d0: 3835 ebbc fcbb 87bc e49f eb3c 0eb9 f03c
000000e0: c81d 0fbd 5f9c f93d cab8 1dbd 6603 43bd
000000f0: 10eb a03b 359a a3bd 9960 f53c dbd4 c3bd
00000100: 0723 70bc 21d1 eabd 7cb3 603c 9119 efbd
00000110: e0de 21bd 0ee3 bb3c 1ee9 0a3d 2426 c73d
00000120: cd8e a7bd f89b bc3d bcae 003d 5d6d 04be
00000130: 0316 fabc 8c92 6ebc b24a 10be d0ee c43c
00000140: 0209 d23c a15f 17be 6c8b b7bc 5a92 03bd
00000150: df0e 653d aadf c4bc bc3f 2b3d a6e7 4c3d
00000160: d1ee 73bd 01fc 853d 40dd 90bd f854 e6bd
00000170: c5d7 8f3d 1ed0 b8bd 2eeb a3bc 2a20 6b3d
00000180: 18b4 e03c 45f2 d5bc 4359 053d 49ab 13bd
00000190: 63af 42be d71b 8cba f360 2ebe ed76 d0bd
000001a0: 5499 cc3d 7c3c b7bb 77f0 f0bc 7a70 44bc
000001b0: d690 0dbd 5f7a 1a3d 439d 5bbd 087d ac3d
000001c0: 39d4 c03c 40ff 573b d4d2 b0bc 74dc 00be
000001d0: 1966 75bd de52 46bd 2a85 cf3c 3166 b4bd
000001e0: 5d65 a9bc 454d 79bb fe0a 95bd f528 f7bc
000001f0: 9a65 fdbd 4d2d 123e d7a0 a53d 68e8 933c
00000200: 1db2 bd3d 4ee0 1abe f298 e53c bb7f 0bbe
00000210: 480e acbb e661 70bb c0c3 373e a88c 3d3e
00000220: 3c83 073e 350b 153e 0734 803c 0124 d8bd
00000230: d61e 7a3d 6634 7a3d 591d 9bbd e47d 003d
00000240: 56b2 cb3c 611b 073e b7c0 d93c 744c 573d
00000250: 1378 cebc 5f4d f13c 0030 a9bc 993f 123d
00000260: ec4f 17bd 0ea6 933d 46e3 c6bd 2c4a 9d3d
00000270: f64e ac3d 988c 44bd 49e0 453d 3d27 023e
00000280: 6584 773d dc5a ec3d 43c0 813e caed 6ebb
00000290: 22b6 0a3b 22c5 cabb c6a0 dfbc 5ea4 e03d
000002a0: 4eef c33d 8ae3 003e c3c7 2abd bd96 983c
000002b0: 7856 ccbd fb50 15ba b789 e0bd 8d88 8abd
000002c0: a591 ff3b 8cfe 723e ee60 88bd 55c0 923d
000002d0: f625 d63c bd57 a23c 905f 0cbd d20f 01bd
000002e0: 4b58 de3c 24c7 f8bd 23a9 f83c 235e 743d
000002f0: 8c81 b7bc a540 963d 2ba0 80bc df03 aa3d
00000300: b75a ac3b 4592 f23d 90c7 bbbc f2f1 033e
00000310: af00 3a3d 2fbf bbbc b773 3bbd 8a91 e0bd
00000320: c0d5 aa3d 6f8c b1bd e97e 00bd 2165 103e
00000330: 646f 8c3c 492d b93c 57f6 2b3e 33bc 0bbd
00000340: 0d73 c6bc 0a75 103e f546 753c 0211 293d
00000350: 40e1 20bd 36c7 ee3c c2df 2cbd d0a9 9ebd
00000360: 9aa9 c33d 0d5d bebd a1eb 943d 6663 dd3d
00000370: 7189 73bd 7555 db3d dbae aa3c bce5 3ebd
00000380: 69f6 24bd 89ca fd3c 525b 01bd e7c3 7d3d
00000390: 2ee0 383e 7f87 9f3b 00a2 263e f4ae d63d
000003a0: b2d0 c8bd 1c7b 373b 71e1 363c ddaf 843c
000003b0: 3b17 1e3d 2afa 34bd 8fb3 833d 4426 b8bd
000003c0: 73ff adbc 1509 09bd 89f7 6d3c 50c4 c33d
000003d0: 99f6 8a3d 5f0c 8c3d ce6d f1bc a148 b03d
000003e0: d7ca 8f3a c56c aa3c e149 893d 25b9 1d3d
000003f0: 0e84 003e 48a6 22be b632 d5bd d1db 943b

action_model._discrete_distribution.branches.3.bias f4 [2]
0.05124052 -0.051240567
00000000: 94e1 513d a1e1 51bd
