results/Imitation/Dark Knight Behavior/Dark Knight Behavior-999819.onnx (onnx, 81950 bytes, 14 tensors)

network_body.observation_encoder.processors.0.normalizer.running_mean f4 [11]
4.8695674 -3.0468237 13.423935 12.944808 48.67619 0.086957686 0.07896622 0.46808222
0.08656152 0.13002536 0.39823067
00000000: 7fd3 9b40 29ff 42c0 70c8 5641 ef1d 4f41
00000010: 6bb4 4242 df16 b23d 0bb9 a13d 79a8 ef3e
00000020: 2b47 b13d 5e25 053e e4e4 cb3e

network_body.linear_encoder.seq_layers.0.weight f4 [128, 11]
0.09352799 0.23104769 -0.15260802 0.34807655 0.21378006 -0.05305271 -0.36643583 0.0045057577
-0.2509478 -0.21518633 0.51772934 -0.15058173 0.008622414 0.735473 -0.06971446 0.15356477
0.32111907 -0.08123205 0.15444194 0.07648527 -0.44127542 -0.26711017 0.3076652 -0.016267546
-0.1660009 0.2706084 0.12651232 0.02201297 0.010282707 -0.43878722 -0.24843836 0.45162633
0.04335721 -0.36734417 -0.39639324 0.3373674 0.16801712 -0.1570805 0.12575284 -0.44475156
-0.30015388 0.30870888 -0.23746097 0.31567183 -0.44998768 0.075681776 0.133951 -0.17902085
-0.8321239 0.45260456 0.7312729 -0.17741701 -0.23442358 -0.09788344 -0.28559095 -0.4442875
0.18802425 -0.2781861 0.4158621 0.69168395 0.25327113 -0.10456198 -0.18286017 0.34144637
-0.34976524 -0.12760177 0.14415725 -0.1991188 -0.16132887 0.7751487 0.22133705 -0.48238146
-0.07375819 0.49720633 -0.29516602 0.09355102 0.38048348 -0.06509031 0.08171381 0.041084375
0.29004815 0.39315704 0.26108593 -0.076378286 -0.40670094 -0.34917152 -0.15926172 0.36448765
0.30926973 0.4524171 0.026725879 0.079752706 -0.5930762 -0.17689456 -0.26492253 0.4336417
-0.3947748 0.16147803 -5.5505854e-05 -0.30502376 -0.27108693 0.59839606 -0.34761846 -0.35942072
0.22874685 -0.14618534 -0.2119632 0.430165 0.54752195 0.05807692 0.704637 0.49553296
0.23295094 -0.36476526 0.38820165 -0.5949495 -0.1392495 0.26194245 -0.042942174 -0.7670677
0.1459911 -0.29510203 -0.120547734 0.051370457 -0.20280331 -0.022391684 -0.42598268 -0.06771036
0.10410346 0.41962337 0.028192107 0.24585442 -0.17167382 0.18164793 -0.3163171 0.3470288
0.29445598 0.12686631 -0.13320659 -0.08676531 0.17658706 -0.11686477 0.13949041 0.014424698
-0.61323863 -0.43440297 -0.1499198 -0.5967526 0.6463851 -0.4823906 0.123542264 0.065273404
-0.07074556 -0.18647066 0.052760195 0.26771694 0.022700164 -0.33623317 -0.8857739 0.55654913
0.20896025 -0.5771791 0.25312093 0.4926154 0.41963747 0.16057934 -0.3196491 -0.27788687
0.048771128 0.112606384 0.10353551 0.37035552 0.52745587 0.34785202 0.083171785 -0.41818434
0.023948574 0.18730775 -0.54500085 0.14618759 0.45278788 0.15180287 0.31762972 0.39393094
-0.14916694 0.15270682 0.31167415 -0.1154129 -0.4467545 0.368137 0.483729 0.18310969
0.26841572 -0.51159567 -0.5647884 -0.47891566 -0.016027167 -0.2856082 -0.2023787 0.32900384
0.07952704 -0.6972871 -0.39964554 0.20437849 0.047050763 0.16196671 -0.5237166 0.18879993
-0.15700203 0.4172437 -0.48077434 0.58039314 0.33329698 -0.44550195 0.08894864 0.036568385
-0.4088033 -0.10425104 0.20483477 -0.09239844 -0.1737808 0.5008773 0.18964574 -0.12124913
-0.10493681 -0.06399845 0.48248038 0.039081085 -0.12358847 -0.93705547 0.62012 0.16071045
0.6500242 -0.08634331 0.10226652 -0.17880933 -0.12483533 0.33181775 0.088701986 0.2778356
-0.61973 0.40876698 0.6205811 -0.44949207 -0.065449744 -0.16812739 -0.0035077622 0.10307589
-0.2265147 -0.31884617 0.06314993 0.47876346 -0.2278587 -0.10053771 -0.48058444 0.2051811
00000000: 9a8b bf3d c497 6c3e 4745 1cbe 1737 b23e
00000010: 29e9 5a3e cc4d 59bd 7a9d bbbe 09a5 933b
00000020: 3b7c 80be ce59 5cbe e989 043f 1932 1abe
00000030: 0745 0d3c f547 3c3f 74c6 8ebd 1540 1d3e
00000040: b869 a43e fd5c a6bd 0726 1e3e 4fa4 9c3d
00000050: daee e1be aac2 88be 4b86 9d3e 8443 85bc
00000060: 24fc 29be 2f8d 8a3e 728c 013e 8b54 b43c
00000070: cd78 283c b8a8 e0be a066 7ebe 913b e73e
00000080: 5497 313d 8914 bcbe 0ef4 cabe 6bbb ac3e
00000090: ae0c 2c3e b6d9 20be 5ac5 003e 7ab6 e3be
000000a0: c5ad 99be 170f 9e3e f828 73be bd9f a13e
000000b0: c964 e6be 0cff 9a3d 732a 093e 3e51 37be
000000c0: 1206 55bf c9bb e73e b334 3b3f ceac 35be
000000d0: bc0c 70be 1d77 c8bd fa38 92be a779 e3be
000000e0: 6e89 403e 696e 8ebe e1eb d43e 3312 313f
000000f0: c1ac 813e 9724 d6bd b23f 3bbe 0fd2 ae3e
00000100: 6e14 b3be 0aaa 02be f59d 133e cce5 4bbe
00000110: 6533 25be 2570 463f 2ea6 623e b4fa f6be
00000120: 890e 97bd d491 fe3e 0020 97be ad97 bf3d
00000130: bbce c23e 124e 85bd 9259 a73d 1748 283d
00000140: 3181 943e e14b c93e 0ead 853e 386c 9cbd
00000150: 1b3b d0be 9cc6 b2be 8115 23be 209e ba3e
00000160: 9a58 9e3e 37a3 e73e 3bf0 da3c 6355 a33d
00000170: d8d3 17bf d923 35be eda3 87be 4906 de3e
00000180: ec1f cabe 7f5a 253e f5ce 68b8 132c 9cbe
00000190: e8cb 8abe 7c30 193f 0cfb b1be fe05 b8be
000001a0: 9d3c 6a3e 9cb1 15be e20c 59be 963e dc3e
000001b0: 662a 0c3f 11e2 6d3d 1763 343f 7fb6 fd3e
000001c0: b18a 6e3e 83c2 babe 5ec2 c63e 9c4e 18bf
000001d0: 6c97 0ebe 521d 863e 22e4 2fbd 8c5e 44bf
000001e0: b17e 153e 9d17 97be bbe1 f6bd d469 523d
000001f0: acab 4fbe c46e b7bc 671a dabe bbab 8abd
00000200: 3234 d53d e0d8 d63e 22f3 e63c 43c1 7b3e
00000210: 43cb 2fbe ea01 3a3e 51f4 a1be c2ad b13e
00000220: efc2 963e 3ee9 013e 4f67 08be 03b2 b1bd
00000230: 3dd3 343e cc56 efbd 93d6 0e3e 9255 6c3c
00000240: 35fd 1cbf 116a debe 9384 19be c7c4 18bf
00000250: 7e79 253f e7fb f6be ba03 fd3d 10ae 853d
00000260: 0ce3 90bd 2af2 3ebe 131b 583d 3212 893e
00000270: b2f5 b93c c126 acbe 14c2 62bf 017a 0e3f
00000280: adf9 553e 02c2 13bf 1199 813e 1638 fc3e
00000290: b9da d63e e96e 243e 0ca9 a3be 3047 8ebe
000002a0: 3cc4 473d 2d9e e63d 6d0a d43d 3d9f bd3e
000002b0: 5907 073f a919 b23e f855 aa3d 421c d6be
000002c0: cd2f c43c 9acd 3f3e 2d85 0bbf 33b2 153e
000002d0: d0d3 e73e 3672 1b3e 5da0 a23e 51b1 c93e
000002e0: 38bf 18be 2d5f 1c3e c193 9f3e 995d ecbd
000002f0: 01bd e4be 747c bc3e 54ab f73e 1b81 3b3e
00000300: c96d 893e eff7 02bf f995 10bf 6f34 f5be
00000310: 684b 83bc 3d3b 92be 5d3c 4fbe 3173 a83e
00000320: 13df a23d 6881 32bf 579e ccbe 9848 513e
00000330: 4db8 403d 9ada 253e 4b12 06bf c554 413e
00000340: 24c5 20be f7a0 d53e 0e28 f6be a594 143f
00000350: e7a5 aa3e d518 e4be b42a b63d bbc8 153d
00000360: ab4e d1be 9281 d5bd 35c0 513e 653b bdbd
00000370: 98f3 31be 7f39 003f 7e32 423e 7751 f8bd
00000380: 1ce9 d6bd 9f11 83bd ab07 f73e 7d13 203d
00000390: f41b fdbd dee2 6fbf 2fc0 1e3f 4891 243e
000003a0: fc67 263f c3d4 b0bd 1c71 d13d cb19 37be
000003b0: aaa9 ffbd 04e4 a93e 63a9 b53d 7840 8e3e
000003c0: a0a6 1ebf e849 d13e 67de 1e3f d323 e6be
000003d0: 840a 86bd 9629 2cbe 7ce2 65bb 7419 d33d
000003e0: 78f3 67be ce3f a3be c054 813d 7c20 f53e
000003f0: cb53 69be b7e6 cdbd 2a0f f6be ff1a 523e

network_body.linear_encoder.seq_layers.0.bias f4 [128]
-0.0040985765 0.026901048 -0.082483426 0.0243257 -0.021245722 -0.101614065 0.079374075 -0.02763118
0.0030701344 0.028980175 0.031687927 -0.09049335 -0.10264784 0.07688609 0.07061511 0.024205038
0.03461393 -0.15914616 0.124331035 0.028604917 0.054267887 0.033897728 -0.027007721 -0.1428708
0.004670365 -0.02186181 0.19444355 0.045949273 0.08399302 0.01788668 0.03663627 -0.013294223
0.15537588 0.0011230899 0.08173363 -0.0081599 -0.059783418 -0.004458632 0.08481409 -0.11202446
0.012182337 0.060040828 0.071750954 0.06469039 0.05883468 -0.0016770936 -0.018252758 -0.10075326
-0.017127622 -0.030583987 -0.14434053 0.05387878 0.068672225 -0.07406943 0.06474409 -0.070983075
-0.032147966 0.113350384 0.17366228 0.069083504 0.03684896 -0.036390785 0.032709062 -0.0031217474
0.015360335 0.09645091 -0.054609053 0.08793882 -0.0092739975 0.059806947 0.05254368 -0.021891579
-0.030087374 -0.0657893 0.044665005 0.11662425 0.08373483 0.062267035 0.01631056 -0.017142244
-0.03788287 -0.02131756 -0.029299226 0.053020246 0.023326641 0.037328392 0.022590432 0.072373696
0.2255719 -0.02422581 0.028717654 0.06330547 -0.024430249 -0.00057476584 0.1433716 -0.01292367
0.0062396345 -0.031737633 -0.019130807 -0.052794587 -0.02887339 -0.13393563 0.05445365 0.09795185
0.07701506 0.11693543 0.020927962 -0.016747149 -0.03934227 0.057062067 0.06820243 -0.061814826
0.01208355 0.006750402 -0.050560314 -0.10610193 0.052151967 0.043058097 -0.033774927 -0.03140851
-0.04904911 0.07873866 0.007522216 0.021452935 -0.13176534 0.22242127 -0.00889201 0.044985384
00000000: 5a4d 86bb 965f dc3c 12ed a8bd b146 c73c
00000010: 820b aebc 091b d0bd e08e a23d c95a e2bc
00000020: 4f34 493b d567 ed3c 33cb 013d 9454 b9bd
00000030: 0839 d2bd 7476 9d3d a89e 903d a549 c63c
00000040: 56c7 0d3d 36f7 22be 45a1 fe3d dc54 ea3c
00000050: 0148 5e3d 58d8 0a3d 4c3f ddbc b94c 12be
00000060: dc09 993b 8a17 b3bc 361c 473e 4e35 3c3d
00000070: 8804 ac3d 1687 923c ea0f 163d 03d0 59bc
00000080: db1a 1f3e a534 933a f663 a73d 1ab1 05bc
00000090: 75df 74bd b719 92bb 02b3 ad3d 156d e5bd
000000a0: 6d98 473c 5fed 753d 2af2 923d 657c 843d
000000b0: a2fc 703d ecd1 dbba cf86 95bc ba57 cebd
000000c0: 3a4f 8cbc 458b fabc 01ce 13be ffaf 5c3d
000000d0: 06a4 8c3d b7b1 97bd 8d98 843d 935f 91bd
000000e0: 96ad 03bd 3f24 e83d 86d4 313e a77b 8d3d
000000f0: efee 163d 810e 15bd f0f9 053d 3b96 4cbb
00000100: eaa9 7b3c 0e88 c53d bead 5fbd 4519 b43d
00000110: f7f1 17bc 21f8 743d 0b38 573d f855 b3bc
00000120: cc79 f6bc 8abc 86bd a7f2 363d b2d8 ee3d
00000130: 2b7d ab3d b80b 7f3d b99d 853c e46d 8cbc
00000140: 112b 1bbd 2aa2 aebc ee04 f0bc c22b 593d
00000150: 8317 bf3c a8e5 183d 920f b93c a938 943d
00000160: 52fc 663e 3575 c6bc 4941 eb3c 4ca6 813d
00000170: f221 c8bc e2ab 16ba 01d0 123e cdbd 53bc
00000180: d975 cc3b 52ff 01bd 36b8 9cbc 233f 58bd
00000190: e387 ecbc 6c26 09be ca0a 5f3d fb9a c83d
000001a0: 12ba 9d3d d87b ef3d 1e71 ab3c 5131 89bc
000001b0: 5c25 21bd eab9 693d b7ad 8b3d 8b31 7dbd
000001c0: 15fa 453c 7a32 dd3b 5518 4fbd f84b d9bd
000001d0: 4d9d 553d b05d 303d 9457 0abd 36a6 00bd
000001e0: b8e7 48bd bc41 a13d ec7c f63b 11be af3c
000001f0: 7eed 06be 67c2 633e cbaf 11bc 9842 383d

network_body.linear_encoder.seq_layers.2.weight f4 [128, 128]
-0.16967505 -0.064227715 -0.09549272 -0.0012190099 0.2572688 0.11875109 0.1571482 -0.27446288
-0.21862891 -0.05814819 -0.32451123 0.043900587 0.11022517 -0.14690186 0.13659889 0.027821764
0.045393262 0.029354092 -0.06389642 -0.26671815 -0.06577417 -0.1587034 -0.19065782 -0.02299179
-0.17869188 0.06138202 0.057967782 -0.079847254 -0.10645211 0.0032918036 -0.15005788 0.102642745
-0.37682357 -0.15135092 -0.290258 -0.08917972 0.024280535 -0.04585736 -0.08331911 0.020147987
-0.11016683 0.20651756 0.2933494 0.048045386 -0.14029133 -0.15177594 -0.0771354 -0.14975649
-0.08154983 0.016305218 -0.07343226 -0.22410105 -0.1000222 -0.34050322 -0.05291132 -0.22526442
-0.2578819 -0.115060285 -0.16685611 0.1645112 -0.16343288 -0.10534812 -0.2686889 0.0016403488
0.08096733 -0.029950924 -0.14304867 0.1504657 0.07128935 0.15770654 -0.030030334 0.104624026
0.032325145 -0.22914614 0.100712106 -0.2067006 -0.49082306 -0.21691173 -0.08962053 0.039233577
-0.08608494 0.1336587 0.05507282 -0.11846224 -0.25681174 -0.19128558 -0.21320583 -0.4235308
-0.0041585956 -0.008586651 0.14389248 0.08929102 -0.11537555 -0.1015243 0.024862384 -0.08956276
-0.22367242 -0.084853366 -0.009755289 0.0665094 0.08710577 -0.15856948 0.039131638 0.023474088
0.11633458 -0.15063184 -0.31425568 0.14977919 0.121404484 -0.2794001 -0.21060474 0.07721249
-0.031144086 0.08728107 -0.12927005 0.17401293 -0.24707977 -0.06948745 0.2008329 -0.09756579
-0.026054814 0.027348744 -0.1552734 -0.21544416 0.121232115 -0.19515835 0.039772145 0.07912351
-0.17045592 -0.048281204 0.049665302 -0.29178777 -0.019905059 0.0805933 -0.21154067 -0.08984665
-0.1526489 -0.1341739 0.023047995 -0.02487968 0.012620494 0.06567397 -0.28092274 0.09349679
-0.042574834 -0.053696517 -0.026494265 -0.4014652 -0.19513442 -0.093253754 0.06286239 0.13104932
-0.10441882 -0.16550651 -0.21734732 -0.25279346 -0.10857961 -0.25852874 0.38044876 -0.118993774
0.09803858 0.09335633 -0.011433319 0.35355496 0.001481786 -0.14297941 -0.124138385 0.15671399
0.073691286 -0.3892631 -0.14965524 -0.124110855 0.038483653 -0.404726 -0.19689173 -0.108065605
-0.26528427 0.14274171 -0.059144113 -0.08372297 0.12102302 0.12872514 -0.021013407 0.08378022
0.035024617 -0.098066896 -0.20763235 -0.07398635 -0.059204463 0.080205135 -0.08330392 0.1009656
-0.14429511 0.085780956 0.18042699 0.046341974 0.20288213 0.0015005856 -0.19512281 0.16830456
-0.08086107 0.04580726 0.016572732 0.13146433 0.025850315 0.09805476 -0.009888419 -0.0656164
0.22155227 -0.1312474 -0.017461175 -0.09821134 -0.15766954 -0.032973353 -0.17979588 -0.0567614
0.03712511 -0.12966532 0.08676351 0.030534025 -0.22707556 -0.080124415 0.09823569 -0.15627041
0.32941943 0.008954081 -0.0053550145 0.077339396 0.030689202 0.10040543 -0.018553779 0.217855
-0.06685691 -0.24590781 -0.034079637 -0.19485225 -0.048661217 0.22802456 -0.07355981 0.17836739
-0.021994315 -0.017399754 0.12905158 0.08162173 -0.075059175 -0.19510658 0.09807439 0.17907606
0.0847003 -0.03051818 0.030179985 0.2033886 -0.019165354 0.008002276 0.18611142 -0.011342419
00000000: 4cbf 2dbe d289 83bd b091 c3bd 2fc7 9fba
00000010: bcb8 833e c533 f33d 75eb 203e 6686 8cbe
00000020: 42e0 5fbe cc2c 6ebd 5626 a6be 1ad1 333d
00000030: bcbd e13d 716d 16be 94e0 0b3e 78ea e33c
00000040: 49ee 393d fe77 f03c 20dc 82bd 488f 88be
00000050: 9cb4 86bd 2583 22be ce3b 43be 4759 bcbc
00000060: 01fb 36be b76b 7b3d a06f 6d3d f586 a3bd
00000070: 9003 dabd 4dbb 573b c6a8 19be 5c36 d23d
00000080: 05ef c0be bcfb 1abe b29c 94be dba3 b6bd
00000090: f9e7 c63c edd4 3bbd 36a3 aabd 640d a53c
000000a0: 269f e1bd 5779 533e e431 963e 3dcb 443d
000000b0: 88a8 0fbe 276b 1bbe 2af9 9dbd c459 19be
000000c0: 9903 a7bd 8592 853c a763 96bd bf7a 65be
000000d0: 70d8 ccbd 7056 aebe 8ab9 58bd b7ab 66be
000000e0: 1909 84be baa4 ebbd 54dc 2abe a075 283e
000000f0: f35a 27be c1c0 d7bd 9791 89be f900 d73a
00000100: 33d2 a53d a45b f5bc 5a7b 12be ae13 1a3e
00000110: 2700 923d d37d 213e 2d02 f6bc 1f45 d63d
00000120: 5f67 043d 49a5 6abe 2642 ce3d 52a9 53be
00000130: 294d fbbe 1c1e 5ebe f88a b7bd 63b3 203d
00000140: 4d4d b0bd d4dd 083e 0a94 613d 559c f2bd
00000150: d47c 83be 5ee0 43be a152 5abe 07d9 d8be
00000160: d444 88bb 06af 0cbc 8d58 133e 36de b63d
00000170: 044a ecbd f9eb cfbd 33ac cb3c ae6c b7bd
00000180: 620a 65be 9ac7 adbd a6d4 1fbc 1536 883d
00000190: 8364 b23d 0a60 22be 7f48 203d bb4c c03c
000001a0: d340 ee3d 3c3f 1abe 1fe6 a0be b75f 193e
000001b0: eaa2 f83d 880d 8fbe c5a8 57be 9521 9e3d
000001c0: e221 ffbc 6bc0 b23d 5e5f 04be 7230 323e
000001d0: 7b02 7dbe 704f 8ebd 24a7 4d3e 93d0 c7bd
000001e0: e870 d5bc 790a e03c fdff 1ebe 659d 5cbe
000001f0: 8b48 f83d 97d7 47be 1ee8 223d 820b a23d
00000200: ff8b 2ebe 83c2 45bd d86d 4b3d 3565 95be
00000210: ef0f a3bc 1a0e a53d 1e9e 58be 8501 b8bd
00000220: fe4f 1cbe e264 09be 26cf bc3c 78d0 cbbc
00000230: 30c6 4e3c 1380 863d 1bd5 8fbe 3f7b bf3d
00000240: f362 2ebd e1f0 5bbd 800a d9bc d98c cdbe
00000250: 51d1 47be d3fb bebd ffbd 803d cb31 063e
00000260: 89d9 d5bd 8a7a 29be 4c90 5ebe 256e 81be
00000270: fd5e debd e15d 84be 2eca c23e 02b3 f3bd
00000280: 73c8 c83d 9b31 bf3d d152 3bbc 2805 b53e
00000290: 7d38 c23a 3269 12be 443c febd a279 203e
000002a0: 75eb 963d 7e4d c7be 393f 19be d52d febd
000002b0: 09a1 1d3d 3f38 cfbe fc9d 49be 8051 ddbd
000002c0: 57d3 87be e22a 123e 1941 72bd f376 abbd
000002d0: ebda f73d 86d0 033e 4f24 acbc f794 ab3d
000002e0: f975 0f3d 4cd7 c8bd 939d 54be 2886 97bd
000002f0: 6180 72bd 9742 a43d 3f9b aabd 0dc7 ce3d
00000300: 19c2 13be edad af3d dac1 383e 15d1 3d3d
00000310: 55c0 4f3e 4caf c43a 46ce 47be 0858 2c3e
00000320: 7d9a a5bd 65a0 3b3d 8ac3 873c 969e 063e
00000330: 0ac4 d33c efd0 c83d 0903 22bc e461 86bd
00000340: 99de 623e b865 06be bd0a 8fbc 0723 c9bd
00000350: 2074 21be 110f 07bd 691c 38be a47e 68bd
00000360: 8010 183d fcc6 04be 11b1 b13d 7e22 fa3c
00000370: 7f86 68be 4518 a4bd cb2f c93d 5a05 20be
00000380: aaa9 a83e 23b4 123c 1e79 afbb 1e64 9e3d
00000390: ec67 fb3c 5da1 cd3d 18fe 97bc 6215 5f3e
000003a0: 47ec 88bd 42cf 7bbe 1797 0bbd 5987 47be
000003b0: fc50 47bd 457f 693e 87a6 96bd f1a5 363e
000003c0: 6c2d b4bc ee89 8ebc 1926 043e 4b29 a73d
000003d0: a0b8 99bd 05ca 47be 3adb c83d b75f 373e
000003e0: 5a77 ad3d 4301 fabc 043c f73c 1a45 503e
000003f0: a900 9dbc fa1b 033c fe93 3e3e 8ed5 39bc

network_body.linear_encoder.seq_layers.2.bias f4 [128]
0.012828681 0.012789445 -0.05217777 0.00042013705 0.0796449 0.005471255 -0.043669596 -0.019997822
-0.031324983 -0.04133609 0.069782846 -0.057565786 -0.045871604 -0.12076751 -0.004050664 -0.062052134
-0.0035283081 -0.017695751 0.009991127 -0.055015523 -0.1349685 -0.11302511 -0.004786854 -0.07918201
-0.007284252 -0.022196652 -0.02305225 0.007324078 0.033429675 -0.07386496 -0.03838768 -0.10764493
0.04204988 -0.067340836 -0.03482882 -0.013143603 0.060016584 -0.017228711 0.008400921 -0.009008376
-0.032711737 0.024290591 -0.00798306 0.026359381 -0.039134983 -0.01815671 -0.00608338 -0.08968213
-0.016515033 -0.0057300623 -0.08939489 -0.017683404 -0.09562503 -0.066401824 -0.04612717 -0.06161398
0.08154904 -0.1258763 -0.041402586 -0.08849795 -0.022803182 -0.07851663 -0.052831274 -0.0735236
0.02164753 -0.073148645 -0.088539526 -0.05842867 -0.021986868 -0.09169449 -0.01690398 -0.0033562828
-0.023232164 0.015196344 -0.05793351 -0.017000714 0.070254855 0.033392955 0.012986452 -0.07051974
0.021188647 -0.030399354 -0.0010459856 -0.032782104 -0.10957873 -0.07779873 0.003534805 -0.034385122
-0.06736266 -0.009030817 -0.06696835 -0.05580727 -0.05844108 -0.06424065 -0.017512092 0.031280387
-0.018832695 0.029337788 0.033575617 0.02765463 0.059521113 0.0013620253 -0.013288873 -0.0834561
-0.04714943 -0.0843678 -0.08272142 0.0548157 0.07013655 0.056829274 -0.07585241 -0.092132315
0.009444495 -0.018017452 -0.022760019 -0.074303314 -0.12812194 -0.1044697 -0.034642465 -0.08357121
-0.09908098 0.02721731 -0.0777551 0.06420177 -0.10347505 0.0011804433 -0.049319595 0.0130334385
00000000: 632f 523c d28a 513c 5bb8 55bd d745 dc39
00000010: de1c a33d 3748 b33b e4de 32bd 79d2 a3bc
00000020: a04e 00bd 0850 29bd 4fea 8e3d 1aca 6bbd
00000030: dde3 3bbd f554 f7bd 6fbb 84bb 612a 7ebd
00000040: 303b 67bb aef6 90bc d3b1 233c f557 61bd
00000050: 2f35 0abe b579 e7bd 0bdb 9cbb 2d2a a2bd
00000060: bcb0 eebb c1d5 b5bc 12d8 bcbc d2fe ef3b
00000070: 8eed 083d 8346 97bd 663c 1dbd f274 dcbd
00000080: 7f3c 2c3d fee9 89bd aaa8 0ebd 4458 57bc
00000090: f3d3 753d 3a23 8dbc 04a4 093c de97 13bc
000000a0: befc 05bd 10fd c63c 61cb 02bc a1ef d73c
000000b0: 014c 20bd 61bd 94bc 1757 c7bb 44ab b7bd
000000c0: 894a 87bc 3fc3 bbbb ab14 b7bd c9dc 90bc
000000d0: 0ed7 c3bd aefd 87bd d8ef 3cbd f15e 7cbd
000000e0: 2f03 a73d b7e5 00be c295 29bd 6a3e b5bd
000000f0: bdcd babc 54cd a0bd 9b65 58bd 8b93 96bd
00000100: 2956 b13c f5ce 95bd 3654 b5bd e752 6fbd
00000110: ce1d b4bc 52ca bbbd 377a 8abc 15f5 5bbb
00000120: 6151 bebc 16fa 783c b04b 6dbd 1545 8bbc
00000130: c7e1 8f3d 0dc7 083d 21c5 543c a76c 90bd
00000140: d093 ad3c 1108 f9bc 7419 89ba 8746 06bd
00000150: d06a e0bd f154 9fbd 30a8 673b 6ad7 0cbd
00000160: 6ff5 89bd fef5 13bc b426 89bd 2a96 64bd
00000170: ea5f 6fbd 9a90 83bd 8575 8fbc dd1f 003d
00000180: 0647 9abc cd55 f03c 9686 093d f68b e23c
00000190: 69cc 733d fc85 b23a 93b9 59bc 08eb aabd
000001a0: c31f 41bd 06c9 acbd d969 a9bd 6d86 603d
000001b0: c0a3 8f3d d0c5 683d 8258 9bbd deaf bcbd
000001c0: 15bd 1a3c 5699 93bc 3873 babc 562c 98bd
000001d0: 6632 03be 36f4 d5bd 42e5 0dbd 6227 abbd
000001e0: f8ea cabd d6f6 de3c 113e 9fbd 387c 833d
000001f0: baea d3bd 1bb9 9a3a 5803 4abd 348a 553c

action_model._discrete_distribution.branches.0.weight f4 [3, 128]
0.17960024 -0.07763185 0.20750406 -0.046618763 -0.009132816 0.10618857 0.05095962 -0.033786435
0.14126313 0.09954727 -0.16938883 -0.034922253 -0.08280751 0.0914032 -0.04053703 0.004994178
-0.072200134 0.05627368 -0.026021201 0.033133775 0.103792064 -0.03751953 -0.012141147 0.09052853
-0.0032385115 -0.0459704 -0.0115107335 -0.047537796 0.09118631 0.113175735 0.030849827 0.23475738
-0.128298 0.080325484 0.06283567 -0.038098775 -0.14660966 0.024781238 0.086347595 0.013191078
0.102986805 -0.18734364 -0.05800579 -0.08904701 -0.0010469591 0.070481 -7.986894e-05 0.0025030135
-0.083949365 0.09139354 0.13659824 -0.06584072 0.275043 0.025654353 0.03276399 0.08200845
-0.08646223 0.12450173 -0.0035428035 0.16230233 -0.036552034 0.0767221 -0.0115132285 -0.057648517
-0.058361206 -0.03492202 0.02404874 0.14447376 -0.16364916 0.08096099 -0.056403734 -0.03140728
0.0065832953 -0.16477689 -0.03964991 0.15270875 -0.100733906 -0.07138911 -0.09116757 -0.03156023
-0.0733351 0.11676814 0.041658677 0.054467395 0.055970687 -0.10972606 -0.05400054 -0.09701741
0.12627691 -0.10676698 -0.03570235 -0.035396986 -0.04383275 -0.02311116 -0.11930276 -0.06707466
-0.16403323 -0.027472805 -0.3369743 -0.019006323 -0.17643523 -0.037246354 -0.1471957 -0.08210858
0.011173192 0.024788845 -0.017436936 -0.09209659 -0.14836147 -0.10246786 -0.14148429 -0.028936656
-0.15811418 0.015350826 -0.05826483 0.06723882 -0.03051297 -0.030868907 0.07830959 -0.07060326
0.091492355 -0.40470046 0.23554204 -0.06334223 -0.11450773 0.06511329 -0.0022333737 -0.19593413
0.077716716 -0.034745064 0.043341223 -0.2165112 -0.090740345 -0.1583175 0.0018947144 0.28682503
0.07503526 -0.057801347 0.015540633 -0.15558383 0.018203307 0.33847576 -0.030668773 0.0365871
-0.018000474 -0.20851403 -0.05910641 -0.10682396 -0.03921197 0.2742983 0.090557106 -0.09245518
-0.13089325 -0.09348376 -0.068808354 -0.03550799 -0.43042007 -0.027648946 -0.031002617 -0.05594866
-0.37182 0.055702955 0.08484074 -0.00807058 0.07589318 -0.13379857 -0.015090668 -0.062189054
0.113135636 0.0007189299 -0.0842518 0.059308905 0.053058494 -0.5926712 0.14631617 -0.043939006
-0.06241081 -0.030499376 -0.13700858 -0.0070376187 0.14518113 -0.08900515 -0.039881155 -0.10650579
-0.06460732 -0.54321325 -0.10618759 -0.40246657 0.061113864 0.034612864 0.038733214 0.045210544
-0.056923117 0.050845336 -0.14609432 0.034813352 -0.12165302 -0.06761466 0.015751766 -0.062377185
-0.09498519 -0.18854837 0.026973717 -0.6568524 -0.018033179 0.011221651 0.27378187 0.043932248
0.08454412 -0.38841325 -0.17469494 -0.11837968 -0.26429266 -0.02032914 -0.019152956 0.1195891
0.02179213 0.03352381 0.04945814 -0.06757338 -0.11024273 0.064618744 0.05931011 0.16644226
-0.07279106 -0.105954066 0.16744362 0.062199462 -0.10589866 -0.06358706 0.2567812 -0.040144797
-0.11060203 0.2229172 -0.06867548 -0.15485635 0.0062116743 -0.0122713195 -0.1305932 0.009337925
0.050001826 0.023273312 0.037481308 -0.46826217 0.35003102 0.18786487 -0.00660528 -0.14611831
-0.042514253 -0.25237703 -0.6269943 -0.36274362 0.39527008 -0.01953046 -0.17181471 0.111671984
00000000: 20e9 373e 73fd 9ebd f27b 543e 51f3 3ebd
00000010: cfa1 15bc 6579 d93d 09bb 503d a563 0abd
00000020: 48a7 103e 70df cb3d 4474 2dbe a30a 0fbd
00000030: fc96 a9bd 9a31 bb3d 280a 26bd 34a6 a33b
00000040: aadd 93bd 3b7f 663d 6a2a d5bc 48b7 073d
00000050: ef90 d43d 14ae 19bd a9eb 46bc 0667 b93d
00000060: 353d 54bb 754b 3cbd 8497 3cbc feb6 42bd
00000070: e3bf ba3d aec8 e73d c7b8 fc3c 3d64 703e
00000080: 8d60 03be b081 a43d fdaf 803d 760d 1cbd
00000090: d820 16be 0602 cb3c 02d7 b03d 641f 583c
000000a0: bfea d23d 03d7 3fbe 7b97 6dbd 475e b6bd
000000b0: 1e3a 89ba 5858 903d 507f a7b8 9909 243b
000000c0: a5ed abbd 892c bb3d 69e0 0b3e 80d7 86bd
000000d0: 70d2 8c3e 1429 d23c 8933 063d 0cf4 a73d
000000e0: 1c13 b1bd c3fa fe3d 612e 68bb 9532 263e
000000f0: 96b7 15bd 7a20 9d3d fba1 3cbc da20 6cbd
00000100: 290c 6fbd 640a 0fbd dd01 c53c eef0 133e
00000110: a593 27be e0ce a53d 9a07 67bd eca4 00bd
00000120: afb8 d73b 46bb 28be f267 22bd af5f 1c3e
00000130: 944d cebd 7434 92bd 10b6 babd 4d45 01bd
00000140: b730 96bd 2224 ef3d 4aa2 2a3d 3419 5f3d
00000150: 8541 653d 0eb8 e0bd ac2f 5dbd 10b1 c6bd
00000160: bc4e 013e a5a8 dabd a13c 12bd 6efc 10bd
00000170: f889 33bd 9e53 bdbc 0155 f4bd 705e 89bd
00000180: 54f8 27be a60e e1bc e587 acbe 26b3 9bbc
00000190: 70ab 34be a28f 18bd 78ba 16be 8b28 a8bd
000001a0: c40f 373c fa11 cb3c e8d7 8ebc 239d bcbd
000001b0: 12ec 17be abda d1bd 42e1 10be 910c edbc
000001c0: afe8 21be 0882 7b3c 1aa7 6ebd 82b4 893d
000001d0: 56f6 f9bc cae0 fcbc c760 a03d 7198 90bd
000001e0: 5860 bb3d e634 cfbe ef31 713e 92b9 81bd
000001f0: 0783 eabd 1e5a 853d cb5d 12bb f5a2 48be
00000200: f129 9f3d d750 0ebd 9186 313d 1db5 5dbe
00000210: 13d6 b9bd fc1d 22be 1158 f83a bbda 923e
00000220: 16ac 993d 1bc1 6cbd 249e 7e3c 5e51 1fbe
00000230: 1a1f 953c b24c ad3e 143d fbbc 5bdc 153d
00000240: bb75 93bc b484 55be 9019 72bd 85c6 dabd
00000250: bb9c 20bd d470 8c3e 0176 b93d 2459 bdbd
00000260: e108 06be 6a74 bfbd 65eb 8cbd d370 11bd
00000270: 0560 dcbe 0b80 e2bc 33f9 fdbc 6c2a 65bd
00000280: 315f bebe c828 643d fbc0 ad3d 773a 04bc
00000290: e26d 9b3d 7e02 09be d93e 77bc f3b9 7ebd
000002a0: a8b3 e73d 9276 3c3a 358c acbd e5ed 723d
000002b0: dd53 593d 4db9 17bf e8d3 153e 63f9 33bd
000002c0: 7aa2 7fbd d4d9 f9bc fa4b 0cbe d39b e6bb
000002d0: 5daa 143e 5548 b6bd 6c5a 23bd b51f dabd
000002e0: d850 84bd 0610 0bbf e178 d9bd 1910 cebe
000002f0: 8852 7a3d 38c6 0d3d b8a6 1e3d b12e 393d
00000300: 3728 69bd 3343 503d c099 15be 7298 0e3d
00000310: 3825 f9bd 8e79 8abd d909 813c 387f 7fbd
00000320: 9887 c2bd d312 41be fcf7 dc3c 7b27 28bf
00000330: 51ba 93bc 04db 373c 232d 8c3e 4df2 333d
00000340: 7825 ad3d 1ade c6be 3be3 32be 0c71 f2bd
00000350: 5e51 87be 4c89 a6bc a9e6 9cbc 21eb f43d
00000360: 6985 b23c 4350 093d 9e94 4a3d ea63 8abd
00000370: f1c6 e1bd d556 843d 28ef 723d d76f 2a3e
00000380: 7b13 95bd 72fe d8bd 5776 2b3e ddc4 7e3d
00000390: 66e1 d8bd ef39 82bd d378 833e df6e 24bd
000003a0: 5183 e2bd 6844 643e bba5 8cbd aa92 1ebe
000003b0: 4d8b cb3b a50d 49bc 39ba 05be 19fe 183c
000003c0: b7ce 4c3d aca7 be3c 0086 193d 0fc0 efbe
000003d0: 4437 b33e a65f 403e 1b71 d8bb 0aa0 15be
000003e0: 6d23 2ebd 9037 81be b382 20bf 88b9 b9be
000003f0: d760 ca3e 58fe 9fbc 32f0 2fbe 48b4 e43d

action_model._discrete_distribution.branches.0.bias f4 [3]
-0.10674585 -0.101098835 0.12244344
00000000: 919d dabd e80c cfbd a0c3 fa3d

action_model._discrete_distribution.branches.1.weight f4 [2, 128]
-0.060237296 0.079663284 -0.07060751 -0.07125486 0.09811054 0.29875436 0.04549892 0.033673566
0.026040839 -0.005736353 -0.03883779 0.1696715 -0.018142147 -0.17465934 0.0021548485 0.030487606
-0.019428764 -0.056849763 0.0283292 -0.010973804 -0.024602968 -0.30304316 0.15072417 -0.037561
0.015582652 0.060306285 0.03937375 0.0123291975 0.14686055 -0.14193812 0.19821462 0.016458271
0.37063468 -0.056766544 0.056431778 -0.15471564 -0.020266531 0.0023957768 -0.3056527 -0.0041203015
-0.0041483417 -0.09335166 0.07559355 0.08574748 -0.039297633 0.03949339 -0.0788371 0.024826417
0.057423316 -0.06380483 -0.054345697 0.015941484 -0.37261882 0.026309824 0.06977075 -0.03096057
0.06250185 -0.04978995 0.0022746853 -0.07119605 0.0796274 0.026431872 0.025732065 -0.077104144
0.0016219349 0.10386228 -0.04777746 -0.08218513 -0.005389243 0.13241039 0.008985545 0.09177983
-0.011864927 -0.19574831 -0.03190854 0.07852927 0.03242258 0.07745331 -0.29238373 0.026518868
-0.11170328 0.07984294 0.03365731 -0.01821922 -0.0525226 -0.034117453 0.07869633 0.0013874212
-0.028543206 -0.0027218193 0.031708937 0.0412095 -0.27385324 -0.115869395 -0.005746822 -0.2507052
0.037244048 0.033013627 0.10195364 -0.00455882 0.32194108 -0.008510193 -0.06831106 -0.036791593
0.11610578 -0.40296042 -0.05251679 0.08615568 0.08365085 0.086263806 0.12073625 0.011040598
0.0030727303 0.09818277 0.013421 -0.020896705 -0.41703716 -0.27904522 0.2008877 0.04016809
-0.22075556 0.15365882 0.01804325 0.1795898 -0.14477481 0.10502897 0.05787756 0.0040319487
0.07337355 -0.06275871 0.06561255 0.052485812 -0.101952255 -0.31061783 -0.070186116 -0.034936782
-0.030768273 0.025894828 0.029863292 -0.16619927 0.0154267615 0.1699671 -0.026188692 -0.024414347
0.027073102 0.06957177 0.0009235191 0.018568004 0.004530774 0.3093789 -0.15034866 0.03772885
0.001271015 -0.06850393 -0.03099198 -0.0012537849 -0.14270145 0.12766689 -0.18487698 -0.02310479
-0.3690939 0.04607372 -0.0487762 0.18321204 0.014659524 0.0070704613 0.31806242 0.004730825
0.0156193795 0.103353485 -0.08066894 -0.105135806 0.03823616 -0.033587314 0.091780014 -0.021188974
-0.030218875 0.07326492 0.043452572 -0.023228118 0.3623418 -0.0026044878 -0.07302509 0.024930762
-0.062205404 0.060143977 -0.0076631187 0.07584817 -0.07707114 -0.036876667 -0.04207418 0.06817366
-0.012034956 -0.11005657 0.03764518 0.08152471 0.0018732256 -0.12867345 -0.011939094 -0.0910153
0.0062986114 0.18822461 0.03116361 -0.06838279 -0.04766947 -0.059079263 0.29025716 -0.029891483
0.10915132 -0.054923188 -0.045678355 0.03963465 0.056098856 0.06085432 -0.0789296 0.005579156
0.021107381 0.00036423255 -0.015528935 -0.02645707 0.27029997 0.11284773 -0.0035765138 0.23373926
-0.037054848 -0.02590471 -0.09649562 0.0018804513 -0.3113026 0.012400371 0.087437965 0.04070637
-0.12662661 0.39280578 0.037306186 -0.10196501 -0.07724225 -0.11210619 -0.11588319 0.0022754448
-0.019571956 -0.078267835 -0.011694249 0.029154092 0.4029544 0.27689755 -0.19022438 -0.057434738
0.24236079 -0.15152265 -0.0118411 -0.17453006 0.14005202 -0.09580486 -0.0682611 0.015325557
00000000: 62bb 76bd 8126 a33d ac9a 90bd 11ee 91bd
00000010: 2eee c83d 55f6 983e 135d 3a3d 4bed 093d
00000020: 9953 d53c 04f8 bbbb 6014 1fbd 5ebe 2d3e
00000030: d79e 94bc e6d9 32be 5c38 0d3b 25c1 f93c
00000040: 1229 9fbc 4cdb 68bd a312 e83c 78cb 33bc
00000050: 2a8c c9bc 7928 9bbe 7057 1a3e 90d9 19bd
00000060: 614e 7f3c b903 773d 5f46 213d 6700 4a3c
00000070: 9d62 163e 3a58 11be c6f8 4a3e 7fd3 863c
00000080: d4c3 bd3e 0984 68bd 0225 673d c76d 1ebe
00000090: ff05 a6bc 7702 1d3b 837e 9cbe 9803 87bb
000000a0: d0ee 87bb 282f bfbd cbd0 9a3d 609c af3d
000000b0: 8ef6 20bd d2c3 213d 5875 a1bd c560 cb3c
000000c0: b634 6b3d 1bac 82bd 9899 5ebd b797 823c
000000d0: e5c7 bebe b387 d73c f8e3 8e3d 05a1 fdbc
000000e0: f800 803d 8cf0 4bbd e312 153b 3ccf 91bd
000000f0: b113 a33d a787 d83c 0dcc d23c c7e8 9dbd
00000100: 1b97 d43a bfb5 d43d 4cb2 43bd ad50 a8bd
00000110: 3f98 b0bb 9796 073e 1b38 133c 10f7 bb3d
00000120: 1c65 42bc 3f72 48be 87b2 02bd f4d3 a03d
00000130: 8acd 043d d79f 9e3d 52b3 95be 193e d93c
00000140: b0c4 e4bd b284 a33d 3fdc 093d 7940 95bc
00000150: f021 57bd bebe 0bbd 8b2b a13d 21da b53a
00000160: 71d3 e9bc 8d60 32bb 3be1 013d 4bcb 283d
00000170: 7e36 8cbe ef4c edbd d64f bcbb 6f5c 80be
00000180: 378d 183d 4c39 073d 12cd d03d 2762 95bb
00000190: 76d5 a43e 566e 0bbc abe6 8bbd c8b2 16bd
000001a0: dec8 ed3d d450 cebe d81b 57bd 6472 b03d
000001b0: 2351 ab3d 14ab b03d 9144 f73d a0e3 343c
000001c0: dc5f 493b 0c14 c93d c1e3 5b3c 912f abbc
000001d0: e585 d5be 04df 8ebe 81b5 4d3e 4c87 243d
000001e0: bf0d 62be bd58 1d3e 70cf 933c 63e6 373e
000001f0: d93f 14be 6e19 d73d 0511 6d3d 701e 843b
00000200: df44 963d a387 80bd df5f 863d 5dfb 563d
00000210: 58cc d0bd 4d09 9fbe bdbd 8fbd df19 0fbd
00000220: bf0d fcbc 6421 d43c dda3 f43c 2430 2abe
00000230: 87c0 7c3c db0b 2e3e ab89 d6bc 9900 c8bc
00000240: 69c8 dd3c a57b 8e3d 5118 723a ed1b 983c
00000250: e376 943b e966 9e3e 00f5 19be 9189 1a3d
00000260: 3098 a63a ca4b 8cbd e5e2 fdbc 0a56 a4ba
00000270: 5420 12be 1cbb 023e 6450 3dbe 4246 bdbc
00000280: e0f9 bcbe ccb7 3c3d 8dc9 47bd f09b 3b3e
00000290: 802e 703c 54af e73b 14d9 a23e 0905 9b3b
000002a0: 6de8 7f3c feaa d33d c235 a5bd 7151 d7bd
000002b0: 859d 1c3d da92 09bd 29f7 bb3d 8094 adbc
000002c0: 938d f7bc eb0b 963d 53fb 313d e548 bebc
000002d0: dd84 b93e 0eb0 2abb 2e8e 95bd 993b cc3c
000002e0: 18cb 7ebd 8859 763d e61a fbbb 4956 9b3d
000002f0: 79d7 9dbd fd0b 17bd fa55 2cbd a29e 8b3d
00000300: 442e 45bc 5765 e1bd d531 1a3d 6df6 a63d
00000310: 0587 f53a f9c2 03be 319c 43bc 3b66 babd
00000320: 9564 ce3b f4bd 403e d44a ff3c 470c 8cbd
00000330: 1041 43bd 19fd 71bd 969c 943e fcde f4bc
00000340: ba8a df3d 23f7 60bd 3a19 3bbd f157 223d
00000350: eac7 653d 6142 793d d8a5 a1bd 5ad1 b63b
00000360: 63e9 ac3c 77f6 be39 136d 7ebc 7fbc d8bc
00000370: c264 8a3e b61c e73d f263 6abb 5859 6f3e
00000380: d3c6 17bd 1d36 d4bc 7f9f c5bd 7a79 f63a
00000390: 0e63 9fbe ed2a 4b3c ad12 b33d b9bb 263d
000003a0: 68aa 01be d71d c93e 5fce 183d 08d3 d0bd
000003b0: 2f31 9ebd ee97 e5bd 2a54 edbd a11f 153b
000003c0: 5e55 a0bc e34a a0bd 3c99 3fbc 90d4 ee3c
000003d0: 0a50 ce3e 84c5 8d3e 2eca 42be b040 6bbd
000003e0: 6d2d 783e c128 1bbe 2c01 42bc 02b8 32be
000003f0: cc69 0f3e 5735 c4bd 7acc 8bbd 0c18 7b3c

action_model._discrete_distribution.branches.1.bias f4 [2]
0.101109184 -0.101109095
00000000: 5512 cf3d 4912 cfbd

action_model._discrete_distribution.branches.2.weight f4 [2, 128]
-0.0444631 0.009260687 -0.017669434 -0.05894127 0.115862794 0.109143235 0.12742203 -0.26586357
-0.18852347 -0.25346452 0.04498477 0.17604116 -0.009924164 -0.16710123 -0.0024611128 -0.0022039423
-0.015360409 -0.1007836 0.05060447 0.056111194 -0.020940166 -0.36254117 0.019033927 0.024216238
0.07555318 0.042007014 0.039198693 -0.0065863277 0.08296557 -0.10159881 0.009808699 -0.310124
0.21427847 -0.12616068 0.043647464 0.30021766 -0.048721675 0.028866367 -0.30170655 0.048075832
-0.019199055 -0.09135015 0.083863586 0.040354293 0.32260683 0.010242321 -0.09213075 -0.029283965
0.071968116 -0.06298397 -0.061682142 0.097687654 -0.01363132 -0.00036382937 0.0026771384 -0.016445993
0.1340044 0.22060998 0.04389719 0.13896114 0.058131427 -0.028617075 0.03279393 0.030726247
0.031550497 -0.070430964 0.14798889 0.07221028 0.30088624 -0.059076972 0.092341974 0.033536885
0.052121736 -0.20952204 0.037048664 0.2854152 0.10859513 0.18768619 -0.30528203 -0.10056395
-0.06003936 -0.04721526 0.029849641 0.02636954 0.005038577 0.026028207 0.16952355 0.14575383
-0.02336836 0.021095678 0.059734363 -0.013245883 -0.12137933 0.22806774 0.0055008745 -0.28509128
0.19336644 0.07302133 0.3186311 0.1868893 -0.02475159 0.09318314 -0.08904992 -0.15501517
0.17758018 -0.31105286 -0.009216497 0.044203192 0.04719642 0.15071969 -0.039161135 0.028061654
0.07277059 0.041491833 0.03929128 -0.13685806 -0.22448482 -0.25480327 0.027595941 -0.19031277
-0.12682562 -0.038500763 0.15314032 0.04780811 0.13718413 0.021506246 0.32740557 -0.09725423
0.014452925 -0.010172996 0.017797979 0.08302941 -0.11711321 -0.11909224 -0.12757307 0.27214035
0.19727041 0.2519921 -0.049832862 -0.1792523 0.005390694 0.16033702 -0.017358769 -0.0011524642
0.0023827103 0.08994019 -0.03369495 -0.03084875 0.018986247 0.3550817 -0.0004040391 -0.02532652
-0.08093672 -0.033594593 -0.008363495 0.008755708 -0.08517841 0.10096641 -0.0054682535 0.32192993
-0.19812766 0.11955668 -0.037358407 -0.2915906 0.065547496 -0.022686526 0.30149648 -0.057292886
0.012477538 0.08864015 -0.101848975 -0.03493872 -0.31190267 -0.010147391 0.07844536 0.029549075
-0.07754634 0.07905504 0.048338894 -0.089129716 0.011786116 -0.004870469 -0.005879806 0.029803487
-0.13648659 -0.23142874 -0.034899496 -0.14254089 -0.047883634 0.02015122 -0.011815779 -0.03415309
-0.018729316 0.06219268 -0.16817047 -0.09240658 -0.3102071 0.054966867 -0.07683672 -0.04162227
-0.06762074 0.196725 -0.04893712 -0.2752036 -0.11302499 -0.2048337 0.30417746 0.09197445
0.047017757 0.06255967 -0.017225958 -0.023405781 0.009265301 -0.035458926 -0.1606307 -0.15522231
0.012958313 -0.0062138457 -0.062140997 0.014030428 0.1313023 -0.22321783 0.0071360003 0.2827749
-0.19834705 -0.08530946 -0.32869095 -0.17470263 0.0435991 -0.06573825 0.087563045 0.1438087
-0.16586089 0.3368458 0.019000908 -0.035816975 -0.054260816 -0.1462724 0.06448445 -0.047627892
-0.0776156 -0.03388823 -0.032761186 0.14555223 0.22714946 0.24948026 -0.020495402 0.19384472
0.1227902 0.022435056 -0.14313662 -0.0688239 -0.117662616 -0.002955914 -0.31997746 0.08599386
00000000: f11e 36bd 23ba 173c 7dbf 90bc 676c 71bd
00000010: 7949 ed3d 7d86 df3d ec7a 023e 451f 88be
00000020: 4c0c 41be 1ac6 81be f341 383d 2244 343e
00000030: f698 22bc 961c 2bbe 9f4a 21bb 0470 10bb
00000040: 3aaa 7bbc a267 cebd a246 4f3d dad4 653d
00000050: b68a abbc ff9e b9be 0aed 9b3c 2261 c63c
00000060: a0bb 9a3d 8c0f 2c3d cf8e 203d 1fd2 d7bb
00000070: dae9 a93d 0913 d0bd aab4 203c 93c8 9ebe
00000080: d16b 5b3e 4430 01be afc7 323d 21b6 993e
00000090: 6190 47bd 2979 ec3c 4879 9abe 2aeb 443d
000000a0: 5647 9dbc ca15 bbbd acc0 ab3d 8b4a 253d
000000b0: b92c a53e 68cf 273c 0caf bcbd ede4 efbc
000000c0: 0564 933d bdfd 80bd 6aa6 7cbd 7710 c83d
000000d0: e655 5fbc 5ac0 beb9 ee72 2f3b bfb9 86bc
000000e0: 7338 093e 95e7 613e 8acd 333d d44b 0e3e
000000f0: 381b 6e3d 5b6e eabc ee52 063d 9cb5 fb3c
00000100: 183b 013d 1c3e 90bd 668a 173e fce2 933d
00000110: c30d 9a3e b2fa 71bd ca1d bd3d f95d 093d
00000120: 9a7d 553d f28c 56be 57c0 173d f121 923e
00000130: 2067 de3d cf30 403e ed4d 9cbe 79f4 cdbd
00000140: d5eb 75bd ca64 41bd 3c87 f43c ef04 d83c
00000150: a61a a53b 1b39 d53c 9597 2d3e 7e40 153e
00000160: 016f bfbc d8d0 ac3c 05ac 743d 4305 59bc
00000170: ba95 f8bd 978a 693e ae40 b43b 7cf7 91be
00000180: da01 463e 358c 953d 9e23 a33e e95f 3f3e
00000190: d9c3 cabc cdd6 be3d ce5f b6bd 4cbc 1ebe
000001a0: 94d7 353e 5242 9fbe ca00 17bc 680e 353d
000001b0: 0951 413d 4356 1a3e 6d67 20bd 8ee1 e53c
000001c0: bf08 953d 57f3 293d e5ef 203d 8524 0cbe
000001d0: 59df 65be 9375 82be e210 e23c 5ae1 42be
000001e0: 93de 01be fab2 1dbd d1d0 1c3e 70d2 433d
000001f0: ff79 0c3e de2d b03c b4a1 a73e 3a2d c7bd
00000200: f6cb 6c3c a3ac 26bc 11cd 913c 530b aa3d
00000210: 0dd9 efbd a2e6 f3bd 84a2 02be fb55 8b3e
00000220: 4101 4a3e 1c05 813e 8b1d 4cbd ea8d 37be
00000230: 6ba4 b03b 632f 243e fa33 8ebc 480e 97ba
00000240: 3f27 1c3b 9032 b83d b703 0abd 85b6 fcbc
00000250: 0c89 9b3c 45cd b53e 36d5 d3b9 9079 cfbc
00000260: 27c2 a5bd 7c9a 09bd 0a07 09bc 1a74 0f3c
00000270: 0572 aebd 7ac7 ce3d 092f b3bb 00d4 a43e
00000280: fae1 4abe 22da f43d 2105 19bd 5d4b 95be
00000290: c43d 863d 18d9 b9bc bf5d 9a3e f2ab 6abd
000002a0: 966e 4c3c f888 b53d 3296 d0bd e71b 0fbd
000002b0: b5b1 9fbe 3e41 26bc f6a7 a03d e710 f23c
000002c0: 9ed0 9ebd 9ce7 a13d 01ff 453d a489 b6bd
000002d0: 8e1a 413c 7598 9fbb 63ab c0bb 7126 f43c
000002e0: 24c3 0bbe a8fb 6cbe c6f2 0ebd 3df6 11be
000002f0: a121 44bd 2c14 a53c f896 41bc 1ce4 0bbd
00000300: 396e 99bc c0bd 7e3d e134 2cbe a93f bdbd
00000310: 77d3 9ebe f024 613d 925c 9dbd 1d7c 2abd
00000320: be7c 8abd 4772 493e 4a72 48bd 7ce7 8cbe
00000330: a579 e7bd edbf 51be 26bd 9b3e 1a5d bc3d
00000340: b195 403d 491f 803d 741d 8dbc 7bbd bfbc
00000350: 7dcd 173c 613d 11bd 607c 24be 99f2 1ebe
00000360: 1b4f 543c 849d cbbb 8f87 7ebd e1df 653c
00000370: 1c74 063e 3793 64be 1cd5 e93b dfc7 903e
00000380: 7d1b 4bbe bab6 aebd 2e4a a8be 3fe5 32be
00000390: f894 323d c7a1 86bd 4154 b33d 9642 133e
000003a0: 70d7 29be 0d77 ac3e cba7 9b3c d2b4 12bd
000003b0: 9740 5ebd 6fc8 15be 6c10 843d 7715 43bd
000003c0: edf4 9ebd 62ce 0abd 9830 06bd a50b 153e
000003d0: de99 683e c177 7f3e f9e5 a7bc 3b7f 463e
000003e0: 6e79 fb3d b9c9 b73c 6892 12be 8bf3 8cbd
000003f0: 19f9 f0bd 02b8 41bb 16d4 a3be 8d1d b03d

action_model._discrete_distribution.branches.2.bias f4 [2]
0.10871108 -0.10871112
00000000: eaa3 de3d f0a3 debd

action_model._discrete_distribution.branches.3.weight f4 [2, 128]
-0.15545961 0.1900732 -0.032945126 0.16330095 -0.0042557796 0.05215852 -0.28434232 -0.30184278
-0.11880158 -0.1985536 0.012563835 0.15158437 -0.042217974 -0.15617603 0.088899 -0.05738694
-0.018186929 -0.26098347 0.021270376 -0.01881698 -0.017809842 -0.08115047 0.035770625 -0.07319281
0.008268053 -0.04673106 0.13206819 -0.0024613456 -0.20677944 0.15540117 -0.043614335 -0.19367267
-0.10515064 -0.14671516 -0.25866812 0.011719067 -0.016697409 -0.024029898 0.120419905 -0.039979056
-0.32588068 -0.14179187 0.05948584 0.0038738088 0.11606182 0.020493917 0.23064704 0.05212621
0.04353589 -0.330657 0.07351648 -0.027718948 -0.17355071 -0.023774326 0.013536816 0.07387816
-0.0066161533 0.33757284 -0.00217597 -0.06823949 0.014589815 -0.14296974 0.0023004035 -0.104883514
-0.0027591186 -0.12044202 0.09421831 -0.19978167 -0.09395131 0.025230179 0.0153623065 0.15737563
-0.036001157 0.22897325 0.051735967 -0.1883822 0.0075942664 -0.044618517 -0.32646972 0.11632996
0.010074606 -0.23327614 0.0018361773 -0.004241201 0.10029031 -0.097112365 0.09176292 0.060245443
-0.1264843 0.063490234 -0.087910496 -0.12479464 0.19666114 -0.14056757 -0.041814115 0.1483403
0.11239449 0.0039645224 0.07732593 -0.0576895 -0.23876518 0.007283874 -0.3579747 -0.1950675
0.14248158 0.020758891 0.0030188418 0.07497912 0.0005956671 0.124417864 -0.04918318 0.08733182
0.00887797 0.01907793 -0.007879154 -0.15612485 -0.14790341 -0.18637098 0.068064086 -0.13792145
-0.057050914 0.008283162 -0.068725765 -0.05914603 -0.26227498 0.17836139 0.13922209 -0.0049663796
0.15600947 -0.20006004 0.0160011 -0.17826076 -0.00935704 -0.0318831 0.272423 0.3031032
0.121172346 0.20239162 0.0026211047 -0.156849 0.046990797 0.12601708 -0.07068673 0.05976906
0.0052315863 0.24579753 -0.010871608 0.010739277 -0.009056212 0.09973599 -0.027963523 0.065030634
-0.018071495 0.04022443 -0.13022555 0.013177369 0.17040755 -0.15330392 0.04074789 0.20679668
0.11288281 0.16654482 0.26716822 -0.02154243 0.008450702 0.01411523 -0.11020301 0.06826379
0.31884015 0.1463287 -0.045987654 0.019065797 -0.10682176 -0.025666755 -0.20190127 -0.053929992
-0.033373114 0.32664317 -0.09912524 0.037234154 0.17098011 0.027022485 -0.019044949 -0.0760021
-0.0011826176 -0.33716637 -0.005976352 0.080289535 -0.03207967 0.13645163 0.0119515555 0.092278
-0.0066379975 0.124228135 -0.10342578 0.21188681 0.09984292 -0.025213107 -0.027213335 -0.16978776
0.037601527 -0.2235724 -0.051690467 0.2000695 -0.02097936 0.052661873 0.353491 -0.1264051
-0.00866033 0.2265218 -0.009271007 0.013395325 -0.083645605 0.102227725 -0.092159584 -0.08769255
0.16246876 -0.091018714 0.08989112 0.12042761 -0.18588212 0.15742385 0.042639833 -0.13754196
-0.12523864 0.00089930196 -0.076351404 0.083591886 0.22918555 -0.0034843334 0.35041097 0.19810413
-0.14063425 -0.023551118 -0.021268215 -0.07077144 0.003438843 -0.13088728 0.059873715 -0.09302582
-0.0065791258 -0.04923809 0.00081864966 0.12587385 0.15584481 0.20633528 -0.07220336 0.13591188
0.03746986 0.008716635 0.0629863 0.06748178 0.2640498 -0.19444792 -0.16245106 0.02756429
00000000: ce30 1fbe 8da2 423e 78f1 06bd 5d38 273e
00000010: 1174 8bbb 2ca4 553d 5195 91be 238b 9abe
00000020: 3e4e f3bd a351 4bbe 8bd8 4d3c ef38 1b3e
00000030: c1ec 2cbd 9cec 1fbe ae10 b63d 910e 6bbd
00000040: c1fc 94bc a09f 85be 363f ae3c 1126 9abc
00000050: f2e5 91bc 3832 a6bd 3884 123d 1de6 95bd
00000060: ba76 073c 1169 3fbd e23c 073e 874e 21bb
00000070: fdbd 53be 7c21 1f3e f2a4 32bd 2152 46be
00000080: 3859 d7bd 803c 16be 2670 84be 5401 403c
00000090: 01c9 88bc 59da c4bc b69e f63d 14c1 23bd
000000a0: d5d9 a6be e331 11be 6da7 733d badf 7d3b
000000b0: d2b1 ed3d dce2 a73c bd2e 6c3e 4b82 553d
000000c0: b052 323d e04b a9be cf8f 963d d912 e3bc
000000d0: 47b7 31be 60c2 c2bc 86c9 5d3c 6f4d 973d
000000e0: 51cc d8bb 59d6 ac3e b89a 0ebb 25c1 8bbd
000000f0: 1f0a 6f3c a966 12be 5ec2 163b 2bcd d6bd
00000100: 54d2 34bb 4eaa f6bd 88f5 c03d 9193 4cbe
00000110: 8b69 c0bd 85af ce3c 2fb2 7b3c 1427 213e
00000120: f375 13bd f777 6a3e 18e9 533d 43e7 40be
00000130: 53d9 f83b e8c1 36bd 0a27 a7be 673e ee3d
00000140: f60f 253c f1df 6ebe e3ab f03a c6f9 8abb
00000150: 0265 cd3d d9e2 c6bd 33ee bb3d edc3 763d
00000160: 1a85 01be 2b07 823d 6b0a b4bd 5594 ffbd
00000170: 8a61 493e f2f0 0fbe 4745 2bbd 85e6 173e
00000180: 152f e63d d3e8 813b 0f5d 9e3d d34b 6cbd
00000190: dc7e 74be 90ad ee3b 7648 b7be c6bf 47be
000001a0: b1e6 113e 8d0e aa3c c3d7 453b a78e 993d
000001b0: 8b26 1c3a cbce fe3d 4d74 49bd 06db b23d
000001c0: e874 113c 5249 9c3c 9117 01bc 31df 1fbe
000001d0: fe73 17be 09d8 3ebe 2f65 8b3d 483b 0dbe
000001e0: 38ae 69bd 19b6 073c 18c0 8cbd 1c43 72bd
000001f0: e848 86be 5ea4 363e 3c90 0e3e 03bd a2bb
00000200: f2c0 1f3e 8adc 4cbe bd14 833c fd89 36be
00000210: 454e 19bc da97 02bd 077b 8b3e 5830 9b3e
00000220: 3529 f83d c03f 4f3e d7c6 2b3b 069d 20be
00000230: 6c79 403d 9f0a 013e 34c4 90bd 67d0 743d
00000240: ba6d ab3b 59b2 7b3e d41e 32bc cbf3 2f3c
00000250: 8260 14bc 6242 cc3d c213 e5bc c82e 853d
00000260: ac0a 94bc 5fc2 243d d959 05be e4e5 573c
00000270: 517f 2e3e b4fb 1cbe 42e7 263d 82c2 533e
00000280: 1a2f e73d ba8a 2a3e 46ca 883e c079 b0bc
00000290: d074 0a3c 9143 673c 1eb2 e1bd e3cd 8b3d
000002a0: 043f a33e 31d7 153e 8d5d 3cbd e02f 9c3c
000002b0: 5ec5 dabd 1643 d2bc 35bf 4ebe b2e5 5cbd
000002c0: 3fb2 08bd c63d a73e 2d02 cbbd d782 183d
000002d0: 6915 2f3e 425e dd3c 2704 9cbc fda6 9bbd
000002e0: 1002 9bba 12a1 acbe 46d5 c3bb d76e a43d
000002f0: f965 03bd fab9 0b3e 75d0 433c 40fc bc3d
00000300: 8f83 d9bb 526b fe3d e5d0 d3bd dbf8 583e
00000310: 727a cc3d b88b cebc 80ee debc d8dc 2dbe
00000320: 0f04 1a3d 2af0 64be 62b9 53bd 05df 4c3e
00000330: e8dc abbc fab3 573d c6fc b43e 5770 01be
00000340: 0fe4 0dbc 55f5 673e 6ce5 17bc 1178 5b3c
00000350: 634e abbd c55c d13d 2abe bcbd 2798 b3bd
00000360: 365e 263e 0568 babd d618 b83d c0a2 f63d
00000370: e257 3ebe b833 213e 1ba7 2e3d cdd7 0cbe
00000380: 8f3e 00be 22bf 6b3a 205e 9cbd 3932 ab3d
00000390: 9eaf 6a3e 6a59 64bb 1169 b33e cfdb 4a3e
000003a0: 6d02 10be 46ee c0bc ae3a aebc 9ef0 90bd
000003b0: 365e 613b 5107 06be 243e 753d 5284 bebd
000003c0: b595 d7bb e1ad 49bd a69a 563a 13e5 003e
000003d0: c895 1f3e 8e49 533e 5bdf 93bd 7c2c 0b3e
000003e0: ff79 193d 38d0 0e3c f6fe 803d e333 8a3d
000003f0: 8931 873e 5b1d 47be 9259 26be 82ce e13c

action_model._discrete_distribution.branches.3.bias f4 [2]
0.08078829 -0.08078831
00000000: 5574 a53d 5774 a5bd

98 f4 [11]
2.5572495 2.0955024 3.2727025 3.4498534 24.734158 0.28177458 0.26968792 0.4989809
0.28119323 0.3363329 0.4895346
00000000: faa9 2340 b61c 0640 f573 5140 66ca 5c40
00000010: 8edf c541 c244 903e 8914 8a3e 6d7a ff3e
00000020: 8ff8 8f3e d333 ac3e 47a4 fa3e
