results/Imitation/Dark Knight Behavior/Dark Knight Behavior-1499915.onnx (onnx, 81950 bytes, 14 tensors)

network_body.observation_encoder.processors.0.normalizer.running_mean f4 [11]
000000 62 74 99 40 59 81 36 c0 4d f0 4d 41 b9 72 45 41
       4.795457 -2.8516448 12.871167 12.340508
000010 79 37 4a 42 f2 29 b0 3d f0 ba 91 3d 5f 38 e3 3e
       50.554173 0.086017504 0.071157336 0.44378945
000020 95 d6 b3 3d bc 15 f1 3d 35 de c1 3e
       0.08781163 0.11771724 0.37864843

network_body.linear_encoder.seq_layers.0.weight f4 [128, 11]
000000 39 50 0f 3e 5e 84 8a 3e 6f 31 34 be 71 18 b5 3e
       0.13995446 0.27054113 -0.17596982 0.3537021
000010 a9 ba 50 3e 6e 81 81 bd d0 ab c6 be be f9 b7 3c
       0.20383705 -0.06323515 -0.38802958 0.022457954
000020 10 48 8f be e6 c7 33 be 6f d5 03 3f ca 23 5d be
       -0.27984667 -0.17556724 0.5149755 -0.21595684
000030 26 8f bf 3b 2c ca 6a 3f fa 42 00 be 8b 94 e3 3d
       0.005845922 0.9171474 -0.1252555 0.11112317
000040 c2 ec a0 3e 43 d7 b4 bd 79 6b 2b 3e b3 f9 92 3d
       0.31430632 -0.088301204 0.16740216 0.071765326
000050 cc 9b e5 be 02 9d 88 be 8e e8 ba 3e f4 48 9c bc
       -0.44845426 -0.26682287 0.3650555 -0.019077756
000060 75 ef 44 be c9 eb a1 3e 5a 57 1c 3e 9b 15 55 3d
       -0.1923197 0.31625202 0.15267697 0.052022558
000070 c0 73 83 3d a7 8b e5 be b5 4a 5f be b7 33 d3 3e
       0.06418562 -0.4483311 -0.21805842 0.41250393
000080 9b 02 b0 3d 0e 77 e2 be 03 3f ee be 1f af bd 3e
       0.08594247 -0.44231457 -0.4653245 0.3704767
000090 7f 95 19 3e 67 99 1b be 2d f0 c0 3d 5d 22 e1 be
       0.14998434 -0.15195237 0.0942081 -0.4397153
0000a0 b7 c7 96 be c3 6d 9a 3e 5c 4a 80 be 91 31 cb 3e
       -0.29449245 0.30161867 -0.25056732 0.39686254
0000b0 af 10 da be 37 19 07 3e af 59 4d 3e cd ce 00 be
       -0.42590854 0.13193212 0.20053743 -0.12578888
0000c0 2e 54 7d bf 0f eb d4 3e 16 ee 35 3f 52 4b a8 bd
       -0.98956573 0.41585585 0.71066415 -0.08217491
0000d0 be b8 3e be 31 bd 87 bd 8c 50 64 be 3f 8b e7 be
       -0.18625161 -0.06627882 -0.22296351 -0.45223424
0000e0 bb a1 61 3e 4c 17 b9 be 44 a3 c8 3e e3 73 46 3f
       0.22034352 -0.36150587 0.39187062 0.7752058
0000f0 4e 48 5a 3e 2a 31 56 bd 66 81 0b be 68 64 ac 3e
       0.21316645 -0.05229298 -0.1362358 0.33670354
000100 f8 24 a0 be c7 d3 e9 bd 7e 07 36 3e 01 db 19 be
       -0.31278205 -0.114173464 0.17776296 -0.1502495
000110 5d 6c 44 be e3 61 61 3f 58 fd 66 3e e9 22 ec be
       -0.19181962 0.8803999 0.2255758 -0.46120384
000120 1a f0 19 be 07 2f 13 3f 22 be 85 be c5 35 d6 3d
       -0.15032998 0.57493633 -0.26121622 0.104594745
000130 04 92 bb 3e 24 30 65 bd 4d 8c 0a 3e 6e 78 a5 3c
       0.3663484 -0.055954114 0.13530083 0.020199027
000140 14 ba 86 3e 1c 76 b9 3e bd 07 67 3e b5 aa 00 bd
       0.2631384 0.36222923 0.22561546 -0.0314128
000150 49 63 bb be 1f af 93 be 0e a9 14 be 22 e3 bf 3e
       -0.36599186 -0.28844544 -0.14517614 0.37477976
000160 4c bc a2 3e 2c da cd 3e d9 6a 84 3b e5 04 60 3d
       0.31784284 0.40205514 0.0040410575 0.054692168
000170 fa 14 04 bf bb 19 60 be 69 31 8f be bd cd cb 3e
       -0.5159451 -0.21884815 -0.27967384 0.39805403
000180 da 24 b8 be 3e ff 07 3e 44 ef 22 3d 70 db ac be
       -0.35965616 0.13280961 0.039778963 -0.33761168
000190 eb e5 8d be 6c eb 37 3f df c0 b7 be 86 49 ca be
       -0.27714476 0.718436 -0.35889336 -0.3950922
0001a0 a6 c8 39 3e c9 6c 79 bd 1c 50 24 be 5f fe be 3e
       0.18142948 -0.06089476 -0.16046184 0.37303445
0001b0 a2 58 19 3f 8c a7 e6 3d 4e 51 42 3f 6f 29 fb 3e
       0.5990087 0.11262426 0.7590531 0.4905505
0001c0 81 d6 9d 3e 5b 66 df be b7 e0 c2 3e a9 fd 24 bf
       0.30827716 -0.4363278 0.3806207 -0.64449555
0001d0 34 ab 14 be 13 53 5f 3e de e9 a5 bd fa 71 3c bf
       -0.14518434 0.21809034 -0.08101247 -0.73611414
0001e0 e2 48 ce 3d 5b fa da be 2c ee 2f be b6 5f 97 3c
       0.10072495 -0.4276913 -0.17180699 0.018478256
0001f0 cd 60 76 be b7 38 87 3b 41 d9 fa be bf fb a4 bd
       -0.24060364 0.004126634 -0.48993877 -0.08055829
000200 9a db b6 3d fb 69 df 3e e0 4b 58 ba d3 e8 b9 3e
       0.089286044 0.43635544 -0.00082510523 0.36310443
000210 3a e7 66 be 30 8e 15 3e b8 7f ba be 54 1d a0 3e
       -0.22549143 0.14605021 -0.36425567 0.31272376
000220 36 b9 ca 3e d7 ec d6 3d 37 10 df bd a0 e2 a9 bd
       0.3959443 0.10494392 -0.108917646 -0.082951784
000230 c4 3a 36 3e a2 b2 b7 bd f6 af 57 3d 52 d3 90 3c
       0.17795855 -0.089696184 0.052658044 0.01767889
000240 38 ef 1f bf e1 fe f1 be fc e7 18 be 8c 63 26 bf
       -0.62474394 -0.4726477 -0.14932245 -0.64995646
000250 86 bc 1d 3f 70 18 f9 be 67 33 d5 3d cc 7e c3 3d
       0.6161579 -0.48651457 0.10410195 0.09545669
000260 26 17 82 bd 1c 52 54 be f8 5c fe 3c 84 30 ba 3e
       -0.063520715 -0.20734447 0.03105019 0.3636514
000270 f1 3c 36 3d 20 fb db be 48 4c 85 bf 1b 2a 0b 3f
       0.044491712 -0.4296503 -1.0413904 0.5436112
000280 b6 12 3c 3e 6e 2b 06 bf 37 ea 9c 3e b1 77 04 3f
       0.18366513 -0.5241002 0.30647442 0.51745135
000290 b4 1e 02 3f 50 4d 3b 3e 80 93 b2 be e1 8e a2 be
       0.508281 0.18291211 -0.3487816 -0.31749633
0002a0 69 f9 86 3a 26 04 2d 3d a9 4c ab 3d dd 67 ac 3e
       0.0010297719 0.042240284 0.08364231 0.3367299
0002b0 b3 7a 18 3f de 2a b9 3e 22 47 cf 3d 27 0f fd be
       0.59562224 0.36165518 0.101209894 -0.49425623
0002c0 56 11 11 3d 5b 54 3f 3e f6 29 1d bf 24 ba fe 3d
       0.035416923 0.18684523 -0.6139215 0.12437847
0002d0 b2 13 1a 3f ac 96 e9 3d e5 35 9f 3e 41 fe b7 3e
       0.601863 0.114056915 0.31095806 0.35936168
0002e0 c8 eb a8 bd a0 1d eb 3d 67 dd 6d 3e 94 44 c2 bd
       -0.08248097 0.1148026 0.2322899 -0.094857365
0002f0 0f 8a ee be e6 4d c0 3e 22 6f 01 3f 5c 47 78 3d
       -0.46589705 0.37559432 0.505602 0.06061493
000300 d1 9a 44 3e fd c4 c4 be 80 57 e8 be 88 41 00 bf
       0.19199683 -0.3843154 -0.45379257 -0.5009999
000310 74 d2 a4 bd e5 49 40 be fa ea 79 be 18 ee df 3e
       -0.08047953 -0.18778189 -0.24406043 0.4373634
000320 9c e8 ed 3d 90 fd 4e bf 6f f0 e7 be 17 6b 64 3e
       0.11616632 -0.80855656 -0.45300624 0.22306477
000330 4f bd b7 3c ef 1e 42 3e ac df 0e bf 1a ee 81 3e
       0.022429137 0.18957113 -0.55810046 0.2537697
000340 e1 6c 0a be 8c a8 07 3f 25 ba 0e bf 11 fc 1d 3f
       -0.13518097 0.5299156 -0.55752784 0.6171275
000350 c6 52 d6 3e 8a c9 e2 be b9 43 29 3d 0f c6 a0 3c
       0.41860026 -0.44294387 0.04132435 0.019625692
000360 9f bd c5 be ab 57 52 be fa d4 3e 3e ae be ba bd
       -0.38621232 -0.20541255 0.18635932 -0.091184005
000370 cd 2d 65 be d4 52 0f 3f 40 de 93 3e 7e 4f 9b bd
       -0.22380753 0.5598576 0.288805 -0.07583521
000380 c7 bc 2d be 16 68 7a bd 1c 0d 00 3f db 66 a5 bc
       -0.16966544 -0.06113442 0.50020003 -0.020190647
000390 13 61 25 be 6e a6 77 bf 38 5f 2a 3f 71 84 f6 3d
       -0.16150312 -0.96738327 0.6655154 0.1203698
0003a0 80 81 2e 3f 14 78 e4 bd 65 8b bf 3d 81 40 5f be
       0.6816635 -0.111557156 0.09352759 -0.2180195
0003b0 e5 68 9c bd 0d be 95 3e 9b 5d 0b 3d de 47 84 3e
       -0.076371945 0.2924656 0.034024816 0.2583608
0003c0 75 a4 1c bf 4b 0f e4 3e f5 3b 38 3f b2 3b ec be
       -0.6118844 0.44542918 0.7196649 -0.46139294
0003d0 15 90 07 bd c2 01 29 be ab 2c be bc 54 1c 04 3e
       -0.03309639 -0.16504577 -0.023214659 0.12901431
0003e0 01 84 24 be 23 3e af be ff 12 45 3d f8 8b ef 3e
       -0.1606598 -0.34227094 0.04811382 0.46786475
0003f0 77 36 88 be 1f e1 11 be 66 5d 10 bf 0d c0 5b 3e
       -0.26604053 -0.14246033 -0.56392515 0.2145998

network_body.linear_encoder.seq_layers.0.bias f4 [128]
000000 e4 2d 47 bd 44 a4 f8 bb 65 cb db bd 9c d8 b0 3b
       -0.04862775 -0.0075879414 -0.10732154 0.0053969156
000010 45 db 9e bd eb 65 2b be b7 03 b0 3d a4 e3 a9 bd
       -0.07756666 -0.16738097 0.085944586 -0.08295372
000020 f2 38 34 bd db 43 86 3c f1 c7 33 3d a1 00 86 bd
       -0.04399962 0.016389778 0.04389185 -0.06543089
000030 ad 1e cb bd 4b 62 08 3e 78 43 b3 3d 6e 9f 7f 3d
       -0.0991796 0.13318746 0.08753103 0.062407903
000040 6d d7 a6 3c 6d bc 82 be 22 85 1c 3e 9f c1 b1 3c
       0.020366395 -0.25534382 0.15285161 0.021698771
000050 c7 a8 9b 3d be fb 47 3c f4 e6 31 3c e4 2c 40 be
       0.07600551 0.012206016 0.010858286 -0.18767124
000060 18 2d 1f bd 29 58 eb bd 34 41 5d 3e d0 8d a9 3d
       -0.038861364 -0.114914246 0.21606904 0.08279002
000070 df 61 0f 3e 03 be 78 3b 5a d6 59 3d 2e f1 db bc
       0.14002179 0.0037955053 0.053182937 -0.026848402
000080 c2 b8 2d 3e cd 78 a9 3c 47 1d c1 3d ff 81 62 bd
       0.16965011 0.020687485 0.09429412 -0.055299755
000090 58 08 31 be 00 ec fc bb f8 29 06 3e 1b c9 04 be
       -0.17288339 -0.007718563 0.13101947 -0.1296734
0000a0 e4 32 bb 3c 1e f6 91 3c 94 67 3e 3d 53 ce e5 3c
       0.022851415 0.017817553 0.0464855 0.028052485
0000b0 28 1b 27 3b 29 3a 56 3d 63 21 5e bd 32 2e 3a be
       0.0025498364 0.05230156 -0.05423106 -0.18181685
0000c0 52 7b 16 3c 5e 65 7b bd b5 55 36 be f4 8d 44 3d
       0.009184675 -0.06137597 -0.17806132 0.04798694
0000d0 2f 77 cf 3d bb 94 4e bd 07 46 00 3d 34 f5 fa bd
       0.10130154 -0.05043481 0.031316783 -0.122538
0000e0 b0 97 29 3d 66 8b 2e 3e c4 3b 39 3e 4f 31 53 3d
       0.041404426 0.17045364 0.18089205 0.051560696
0000f0 ad 0c a6 3d fe df 83 bd 16 21 81 bc d6 3f 59 3c
       0.081078865 -0.064392075 -0.015762847 0.013259849
000100 8a 72 a1 3c 8c b4 d3 3d 5f c3 bf bd 46 92 e7 3d
       0.019707937 0.10337171 -0.09363436 0.11307196
000110 63 bc 6b bb 29 ac 8c 3d cd f4 78 3d 0e fd 01 3d
       -0.0035970442 0.068687744 0.060780335 0.031735472
000120 48 f8 8a bd 84 82 cc bd 5c 4e 2e 3d 73 2d 4f 3e
       -0.06785637 -0.099858314 0.042555198 0.20232181
000130 16 28 00 3e 12 a6 a7 3d 60 af 74 3d 0d 79 bb bd
       0.12515292 0.08185972 0.059737563 -0.09153948
000140 88 df 94 bd 99 83 60 bd a1 55 1e bd d5 4c 8a 3d
       -0.07269198 -0.054813 -0.03865588 0.06752936
000150 c6 33 9b 3d 33 81 af 3d 93 3c 40 3d 5e 60 8a 3d
       0.075782344 0.08569565 0.046932768 0.06756662
000160 cc 6b 6b 3e 60 a3 8d bd b8 b1 14 bd 42 08 0f 3d
       0.2299034 -0.06915927 -0.0363023 0.034919985
000170 18 fb d1 bc e6 c6 2a bd d7 3d 5d 3e 9f d1 fa bc
       -0.025632426 -0.04169359 0.21605621 -0.030617533
000180 5f 71 f9 bc 42 62 5c bd cd 04 95 bd fc ae 81 bd
       -0.030449567 -0.053804643 -0.07276306 -0.06332204
000190 df 4c 90 bd 97 dc 3c be 3d 16 97 3d be 1b 8e 3d
       -0.07045912 -0.18443523 0.073772885 0.06938885
0001a0 e7 0d 6f 3d d2 08 36 3e 82 c9 e5 3c 15 c0 e1 bd
       0.058362868 0.17776802 0.028050188 -0.11022965
0001b0 7a eb c4 bd 01 6a 59 3d ac ec fa 3c 9d 1d 9c bd
       -0.09615226 0.05307961 0.030630432 -0.07622836
0001c0 61 0c b4 bc 2c 30 2b bd 5a e7 12 bd a7 eb 2e be
       -0.021978559 -0.041793987 -0.035865165 -0.17082082
0001d0 c5 6c 90 3d 23 0e bc 3c 0b 67 22 bd b0 08 80 bd
       0.07051996 0.02295596 -0.03964905 -0.06251657
0001e0 46 c2 4e bd d1 14 0a 3e 8c cc 0f bd 3c c0 12 bd
       -0.050478242 0.13484503 -0.03510718 -0.03582786
0001f0 30 e3 54 be f0 93 6f 3e f8 29 43 bc 08 b5 15 3d
       -0.2078979 0.23396277 -0.011911862 0.036549598

network_body.linear_encoder.seq_layers.2.weight f4 [128, 128]
000000 7e b3 52 be d8 ca e5 bd 41 21 15 be d2 32 ef 3b
       -0.20576283 -0.1122033 -0.14563467 0.0072997594
000010 23 6c 89 3e 43 e1 e9 3d b6 38 0f 3e 72 03 95 be
       0.26840314 0.114199184 0.13986477 -0.2910419
000020 fd 61 5a be b5 95 7b bd 79 17 dc be 0d 7c bf 3d
       -0.21326442 -0.06142207 -0.42986658 0.09349833
000030 94 8a a3 3d 56 c5 17 be 2c d2 7d 3d 3b 64 a3 3d
       0.07985416 -0.14821371 0.061968014 0.07978102
000040 57 f9 cc 3d 4f 4d 1f bd ec ed c9 bd 24 11 99 be
       0.10008495 -0.038892087 -0.09859833 -0.2989589
000050 ca 5e 55 bd 93 f1 50 be 1b 49 7f be 5b 96 bd ba
       -0.05209235 -0.20404653 -0.24930231 -0.0014464365
000060 3f e6 ae be 5f 13 b6 3c c7 6b 51 3d e6 f7 17 be
       -0.3416004 0.022226034 0.051128175 -0.1484066
000070 91 3b 77 be b8 c9 18 3d 07 aa 16 be 20 16 cb 3d
       -0.24143817 0.03730175 -0.14713298 0.099163294
000080 7d 08 f3 be 7f 29 80 be 5b 0a fa be d7 0b 7c bd
       -0.47467414 -0.2503166 -0.48836026 -0.06153473
000090 bf ee 77 bb c7 7c 39 bd 48 55 af bd 56 37 4c bc
       -0.0037831513 -0.045285013 -0.08561188 -0.012464365
0000a0 b9 11 a2 bd c5 d6 83 3e b1 f5 9e 3e e0 64 3c 3d
       -0.079135366 0.25749794 0.31046823 0.04599464
0000b0 e9 84 23 be 4f d4 40 be b1 93 cb bd 09 31 0f be
       -0.1596867 -0.1883099 -0.09940279 -0.13983549
0000c0 f3 2c f5 bd ac a4 f8 3c 07 b9 ea bd c4 1e 99 be
       -0.11971464 0.03035196 -0.114610724 -0.29906285
0000d0 b4 ef 72 be e0 32 ec be 25 43 04 be 30 14 68 be
       -0.23724252 -0.46132565 -0.12916239 -0.22663951
0000e0 b7 bd b8 be 63 43 90 be 8e 21 07 be 15 b2 09 3e
       -0.3608224 -0.28176412 -0.13196394 0.13446839
0000f0 20 01 0d be 80 0a a7 bd 5f b1 99 be 90 d0 a5 bc
       -0.1376996 -0.081562996 -0.30018136 -0.020241052
000100 36 5d b2 3d ad 7a 21 bd 82 97 32 be 96 dc f5 3d
       0.08709185 -0.039423633 -0.17440608 0.12004964
000110 35 52 d5 3c 9f de 24 3e d5 7a fd bd 3e be d0 3d
       0.026040176 0.16100548 -0.12376944 0.10192536
000120 45 c1 42 3d e7 84 8d be a9 21 9c 3d 63 c1 8c be
       0.047547597 -0.2764046 0.07623608 -0.27491292
000130 b4 7a 51 bf 0b e2 94 be ed 48 a2 bd 7d 57 20 3d
       -0.81827855 -0.29078707 -0.07924066 0.039145935
000140 dc c6 c2 bd 28 f2 1d 3e bb 82 b5 3c 65 91 0e be
       -0.09510586 0.15424407 0.022157064 -0.13922651
000150 8f dc 97 be 8c 6d 63 be cd b3 13 be 54 05 22 bf
       -0.2966046 -0.22209758 -0.14424057 -0.6328938
000160 d8 68 f4 bb d3 25 36 bc d9 b4 de 3d fa 30 ad 3d
       -0.0074587874 -0.011117416 0.10874338 0.08456607
000170 25 24 ef bd a2 cf 94 bd ff 46 40 3d aa 91 bd bd
       -0.11676816 -0.07266165 0.046942707 -0.09256299
000180 4a bb 38 be fe 39 0b be 76 87 19 bb 63 46 52 3d
       -0.18040195 -0.13596341 -0.0023426688 0.051336657
000190 0a 15 33 3d 65 10 a3 be 90 b7 f0 3c e0 ac 5d bc
       0.043721236 -0.31848446 0.029384404 -0.013529986
0001a0 22 b6 fb 3d f6 69 26 be 26 f0 cb be 68 a1 29 3e
       0.122905985 -0.16251358 -0.39831656 0.16565478
0001b0 3c 9e 26 3e 4c e8 8a be eb 1c 82 be da e2 bd 3d
       0.16271299 -0.27130353 -0.25412688 0.09271784
0001c0 96 e9 6a 3c c4 60 92 3d b1 36 18 be 94 b0 d8 3d
       0.014337918 0.07147363 -0.14864613 0.105805546
0001d0 52 8c a0 be b8 1e e1 bd 09 4c 68 3e 84 04 06 be
       -0.31357056 -0.10992187 0.22685255 -0.1308766
0001e0 42 51 2c bd 3d 4d 96 bc 7b 53 36 be 8b ad 65 be
       -0.04206968 -0.018347377 -0.17805283 -0.22429483
0001f0 a9 b9 dc 3d ee 1d 4a be 76 e1 9a 3d d5 0d a0 3d
       0.10777599 -0.1973798 0.075625345 0.07815138
000200 62 ab 5b be bf d0 3a bd 83 eb 3d 3d 65 7f a5 be
       -0.21452096 -0.045609232 0.04636718 -0.32323757
000210 99 2c 5c bd 25 56 c2 3d 18 17 6f be 91 9b 30 bd
       -0.05375347 0.09489087 -0.23348653 -0.04311711
000220 42 d7 6d be d1 76 1e be ac 70 bf bc 46 87 0b bd
       -0.23226646 -0.15475012 -0.023369156 -0.034064554
000230 6e bd 95 3c ca b3 76 3d d4 5d 9c be 6a 9e 50 3d
       0.018278804 0.060230054 -0.30540335 0.050932325
000240 eb 90 9a bd fb 86 db bc 2d 7c 05 bd 55 1f b7 be
       -0.07547172 -0.026797762 -0.032589126 -0.35766092
000250 d9 54 69 be 80 f2 0e be f3 7c a1 3d e0 a6 21 3e
       -0.22786273 -0.13959694 0.0788516 0.15786314
000260 30 02 f5 bd da d0 6f be d5 62 45 be 39 a1 88 be
       -0.11963308 -0.23419514 -0.19275983 -0.26685503
000270 63 90 f6 bd c6 95 99 be fe 48 f0 3e bb 2e 05 be
       -0.12039258 -0.2999708 0.4693069 -0.13006108
000280 03 4d ec 3d f5 20 b6 3d 90 72 cd bc cc 08 c4 3e
       0.11538126 0.08893005 -0.025079042 0.3828796
000290 71 c9 1c 3a 49 12 46 be cc 98 04 be 2a 12 42 3e
       0.0005980945 -0.19342913 -0.12948912 0.18952242
0002a0 51 38 a2 3d f8 cd e2 be d7 40 2f be d1 94 0a be
       0.07920898 -0.44297767 -0.17114578 -0.13533331
0002b0 32 a2 33 3d ad 69 db be 2d ba 4c be 82 56 8a bd
       0.043855853 -0.42854062 -0.19992895 -0.06754781
0002c0 1c 05 9c be db 1b 04 3e 4a bb 26 bd 3a 0b 95 bd
       -0.30472648 0.12901251 -0.040705957 -0.07277532
0002d0 cc 22 12 3e e7 2c e0 3d 3a 26 2a bd 61 68 b5 3d
       0.14271086 0.109460644 -0.041540362 0.08857799
0002e0 2d 59 80 3d 26 bd d2 bd fd 32 9b be 99 2d 8d bd
       0.06267009 -0.102899835 -0.30312338 -0.06893463
0002f0 88 7c 74 bd 4c 97 26 3d c0 3a 48 bd c2 1b c9 3d
       -0.059689075 0.04067163 -0.048884153 0.098197475
000300 0e a4 2c be 57 99 ee 3d 30 b3 7e 3e 34 da 53 3d
       -0.16859457 0.11650341 0.24873042 0.051721767
000310 f5 32 56 3e 28 11 a8 bc 1a 0b 83 be c5 9d 4a 3e
       0.20917876 -0.020515993 -0.25594407 0.19786747
000320 3a bb 57 bd ef bf 37 3c f6 1f b4 3c 06 97 0c 3e
       -0.052668788 0.011215194 0.021987896 0.13729486
000330 c4 7d 19 3d f0 28 cb 3d a7 31 a0 3b 3e ac 7a bd
       0.037473455 0.099199176 0.0048887315 -0.06119942
000340 e9 0e 56 3e a9 b5 30 be 03 fc f5 3b ee 49 d8 bd
       0.20904125 -0.17256798 0.007506849 -0.10560976
000350 6d 27 39 be b9 26 3c 3c f2 c5 4b be 5e 99 25 bd
       -0.18081446 0.011483842 -0.19899729 -0.040429465
000360 76 98 80 3c 60 a3 11 be 04 a5 df 3d 61 8f 5f 3d
       0.015697699 -0.14222479 0.10920146 0.054580096
000370 7d ee 93 be f7 b1 d3 bd b6 dd db 3d b6 d2 44 be
       -0.2889289 -0.103366785 0.107356474 -0.19221005
000380 62 db c4 3e 7a c7 3f 3d 94 ff 07 bd 28 5f b7 3d
       0.38448626 0.046821095 -0.033202723 0.089536965
000390 b7 39 47 3d 79 24 1f 3d 51 2f 07 bc 22 69 65 3e
       0.048639026 0.038853142 -0.008251027 0.22403386
0003a0 41 2b c0 bd db b4 80 be c5 1e 13 bd 99 fa 39 be
       -0.0938325 -0.25137982 -0.035918016 -0.18162002
0003b0 81 e0 90 bd 03 b4 a0 3e 4f 21 66 bd a1 86 21 3e
       -0.07074071 0.31387338 -0.05618411 0.15774013
0003c0 7f db 93 bc f6 42 d9 bc a8 de 03 3e d7 4e ab 3d
       -0.018049 -0.026521187 0.12877905 0.08364647
0003d0 00 b2 68 bc 24 83 6b be 3b 5c d8 3d 43 21 61 3e
       -0.014202595 -0.22999245 0.105644666 0.21985345
0003e0 8b d1 00 3e dc e7 2a bc 50 1f 4f 3d c1 d1 60 3e
       0.12579934 -0.010431256 0.05056697 0.21955015
0003f0 71 76 1e 3d 60 61 96 3c 45 b7 16 3e 13 21 b4 bc
       0.038687173 0.018356979 0.1471835 -0.021988427

network_body.linear_encoder.seq_layers.2.bias f4 [128]
000000 f7 e2 61 3c 6d 6d 6f 3c a2 21 c1 bc 11 55 d8 3b
       0.013787023 0.0146134915 -0.023575608 0.0066019376
000010 27 bb e2 3d b9 fc 06 3d 54 22 2c bd 63 8b 74 bd
       0.11070853 0.03295586 -0.042024925 -0.059703242
000020 b3 73 eb 3b 8b 1b 24 bd d5 02 d4 bb 23 25 44 bd
       0.0071854233 -0.04006533 -0.006470064 -0.04788698
000030 fb 5f c1 bd 27 c9 08 be 3f a8 a4 bc ac 0f 9f bd
       -0.09442135 -0.13357984 -0.020099757 -0.07766661
000040 cb 84 6e bd 1a ca 0b 3d 7d 59 38 bd d1 e7 8f bd
       -0.05823211 0.034128286 -0.045007218 -0.07026637
000050 e4 60 08 be 19 f0 01 be 45 80 21 3d ef fe d9 bd
       -0.13318211 -0.12689246 0.039428968 -0.10644328
000060 f2 01 1c bc 2f 89 b6 3b 16 8f e1 bc 68 a1 01 3c
       -0.009521948 0.005570553 -0.027534049 0.007912017
000070 61 a0 16 3d 1c 1c 91 bd e0 63 1d bc 5c ed ae bd
       0.036774043 -0.070854396 -0.009606332 -0.085413665
000080 33 6c 2a 3d aa cd 48 bd 09 08 b0 bd ba 4d 35 bd
       0.041607093 -0.04902426 -0.085952826 -0.04426358
000090 31 70 3c 3d cf 2a 21 bd 6b 69 82 3b b7 83 52 bd
       0.04600543 -0.039347466 0.003979852 -0.051395144
0000a0 80 28 e7 bc ef 5e 13 3d 06 2b 04 bd a1 42 76 3d
       -0.028217554 0.035979208 -0.032267593 0.060122136
0000b0 3d 19 88 bd 92 0e 13 bc c9 65 1c bc 1a 66 b3 bd
       -0.06645439 -0.008975642 -0.009545752 -0.08759709
0000c0 b6 15 50 bd 5b fc 46 bd 6c 69 15 be a0 3e 9a bd
       -0.050801955 -0.04858051 -0.14590997 -0.07531476
0000d0 a6 54 17 be d0 b6 f9 bd a6 67 e4 bb a9 68 5b bd
       -0.14778385 -0.12193072 -0.0069703637 -0.05356661
0000e0 e6 93 a3 3d cc 85 29 be 6f 4f 98 bd 54 71 ab bd
       0.07987194 -0.16554946 -0.07437026 -0.08371225
0000f0 9c 86 10 3b eb 9f db bd 67 a1 4a bd db 84 a3 bd
       0.002205289 -0.10723861 -0.04947033 -0.079843245
000100 3a 42 b9 bc dc de c0 bd 92 e8 fe bd c4 87 b6 bd
       -0.022614587 -0.09417507 -0.12446703 -0.08912614
000110 ea 58 46 bc ff 56 b4 bd 31 f3 ab bd c8 49 25 bc
       -0.01210616 -0.08805656 -0.083959945 -0.010088392
000120 59 82 d3 bb d1 49 a1 3d 24 ec a9 bd d4 7c cc 3a
       -0.0064547476 0.078754075 -0.082969934 0.0015601167
000130 cd 05 c5 3c ab 9b ad 3c e3 91 c4 3a ad e9 5b bc
       0.024050618 0.021192392 0.0014997091 -0.013422412
000140 76 fa d5 bb be 56 c9 3b 9e 59 61 b9 77 98 be bd
       -0.0065301014 0.0061443737 -0.00021491057 -0.09306424
000150 9c 63 1c be fb 0d ec bd 04 2e 2b 3d 5e 8a 5e bd
       -0.15272373 -0.11526104 0.04179193 -0.054331176
000160 b4 a2 9e bd af c3 54 3c ae 15 b4 bd 2e 2b a3 bd
       -0.07745877 0.012986108 -0.087931976 -0.0796722
000170 42 64 98 bd 24 59 b3 bd 64 65 e9 3b be 60 50 3d
       -0.07440998 -0.087572366 0.0071226824 0.05087351
000180 5d 74 13 bd f3 bd cf 3c af 1f 3b 3d 19 19 02 3d
       -0.035999645 0.02535913 0.045684513 0.031762216
000190 68 b3 7b 3d 8f 4c 95 bd 3f 69 0c bd 85 b2 b2 bd
       0.061450392 -0.07289993 -0.034280058 -0.08725456
0001a0 1a 5b 85 bd 37 6f e8 bd 37 d5 00 be 5e 9b d2 3d
       -0.06511517 -0.113493375 -0.12581335 0.1028354
0001b0 1b e0 10 3d 74 ae 65 3d 05 da c3 bd 38 f7 d0 bd
       0.035369974 0.056074575 -0.09563068 -0.10203403
0001c0 99 c5 67 bc 9e 6e bf 3c 62 d2 89 bd 71 08 72 bd
       -0.014146232 0.023368176 -0.067295805 -0.05909008
0001d0 2a b8 2e be b6 18 36 be 5c 4e ba ba c1 3a ec bd
       -0.1706244 -0.17782864 -0.0014214027 -0.11534644
0001e0 a7 8c ba bd bc c5 4f bb fd 79 c4 bd 54 7c e7 3d
       -0.091088586 -0.0031703552 -0.0959358 0.113030106
0001f0 70 81 02 be 7f 60 ac bc f7 d1 7f bd f3 cd 0b 3d
       -0.12744689 -0.021042107 -0.062456097 0.034131955

action_model._discrete_distribution.branches.0.weight f4 [3, 128]
000000 ae 34 30 3e c1 15 0c be 01 9c c2 3e 70 de 12 bd
       0.17207596 -0.13680173 0.38009647 -0.035856664
000010 af 55 09 3d 89 7d d5 3d 9d 40 b8 3d 95 d1 88 bc
       0.03352898 0.104243346 0.08996699 -0.016701499
000020 0f 6e 74 3d ad 69 76 3e 24 ff 0e be 6b 6d 69 bd
       0.059675273 0.2406375 -0.13964516 -0.056989115
000030 4a 29 c9 bc d8 3d 47 3e 18 5d 83 bd f2 79 51 bd
       -0.024555821 0.19457185 -0.064142406 -0.051141687
000040 0b dc 0a be 5e e8 10 3d 5d 99 9a 3c e0 5e 68 3d
       -0.13560502 0.035377853 0.018871957 0.056731105
000050 14 9f 94 3e 12 40 31 3c 23 9f 86 bd 36 4e 42 3d
       0.29027617 0.010818498 -0.06573322 0.04743787
000060 4b 9c 1a 3d 77 72 4e bd 36 17 30 bd 68 65 9a 3c
       0.03774671 -0.05040213 -0.042990886 0.018847182
000070 2c af dd 3d e0 0e 09 3e 8b ea 65 3d b1 d1 fb 3e
       0.10824427 0.1338458 0.05613188 0.4918342
000080 19 b1 ea bd f5 3b a1 3e 96 c7 c4 3d fe 91 8b bd
       -0.1145956 0.31491056 0.096083805 -0.06814955
000090 50 9a 5e be 5e ee 81 3d 44 e1 ca 3d d9 96 b7 3c
       -0.21738553 0.06344293 0.09906247 0.022410797
0000a0 6f 73 b5 3d e0 b2 9f be 56 2c ec bd 8d a6 f2 bd
       0.08859908 -0.31191158 -0.11531894 -0.11848173
0000b0 9a b3 81 bd 55 31 b9 3d 5d 9b 08 3c 8b b9 39 3d
       -0.063330844 0.090426125 0.008337823 0.045342963
0000c0 af 36 2e be 2c 2d 22 3d 00 64 5b 3e 7d f3 8e bd
       -0.17013048 0.03959386 0.21424866 -0.069800355
0000d0 61 d5 ae 3e f0 ac 03 3c f9 b4 87 3c 6b 93 c1 3d
       0.3414717 0.008036837 0.016565787 0.09451946
0000e0 ba da ec bd 2f 53 0d 3e 3b f3 a8 bb 09 de 1e 3e
       -0.11565156 0.13801263 -0.0051559485 0.15514387
0000f0 c6 8e b3 bd 15 10 09 3e 58 0f 9e 3c 77 86 ae bd
       -0.08767466 0.13385041 0.019294426 -0.08521741
000100 0a 2a 86 ba 73 d3 84 bd 22 e6 fa ba 60 74 2b 3e
       -0.0010235917 -0.06485643 -0.0019142071 0.16743612
000110 88 7c 75 be 78 f4 b5 3d 3b 10 94 bd 0e 9a a4 bd
       -0.23973286 0.08884519 -0.07229658 -0.08037196
000120 25 a2 2e 3d a6 45 43 be bc 63 7f bd ee fb 2b 3e
       0.0426351 -0.19069538 -0.062350973 0.16795322
000130 df 91 fe bd 84 bb c6 bd 68 3b 91 be a3 4a 83 bd
       -0.124301665 -0.097037345 -0.28365636 -0.0641072
000140 a4 65 eb bb cb 04 cc 3d 9a 4a ae 3d b0 ec 5b 3d
       -0.0071837474 0.09961852 0.08510323 0.05369252
000150 e5 61 f5 3d 74 fc 76 be 4f 4a 05 be ff 5d 03 be
       0.119815625 -0.2411974 -0.13016628 -0.12828825
000160 80 c9 3e 3e 78 13 3e be bf 64 22 3d 7f 4a 9b 3c
       0.18631554 -0.18562114 0.03964686 0.018956421
000170 61 5a 10 be 59 f2 18 3c c6 46 1e be 8b f0 9b be
       -0.14096977 0.009335124 -0.15456685 -0.30456957
000180 e7 89 19 be 27 b1 d4 bc 4d 0f fe be a4 84 a6 bd
       -0.14994012 -0.02596338 -0.4962105 -0.08130768
000190 cb b9 22 be 00 6f c6 3a d6 a6 ba be cd 45 fc bd
       -0.15891187 0.0015139282 -0.3645541 -0.12318001
0001a0 71 7c 88 3c 7d 06 63 3d 96 5c a1 3d d5 12 f9 bd
       0.0166609 0.05542611 0.078789875 -0.12161795
0001b0 74 c3 36 be ff 7a 0f be e2 50 8d be 99 92 2e 3c
       -0.17847997 -0.14011763 -0.2760077 0.010655069
0001c0 b8 f4 8d be 21 7e aa bd e9 f5 a0 bd 4d d6 31 3d
       -0.27725768 -0.083248384 -0.07859404 0.043417264
0001d0 21 0e b2 bc f1 d4 f7 bd 64 e9 ed 3d 2a 59 11 bd
       -0.021735253 -0.12101162 0.11616781 -0.035485424
0001e0 e7 d9 18 3e 56 23 00 bf 86 ce 64 3e 1d a1 96 bd
       0.14926873 -0.5005392 0.22344407 -0.07354949
0001f0 ef 1c 04 be e9 d7 95 3d 8e dd 9e 3d be 63 77 be
       -0.12901662 0.07316572 0.07757102 -0.24159142
000200 d0 2d 45 3e 24 8f 05 bd 16 fa aa 3d f5 44 65 be
       0.19255757 -0.032607213 0.08348481 -0.22389586
000210 29 4f f7 bd 03 0b 53 be 57 5b b2 3d ff e9 8c 3e
       -0.120756455 -0.2060967 0.08708828 0.27522275
000220 c3 29 fc 3d e3 a0 14 be bb af 98 3c c4 98 41 be
       0.12312653 -0.14514498 0.018638482 -0.18905932
000230 24 30 05 3d 2f e4 17 3f 74 73 f7 bc 73 f6 3c 3e
       0.032516614 0.59332556 -0.03020642 0.18453388
000240 e8 5e c0 bc 8d 20 af be 83 c9 7d bd f8 5d f8 bd
       -0.023482755 -0.34204522 -0.061959755 -0.12127298
000250 76 13 1c be ae ec ee 3e 79 ac 76 3e a7 f9 eb bd
       -0.15241799 0.46664947 0.2408923 -0.11522227
000260 0b f5 3a be 88 67 13 be fb 7b 7b bd d3 44 fd bd
       -0.18257539 -0.14394963 -0.061397534 -0.12366643
000270 11 de e1 be cf de 78 3d 47 da 61 bc 35 9f a1 be
       -0.44114736 0.06075936 -0.0137849515 -0.31566778
000280 4e 44 e6 be c8 df d7 bb ef 36 dc 3d 1e 51 f8 bb
       -0.44973987 -0.006587956 0.10752665 -0.0075780293
000290 87 4e ed 3d 6a 01 45 be 7f c0 93 bd 6f 00 b7 bc
       0.115872435 -0.1923882 -0.0721445 -0.022339074
0002a0 5e 85 5f 3e 83 51 14 bd b3 9f 3f bd 2c 7a 15 3e
       0.2182822 -0.036210548 -0.04678316 0.14597386
0002b0 ad 1b 09 3d 87 b6 63 bf aa 28 62 3e d1 8e 95 bd
       0.03347366 -0.8895039 0.22085825 -0.07302631
0002c0 9b 21 03 3d 1d f6 3b 3d 8c 63 8a be 77 40 93 3c
       0.03201447 0.04588901 -0.27029073 0.017975075
0002d0 c7 d7 b4 3d 80 79 43 bd 6a b6 d8 bd 93 ff b8 bd
       0.08830219 -0.047723293 -0.10581668 -0.09033122
0002e0 f1 42 65 bd c8 9e e1 be be b5 e6 bd ba f4 fe be
       -0.055972043 -0.44066453 -0.11265133 -0.49796087
0002f0 c5 3a a6 3d 9d bc 8e 3c 16 44 da 3d 88 fb b6 3d
       0.08116678 0.017423922 0.106575176 0.089346945
000300 a6 c7 a0 bd bc b1 96 3d 44 1f 7a be 0d c4 15 3e
       -0.0785058 0.07358119 -0.2442599 0.14625569
000310 43 24 50 be ce 09 ac bc 1c ee 59 bd a5 2e 93 bd
       -0.20326333 -0.021000769 -0.053205594 -0.07186631
000320 31 68 f1 bd d0 9e 38 be 44 b3 7e 3d 1f 42 39 bf
       -0.11787451 -0.18029332 0.06218268 -0.7236652
000330 2e db 0c bc 71 a4 4b 3d 66 c3 5e 3e dd 34 8c 3d
       -0.008597178 0.04971737 0.21754226 0.0684602
000340 35 4a 9e 3d d9 fd 44 bf 7c 20 59 be 96 21 10 be
       0.077289976 -0.7694984 -0.21203798 -0.14075312
000350 02 5f 09 bf 39 38 1d 3d 22 1d 86 bd da 88 07 3e
       -0.53660595 0.038383696 -0.065485254 0.13235798
000360 ee 94 31 3b 93 68 a3 3d 67 99 57 3d c4 a5 00 be
       0.0027096826 0.0797893 0.05263653 -0.12563235
000370 ee 28 8d bc 69 54 3b 3e 9e 94 e1 3d 92 06 91 3e
       -0.01723143 0.18293919 0.110146746 0.28325325
000380 b7 44 39 be a4 68 d7 bd a3 4a 72 3e 28 5a 95 3d
       -0.18092619 -0.105180055 0.23661284 0.072925866
000390 43 a9 19 be e6 1e c5 bc 5a 19 83 3e 09 9d 84 3c
       -0.15005974 -0.024062585 0.2560528 0.016188161
0003a0 3e a1 58 be 73 5d b7 3e a0 9f 6b be d8 99 96 be
       -0.21155259 0.35813484 -0.23010111 -0.29414248
0003b0 ab f4 e7 3d 7d 81 89 bc 68 92 44 be d5 3a e7 3b
       0.113259636 -0.016785378 -0.19196475 0.007056574
0003c0 9b 21 60 3d bf 06 40 3d c9 d3 9e 3d ef 7b 07 bf
       0.05471955 0.046881434 0.077552386 -0.5292348
0003d0 0c 3c f7 3e 1e bb 92 3e a4 65 a2 3c 4d 67 15 3d
       0.48288 0.28658384 0.019823857 0.03647547
0003e0 08 06 82 3c 9d b5 9a be d6 07 25 bf 3a e3 ed be
       0.015872017 -0.30216685 -0.6446508 -0.46462423
0003f0 89 b8 e1 3e a1 b4 05 bd ce b1 94 be 22 61 f8 3d
       0.44086102 -0.032642964 -0.29041904 0.121279016

action_model._discrete_distribution.branches.0.bias f4 [3]
000000 f2 9b cb bd df d1 24 be e8 3a 0d 3e
       -0.099418536 -0.16095684 0.13792002

action_model._discrete_distribution.branches.1.weight f4 [2, 128]
000000 2a 2c 9a bd f4 af c1 3d 5f 49 0a be ed fa a3 bd
       -0.07527955 0.094573885 -0.13504551 -0.08006845
000010 5b 98 d2 3d 93 16 e5 3e 21 22 f7 bc fa 0b bb 3d
       0.10282966 0.44743785 -0.030167641 0.09133144
000020 46 15 5e 3d ab f7 dc 3c 7a df 50 bd 68 88 23 3e
       0.054219507 0.026973566 -0.050994374 0.15970004
000030 cf 83 17 bc 1f 48 82 be f6 13 2e 3c cd 37 cf 3c
       -0.009247734 -0.2544565 0.010624876 0.025295163
000040 3e ca a6 bd c2 77 80 bb 99 54 46 bc a4 b5 2c bd
       -0.081440434 -0.0039205262 -0.012105131 -0.042165413
000050 ef fe 2e bd 07 64 04 bf 64 36 8b 3e 9b 61 85 bd
       -0.042723592 -0.5171513 0.27189934 -0.065127574
000060 43 02 05 bd df f4 83 3d 87 04 4d 3d f2 19 e1 bc
       -0.03247286 0.0644319 0.050053146 -0.027478192
000070 24 7d 1b 3e 32 9d 2a be a0 fd 3f 3e 1b a4 b5 3d
       0.15184456 -0.16661528 0.18749094 0.08869191
000080 e0 2e d8 3e d8 be f3 bc 94 46 2a 3d 1a d1 1d be
       0.42223263 -0.029754087 0.041571215 -0.15411797
000090 d1 ef a0 bc cd 08 db bb 7a dc af be 23 2d 12 bc
       -0.019645603 -0.0066843987 -0.34347898 -0.008921894
0000a0 0f f8 6e 3d 4c 2c 70 bd 61 f3 71 3d 0b 6c 57 3d
       0.058342036 -0.058635995 0.059069995 0.052593272
0000b0 ed 4b 66 bd 1e 45 93 3d 18 50 b5 bd de e6 46 3d
       -0.056224752 0.071909174 -0.08853167 0.048560016
0000c0 8b d2 8d 3d b9 4f 35 be d3 c4 bc bd 7c 96 74 3c
       0.069249235 -0.17706193 -0.09217229 0.014928456
0000d0 11 66 fe be 8d 12 b5 39 20 17 ae 3e 93 a6 b9 bd
       -0.49687245 0.00034536832 0.34002018 -0.09064975
0000e0 f9 27 82 3d 4b c9 9b bd da 0c 02 bd 92 55 b8 bd
       0.063552804 -0.07606753 -0.031750537 -0.09000696
0000f0 31 7c 2d 3e bc ea f7 3c d9 ff ae 3d c7 d2 14 be
       0.16941907 0.030263297 0.08544893 -0.1453353
000100 79 90 87 bd a8 a4 4e 3e 64 f3 b9 bd 2b 6b 13 be
       -0.06619353 0.20179999 -0.09079626 -0.1439635
000110 84 af f7 bc f1 f2 61 3e 87 9d 8a bc 46 a2 f2 3d
       -0.03023506 0.22065331 -0.016920818 0.118473575
000120 41 23 e7 bc 79 b0 32 be fa 14 d6 bd 5b 0e 03 3e
       -0.028215053 -0.17450131 -0.1045322 0.12798445
000130 4e 2e 5d 3d 17 06 f1 3d c5 e0 ab be 9a 18 79 3d
       0.053999238 0.1176874 -0.33569923 0.060814478
000140 15 5b 32 be 20 dc c0 bc 43 c6 c2 3c 7b d6 98 bc
       -0.17417558 -0.023542464 0.02377618 -0.01865696
000150 b3 e9 a9 bc 74 38 88 bb d9 b0 d6 3d 18 ee 13 bb
       -0.02074132 -0.0041571204 0.1048295 -0.0022572335
000160 f1 d3 91 3d ba d5 f4 3a 23 e9 46 3d 55 89 09 3d
       0.07120503 0.0018679418 0.04856218 0.033578236
000170 e2 75 a0 be 89 5a c6 bd 91 05 69 3a b3 60 78 be
       -0.31339937 -0.09685237 0.0008889074 -0.24255638
000180 49 93 f9 3c be f1 5e 3c 44 3e 2d 3e 1f ed 93 bc
       0.030465739 0.0136074405 0.16918284 -0.018057404
000190 b3 e7 cc 3e 57 84 4b bd 91 fc 89 bd 65 f3 c9 bd
       0.40020522 -0.049686756 -0.06737626 -0.09860877
0001a0 86 ab b9 3d 87 77 08 bf 8b ea d1 bd e8 da aa 3d
       0.090659186 -0.53307384 -0.10249814 0.08342534
0001b0 b2 27 93 3d cd 4e d9 3d 94 65 e8 3d 1e 8f 38 bd
       0.07185306 0.10610733 0.113474995 -0.045058362
0001c0 f6 9b c8 bb 78 9e e9 3d de 8e 65 bd fd 8e 4a b9
       -0.0061221076 0.11407179 -0.056044452 -0.00019317488
0001d0 bf 98 0e bf 2a 4c cd be dd 5c a6 3e a4 7f ab bd
       -0.5570182 -0.4009717 0.32492724 -0.08373955
0001e0 b8 22 cd be 5b 43 73 3e a7 c8 c6 bd f0 2c 79 3e
       -0.4006555 0.23756163 -0.0970624 0.24333549
0001f0 5b a3 4c be b9 ef c4 3d 77 d8 9b 3d 6e 7e d0 3b
       -0.1998419 0.09616036 0.07609647 0.006362728
000200 a1 13 b5 3d 07 11 9f bd f5 2b 05 3e 06 15 7b 3d
       0.088416345 -0.077669196 0.1300505 0.061299346
000210 8d 76 da bd 87 29 eb be d9 95 b3 3b 4a a2 bd bd
       -0.10667143 -0.4593012 0.0054805097 -0.0925947
000220 4e 72 71 bd f8 4f df bb 5a 1d 2c 3d 3a fa 1f be
       -0.0589469 -0.006814953 0.04202018 -0.15622798
000230 72 0d d6 3b 11 c2 7f 3e 44 f6 0d bd 01 77 9d bc
       0.0065323645 0.24976374 -0.034658685 -0.019221785
000240 27 72 b6 3d 36 56 88 3c b8 66 29 3d e1 d0 4b 3d
       0.089084916 0.016642671 0.041357726 0.04975975
000250 13 90 b9 3c 52 03 06 3f 28 05 8b be 9b b9 85 3d
       0.022651708 0.52348816 -0.2715237 0.06529542
000260 a8 0a 4a 3d 92 be 94 bd da af 2a bd 5c ea 1d 3d
       0.04932657 -0.07262911 -0.04167161 0.03855358
000270 d8 3a 17 be f3 ff 1b 3e 3c 55 32 be ac 40 c3 bd
       -0.14768541 0.15234356 -0.17415327 -0.095338196
000280 e9 64 d7 be a5 25 9c 3c 32 eb 0a bd 43 ff 3a 3e
       -0.42069176 0.019060919 -0.033915706 0.18261437
000290 cc 02 66 3c 48 4e 84 3c 0c 37 b6 3e dd 2d 1c 3c
       0.014038753 0.016150609 0.35588872 0.009532419
0002a0 d3 fb 3f bd 09 92 8c 3d 77 5e 83 bd 06 6b 93 bd
       -0.046871018 0.068637915 -0.06414502 -0.071981475
0002b0 00 f3 61 3d a1 2c 87 bd 3b d2 cf 3d a4 00 38 bd
       0.055163383 -0.06600309 0.1014752 -0.044922486
0002c0 64 37 2c bd 9c ff 3e 3e b6 75 a6 3d a0 fc b5 bc
       -0.042045012 0.18652195 0.0812792 -0.022215188
0002d0 09 23 f9 3e 7e 5d bf 3c be c1 af be 4d 4d ad 3d
       0.48659542 0.02336001 -0.343275 0.084620096
0002e0 93 8c 81 bd d3 fd b0 3d 25 f5 d7 3c 99 dc c1 3d
       -0.063256405 0.08642163 0.026362011 0.09465904
0002f0 0a de 2a be df bd 26 bd b0 77 d0 bd b8 ad 0b 3e
       -0.16686264 -0.04070842 -0.101790786 0.13640487
000300 e5 79 64 3d 73 fc 54 be 32 33 a5 3d 0c be 12 3e
       0.05578031 -0.20799427 0.08066405 0.1433031
000310 c5 e1 da 3c 58 1f 5e be ab d6 64 3c 80 11 f1 bd
       0.026718983 -0.21691644 0.013967196 -0.11770916
000320 f7 89 b9 3c 27 fc 2a 3e 67 8e d4 3d fb 54 f1 bd
       0.022648795 0.16697751 0.103787236 -0.11783787
000330 b6 d0 8d bd cb 64 cb bd 10 ca aa 3e 9c 74 83 bd
       -0.06924574 -0.09931334 0.33357286 -0.06418726
000340 22 be 2f 3e 3c 80 46 3d dd 9f 12 bd 69 23 24 3d
       0.17162374 0.048462138 -0.03579699 0.040072832
000350 5b 35 c7 3c d4 14 fd 3c 24 2b d7 bd 1f 1f 17 3c
       0.024317434 0.03089372 -0.10506275 0.009223728
000360 6a 0e a1 bd 77 76 8a bb 85 a3 04 bd f0 37 9a bc
       -0.078640774 -0.004225548 -0.032382507 -0.018825501
000370 24 a4 9e 3e 49 2a c0 3d 07 51 27 bc fc 00 67 3e
       0.30984604 0.09383065 -0.0102121895 0.2255897
000380 8e 06 f8 bc 72 f1 d4 bb 70 a7 27 be 35 f8 7b 3c
       -0.030276563 -0.006498509 -0.16372466 0.015379001
000390 49 75 c7 be 7f 73 5b 3d 98 28 b1 3d b8 f7 d1 3d
       -0.3895667 0.053576943 0.08650321 0.10252327
0003a0 c7 37 cf bd ff dd 05 3f 07 c4 b2 3d 7b 3b cb bd
       -0.101180606 0.52291864 0.087287955 -0.099234544
0003b0 c6 07 86 bd 03 1e 07 be 0b 75 de bd 1f 1a 6f 3d
       -0.065444514 -0.13195042 -0.10862168 0.05837452
0003c0 af 04 2a bc 5f d5 c0 bd 8a a1 6c 3d 2a 74 0a 3c
       -0.010377093 -0.09415697 0.057771243 0.008450547
0003d0 ca fd 0a 3f aa 32 cc 3e 41 e7 a0 be e5 22 88 3d
       0.542935 0.39882404 -0.31426433 0.066472806
0003e0 81 32 d8 3e 60 13 71 be 61 7c d3 3d 77 fe 73 be
       0.4222603 -0.23542547 0.10326458 -0.2382754
0003f0 51 cd 47 3e 97 0b b2 bd 35 1c b1 bd cf e7 54 3c
       0.19511916 -0.08693617 -0.08647958 0.012994721

action_model._discrete_distribution.branches.1.bias f4 [2]
000000 c2 1f 30 3e b7 1f 30 be
       0.17199615 -0.17199598

action_model._discrete_distribution.branches.2.weight f4 [2, 128]
000000 c5 df e4 3d 05 aa 07 3d 38 22 34 3d dc f0 98 bd
       0.11175493 0.033121128 0.043977946 -0.07467815
000010 1c d6 28 3e db c7 0c 3e f8 d1 0e bd b3 0c 86 be
       0.16487926 0.13748114 -0.03486821 -0.26181564
000020 ea 1f 73 be fe d3 8a be 3d 1b ab bc 01 14 ed 3d
       -0.23742643 -0.27114862 -0.020887012 0.11576081
000030 65 ff 77 bc 91 d1 53 be 16 76 c6 bb 1c bb ba bd
       -0.015136574 -0.20685412 -0.0060565574 -0.091177195
000040 af bd 9a bd a8 cf 98 bd 4d bd 48 3d 93 e4 a7 3d
       -0.075557105 -0.07461482 0.049008656 0.08197894
000050 fe 18 40 bd b4 8d 01 bf 47 d5 80 3d f9 a0 7e 3d
       -0.046898834 -0.50606847 0.062906794 0.062165234
000060 57 2b 30 3e 2d c7 c6 3d 3f 31 ca 3c 4e 02 86 3c
       0.17204033 0.097059585 0.024681685 0.01635852
000070 9e 53 84 3d 92 c7 61 be 3d b1 ed 3c 45 2b be be
       0.06461261 -0.22048786 0.029015178 -0.37142387
000080 8a 88 a3 3e 51 1d 45 bd 2e 55 7c 3d 3a 60 ff 3e
       0.3194011 -0.04812366 0.06160467 0.49878103
000090 fc 46 0a bd 60 49 3d 3d e5 ef a6 be c0 a4 45 3d
       -0.033759102 0.046212554 -0.326049 0.04825282
0000a0 6a b5 0b 3e da 04 53 bd 29 70 e7 3d 5a c3 7c 3d
       0.13643423 -0.0515183 0.1130069 0.06170974
0000b0 44 32 bf 3e 6b ad cc 3c f4 ef a4 bd 02 c7 16 bd
       0.37343037 0.024985036 -0.0805358 -0.036810882
0000c0 36 e3 1a 3d b8 33 12 3c 78 2c 32 3c ce 5a b6 3d
       0.03781434 0.0089234635 0.01087486 0.08904038
0000d0 7f f1 d3 3d b3 d5 09 bc 44 a0 15 bd 96 96 50 bd
       0.10348796 -0.008412766 -0.036529794 -0.05092486
0000e0 b0 47 0c 3e ff 83 b5 3e 07 97 35 3c cd cb 54 3e
       0.13699222 0.35452268 0.011083371 0.20780869
0000f0 c6 06 03 bc 7d 8d 94 bd 34 2a 33 3d 9f 50 df 3d
       -0.00799722 -0.07253549 0.04374142 0.10904049
000100 e3 dd dd bc 2f 34 18 bd c0 c8 dd 3e df 62 e2 bc
       -0.027083343 -0.03715914 0.43317223 -0.027635036
000110 7a 8a d6 3e 4b 91 c3 bd ec 63 c8 3d 82 f1 55 3d
       0.41902524 -0.09549197 0.097846836 0.052232273
000120 94 a2 d5 3d 94 52 61 be fa 35 d0 3c 3a d8 09 3f
       0.104314 -0.22004157 0.025416363 0.5384556
000130 dd ba 1a 3e a2 0a 34 3e 39 48 92 be 87 28 fa bd
       0.15110345 0.17582181 -0.28570727 -0.12214761
000140 63 0a 9f bd ff 0a 96 3d fd a6 5f 3d 77 5e cb bb
       -0.07765653 0.07326316 0.05460261 -0.0062063294
000150 70 5a ea bc b3 42 41 3d d9 66 93 3e 53 21 87 3e
       -0.028607577 0.04718275 0.28789404 0.26392612
000160 94 eb ae 3d 8a c8 58 bc 6b a9 b4 3c f0 49 0c bd
       0.08541027 -0.013231406 0.022053441 -0.0342502
000170 e7 b4 3d be 6f 29 b2 3e 95 32 4c bc bb c3 eb be
       -0.1852604 0.34797236 -0.012463232 -0.46047768
000180 17 51 b7 3e f3 18 d2 3d 97 88 05 3f cf 49 4a 3e
       0.35804054 0.10258665 0.52161545 0.19754718
000190 5a 25 bf bd 14 50 05 3d 45 a4 0f be d9 fe 25 be
       -0.09333296 0.03254707 -0.14027508 -0.16210498
0001a0 a8 ad 52 3e c1 f3 cb be 10 fd d0 bd 79 08 7c 3d
       0.20574057 -0.39834407 -0.10204518 0.061531518
0001b0 71 09 d5 3c e4 b1 aa 3e 26 bc 54 bd 7d dd c3 3d
       0.026005479 0.33338845 -0.051937245 0.0956373
0001c0 f1 54 8d 3d cd 89 83 bb 41 9f 6c 3d 72 a0 1b be
       0.06900967 -0.00401423 0.057769064 -0.15197924
0001d0 72 62 98 be 2b d1 b2 be 2e 5e 8c 3c 92 4a 05 be
       -0.29762608 -0.34925207 0.017134752 -0.13016728
0001e0 6a 2c 6a be d5 c0 2b bd cd 0d e8 3d 0a 3e 34 3d
       -0.22868505 -0.041931946 0.11330757 0.044004478
0001f0 3f 17 08 3e 57 d9 15 3d e3 59 a6 3e 83 65 89 bd
       0.13290118 0.036584225 0.32490453 -0.06708815
000200 d8 2a 11 be 9d 66 0b bd 61 9b 33 bd 44 46 ca 3d
       -0.141765 -0.034033407 -0.043849353 0.09876683
000210 e0 1d 2a be e4 f7 16 be 76 33 0e 3d 69 43 89 3e
       -0.16612959 -0.14743 0.034717046 0.26809242
000220 d5 14 7c 3e fe 12 8a 3e f2 63 83 3c b6 a7 f3 bd
       0.24617322 0.26967615 0.016038869 -0.11897223
000230 9a b8 2d 3c 5c e4 4c 3e 39 7f 61 bc 66 db b3 3d
       0.0106030945 0.20008987 -0.013763242 0.08782081
000240 a9 29 80 3d 94 9a 82 3d e1 79 03 bd df 4f 68 bd
       0.06257946 0.0637714 -0.032098655 -0.056716796
000250 14 18 38 3d a2 49 ff 3e 9b 5b 35 bd 97 96 81 bd
       0.044944838 0.49860865 -0.044276815 -0.06327551
000260 8f ae 35 be 96 8c b5 bd 5f a3 c9 3b 64 79 68 bc
       -0.1774237 -0.08864705 0.0061535086 -0.014189098
000270 db db 88 bd d1 21 61 3e cf 22 ca bc b6 36 c4 3e
       -0.06682559 0.21985556 -0.024674801 0.3832299
000280 81 43 9b be 62 10 2a 3d 81 92 62 bd 77 f5 fa be
       -0.3032494 0.04151953 -0.0553155 -0.490154
000290 be 31 4f 3d 51 f9 23 bd 5b d4 a6 3e 77 65 6b bd
       0.050584547 -0.04003269 0.3258389 -0.05746981
0002a0 67 97 12 be 71 eb 47 3d ea 22 06 be a3 94 66 bd
       -0.14315568 0.04880852 -0.13099256 -0.056294095
0002b0 40 b7 b9 be 2a e6 cb bc da e8 88 3d 0b dd 17 3d
       -0.3627262 -0.024890024 0.06685038 0.037076037
0002c0 6b bc 31 bd cf 35 ea 3b a8 65 c6 bc f0 d3 a4 bd
       -0.04339258 0.0071475278 -0.024218395 -0.08048236
0002d0 e5 b8 d7 bd 87 4e 50 3b f6 81 08 3d 97 a6 83 3d
       -0.10533313 0.0031785087 0.033327065 0.06428259
0002e0 5f d2 0e be f8 0d bb be 64 b3 08 bb 47 76 58 be
       -0.13947438 -0.36534095 -0.0020858878 -0.21138869
0002f0 7d 76 95 3c 0e 37 83 3d 33 79 ba bc 4c 55 e6 bd
       0.018244976 0.06406985 -0.02276287 -0.11246738
000300 f2 72 23 3d 7d eb ec 3c da 1d e8 be 46 c3 f3 3b
       0.039904542 0.028920883 -0.45335275 0.00743905
000310 2d 50 db be 59 26 bb 3d ba a2 a8 bd a3 0f 77 bd
       -0.42834607 0.091381736 -0.08234163 -0.060317647
000320 15 60 f5 bd dc 37 54 3e d6 cc 18 bd f5 3a 07 bf
       -0.11981217 0.20724434 -0.03730472 -0.52824336
000330 21 44 1f be b5 99 45 be 70 b7 91 3e 03 91 e8 3d
       -0.15553333 -0.19296916 0.28460264 0.11355784
000340 83 5f 84 3d 30 3c 6d bd 18 f2 2b bd 92 3e 16 3c
       0.0646353 -0.057918727 -0.041978925 0.009170191
000350 aa c3 2f 3d 23 e3 67 bd 3e d9 8e be 5b fa 8b be
       0.04291121 -0.0566131 -0.27900118 -0.27339444
000360 58 3d c4 bd 05 4e e6 3c 14 60 c8 bc 9d 80 0f 3d
       -0.09582013 0.028113374 -0.024459876 0.035034765
000370 36 de 47 3e d0 ad af be ed 9e cd 3c 1b 94 ea 3e
       0.1951836 -0.34312296 0.025100196 0.4581612
000380 fb dd b9 be 75 43 eb bd df 1b 08 bf 1d cf 3d be
       -0.3630217 -0.11487476 -0.5316753 -0.18536039
000390 b6 be e5 3d ae 34 a7 bb 97 1e 0e 3e 1b 85 1a 3e
       0.11218016 -0.0051027155 0.13878857 0.15089838
0003a0 86 ad 46 be 77 28 d9 3e 0a 07 e5 3d 8b af 59 bd
       -0.19402131 0.42413685 0.11182983 -0.053145926
0003b0 8a 74 07 bd ff 6a a8 be d2 3a 9e 3d c6 ef eb bd
       -0.033070125 -0.32894132 0.07726063 -0.115203425
0003c0 56 41 97 bd 7d 58 3e 3c 7a df 51 bd 94 87 24 3e
       -0.07385509 0.011617777 -0.051238514 0.16067344
0003d0 d2 bf 99 3e 78 17 b0 3e a7 66 24 bc 69 e8 08 3e
       0.3002916 0.34392905 -0.01003424 0.13369907
0003e0 8e 0a 66 3e 14 e5 d3 3c 37 91 d3 bd 65 29 85 bd
       0.22464964 0.025866069 -0.10330432 -0.06502036
0003f0 0d 34 e8 bd 82 bb 93 bc 44 8c a2 be 8c ab 64 3d
       -0.11338053 -0.018033747 -0.3174764 0.055827662

action_model._discrete_distribution.branches.2.bias f4 [2]
000000 ad 74 17 3e b6 74 17 be
       0.14790602 -0.14790615

action_model._discrete_distribution.branches.3.weight f4 [2, 128]
000000 61 aa 5e be 38 34 6a 3e e5 d7 16 3d aa 1d 41 3e
       -0.21744682 0.22871482 0.036826987 0.18858972
000010 4a 94 dc bc a2 84 a0 3d 0d 24 ce be c9 51 ce be
       -0.026926178 0.07837798 -0.4026188 -0.40296772
000020 3a 23 46 be 35 4b 78 be b1 2d 58 3d 05 58 34 3e
       -0.19349375 -0.24247439 0.05277795 0.17611702
000030 69 8f d6 bc 4b 66 48 be af b2 98 3d f7 a1 03 be
       -0.02619143 -0.19570272 0.07455956 -0.12854753
000040 a0 dd 21 bd ad 61 ce be e3 17 f0 3a 22 6d b1 bb
       -0.039518 -0.40308896 0.0018317666 -0.005414621
000050 9a 4e 90 bc 67 da a3 bd b1 92 c0 3c 7b e5 8d bd
       -0.017615605 -0.08000641 0.023507448 -0.069285356
000060 7e 91 bb 3c 84 5d ec bc 55 a9 26 3e d3 85 bd 3b
       0.022896525 -0.028853185 0.16275533 0.0057837754
000070 99 42 8d be 97 5c a8 3e 49 42 fb bc a3 41 a1 be
       -0.27589872 0.3288314 -0.030671256 -0.3149539
000080 f1 a6 30 be e9 41 1e be 1e 34 93 be e7 de 83 3d
       -0.17251183 -0.1545483 -0.287507 0.064389996
000090 ef 98 d7 3b b4 51 fa bb 31 4e 46 3e 42 1d 08 bc
       0.0065795104 -0.0076391343 0.19365765 -0.008307757
0000a0 73 f7 ca be 1c 54 fc bd 14 30 90 3d f4 a7 ed bb
       -0.39641914 -0.1232073 0.0704042 -0.0072526876
0000b0 6e 0e 2f 3e 0f e3 24 3d ec e1 a7 3e 59 9d c1 3c
       0.17095348 0.040255602 0.32789552 0.0236346
0000c0 be 74 0b 3d be d9 b5 be 51 2d 76 3d f9 d9 21 3c
       0.03404688 -0.35517687 0.06010181 0.009878629
0000d0 10 29 4d be 24 b2 34 bd 3e 66 a6 3c 2a 45 c7 3d
       -0.20035195 -0.0441152 0.020312425 0.09729989
0000e0 ab c9 58 bc 86 b7 04 3f d8 7d 14 bd 7c 44 14 be
       -0.013231675 0.51842535 -0.036252826 -0.1447925
0000f0 ee 34 83 3c 84 15 3e be 39 e9 fc 3b fd 2e 0b be
       0.01601645 -0.18562895 0.007718232 -0.13592143
000100 bd 06 e2 bc ab 04 26 be d1 fc ed 3d b3 5f 85 be
       -0.027591104 -0.16212718 0.116204865 -0.26049575
000110 55 4e 1b be 23 8f cb bb 54 cc 0d 3d 20 e5 41 3e
       -0.151666 -0.0062121316 0.03461869 0.1893506
000120 cd bf 90 bc 99 3b 89 3e a1 66 92 3d 5d 65 6b be
       -0.017669583 0.26803282 0.07148481 -0.22987886
000130 e7 24 1e 3c 76 1f 5b bc c5 fc b5 be e5 e0 2b 3e
       0.009652353 -0.0133742 -0.3554441 0.16785009
000140 43 b9 59 3b b0 91 87 be f5 e1 a3 bb e6 a1 03 bc
       0.0033221997 -0.26478338 -0.0050013014 -0.008034205
000150 9d 53 22 3e 29 1c e8 bd 0d 4a 4c 3e b8 a3 a3 3d
       0.15852208 -0.11333496 0.19950123 0.07990211
000160 83 e0 1d be da 4f 0c 3d bf 96 e1 bd 5c 60 fd bd
       -0.15417676 0.03425584 -0.11015081 -0.12371895
000170 9e 50 bd 3e 6d 10 2e be 26 a9 15 bd e6 b2 8d 3e
       0.3697557 -0.16998453 -0.036538266 0.2767555
000180 ef 6c 33 3e 23 71 f8 3b 1f 3f ef 3d 7e f1 9e bd
       0.17522024 0.0075818463 0.11681961 -0.07760905
000190 24 9b 87 be 54 8b 02 bd 63 b4 d5 be 26 ff 96 be
       -0.2648555 -0.031871155 -0.41739187 -0.29491538
0001a0 d1 97 23 3e ae fb c8 3c 2f 4e d0 3d 9c d8 88 3d
       0.15975882 0.024534073 0.10171162 0.0668194
0001b0 45 6e 35 bc 2c 85 af 3e b4 70 0c bd 67 a4 1b 3e
       -0.011073654 0.3428129 -0.03428717 0.15199433
0001c0 42 0b b6 3c 25 c9 a7 3d 89 06 b5 3c ba ff 21 be
       0.022222165 0.08192662 0.022097843 -0.15820208
0001d0 0f 14 2c be cf 6a 8b be 2d ba d6 3d 77 54 73 be
       -0.16804527 -0.27229926 0.10484729 -0.2376269
0001e0 8a d2 05 be 51 34 23 3d 19 64 e6 bd 62 ea b9 bd
       -0.13068596 0.039844815 -0.11249561 -0.09077908
0001f0 58 57 9a be 2a 61 50 3e ac d3 1e 3e ed bb a7 3a
       -0.30144763 0.20349565 0.15510434 0.0012797095
000200 86 3a 5f 3e 4a 6e 74 be be 3e 5c bd 46 6f 50 be
       0.21799669 -0.23870197 -0.053770773 -0.20354947
000210 87 20 5a 3c 50 fc 6d bd c6 09 c8 3e 01 f7 ce 3e
       0.013313419 -0.058101952 0.39069957 0.40422824
000220 b6 90 48 3e 51 39 7c 3e 3f fb 19 bd 19 bc 39 be
       0.19586453 0.2463124 -0.037593123 -0.1813816
000230 b8 a8 fd 3c 5f 84 29 3e 4c cc 66 bd 6d 12 06 3e
       0.03096424 0.16554402 -0.056347176 0.13092966
000240 0a 9a d9 3c 37 9b c6 3e 34 5c 0c 3c cb 85 2e bb
       0.02656271 0.38790295 0.008566905 -0.002663004
000250 3b 8f 17 bc 68 ea c9 3d d5 9d 80 bc 9b 5c 7a 3d
       -0.009250457 0.098591626 -0.01570026 0.06112347
000260 63 f0 05 bd 6d 10 b7 3c 55 c6 24 be 3b 9f a1 3b
       -0.032699954 0.0223467 -0.16091283 0.004932312
000270 dd 46 75 3e b2 49 a7 be 94 c6 e3 3c d2 f9 a7 3e
       0.23952813 -0.32673413 0.02780465 0.32807785
000280 e6 91 38 3e 22 90 32 3e 3c 8e 97 3e 40 fd 97 bd
       0.18024406 0.17437795 0.29600704 -0.074213505
000290 de e9 72 bc 06 20 15 bb f0 d7 3b be 9e e1 15 3d
       -0.014826266 -0.0022754683 -0.18344092 0.03659212
0002a0 98 5c c7 3e 8c cf 02 3e ad 15 69 bd 8f 55 f7 3c
       0.3893783 0.12774485 -0.056905437 0.030192165
0002b0 38 98 25 be 00 13 3a bd 03 2a 99 be 53 64 d0 bc
       -0.16171348 -0.045428276 -0.29914865 -0.025438463
0002c0 5b a8 c3 bc ab cb b3 3e c6 88 af bd 3d 80 be b9
       -0.02388399 0.35116324 -0.08571009 -0.0003633517
0002d0 33 87 4a 3e 2c 00 42 3d 10 86 d3 bc b2 9e cb bd
       0.19778137 0.047363445 -0.025820762 -0.09942378
0002e0 3a 06 b2 3b e1 9c 04 bf 55 33 e6 3c 75 9b 20 3e
       0.005432871 -0.5180188 0.028100649 0.15684302
0002f0 1e 3e 09 bd db 68 37 3e e2 18 d6 3b 52 8d fc 3d
       -0.033506505 0.17911093 0.006533728 0.12331642
000300 9c 0b 95 3c 14 e5 29 3e 2c 6c 00 be 20 92 8b 3e
       0.018194012 0.16591293 -0.12541264 0.27259922
000310 c4 56 21 3e a0 1e cc 3b f9 56 3e bd e1 9a 4e be
       0.15755755 0.0062292367 -0.046469662 -0.20176269
000320 ed db 9d 3c 82 77 86 be c1 4e 92 bd 1b 5d 77 3e
       0.019269908 -0.26263052 -0.07143927 0.2415661
000330 f4 b8 bc bc b2 73 af 3c 82 d2 c3 3e f2 31 36 be
       -0.023037411 0.021417473 0.38246542 -0.1779249
000340 88 14 fa ba 6c 1c 84 3e 9e 7c 1f bb 50 ce 8c 3c
       -0.0019079605 0.25802934 -0.0024335752 0.017188221
000350 26 48 11 be 1b 96 f2 3d 13 b2 4c be 13 da db bd
       -0.14187679 0.118450366 -0.19989805 -0.10734954
000360 aa b9 42 3e af 11 7d bd 2c a5 e5 3d b5 6e f4 3d
       0.19016138 -0.061784443 0.11213145 0.11935178
000370 bc cb b7 be 33 53 3f 3e f8 0a 19 3d 8b 2b 88 be
       -0.35897624 0.18684082 0.037363976 -0.2659572
000380 12 94 40 be 6a 20 32 bb 2e 40 ed bd d0 fd d3 3d
       -0.18806484 -0.0027179965 -0.11584507 0.10351145
000390 c0 b3 82 3e 84 1b 12 3d fa d4 d1 3e 1e 8d 98 3e
       0.25527763 0.035670772 0.409828 0.29795164
0003a0 92 b3 21 be 5e db df bc 3e ae f5 bd 8c 3a 80 bd
       -0.15791157 -0.027326282 -0.11996125 -0.06261167
0003b0 18 88 77 3c 26 d5 b2 be 87 3a 38 3d 13 79 21 be
       0.015108131 -0.34928244 0.04497769 -0.15768842
0003c0 69 36 a3 bc 74 8d e5 bd 71 dd ee bc 90 05 03 3e
       -0.019923406 -0.11208621 -0.029158326 0.1279509
0003d0 d2 35 34 3e a9 a3 95 3e 56 34 df bd ac 45 71 3e
       0.17598656 0.29226425 -0.10898654 0.23561734
0003e0 dd 8a e3 3d 35 25 bb bc f5 a2 da 3d a6 fc ca 3d
       0.111104704 -0.02284489 0.10675613 0.0991147
0003f0 ec 3f 9b 3e 33 da 60 be 07 9d 36 be 51 a3 ae 3c
       0.30322206 -0.21958236 -0.17833339 0.02131811

action_model._discrete_distribution.branches.3.bias f4 [2]
000000 de 45 c3 3d e9 45 c3 bd
       0.095348105 -0.09534819

98 f4 [11]
000000 84 77 24 40 06 16 15 40 98 0d 70 40 7b 41 81 40
       2.5697947 2.3294692 3.7508297 4.039243
000010 b8 cb c0 41 67 8f 8f 3e 28 a1 83 3e 99 60 fe 3e
       24.099472 0.28039095 0.2570889 0.49683073
000020 3c e8 90 3e 19 01 a5 3e a3 58 f8 3e
       0.2830218 0.322274 0.48505124
