results/Imitation/Dark Knight Behavior/Dark Knight Behavior-1616625.pt (torch, 552039 bytes, 67 tensors)

network_body.observation_encoder.processors.0.normalizer.running_mean f4 [11]
4.7976184 -2.8715081 12.798621 12.277229 50.817513 0.08559558 0.071054175 0.4429861
0.08818121 0.11630765 0.37098044
00000000: 1786 9940 cac6 37c0 27c7 4c41 886f 4441
00000010: 2245 4b42 bc4c af3d da84 913d 13cf e23e
00000020: 5a98 b43d b532 ee3d 26f1 bd3e

network_body.observation_encoder.processors.0.normalizer.running_variance f4 [11]
1.0591464e+07 8.507995e+06 2.350004e+07 2.7132244e+07 9.306083e+08 126532.58 106707.3 398902.1
129986.23 166158.1 377247.47
00000000: e89c 214b 5bd2 014b 844a b34b aa00 cf4b
00000010: d3df 5d4e 4a22 f747 a669 d047 c3c6 c248
00000020: 1de1 fd47 8643 2248 ef33 b848

network_body.processors.0.normalizer.running_mean f4 [11]
4.7976184 -2.8715081 12.798621 12.277229 50.817513 0.08559558 0.071054175 0.4429861
0.08818121 0.11630765 0.37098044
00000000: 1786 9940 cac6 37c0 27c7 4c41 886f 4441
00000010: 2245 4b42 bc4c af3d da84 913d 13cf e23e
00000020: 5a98 b43d b532 ee3d 26f1 bd3e

network_body.processors.0.normalizer.running_variance f4 [11]
1.0591464e+07 8.507995e+06 2.350004e+07 2.7132244e+07 9.306083e+08 126532.58 106707.3 398902.1
129986.23 166158.1 377247.47
00000000: e89c 214b 5bd2 014b 844a b34b aa00 cf4b
00000010: d3df 5d4e 4a22 f747 a669 d047 c3c6 c248
00000020: 1de1 fd47 8643 2248 ef33 b848

network_body.linear_encoder.seq_layers.0.weight f4 [128, 11]
0.13178658 0.26207334 -0.15824318 0.34268335 0.20953529 -0.038131066 -0.3735857 0.04041156
-0.27607128 -0.15797313 0.5117813 -0.2654929 0.0015098753 0.9537597 -0.1418744 0.10237066
0.32751018 -0.10086287 0.16966607 0.07906114 -0.45385182 -0.2625534 0.3765693 -0.034683604
-0.19478388 0.31582704 0.15856017 0.06759525 0.050146922 -0.45132098 -0.21707201 0.4091609
0.089787565 -0.45960835 -0.4987111 0.4002166 0.14007956 -0.15673292 0.101174824 -0.4582441
-0.29320568 0.30561432 -0.2592951 0.3870623 -0.4363052 0.1536578 0.19534619 -0.12493129
-1.0111191 0.40557998 0.69843495 -0.05941941 -0.22077124 -0.0658084 -0.1970924 -0.45460537
0.23297796 -0.37634405 0.41160703 0.79081535 0.20376284 -0.04080904 -0.15854408 0.33054796
-0.31949228 -0.12495482 0.17586538 -0.14907327 -0.18274044 0.8957601 0.21611251 -0.48075995
-0.16122119 0.61336076 -0.24482898 0.11440236 0.37130317 -0.045230664 0.12643605 0.0070207613
0.24258642 0.37095678 0.22232981 -0.025473783 -0.36706463 -0.28714052 -0.13545316 0.36487275
0.3557263 0.39948094 0.039130826 0.08668299 -0.45705488 -0.21233648 -0.2673905 0.38126466
-0.3618121 0.12687619 0.053297035 -0.33960333 -0.282741 0.7259315 -0.36880952 -0.3716474
0.1686547 -0.043252934 -0.15654087 0.3665677 0.6135885 0.1223934 0.7690257 0.52663904
0.3051698 -0.4621419 0.36603594 -0.6397614 -0.13554959 0.21432114 -0.11158431 -0.73540205
0.077297196 -0.44277704 -0.18358241 0.014574427 -0.2527024 0.005014095 -0.49477234 -0.08253233
0.0758619 0.4581688 -0.002899033 0.35864908 -0.237613 0.1717957 -0.3942423 0.3164673
0.41201323 0.118000925 -0.112747215 -0.10199906 0.18060566 -0.08673782 0.030186402 0.019978143
-0.6392469 -0.4658578 -0.14199555 -0.6406694 0.6110245 -0.48770863 0.09772553 0.08359929
-0.028205475 -0.22020918 0.016195375 0.37518936 0.04039932 -0.45226288 -1.0570766 0.5528026
0.17121762 -0.50312495 0.31347826 0.5067739 0.5187235 0.18063225 -0.36588556 -0.30676723
0.004802684 0.047683734 0.08643987 0.32325515 0.6156813 0.3575079 0.1165238 -0.49223912
0.042337585 0.19605152 -0.62763697 0.13644935 0.62385863 0.13387369 0.29502615 0.33828935
-0.069110334 0.12495364 0.2104536 -0.07763297 -0.46693408 0.38193506 0.4899537 0.07150251
0.17315906 -0.3707308 -0.4186974 -0.48218235 -0.08175799 -0.17854807 -0.25042474 0.4423749
0.13618124 -0.84112716 -0.4562759 0.23117548 0.015078924 0.19368604 -0.5685519 0.2622677
-0.11363247 0.55273783 -0.5677127 0.63904464 0.45175335 -0.44440648 0.038465783 0.037235867
-0.40272477 -0.21974371 0.20694125 -0.08925483 -0.21452539 0.5726033 0.31016085 -0.088935785
-0.1880195 -0.050391153 0.517988 -0.031830363 -0.17248367 -0.964781 0.6535406 0.14710304
0.69314104 -0.094111934 0.09296409 -0.2622755 -0.08639387 0.30813915 0.028540153 0.2679771
-0.6124834 0.44719726 0.72672343 -0.46651554 -0.03945895 -0.16596451 -0.013938443 0.1273119
-0.17274185 -0.3587521 0.043555588 0.46739647 -0.27639678 -0.16084485 -0.596665 0.23036471
00000000: 10f3 063e 7a2e 863e 800a 22be 3174 af3e
00000010: 6b90 563e 522f 1cbd a046 bfbe 9886 253d
00000020: 3759 8dbe b5c3 21be 1904 033f afee 87be
00000030: 02e7 c53a 9829 743f 8647 11be b5a7 d13d
00000040: 6aaf a73e 3191 cebd f1bc 2d3e cfea a13d
00000050: 445f e8be 666d 86be b1cd c03e 6510 0ebd
00000060: 6d75 47be 15b4 a13e 995d 223e 616f 8a3d
00000070: dc66 4d3d 8b13 e7be 2048 5ebe 8a7d d13e
00000080: 8be2 b73d c951 ebbe 1057 ffbe 31e9 cc3e
00000090: 0471 0f3e 987e 20be bf34 cf3d f89e eabe
000000a0: 0e1f 96be 7b79 9c3e 54c2 84be 082d c63e
000000b0: 6563 dfbe 7858 1d3e d508 483e fadb ffbd
000000c0: 5a6c 81bf 2ea8 cf3e a2cc 323f c461 73bd
000000d0: db11 62be 8ec6 86bd 97d2 49be 09c2 e8be
000000e0: c691 6e3e 2bb0 c0be 28be d23e e072 4a3f
000000f0: 35a7 503e 6127 27bd 6159 22be 953d a93e
00000100: 7e94 a3be 50e8 ffbd 0e16 343e aaa6 18be
00000110: 4f20 3bbe 8950 653f 994c 5d3e 2b26 f6be
00000120: 2b17 25be 3605 1d3f 73b4 7abe c94b ea3d
00000130: 731b be3e ca43 39bd 7478 013e 6a0e e63b
00000140: 9368 783e 0cee bd3e 6daa 633e 65ae d0bc
00000150: e5ef bbbe 1504 93be 3cb4 0abe 9ad0 ba3e
00000160: c221 b63e c488 cc3e a547 203d da86 b13d
00000170: 1903 eabe bc6e 59be 68e7 88be 1f35 c33e
00000180: 703f b9be d5eb 013e fe4d 5a3d 7de0 adbe
00000190: 6ec3 90be a6d6 393f 9ad4 bcbe 9148 bebe
000001a0: d1b3 2c3e fd29 31bd 404c 20be c3ae bb3e
000001b0: 2314 1d3f 64a9 fa3d dede 443f d1d1 063f
000001c0: 373f 9c3e dd9d ecbe 1069 bb3e 67c7 23bf
000001d0: 83cd 0abe 0077 5b3e 5186 e4bd 4f43 3cbf
000001e0: fe4d 9e3d acb3 e2be 07fd 3bbe 94c9 6e3c
000001f0: 3562 81be 474d a43b cd52 fdbe b606 a9bd
00000200: 7c5d 9b3d 1a95 ea3e b4fd 3dbb daa0 b73e
00000210: d350 73be 36eb 2f3e 20da c9be 0008 a23e
00000220: 66f3 d23e 78aa f13d 03e8 e6bd e2e4 d0bd
00000230: b1f0 383e 99a3 b1bd 7949 f73c 34a9 a33c
00000240: afa5 23bf ea84 eebe 4867 11be e902 24bf
00000250: 1a6c 1c3f f2b4 f9be 5324 c83d 1b36 ab3d
00000260: 2b0f e7bc 847e 61be 2aac 843c d218 c03e
00000270: c279 253d 008f e7be 494e 87bf 7984 0d3f
00000280: ac53 2f3e cccc 00bf 3980 a03e efbb 013f
00000290: 10cb 043f a9f7 383e 5a55 bbbe 9810 9dbe
000002a0: d55f 9d3b 0550 433d 6307 b13d b381 a53e
000002b0: 4a9d 1d3f 470b b73e 08a4 ee3d c406 fcbe
000002c0: 2d6a 2d3d bbc1 483e d1ac 20bf 61b9 0b3e
000002d0: 33b5 1f3f 2f16 093e ab0d 973e 4334 ad3e
000002e0: b889 8dbd b2e7 ff3d 2681 573e 09fe 9ebd
000002f0: fc11 efbe fe8c c33e 36db fa3e e86f 923d
00000300: 9c50 313e 6dd0 bdbe 815f d6be 9be0 f6be
00000310: bc70 a7bd 4ed5 36be ac37 80be f77e e23e
00000320: 1873 0b3e 1c54 57bf ff9c e9be 44b9 6c3e
00000330: 970d 773c a255 463e 9e8c 11bf f447 863e
00000340: 24b8 e8bd 3a80 0d3f 9f55 11bf 6e98 233f
00000350: 374c e73e 3f89 e3be 4c8e 1d3d a384 183d
00000360: f131 cebe 7f04 61be 68e8 533e 3ccb b6bd
00000370: 8bac 5bbe 2196 123f 67cd 9e3e f723 b6bd
00000380: 2f88 40be f466 4ebd dd9a 043f 8e60 02bd
00000390: 8f9f 30be e3fb 76bf 704e 273f 2ea2 163e
000003a0: b171 313f c2bd c0bd f563 be3d f948 86be
000003b0: 45ef b0bd 6ac4 9d3e 0acd e93c 4b34 893e
000003c0: b6cb 1cbf 0af7 e43e 8c0a 3a3f 20db eebe
000003d0: b59f 21bd 9af2 29be 115e 64bc 0d5e 023e
000003e0: 3de3 30be 5bae b7be 5867 323d 974e ef3e
000003f0: e183 8dbe 83b4 24be 0abf 18bf bae4 6b3e

network_body.linear_encoder.seq_layers.0.bias f4 [128]
-0.059882343 -0.0028743849 -0.1095606 -0.006408275 -0.08822433 -0.16115479 0.10034136 -0.09356753
-0.04523368 -0.0029694124 0.06341955 -0.07452898 -0.07817004 0.13670245 0.07608331 0.05577954
0.014845423 -0.27513385 0.14565976 0.029823521 0.07933131 0.012907348 0.02076106 -0.1821367
-0.050247446 -0.123190135 0.22217368 0.07820293 0.14443524 0.016841644 0.057705093 -0.024371704
0.16630729 0.04128898 0.09658609 -0.05989019 -0.19219562 -0.0018484138 0.12887688 -0.13219535
0.028702104 0.006248158 0.02140922 0.039551593 0.0024779802 0.060541183 -0.050251607 -0.19538148
0.020409174 -0.06666092 -0.19568554 0.048043646 0.0995312 -0.05689951 0.011387623 -0.13239329
0.038093165 0.18832009 0.18264012 0.042127967 0.08979066 -0.07027266 -0.019030526 0.0016014479
0.023541436 0.11028254 -0.095718175 0.10971882 -0.010531766 0.04238699 0.04093407 0.027816355
-0.06873017 -0.10170662 0.030844763 0.1931813 0.14641175 0.10019921 0.048501 -0.09498609
-0.08429166 -0.06339134 -0.033882376 0.045983993 0.09681344 0.09014203 0.049167484 0.05711132
0.21766943 -0.07594424 -0.034445208 0.027531603 -0.009065006 -0.065021805 0.22410007 -0.012519272
-0.025239382 -0.047481675 -0.08353005 -0.067465216 -0.06264898 -0.18976146 0.05629472 0.062455386
0.056613434 0.18829024 0.020886987 -0.10932931 -0.10907054 0.056321934 0.020171123 -0.09300813
-0.036007967 -0.054602426 -0.043482587 -0.17353001 0.06516602 0.031586044 -0.031399287 -0.061269443
-0.06257121 0.13880317 -0.032515474 -0.037935898 -0.19687474 0.24166957 -0.025890386 0.030784491
00000000: 3047 75bd 2d60 3cbb 4f61 e0bd 82fc d1bb
00000010: f5ae b4bd c305 25be c57f cd3d 55a0 bfbd
00000020: f446 39bd 799a 42bb 1ce2 813d a6a2 98bd
00000030: 9d17 a0bd bafb 0b3e 91d1 9b3d 1679 643d
00000040: 383a 733c 58de 8cbe d527 153e 7550 f43c
00000050: 7478 a23d 5779 533c 1913 aa3c 0b82 3abe
00000060: 44d0 4dbd 1c4b fcbd 7f81 633e dc28 a03d
00000070: d5e6 133e 7df7 893c 2d5c 6c3d 2ba7 c7bc
00000080: 754c 2a3e a21e 293d eece c53d 6a4f 75bd
00000090: eece 44be 7a46 f2ba 4df8 033e 385e 07be
000000a0: ad20 eb3c 59bd cc3b 6362 af3c da00 223d
000000b0: 9c65 223b 08fa 773d a1d4 4dbd 1512 48be
000000c0: 2431 a73c 8585 88bd ca61 48be 6ac9 443d
000000d0: 04d7 cb3d 760f 69bd 2793 3a3c 1b92 07be
000000e0: 9407 1c3d fbd6 403e 0306 3b3e 608e 2c3d
000000f0: 2ae4 b73d 1deb 8fbd e8e5 9bbc ade7 d13a
00000100: f8d9 c03c d0db e13d e407 c4bd 43b4 e03d
00000110: 6e8d 2cbc fb9d 2d3d 7caa 273d 20df e33c
00000120: 67c2 8cbd 8f4b d0bd 28ae fc3c 52d1 453e
00000130: f6ec 153e 3e35 cd3d fca8 463d 1188 c2bd
00000140: 1ba1 acbd 52d3 81bd 3fc8 0abd b659 3c3d
00000150: 2046 c63d 629c b83d d863 493d 8fed 693d
00000160: bce4 5e3e a788 9bbd 6b16 0dbd f589 e13c
00000170: 6485 14bc 272a 85bd 7d7a 653e a21d 4dbc
00000180: d2c2 cebc 257c 42bd ce11 abbd 342b 8abd
00000190: 1c4e 80bd d450 42be 4b95 663d 38d1 7f3d
000001a0: 7de3 673d 28cf 403e 301b ab3c 0ce8 dfbd
000001b0: 6060 dfbd d4b1 663d e93d a53c 0c7b bebd
000001c0: 177d 13bd cba6 5fbd cc1a 32bd dab1 31be
000001d0: c375 853d 5e60 013d 8a9c 00bd abf5 7abd
000001e0: 5625 80bd 6b22 0e3e f22e 05bd ac62 1bbd
000001f0: 8899 49be 3a78 773e 1318 d4bc c22f fc3c

network_body.linear_encoder.seq_layers.2.weight f4 [128, 128]
-0.21424823 -0.14422643 -0.16122061 -0.007955868 0.2617738 0.12501588 0.12500851 -0.29521874
-0.21629046 -0.08118534 -0.43537512 0.08606986 0.088959664 -0.14738843 0.0595164 0.08314711
0.097324416 -0.06465838 -0.08487136 -0.3395857 -0.06251135 -0.20136838 -0.25627938 -0.012440961
-0.36464718 0.02176086 0.045610316 -0.15840776 -0.25890028 0.020252394 -0.1246207 0.08300119
-0.4666298 -0.28113496 -0.5306698 -0.04283589 0.006687764 -0.060580943 -0.07732882 -0.0065355324
-0.07519505 0.25410903 0.3180523 0.011624829 -0.15120943 -0.20453303 -0.12383423 -0.16397253
-0.13089663 0.04363363 -0.12323246 -0.293851 -0.23317553 -0.45848003 -0.14206338 -0.24408686
-0.36157143 -0.29586542 -0.15379769 0.13881555 -0.14131369 -0.099146895 -0.3220405 -0.023652436
0.08478627 -0.04241465 -0.15423484 0.12845439 0.01665575 0.17417069 -0.13700369 0.102092445
0.054615445 -0.2801224 0.069371186 -0.23606215 -0.8569824 -0.29160476 -0.07429815 0.02704389
-0.07849116 0.14885454 0.01354642 -0.14049366 -0.3276808 -0.20821217 -0.16979124 -0.6320269
-0.0020455727 -0.020821411 0.1124785 0.07420076 -0.08983452 -0.08246621 0.060907543 -0.07818075
-0.16908196 -0.15349576 -0.012232722 0.031768482 0.031677973 -0.33966666 0.037593123 -0.013114981
0.110839374 -0.18472879 -0.42256373 0.1722221 0.14839627 -0.257938 -0.25696754 0.093632974
0.032527845 0.068330474 -0.14470077 0.10396495 -0.32392788 -0.12847759 0.24016532 -0.11375697
-0.056986943 -0.031120006 -0.18097362 -0.23964837 0.09280633 -0.19887224 0.0706863 0.07535656
-0.21860602 -0.06668646 0.050148062 -0.33835602 -0.06287279 0.10028146 -0.2453718 -0.045476988
-0.23689868 -0.14865147 -0.022626426 -0.031504612 0.024854397 0.06452765 -0.30991405 0.069902614
-0.070205435 -0.03427928 -0.03516241 -0.355326 -0.22846435 -0.11513729 0.075666785 0.1615744
-0.115561396 -0.24280362 -0.18893467 -0.2686771 -0.10448705 -0.3112004 0.47917116 -0.14597985
0.10966572 0.081920184 -0.03071227 0.37662625 0.0030543848 -0.200615 -0.12949048 0.1886536
0.091746606 -0.4642574 -0.16819765 -0.14243615 0.05402856 -0.4297356 -0.20009449 -0.06242298
-0.29895112 0.13792756 -0.049087267 -0.07138647 0.1460923 0.10163936 -0.03947377 0.100465655
0.07319168 -0.10041115 -0.2897384 -0.068077385 -0.050944053 0.03615131 -0.06359112 0.09792493
-0.16859394 0.11462126 0.26730642 0.048338566 0.21400434 -0.014172816 -0.25702077 0.19568253
-0.044665795 0.020855645 0.012913017 0.14608191 0.043797676 0.10056079 0.0011070077 -0.057516262
0.2155921 -0.17012358 -0.002591681 -0.11280105 -0.2014085 0.023076368 -0.22198747 -0.032098927
0.017181171 -0.16026476 0.10887655 0.052860387 -0.3184978 -0.09525629 0.110772654 -0.20870095
0.39026076 0.04317036 -0.037639476 0.09103655 0.038105566 0.01582429 2.906534e-05 0.23202954
-0.092444025 -0.24602629 -0.04444958 -0.1709375 -0.058649573 0.32369396 -0.06529718 0.1590844
-0.016085131 -0.024153242 0.13628626 0.08536066 -0.024952292 -0.24532084 0.115346044 0.2307229
0.13255294 -0.0033438182 0.052855615 0.2143502 0.042103574 0.020210648 0.14761908 -0.018520407
00000000: e363 5bbe 18b0 13be 0417 25be 5459 02bc
00000010: 3707 863e 2a04 003e 3b02 003e e926 97be
00000020: 3f7b 5dbe 8044 a6bd 7de9 debe 6545 b03d
00000030: 7c30 b63d feec 16be 78c7 733d 0849 aa3d
00000040: 0652 c73d 9d6b 84bd 09d1 adbd 2dde adbe
00000050: f305 80bd 8333 4ebe 0d37 83be 2cd5 4bbc
00000060: 09b3 babe d543 b23c e2d1 3a3d a535 22be
00000070: 948e 84be 59e8 a53c 2339 ffbd 87fc a93d
00000080: 1aea eebe ecf0 8fbe fad9 07bf b074 2fbd
00000090: 0825 db3b b923 78bd 935e 9ebd 0528 d6bb
000000a0: ddff 99bd 941a 823e c0d7 a23e 1176 3e3c
000000b0: a5d6 1abe 1b71 51be cd9c fdbd 6ae8 27be
000000c0: c409 06be 2db9 323d 4d61 fcbd a373 96be
000000d0: 91c5 6ebe e5bd eabe 1079 11be e8f1 79be
000000e0: e41f b9be ac7b 97be 247d 1dbe aa25 0e3e
000000f0: 89b4 10be 870d cbbd 7ee2 a4be c1c2 c1bc
00000100: 6da4 ad3d fcba 2dbd bdef 1dbe 8c89 033e
00000110: a471 883c cd59 323e b24a 0cbe d815 d13d
00000120: 72b4 5f3d 346c 8fbe 7b12 8e3d 47ba 71be
00000130: 3363 5bbf 384d 95be a129 98bd 268b dd3c
00000140: f9bf a0bd 536d 183e cef1 5d3c 92dd 0fbe
00000150: c7c5 a7be 9235 55be c1dd 2dbe 84cc 21bf
00000160: 040f 06bb aa91 aabc 215b e63d 91f6 973d
00000170: 29fb b7bd 0be4 a8bd 307a 793d 3b1d a0bd
00000180: d223 2dbe fe2d 1dbe c16b 48bc ab1f 023d
00000190: c3c0 013d cae8 adbe 3ffb 193d 38e0 56bc
000001a0: c1ff e23d 8b29 3dbe 465a d8be fd5a 303e
000001b0: 31f5 173e 7310 84be 4091 83be a5c2 bf3d
000001c0: eb3b 053d d9f0 8b3d 702c 14be 93eb d43d
000001d0: e0d9 a5be a18f 03be e6ed 753e 6af9 e8bd
000001e0: 246b 69bd 62ef febc 2651 39be 6266 75be
000001f0: 3f11 be3d 2aa5 4bbe fbc3 903d 8a54 9a3d
00000200: 42da 5fbe e992 88bd 0e68 4d3d 003d adbe
00000210: 73c3 80bd 5e60 cd3d bf42 7bbe 1446 3abd
00000220: 9195 72be 1738 18be 0e5b b9bc fb0a 01bd
00000230: 739b cb3c 1327 843d 0ead 9ebe 1a29 8f3d
00000240: dec7 8fbd 6e68 0cbd 7606 10bd 4aed b5be
00000250: 8ff2 69be 19cd ebbd 30f7 9a3d c273 253e
00000260: 74ab ecbd 83a1 78be 1778 41be 0b90 89be
00000270: 4efd d5bd a955 9fbe ec55 f53e be7b 15be
00000280: 6c98 e03d c5c5 a73d 4c98 fbbc 28d5 c03e
00000290: 132c 483b 056e 4dbe 2799 04be 692e 413e
000002a0: a5e5 bb3d 25b3 edbe 013c 2cbe c8da 11be
000002b0: 0d4d 5d3d 4e06 dcbe 92e5 4cbe 3daf 7fbd
000002c0: 1f10 99be e23c 0d3e bb0f 49bd 1233 92bd
000002d0: 3899 153e 4c28 d03d 3faf 21bd f0c0 cd3d
000002e0: 85e5 953d 5ca4 cdbd 9758 94be 286c 8bbd
000002f0: b6aa 50bd 6513 143d 103c 82bd de8c c83d
00000300: e4a3 2cbe 8dbe ea3d 63dc 883e a9fe 453d
00000310: f423 5b3e 1935 68bc 3a98 83be 0061 483e
00000320: 7bf3 36bd 75d9 aa3c 1e91 533c 7f96 153e
00000330: 3165 333d d1f2 cd3d 0419 913a 2c96 6bbd
00000340: 2dc4 5c3e e034 2ebe 31d9 29bb 3d04 e7bd
00000350: 083e 4ebe a70a bd3c af50 63be 2a7a 03bd
00000360: 87bf 8c3c 721c 24be abfa de3d 2284 583d
00000370: 2512 a3be bb15 c3bd c6dc e23d b4b5 55be
00000380: 42d0 c73e 67d3 303d da2b 1abd 5f71 ba3d
00000390: 9514 1c3d f1a1 813c 58d1 f337 2799 6d3e
000003a0: 4b53 bdbd 51ee 7bbe c310 36bd 3d0a 2fbe
000003b0: 893a 70bd 37bb a53e 87ba 85bd 05e7 223e
000003c0: f7c4 83bc 05dd c5bc a08e 0b3e 92d1 ae3d
000003d0: c068 ccbc 6335 7bbe 8c3a ec3d a042 6c3e
000003e0: f5bb 073e f623 5bbb 217f 583d 9e7e 5b3e
000003f0: cc74 2c3d cd90 a53c 7529 173e 1cb8 97bc

network_body.linear_encoder.seq_layers.2.bias f4 [128]
0.015946379 0.023201803 -0.014968145 0.0073707765 0.11776099 0.034811176 -0.045585163 -0.07533715
0.017426295 -0.049335547 0.010807634 -0.05832289 -0.09889686 -0.1537527 -0.010435666 -0.08688928
-0.058375772 0.042001292 -0.052998863 -0.06858025 -0.13341326 -0.13370359 0.05353163 -0.09991665
-0.007394895 0.0058208527 -0.014267505 0.00034138354 0.041039176 -0.057079323 -0.0009919112 -0.09976998
0.053874724 -0.06164172 -0.082124755 -0.040204957 0.055419106 -0.032103207 0.0013659638 -0.06479028
-0.03180957 0.030888787 -0.035433188 0.06831626 -0.053046353 -0.020168306 -0.018658573 -0.07246886
-0.062792465 -0.053496256 -0.15524134 -0.09287852 -0.15036276 -0.13372435 0.02788877 -0.06831827
0.07644221 -0.17071904 -0.07783874 -0.074989684 -0.0014895463 -0.10588436 -0.039244328 -0.080138795
-0.029314378 -0.10350184 -0.12602086 -0.09953016 -0.006235019 -0.09167171 -0.09149847 -0.0039216382
0.009583177 0.08566862 -0.08157758 0.00551895 0.020642769 0.010205908 0.0037541422 -0.0014410921
-0.00073403626 0.012148074 0.016315265 -0.09806323 -0.15704171 -0.10897329 0.05364993 -0.049670897
-0.08654879 0.01756165 -0.09972977 -0.08281583 -0.084355265 -0.082763225 -0.0016602296 0.059871353
-0.032799043 0.023472242 0.065909415 0.017819516 0.050462887 -0.073340096 -0.011734678 -0.09871363
-0.07240349 -0.14038517 -0.12442308 0.121578254 0.015860373 0.06274236 -0.103908606 -0.08477504
-0.011664901 0.037923317 -0.06270973 -0.07495844 -0.18912166 -0.17155656 -0.0005557696 -0.11837068
-0.09432932 -0.0069214 -0.07507605 0.10372806 -0.11176699 -0.005443737 -0.07326146 0.03792978
00000000: fba1 823c b511 be3c f33c 75bc 8e86 f13b
00000010: ad2c f13d 2a96 0e3d 82b7 3abd 5d4a 9abd
00000020: 97c1 8e3c 1214 4abd 8112 313c fce3 6ebd
00000030: 708a cabd 5971 1dbe 5bfa 2abc 02f3 b1bd
00000040: 6f1b 6fbd 8c09 2c3d 5615 59bd cd73 8cbd
00000050: 7c9d 08be 98e9 08be fc43 5b3d 1aa1 ccbd
00000060: e050 f2bb dabc be3b 41c2 69bc b9fb b239
00000070: b218 283d 02cc 69bd 0403 82ba 3454 ccbd
00000080: beab 5c3d 077c 7cbd 0631 a8bd f4ad 24bd
00000090: 25ff 623d a77e 03bd 240a b33a c4b0 84bd
000000a0: c04a 02bd 7b0a fd3c 6422 11bd 65e9 8b3d
000000b0: 2247 59bd 0138 a5bc ddd9 98bc 8e6a 94bd
000000c0: 5699 80bd e41e 5bbd 96f7 1ebe 1837 bebd
000000d0: b2f8 19be 09ef 08be fd76 e43c 73ea 8bbd
000000e0: bc8d 9c3d f9d0 2ebe eb69 9fbd 3194 99bd
000000f0: e13c c3ba e6d9 d8bd a9be 20bd cf1f a4bd
00000100: b524 f0bc c6f8 d3bd 9d0b 01be 78d6 cbbd
00000110: 214f ccbb 61be bbbd 8d63 bbbd 1681 80bb
00000120: c202 1d3c 0873 af3d 2512 a7bd 4fd8 b43b
00000130: 061b a93c ae36 273c 0e08 763b 07e3 bcba
00000140: 576c 40ba b708 473c 97a7 853c 60d5 c8bd
00000150: 8bcf 20be 632d dfbd 07c0 5b3d b673 4bbd
00000160: 7e40 b1bd 73dd 8f3c 1f3f ccbd 599b a9bd
00000170: 74c2 acbd c47f a9bd 109c d9ba aa3b 753d
00000180: 4a58 06bd dc48 c03c 84fb 863d 3cfa 913c
00000190: 2cb2 4e3d 5533 96bd cf42 40bc 5f2a cabd
000001a0: 4848 94bd 21c1 0fbe 87d1 febd 05fe f83d
000001b0: 9ded 813c 117f 803d 09ce d4bd 899e adbd
000001c0: 241e 3fbc 7b55 1b3d f56d 80bd d083 99bd
000001d0: 1ca9 41be 86ac 2fbe 11b1 11ba 546c f2bd
000001e0: bb2f c1bd e9cc e2bb 79c1 99bd 616f d43d
000001f0: 17e6 e4bd 6061 b2bb 1b0a 96bd 425c 1b3d

action_model._discrete_distribution.branches.0.weight f4 [3, 128]
0.16161714 -0.13467394 0.40488085 -0.014096116 0.016555676 0.094793834 0.065492675 -0.06347888
0.04494198 0.23043911 -0.14720434 -0.07746972 -0.023001611 0.20822076 -0.06945834 -0.07346689
-0.15312535 0.034490958 0.0032271084 0.052476887 0.3297876 0.012064105 -0.082463935 0.066432975
0.05439914 -0.057987746 -0.040482104 0.009676446 0.10104788 0.13052817 0.057627868 0.5192404
-0.11975903 0.32313222 0.09523878 -0.06957819 -0.25257054 0.07251888 0.07501866 0.020777604
0.06589343 -0.29517287 -0.135791 -0.118160285 -0.08936275 0.10585568 0.0139501905 0.05319577
-0.17711778 -0.0052789073 0.22030908 -0.08526247 0.36528543 -0.022154942 0.024077129 0.06784404
-0.12816961 0.13709496 -0.04109239 0.110083856 -0.08825195 0.11797549 0.011353574 -0.1430431
-0.057227965 -0.13065541 0.0043857223 0.1570888 -0.28362343 0.10057175 -0.079913065 -0.081537634
0.056134168 -0.22937723 -0.045334425 0.19269507 -0.12954894 -0.11487377 -0.39638248 -0.07206806
0.02031829 0.09678019 0.076706484 0.03764779 0.09246419 -0.2601408 -0.1509162 -0.148756
0.18375483 -0.2016279 0.046628203 0.0067593865 -0.20869854 0.027263962 -0.16914047 -0.3587043
-0.19445169 -0.029031074 -0.53100675 -0.090889685 -0.17401972 0.004752291 -0.45894206 -0.15588239
0.011938331 0.056331728 0.12959425 -0.14949779 -0.19519776 -0.13045652 -0.29717278 0.026170267
-0.32475325 -0.081439845 -0.08930148 0.027195271 0.009849003 -0.16500533 0.11265326 0.001763406
0.1678216 -0.5162588 0.24895634 -0.07814092 -0.161736 0.08183309 0.0673817 -0.2582474
0.19058555 -0.0447387 0.08770775 -0.23885001 -0.10737608 -0.20610788 0.14585209 0.2760054
0.1252993 -0.16160613 0.021083932 -0.17695013 0.04122755 0.59747696 -0.026267365 0.2000039
-0.01507161 -0.35385963 -0.042619202 -0.1291992 -0.17621538 0.5018118 0.29774904 -0.13577376
-0.2315154 -0.15474446 -0.07329436 -0.13560009 -0.4460362 0.040239435 -0.01539668 -0.3700833
-0.46261406 -0.006674357 0.10978654 -0.0329972 0.14813213 -0.22140823 -0.0942834 0.0021103742
0.21029098 -0.05504508 -0.036827575 0.1638788 0.03730919 -0.9424974 0.20375606 -0.061968215
0.015700141 0.08368191 -0.3245679 0.03066897 0.05065612 -0.025212452 -0.16337505 -0.08349776
-0.0518644 -0.43998238 -0.099372715 -0.5284859 0.09773943 0.036729645 0.14439902 0.11841224
-0.061804514 0.06823824 -0.25323224 0.19173802 -0.24280934 -0.012805104 -0.051145423 -0.09110671
-0.1445469 -0.16208218 0.061092805 -0.75478417 0.011163502 0.049488947 0.23452519 0.060003307
0.06390924 -0.86347556 -0.22384371 -0.16319555 -0.5648307 0.024427122 -0.058630645 0.14557666
-0.0077181836 0.08676186 0.075717695 -0.10486906 -0.0056009847 0.19165786 0.11194425 0.28021532
-0.18298098 -0.10777033 0.25840402 0.0924588 -0.11997379 -0.011781541 0.26336867 0.01730263
-0.2371823 0.3625904 -0.30365056 -0.3113359 0.10988794 -0.025486378 -0.23496144 0.010723879
0.042551994 0.06355235 0.09094296 -0.5461271 0.4954524 0.27624595 0.033517614 0.028529095
0.016653815 -0.3308441 -0.6524021 -0.47782394 0.4589921 -0.031706866 -0.2928133 0.14698805
00000000: f77e 253e f7e7 09be 8b4c cf3e 65f3 66bc
00000010: c59f 873c 4523 c23d 0621 863d 3701 82bd
00000020: 1515 383d 3bf8 6b3e bcbc 16be 72a8 9ebd
00000030: e06d bcbc d337 553e 2d40 8ebd cf75 96bd
00000040: e4cc 1cbe 6446 0d3d e57d 533b 01f2 563d
00000050: ecd9 a83e 86a8 453c dae2 a8bd 030e 883d
00000060: a2d1 5e3d 8f84 6dbd 90d0 25bd f589 1e3c
00000070: 31f2 ce3d 2da9 053e 330b 6c3d f0ec 043f
00000080: 3944 f5bd 9671 a53e 8d0c c33d 037f 8ebd
00000090: ed50 81be c784 943d 62a3 993d cb35 aa3c
000000a0: 22f3 863d e620 97be cc0c 0bbe 05fe f1bd
000000b0: d103 b7bd ddca d83d 578f 643c cfe3 593d
000000c0: 5d5e 35be affa acbb b498 613e 179e aebd
000000d0: b106 bb3e 487e b5bc 663d c53c d1f1 8a3d
000000e0: e53e 03be 9f62 0c3e 7e50 28bd a573 e13d
000000f0: 70bd b4bd 229d f13d 5704 3a3c e479 12be
00000100: df67 6abd 88ca 05be 1bb6 8f3b e3db 203e
00000110: 1737 91be 90f8 cd3d 76a9 a3bd 34fd a6bd
00000120: f1ec 653d dde1 6abe 97b0 39bd db51 453e
00000130: 7aa8 04be f042 ebbd a5f2 cabe 6b98 93bd
00000140: 8b72 a63c b134 c63d 4a18 9d3d 9234 1a3d
00000150: de5d bd3d 2d31 85be c789 1abe 7e53 18be
00000160: 3a2a 3c3e 8b77 4ebe 37fd 3e3d d87d dd3b
00000170: 12b5 55be ac58 df3c 2933 2dbe 17a8 b7be
00000180: 581e 47be 93d2 edbc 0ff0 07bf 5f24 babd
00000190: 3a32 32be 1bb9 9b3b 74fa eabe a29f 1fbe
000001a0: fd98 433c 19bc 663d 5bb4 043e f315 19be
000001b0: ece1 47be 6596 05be 0827 98be 0763 d63c
000001c0: 0f46 a6be efc9 a6bd b2e3 b6bd 9ec8 de3c
000001d0: b65d 213c 28f7 28be c1b6 e63d 1622 e73a
000001e0: 6dd9 2b3e 8929 04bf 69ee 7e3e 5908 a0bd
000001f0: 1f9e 25be 1b98 a73d 6bff 893d 0139 84be
00000200: dc28 433e ed3f 37bd 1fa0 b33d 1995 74be
00000210: fde7 dbbd f20d 53be 405a 153e 9450 8d3e
00000220: 764e 003e 147c 25be 36b8 ac3c 6a32 35be
00000230: 38de 283d 40f4 183f a82e d7bc d3cd 4c3e
00000240: eaee 76bc 172d b5be 7991 2ebd cc4c 04be
00000250: ce71 34be bd76 003f 9072 983e 4708 0bbe
00000260: 5f12 6dbe 5575 1ebe 5a1b 96bd c0da 0abe
00000270: db5e e4be 1bd2 243d 5b42 7cbc 8f7b bdbe
00000280: c0db ecbe 91b4 dabb c4d7 e03d 1228 07bd
00000290: f3af 173e d7b8 62be a817 c1bd 344e 0a3b
000002a0: 8556 573e f376 61bd 83d8 16bd d8cf 273e
000002b0: 85d1 183d 8247 71bf 6ea5 503e 62d2 7dbd
000002c0: 959d 803c 6c61 ab3d c42d a6be 7e3d fb3c
000002d0: cb7c 4f3d 588a cebc ca4b 27be e000 abbd
000002e0: c46f 54bd 5f45 e1be ec83 cbbd da4a 07bf
000002f0: 9c2b c83d d371 163d 56dd 133e 1e82 f23d
00000300: bb26 7dbd 7ec0 8b3d a8a7 81be f956 443e
00000310: 03a3 78be 80cc 51bc dd7d 51bd 2896 babd
00000320: 1a04 14be dff8 25be 733c 7a3d 8939 41bf
00000330: 1fe7 363c ecb4 4a3d 5f27 703e 07c6 753d
00000340: d9e2 823d bc0c 5dbf 4937 65be bc1c 27be
00000350: bf98 10bf 631b c83c b026 70bd 0c12 153e
00000360: d1e8 fcbb 34b0 b13d e111 9b3d 97c5 d6bd
00000370: 7788 b7bb f541 443e 0743 e53d 6278 8f3e
00000380: 5e5f 3bbe b1b6 dcbd 884d 843e 0a5b bd3d
00000390: d2b4 f5bd 5d07 41bc 42d8 863e 3fbe 8d3c
000003a0: ebdf 72be 73a5 b93e 1678 9bbe 6b67 9fbe
000003b0: ee0c e13d cfc8 d0bc bb99 70be 35b3 2f3c
000003c0: 004b 2e3d bc27 823d 4d40 ba3d fcce 0bbf
000003d0: f0ab fd3e 1c70 8d3e c449 093d d9b5 e93c
000003e0: 956d 883c 6664 a9be d303 27bf 57a5 f4be
000003f0: 0301 eb3e 0fdf 01bd a0eb 95be 0984 163e

action_model._discrete_distribution.branches.0.bias f4 [3]
-0.09062428 -0.15644866 0.12430838
00000000: 3999 b9bd 1434 20be 6495 fe3d

action_model._discrete_distribution.branches.1.weight f4 [2, 128]
-0.066281684 0.102075875 -0.18126613 -0.08817466 0.11755728 0.46785796 -0.016728949 0.082862645
0.039096925 0.02767942 -0.03288156 0.13841537 -0.01690914 -0.25737432 0.044849467 0.018406369
-0.09879796 0.057114203 -0.003381336 -0.048190657 -0.06274599 -0.52622885 0.28784293 -0.057401806
-0.037318055 0.06662503 0.056538425 -0.016940637 0.15411237 -0.1640921 0.16834803 0.12331853
0.43824235 -0.025316292 0.09071225 -0.16199261 -0.022134978 -0.006859453 -0.3304791 -0.018323785
0.06857738 -0.053415958 0.071749836 0.035714038 -0.05572661 0.08396644 -0.09278386 0.08924035
0.071341045 -0.20794599 -0.11524487 0.010295977 -0.51675683 -0.0065076672 0.39352337 -0.10621202
0.05140581 -0.09543458 -0.028884368 -0.083612464 0.16823867 0.048402473 0.092791 -0.16094692
-0.060318716 0.20515427 -0.07468727 -0.16938533 -0.01872126 0.2552525 -0.022866614 0.13676016
-0.03233697 -0.1738179 -0.11664338 0.118910715 0.042961586 0.11571973 -0.3675026 0.04261131
-0.1826776 -0.011681894 0.04057337 -0.01037763 0.005275127 -0.0066816327 0.15357949 -0.010857645
0.06562198 0.008799205 0.062176887 0.03242374 -0.29869187 -0.074834056 -0.021510847 -0.21933626
0.019301312 0.0030235501 0.20141761 -0.004730229 0.44624984 -0.06085226 -0.025894089 -0.12181795
0.079511866 -0.54145974 -0.115733124 0.11966735 0.05212652 0.102165334 0.12930867 -0.054216262
-0.016288625 0.12823164 -0.05733346 -0.0027426057 -0.5861826 -0.47045562 0.33272806 -0.13151324
-0.3998231 0.24363732 -0.12360427 0.25266945 -0.16745423 0.095951974 0.09872035 -0.007338408
0.0794185 -0.08517119 0.17627105 0.06940554 -0.12139902 -0.47972137 -0.007958148 -0.08412592
-0.04382423 -0.0075208754 0.02390737 -0.1349433 0.014193795 0.25268152 -0.06888317 -0.012333068
0.10644238 -0.044392098 0.032634012 0.055784978 0.04267412 0.5325658 -0.2874673 0.057569638
0.054171752 -0.0748223 -0.048156876 0.028016008 -0.14995314 0.14982031 -0.15501037 -0.12996466
-0.43670163 0.014623107 -0.08305681 0.19048898 0.01652816 0.0163256 0.34288886 0.018934267
-0.057106055 0.063417725 -0.07682484 -0.05510216 0.054665234 -0.078060456 0.10572737 -0.08560286
-0.04413748 0.21740597 0.10435176 -0.017582739 0.5064823 0.030213084 -0.39677817 0.10018237
-0.051109403 0.10578867 0.023496082 0.088264525 -0.16568232 -0.058847584 -0.10913286 0.15201652
0.049905494 -0.2113486 0.06455497 0.16872491 0.015205196 -0.25151566 0.01991294 -0.13599595
0.02677074 0.16629408 0.115898415 -0.10876411 -0.05820812 -0.09734568 0.36537623 -0.04598413
0.18012571 0.03660167 -0.05259411 0.031793438 -0.0016990255 0.033418298 -0.15381281 0.017824164
-0.07305788 -0.01115683 -0.045997407 -0.017670996 0.2951385 0.07181234 0.012187603 0.20236959
-0.019112144 0.0040853834 -0.1959594 0.002051825 -0.43561122 0.06474242 0.045021083 0.12573259
-0.09003328 0.5313045 0.10052294 -0.13547659 -0.045718107 -0.12800838 -0.12445545 0.06753237
-0.00021065588 -0.10831665 0.059060216 0.010999989 0.5720994 0.46830797 -0.3220652 0.11424641
0.42142788 -0.24150111 0.12980655 -0.24760877 0.16273147 -0.086727805 -0.10910349 0.026695909
00000000: b1be 87bd 280d d13d d49d 39be eb94 b4bd
00000010: dfc1 f03d 148b ef3e 260b 89bc e4b3 a93d
00000020: 1924 203d f3bf e23c d1ae 06bd c2bc 0d3e
00000030: 0985 8abc 91c6 83be 13b4 373d f4c8 963c
00000040: 9656 cabd 95f0 693d 6899 5dbb 9163 45bd
00000050: f880 80bd efb6 06bf 2660 933e 281e 6bbd
00000060: d1da 18bd b472 883d d694 673d 17c7 8abc
00000070: a2cf 1d3e c207 28be 6d63 2c3e 6d8e fc3d
00000080: 4d61 e03e 1d64 cfbc 58c7 b93d 64e1 25be
00000090: 6a54 b5bc 43c5 e0bb 8e34 a9be c31b 96bc
000000a0: 4c72 8c3d b1ca 5abd 94f1 923d e248 123d
000000b0: 9641 64bd 99f6 ab3d 7705 bebd a5c3 b63d
000000c0: 411b 923d cbef 54be 8105 ecbd 75b0 283c
000000d0: 2d4a 04bf 453e d5bb e57b c93e b085 d9bd
000000e0: e68e 523d 3573 c3bd e99e ecbc 033d abbd
000000f0: c246 2c3e ac41 463d 3509 be3d 45cf 24be
00000100: c210 77bd f613 523e a4f5 98bd 5973 2dbe
00000110: 545d 99bc 75b0 823e c452 bbbc db0a 0c3e
00000120: c573 04bd 52fd 31be b9e2 eebd 7687 f33d
00000130: 7df8 2f3d 77fe ec3d 4d29 bcbe 3289 2e3d
00000140: d60f 3bbe 6a65 3fbc 4330 263d ef06 2abc
00000150: f9da ac3b 99f1 dabb f143 1d3e 44e4 31bc
00000160: d164 863d 8a2a 103c 31ad 7e3d c1ce 043d
00000170: 24ee 98be 9942 99bd 8437 b0bc af99 60be
00000180: c91d 9e3c c126 463b 6b40 4e3e 0900 9bbb
00000190: dc7a e43e 3840 79bd d71f d4bc b07b f9bd
000001a0: 1ed7 a23d 1b9d 0abf 7d05 edbd 2814 f53d
000001b0: 9e82 553d 0f3c d13d 7e69 043e df11 5ebd
000001c0: b96f 85bc 284f 033e 7dd6 6abd 4abd 33bb
000001d0: 1010 16bf 8fdf f0be 555b aa3e 68ab 06be
000001e0: 9db5 ccbe 107c 793e 3c24 fdbd e45d 813e
000001f0: 1f79 2bbe 7882 c43d e52d ca3d 0777 f0bb
00000200: 2ba6 a23d 3c6e aebd 6680 343e 7e24 8e3d
00000210: 0da0 f8bd 0a9e f5be e462 02bc 364a acbd
00000220: 0981 33bd ad71 f6bb 64d9 c33c 942e 0abe
00000230: 178d 683c 795f 813e 9f12 8dbd a310 4abc
00000240: 76fe d93d 7dd4 35bd 3eab 053d ca7e 643d
00000250: 0fcb 2e3d 3b56 083f ea2e 93be 24ce 6b3d
00000260: 33e3 5d3d 6f3c 99bd 2540 45bd d481 e53c
00000270: 518d 19be 7f6a 193e 0abb 1ebe 7515 05be
00000280: 5b97 dfbe c295 6f3c b019 aabd 8b0f 433e
00000290: 1066 873c 44bd 853c 218f af3e 091c 9b3c
000002a0: 0ae8 69bd 27e1 813d 5756 9dbd cdb2 61bd
000002b0: a7e8 5f3d 29de 9fbd 9787 d83d 8d50 afbd
000002c0: 81c9 34bd ac9f 5e3e 60b6 d53d ad09 90bc
000002d0: d3a8 013f 6e81 f73c 8226 cbbe 6a2c cd3d
000002e0: 1858 51bd bba7 d83d db7a c03c 08c4 b43d
000002f0: a0a8 29be 2a0a 71bd 0d81 dfbd 38aa 1b3e
00000300: b469 4c3d c46b 58be 6535 843d 39c6 2c3e
00000310: 371f 793c a9c6 80be 7620 a33c 8642 0bbe
00000320: 504e db3c ff48 2a3e 265c ed3d b8bf debd
00000330: a36b 6ebd 2c5d c7bd 9812 bb3e db59 3cbd
00000340: e072 383e a2eb 153d ec6c 57bd d639 023d
00000350: d6b1 deba a0e1 083d 1b81 1dbe fb03 923c
00000360: 5f9f 95bd 23cb 36bc c767 3cbd c4c2 90bc
00000370: 651c 973e 5912 933d 83ae 473c f939 4f3e
00000380: 1291 9cbc aede 853b 95a9 48be e977 063b
00000390: 6f08 dfbe ad97 843d 0768 383d 0bc0 003e
000003a0: 5e63 b8bd 9203 083f f9de cd3d 60ba 0abe
000003b0: e942 3bbd a114 03be 80e2 febd 694e 8a3d
000003c0: 82e3 5cb9 1fd5 ddbd 20e9 713d 4c39 343c
000003d0: 1b75 123f 10c6 ef3e bbe5 a4be 06fa e93d
000003e0: 65c5 d73e 114c 77be 02ec 043e 278d 7dbe
000003f0: 14a3 263e 599e b1bd a771 dfbd 61b1 da3c

action_model._discrete_distribution.branches.1.bias f4 [2]
0.18067883 -0.18067877
00000000: df03 393e db03 39be

action_model._discrete_distribution.branches.2.weight f4 [2, 128]
0.11518931 0.040368333 0.047586456 -0.04485311 0.15729605 0.1672875 -0.067470655 -0.26622486
-0.23256958 -0.2793636 -0.020116406 0.11183476 -0.021254264 -0.22865257 -0.013042437 -0.09201459
-0.08703436 -0.09934907 0.034658477 0.09790858 -0.06860114 -0.563372 0.038832147 0.062798254
0.18602982 0.08846868 0.03213036 0.03622071 0.05041641 -0.23880842 0.03159147 -0.39489225
0.33298713 -0.048478384 0.05203901 0.5408698 -0.05307309 0.07341654 -0.33847544 0.029171811
0.16615374 -0.050291814 0.117480084 0.057427447 0.3697494 0.040544566 -0.06790028 -0.027088428
0.03319623 0.037138343 0.017632117 0.07296272 0.10284057 0.0041559204 -0.07731642 -0.054835524
0.13331322 0.36890057 0.012968337 0.22265649 -0.01717778 -0.09165912 0.040928863 0.094057165
-0.028238505 -0.056410614 0.4101415 -0.041650612 0.39584008 -0.09646213 0.089847945 0.05543847
0.11395901 -0.19163819 0.017462809 0.5971945 0.15620504 0.18257038 -0.28028587 -0.14414576
-0.09075452 0.12714209 0.1065948 -0.023584431 -0.027463818 0.0765034 0.33030474 0.33233392
0.082213335 -0.033138916 -0.002120333 -0.046100933 -0.21531063 0.3669949 0.00057618035 -0.503471
0.32650584 0.10078852 0.57753384 0.1816212 -0.13325083 0.049487907 -0.12683333 -0.1475959
0.21245226 -0.42525074 -0.10776954 0.08471646 0.022646246 0.38290468 -0.07137326 0.12448043
0.09628745 -0.008408412 0.0589685 -0.15550347 -0.31036758 -0.40406856 0.039211966 -0.10381789
-0.24327768 -0.036422256 0.0965881 0.07006922 0.14209945 0.05444346 0.29275805 -0.05443074
-0.14519918 -0.041280564 -0.04745787 0.06894194 -0.15854646 -0.17723642 0.06731951 0.27250162
0.24131642 0.27789122 0.015268238 -0.11504617 0.016720746 0.22188832 -0.006777386 0.08865822
0.074056655 0.08850564 -0.017748376 -0.07264639 0.06664713 0.5559116 -0.0202023 -0.06390849
-0.19141327 -0.08005611 -0.0012951553 -0.034051303 -0.052629426 0.23817612 -0.027251085 0.40669832
-0.31683528 0.041874256 -0.045749824 -0.53224164 0.06989868 -0.06723666 0.3382653 -0.03838867
-0.17287534 0.047582034 -0.13546534 -0.052011862 -0.35904524 -0.040449556 0.054214932 0.027353596
-0.038774464 -0.021067366 -0.030975578 -0.06440465 -0.10468573 -0.009390229 0.07411367 0.068193346
-0.13579547 -0.37971887 -0.0039708046 -0.2262365 0.027425542 0.08319348 -0.019950228 -0.09748407
0.041059587 0.048172243 -0.43032202 0.021454655 -0.40516096 0.092351906 -0.074342735 -0.063523926
-0.12945719 0.17884086 -0.02935114 -0.58698213 -0.16063495 -0.19971764 0.2791812 0.13555542
0.07773321 -0.11179788 -0.093971156 0.026548304 0.041767325 -0.08593367 -0.321412 -0.34180224
-0.092623174 0.048020817 -0.00028609886 0.046885498 0.22523387 -0.36214548 0.01206074 0.50115454
-0.331487 -0.113076665 -0.5875937 -0.16943441 0.15209725 -0.022043783 0.12534681 0.13638924
-0.20073296 0.45104355 0.11755403 -0.07633082 -0.029711017 -0.37845758 0.09669684 -0.14404698
-0.10113285 0.016011873 -0.052437935 0.1641977 0.31303313 0.39874563 -0.032111447 0.10734971
0.23924139 0.020356443 -0.08658483 -0.09108537 -0.12257958 -0.03589314 -0.28532994 0.04317035
00000000: 5fe8 eb3d 4459 253d 04ea 423d e5b7 37bd
00000010: 3712 213e 6a4d 2b3e 0e2e 8abd a04e 88be
00000020: b826 6ebe bf08 8fbe 29cb a4bc 9f09 e53d
00000030: 6c1d aebc e623 6abe f2af 55bc 2572 bcbd
00000040: 123f b2bd 8677 cbbd 0cf6 0d3d 4b84 c83d
00000050: c17e 8cbd 2639 10bf 750e 1f3d 5f9c 803d
00000060: 9a7e 3e3e 112f b53d 209b 033d 2b5c 143d
00000070: 7081 4e3d 328a 74be 0f66 013d 512f cabe
00000080: 4a7d aa3e 4591 46bd db26 553d 7176 0a3f
00000090: 2b63 59bd 695b 963d a74c adbe b9f9 ee3c
000000a0: 3524 2a3e cafe 4dbd 6699 f03d 0b39 6b3d
000000b0: cb4f bd3e 0f12 263d 4d0f 8bbd 8de8 ddbc
000000c0: c5f8 073d 601e 183d 3b71 903c 7b6d 953d
000000d0: 149e d23d 632e 883b 1258 9ebd 379b 60bd
000000e0: 4383 083e 89e0 bc3e 2679 543c 1000 643e
000000f0: 6ab8 8cbc c7b7 bbbd 06a5 273d 0ba1 c03d
00000100: 7054 e7bc d10e 67bd 11fe d13e d599 2abd
00000110: 8dab ca3e f08d c5bd 3302 b83d 7313 633d
00000120: 5763 e93d cd3c 44be 2a0e 8f3c bde1 183f
00000130: 37f4 1f3e bbf3 3a3e a181 8fbe f29a 13be
00000140: 81dd b9bd 8931 023e 604e da3d 2334 c1bc
00000150: cdfb e0bc d1ad 9c3d b41d a93e ac27 aa3e
00000160: 775f a83d acbc 07bd 49f5 0abb 55d4 3cbd
00000170: 647a 5cbe c1e6 bb3e cf0a 173a 7ae3 00bf
00000180: c62b a73e 366a ce3d 42d9 133f e8fa 393e
00000190: e872 08be d5b3 4a3d 99e0 01be 6123 17be
000001a0: 168d 593e 77ba d9be 47b6 dcbd d37f ad3d
000001b0: 9f84 b93c 150c c43e 252c 92bd 98ef fe3d
000001c0: 5b32 c53d 70c3 09bc f488 713d 4d3c 1fbe
000001d0: 80e8 9ebe 13e2 cebe ba9c 203d 799e d4bd
000001e0: c91d 79be 812f 15bd fbcf c53d 7480 8f3d
000001f0: 8582 113e 1b00 5f3d 62e4 953e c5f2 5ebd
00000200: 18af 14be cf15 29bd 2f63 42bd 6f31 8d3d
00000210: 015a 22be 777d 35be d0de 893d 5585 8b3e
00000220: a71b 773e c247 8e3e a227 7a3c 549d ebbd
00000230: f2f9 883c b136 633e d614 debb 7192 b53d
00000240: 04ab 973d 7242 b53d 0b65 91bc a1c7 94bd
00000250: 4a7e 883d 3950 0e3f 4b7f a5bc 74e2 82bd
00000260: d701 44be 75f4 a3bd 33c2 a9ba 6179 0bbd
00000270: f491 57bd 71e4 733e ab3d dfbc c33a d03e
00000280: 3c38 a2be 5784 2b3d 2b64 3bbd fd40 08bf
00000290: 0a27 8f3d 60b3 89bd 1c31 ad3e 703d 1dbd
000002a0: 3c06 31be 61e5 423d 6db7 0abe 640a 55bd
000002b0: c7d4 b7be 6fae 25bd 7a10 5e3d a614 e03c
000002c0: f9d1 1ebd 7895 acbc 7fc0 fdbc 96e6 83bd
000002d0: 7965 d6bd 7ad9 19bc e8c8 973d f4a8 8b3d
000002e0: f80d 0bbe 836a c2be 861d 82bb 8baa 67be
000002f0: 88ab e03c 5861 aa3d a96e a3bc baa5 c7bd
00000300: 192e 283d 4250 453d 2b53 dcbe acc1 af3c
00000310: 4271 cfbe ff22 bd3d 0141 98bd d518 82bd
00000320: 6d90 04be 0f22 373e cd71 f0bc 7644 16bf
00000330: 7d7d 24be c882 4cbe d7f0 8e3e 0acf 0a3e
00000340: 9732 9f3d 49f6 e4bd f373 c0bd d47b d93c
00000350: 3714 2b3d fefd afbd 1d90 a4be b400 afbe
00000360: 38b1 bdbd 7ab1 443d 8aff 95b9 020b 403d
00000370: b5a3 663e 226b b9be 699a 453c aa4b 003f
00000380: aab8 a9be bd94 e7bd 8a6c 16bf 3780 2dbe
00000390: 62bf 1b3e 2a95 b4bc ea5a 003e 9fa9 0b3e
000003a0: f18c 4dbe 2eef e63e 2bc0 f03d 5553 9cbd
000003b0: 8564 f3bc 31c5 c1be fe08 c63d 0d81 13be
000003c0: bd1e cfbd 552b 833c 29c9 56bd 7123 283e
000003d0: e145 a03e 6328 cc3e 4b87 03bd 2ada db3d
000003e0: b2fb 743e 8ec2 a63c 6353 b1bd f78a babd
000003f0: 010b fbbd af04 13bd c416 92be 65d3 303d

action_model._discrete_distribution.branches.2.bias f4 [2]
0.16257244 -0.16257258
00000000: 6479 263e 6d79 26be

action_model._discrete_distribution.branches.3.weight f4 [2, 128]
-0.23744579 0.24086814 0.042691242 0.17641285 -0.028545385 0.07648617 -0.4277575 -0.40719658
-0.1842801 -0.24642517 0.073014446 0.18440038 -0.027909636 -0.20667039 0.07609385 -0.13356416
-0.05181996 -0.43101832 0.0012471674 -0.0022445396 -0.043922517 -0.082121864 0.035207883 -0.0723497
0.044981286 -0.010895159 0.17055525 0.0039592558 -0.2728281 0.36500266 -0.016805438 -0.3184247
-0.193189 -0.14510845 -0.3261664 0.06552415 0.012170142 -0.007896012 0.19180302 0.0023539132
-0.44481966 -0.115336746 0.068908185 -0.008999256 0.17626572 0.05607305 0.33934006 0.027859772
0.034752343 -0.3599749 0.06150913 0.004161213 -0.227368 -0.059495416 0.02478736 0.08448236
-0.0049588364 0.55176353 -0.05276918 -0.15315405 0.028156223 -0.22775275 0.0068018064 -0.13797261
-0.047299042 -0.15150274 0.14195932 -0.24718104 -0.16486384 -0.002657492 0.033856962 0.18692197
-0.011137347 0.25883272 0.06731417 -0.23183988 0.0053747455 -0.014757551 -0.33926046 0.20611368
0.01401143 -0.2729286 0.0020677615 -0.026786378 0.14443608 -0.12311137 0.21666393 0.07910352
-0.16158123 0.044199258 -0.1111033 -0.09415831 0.3886985 -0.19204243 -0.033449993 0.27923632
0.18734492 0.00936443 0.14397267 -0.09195536 -0.2728516 -0.06034655 -0.4410119 -0.30056074
0.16194066 0.008615993 0.1092191 0.051954236 -0.022875614 0.37269813 -0.03412469 0.16362667
0.012129096 0.08968132 0.017040282 -0.17125028 -0.20398328 -0.29548964 0.11273904 -0.25904593
-0.15758471 0.042979654 -0.12354841 -0.08570599 -0.30913323 0.23200895 0.15968609 0.0007829424
0.2379957 -0.25085467 -0.059635043 -0.19137248 0.014932618 -0.056210242 0.41583824 0.40845716
0.18665083 0.25026253 -0.05782961 -0.18966499 0.032682408 0.1765117 -0.057881467 0.13594632
0.038864594 0.4158323 0.00915152 -0.0058330763 0.0170563 0.100707114 -0.02740077 0.06418791
-0.054784782 0.004388677 -0.16871276 0.0067568114 0.23645857 -0.36290532 0.013938892 0.33154866
0.20092127 0.16493812 0.33466643 -0.0753475 -0.02041683 -0.0020186147 -0.1815863 0.025930405
0.4377788 0.11987444 -0.055409394 0.031938873 -0.16702572 -0.061245687 -0.31059325 -0.029663617
-0.024589607 0.35596126 -0.087117456 0.0053540845 0.22479735 0.06274371 -0.03029565 -0.08660623
-0.002839977 -0.5513569 0.04461697 0.16520451 -0.045646273 0.22123472 0.0074502057 0.12536775
0.037902012 0.15528849 -0.15116698 0.25928572 0.17075542 0.002674596 -0.04570799 -0.19933404
0.012737695 -0.25343055 -0.06726862 0.2435271 -0.01875974 0.02280075 0.36628175 -0.21618852
-0.012597194 0.26617455 -0.009502647 0.035940498 -0.12779088 0.12822656 -0.21706074 -0.10655094
0.1975659 -0.07172786 0.113083914 0.08979123 -0.37791905 0.20889871 0.034275714 -0.26843798
-0.20018952 -0.0045006094 -0.1429981 0.11785779 0.26327375 0.0641462 0.4334481 0.30359703
-0.16009346 -0.011408212 -0.12746793 -0.047746472 0.026910076 -0.37916774 0.044815067 -0.16932072
-0.009830357 -0.119840905 -0.024100773 0.140999 0.21192455 0.31545463 -0.11687828 0.25703654
0.13800356 -0.025979714 0.117808625 0.0940416 0.31090763 -0.24809578 -0.18291517 0.021814793
00000000: fd24 73be 23a6 763e 03dd 2e3d 92a5 343e
00000010: 03d8 e9bc c8a4 9c3d 0803 dbbe 127c d0be
00000020: ecb3 3cbe e156 7cbe 9988 953d 74d3 3c3e
00000030: c0a2 e4bc 67a1 53be 18d7 9b3d 0bc5 08be
00000040: 2b41 54bd 6fae dcbe fe77 a33a 2019 13bb
00000050: 19e8 33bd 822f a8bd 2436 103d 142c 94bd
00000060: 4c3e 383d 9c81 32bc 09a6 2e3e a5bc 813b
00000070: 20b0 8bbe a1e1 ba3e 8fab 89bc 9008 a3be
00000080: 56d3 45be 4f97 14be 48ff a6be 8731 863d
00000090: 4665 473c 465e 01bc 0368 443e 1c44 1a3b
000000a0: 67bf e3be ac35 ecbd bc1f 8d3d 9e71 13bc
000000b0: 007f 343e dbac 653d fbbd ad3e 2d3a e43c
000000c0: 7958 0e3d a14e b8be fff0 7b3d c95a 883b
000000d0: 28d3 68be 77b1 73bd dd0e cb3c 1605 ad3d
000000e0: bc7d a2bb 6040 0d3f 7f24 58bd 6ad4 1cbe
000000f0: e1a7 e63c 0438 69be b0e1 de3b b148 0dbe
00000100: a4bc 41bd 8923 1bbe c95d 113e 071d 7dbe
00000110: 11d2 28be 5129 2ebb 99ad 0a3d 7968 3f3e
00000120: 6b79 36bc b985 843e 03dc 893d 6f67 6dbe
00000130: a21e b03b a8c9 71bc 8cb3 adbe 770f 533e
00000140: 3290 653c 4cbd 8bbe 4883 073b 1b6f dbbc
00000150: 0de7 133e d021 fcbd 26dd 5d3e 0701 a23d
00000160: 8d75 25be 480a 353d 208a e3bd 12d6 c0bd
00000170: 7d03 c73e c5a6 44be dc02 09bd 10f8 8e3e
00000180: 59d7 3f3e 446d 193c 926d 133e 1753 bcbd
00000190: 34b3 8bbe f22d 77bd 50cc e1be 19e3 99be
000001a0: c6d3 253e 182a 0d3c 43ae df3d f7cd 543d
000001b0: a465 bbbc 4ad2 be3e 55c6 0bbd c08d 273e
000001c0: 1eb9 463c d7aa b73d 1098 8b3c 3c5c 2fbe
000001d0: fee0 50be 6b4a 97be bae3 e63d aba1 84be
000001e0: e35d 21be 6f0b 303d f306 fdbd 9f86 afbd
000001f0: b646 9ebe c193 6d3e c084 233e 603e 4d3a
00000200: 25b5 733e 0670 80be e043 74bd 26f7 43be
00000210: f0a7 743c b63c 66bd c0e8 d43e 4c21 d13e
00000220: 6521 3f3e 6922 803e bede 6cbd 8a37 42be
00000230: fddd 053d 7cbf 343e 1e15 6dbd 8335 0b3e
00000240: 7b30 1f3d f9e7 d43e 42f0 153c 6423 bfbb
00000250: a7b9 8b3c 883f ce3d 9477 e0bc f374 833d
00000260: 0266 60bd e4ce 8f3b 0ac3 2cbe 3e68 dd3b
00000270: 3222 723e bace b9be f35f 643c bfc0 a93e
00000280: 4ebe 4d3e 8ae5 283e 6659 ab3e ca4f 9abd
00000290: 3241 a7bc bc4a 04bb c2f1 39be 006c d43c
000002a0: 8b24 e03e bb80 f53d f6f4 62bd 56d2 023d
000002b0: ca08 2bbe c2dc 7abd 1406 9fbe 1d01 f3bc
000002c0: 2570 c9bc 8e40 b63e a36a b2bd 5171 af3b
000002d0: 4731 663e c67f 803d 952e f8bc 9b5e b1bd
000002e0: e81e 3abb ba25 0dbf 49c0 363d 5f2b 293e
000002f0: 96f7 3abd 5b8b 623e db20 f43b 6760 003e
00000300: 243f 1b3d f203 1f3e 84cb 1abe 19c1 843e
00000310: 82da 2e3e 4648 2f3b 4d38 3bbd 391e 4cbe
00000320: c4b1 503c a6c1 81be 21c4 89bd 2b5f 793e
00000330: 07ae 99bc a3c8 ba3c 4889 bb3e 8660 5dbe
00000340: 7664 4ebc 0848 883e feb0 1bbc 5836 133d
00000350: 9ddb 02be d34d 033e 2c45 5ebe 6137 dabd
00000360: b74e 4a3e 0ee6 92bd 8a98 e73d 77e4 b73d
00000370: 9b7e c1be 8be9 553e b164 0c3d b470 89be
00000380: 7bfe 4cbe d979 93bb 186e 12be 6d5f f13d
00000390: d1cb 863e 155f 833d e9ec dd3e 1271 9b3e
000003a0: 8aef 23be 82e9 3abc f486 02be ce91 43bd
000003b0: 8572 dc3c 4622 c2be 0190 373d 6962 2dbe
000003c0: 810f 21bc 266f f5bd fc6e c5bc 0b62 103e
000003d0: c002 593e 4583 a13e e15d efbd 4b9a 833e
000003e0: ce50 0d3e 69d3 d4bc a645 f13d e298 c03d
000003f0: 492f 9f3e d20c 7ebe 1d4e 3bbe f0b4 b23c

action_model._discrete_distribution.branches.3.bias f4 [2]
0.1061359 -0.106136
00000000: c75d d93d d55d d9bd
