results/Test2/Dark Knight Behavior/Dark Knight Behavior-84946.pt (torch, 451223 bytes, 51 tensors)

network_body.linear_encoder.seq_layers.0.weight f4 [128, 5]
0.8162897 -0.14338306 0.31214988 0.23417075 -0.1890595 -0.19510502 0.27996132 -0.4762792
-0.14228824 0.0693774 -0.7508155 -0.3885369 -0.34806526 -0.46058685 -0.21942511 -0.63583326
-0.51523304 -0.13765879 -0.046824805 -0.5224208 -0.1506668 0.36954626 -1.1937113 0.025983077
-0.34132302 -0.92191195 -0.058163848 -0.49803704 -0.110560276 0.47925228 0.23481472 0.381976
-0.25364769 -0.9041045 0.66676176 0.47600737 -0.017983748 0.23645656 -0.49942753 -0.06321681
0.2696495 -0.08410769 -0.11964401 -0.35266528 -0.42726222 0.30137354 0.22251604 -0.26456237
-0.32920572 -0.7108745 -0.5033328 0.30252743 -0.26945725 -0.07747805 0.0048259227 0.341015
0.24337748 -0.46347907 -0.6972431 0.5093204 -0.5527539 0.31536874 0.2950735 0.38324255
-0.849529 0.41212744 -0.5989015 0.091979176 1.1677527 0.70229244 -0.3414773 0.20814432
-0.5558733 0.41717145 -0.0093962485 1.0727135 0.2818591 -0.08452155 0.6045995 -0.14049171
-1.1381979 -0.3523896 0.12246342 -0.26923236 0.47907373 -0.19121274 0.50536835 0.38507387
0.570389 -0.13154502 0.57707286 0.41808122 -0.39618164 0.08701111 0.0066146627 0.25788635
-0.085830554 0.78513455 -1.081687 0.07045939 -0.21063106 0.032198053 0.22035244 -0.2235325
-0.6137869 0.13059692 0.15135606 -0.09491907 -0.9669822 -0.42347187 0.16103545 0.63961595
-1.2732908 0.47812974 -0.51002866 -1.0161377 0.24502213 -0.28875768 0.8360121 -0.13593587
0.19910246 0.29969603 0.07230722 0.07833514 0.14774764 -0.8521368 0.4592021 -0.114368156
-0.072394125 -0.111685246 -0.42558727 0.16753471 -0.059091434 -0.26808777 0.31389838 0.126451
0.61252564 -0.2429093 -0.043791823 0.17974064 0.57125485 0.49886778 -1.0324459 0.81673646
-0.6764963 0.57771593 0.0117706135 -0.09205774 0.28571296 0.56532747 -0.08274606 -0.3433486
0.3028868 0.19931439 0.51593316 -0.067462474 -0.17407449 -0.037290536 0.40717492 -0.26645744
-0.82604283 -1.0840163 -0.52710575 0.36412898 0.23868419 -0.007938867 -0.006780056 0.30781597
-0.13695689 0.32893023 0.85704935 -0.10913189 -0.1993706 0.09350277 0.7457566 -0.2995238
-0.11739375 0.057406526 -0.56193554 0.15963268 -0.16958052 -0.4050348 -0.108915806 -0.30544907
-0.4923163 -0.37493786 -0.32123896 0.452743 -0.73814845 0.04295412 -0.6749505 -0.49730283
-0.08005315 -0.3868844 0.057107124 0.3981633 -0.51693314 -0.15665464 -0.123543516 -0.34447238
0.31405112 -0.68558884 -0.20942761 0.3826683 -0.74456996 0.17733733 -0.029732976 0.65703887
0.5668748 0.3063873 -0.3426974 0.32313564 -0.71232986 0.3922323 0.4280343 0.65441054
0.15683304 -0.9035114 0.8036072 0.08930508 0.5671339 0.32209957 0.19270773 -0.6381891
0.47328058 0.18119241 0.5220511 -0.37515303 0.5813236 0.5270682 -0.050232615 -0.59738797
-0.08192063 0.00056112284 -0.21186337 -0.018408637 0.4108747 0.58393466 -0.50714004 -0.08718347
-0.08862662 0.12758012 -0.06743333 0.097499445 0.13720597 -0.5644158 0.3324552 0.59128827
-0.42994514 0.4127008 -0.1852064 0.52142376 -0.042937808 -0.55837613 -0.12315397 -0.045264862
00000000: 5df8 503f 02d3 12be 1cd2 9f3e 75ca 6f3e
00000010: d098 41be 9cc9 47be 1757 8f3e deda f3be
00000020: 02b4 11be bd15 8e3d 7235 40bf 4fee c6be
00000030: 9c35 b2be 0ad2 ebbe fab0 60be f8c5 22bf
00000040: 50e6 03bf 6df6 0cbe 5ecb 3fbd 5fbd 05bf
00000050: 6648 1abe 2b35 bd3e 88cb 98bf 76da d43c
00000060: e4c1 aebe 6c02 6cbf 373d 6ebd b6fe febe
00000070: 6d6d e2bd 8e60 f53e 4573 703e 5c92 c33e
00000080: 1cde 81be 6473 67bf e6b0 2a3f 3db7 f33e
00000090: a752 93bc ab21 723e f7b4 ffbe d177 81bd
000000a0: 800f 8a3e a740 acbd eb07 f5bd 8b90 b4be
000000b0: 1dc2 dabe a24d 9a3e 3fdb 633e b874 87be
000000c0: a78d a8be dffb 35bf 6bda 00bf e0e4 9a3e
000000d0: 4df6 89be d0ac 9ebd c622 9e3b 8599 ae3e
000000e0: f237 793e 214d edbe 867e 32bf d262 023f
000000f0: 4881 0dbf 0378 a13e e013 973e 5e38 c43e
00000100: bc7a 59bf 5e02 d33e 9c51 19bf 945f bc3d
00000110: ec78 953f 70c9 333f 1dd6 aebe c923 553e
00000120: b64d 0ebf 7f97 d53e b9f2 19bc ad4e 893f
00000130: d64f 903e a219 adbd 08c7 1a3f 0fdd 0fbe
00000140: 78b0 91bf 696c b4be 1ace fa3d d3d8 89be
00000150: 2749 f53e 46cd 43be d25f 013f 6728 c53e
00000160: 0305 123f bdb3 06be 0cbb 133f be0e d63e
00000170: 52d8 cabe e132 b23d d0bf d83b ae09 843e
00000180: eec7 afbd 94fe 483f b874 8abf 034d 903d
00000190: abaf 57be 1be2 033d 12a4 613e b4e5 64be
000001a0: 2321 1dbf 33bb 053e 15fd 1a3e ee64 c2bd
000001b0: 258c 77bf 4ed1 d8be 7ae6 243e dfbd 233f
000001c0: 31fb a2bf 6ccd f43e 3d91 02bf cd10 82bf
000001d0: 15e7 7a3e 0cd8 93be e404 563f c632 0bbe
000001e0: 84e1 4b3e c271 993e cf15 943d 2d6e a03d
000001f0: 284b 173e a325 5abf 8a1c eb3e da39 eabd
00000200: 5f43 94bd 3cbb e4bd 93e6 d9be 388e 2b3e
00000210: dc09 72bd cd42 89be 4ab7 a03e 5f7c 013e
00000220: 7bce 1c3f 37bd 78be 0e5f 33bd ee0d 383e
00000230: c23d 123f 996b ff3e 3027 84bf a415 513f
00000240: dd2e 2dbf 31e5 133f 88d9 403c c588 bcbd
00000250: f848 923e 4db9 103f c476 a9bd 63cb afbe
00000260: fb13 9b3e 1219 4c3e 3214 043f c429 8abd
00000270: 9540 32be f6bd 18bd 3b79 d03e 1c6d 88be
00000280: 8b77 53bf 0cc1 8abf 67f0 06bf 1d6f ba3e
00000290: a169 743e 0612 02bc 3b2b debb 0e9a 9d3e
000002a0: 6d3e 0cbe 8b69 a83e 9667 5b3f 8a80 dfbd
000002b0: ce27 4cbe 617e bf3d e8e9 3e3f 2f5b 99be
000002c0: 226c f0bd 1b23 6b3d 02db 0fbf c076 233e
000002d0: 84a6 2dbe b960 cfbe 400f dfbd d263 9cbe
000002e0: e210 fcbe dbf7 bfbe 6f79 a4be eecd e73e
000002f0: 4cf7 3cbf a9f0 2f3d 8ec9 2cbf 7a9e febe
00000300: e8f2 a3bd b615 c6be 29e9 693d 0fdc cb3e
00000310: bb55 04bf 136a 20be 6204 fdbd af5e b0be
00000320: 4fcb a03e c082 2fbf 3174 56be 19ed c33e
00000330: 239c 3ebf eb97 353e 9292 f3bc b333 283f
00000340: b51e 113f ccde 9c3e 0976 afbe 0972 a53e
00000350: 405b 36bf acd2 c83e 5027 db3e 7387 273f
00000360: d798 203e 864c 67bf 34b9 4d3f 95e5 b63d
00000370: b02f 113f 3cea a43e 2d55 453e 5c60 23bf
00000380: d551 f23e 818a 393e 24a5 053f 0f14 c0be
00000390: a0d1 143f f1ed 063f b7c0 4dbd 6bee 18bf
000003a0: 01c6 a7bd 5118 133a b6f2 58be b6cd 96bc
000003b0: 2b5e d23e be7c 153f eed3 01bf 3f8d b2bd
000003c0: e081 b5bd 5da4 023e 7c1a 8abd caad c73d
000003d0: b97f 0c3e 8e7d 10bf 9137 aa3e ab5e 173f
000003e0: c521 dcbe 854d d33e bfa6 3dbe 077c 053f
000003f0: 8edf 2fbd bdf1 0ebf 2638 fcbd a667 39bd

network_body.linear_encoder.seq_layers.0.bias f4 [128]
0.003337786 -0.0026395612 -4.598773e-05 0.0032041308 -3.8014576e-08 -0.0007410454 -0.0016422442 0.010738077
0.0015978764 -0.00056185765 0.0017670093 -0.00012426345 -0.0030649037 -0.0015576584 -0.0034179445 0.009457508
0.00068165717 0.0038775983 -0.0011352587 -0.00113822 0.0031702742 7.0154135e-07 -9.561015e-06 -0.008559594
0.0016103487 0.0023881726 -0.00043510366 0.0013670877 0.0001829678 3.2663505e-05 -0.000109180604 0.00334485
-0.001618036 -0.00097571994 6.898703e-05 0.0005788013 0.0020531872 0.0003861371 0.015538552 0.0031334949
0.0030642222 0.00011516861 -0.001026436 0.001104956 -0.0011155978 -0.0008817942 -0.0030867797 0.00699818
-0.002709914 -0.0013225747 0.0031281526 0.00026249178 -0.0010696616 -0.0024456743 -0.0016990851 -8.738698e-05
-0.00041592843 6.2906474e-05 0.0033070107 -0.0015312848 0.0044157314 0.00061499677 -0.00050093175 0.002800704
-0.0012289203 0.001688788 0.0034282103 -0.0012236412 -0.0028117744 0.0016072971 -0.0009794094 -0.0018988083
-0.0020305193 0.00068129465 0.0019442833 0.010838284 -0.0033783645 -0.0013162477 -0.0016897855 0.0030544712
-0.00024443553 0.0003247841 -0.00014314322 0.003246974 0.002927417 0.00032624503 0.003209191 0.00011619471
0.00027842034 -3.049275e-05 -0.0002932576 0.003264266 0.0029184371 -0.0011980193 -0.0012135936 -5.9836108e-05
0.0010188941 -0.0025681886 0.00045053297 -0.0033768446 -0.0025858418 -0.0009171726 -0.0021770059 0.00044791587
0.0034262822 -0.0005242204 -0.0012287665 -0.004143607 0.0010157274 0.0031842713 0.0029984792 -0.0032470392
-0.0019927225 -0.0005737221 0.0010572723 0.0004173406 -0.00047888255 -0.004550061 -0.0023499907 -0.0006783981
-0.00017977894 -0.00014820673 -1.3640002e-05 -0.0012051631 -0.008382571 0.0041812845 -0.00088033924 -0.0010805469
00000000: c2be 5a3b 7dfc 2cbb f3e2 40b8 65fc 513b
00000010: 7845 23b3 b742 42ba 9240 d7ba c2ee 2f3c
00000020: d66f d13a a149 13ba fe9a e73a b74c 02b9
00000030: 8ddc 48bb 582a ccba 98ff 5fbb aaf3 1a3c
00000040: 3db1 323a 4e1f 7e3b f6cc 94ba 5330 95ba
00000050: 60c4 4f3b 8e51 3c35 3f68 20b7 8a3d 0cbc
00000060: 5612 d33a e382 1c3b a01e e4b9 da2f b33a
00000070: 0bdb 3f39 2c00 0938 e4f7 e4b8 4535 5b3b
00000080: 4714 d4ba 75c7 7fba 21ad 9038 b3ba 173a
00000090: c48e 063b 7272 ca39 6995 7e3c 525b 4d3b
000000a0: 1ed1 483b ad86 f138 7a89 86ba 2cd4 903a
000000b0: 4039 92ba 3528 67ba 924b 4abb fd50 e53b
000000c0: d098 31bb 3e5a adba b101 4d3b 0d9f 8939
000000d0: e333 8cba 9b47 20bb d6b3 deba 8743 b7b8
000000e0: f810 dab9 a8ec 8338 6fba 583b 64b5 c8ba
000000f0: d7b1 903b bc37 213a f650 03ba 048c 373b
00000100: b913 a1ba 525a dd3a d3ab 603b 9662 a0ba
00000110: bf45 38bb f1ab d23a 875f 80ba 6fe1 f8ba
00000120: 7612 05bb e998 323a 52d7 fe3a 0f93 313c
00000130: 8d67 5dbb f285 acba cb7b ddba 862d 483b
00000140: 9527 80b9 c947 aa39 b718 16b9 2fcb 543b
00000150: e8d9 3f3b de0b ab39 4a51 523b 8fad f338
00000160: f2f8 9139 afca ffb7 5ec0 99b9 4ced 553b
00000170: 4043 3f3b db06 9dba 7211 9fba 88f8 7ab8
00000180: 6a8c 853a 0e4f 28bb 8335 ec39 0d4e 5dbb
00000190: 3a77 29bb 696e 70ba 19ac 0ebb 40d6 ea39
000001a0: 7a8b 603b d66b 09ba 900e a1ba 18c7 87bb
000001b0: 2822 853a 35af 503b 2282 443b 47cc 54bb
000001c0: 5698 02bb d765 16ba 2c94 8a3a 82ce da39
000001d0: 8712 fbb9 ae18 95bb 4d02 1abb 87d6 31ba
000001e0: 0b83 3cb9 f167 1bb9 5dd7 64b7 90f6 9dba
000001f0: 0d57 09bc 2803 893b 91c6 66ba 23a1 8dba

network_body.linear_encoder.seq_layers.2.weight f4 [128, 128]
-0.04264615 0.01187649 -0.09076724 -0.009843665 -0.04208856 0.19351791 -0.014571899 0.07905144
-0.0033148904 -0.05851929 -0.017814256 0.09470592 -0.19892596 -0.08352113 0.019884571 -0.051050145
0.01703654 0.16458322 0.07172222 -0.054174405 -0.050469425 -0.040535368 -0.04321821 0.08879098
0.0011339912 -0.031955082 -0.10912712 -0.041270003 0.034595322 0.1923946 -0.03163434 -0.014751812
0.074587956 -0.03833734 0.06022323 0.012807391 -0.048942175 0.03192584 0.046087895 -0.18116833
0.059371036 0.037228566 -0.0843791 0.15607555 -0.030344235 -0.03297402 0.10754452 0.007575091
0.040170692 0.0018463215 -0.19116439 0.046624575 -0.038672674 -0.06651971 -0.22567727 0.04975092
-0.087113865 0.001187782 -0.006285617 -0.12664492 0.057832487 -0.08869288 -0.01708473 -0.047092292
0.030112747 0.09164494 -0.17926137 0.02000245 0.042748358 0.17820777 0.031185338 -0.19348884
-0.08158255 -0.022670092 0.029586338 0.12085586 -0.18450136 -0.06684823 0.01753164 -0.007456982
-0.016727602 0.011569508 -0.085350975 -0.01569446 -0.14354336 0.03275828 -0.011182493 -0.06567625
-0.05718322 -0.110932656 0.08547262 -0.13221447 -0.0883342 -0.008448676 0.05183556 -0.003593667
-0.015778292 -0.009721278 -0.037958223 -0.039162327 0.09037842 -0.03881679 -0.15198576 -0.008917625
-0.0628983 -0.10494448 -0.15454058 -0.041315544 0.07361825 0.065609984 -0.09932198 0.035600103
-0.018737769 -0.053195175 -0.08915193 0.12939426 0.05799342 0.036855567 -0.19631012 0.1242785
-0.09448417 -0.08450792 0.00436517 0.201065 0.09949969 -0.1082722 -0.0027785818 -0.08810718
0.036279704 0.07544597 -0.10475715 0.05488945 0.0054601547 -0.09576363 0.10194858 -0.089916445
0.022408016 -0.001153405 -0.09982227 -0.021589693 0.0096969055 -0.2522888 -0.099069156 0.08634514
-0.10269001 0.0329977 0.024801122 0.049367357 0.14748438 0.045695294 -0.12155555 0.13047448
-0.08817565 -0.04547109 -0.034353767 0.17995353 0.042430133 0.046310507 0.003267828 -0.0015139105
-0.080635644 -0.004064874 -0.07717543 -0.083480775 -0.077237196 -0.043222062 0.029041419 0.15291807
0.022258181 -0.075240254 0.039794613 0.09539334 -0.019383384 -0.055796474 0.12286811 -0.15383708
-0.0906535 0.13357435 -0.09575585 -0.03132295 0.003140675 0.04053504 -0.20272161 -0.020561362
-0.14937454 -0.04512712 -0.0047194147 0.005788811 -0.06969512 -0.028651029 -0.10666803 0.037491947
0.14642152 0.07293254 0.12670743 -0.08298281 -0.044991817 -0.009825527 0.01381075 0.088064216
-0.057694647 0.097352594 0.10129346 -0.2085452 0.11102462 0.11084519 0.05107502 -0.033709195
0.07575878 0.045552548 -0.045271352 0.006736819 0.09077921 0.04381177 -0.009953956 0.06878771
0.100940645 -0.039828245 -0.11207158 0.02871667 0.037342295 0.29363182 0.004591328 -0.03589597
0.025904294 -0.12601407 0.038458955 0.0061888075 -0.052398473 0.16951393 -0.07059831 0.04571808
0.10224936 -0.17511615 -0.030035987 -0.032815356 0.08181414 0.003978745 -0.019733762 -0.04392713
0.010862323 0.029737096 0.15244982 -0.1786725 0.012269289 0.041727364 -0.008718533 0.025409706
-0.10820361 0.003219249 0.08590742 -0.047978725 -0.05078906 0.14936915 0.104901485 -0.08443897
00000000: bbad 2ebd 9c95 423c 2de4 b9bd 5347 21bc
00000010: 0e65 2cbd 8f29 463e f9be 6ebc b9e5 a13d
00000020: a23e 59bb ecb1 6fbd 34ef 91bc 2df5 c13d
00000030: 3fb3 4bbe 200d abbd f8e4 a23c f519 51bd
00000040: 3790 8b3c 8188 283e 19e3 923d fbe5 5dbd
00000050: 07b9 4ebd 6a08 26bd 9405 31bd 0cd8 b53d
00000060: 6ea2 943a 55e3 02bd 0a7e dfbd bc0a 29bd
00000070: d3b3 0d3d 1703 453e 0293 01bd 96b1 71bc
00000080: 92c1 983d 9d07 1dbd a2ac 763d 17d6 513c
00000090: 9777 48bd abc4 023d a9c6 3c3d 3184 39be
000000a0: 0b2f 733d fb7c 183d f3ce acbd 45d2 1f3e
000000b0: 7994 f8bc c40f 07bd 4d40 dc3d 7838 f83b
000000c0: 068a 243d 4500 f23a 99c0 43be 69f9 3e3d
000000d0: 3d67 1ebd 7c3b 88bd f117 67be 9fc7 4b3d
000000e0: c168 b2bd 5aaf 9b3a 94f7 cdbb 35af 01be
000000f0: c2e1 6c3d 9da4 b5bd 47f5 8bbc d9e3 40bd
00000100: 02af f63c 58b0 bb3d 4b90 37be 2edc a33c
00000110: e718 2f3d 197c 363e 6578 ff3c f021 46be
00000120: c114 a7bd a1b6 b9bc 0c5f f23c 4783 f73d
00000130: eded 3cbe bae7 88bd 849e 8f3c b359 f4bb
00000140: 5308 89bc 098e 3d3c 7ecc aebd ab91 80bc
00000150: 08fd 12be 8c2d 063d c636 37bc 4581 86bd
00000160: f438 6abd a930 e3bd 450c af3d 3b63 07be
00000170: 90e8 b4bd 516c 0abc 8651 543d ba83 6bbb
00000180: 7a41 81bc ff45 1fbc 157a 1bbd ad68 20bd
00000190: 5218 b93d 5bfe 1ebd 28a2 1bbe 3b1b 12bc
000001a0: d3d0 80bd 22ed d6bd e33f 1ebe 7d3a 29bd
000001b0: 2ac5 963d 875e 863d 5269 cbbd 6ad1 113d
000001c0: f37f 99bc 2fe3 59bd 4995 b6bd ee7f 043e
000001d0: 828a 6d3d ddf5 163d 8505 49be ba85 fe3d
000001e0: eb80 c1bd 7d12 adbd b309 8f3b fce3 4d3e
000001f0: 7ec6 cb3d d1bd ddbd de18 36bb 8a71 b4bd
00000200: 079a 143d 6b83 9a3d eb8a d6bd c3d3 603d
00000210: 19eb b23b b91f c4bd 6bca d03d 1d26 b8bd
00000220: 0491 b73c da2d 97ba 9e6f ccbd dedc b0bc
00000230: c5df 1e3c ff2b 81be c5e4 cabd b9d5 b03d
00000240: 244f d2bd 9928 073d b92b cb3c 6d35 4a3d
00000250: 2506 173e fd2a 3b3d 1ef2 f8bd 1a9b 053e
00000260: 6f95 b4bd e53f 3abd 89b6 0cbd bd45 383e
00000270: 38cb 2d3d 16b0 3d3d 0e29 563b 686e c6ba
00000280: 4d24 a5bd a232 85bb 270e 9ebd f8f7 aabd
00000290: 892e 9ebd 9e09 31bd 45e8 ed3c 8e96 1c3e
000002a0: ca56 b63c 9017 9abd adff 223d 955d c33d
000002b0: e7c9 9ebc d88a 64bd 47a2 fb3d 7887 1dbe
000002c0: 8ba8 b9bd b7c7 083e a51b c4bd 7e4c 00bd
000002d0: c8d3 4d3b 1208 263d 4196 4fbe 4d70 a8bc
000002e0: a4f5 18be 37d7 38bd 52a5 9abb 11b0 bd3b
000002f0: 51bc 8ebd 90b5 eabc c574 dabd 2891 193d
00000300: 86ef 153e a85d 953d 98bf 013e e4f2 a9bd
00000310: 5749 38bd 3ffb 20bc 7c46 623c 035b b43d
00000320: 3951 6cbd cc60 c73d f272 cf3d df8c 55be
00000330: e060 e33d ce02 e33d 0a34 513d a712 0abd
00000340: 6b27 9b3d 4f95 3a3d 746e 39bd 89c0 dc3b
00000350: 73ea b93d f873 333d eb15 23bc 92e0 8c3d
00000360: f8b9 ce3d f122 23bd c985 e5bd 393f eb3c
00000370: 3cf4 183d e956 963e da72 963b a707 13bd
00000380: 3e35 d43c d509 01be 2387 1d3d 7bcb ca3b
00000390: c89f 56bd 0f95 2d3e d995 90bd e242 3b3d
000003a0: 1d68 d13d a651 33be 080e f6bc 6569 06bd
000003b0: 2c8e a73d 2260 823b b3a8 a1bc efec 33bd
000003c0: e3f7 313c 369b f33c ce1b 1c3e edf5 36be
000003d0: 2105 493c 50ea 2a3d 2ed8 0ebc 0428 d03c
000003e0: db99 ddbd 09fa 523b 3bf0 af3d 5785 44bd
000003f0: 3008 50bd 3af4 183e 97d6 d63d 57ee acbd

network_body.linear_encoder.seq_layers.2.bias f4 [128]
-0.00033382236 0.003351828 -0.0026132956 -6.560573e-05 -0.0008773374 0.0034152544 -2.6341137e-05 -0.0010201407
-0.0004043462 -0.001508467 -0.003190378 -0.00013096222 -0.0011942502 -0.00040472433 -0.001715857 -0.004591451
-0.0009238219 -0.0015200377 0.0011520156 -0.0005240874 -0.0009503534 -0.00085165614 0.0016466345 -0.0007831258
-0.0018643556 -0.002060876 -0.00071050203 -0.0012992508 -0.00050361996 -2.459919e-05 -0.002676848 -0.0014399496
0.002897038 -0.0007003091 -0.0014098659 -0.000682871 0.0016079417 -0.002406636 0.0012633109 -0.0018780661
-7.81274e-05 -0.0007398026 0.0005483932 -0.0002400919 0.0003412766 0.003593092 -0.0017841073 -0.0004918245
-0.00066657603 0.0010173112 -0.0007271169 0.0029338195 -0.0022352599 -0.0007245884 -0.0033751442 -0.0008773184
-0.0018495586 0.0027825348 -0.0011069714 -0.0013515408 -0.00023433671 -0.001030489 -0.00018577147 -0.00040940926
-0.0025811638 -0.0011970708 -0.00011620531 -0.00056959817 -0.0020195919 0.0032320227 -0.00028403764 -0.0003059511
-0.001010242 -0.0024197241 -0.0011064184 0.0032436687 0.0015054707 0.0027607805 -0.00013261237 -0.0030981821
-0.0025227575 0.003409536 -0.0010098168 -0.0036396768 -0.0018281225 0.0034861038 -0.0012265809 -0.00083421444
-0.0010645691 -0.000112124704 -0.0013588015 0.0033870316 -0.0001521388 -0.0008076233 -0.00039940194 -0.0012460728
-0.0030626603 -0.00031231664 -0.00027617876 0.0034218186 -0.0011249243 -0.00041464198 0.0032797144 -0.0013381689
0.0004734927 -0.0005483863 0.00020030608 -0.0011883017 -0.00065205176 -0.0010473275 -0.0011293407 -0.0011699557
-0.0001122838 -0.0012652815 -0.0008887455 -0.0011707252 -0.0009932305 -0.0017514966 -0.0017231059 -0.0020037026
-0.0005457117 -0.00018683763 -0.0006412691 0.00013552085 -0.0018557213 -0.00074336183 -0.001222663 -0.0013644292
00000000: e104 afb9 58aa 5b3b d343 2bbb cf95 89b8
00000010: 1efd 65ba 76d2 5f3b 29f7 dcb7 3eb6 85ba
00000020: 6efe d3b9 c1b7 c5ba a915 51bb e752 09b9
00000030: 6388 9cba 2e31 d4b9 9be6 e0ba e273 96bb
00000040: a32c 72ba 003c c7ba 3bff 963a e962 09ba
00000050: 2321 79ba ad41 5fba e3d3 d73a af4a 4dba
00000060: 655d f4ba c30f 07bb fc40 3aba 9f4b aaba
00000070: 5d05 04ba 5c5a ceb7 0f6e 2fbb b1bc bcba
00000080: 3bdc 3d3b f394 37ba 40cb b8ba b202 33ba
00000090: 92c1 d23a a7b8 1dbb ae95 a53a 7129 f6ba
000000a0: 54d8 a3b8 50ef 41ba 0bc2 0f3a 2ec1 7bb9
000000b0: 5fed b239 157a 6b3b b5d8 e9ba c9ed 00ba
000000c0: 29bd 2eba 4d57 853a fd9b 3eba 5345 403b
000000d0: 707d 12bb 4ef2 3dba 8631 5dbb d7fb 65ba
000000e0: e36c f2ba 305b 363b cc17 91ba 2f26 b1ba
000000f0: 48b8 75b9 7911 87ba a6cb 42b9 fba5 d6b9
00000100: be28 29bb 08e7 9cba 40b3 f3b8 1651 15ba
00000110: 215b 04bb 58d0 533b e3ea 94b9 1068 a0b9
00000120: 196a 84ba 3c94 1ebb 3e05 91ba bb93 543b
00000130: 3753 c53a 36ee 343b dd0d 0bb9 df0a 4bbb
00000140: d954 25bb 8672 5f3b d45b 84ba a587 6ebb
00000150: 9d9d efba 1e77 643b 3ac5 a0ba 2faf 5aba
00000160: 0389 8bba 7e24 ebb8 d019 b2ba f6f8 5d3b
00000170: 7387 1fb9 afb6 53ba d266 d1b9 4453 a3ba
00000180: eab6 48bb 6ebe a3b9 16cc 90b9 9740 603b
00000190: 3272 93ba 4e64 d9b9 7af0 563b 7f65 afba
000001a0: 1d3f f839 95c1 0fba 4109 5239 cac0 9bba
000001b0: 74ee 2aba 7b46 89ba 6306 94ba 3359 99ba
000001c0: e879 ebb8 cdd7 a5ba b3fa 68ba 0573 99ba
000001d0: 492f 82ba 7992 e5ba d7d9 e1ba 8d50 03bb
000001e0: 180e 0fba d8e9 43b9 d71a 28ba 9a1a 0e39
000001f0: ad3b f3ba 2bde 42ba c341 a0ba a6d6 b2ba

action_model._discrete_distribution.branches.0.weight f4 [3, 128]
0.013565006 -0.003486065 0.00092897314 0.0037743216 0.014528335 0.010563218 -0.0031049845 0.0066037267
-0.0077148387 -0.00042531826 -0.0076906593 -0.004154317 -0.0042699007 0.017045183 -0.0005706528 0.009306436
0.0011369503 -0.0016172731 -0.01730308 0.00998427 -0.012862107 -0.0018768046 0.0056594284 0.002743705
-0.0063305334 -0.0032972326 0.0065847165 -0.011890998 0.0013573797 -0.006355592 0.002561111 -0.001192534
0.013916809 -0.00090745994 0.0043531167 -0.0007231907 -0.00016112135 0.00282127 -0.0071320524 -0.0014587577
0.001398867 0.012163621 0.0036984386 0.010690753 -0.002617123 0.008760858 0.002303458 -0.0002575619
-0.0009179008 -0.008982866 -0.0069975397 -0.0022448571 0.0022403444 0.0055255503 0.01441348 -0.012298293
-0.015232821 -0.004323502 0.0024569777 -0.017034683 0.014934576 -0.0037599015 -0.007747034 0.0012243486
0.0038289167 0.0014661832 0.01434718 -0.0050376416 -0.0065517914 0.010502176 -0.009533204 0.00728149
0.0062766094 0.021929257 0.008261904 0.0014324744 -0.0020691617 -0.010978154 0.020394582 -0.006719606
-0.005151289 0.004818019 0.016597042 0.012602653 -0.012484944 -0.0037061926 -0.0029055728 -0.015385551
-0.0034898452 0.012378251 0.0030631016 -0.015319173 -0.011035562 -0.0042599034 0.0067570372 -0.0105074635
-0.00019948668 0.006860894 -0.0011622509 0.003856226 -0.017812625 -0.0080012465 -0.00345731 0.014988601
0.006672776 -0.00067299535 0.0026139296 -0.008054254 -0.016967872 -0.0080590155 0.008431672 -0.0034498775
-0.000113715636 0.0036598162 -0.014571234 0.0019974934 -0.011098229 -0.00026158124 0.0032759593 -0.0008284786
-0.017205833 0.00901323 -0.00065661717 0.00026008452 -0.0080934 -0.0059697325 0.0053049396 -0.0057399436
0.0018376095 -0.00053484534 -0.0019793054 -0.004015597 0.011243697 -0.011411913 0.007951594 0.0044933944
0.003584433 -0.0105489325 -0.0011277248 0.014065038 0.0017622319 0.0066044605 0.004383533 0.008523589
0.002207983 0.006956274 -0.0016764605 0.008075157 -0.0012972603 0.00035002027 0.007918949 0.0037492313
-0.013129354 -0.016336225 0.006107023 -0.017596127 -0.0051912176 0.0016304865 -0.005058118 -0.007041613
-0.0026974168 -0.007673644 -0.00042943048 0.004007516 -0.0026048662 -0.017996179 0.01843389 0.00014749942
0.007966157 0.0011665411 0.009338655 -0.006642231 -0.008507788 0.0014798655 0.0032826737 0.004440116
0.0010058818 -0.013523786 0.0082070725 0.0057176254 0.005907917 0.003042762 0.0055367067 -0.0033877874
0.0028092423 0.004163343 -0.002077404 -0.008901153 -0.017409101 0.0051329304 0.000874208 0.005963264
0.0036267496 0.006205808 0.0122230165 0.009370164 -0.00692328 0.0006297073 0.00030705673 0.010717869
-0.0028431895 0.00994913 -0.00913054 -0.0029288218 -0.012974516 -0.009987134 0.0050481143 0.0027959573
-0.0029454 0.024386942 0.008138663 -0.016256984 -0.009414607 -0.01665247 0.0096547725 0.0012187299
0.012097917 -0.0070441323 -0.008987434 0.0090767415 -0.00016697997 -0.00931244 -0.012211817 -0.009658959
0.0029217675 0.012001104 0.011056493 0.010776703 -0.008653985 -0.0047270143 -0.01888674 0.003278284
0.0065698265 0.01121754 0.013454764 0.006564467 -0.006905558 -0.010274331 -0.002174172 -0.005782853
0.008922001 -0.0070630847 -0.013614188 0.003586147 -0.0059968205 0.007847591 0.0027368932 -0.0056023565
-5.9542952e-05 0.004281691 0.011930348 0.0020717185 -0.005364045 0.0059352363 0.0057301293 -0.0065467614
00000000: c23f 5e3c 7776 64bb 5586 733a 9c5a 773b
00000010: 4108 6e3c 5911 2d3c ff7c 4bbb 1364 d83b
00000020: c2cc fcbb 40fd deb9 ed01 fcbb f020 88bb
00000030: 86ea 8bbb 57a2 8b3c dc97 15ba 067a 183c
00000040: b905 953a aefa d3ba 30bf 8dbc 1095 233c
00000050: 96bb 52bc 1dff f5ba ba72 b93b bbcf 333b
00000060: 5d70 cfbb 6216 58bb 9bc4 d73b 76d2 42bc
00000070: 1bea b13a 9242 d0bb 50d8 273b cd4e 9cba
00000080: 5403 643c 9be2 6dba 97a4 8e3b 8294 3dba
00000090: aff2 28b9 0ee5 383b feb3 e9bb c933 bfba
000000a0: 305a b73a ed49 473c 8161 723b 4528 2f3c
000000b0: 0a84 2bbb b489 0f3c 9df5 163b 5f09 87b9
000000c0: 489f 70ba df2c 13bc 9e4b e5bb 741e 13bb
000000d0: bed2 123b ad0f b53b 8426 6c3c c87e 49bc
000000e0: 1593 79bc 2aac 8dbb 3f05 213b 528c 8bbc
000000f0: 27b0 743c ae68 76bb d5da fdbb 527a a03a
00000100: 90ee 7a3b f22c c03a 6f10 6b3c cd12 a5bb
00000110: 69b0 d6bb 5211 2c3c 2831 1cbc 9199 ee3b
00000120: 04ac cd3b fca4 b33c f05c 073c ddc1 bb3a
00000130: c69a 07bb b7dd 33bc 8a12 a73c 2430 dcbb
00000140: 25cc a8bb 79e0 9d3b 85f6 873c 5c7b 4e3c
00000150: a78d 4cbc 98e3 72bb 6c6b 3ebb ae13 7cbc
00000160: e3b5 64bb 26ce 4a3c 51be 483b 45fd 7abc
00000170: 80ce 34bc a996 8bbb 236a dd3b 7f27 2cbc
00000180: 4c2d 51b9 5ad1 e03b ab56 98ba bdb8 7c3b
00000190: c8eb 91bc a917 03bc 0994 62bb c092 753c
000001a0: 4da7 da3b f46b 30ba 764e 2b3b fdf5 03bc
000001b0: 3500 8bbc f609 04bc ff24 0a3c 5717 62bb
000001c0: 9e7a eeb8 87d9 6f3b 2fbc 6ebc 61e8 023b
000001d0: 59d5 35bc d724 89b9 7ab1 563b 422e 59ba
000001e0: 3ff3 8cbc 3aac 133c d520 2cba f45b 8839
000001f0: 2e9a 04bc bf9d c3bb 0fd5 ad3b 2316 bcbb
00000200: f1db f03a dd34 0cba 3cb7 01bb 4595 83bb
00000210: 7c37 383c 08f9 3abc 6747 023c 533d 933b
00000220: cfe8 6a3b 6ed5 2cbc 2ad0 93ba 0c71 663c
00000230: b1fa e63a 3b6a d83b bda3 8f3b 86a6 0b3c
00000240: cfb3 103b 75f1 e33b aebc dbba aa4d 043c
00000250: d508 aaba ed82 b739 7bbe 013c aab5 753b
00000260: 811c 57bc 8cd3 85bc 6c1d c83b c125 90bc
00000270: 171b aabb 0cb6 d53a 92be a5bb 55bd e6bb
00000280: 25c7 30bb 3173 fbbb 2f25 e1b9 7b51 833b
00000290: 67b6 2abb b96c 93bc ab02 973c 13aa 1a39
000002a0: 7c84 023c a0e6 983a 2801 193c 12a7 d9bb
000002b0: 4064 0bbc 0cf8 c13a 2022 573b 657e 913b
000002c0: cbd7 833a df92 5dbc f576 063c eb5a bb3b
000002d0: 3397 c13b 1369 473b 436d b53b a405 5ebb
000002e0: 441b 383b a76c 883b 0e25 08bb 24d6 11bc
000002f0: 889d 8ebc 2432 a83b 1b2b 653a 7c67 c33b
00000300: c3ae 6d3b 175a cb3b 0c43 483c 5185 193c
00000310: afdc e2bb f112 253a 75fc a039 009a 2f3c
00000320: ce54 3abb ad01 233c 4398 15bc 7af1 3fbb
00000330: 1093 54bc 13a1 23bc a76a a53b 613c 373b
00000340: 9d07 41bb 20c7 c73c 0758 053c 5e2d 85bc
00000350: b93f 1abc c36a 88bc 0d2f 1e3c cabd 9f3a
00000360: 5736 463c 77d2 e6bb 0840 13bc 9db6 143c
00000370: 5817 2fb9 3493 18bc 1314 48bc 9c40 1ebc
00000380: 207b 3f3b 47a0 443c 4b26 353c c590 303c
00000390: 72c9 0dbc 12e5 9abb 5db8 9abc 7bd8 563b
000003a0: b347 d73b c6c9 373c 5f71 5c3c be1a d73b
000003b0: 0548 e2bb ab55 28bc 8e7c 0ebb 167e bdbb
000003c0: 962d 123c 7371 e7bb 0b0e 5fbc 9005 6b3b
000003d0: fa80 c4bb 2f93 003c 735d 333b f993 b7bb
000003e0: c2bd 79b8 6d4d 8c3b 8277 433c abc5 073b
000003f0: dfc4 afbb 5f7c c23b cfc3 bb3b 3786 d6bb

action_model._discrete_distribution.branches.0.bias f4 [3]
0.00023265896 6.1150655e-05 -0.0012316629
00000000: eaf5 7339 023e 8038 c06f a1ba

action_model._discrete_distribution.branches.1.weight f4 [2, 128]
-0.0018662644 -0.002277408 0.009523417 -0.0062946435 0.0068616485 0.003676198 0.00025802487 0.008423498
-0.005820875 -0.00392518 -0.0035339934 0.011323887 -0.00080780766 -0.00015197175 -0.0067886207 0.0066369944
0.0054933387 -0.00864175 -0.013013122 0.008897861 0.007988316 -0.014705782 -0.02093436 -0.004820479
0.009181112 -0.0048271306 0.00048644855 -0.013179318 0.0041009965 0.0021434438 0.014592446 0.0056941556
0.0023815949 0.010201363 0.011687228 0.00057854067 -0.009660755 -0.0031418253 0.013883417 0.00421068
-0.004071331 0.008278047 0.008036527 -0.0064660762 -0.022585358 -0.0055465302 -0.00074752694 0.00023639083
-0.0017174822 -0.005466413 -0.0069755283 0.0034715345 0.0072432943 -0.010848402 0.0006848805 0.0031226042
0.0020489388 -0.006647856 -0.0018437293 0.0016833162 -0.0026970783 -0.0066647516 -0.010148329 -0.007970235
-0.0049612597 -0.005284244 0.0022667479 -0.008428162 -0.010611721 -0.0035366423 -0.00092037936 -0.013213284
-0.008960074 0.014470443 -0.0048245722 0.024782995 -0.017911082 0.0020672083 -0.0075730714 -0.0097148325
-0.0055350554 0.01283368 -0.003254342 -0.0010831784 -0.0053317654 -0.0073308027 0.007897778 -0.0047822157
-0.007167488 -0.006694156 0.0035031098 -0.0017429596 -0.0042947917 -0.0010532611 0.016918764 -0.012467129
0.007296762 -0.012683645 -0.013633715 -0.010609604 -0.0056358045 0.011940803 0.00028018423 -0.011852557
-0.015537047 -0.009167908 -0.00750031 -0.00012601567 0.015184194 0.00054002396 -0.000572954 0.0032790198
0.0060424386 -0.00045984884 0.010739134 0.009156834 -0.0053158794 -0.0054888553 0.0019402617 -0.012963
-0.010021128 -0.0035793565 -0.000786239 -0.007167813 -0.008763616 0.0068305708 -0.019065782 -0.0005622619
0.006078701 0.0024603552 -0.013138996 0.0053087054 -0.0044288635 -0.009882154 -8.70714e-05 0.0037959157
0.021066936 -0.016695159 0.0047949515 -0.010302787 -0.0032725383 -0.0023343666 -0.0024955226 -0.001726054
-0.016770495 0.005357598 -0.007565953 -0.006881778 -0.0054307934 0.004969353 -0.00011678574 -0.004393883
0.012599253 -0.0022583022 -0.0064924285 -0.010634883 -0.0056682955 -0.014753284 -0.0052501364 0.0009867852
0.0025742634 -0.0018258073 0.000872678 0.013676111 0.008226097 -0.0016236771 -0.02485875 -0.008208824
-0.0054735476 -0.0003356271 -0.0071627246 -0.00073626055 0.004429253 0.005747614 -0.00873957 -0.0035720328
0.005281095 0.013632967 -0.0056257024 -0.005316911 0.005576366 0.0008108971 -0.014586731 -0.010727706
0.015707988 0.012889928 -0.0003520618 -0.0211892 -0.0019720886 -0.009787203 -0.004943579 0.0005454627
-0.012632698 -0.009510617 0.019310871 0.0010572445 0.016015198 0.0054193223 -0.0055442033 -0.018587902
0.0076213162 -0.019876547 -0.0078093302 0.0049379785 0.012323528 0.016074857 0.00023633038 0.012742917
-0.0049957614 0.011496873 0.015704121 0.006050408 -0.006031803 -0.0026058 -0.0028453046 0.0028182894
-0.006374438 -0.0019629044 -0.0044006957 0.002502061 0.006452094 0.0011952416 -0.002106772 -0.004097057
-8.4563595e-05 0.001787138 0.010681218 0.0024883505 0.0052454746 0.009092988 -0.01550702 0.00011816627
0.00703711 -0.00014246289 0.016280048 -0.016794376 0.01709872 0.020750858 0.0069216616 0.023863887
-0.007607344 -0.004478521 -0.01394353 0.0013920197 0.0072649852 0.004014114 0.008808557 -0.009418168
0.0010048423 0.0013736001 -7.043642e-05 0.00042377852 -0.013229787 0.017030008 0.00044292127 0.00047954722
00000000: 719d f4ba 9140 15bb 1b08 1c3c 4c43 cebb
00000010: aed7 e03b 5eec 703b 8347 8739 b602 0a3c
00000020: 0abd bebb cc9e 80bb 929a 67bb d387 393c
00000030: 0ec3 53ba 9b5a 1fb9 1473 debb 257b d93b
00000040: 7701 b43b 2096 0dbc fd34 55bc 55c8 113c
00000050: 6de1 023c 85f0 70bc 897e abbc 1cf5 9dbb
00000060: 606c 163c e82c 9ebb 050a ff39 11ee 57bc
00000070: a761 863b 0579 0c3b 2815 6f3c 0a96 ba3b
00000080: 8814 1c3b 9e23 273c ca7b 3f3c 35a9 173a
00000090: 2548 1ebc 15e7 4dbb 4577 633c bef9 893b
000000a0: cd68 85bb a5a0 073c a3ab 033c 61e1 d3bb
000000b0: ee04 b9bc abbf b5bb aff5 43ba aedf 7739
000000c0: 241d e1ba 991f b3bb f992 e4bb af82 633b
000000d0: 2859 ed3b 7fbd 31bc 8d89 333a 9ba4 4c3b
000000e0: 7d47 063b 42d6 d9bb 4aa9 f1ba b8a2 dc3a
000000f0: 77c1 30bb fd63 dabb 2d45 26bc 9795 02bc
00000100: 1092 a2bb 7427 adbb b88d 143b 4616 0abc
00000110: c9dc 2dbc 03c7 67bb 9d45 71ba 887c 58bc
00000120: 46cd 12bc 7015 6d3c 7217 9ebb b505 cb3c
00000130: 43ba 92bc 007a 073b 8727 f8bb f62a 1fbc
00000140: 695f b5bb 5b44 523c cc46 55bb 70f9 8dba
00000150: 17b6 aebb 3b37 f0bb af65 013c 22b4 9cbb
00000160: 3fdd eabb a75a dbbb 6e94 653b 0574 e4ba
00000170: 53bb 8cbb 940d 8aba 3899 8a3c ee42 4cbc
00000180: ad19 ef3b 10cf 4fbc f25f 5fbc e8d3 2dbc
00000190: 8eac b8bb 5ca3 433c b1e5 9239 3a31 42bc
000001a0: 198f 7ebc fe34 16bc 29c5 f5bb 1323 04b9
000001b0: 20c7 783c 6590 0d3a 4b32 16ba d3e4 563b
000001c0: a6ff c53b de17 f1b9 31f3 2f3c 8c06 163c
000001d0: d430 aebb dbdb b3bb 6150 fe3a c362 54bc
000001e0: a82f 24bc a393 6abb 9b1b 4eba f9df eabb
000001f0: 4595 0fbc fbd2 df3b d82f 9cbc c264 13ba
00000200: d72f c73b e93d 213b f244 57bc a6f4 ad3b
00000210: 0020 91bb c2e8 21bc 1a9a b6b8 e6c4 783b
00000220: 9194 ac3c 49c4 88bc f81e 9d3b 05cd 28bc
00000230: 1578 56bb 2cfc 18bb ec8b 23bb c33c e2ba
00000240: 4762 89bc ca8e af3b d0eb f7bb 8a80 e1bb
00000250: ccf4 b1bb f4d5 a23b deea f4b8 90fa 8fbb
00000260: 196d 4e3c 0600 14bb 70be d4bb ef3d 2ebc
00000270: 1cbd b9bb c2b7 71bc 5609 acbb 0457 813a
00000280: f9b4 283b ed4f efba 6ec4 643a c411 603c
00000290: c0c6 063c 90d1 d4ba 94a4 cbbc 4e7e 06bc
000002a0: 725b b3bb 1bf7 afb9 4ab5 eabb 9c01 41ba
000002b0: 4423 913b 7b56 bc3b 6a30 0fbc c418 6abb
000002c0: 090d ad3b cf5c 5f3c d057 b8bb 7b39 aebb
000002d0: f3b9 b63b 6292 543a 2ffd 6ebc 43c3 2fbc
000002e0: 0aae 803c 4730 533c ef94 b8b9 f994 adbc
000002f0: 283e 01bb 815a 20bc bffd a1bb 62fd 0e3a
00000300: 60f9 4ebc 6bd2 1bbc d531 9e3c 3d93 8a3a
00000310: 4e32 833c 9294 b13b 26ac b5bb a845 98bc
00000320: 3cbc f93b 24d4 a2bc 69e5 ffbb c4ce a13b
00000330: 9fe8 493c 6baf 833c 74cf 7739 abc7 503c
00000340: 7cb3 a3bb 615d 3c3c eea5 803c 8042 c63b
00000350: 6ea6 c5bb 12c6 2abb 4a78 3abb 0db3 383b
00000360: a9e0 d0bb 12a4 00bb b633 90bb 9ef9 233b
00000370: 166c d33b a7a9 9c3a c511 0abb 9b40 86bb
00000380: bc57 b1b8 673e ea3a 4600 2f3c 9813 233b
00000390: 3be2 ab3b c2fa 143c 2811 7ebc 08d0 f738
000003a0: 8f97 e63b 1762 15b9 bc5d 853c 5c94 89bc
000003b0: 9d12 8c3c b4fd a93c 1bcf e23b 337e c33c
000003c0: 0747 f9bb 8fc0 92bb 6773 64bc 6e74 b63a
000003d0: 1d0f ee3b d488 833b c451 103c a94e 1abc
000003e0: eab4 833a 5f0a b43a 44b7 93b8 972e de39
000003f0: c0c1 58bc 8482 8b3c e337 e839 bd6b fb39

action_model._discrete_distribution.branches.1.bias f4 [2]
3.4886147e-05 -3.4886216e-05
00000000: b752 1238 ca52 12b8

action_model._discrete_distribution.branches.2.weight f4 [2, 128]
0.013587742 -0.006570766 -0.026394136 0.003117447 -0.0077526425 0.00055409607 0.01170748 -0.009879497
0.011756632 -0.014700042 -0.011801717 0.009500261 -0.003969145 -0.0027668136 -0.004379549 0.0076270923
0.007449789 0.014918633 -0.011140983 0.00078800763 -0.0040139025 -0.0029582349 -0.026439706 -0.011140415
0.015558372 -0.004965475 0.00039772113 -0.006267554 0.009848096 -0.022776622 0.00619359 0.012852538
-0.008860953 0.0018677284 0.00018116765 0.0037806807 -0.0009851182 -0.0055393274 0.0073853373 0.011990323
0.011487971 -0.00013976145 0.010089711 -0.0051396503 -0.0015928764 0.01110209 0.0057142363 -0.0030438425
0.00066178583 -0.0035547651 0.011270203 -0.005116982 1.8347206e-05 -0.0151660815 -0.004233257 0.003769794
-0.016743112 -0.02262665 -0.0036164182 0.00024387146 -0.008942401 -0.006606927 -0.010299312 0.009863224
0.002391628 -0.0023488465 -0.0057577174 0.006850712 0.0033835906 0.013590375 0.0037498607 -0.0014394707
-0.009043109 0.0047464264 0.0043624677 0.0061769024 0.0146555705 0.0036845682 -0.0019384399 -0.0018442118
0.018589633 0.002847536 0.007109027 0.009537704 0.00524142 0.0034533145 0.004036117 -0.01322567
-0.011870242 -0.0074011935 -0.0031228187 0.0058278022 -0.00858954 -0.0022322012 -0.0026610724 -0.004325053
0.007401123 0.012225227 0.0049815984 -0.009900284 -0.003395631 -0.0049502663 -0.012801106 0.00027315313
-0.003356305 -0.00027589864 -0.0007699481 0.0049167895 0.011395368 -0.0063788192 -0.008946188 0.0035096009
0.0018893807 -0.007446001 0.0006624338 0.007182143 0.0011516834 -0.01314785 -0.0066025495 0.0022254165
0.009132271 -0.0072697466 0.011310895 -0.0028406458 0.010191221 0.008787121 0.002653668 0.011036418
-0.0063942936 0.013354255 -0.004540347 -0.0010335589 -0.008746272 -0.0019264824 0.0011187824 -0.0071046753
0.002711684 -0.011363986 -0.007076305 -0.008228186 -0.0076767886 0.0030306755 0.0042932793 -0.01700019
-0.005374478 -0.0052530523 0.006281802 0.0099517545 0.00031964647 -0.01741587 0.0034687128 0.01228192
-0.012385341 -0.011607257 0.0038910545 -0.0032046584 -0.0110227205 0.014483859 -0.0013608279 -0.0070613655
0.014616878 0.0018061884 -0.008127721 0.006334611 -0.008579067 -0.0028406172 -0.00920732 0.0028299242
0.007852305 -0.011632169 0.004688252 0.0029833734 -0.001750345 -0.015706314 -0.0014804337 0.0079977065
-0.006994435 0.000531711 0.013194597 -0.011635264 0.0018272175 0.00037564206 -0.007863293 -0.00423231
0.011672804 0.0012975844 0.0008772112 0.010233943 -0.006803578 -0.0025845426 0.0050010476 0.0062525733
-0.0043955343 0.016260695 0.007133946 0.0062933806 0.0050920565 -0.013042614 0.004559391 -0.010337435
-0.0066964403 -0.012544683 -0.008252433 0.018237878 -0.0077797566 0.0069832415 0.01603176 0.0025583247
-0.005266425 0.019116214 -0.0084685385 0.013932551 -0.012500662 -0.008732153 0.007161323 0.0048329136
-0.017442139 -0.0034012424 -0.0057378314 -0.0033156485 -0.00027210842 0.011987647 0.011950542 0.012770493
0.01017221 -0.0044992343 -0.006248403 0.0044698766 -0.0019132063 0.00090158946 -0.0040077693 0.002748518
-0.00073387945 0.009442029 0.008435561 -0.0055521512 -0.0037319234 0.0069487584 -0.010040965 0.0024630048
0.010943835 -0.0045049703 -0.009140572 0.011405445 0.007911225 0.017478017 0.003426489 -0.0026326058
-0.00070822967 0.01495475 0.013888917 0.01682236 -0.0047049522 0.015727304 0.001738068 -0.009616342
00000000: 1f9f 5e3c 954f d7bb 8438 d8bc 154e 4c3b
00000010: e109 febb c240 113a bbd0 3f3c 9ddd 21bc
00000020: e39e 403c 72d8 70bc fd5b 41bc fca6 1b3c
00000030: 9a0f 82bb 6e53 35bb 5282 8fbb b0ec f93b
00000040: 5c1d f43b 486d 743c ab88 36bc 4c92 4e3a
00000050: 0e87 83bb f2de 41bb 1598 d8bc 4a86 36bc
00000060: 8be8 7e3c 6cb5 a2bb 3a85 d039 0e60 cdbb
00000070: e959 213c 0a96 babc 99f3 ca3b 7493 523c
00000080: 882d 11bc 91ce f43a d2f7 3d39 4cc5 773b
00000090: 151f 81ba 3f83 b5bb b300 f23b 0f73 443c
000000a0: 0b38 3c3c ee8c 12b9 514f 253c 836a a8bb
000000b0: 10c8 d0ba 8ae5 353c 7d3e bb3b 347b 47bb
000000c0: b27b 2d3a 10f7 68bb a8a6 383c 5bac a7bb
000000d0: 53e8 9937 287b 78bc 22b7 8abb a60e 773b
000000e0: da28 89bc 865b b9bc 6e01 6dbb bfb7 7f39
000000f0: 2683 12bc ec7e d8bb 72be 28bc 5c99 213c
00000100: dcbc 1c3b 1bef 19bb 3cab bcbb f07b e03b
00000110: 3bbf 5d3b 2aaa 5e3c 39c0 753b 9fac bcba
00000120: 8c29 14bc e987 9b3b 08f3 8e3b 9d67 ca3b
00000130: eb1d 703c cc78 713b 4013 feba 7bb9 f1ba
00000140: 4949 983c ba9d 3a3b d7f2 e83b 0844 1c3c
00000150: 38c0 ab3b 0151 623b 6741 843b 7bb0 58bc
00000160: 677b 42bc b685 f2bb 34a8 4cbb 26f7 be3b
00000170: 24bb 0cbc 1f4a 12bb 6365 2ebb 2db9 8dbb
00000180: 1f85 f23b 524c 483c ad3c a33b cd34 22bc
00000190: 3c89 5ebb d835 a2bb bbbb 51bc fe35 8f39
000001a0: 74f5 5bbb 7da6 90b9 58d6 49ba 051d a13b
000001b0: a3b3 3a3c 6a05 d1bb 0893 12bc 5501 663b
000001c0: 19a5 f73a 95fd f3bb 2ea7 2d3a 2f58 eb3b
000001d0: 15f4 963a 146a 57bc 335a d8bb 4bd8 113b
000001e0: 859f 153c 0e37 eebb 5551 393c 212a 3abb
000001f0: 14f9 263c dbf7 0f3c 29e9 2d3b 18d2 343c
00000200: 3987 d1bb cecb 5a3c 31c7 94bb 7b78 87ba
00000210: 864c 0fbc 0682 fcba 1ca4 923a 56ce e8bb
00000220: 82b6 313b 0330 3abc 59e0 e7bb 83cf 06bc
00000230: 928d fbbb 4c9e 463b a3ae 8c3b fc43 8bbc
00000240: 641c b0bb cc21 acbb 93d7 cd3b af0c 233c
00000250: 3996 a739 baab 8ebc 5853 633b 1b3a 493c
00000260: e3eb 4abc 5d2c 3ebc 1001 7f3b 3f05 52bb
00000270: a498 34bc b54d 6d3c cf5d b2ba 0763 e7bb
00000280: a17b 6f3c a0bd ec3a 222a 05bc 9292 cf3b
00000290: 378f 0cbc a629 3abb 4dda 16bc 4076 393b
000002a0: f4a6 003c da94 3ebc e99f 993b b384 433b
000002b0: d56b e5ba 87aa 80bc 1d0b c2ba d008 033c
000002c0: 9331 e5bb 8562 0b3a 272e 583c d6a1 3ebc
000002d0: 3f7f ef3a d3f1 c439 0bd5 00bc 31af 8abb
000002e0: 4a3f 3f3c b513 aa3a a6f4 653a 45ac 273c
000002f0: 8df0 debb 6e61 29bb d4df a33b 63e2 cc3b
00000300: 6a08 90bb 2635 853c e0c3 e93b b438 ce3b
00000310: 44db a63b b0b0 55bc f266 953b 585e 29bc
00000320: d06d dbbb 3788 4dbc 3635 07bc 9a67 953c
00000330: 54ed febb add3 e43b 0a55 833c 91a9 273b
00000340: fa91 acbb 9b99 9c3c a0bf 0abc 5b45 643c
00000350: 94cf 4cbc 4e11 0fbc 88a9 ea3b 6b5d 9e3b
00000360: d1e2 8ebc 61e7 5ebb 6b04 bcbb 5a4b 59bb
00000370: c6a9 8eb9 d667 443c 35cc 433c 543b 513c
00000380: 57a9 263c 506e 93bb 67bf ccbb 0b78 923b
00000390: 8dc4 faba a558 6c3a 9b53 83bb 7b20 343b
000003a0: d161 40ba bdb2 1a3c 4f35 0a3c d2ee b5bb
000003b0: 4993 74bb 69b2 e33b dc82 24bc 5d6a 213b
000003c0: c54d 333c 6e9e 93bb 56c2 15bc e7dd 3a3c
000003d0: 159e 013c 0f2e 8f3c f28e 603b cc87 2cbb
000003e0: 7da8 39ba c504 753c 578e 633c 0ccf 893c
000003f0: 002c 9abb 8cd6 803c e2cf e33a dd8d 1dbc

action_model._discrete_distribution.branches.2.bias f4 [2]
-0.000148346 0.00014834627
00000000: 538d 1bb9 668d 1b39

action_model._discrete_distribution.branches.3.weight f4 [2, 128]
0.01790973 -0.011847244 0.014772184 -0.017398316 0.0051734797 0.010246528 0.009550271 -0.011298717
0.009039258 -0.013581189 0.009275825 -0.0093490565 0.0029776625 -0.007244382 0.0013829984 -0.0054228716
-0.0024968544 -0.0077025043 -0.0086178165 0.010839195 -0.0035371978 -0.013123444 -0.002307868 -0.0004788389
-0.015811376 0.0063925027 -0.0228137 0.012499212 -0.004071975 0.0068637934 0.003482098 0.0027790105
-0.003812406 -0.0039123637 0.0012336242 -0.008059018 -0.02464373 0.013416171 -0.0047360654 0.0061192084
0.0049556736 0.0006305099 0.012706445 0.00037656195 -0.0048886617 -0.0050235214 -0.013178113 -0.006969944
-0.0019065911 -0.012880112 -0.0007233393 -0.004169589 0.017472124 0.01069505 0.006438045 0.003236719
-0.0056648576 -0.01178697 0.00573622 -0.0038384132 0.0016153501 0.015593152 0.003964724 -0.012827156
-0.0075408006 0.0016009298 0.01614568 -0.010291005 -0.00880333 0.011400343 -0.0047639543 0.011049493
0.005775672 -0.012154346 0.006978583 0.013506334 -0.00794349 -0.002998175 0.0071480162 -0.015329646
-0.0035023273 -0.023358742 -0.0042144996 0.0068063536 0.0019003798 0.0021409446 -0.0017160928 0.006707788
0.008228592 0.0019676562 0.0037974815 -0.020543234 -0.0069266628 0.0081420215 -0.0044115083 -0.009984517
0.0058033783 -0.004751381 -0.0051360517 -0.008739041 0.016078716 -0.0012283549 0.013925959 0.008747722
-0.0008112021 0.0063061086 -0.0032343855 -0.009690202 0.006228241 -0.0058393357 -0.0011475853 0.004704771
-0.0046093515 0.0043942365 0.002821144 0.02413796 0.010827814 0.0015192473 -0.007252152 0.0019578245
0.0022034647 -0.0022601094 0.01054318 0.0054505374 -0.0014083384 0.010187491 -0.008229086 -0.009529442
0.006102369 0.01804454 -0.008054888 -0.0030373225 -0.004557473 -0.0067032864 0.008392796 -0.0022153982
-0.0040325997 0.009918783 -0.01119188 0.013137275 0.015295867 0.01129611 -0.0002543472 -0.0043916125
0.007966986 -0.0020632609 0.002511577 -0.014092802 0.009855149 0.008477193 -0.0006539089 0.01305914
0.0054448964 0.013108056 0.000118012445 -0.0041390485 -0.0009034967 -0.011486013 0.008657775 -7.9077676e-05
0.019449208 0.003981222 0.0015114868 0.0062053027 -0.0016186747 -0.003733631 -0.012647351 0.012308774
0.0061716936 0.004909818 -0.0020457339 -0.016399905 -0.00072947313 -0.017102 -0.01302231 -0.0019469489
-0.016865293 0.0008377439 -0.011540835 -0.015413482 0.0011495077 0.013690498 -0.0057671797 -0.004839681
-0.0014036237 0.010577336 -0.00010172348 -0.0011891958 -0.0020719666 0.0022904165 -0.0009507131 -0.004933971
0.0058146706 0.0031687673 0.0035658372 -0.0093059065 -0.0055659586 0.003876705 0.009203975 0.01726217
0.0007647251 0.0017683505 -0.01531923 -0.0118809715 -0.0078016603 0.015296521 -0.0052565564 -0.01621602
0.0011493197 -0.0033044722 -0.005325928 0.004402955 0.010618329 0.0036383625 -0.003490889 0.00021146069
-0.008881019 -0.004843937 -0.007223607 0.011965992 -0.00019467184 -0.0030040739 0.005093783 0.009245632
0.0010699981 0.0020072027 -0.0046926974 0.0046752123 0.018555673 0.008135435 -0.022138594 0.008767662
0.009864093 -0.0069879196 -0.007618742 -0.00053018413 -0.0071038045 0.008318213 -0.016192341 0.007257193
-0.008730625 -0.014258546 0.0037326543 0.0031144377 0.011381619 0.006570071 -0.016234992 0.0011472325
0.004587721 -0.01410107 -0.012109879 -0.006327878 -0.002058404 -6.029424e-05 -0.0033744376 -0.004646399
00000000: 6db7 923c f11a 42bc 0807 723c ea86 8ebc
00000010: 4b86 a93b 0ee1 273c bd78 1c3c 411e 39bc
00000020: 6519 143c a383 5ebc a1f9 173c c92c 19bc
00000030: e324 433b 4862 edbb ba45 b53a 58b2 b1bb
00000040: 44a2 23bb 4a65 fcbb be31 0dbc e196 313c
00000050: 55d0 67bb b703 57bc 9a3f 17bb ab0c fbb9
00000060: dc86 81bc 3378 d13b cce3 babc 7fc9 4c3c
00000070: 346e 85bb ace9 e03b e933 643b 0f20 363b
00000080: 8fd9 79bb 4933 80bb 8fb1 a13a f909 04bc
00000090: a6e1 c9bc 80cf 5b3c ff30 9bbb a483 c83b
000000a0: 3463 a23b ce48 253a b12e 503c 4a6d c539
000000b0: 1131 a0bb 5a9c a4bb 03e9 57bc 2164 e4bb
000000c0: 95e6 f9ba 1b07 53bc 7b9e 3dba 0ca1 88bb
000000d0: b321 8f3c 4a3a 2f3c 3cf6 d23b 221f 543b
000000e0: 45a0 b9bb 231e 41bc e7f6 bb3b e38d 7bbb
000000f0: 28ba d33a 6b7a 7f3c 84ea 813b fe28 52bc
00000100: d218 f7bb 4ad6 d13a f243 843c 9a9b 28bc
00000110: d83b 10bc 81c8 3a3c f21a 9cbb ef08 353c
00000120: d941 bd3b 0623 47bc 99ac e43b ac49 5d3c
00000130: 6925 02bc 087d 44bb e839 ea3b 3229 7bbc
00000140: 4d87 65bb d55a bfbc c919 8abb d507 df3b
00000150: 2a16 f93a 174f 0c3b 85ee e0ba 01cd db3b
00000160: 37d1 063c cbf3 003b 2bdf 783b 494a a8bc
00000170: 0ff9 e2bb 1d66 053c 6a8e 90bb 1996 23bc
00000180: 442a be3b 79b1 9bbb 534c a8bb 322e 0fbc
00000190: 83b7 833c c000 a1ba b529 643c 9b52 0f3c
000001a0: daa6 54ba 79a3 ce3b fcf7 53bb a7c3 1ebc
000001b0: 4616 cc3b e657 bfbb 936a 96ba 7b2a 9a3b
000001c0: 0b0a 97bb 87fd 8f3b f1e2 383b f9bc c53c
000001d0: 2567 313c 7b21 c73a 76a3 edbb d84e 003b
000001e0: 0168 103b 581e 14bb 4dbd 2c3c 6c9a b23b
000001f0: ff97 b8ba 6fe9 263c 4ad3 06bc 6021 1cbc
00000200: 62f6 c73b 25d2 933c a6f8 03bc d10d 47bb
00000210: db56 95bb 3ea7 dbbb f081 093c 3730 11bb
00000220: e623 84bb 6482 223c 265e 37bc ba3d 573c
00000230: 849b 7a3c 5213 393c e759 85b9 84e7 8fbb
00000240: f687 023c c637 07bb 4599 243b 7fe5 66bc
00000250: 7e77 213c ede3 0a3c 156b 2bba 01f6 553c
00000260: 1a6b b23b 2cc3 563c 737d f738 dba0 87bb
00000270: a3d8 6cba d52f 3cbc 57d9 0d3c 81d6 a5b8
00000280: f253 9f3c e974 823b 151d c63a da55 cb3b
00000290: b629 d4ba efaf 74bb d636 4fbc bdaa 493c
000002a0: eb3b ca3b 8ae2 a03b b811 06bb 1859 86bc
000002b0: 1d3a 3fba 7e19 8cbc 875b 55bc c430 ffba
000002c0: 1529 8abc 0b9c 5b3a c515 3dbc d488 7cbc
000002d0: 14ab 963a 1c4e 603c 9cfa bcbb 3096 9ebb
000002e0: ccf9 b7ba 904c 2d3c 6154 d5b8 cade 9bba
000002f0: d5c9 07bb d01a 163b 4739 79ba 26ad a1bb
00000300: fe88 be3b 18ab 4f3b d2b0 693b cd77 18bc
00000310: a562 b6bb 5110 7e3b 45cc 163c 6569 8d3c
00000320: d577 483a ffc7 e73a 82fd 7abc 68a8 42bc
00000330: 12a5 ffbb 429e 7a3c 313f acbb 75d7 84bc
00000340: c5a4 963a d88f 58bb 1f85 aebb aa46 903b
00000350: 80f8 2d3c 9871 6e3b 66c7 64bb 8cbb 5d39
00000360: b281 11bc e3b9 9ebb 02b4 ecbb 020d 443c
00000370: d320 4cb9 ffdf 44bb c0e9 a63b fe7a 173c
00000380: 2e3f 8c3a 468b 033b 33c5 99bb 8632 993b
00000390: 1102 983c 7d4a 053c ff5b b5bc 3da6 0f3c
000003a0: 019d 213c ebfa e4bb a4a6 f9bb 0efc 0aba
000003b0: 08c7 e8bb 1d49 083c cda5 84bc bfcd ed3b
000003c0: e50a 0fbc ad9c 69bc 8c9f 743b 981b 4c3b
000003d0: f879 3a3c c049 d73b 3fff 84bc bc5e 963a
000003e0: 9854 963b 2d08 67bc 8468 46bc 175a cfbb
000003f0: 4ae6 06bb 72e4 7cb8 ab25 5dbb d240 98bb

action_model._discrete_distribution.branches.3.bias f4 [2]
0.00020670227 -0.00020670246
00000000: 38be 5839 45be 58b9
