results/Run4/Hero Knight Behavior/checkpoint.pt (torch, 451287 bytes, 51 tensors)

network_body.linear_encoder.seq_layers.0.weight f4 [128, 5]
0	0xbe3b0dba	-0.18266955
1	0x3eb59b4a	0.3547004
2	0x3e926c22	0.28598124
3	0x3f2a567b	0.6653821
4	0xbf074c55	-0.5285085
5	0xbeade658	-0.339648
6	0x3d879366	0.06619911
7	0x3f51a3fc	0.81890845
8	0x3f232420	0.63727
9	0xbea27054	-0.31726325
10	0x3f0c428c	0.5478904
11	0x3df4a765	0.119459905
12	0x3e7a250b	0.24428193
13	0xbf339c6b	-0.7016055
14	0x3ecf72e9	0.40517357
15	0x3e3509c4	0.17679507
16	0xbe8c9aa3	-0.27461728
17	0x3edf7bbf	0.43649098
18	0xbd3606f9	-0.044440243
19	0xbca32f6d	-0.019920075
20	0xbec17839	-0.37787035
21	0x3ed607ee	0.41802925
22	0x3f6936db	0.9109933
23	0x3f23d3e8	0.6399522
24	0x3f3c045a	0.7344414
25	0xbf1885d1	-0.5957919
26	0x3f34336f	0.7039098
27	0xbcd89691	-0.026438983
28	0xbf028e38	-0.5099826
29	0x3eefaea4	0.46812928
30	0xbf0144bf	-0.50495523
31	0xbe127e46	-0.14305982
32	0xbdb7af27	-0.089689545
33	0x3d2f834f	0.042849835
34	0xbe54a1e4	-0.20764881
35	0x3e18de90	0.14928651
36	0xbe316e62	-0.17327264
37	0x3bf4fd31	0.007476472
38	0x3e39fea6	0.18163547
39	0xbd98f3ca	-0.07468374
40	0xbf4a5a08	-0.79043627
41	0xbe4a184c	-0.19735831
42	0x3f14dc52	0.5814868
43	0x3eb10c01	0.3457947
44	0xbf27f010	-0.6560068
45	0x3dd5b0b0	0.10434091
46	0x3f8c066f	1.0939463
47	0x3ee325bc	0.44364727
48	0x3f326a4a	0.69693434
49	0xbce2fc15	-0.027708093
50	0xbf47876b	-0.77941006
51	0xbc62654f	-0.013818099
52	0xbe67e244	-0.22644907
53	0xbe863033	-0.26208648
54	0xbe76aba7	-0.24088918
55	0xbe281d52	-0.16417435
56	0x3e2551ef	0.16144536
57	0x3f02f704	0.51158166
58	0x3f281344	0.65654397
59	0xbea9e67a	-0.33183652
60	0x3f513555	0.81722003
61	0xbe8f7aae	-0.28023285
62	0x3f3581d3	0.7090122
63	0x3e5d12d4	0.21589214
64	0xbebd6a2a	-0.3699506
65	0x3f23e4bf	0.64020914
66	0x3f205c0d	0.6264046
67	0xbe704b14	-0.2346614
68	0xbe550fd0	-0.20806813
69	0xbe9b1aff	-0.30294034
70	0x3f11b9cb	0.5692412
71	0xbeeebec0	-0.46629906
72	0x3f03e340	0.5151863
73	0x3f57b628	0.84262323
74	0x3f4daeb6	0.8034471
75	0xbe984c6b	-0.29745802
76	0x3e99693e	0.29963106
77	0x3cd7b691	0.026332172
78	0x3f499b82	0.7875291
79	0x3e4a416d	0.1975152
80	0x3f3fec47	0.74969906
81	0x3f4cf904	0.8006747
82	0x3e0980c6	0.1342803
83	0xbf4652a3	-0.77469844
84	0xbe17043b	-0.14747708
85	0x3eccbd79	0.39988306
86	0xbdd55384	-0.1041632
87	0x3e80acb9	0.25131777
88	0x3f097230	0.5368986
89	0x3e01cfe2	0.12676957
90	0xbf57ab3f	-0.84245676
91	0xbf2bcfdf	-0.6711406
92	0x3e6ebd8b	0.23314492
93	0x3eac9166	0.3370468
94	0xbe930284	-0.28712857
95	0xbf7c90d0	-0.98658466
96	0x3d9486f7	0.07252305
97	0x3e110a01	0.14163972
98	0xbe5de065	-0.21667631
99	0xbee9c132	-0.4565521
100	0x3ec952b7	0.3932092
101	0xbd67cff0	-0.05659479
102	0x3e37d9f2	0.17954233
103	0xbf0f97e4	-0.5609114
104	0x3e9b65cb	0.303511
105	0x3ec88b7a	0.39168912
106	0x3eb0bee4	0.34520638
107	0xbc662b67	-0.014048434
108	0xbe6ed8bc	-0.23324865
109	0x3f35123d	0.70730954
110	0xbf217ff8	-0.6308589
111	0xbdb46f6d	-0.08810315
112	0xbee8a716	-0.45439976
113	0xbe6e88b4	-0.23294336
114	0x3eb8846e	0.36038536
115	0xbe8c589e	-0.2741136
116	0x3c36899c	0.011141207
117	0xbf65c482	-0.8975297
118	0x3db36a57	0.08760517
119	0x3ef3fea5	0.47655216
120	0x3f3e4100	0.7431793
121	0xbecf7281	-0.40517047
122	0xbf292f1b	-0.660875
123	0xbe1af354	-0.15131885
124	0xbe83352d	-0.25626507
125	0x3f349b84	0.705498
126	0xbf571111	-0.84010416
127	0xbd938c30	-0.07204473
128	0xbe8fd809	-0.2809451
129	0x3dc9dd49	0.0985666
130	0x3ef2e231	0.47438195
131	0xbee24cb8	-0.44199157
132	0x3edac88c	0.4273113
133	0xbea1f9c4	-0.3163587
134	0x3f1bf069	0.6091371
135	0xbec64e6d	-0.3873171
136	0xbdbaaf6e	-0.09115492
137	0xbf333c9f	-0.70014375
138	0xbed82dae	-0.4222235
139	0xbe00752b	-0.12544696
140	0x3e9b38bf	0.3031673
141	0x3db72bd4	0.089439064
142	0xbf022217	-0.50833267
143	0xbdb7978d	-0.08964453
144	0x3d93219e	0.07184146
145	0xbe8cb904	-0.27484906
146	0x3f280519	0.6563278
147	0xbe7a2e08	-0.24431622
148	0xbe3033f1	-0.17207314
149	0xbe8a7916	-0.27045506
150	0xbf205700	-0.6263275
151	0x3cb0e4a5	0.021593401
152	0xbf001429	-0.5003076
153	0x3ec44de1	0.38340667
154	0x3eb6b964	0.35688317
155	0xbd025930	-0.031823337
156	0xbf84fc08	-1.0389414
157	0xbdfec2a7	-0.12439471
158	0x3e8a252b	0.26981482
159	0xbee5deaa	-0.44896442
160	0xbe731813	-0.23739652
161	0x3eef887f	0.46783826
162	0xbd0a4fb9	-0.033767436
163	0xbecf18c1	-0.40448573
164	0x3f5195da	0.8186928
165	0xbf44caf7	-0.768722
166	0xbf84f196	-1.0386226
167	0xbe1c2b57	-0.15250908
168	0xbece60fc	-0.40308368
169	0xbe7855be	-0.24251458
170	0xbef1c22d	-0.47218457
171	0xbf210d81	-0.6291123
172	0x3e5a7392	0.21333149
173	0xbf29539e	-0.66143215
174	0x3da9e314	0.08295265
175	0x3ea82ac1	0.3284512
176	0xbe8569b2	-0.26057202
177	0x3dc17f4e	0.094481096
178	0xbec7bc51	-0.39010862
179	0x3ed7090c	0.4199909
180	0xbea585e6	-0.3232872
181	0xbd1ed1d8	-0.03877434
182	0xbe01437b	-0.12623398
183	0xbedc4927	-0.4302456
184	0x3d8555ee	0.065105304
185	0xbf3fc32a	-0.7490717
186	0x3eba29e8	0.36360097
187	0x3edfa7c7	0.4368269
188	0x3d01487a	0.03156326
189	0x3e852a15	0.2600867
190	0xbf28e517	-0.65974563
191	0x3f290e59	0.6603752
192	0xbeba48f8	-0.36383796
193	0x3eaabcf2	0.3334728
194	0x3e1b22cd	0.15149994
195	0xbefe3fec	-0.49658144
196	0x3eab5b5f	0.33468148
197	0xbe6e6bff	-0.23283385
198	0x3de687d3	0.11256375
199	0x3d66d348	0.056353837
200	0x3f24ef49	0.6442762
201	0x3f316934	0.6930115
202	0x3f63a1ad	0.8891857
203	0x3ee99fd5	0.45629755
204	0xbf26d2ea	-0.6516558
205	0xbeed9aea	-0.46407253
206	0x3ed94f02	0.4244309
207	0x3e6d908d	0.23199673
208	0x3dd01945	0.1016107
209	0xbe08d8eb	-0.13363998
210	0xbe99bd1b	-0.3002709
211	0x3e1653c0	0.14680386
212	0xbe468b06	-0.1938897
213	0x3c9a504f	0.018837122
214	0x3e7b51b8	0.24542892
215	0xbd68fa35	-0.05687924
216	0x3e5c18ab	0.21493785
217	0xbf5b3aa8	-0.8563638
218	0x3e335206	0.17511758
219	0xbec9736f	-0.3934588
220	0xbe19f841	-0.15036108
221	0x3eccdf9a	0.40014344
222	0xbe9a0643	-0.30082902
223	0xbd90abd6	-0.07064025
224	0xbf2d7f02	-0.67771924
225	0x3f3a72be	0.7283133
226	0x3f733347	0.9500012
227	0x3eddc65e	0.43315405
228	0xbf3e8ff8	-0.7443843
229	0x3e598140	0.21240711
230	0x3f2e20e5	0.68018943
231	0xbd0035b1	-0.031301204
232	0x3f38b096	0.7214445
233	0xbed0a5b7	-0.4075143
234	0xbd53917d	-0.05165242
235	0xbed07662	-0.4071532
236	0x3dac921d	0.084263064
237	0x3e6cf82a	0.23141542
238	0x3ea7214d	0.32642594
239	0xbdd8d26a	-0.10587008
240	0x3eed9ac7	0.46407148
241	0x3dc2c83f	0.0951085
242	0x3e5019aa	0.2032229
243	0xbf244337	-0.6416506
244	0x3e8b0622	0.27153116
245	0xbf4d71ef	-0.80251974
246	0x3efc386c	0.49261796
247	0x3f6b5bb4	0.919368
248	0xbf17d380	-0.593071
249	0xbf011831	-0.5042754
250	0x3db0fd05	0.0864201
251	0xbd972a77	-0.073811464
252	0x3f051637	0.5198702
253	0xbf100dec	-0.56271243
254	0x3e017cc3	0.12645249
255	0xbcb93c5c	-0.02261179

network_body.linear_encoder.seq_layers.0.bias f4 [128]
0	0x3b01e928	0.001982281
1	0x3c92078c	0.017825864
2	0xba6d346c	-0.0009048644
3	0xba92d4db	-0.0011202352
4	0xbbcc7790	-0.006239839
5	0x3948aab7	0.00019137083
6	0x3b0025cf	0.0019553786
7	0xbb69ae66	-0.0035656928
8	0x3b0b900a	0.002129557
9	0xbb364a6b	-0.0027815353
10	0x3b447347	0.0029975937
11	0x3a1ddb4b	0.0006021752
12	0x3b2eacfb	0.0026653397
13	0x3b9c1dbc	0.004764287
14	0xbb37fbc8	-0.0028073657
15	0xbb3d8a1f	-0.0028921438
16	0x3bab54cd	0.005228615
17	0x39f629ac	0.00046951824
18	0x3c1c425e	0.009537308
19	0xb750cb0d	-1.2445043e-05
20	0xbbb7343a	-0.0055909427
21	0x3ac46be9	0.0014985773
22	0x3b3270ef	0.0027227958
23	0x3b555894	0.0032554017
24	0xb7f6e116	-2.9430299e-05
25	0xbb0ebac4	-0.0021778801
26	0xbb9ec40a	-0.004845147
27	0xbb8fc8b5	-0.00438794
28	0x3c57167b	0.013127918
29	0xbb0aa06a	-0.0021152743
30	0xbbc66d56	-0.0060555143
31	0xbb10a7dd	-0.002207271
32	0xbb8bd9c3	-0.0042679026
33	0xbbd41144	-0.006471785
34	0x3c526745	0.012842004
35	0xbafc44e4	-0.0019246605
36	0x3c1b8ebf	0.009494483
37	0xbb332a9e	-0.0027338634
38	0xbaf2777f	-0.0018498747
39	0xbba46922	-0.0050174156
40	0x3b063806	0.002048017
41	0x3bb30828	0.005463619
42	0xbb2612a3	-0.0025340698
43	0x3a54355f	0.0008095111
44	0x3ab03a77	0.0013445158
45	0x3b2632bd	0.0025359832
46	0xbb2962bc	-0.0025846204
47	0x3c7674bd	0.015042481
48	0xbbd3c91b	-0.0064631826
49	0xbb233b27	-0.0024907084
50	0xbafd0d3d	-0.0019306313
51	0xbb046557	-0.0020202005
52	0xbbb0fb94	-0.005401084
53	0x391a0a95	0.00014690527
54	0xbb6c5aea	-0.0036064931
55	0x3c0ad80e	0.008474363
56	0x371e4af3	9.434984e-06
57	0x3bcf253b	0.006321577
58	0xbafd78a7	-0.0019338325
59	0xbba13ab0	-0.004920326
60	0x3a8b0dd7	0.0010608983
61	0xbbee4b44	-0.007272156
62	0xbb9a9cd2	-0.0047184015
63	0x3b066d2e	0.0020511854
64	0x3ad41576	0.0016180712
65	0xba8be350	-0.0010672603
66	0x39d78c6d	0.0004111262
67	0xb73afcbb	-1.1145307e-05
68	0xbab09dd7	-0.0013474774
69	0xbb39391a	-0.0028262795
70	0x3a21dc87	0.0006174524
71	0xbbb48bb4	-0.005509818
72	0xbb176444	-0.0023100534
73	0x3a9f5b88	0.0012158016
74	0x3af230eb	0.0018477713
75	0x3adb1d3c	0.0016717087
76	0xbb0baeb1	-0.002131384
77	0x3777d3fd	1.4771705e-05
78	0xbbe3b761	-0.0069493507
79	0xba919b6b	-0.001110894
80	0xbb40a044	-0.00293924
81	0xbb0682ef	-0.002052482
82	0x3b31db5c	0.0027138805
83	0x3ac2d01c	0.0014863047
84	0xbb171289	-0.002305182
85	0xb873da1c	-5.8138845e-05
86	0x35011df0	4.809981e-07
87	0xbb4608fa	-0.0030217753
88	0xba55299a	-0.00081315043
89	0x3b8e1b58	0.0043367557
90	0xb2518cb6	-1.2197395e-08
91	0xba4ff96a	-0.0007933589
92	0x397be81f	0.00024023697
93	0xba08667c	-0.00052032596
94	0xba828092	-0.000995653
95	0x3c26fdaa	0.010192314
96	0x3a000f4f	0.00048850937
97	0xb977cdc4	-0.0002363241
98	0xbbbe7bbf	-0.0058130915
99	0x3a3424c8	0.0006871936
100	0xbb64297e	-0.003481477
101	0xbb21f80c	-0.0024714498
102	0x3ad70c1a	0.0016406805
103	0xbbc78fa6	-0.0060901223
104	0x3b41d2a1	0.0029575008
105	0xbb2f4a19	-0.0026747047
106	0xbb4c2706	-0.003115119
107	0xbb1ead0f	-0.0024212038
108	0xbbc3b1e2	-0.005972133
109	0x3b49b660	0.003077887
110	0x3c6e45f3	0.014543044
111	0xb9eb3b4e	-0.00044866878
112	0x3aca89c9	0.001545244
113	0x3b61f84b	0.003448027
114	0x3bd3cb9c	0.006463481
115	0xba5b5cd2	-0.00083680183
116	0xbbf6a2e6	-0.007526743
117	0x39b08ca3	0.00033674118
118	0x3c27bc4a	0.010237763
119	0xbae9b984	-0.0017831777
120	0xba18f7e4	-0.00058352784
121	0xbbd47414	-0.006483564
122	0xbafa0c82	-0.0019077214
123	0x3a709e62	0.00091788743
124	0xb8f7c829	-0.000118151605
125	0x3b1b50fa	0.002369939
126	0xbb179f63	-0.0023135773
127	0x3bd89262	0.006609247

network_body.linear_encoder.seq_layers.2.weight f4 [128, 128]
0	0xbabc4477	-0.0014363666
1	0x3d45d947	0.048302915
2	0x3da53362	0.08066441
3	0x3d3b8e86	0.045790218
4	0x3d6d6b3b	0.05796359
5	0x3cfed4ce	0.031107333
6	0x3c99b762	0.018764202
7	0x3dc385ae	0.09546982
8	0xbe0b2fa6	-0.13592395
9	0x3dd34f58	0.10317868
10	0x3e14b928	0.14523757
11	0x3ba90bd3	0.0051588803
12	0xbd5bd90a	-0.05367378
13	0xbbd8a57d	-0.0066115246
14	0x3e0fbd4c	0.14037055
15	0x3de2d0f5	0.11075012
16	0xbd8a78f7	-0.067613535
17	0x3d2521c6	0.040315412
18	0x3bf300f1	0.0074158837
19	0x3e512af2	0.20426539
20	0xbd27fe99	-0.041014288
21	0xbcdbbe5c	-0.026824169
22	0x3cf3444f	0.029695658
23	0x3d4be6cf	0.049780663
24	0xbd2eda85	-0.042688865
25	0xbcbd5630	-0.023112386
26	0xbc9a209b	-0.018814376
27	0x3db465e9	0.088085
28	0xbdb71a70	-0.089405894
29	0x3df8fa2d	0.12157092
30	0x3baeef21	0.005338565
31	0xbdfb95b8	-0.12284416
32	0xbe1fa1da	-0.15589085
33	0x3bba67c8	0.005688641
34	0x3d19a47d	0.037510384
35	0x3e665b33	0.22495727
36	0x3d497529	0.049184
37	0xbd6b1413	-0.05739219
38	0x3cede857	0.029041452
39	0x3ca146fc	0.019687168
40	0xbd9bcf7c	-0.07607934
41	0xbc320ed5	-0.010867794
42	0x3ba22207	0.004947904
43	0xbe489e5b	-0.19591658
44	0x3cf75a6c	0.030194484
45	0x3d2fb638	0.042898387
46	0x3cf2a06f	0.029617516
47	0x3df388c9	0.11891324
48	0x3e2bf93a	0.16794291
49	0xbcfdea21	-0.03099543
50	0xbd68c7c7	-0.056831148
51	0x3e42a350	0.19007611
52	0xbe114970	-0.1418817
53	0xbca7ba9b	-0.020474723
54	0x3d5f6044	0.054535165
55	0x3d656f2d	0.05601423
56	0x3c47988c	0.012182366
57	0x3daccc98	0.08437461
58	0xbe7f6cdd	-0.24943872
59	0xbe43031b	-0.19044153
60	0xbdcaece0	-0.099084616
61	0xbd180aef	-0.037119802
62	0x3d5d2d68	0.05399838
63	0xbd221136	-0.039567195
64	0xbe5096c8	-0.20370018
65	0xbc9463b9	-0.018113958
66	0x3ce0ae9c	0.02742701
67	0x3dd9e77c	0.10639855
68	0xbe8aac82	-0.27084738
69	0xbd503573	-0.050832223
70	0x3d9d2bc8	0.07674366
71	0x3c8eced2	0.017432604
72	0xbc73e7ec	-0.014886837
73	0xbcac83ec	-0.021058999
74	0x3db7d572	0.08976258
75	0xbdc0f648	-0.094219744
76	0x3d5d4b62	0.05402697
77	0x3dde4467	0.108528905
78	0xbb54ec30	-0.0032489412
79	0x3e7cd519	0.24690665
80	0xbdc65720	-0.096845865
81	0xbd13c3fc	-0.036075577
82	0x3dbf1bba	0.0933146
83	0x3d695f97	0.056975927
84	0x3d9a721c	0.07541296
85	0xbd6eb3f5	-0.05827709
86	0xbe16c352	-0.14722946
87	0xbdd27f28	-0.102781594
88	0xbd2dfac7	-0.042475488
89	0xbcc2e9ab	-0.023793062
90	0x3de8ac0f	0.113609426
91	0x3d0566a0	0.032568574
92	0xbdec63ee	-0.115424976
93	0xbd6004a2	-0.05469192
94	0xbc33f096	-0.010982653
95	0x3ad1d7a5	0.0016009702
96	0xbe688c8b	-0.22709863
97	0x3d57c3bd	0.052676905
98	0xbd1719ff	-0.036890026
99	0x3d93ea9d	0.07222483
100	0x3afe2537	0.0019389753
101	0xbe05928d	-0.13044186
102	0xbdbda3d6	-0.09259765
103	0xbddbad7f	-0.10726451
104	0x3e36f435	0.17866595
105	0x3d1e04b2	0.038578697
106	0x3d9a1d94	0.07525173
107	0x3d667e0b	0.056272548
108	0x3d1a2d1a	0.03764067
109	0xbdf3872d	-0.11891017
110	0x3d2c6ece	0.04209786
111	0xbe05327c	-0.1300754
112	0x3c37ed6a	0.0112260375
113	0x3dbf70f8	0.09347719
114	0x3c579e25	0.013160263
115	0x3d227762	0.039664634
116	0xbdc0a096	-0.09405629
117	0x3d464cc5	0.048413057
118	0x3c2bdb25	0.01048926
119	0x3c8cb43c	0.017175786
120	0x3e02fbc9	0.12791361
121	0x3c7fffc5	0.015624945
122	0xbe35bc39	-0.17747582
123	0x3cd9227f	0.026505707
124	0x3dd2e324	0.1029723
125	0x3dd13679	0.10215468
126	0xbca509bd	-0.020146245
127	0xbd74ab8b	-0.05973391
128	0xbce1a4ec	-0.027544461
129	0x3ce8c143	0.028412467
130	0x3dd28911	0.102800496
131	0xbddcf9ce	-0.10789834
132	0xbced4069	-0.028961377
133	0x3dc0081a	0.09376545
134	0xbc716c04	-0.014735226
135	0x3d88256d	0.066477634
136	0x3d16ab59	0.036784504
137	0x3ddde069	0.108338185
138	0x3d9e37a3	0.077254556
139	0xbdaebec8	-0.085324824
140	0xbd23195d	-0.03981911
141	0x3db8cc34	0.09023324
142	0xbd810296	-0.06299321
143	0xbe155320	-0.14582491
144	0x3ce75cb4	0.028242446
145	0x3e08d182	0.13361171
146	0xbddfa642	-0.10920383
147	0x3d9dfa7a	0.0771379
148	0xbda3e404	-0.08002475
149	0xbdcea2f3	-0.10089674
150	0x3d07be8f	0.033140715
151	0x3cdfa514	0.027300395
152	0x3d400806	0.04688265
153	0x3caf6f7b	0.021415463
154	0xbc853d3a	-0.016264547
155	0x3cefa17c	0.029251806
156	0x3b357fd7	0.0027694607
157	0x3e0a4fea	0.13507047
158	0x3d9e9b7a	0.077444986
159	0x3e06e9c5	0.13175113
160	0x3d99f190	0.075167775
161	0xbd2d4364	-0.042300597
162	0x3cd4ad3a	0.025961507
163	0x3d36d415	0.04463585
164	0x3c755369	0.0149735
165	0x3d8213fe	0.063514695
166	0xbd9bfa17	-0.0761606
167	0xbced6ade	-0.028981622
168	0xbcf5235f	-0.029924093
169	0xbd90bd30	-0.07067335
170	0x3a5b558d	0.0008366935
171	0xbcc2cdf0	-0.02377984
172	0xbd6b4d8b	-0.057446998
173	0xbe0a6683	-0.13515668
174	0xbdf16f08	-0.11788756
175	0xbd1c10b9	-0.038101885
176	0x3e1fc3c0	0.15602016
177	0xbda2dc98	-0.07952231
178	0x3dccd18c	0.100009054
179	0xbd9a081b	-0.07521077
180	0xbe10740c	-0.14106768
181	0x3d9acac5	0.075582065
182	0xbd4768a0	-0.048683763
183	0xbcc69b12	-0.024243865
184	0xbcc8780b	-0.024471303
185	0x3d0bde0b	0.034147304
186	0xbca93ab6	-0.020657878
187	0xbd787a38	-0.060663432
188	0x3c87d85d	0.016582662
189	0xbd53830f	-0.05163866
190	0x3dce7658	0.10081166
191	0x3e56ae3a	0.209649
192	0xbdd7f5d3	-0.10544934
193	0xbcee8501	-0.029116156
194	0xbd77a175	-0.06045671
195	0x3c3f1791	0.0116633335
196	0xbdf9750d	-0.12180529
197	0xbdcf7433	-0.10129585
198	0xbbac19af	-0.005252085
199	0x3c8b202b	0.016983112
200	0x3c8700e7	0.016479922
201	0xbdae5bf1	-0.0851363
202	0x3e70671f	0.23476838
203	0xbdb5bcdd	-0.088739134
204	0xbd79f7c3	-0.0610273
205	0x3e0fc83d	0.14041229
206	0x3e0d289c	0.13785022
207	0x3d2bac9a	0.041912653
208	0x3d82fbba	0.06395669
209	0xbd898a97	-0.06715887
210	0xbdc9c361	-0.09851719
211	0xbca6f80a	-0.020381946
212	0x3d92707d	0.07150362
213	0xbd7b188e	-0.061302714
214	0x3cc4a324	0.024003573
215	0x3e33401a	0.17504922
216	0x3db4a770	0.08820999
217	0xbdc3ad7b	-0.09554573
218	0xbc9b09c2	-0.018925551
219	0xbd334759	-0.043769214
220	0x3d9ddb9f	0.07707905
221	0x3d86c053	0.06579652
222	0xbd8a7f85	-0.06762604
223	0xbba88fc6	-0.0051440923
224	0xbe3951d8	-0.18097627
225	0x3dbb6e6d	0.091519214
226	0xbdd80587	-0.10547929
227	0xbdffd41d	-0.12491629
228	0x3e3fd673	0.1873415
229	0x3d67a098	0.05654964
230	0x3e339822	0.17538503
231	0xbd933030	-0.071869254
232	0xbddcfdbf	-0.10790586
233	0x3e0fb09c	0.14032215
234	0x3d085cab	0.0332915
235	0x3b07945f	0.0020687801
236	0x3e16845c	0.14698929
237	0xbdb1a430	-0.086738944
238	0x3c422df4	0.011851776
239	0xbe4d858a	-0.20070472
240	0x3c906fee	0.017631497
241	0x3cb24231	0.021760078
242	0x3dbae9ca	0.09126623
243	0xbd880c6b	-0.066429935
244	0xbd18a4c0	-0.037266493
245	0xbcda867b	-0.026675453
246	0xbdb9c53f	-0.09070825
247	0xbd0163b7	-0.031589236
248	0xbe138068	-0.14404452
249	0x3de5149c	0.111855716
250	0xbd930901	-0.07179452
251	0xbc7d5236	-0.015461495
252	0x3d4f4292	0.050600596
253	0x3daac608	0.08338553
254	0x3dd76cf0	0.10518825
255	0xbded8758	-0.115980804

network_body.linear_encoder.seq_layers.2.bias f4 [128]
0	0xba7534b8	-0.0009353864
1	0xbbb4ab2a	-0.0055135684
2	0x337e99f1	5.9278992e-08
3	0xbbd3d432	-0.0064645046
4	0xbab5fd17	-0.0013884631
5	0xbbace828	-0.0052766986
6	0x3ad2ae69	0.0016073707
7	0xbb3099c7	-0.0026947127
8	0xbb0ef6a9	-0.0021814501
9	0xbb1ce8e5	-0.0023942527
10	0xbbb9fd10	-0.0056759194
11	0x3ac18d60	0.0014766864
12	0xb9b3507a	-0.000342015
13	0x39d9fc3e	0.000415774
14	0xbb31a697	-0.0027107352
15	0x3b00277d	0.0019554787
16	0x390c9ec9	0.00013410593
17	0x3ad3ded7	0.0016164434
18	0xbbb72a73	-0.005589777
19	0x3b1cc258	0.002391955
20	0xbacbcc2f	-0.0015548522
21	0xba8081bc	-0.0009804289
22	0xba29fc01	-0.000648439
23	0x3a5fafce	0.0008532972
24	0x3b0cc0f6	0.0021477318
25	0xbb2a25fc	-0.0025962582
26	0xbab21669	-0.0013587001
27	0xbacf1706	-0.0015799708
28	0xbb03f226	-0.0020133345
29	0xbb4e2eca	-0.0031460994
30	0xbbb5d09d	-0.0055485503
31	0xbb517761	-0.0031962025
32	0xb9e826c2	-0.00044279365
33	0xbab6a494	-0.0013934546
34	0x3a40a0a1	0.00073481543
35	0xba86284b	-0.0010235397
36	0xbba1d28f	-0.0049384306
37	0x39796b8d	0.00023786556
38	0x3c17685d	0.009241191
39	0xbb6cb6aa	-0.0036119618
40	0xbab51077	-0.0013814111
41	0x3bbdefe7	0.005796421
42	0x3b71f637	0.0036920437
43	0xbb8ed4a4	-0.004358845
44	0x3b839199	0.0040151593
45	0xb98d726f	-0.00026978875
46	0xbb469d07	-0.0030305998
47	0xbbc1471f	-0.005898371
48	0xbb5fc43b	-0.0034144062
49	0xbb72b981	-0.0037036838
50	0xbaaa4f63	-0.001299363
51	0xbb1f2787	-0.0024285035
52	0x3b4cac93	0.0031230792
53	0xba293510	-0.00064547453
54	0xba9ba698	-0.001187521
55	0x3955c332	0.00020385979
56	0x37d125f3	2.4932413e-05
57	0x3b70fa91	0.0036770443
58	0x38e48d9a	0.000108982626
59	0x37c8e64d	2.39491e-05
60	0x3ad0d06c	0.0015931255
61	0xbacf042a	-0.0015794088
62	0x39e6ebc0	0.00044044666
63	0xbb4e9d0f	-0.003152672
64	0xba37b3b9	-0.0007007677
65	0x3aab86d0	0.0013086442
66	0x3a0fe267	0.00054887537
67	0xbbc9861d	-0.0061500208
68	0xb9b03b52	-0.00033613533
69	0xbae6a862	-0.0017597789
70	0xbb1daf78	-0.0024060886
71	0x3796d4dc	1.7980514e-05
72	0x3acc863b	0.0015603969
73	0xbacdeb70	-0.0015710425
74	0xb9777722	-0.00023600136
75	0xb9da9176	-0.00041688577
76	0x3a7e7cd6	0.0009707933
77	0xbaf4f7cf	-0.0018689575
78	0x3aaa2c95	0.0012983257
79	0xbae9d95a	-0.0017841265
80	0xba72d7f0	-0.00092637446
81	0xbae63a19	-0.0017564922
82	0x3b430877	0.0029759684
83	0xbabfbc0e	-0.0014628188
84	0x3be6a476	0.0070386482
85	0xbbaeede0	-0.0053384155
86	0xb9da01a1	-0.00041581414
87	0x3b30febe	0.0027007307
88	0xba0a94b7	-0.00052864425
89	0xbc02acad	-0.007975739
90	0x3b4bb118	0.0031080898
91	0xba9890d5	-0.0011639843
92	0x381d9920	3.7574326e-05
93	0xbb93572d	-0.004496476
94	0xbac4d2f1	-0.0015016479
95	0x3a00ca66	0.0004912972
96	0xbb9353c8	-0.0044960715
97	0xbb4df7cc	-0.0031428216
98	0xb9dc7a68	-0.0004205287
99	0xbb2badd4	-0.002619614
100	0x37b74cea	2.1851116e-05
101	0xba1e0811	-0.00060284237
102	0x3ad7c961	0.0016463214
103	0xbb44a885	-0.0030007672
104	0x3bb0d019	0.005395901
105	0xbb0b92f4	-0.0021297308
106	0xbb7601f6	-0.003753779
107	0xbb9a4b87	-0.0047087106
108	0xba12781e	-0.0005587357
109	0x3b225aba	0.0024773316
110	0x3b2944b0	0.0025828294
111	0x3b60d7fc	0.0034308424
112	0x38cb4289	9.6921875e-05
113	0xbbb71cca	-0.0055881487
114	0x3b06e267	0.0020581724
115	0xbb6022fe	-0.0034200544
116	0x3a859862	0.0010192508
117	0xbacbb57d	-0.0015541759
118	0xba7b1036	-0.0009577306
119	0xbb212021	-0.00245858
120	0x3ad8fb2b	0.0016554346
121	0xbb97b76f	-0.0046300213
122	0x3b6c8f7e	0.003609627
123	0x3ae0884a	0.0017130461
124	0x3bd3447f	0.0064473744
125	0xbb1963db	-0.0023405466
126	0x3b9f1afe	0.0048555126
127	0xbb90c51c	-0.0044180285

action_model._discrete_distribution.branches.0.weight f4 [3, 128]
0	0xbbeaa520	-0.0071607977
1	0xbbadde1b	-0.005306018
2	0xbc33cd1e	-0.010974197
3	0x3ca871f2	0.020562146
4	0xbabad7cd	-0.0014254987
5	0xbc51e1ea	-0.01281021
6	0x3a4f32c2	0.0007903987
7	0xbbcf9007	-0.006334308
8	0x3c319d70	0.010840759
9	0x3c956dc6	0.01824082
10	0xbae890d5	-0.0017743359
11	0xb99b8cc5	-0.00029668785
12	0x3b7d0fa5	0.0038614061
13	0x3bea9398	0.007158708
14	0xbbc09a11	-0.005877741
15	0x3bb8fdc8	0.0056454875
16	0x3cc7b810	0.02437976
17	0x3b303141	0.0026884826
18	0xbbcfef45	-0.006345662
19	0xbc171048	-0.00922019
20	0x3bd07c9c	0.006362511
21	0xbb754feb	-0.0037431668
22	0xbc561ef4	-0.013068903
23	0xbc864852	-0.016391907
24	0x3a08ae09	0.00052139215
25	0x3c96e5f2	0.018420193
26	0xbb8a53b8	-0.004221406
27	0xbc331fbb	-0.010932858
28	0x3bb7cf05	0.0056093954
29	0xbbbb0312	-0.005707153
30	0x3b8008ca	0.0039072977
31	0xbabac5f4	-0.0014249668
32	0xbb945816	-0.004527102
33	0xbbeec275	-0.0072863647
34	0xbc11c8ee	-0.008898003
35	0xbaec5906	-0.0018031902
36	0xbbbce9b9	-0.0057651666
37	0x3bfab9bb	0.0076515353
38	0xbc45e644	-0.012078825
39	0xbbbb4912	-0.005715498
40	0xbc2c1bec	-0.010504704
41	0x3bcb4c04	0.00620413
42	0xbbc81abd	-0.006106703
43	0x39241117	0.00015646625
44	0xbc2df7ec	-0.010618191
45	0x3b8d1668	0.0043056495
46	0xbb9e3c17	-0.0048289406
47	0xbc853f5e	-0.016265567
48	0xba22fcd2	-0.0006217483
49	0xb9bf753c	-0.00036517705
50	0x3c15af7d	0.009136078
51	0xbc013ff4	-0.007888783
52	0x3c8eebcd	0.017446423
53	0x3a089ab2	0.00052110397
54	0x3c78f356	0.015194735
55	0x3c11624b	0.0088735325
56	0xbc190ed8	-0.009341918
57	0xbb3d0b3b	-0.0028845805
58	0x3b69f72a	0.00357003
59	0xbcaf9b98	-0.021436498
60	0x3c044e24	0.008075271
61	0xbb4d7ca0	-0.00313548
62	0xbb910e4a	-0.004426752
63	0xbb174ca7	-0.002308646
64	0xbbb6b15c	-0.005575342
65	0x3b6b9a67	0.0035950185
66	0x3bbd081d	0.0057687894
67	0x3c0d76ad	0.008634252
68	0xbb9961c9	-0.0046808464
69	0x3b8953d0	0.0041908994
70	0xbc3a58d0	-0.011373714
71	0x3b2a1d3a	0.0025957362
72	0xbccaa190	-0.024735242
73	0xbc9ab84f	-0.018886713
74	0x3c60232e	0.0136802625
75	0xbbb7a473	-0.0056043207
76	0xbc6f555c	-0.014607754
77	0xbbfa240d	-0.007633692
78	0x3c1550b1	0.009113477
79	0x3c379c05	0.011206632
80	0xbc22f9a2	-0.009947212
81	0x3c4c627f	0.012474655
82	0x3c28d48f	0.010304584
83	0x3c5e2ed9	0.013560974
84	0x3ccb8694	0.024844445
85	0x3bef3647	0.0073001715
86	0x3c200a62	0.0097681
87	0xbb3fe8aa	-0.0029282966
88	0x3be22ac5	0.006902071
89	0xbc760fad	-0.015018386
90	0xbbbfb62f	-0.0058505754
91	0xbbc67cf6	-0.006057377
92	0xbb3fc952	-0.0029264283
93	0x3b6d1218	0.0036174115
94	0xbc9a2fd9	-0.018821644
95	0xbbfdc748	-0.0077447034
96	0x3b22f0bc	0.0024862727
97	0x3bee626d	0.007274917
98	0x3b693b9d	0.003558851
99	0x3c2ccaa8	0.010546364
100	0xbb5a38c6	-0.0033298
101	0xbb1c437e	-0.002384394
102	0x3be0beb6	0.006858672
103	0x3ad7789d	0.0016439144
104	0x3b29d4de	0.0025914232
105	0x3b305498	0.002690589
106	0xbc85381c	-0.016262107
107	0xbbb93572	-0.005652123
108	0x3c014e8e	0.007892264
109	0x3c69c993	0.01426925
110	0x3ba498a4	0.005023079
111	0x3c90d4f9	0.017679678
112	0xbbb24101	-0.005439878
113	0x3c1da1f3	0.009621131
114	0xbc5f475e	-0.013627855
115	0xbbc92776	-0.0061387373
116	0x3c48589b	0.012228156
117	0xbbc4cf7c	-0.0060061794
118	0xbc5362c9	-0.01290197
119	0xba1916c9	-0.0005839882
120	0xbbf54660	-0.007485196
121	0x3ba0a3e9	0.004902352
122	0x3b1251a8	0.0022326503
123	0x3c072758	0.008249126
124	0xbc7a0db3	-0.015262055
125	0x3c3b84b2	0.011445211
126	0xbc40b252	-0.011761265
127	0x3a7815fa	0.0009463724
128	0xbc05b614	-0.008161087
129	0x3c36147d	0.011113283
130	0xbcb1e154	-0.02171389
131	0xbc48dc5f	-0.012259572
132	0x3bae1307	0.005312327
133	0x3c21e609	0.009881505
134	0xbb016fe6	-0.0019750535
135	0x39bac083	0.00035620117
136	0x3bf1a48c	0.007374352
137	0x3c07ee39	0.008296543
138	0xbc3de808	-0.011590965
139	0x3c9ef5c5	0.019404301
140	0x3bc37f2a	0.005966087
141	0xbc816913	-0.015797174
142	0x3c3e2b1a	0.011606956
143	0x3baf72d9	0.005354267
144	0xbbe99ff7	-0.007129665
145	0x3c79bc3c	0.0152426325
146	0x3c3673a1	0.0111359665
147	0x3ca2d040	0.019874692
148	0xba496986	-0.0007683266
149	0x3c0ba9f4	0.008524407
150	0x3c3686ef	0.011140569
151	0x3c3554de	0.011067597
152	0xbc1d3802	-0.009595873
153	0xbc161517	-0.009160302
154	0xbb53d36b	-0.003232206
155	0xb9276d78	-0.00015967141
156	0x3bf77ae0	0.0075524896
157	0x3bc04937	0.005868103
158	0xbad14e76	-0.0015968818
159	0xbc295dbb	-0.0103372885
160	0xbb97a802	-0.0046281824
161	0x3c0d2572	0.008614885
162	0x3a91f5a8	0.0011135833
163	0xbba0f977	-0.004912551
164	0x3b173cd7	0.0023077035
165	0xbc13a2e1	-0.009011001
166	0x3c1620ca	0.009163091
167	0x3cb1437a	0.02163862
168	0xbc1298a9	-0.00894753
169	0x3c51238b	0.012764822
170	0x3bbc4207	0.0057451758
171	0x3c1c7292	0.0095488
172	0xbb3af07e	-0.0028524692
173	0xbc6c5d96	-0.0144266095
174	0xbba2c0ba	-0.0049668225
175	0x3c1c7636	0.009549668
176	0x3ca1b5c7	0.019739999
177	0xbbccf307	-0.006254557
178	0xbbaaa92b	-0.0052081547
179	0x3b029a16	0.0019928268
180	0xbc4000ae	-0.011718912
181	0xbc472478	-0.012154691
182	0xbb8fd85d	-0.004389806
183	0xbc232d78	-0.009959571
184	0xbbfc194f	-0.0076934467
185	0xbaa3c04e	-0.0012493224
186	0xbb847f6a	-0.0040435093
187	0x3ca2ee82	0.01988912
188	0xbbe3f5ea	-0.0069568055
189	0x3b093072	0.0020933417
190	0xbbe773a2	-0.007063345
191	0xbbcb6110	-0.006206639
192	0x3bd25a69	0.006419469
193	0x3bca5b97	0.006175469
194	0x3b7dc116	0.0038719825
195	0xbc04fc91	-0.008116857
196	0xbbf68187	-0.007522765
197	0x3c292811	0.010324494
198	0x3c84a812	0.016193423
199	0xbb9b8874	-0.004746491
200	0x3c9967d6	0.01872627
201	0xbb91f651	-0.004454412
202	0x39df777c	0.00042622897
203	0x3b33fb16	0.0027462891
204	0xb9af1640	-0.0003339518
205	0x3c27f5f5	0.010251512
206	0x3a88f4d6	0.0010448943
207	0x3c20add0	0.009807065
208	0x3ae1e222	0.001723353
209	0x3b40b0da	0.0029402287
210	0xbc3b2e78	-0.011424653
211	0x3b86b397	0.0041107642
212	0xbc01eb4a	-0.007929632
213	0xbc232894	-0.009958405
214	0xbb0e223b	-0.0021687883
215	0xbbc66de1	-0.006055579
216	0xbc66643a	-0.014061982
217	0xbc1a879a	-0.009431744
218	0xbbba6322	-0.005688087
219	0x3c23caee	0.009997113
220	0x3c018b7d	0.007906792
221	0xbc1c3ca3	-0.009535941
222	0x3c70a74b	0.014688323
223	0x3c176cee	0.009242279
224	0xb999faa5	-0.0002936918
225	0xbba8cfe7	-0.005151737
226	0xbc721aa3	-0.0147768585
227	0xbc1ffe14	-0.009765167
228	0x3af3f285	0.0018611705
229	0x3a80a4e0	0.0009814762
230	0xbb1d05dd	-0.0023959794
231	0x3b7b4bbc	0.0038344702
232	0xbbb08180	-0.0053865314
233	0xbbb52702	-0.0055283317
234	0x3b9bbe44	0.004752906
235	0xbbc21380	-0.0059227347
236	0x3c28d9cc	0.010305833
237	0x3bbe170a	0.0058010863
238	0x3c4635c8	0.012097783
239	0xbb5ece35	-0.003399742
240	0xbb2f1231	-0.0026713724
241	0x3b07fa84	0.0020748684
242	0x3c62f1f2	0.01385163
243	0xbbdcb9bd	-0.006736009
244	0xbc2f69b8	-0.010706358
245	0x3bbe10a6	0.0058003245
246	0x3b63be39	0.0034750833
247	0xbb18b6a8	-0.002330223
248	0x3c5b32f4	0.013378847
249	0xbc37d592	-0.011220353
250	0xbc84598c	-0.01615598
251	0x3b56e639	0.0032791032
252	0x3cc85c98	0.024458215
253	0x3bb07040	0.005384475
254	0x3c8c64a4	0.017137833
255	0x3ba19d13	0.004932055

action_model._discrete_distribution.branches.0.bias f4 [3]
0	0x3acc1f2c	0.0015573255
1	0xb8c4b6df	-9.380071e-05
2	0xbb00b827	-0.0019641013

action_model._discrete_distribution.branches.1.weight f4 [2, 128]
0	0xbc3b29f2	-0.011423575
1	0x3be968ae	0.0071230745
2	0x3c44ef7f	0.012019991
3	0x3c878992	0.01654509
4	0xbb563d5e	-0.0032690386
5	0xbbc02683	-0.005863966
6	0xbc52b429	-0.012860336
7	0xbb29f78c	-0.0025934903
8	0xbb99e563	-0.0046965345
9	0x3bf352f2	0.0074256593
10	0x3bce6f20	0.006299868
11	0xbbe6ffee	-0.007049552
12	0x3c48bbb3	0.012251782
13	0x3b8d7052	0.004316368
14	0x3c444af4	0.011980761
15	0xbbc2bf20	-0.005943194
16	0x3af3bc46	0.0018595539
17	0xbc281c8b	-0.010260711
18	0x3c8a9b2f	0.0169197
19	0xbbc364ba	-0.0059629353
20	0xba4bd824	-0.0007776043
21	0xbc99e6f5	-0.018786887
22	0xbb85bb99	-0.0040812013
23	0xbc63972b	-0.013891022
24	0x3c8b0de4	0.016974397
25	0x3bffd3d1	0.007807233
26	0x3b8af7c4	0.0042409617
27	0xbbfb3456	-0.007666151
28	0xbbab0277	-0.0052187997
29	0x3bdacc8a	0.006677215
30	0xbc4953db	-0.012288059
31	0x3bbab83b	0.0056982315
32	0xbbd58ac8	-0.006516788
33	0xbaec284e	-0.0018017383
34	0xbca20d77	-0.019781811
35	0x3ba7eb22	0.0051244656
36	0x3bb85038	0.005624797
37	0xbbce5654	-0.006296912
38	0x3c263171	0.010143624
39	0xbb900d16	-0.004396091
40	0xbc46f826	-0.012144124
41	0xbc2ae5f9	-0.010430806
42	0xbbd99755	-0.0066403546
43	0x3c0828b3	0.008310485
44	0x3c9df49e	0.019281682
45	0xbc532974	-0.012888301
46	0x3b10dedf	0.0022105498
47	0xbb9c28db	-0.0047656125
48	0x3c7d2cf1	0.015452609
49	0x3c83dca6	0.016096424
50	0xbc0f019b	-0.00872841
51	0x3c8bc67d	0.01706242
52	0xbc38cf85	-0.011279945
53	0xbac486ef	-0.0014993827
54	0xbbcc38a7	-0.0062323394
55	0xbc1e1ec9	-0.009650894
56	0xbb26da34	-0.002545965
57	0x3cca7cc7	0.024717702
58	0xbc04300b	-0.008068095
59	0xbba0bc7f	-0.004905283
60	0xbbd4e302	-0.006496788
61	0x3b8e0a0b	0.0043346933
62	0xbc8b4079	-0.016998516
63	0xbb863a2e	-0.004096291
64	0xba599b16	-0.00083010027
65	0xbc2df5a5	-0.010617648
66	0xbbd1bc47	-0.0064006182
67	0x3bb85db5	0.005626405
68	0xbc7d0689	-0.015443453
69	0xbc178e34	-0.009250212
70	0x3be3ea24	0.006955402
71	0x3c71650d	0.014733565
72	0xbc293dce	-0.010329677
73	0xbbbb15bd	-0.0057093785
74	0xba1e8048	-0.0006046337
75	0x3afb74bf	0.0019184573
76	0x38742964	5.821268e-05
77	0x3ba6fa37	0.005095746
78	0xbc1adebb	-0.009452517
79	0x3c14641c	0.009057071
80	0xbc31f7b4	-0.01086228
81	0xbbaa3e8e	-0.0051954454
82	0x3b331ff2	0.0027332273
83	0xbc01a9be	-0.007914005
84	0xbc77f903	-0.015135053
85	0x3b246d01	0.0025089385
86	0x3c214e72	0.009845363
87	0x3b990f81	0.0046710377
88	0x3c573fe7	0.013137794
89	0xbb1edf4b	-0.002424198
90	0x3bcb602d	0.0062065334
91	0xbc259c3f	-0.010108053
92	0xba84a3bd	-0.0010119599
93	0x3c839112	0.016060386
94	0x3bd29d97	0.0064274776
95	0xbbddee07	-0.00677276
96	0xbb7dbee7	-0.0038718523
97	0xbc09db0b	-0.00841404
98	0x3cd1a22d	0.025590027
99	0xbbf60166	-0.007507491
100	0x3c62a487	0.013833172
101	0xbc1c119f	-0.009525686
102	0xbc655471	-0.013997183
103	0x3b3d72fc	0.0028907647
104	0x39558beb	0.00020365386
105	0xbc5a947c	-0.0133410655
106	0xbcd5d818	-0.026104018
107	0x3b8436c8	0.0040348507
108	0xbb0960d9	-0.0020962267
109	0xbc26fb5f	-0.0101917675
110	0x3c77cc40	0.015124381
111	0x3cb70dc0	0.022345424
112	0x39e33f04	0.00043343764
113	0x3a87dd97	0.0010365722
114	0x3bc09a41	0.0058777635
115	0xbca8a656	-0.020587128
116	0xbc8b0f9c	-0.016975217
117	0xbc28341b	-0.010266329
118	0xbc2a16f1	-0.010381446
119	0x3c589cd7	0.013220987
120	0xbafaf713	-0.001914712
121	0x3c01d4f7	0.00792431
122	0xbc6d2533	-0.014474201
123	0x3c8ccfb3	0.017188882
124	0x3cc2371b	0.023707917
125	0xb91c1a89	-0.00014887204
126	0xbc0c9875	-0.00858127
127	0x3c866f8a	0.016410608
128	0x3c4478b2	0.011991667
129	0x3b7e7b8b	0.0038830962
130	0x3ab09bf7	0.0013474216
131	0xbadc18c7	-0.0016792052
132	0x3c2b7d65	0.010466908
133	0x3c218214	0.009857673
134	0x3b551e4e	0.0032519284
135	0xbc2aec0b	-0.010432254
136	0x3b89a4a0	0.004200533
137	0xbc264a21	-0.01014951
138	0xbc3daf44	-0.011577431
139	0x3c8f795b	0.017513921
140	0xba1743ee	-0.0005770315
141	0xbbac6003	-0.005260469
142	0x3b3eabbe	0.0029094066
143	0xbaab89c8	-0.0013087327
144	0x3a8468d6	0.0010102044
145	0x3ba27c78	0.0049586855
146	0xbb9b6358	-0.0047420673
147	0x3b46a8b7	0.0030312964
148	0xbbc6ab8d	-0.006062931
149	0xbc4894d6	-0.0122425165
150	0x3aa0ddf3	0.0012273177
151	0x39659091	0.00021892997
152	0xbc9a3887	-0.018825782
153	0xbb3dec89	-0.0028980097
154	0x3b9632b6	0.004583682
155	0xb9840563	-0.00025181015
156	0xbbc5817b	-0.006027398
157	0x3bf6fc7a	0.007537422
158	0xbbf4b9cd	-0.0074684382
159	0x3ba798e5	0.005114662
160	0xbbd55be6	-0.0065111993
161	0xbaff320c	-0.0019469871
162	0xbb39da45	-0.0028358859
163	0x3c55bb2b	0.013045113
164	0xbbff9beb	-0.0078005693
165	0x3bcbf66a	0.006224443
166	0xbcd124ec	-0.025530301
167	0x3b2de07d	0.002653151
168	0xbbc778c6	-0.0060873954
169	0x3c29a930	0.010355279
170	0x3b831a0e	0.0040009087
171	0xbc469a8c	-0.012121808
172	0xbbe19ff1	-0.0068855216
173	0xbc356b3e	-0.011072932
174	0xba8bc2a5	-0.0010662867
175	0xbc4f8464	-0.012665842
176	0x3bb0d3ee	0.0053963577
177	0x3b5525fb	0.0032523859
178	0xbb63ff72	-0.0034789708
179	0xbc9fc8e7	-0.019504977
180	0xb9b5b459	-0.0003465738
181	0xbcd957f7	-0.026531203
182	0xbbd6f385	-0.0065597915
183	0x3a9cde0e	0.0011968033
184	0xbc42e378	-0.011895053
185	0xbc25dc7f	-0.010123371
186	0x3c03421e	0.008011369
187	0x3c592878	0.013254277
188	0xbc63763f	-0.013883173
189	0x3b13d23c	0.002255573
190	0x3a60d2cd	0.00085763336
191	0x3b67d86e	0.0035376805
192	0x3b8abe56	0.0042341156
193	0x3c82ea4d	0.015980864
194	0x3bdab5c3	0.0066744997
195	0xbc6e04f8	-0.014527552
196	0xba06cc40	-0.000514213
197	0xbb5532cb	-0.0032531496
198	0x3b891ee0	0.004184589
199	0x3b1d4984	0.0024000118
200	0x3c31a69d	0.010842946
201	0xbc20f588	-0.009824164
202	0x3b9cf5fa	0.004790065
203	0x3c13b19d	0.009014514
204	0x3c2bcea3	0.010486278
205	0xbb1f077a	-0.002426593
206	0x3c07384a	0.008253166
207	0xbb56f3a5	-0.0032799032
208	0xbbf504d3	-0.0074773817
209	0xbaccd3f5	-0.0015627133
210	0xbc0db22a	-0.008648435
211	0xbb51975c	-0.0031981086
212	0x3bbf37c4	0.005835505
213	0xbcdd39c5	-0.027005086
214	0x3c2d7cf6	0.010588875
215	0x3c2b6e39	0.010463291
216	0xbbf2eea0	-0.0074137
217	0xbaf7c250	-0.0018902514
218	0xbb14aa7f	-0.0022684631
219	0x3af19f39	0.0018434293
220	0x3c405b75	0.011740555
221	0xbbcb73ef	-0.0062088887
222	0xbc896b81	-0.016774895
223	0xb871b72e	-5.7629477e-05
224	0xbbcb26f0	-0.00619971
225	0xbc37cb68	-0.011217929
226	0x3bb44997	0.0055019367
227	0xba1d811b	-0.0006008313
228	0x3c9fd0f2	0.019508813
229	0x3be9157c	0.007113157
230	0xbb68560c	-0.0035451679
231	0xb9352707	-0.00017276044
232	0x3cafecba	0.021475185
233	0xbb14a85a	-0.0022683353
234	0xbabedc40	-0.0014561489
235	0xbbeed607	-0.0072886976
236	0xbbded383	-0.0068001165
237	0x3c778447	0.015107221
238	0x3c72aee3	0.014812204
239	0xbc8c8e40	-0.017157674
240	0x3be4190e	0.0069609946
241	0xbc611cc2	-0.013739767
242	0x3c8a20e0	0.01686138
243	0xbc9cec45	-0.01915563
244	0x3c02d45d	0.007985202
245	0xbb1db007	-0.002406122
246	0x3b8cae0a	0.004293208
247	0x3bef0c7c	0.0072951894
248	0xba90f9e3	-0.00110608
249	0xbbadeed0	-0.0053080097
250	0x3c744574	0.014909137
251	0x3bf7b1aa	0.007559021
252	0xbbdd98a6	-0.006762582
253	0x3b8458e2	0.004038916
254	0x3cd642ea	0.026154954
255	0xbb2ce376	-0.0026380694

action_model._discrete_distribution.branches.1.bias f4 [2]
0	0xbb5919e2	-0.0033127
1	0x3b5919e4	0.0033127004

action_model._discrete_distribution.branches.2.weight f4 [2, 128]
0	0xbab0e1bc	-0.0013495008
1	0xbc10caaf	-0.008837386
2	0x3c30dcfe	0.010794876
3	0x3c3cf8f6	0.011533966
4	0x3a088212	0.000520737
5	0xbc5d6e7a	-0.013515109
6	0xbc247e27	-0.010039843
7	0x3b72437d	0.0036966496
8	0x3a6a5c9c	0.00089401915
9	0x3c1d2ce3	0.009593221
10	0xbbcb93cf	-0.0062126885
11	0x3af59677	0.0018736859
12	0x3bdf5e1e	0.0068166396
13	0x3bdf876e	0.0068215644
14	0xbc2fa159	-0.010719621
15	0x3ba4a09f	0.0050240303
16	0xbac4f040	-0.0015025213
17	0xbb58968b	-0.0033048715
18	0xbbd9d0e4	-0.006647216
19	0xbc245038	-0.010028891
20	0x3c9badce	0.019003775
21	0xbc0c2374	-0.008553375
22	0xbc6c0d68	-0.014407493
23	0x3c3787e5	0.011201833
24	0x3bcc99e0	0.0062439293
25	0xbc7f5690	-0.015584603
26	0x3bb9816e	0.005661181
27	0xbc008314	-0.007843751
28	0x3c5bea05	0.013422494
29	0x3b865040	0.004098922
30	0x3b2b6b52	0.0026156497
31	0xbc855395	-0.016275207
32	0xbc85765e	-0.016291793
33	0x3b440000	0.0029907227
34	0xbc271a3b	-0.010199125
35	0x3c924956	0.017857235
36	0xbbeac634	-0.007164741
37	0x38a29921	7.7532844e-05
38	0xbb46282b	-0.0030236344
39	0xbc54b33f	-0.012982189
40	0x3c43d0b2	0.011951612
41	0xbc41369a	-0.011792803
42	0xbc065235	-0.008198311
43	0xbbb836f6	-0.005621786
44	0xbbd7a635	-0.0065810927
45	0xbc94855f	-0.018130003
46	0xbb0cb462	-0.0021469821
47	0x3b03d425	0.0020115462
48	0xb8f5fe93	-0.000117299285
49	0x3b29fcff	0.002593815
50	0x3c26d63f	0.010182916
51	0xbc11a1b3	-0.00888865
52	0xbadd83bf	-0.0016900225
53	0x3c270c94	0.01019587
54	0x3c7f12d2	0.015568452
55	0x3abdc72b	0.0014478912
56	0x3be7260e	0.007054097
57	0xbca57bb7	-0.020200593
58	0xba967b5b	-0.0011480855
59	0x3b2ad101	0.0026064517
60	0xbbb23e54	-0.005439559
61	0x3b98c3b9	0.004662004
62	0x3b534612	0.003223781
63	0x3c0f2249	0.008736202
64	0xbc219d91	-0.009864227
65	0xbc8c701b	-0.0171433
66	0xbc7b4226	-0.015335595
67	0xba2d930d	-0.00066213385
68	0xbbb4599a	-0.0055038454
69	0x3c06563c	0.008199271
70	0x3c0d9b55	0.008642991
71	0x3bcc89ae	0.0062419986
72	0x3c9ee407	0.019395841
73	0xbae15cbe	-0.0017193777
74	0xbc11f3af	-0.008908196
75	0xbc4481b5	-0.011993815
76	0x3c3e096a	0.011598924
77	0xbc588ee7	-0.013217664
78	0x3a668da9	0.0008794913
79	0x3b9a8464	0.004715489
80	0x3c1f309d	0.00971618
81	0xbbcf7ee0	-0.0063322634
82	0x3bd8cf88	0.0066165365
83	0xbc2da24f	-0.010597779
84	0xb9e64d92	-0.00043926813
85	0xbc87e1ba	-0.016587127
86	0x3c142ea3	0.009044322
87	0xbc9668c9	-0.018360512
88	0x3c165c93	0.009177345
89	0xb9ade0ff	-0.00033164767
90	0xbcb31ed9	-0.021865295
91	0xbbb270c0	-0.0054455698
92	0xbc7329b8	-0.0148414895
93	0x3c090151	0.00836213
94	0x3b41f5b5	0.0029595916
95	0xbc4206b3	-0.0118424175
96	0xbb8e0b1d	-0.004334821
97	0x3b3c4dc2	0.002873287
98	0xbc6cc6e8	-0.01445172
99	0x3a9414ff	0.0011297761
100	0x395ac822	0.00020864655
101	0x3c71109d	0.014713434
102	0x3b07152f	0.0020611992
103	0x3bad7604	0.0052936096
104	0x3ba45368	0.0050148256
105	0xbbdc10c9	-0.006715868
106	0xbc892695	-0.01674203
107	0xbbf3571c	-0.0074261557
108	0xb96c87e5	-0.00022557339
109	0xbada8804	-0.0016672616
110	0x3c3ec5e9	0.011643865
111	0xbba9550b	-0.0051676086
112	0xbc73cab0	-0.014879867
113	0x3c435da4	0.011924181
114	0xbc0f11ee	-0.008732302
115	0x3c58d6a5	0.013234769
116	0xbc3f70b2	-0.0116845835
117	0xbc2e7be2	-0.010649653
118	0xbc36b422	-0.011151345
119	0x3c787feb	0.015167217
120	0xbc266e2c	-0.010158103
121	0x3bd38605	0.0064551854
122	0x3b72c74d	0.0037045062
123	0xbb1d4c1f	-0.002400167
124	0xbbfbfe2d	-0.007690212
125	0xbb9908bf	-0.004670232
126	0x3bb28cbd	0.005448906
127	0xbba81de7	-0.0051305178
128	0x3b95391f	0.0045539285
129	0xbc44c0c9	-0.012008854
130	0xbc276ae1	-0.010218353
131	0x3c2a4313	0.010391968
132	0xbc21d153	-0.009876567
133	0xbba24d13	-0.0049530356
134	0x3c25ac73	0.010111916
135	0xbb991a57	-0.0046723294
136	0xbad4a568	-0.0016223611
137	0x3bad3520	0.005285874
138	0xbbd1280e	-0.0063829487
139	0x3a0587ce	0.0005093784
140	0xbce9759a	-0.02849846
141	0xbb4f646c	-0.003164555
142	0xbc1b643c	-0.009484347
143	0xbaf32f3c	-0.0018553506
144	0x3c9a36ee	0.01882502
145	0xbb1d36a8	-0.0023988876
146	0xbb6152f1	-0.0034381712
147	0x3a465d01	0.0007566959
148	0xbc193679	-0.009351366
149	0x3b687c87	0.0035474615
150	0xbbb7e4f7	-0.0056120115
151	0xbb97e24f	-0.0046351324
152	0xbbe916a9	-0.007113297
153	0x3b3b11d1	0.0028544555
154	0x3b19ba27	0.0023456903
155	0xbc647657	-0.01394423
156	0xbc0cd165	-0.008594845
157	0xbb46b607	-0.00303209
158	0x3c9f39ea	0.019436795
159	0xbc36b353	-0.011151153
160	0xbc46fa95	-0.012144704
161	0xbb49398f	-0.0030704474
162	0xbc018440	-0.007905066
163	0x3cddcf3c	0.027076356
164	0x3af43942	0.0018632787
165	0x3be0bb0f	0.0068582366
166	0x3bddc1b4	0.006767476
167	0xba016f17	-0.0004937513
168	0x3c3cf0e4	0.011532042
169	0xbc847084	-0.016166933
170	0x3c87cb2f	0.016576378
171	0x3b560689	0.0032657704
172	0x3ccb491c	0.024815135
173	0x3b8517f3	0.004061693
174	0x3b800260	0.003906533
175	0x3baa2cfc	0.005193351
176	0xbb413a01	-0.0029484036
177	0x3c87c411	0.016572984
178	0xbb109481	-0.0022061171
179	0x3ba4cf1a	0.0050295712
180	0x3bf8e81a	0.007596028
181	0x3c84d7e3	0.016216224
182	0xbb4543c9	-0.0030100218
183	0xbb4cd3d8	-0.0031254198
184	0xbc1aca5c	-0.00944766
185	0x3c4f2eba	0.012645418
186	0x3a793b3a	0.00095074216
187	0x3c094455	0.008378108
188	0xbc825410	-0.015909225
189	0xbada48f7	-0.0016653825
190	0xbc250f9a	-0.0100745205
191	0x3bfbe547	0.007687244
192	0xbc20d18c	-0.009815585
193	0xbbab208b	-0.0052223853
194	0x3b4b9ff7	0.0031070688
195	0xbbcf4dac	-0.006326398
196	0xbbeadb3e	-0.007167249
197	0xbbbea787	-0.0058183107
198	0xbbe26569	-0.0069090617
199	0x3c0279c6	0.007963603
200	0x3c2080d9	0.009796345
201	0xbb7901cb	-0.0037995453
202	0xbb001038	-0.0019540917
203	0x3c0d63a7	0.008629716
204	0xbb856b11	-0.004071601
205	0x3989171d	0.00026147897
206	0xbb2bac8b	-0.0026195373
207	0x3c203192	0.0097774435
208	0x3c59e473	0.013299095
209	0x3bc3f31e	0.0059799096
210	0xbba34719	-0.0049828407
211	0x3c00eada	0.007868493
212	0xba2dbaf1	-0.0006627283
213	0xbc04b982	-0.008100869
214	0x3b61d321	0.0034458118
215	0xbc26886d	-0.010164362
216	0xbabebe7c	-0.0014552618
217	0x3b544749	0.0032391122
218	0x3bfb86a1	0.007675961
219	0xbc3ebca6	-0.011641657
220	0x3bcddbe3	0.006282316
221	0x3a831184	0.0009999727
222	0xbbad460c	-0.0052878913
223	0xbc82e938	-0.015980348
224	0xbad5b78f	-0.0016305315
225	0xbb2c01a8	-0.0026246104
226	0xba35b676	-0.0006931791
227	0xbbaa5376	-0.0051979376
228	0x3c57f083	0.013179901
229	0x3b1b1d7c	0.0023668697
230	0xbc1da0d5	-0.009620865
231	0x3cca46d4	0.024691977
232	0xb9f2732d	-0.0004624365
233	0x3c816b43	0.015798217
234	0xbab389b6	-0.0013697657
235	0xbb1993a1	-0.002343394
236	0xbb10c2c7	-0.0022088753
237	0x3aa956ca	0.0012919542
238	0xbbf7c20f	-0.0075609754
239	0x3a5a414b	0.00083257694
240	0xbc2492d7	-0.010044775
241	0x3b950d58	0.00454871
242	0x3aeec796	0.001821744
243	0x3ad75595	0.0016428704
244	0xba95aa74	-0.0011418597
245	0x3b731875	0.0037093435
246	0x3bc59ded	0.006030789
247	0xbb58d20c	-0.0033084182
248	0xbc4512f2	-0.012028443
249	0x39bb7c94	0.00035760237
250	0xbae4125b	-0.001740049
251	0xbb832233	-0.0040018796
252	0x3b80c0a0	0.0039292127
253	0xbad83103	-0.0016494099
254	0x3cadd045	0.021217475
255	0x3baab275	0.005209262

action_model._discrete_distribution.branches.2.bias f4 [2]
0	0xb84d1f77	-4.8905113e-05
1	0x384d1e1a	4.8903843e-05

action_model._discrete_distribution.branches.3.weight f4 [2, 128]
0	0xbc45c74f	-0.012071445
1	0xbb37fd37	-0.0028074512
2	0xba8855a7	-0.0010401503
3	0x3c6144f1	0.013749347
4	0xbc6b7fe7	-0.014373756
5	0x3bdd8355	0.0067600408
6	0xbcbbac81	-0.022909405
7	0x3b9d09a4	0.004792409
8	0x3c257138	0.010097794
9	0xbbb3695e	-0.005475207
10	0xbb9f6f03	-0.0048655285
11	0xbad5e284	-0.0016318117
12	0x3be5ed0d	0.007016784
13	0xba23bf9d	-0.0006246509
14	0xbc56620d	-0.013084901
15	0x3b7e3261	0.0038787352
16	0x3ce218da	0.02759974
17	0x3b062fa4	0.0020475173
18	0xbba2797f	-0.004958331
19	0x3c024116	0.007950088
20	0x3ca85fad	0.020553434
21	0x3af76d7b	0.0018877232
22	0xbb00b25a	-0.0019637556
23	0x3bd618d1	0.00653372
24	0xbbb73aae	-0.005591712
25	0xb6b9757c	-5.5271066e-06
26	0x3cc90129	0.024536686
27	0x3c1f7523	0.009732517
28	0xbc6c03de	-0.014405219
29	0x3c8c991d	0.017162854
30	0xba700259	-0.0009155623
31	0xbbe03a55	-0.006842891
32	0x3c0d4614	0.008622665
33	0xbc9826f4	-0.018573262
34	0x3be401fa	0.0069582434
35	0xbc3f365c	-0.011670675
36	0x3b901e00	0.0043981075
37	0xbb35e15a	-0.0027752728
38	0xbb4f08be	-0.0031590904
39	0xbc2d7c0e	-0.010588659
40	0x3c7371d0	0.014858678
41	0x3b9953d8	0.0046791844
42	0xbc21b0a5	-0.0098687755
43	0xbbcf768f	-0.006331272
44	0xbafc09cd	-0.0019228995
45	0x3c233c07	0.009963042
46	0x3b987b1e	0.0046533486
47	0xbc2c39fc	-0.010511871
48	0xbbdfd9ca	-0.0068313824
49	0x3a33afe6	0.0006854519
50	0x3bdaa875	0.0066729137
51	0x393ad7ce	0.00017818736
52	0x3cba0b46	0.022710454
53	0x3cb828e0	0.022480428
54	0x3c0c5ff1	0.008567796
55	0xbb943c94	-0.004523823
56	0x3b5a7fbd	0.0033340298
57	0xbc626e69	-0.013820269
58	0xbc2db462	-0.010602089
59	0xbbfe0f4d	-0.007753289
60	0x3bf9fea9	0.007629235
61	0x3c45b6eb	0.012067537
62	0xbb0cb31c	-0.0021469062
63	0x3a7c3d62	0.0009622184
64	0x3b378815	0.0028004695
65	0x3b77b5aa	0.003779749
66	0x3c9424b2	0.018083904
67	0x3b1861a9	0.002325157
68	0xbc124777	-0.008928171
69	0xbc1c3718	-0.00953462
70	0x3c446aee	0.011988385
71	0x3bf2cacb	0.0074094287
72	0xbd18ed3e	-0.037335627
73	0xb94bdda3	-0.00019442155
74	0x3bae5cff	0.0053211446
75	0x3be70af1	0.007050865
76	0xbc5aab5b	-0.013346518
77	0x3b7bb2a7	0.0038406046
78	0x3c08868f	0.0083328625
79	0x3cba587c	0.02274727
80	0xbd03dddb	-0.032194
81	0xbc9fd7d7	-0.0195121
82	0x3a8ab272	0.0010581745
83	0xbb416ae3	-0.0029513172
84	0xbc330111	-0.010925547
85	0x3b69fa31	0.0035702104
86	0x3c8a1c57	0.016859217
87	0xbc0fd590	-0.008778945
88	0x3c5781aa	0.013153473
89	0xbbbb864d	-0.005722797
90	0xbbf0a8a8	-0.007344324
91	0xbbb42267	-0.005497265
92	0x3ca42dfe	0.020041462
93	0xbacddae6	-0.0015705496
94	0xbb8a133f	-0.00421372
95	0xbbccb1ba	-0.0062467726
96	0xbb9fe728	-0.004879851
97	0x3b7bdc03	0.0038430698
98	0x3c3e9c10	0.011633888
99	0x3c353baa	0.011061588
100	0x3a79dbe6	0.00095313636
101	0xbc2b2181	-0.010445
102	0xbb59e594	-0.0033248411
103	0xbb84833f	-0.004043966
104	0x3b6f889d	0.0036549934
105	0xbc031b70	-0.008002147
106	0xbc561ca5	-0.013068353
107	0x3c62f124	0.013851438
108	0x3c38c9b6	0.01127856
109	0xbad0caea	-0.0015929614
110	0x3cd8871d	0.026431615
111	0x3c81230b	0.01576378
112	0xbbfa2875	-0.0076342174
113	0xbc7ca50b	-0.015420209
114	0x3bc7ccc2	0.006097407
115	0xbc397df6	-0.011321535
116	0x3bca9a31	0.006182932
117	0x3c8fe100	0.017563343
118	0xbc1c9784	-0.0095576085
119	0xba94bbad	-0.0011347436
120	0xbc590ab2	-0.013247179
121	0xbc555b5c	-0.01302227
122	0xbc3acae3	-0.011400911
123	0x3bafdab2	0.0053666467
124	0xbce97cd4	-0.028501906
125	0x3c279e04	0.010230545
126	0x3ab0cf18	0.0013489453
127	0x3c2ee1d2	0.010673957
128	0x3c898894	0.016788758
129	0xbb729dd2	-0.0037020338
130	0x3b5eabec	0.0033976985
131	0xba2b3ad4	-0.00065318984
132	0x3b62521f	0.0034533811
133	0x3c84ad3d	0.016195888
134	0x3c277d8d	0.010222805
135	0x3c311f95	0.010810752
136	0x3c16fcdf	0.009215563
137	0x3c05c6fe	0.008165119
138	0x3c4cd9b7	0.012503079
139	0x3b816307	0.0039485726
140	0xbc00e7ed	-0.007867795
141	0xbbd0542e	-0.0063576913
142	0x3c86467a	0.016391028
143	0xbb008c56	-0.0019614897
144	0xbc3a83e7	-0.011383987
145	0xbb8e5807	-0.00434399
146	0x3c53fd07	0.012938744
147	0x3c5a6329	0.013329306
148	0x3c27c383	0.010239485
149	0x3c825c30	0.015913099
150	0xbbb26675	-0.0054443427
151	0xbc59dae1	-0.013296814
152	0x3b6ad3c9	0.00358318
153	0x3aab71e7	0.001308021
154	0xbcb85583	-0.022501713
155	0xbb15718c	-0.0022803275
156	0xbb705407	-0.0036671178
157	0x3b181ffd	0.0023212426
158	0x3b5e39c8	0.0033908952
159	0xbc394cd3	-0.01130982
160	0x3abd01d3	0.0014420099
161	0x3b824e30	0.003976606
162	0xbac9c57c	-0.0015393938
163	0xbc2dcb1c	-0.010607507
164	0x3bf86142	0.0075799534
165	0xbb41c32a	-0.002956579
166	0xbbad88c5	-0.005295845
167	0x3cb4b2b7	0.022057874
168	0xbbdd2980	-0.006749332
169	0xbc1049c1	-0.008806647
170	0x3c0960b3	0.008384871
171	0x3a683206	0.0008857552
172	0xbb9df12b	-0.004820009
173	0xbb7c0d89	-0.0038460216
174	0xb8e9ceb6	-0.00011148809
175	0x3b0ef303	0.0021812327
176	0xbc8b8612	-0.017031703
177	0xbb324501	-0.0027201774
178	0x3af916b5	0.001900396
179	0x3c0d37cd	0.008619261
180	0xbc7c5d85	-0.015403156
181	0xbc8655ee	-0.016398396
182	0xbbbc6d3e	-0.0057503274
183	0x3c33ad62	0.010966631
184	0x3bd4cbf4	0.0064940397
185	0xbb57ff08	-0.0032958407
186	0xbb3fbb20	-0.0029255822
187	0xbbf50095	-0.007476876
188	0xbc64a449	-0.013955184
189	0xbbc41437	-0.005983855
190	0xbb99b7fe	-0.004691123
191	0xbbd355d1	-0.006449439
192	0xbc3862e4	-0.011254046
193	0xbb2ce34b	-0.0026380594
194	0xbb8b54e5	-0.0042520636
195	0x3b53ea23	0.0032335601
196	0x3bbc7a27	0.0057518664
197	0xbbbf81dc	-0.005844338
198	0x3ab373e4	0.0013691154
199	0x3b5f7c50	0.0034101196
200	0x3c02bdd5	0.00797983
201	0xbab5b951	-0.0013864433
202	0xbca0363b	-0.01955711
203	0xbc5cd961	-0.013479562
204	0x3bed670c	0.00724495
205	0xbc13e8c2	-0.009027662
206	0xbc1fbdfb	-0.009749885
207	0x39862a0d	0.00025589802
208	0x3c1bc65f	0.009507745
209	0x3c427629	0.011868992
210	0xbbe3d25b	-0.0069525666
211	0x3c0de9a0	0.008661658
212	0xbc6dff45	-0.014526193
213	0x3c8d8939	0.017277347
214	0xbc9c8671	-0.019107075
215	0xba83952f	-0.0010038967
216	0x3b8bcd9c	0.004266454
217	0xbbdc7ec7	-0.00672898
218	0xbc4e62ef	-0.01259683
219	0x3b93dd8f	0.004512496
220	0x3ad4ceba	0.0016235926
221	0xbc637dd5	-0.013884981
222	0x3c5dbce9	0.013533809
223	0xbbb17d50	-0.0054165497
224	0x3bc878ee	0.0061179316
225	0xbc13ce7c	-0.009021398
226	0xbc6f6f60	-0.014613956
227	0x3afe5930	0.0019405242
228	0xbbd448ca	-0.0064784037
229	0x3b673644	0.0035280148
230	0xbc58ddd5	-0.013236483
231	0xbc61c0e9	-0.0137789035
232	0xbc16f9aa	-0.009214798
233	0xbb6f6896	-0.0036530844
234	0x3cc2907f	0.023750542
235	0x3b2cdfe9	0.0026378578
236	0x3b82fdf0	0.003997557
237	0xbb814b95	-0.0039457777
238	0xbc61451e	-0.013749389
239	0xbbb48e7c	-0.0055101495
240	0xbbd67f79	-0.0065459576
241	0x3bd83131	0.006597661
242	0xbb358484	-0.0027697394
243	0xba7a5283	-0.00095490384
244	0x3c622dc4	0.013804857
245	0xb9aeb5c5	-0.00033323295
246	0x3b11d7f6	0.0022253967
247	0x3c0dbc80	0.008650899
248	0x3c9abb8e	0.018888261
249	0x3bc9cad7	0.0061582136
250	0xbba3043a	-0.004974869
251	0xbaba856e	-0.0014230439
252	0x3cef486f	0.029209344
253	0xbca7a0f3	-0.020462489
254	0x3cb35e9c	0.0218957
255	0xbbc2d270	-0.0059454963

action_model._discrete_distribution.branches.3.bias f4 [2]
0	0x3b2ce6f4	0.0026382776
1	0xbb2ce6f3	-0.0026382774
