Assets/Hero Knight Behavior.onnx (onnx, 81950 bytes, 14 tensors)

network_body.observation_encoder.processors.0.normalizer.running_mean f4 [11]
000000 54 19 46 c0 b2 27 95 40 23 fa 3f 41 51 95 3c 41
       -3.095296 4.6610956 11.998569 11.786454
000010 ec 50 52 42 88 e3 93 3d c1 ed 9a 3d 16 9c df 3e
       52.579025 0.072211325 0.07564879 0.43673772
000020 b8 aa a6 3d 42 8f c3 3d a6 06 a9 3e
       0.08138031 0.09548809 0.33012885

network_body.linear_encoder.seq_layers.0.weight f4 [128, 11]
000000 11 a6 c5 bd 8d b8 11 3e d7 f2 af bd fa 0a ea be
       -0.09650815 0.14230557 -0.0859124 -0.457115
000010 6f ad 40 3f 14 a1 94 3d d0 57 7e 3e bf 09 df 3e
       0.7526464 0.07257286 0.24838185 0.43562123
000020 61 b9 66 bd 99 1f e5 3c f7 21 78 3e 2d 6c 3d bf
       -0.056329135 0.027969168 0.24231707 -0.7399319
000030 7f bb a7 be 18 bc 80 3e 4f 74 d2 bd 3e ac 91 3e
       -0.32760236 0.25143504 -0.1027609 0.28451723
000040 4d de c1 3c 74 f2 2d 3d 83 b4 af 3e c9 b7 f7 3c
       0.023665572 0.04246755 0.34317407 0.030239003
000050 6d 2a 37 be 0d 51 3a be 83 3d 37 3f b8 62 5e bf
       -0.17887278 -0.18194981 0.71578234 -0.8686938
000060 b7 da e1 be 69 4f 36 be f1 d1 05 3e df e8 b2 be
       -0.4411218 -0.1780373 0.13068368 -0.34943292
000070 14 94 3c be 43 57 8b be a7 5c 91 be 8f 9d 12 bd
       -0.18415862 -0.27215013 -0.28391 -0.03579479
000080 33 cd db 3c 80 44 5c 3f ca 2f 04 bf ac 88 45 3c
       0.026831245 0.8604202 -0.5163542 0.012056511
000090 e6 cc 2e bf 32 07 9f be 19 ee 8b be bd 71 26 be
       -0.682814 -0.31060177 -0.27330092 -0.16254325
0000a0 d7 9f 94 be 91 13 bf be f2 e7 42 bc 9e c7 85 bd
       -0.29028198 -0.37319615 -0.01189612 -0.065322146
0000b0 96 1a 68 be 35 31 0e bf 94 c9 69 3f f6 a8 0f be
       -0.22666392 -0.55543834 0.9132321 -0.14029297
0000c0 0b 3f e4 be 40 78 3f 3e 6a 06 de 3d 64 35 26 3d
       -0.44579348 0.18698215 0.10841067 0.04057826
0000d0 84 c5 fe be 08 c4 65 bd 13 3f c3 be 1a 43 0b be
       -0.49760067 -0.056095153 -0.3813406 -0.13599816
0000e0 1e c3 3a 3e 72 3c 65 3f aa de 2f 3d 74 21 83 bd
       0.18238494 0.8954536 0.04293696 -0.06402865
0000f0 cb 31 04 bf 92 0f 61 be 8a f6 24 3f ab f4 22 bf
       -0.5163848 -0.21978596 0.6443869 -0.63654584
000100 53 ff 06 bf 1e ce 0c bf 69 11 f5 3e 8b 0f 7c be
       -0.52733344 -0.5500201 0.47864845 -0.24615304
000110 50 69 58 bf 1f 5c 8a 3e 62 30 6a 3f 6d 75 9f bd
       -0.84535694 0.27023408 0.91480076 -0.07786069
000120 c7 d6 9d be ab 07 19 3e d8 00 91 bd 95 0b 32 3e
       -0.30827925 0.14944331 -0.07080239 0.1738723
000130 ec 27 c9 3e ad 90 ce 3e 29 b5 0f be b7 33 13 bf
       0.3928827 0.40344754 -0.14033951 -0.57500786
000140 b2 83 eb 3e 29 1d 65 bf 40 a5 6c 3e e3 71 9d 3e
       0.45998913 -0.8949762 0.23109913 0.3075095
000150 eb a9 da be 54 15 71 3e d9 f6 85 3d 0f f9 0d 3e
       -0.42707762 0.23543292 0.06541223 0.1386454
000160 11 f7 17 bf f9 94 1f bf 49 87 5c 3f f9 12 c7 3c
       -0.5936137 -0.6233669 0.8614393 0.024301039
000170 4d cf 3f 3d 5a 3f 97 be f0 4a 98 bd 5e c0 ac 3e
       0.046828557 -0.2954052 -0.07436168 0.33740515
000180 77 72 c9 3e db c8 51 bf ca 34 02 3f cd 2b 26 3e
       0.39345142 -0.81947106 0.508618 0.16227646
000190 b1 18 cf bc f0 d4 c3 3e 30 48 85 3e 5c e9 a8 39
       -0.025280328 0.38248396 0.26031637 0.00032217323
0001a0 22 5b 7d bd 69 c9 0a 3d bd e0 1b be 98 fb 49 3e
       -0.06185449 0.033883486 -0.1522245 0.19724882
0001b0 b5 a6 11 be 82 73 90 3e 41 de 23 bc 44 48 96 be
       -0.1422375 0.28213125 -0.01000172 -0.2935201
0001c0 6b 77 3e be 9a 31 46 3f 59 01 90 3d be 4c 4e bf
       -0.18600242 0.77419436 0.07031507 -0.8058585
0001d0 bd 72 2e bf ae df a3 3e 90 22 70 be de ef 3f 3e
       -0.68143827 0.32006592 -0.23450685 0.18743846
0001e0 5a 65 3d 3e a4 3b ca bc 3a f3 1d bf b1 77 fd 3c
       0.18495694 -0.024686642 -0.6169926 0.030940862
0001f0 f9 33 cb bd 56 05 70 3f 20 9f 2a be 0d 54 cf 3d
       -0.09922022 0.9375814 -0.16662264 0.10123453
000200 ca c9 ad 3e 6b e9 4c 3e 48 d6 0d be c7 58 81 bb
       0.33943015 0.20010917 -0.13851273 -0.0039473507
000210 05 5c 8b bf 16 2c 54 3f b2 ed 4c 3d c5 32 ab bf
       -1.0887457 0.8287977 0.05003137 -1.3374869
000220 43 86 dc 3d 26 33 9a 3d fe 5a 14 3e 85 06 99 3e
       0.10767796 0.07529287 0.14487836 0.29887787
000230 4a 8f 2a be 1a a9 ee bd 73 6e 2d bd 67 98 0f bf
       -0.16656223 -0.11653347 -0.04234166 -0.5609192
000240 df d4 ba be b7 1d ed 3e 75 62 d3 bb 99 56 8b bf
       -0.36490533 0.46311733 -0.006450946 -1.0885803
000250 56 85 af 3e 2b dc 63 3e d1 1b 0d bf b9 46 3a 3f
       0.34281415 0.22251956 -0.5512057 0.72764164
000260 95 84 94 3e 42 75 8a bd b1 88 82 be 9c d9 17 bf
       0.29007402 -0.067606464 -0.25494912 -0.5931642
000270 72 7f 73 3e b9 a6 06 bf 9a dc 1d be 7e 31 5b 3c
       0.23779085 -0.5259815 -0.15416184 0.013378499
000280 9d ac 16 3e 2c ef df be d6 7f 0d bf 29 f9 16 bf
       0.14714284 -0.4373716 -0.5527319 -0.5897394
000290 dc 78 17 3f 31 df 15 bf 6d f9 67 3e 60 fc 8f bf
       0.5916879 -0.5854369 0.22653742 -1.1248894
0002a0 6c 93 d0 3e b4 7e cc 3d 8a c8 3c be e1 46 f7 3d
       0.40737474 0.09985104 -0.18435875 0.12074066
0002b0 cb 2a 8b be fa 1d 8c bd 06 de c6 bd a2 65 90 bd
       -0.27181086 -0.06841655 -0.09710316 -0.07050635
0002c0 f2 7b 8d be ab fb d1 3e 49 10 ab 3e 4c 03 63 bf
       -0.27633625 0.4101232 0.33410862 -0.88676906
0002d0 70 8d 80 3e 81 47 e2 bd 0c b7 d1 3d de 43 c8 3d
       0.25107908 -0.110487945 0.102399915 0.0977857
0002e0 bb af ee bd 97 9f c1 3d 65 4f 24 bd bd be a5 3e
       -0.11654612 0.094542675 -0.04011478 0.32372084
0002f0 4b 8e 04 bf 6c b7 cf 3d 1e 5a f0 bd b6 32 40 3f
       -0.5177962 0.10142407 -0.117359385 0.7507738
000300 fe 82 94 b9 0f 11 e2 bc fc dd 06 3b e2 de b1 bb
       -0.00028326357 -0.027596025 0.002057909 -0.005428181
000310 83 16 63 bd 51 57 e8 3d ee d3 da be 7c 25 08 bf
       -0.05544139 0.11344779 -0.42739815 -0.53182197
000320 7f 7a 2e bf ac 8a 62 bf 44 b6 03 3f a4 ff e0 bd
       -0.68155664 -0.88492846 0.5144999 -0.109862596
000330 18 36 1c be 6a 95 1e 3d eb 95 56 be f6 a0 32 3e
       -0.1525501 0.03871671 -0.20955627 0.17444214
000340 a8 88 dc 3e 2f e5 47 3e 87 56 af 3e 6f b4 7d 3f
       0.4307301 0.1952102 0.34245703 0.99103445
000350 dc 44 32 be 64 7b 53 bf ab 34 cb bd aa 31 69 bf
       -0.1740908 -0.82610154 -0.09922155 -0.91091406
000360 38 d1 66 3e ae 3f c8 bd d5 8c 5f be 5e d6 b0 3c
       0.22540748 -0.09777771 -0.21831067 0.021586593
000370 c7 f1 3c bf b5 82 97 be cc 27 2e 3e 43 84 76 be
       -0.7380642 -0.2959191 0.17007369 -0.24073891
000380 a8 bc 85 bf 84 21 0f bf ee 43 1a 3d c6 46 e1 3e
       -1.0448198 -0.55910516 0.03766244 0.43999308
000390 06 fc ab bc ad d6 3a bc bb a3 5d bd 06 6f cc 3e
       -0.020994198 -0.011403722 -0.054111224 0.39928454
0003a0 68 48 65 be 8d 1c cb be d2 d3 fa be 7c 89 cf 3e
       -0.22390902 -0.3967022 -0.4898973 0.4053458
0003b0 a2 ab 57 bf f1 9f 74 3e 6f 0f 7a 3e bb c6 df 3d
       -0.84246266 0.23889138 0.2441995 0.10926577
0003c0 b7 4d a3 3e 11 78 a2 3d 8e 08 d4 3e b3 f8 f9 be
       0.3189523 0.07933057 0.41412777 -0.48822555
0003d0 53 c6 f9 3e 77 87 e0 be 18 7c 3a bf b8 32 f9 3c
       0.48784122 -0.4385335 -0.728456 0.030419692
0003e0 10 43 b8 3c c9 13 49 bf e9 53 88 be 2e 43 3b 3e
       0.022492915 -0.78545815 -0.26626518 0.18287346
0003f0 64 2d 88 3e 63 dc 86 3e 50 c4 a8 be 91 ca 59 bf
       0.2659713 0.26340017 -0.32962275 -0.85074717

network_body.linear_encoder.seq_layers.0.bias f4 [128]
000000 a8 c5 22 be 01 11 b3 bd c2 e8 fe bd f8 08 2c 3d
       -0.15895712 -0.087434776 -0.12446739 0.04200074
000010 6c aa 36 be ab 70 db 3d 04 25 19 be 70 d1 8b 3c
       -0.17838448 0.10714849 -0.14955527 0.017067641
000020 00 a0 12 be 01 e4 c2 be 7e 5f cc 3d 01 53 98 be
       -0.14318848 -0.38064578 0.09979151 -0.29750827
000030 87 54 bc bd 10 9c 4e 3e e7 a6 83 bd bd 77 57 3e
       -0.0919581 0.2017672 -0.064283185 0.2104177
000040 6d 45 03 3e e8 6d 9b be da b2 03 3e 44 14 cc 3d
       0.12819453 -0.3035729 0.12861195 0.09964803
000050 8f e3 f9 bd 6f b7 e3 3d af 37 c2 3d ef b7 7f 3a
       -0.122016065 0.111189716 0.09483277 0.0009754886
000060 af 5c 19 3e 12 a0 e8 bd b7 34 84 3d 64 c5 d1 3c
       0.14976762 -0.11358656 0.06455367 0.025606818
000070 c1 fd c5 bc b0 ea 1e be cb 5b 94 be 5e 5f 90 3e
       -0.02416885 -0.15519214 -0.28976282 0.2819776
000080 73 25 39 be a1 4c 89 bd 0f 5f e8 3e 6f a5 d5 3d
       -0.18080692 -0.06704069 0.45385024 0.104319446
000090 a0 92 9b bc f8 e9 0a 3c de 79 60 3c df 77 ca be
       -0.018990815 0.008478634 0.01370093 -0.3954458
0000a0 bb a0 1f 3d 0f 5a 1d be f7 96 43 3d 2a 74 41 be
       0.038971644 -0.15366386 0.047751393 -0.1889197
0000b0 ff 10 8f 3d cc 56 7c 3e 57 a2 89 be 25 0e 09 bb
       0.069856636 0.24642485 -0.26881668 -0.0020912972
0000c0 81 c4 96 3c 94 85 99 bd ef 63 5f bd 63 18 52 3e
       0.018404247 -0.07496181 -0.054538663 0.20517115
0000d0 14 80 3e be 01 42 4c bc 88 2a d9 bd 67 2e 02 bd
       -0.18603545 -0.012466908 -0.10603815 -0.031782534
0000e0 75 bb bc 3d 9d 14 a8 bd b5 97 c3 bd 63 0a f2 3d
       0.09215442 -0.08207057 -0.0955042 0.11818387
0000f0 ab f1 d0 bd f8 a2 9f bc 10 ae 30 3e 42 67 42 bc
       -0.102023445 -0.01948689 0.172539 -0.011865439
000100 79 66 2e 3d aa 95 76 be 62 7f 96 bd 62 70 c0 bd
       0.042578194 -0.2408053 -0.07348515 -0.09396435
000110 8d bf 1d be 8a 2d 7e bd 31 7c 16 be 7a 4f bb bd
       -0.15405102 -0.06205515 -0.14695813 -0.09146018
000120 59 12 69 bd da d6 70 3d cc 4d 9e 3e 75 4b 5b be
       -0.056902263 0.05879865 0.3091873 -0.21415503
000130 b3 2f 83 be 0e ed 48 3d a3 55 8d 3d 82 fb e4 be
       -0.2562233 0.049054198 0.069010995 -0.44723135
000140 c0 77 07 3c c2 89 46 3e 7f 9c b7 be a8 e6 f5 bd
       0.008268297 0.19388488 -0.35861585 -0.12006885
000150 dc e7 28 3d cb 95 06 bf 19 b2 ee 3d ba ee 9c bd
       0.041236743 -0.52572316 0.11655063 -0.07662721
000160 71 83 24 be 6a c1 d6 be 79 af b6 bc 87 90 22 3c
       -0.16065766 -0.41944438 -0.022300469 0.009922153
000170 7b 45 4e be a5 1f 63 3e ac 2c 8b 3c 71 92 4c 3e
       -0.20143692 0.2218004 0.016989075 0.19977738
000180 bc 0c 6b 3e d8 df e6 3c 2d 81 f7 be 98 5c 11 3e
       0.22954077 0.028182909 -0.4834074 0.14195478
000190 73 de b9 bd f3 62 9c 3e e6 4b 33 bd a3 bc 07 be
       -0.09075632 0.30544242 -0.043773554 -0.13255553
0001a0 21 54 60 be e1 5a 3e bc eb f1 db bc cf 71 43 be
       -0.21907093 -0.011618347 -0.026848754 -0.19086383
0001b0 e1 b2 e8 3c 5d ed e6 bd e7 00 b0 3e 24 13 74 bd
       0.028405609 -0.11275742 0.34375688 -0.059588566
0001c0 81 c9 16 bc cc 20 c5 bd 06 db b3 be e0 85 2a 3d
       -0.009203316 -0.09625396 -0.3512804 0.04163158
0001d0 0d c3 86 bd 69 92 c2 3d b0 52 5f 3d f1 aa b8 3d
       -0.06580172 0.09500582 0.054522216 0.090169795
0001e0 09 2e b4 be f3 68 3e 3d a6 86 19 3e 56 2f 74 be
       -0.35191372 0.046486806 0.1499277 -0.23846182
0001f0 54 f7 37 bd 1f fa 0c bd 8b f2 8f be a4 49 8a 3d
       -0.044913605 -0.03441822 -0.28114733 0.06752327

network_body.linear_encoder.seq_layers.2.weight f4 [128, 128]
000000 de f0 7d be 89 2c 97 be ad b9 f3 bc 9b e7 f7 be
       -0.24798915 -0.29526165 -0.029751623 -0.48418888
000010 74 eb 19 bd bf b8 6a be 08 5c 28 3e df 30 c2 be
       -0.03757806 -0.22922038 0.16441357 -0.3792791
000020 e2 03 be 3d 4d d2 02 3e 96 de af be d4 64 6a 3e
       0.09278084 0.12775536 -0.34349507 0.22890025
000030 bd 4a 2c be d0 d7 56 bf 7a a7 37 be f9 87 12 bf
       -0.16825385 -0.83923054 -0.17934981 -0.5723873
000040 86 ae 8a be 66 3f 99 3e bd 9d 76 bf 46 a9 5e bd
       -0.27086276 0.29931182 -0.9633444 -0.05436065
000050 98 a5 f1 3c 6c 99 40 be 83 7e a8 be e5 8f b3 be
       0.029497907 -0.18808526 -0.3290902 -0.3507072
000060 5d 70 78 be 4a d3 31 3c 50 a0 5a be 76 5b e5 bd
       -0.24261613 0.010853598 -0.21350217 -0.111990854
000070 a4 68 b1 be 87 ce 9e be 4e 64 cc bc b9 a7 77 be
       -0.34650147 -0.31016943 -0.024950173 -0.24185075
000080 51 30 6e 3e 4e 9b 39 be 7b 97 e0 be 75 52 02 be
       0.23260619 -0.1812565 -0.4386557 -0.12726767
000090 79 61 60 be 86 84 a0 3b 10 6d 03 bf 4a f6 83 3e
       -0.21912183 0.0048986105 -0.5133829 0.2577384
0000a0 02 7a 0e bf 88 2e e6 3e 99 0a f8 be 41 fc 26 bd
       -0.5565492 0.44957376 -0.48445585 -0.04076791
0000b0 a2 aa 90 bc f9 de 29 bf d2 42 49 be 15 bc 7a be
       -0.017659489 -0.66355854 -0.19654396 -0.2448581
0000c0 66 83 99 be ae 5a ca 3e 03 de b3 be fd fe 8b 3d
       -0.29983062 0.39522308 -0.3513032 0.068357445
0000d0 a7 2e fa 3c f3 6e 82 be 11 78 b6 be 70 6e 54 bc
       0.030539824 -0.25475273 -0.35638478 -0.0129657835
0000e0 4b 84 c6 be cf a8 19 3d ed ca 21 3e ba b4 2b be
       -0.38772807 0.037514504 0.15800066 -0.1676816
0000f0 d1 24 b4 be c6 d9 68 be 16 b3 81 be 3c 31 a1 3e
       -0.3518434 -0.22739324 -0.25331944 0.31482875
000100 c5 05 1a be 59 1b 7d be 87 28 55 3d e1 14 48 be
       -0.15041263 -0.24717464 0.052040603 -0.19539215
000110 80 66 31 be ce e5 58 bd 82 ae 6a bd d9 b5 43 be
       -0.17324257 -0.052953534 -0.05729533 -0.19112338
000120 a5 78 0f be 38 c4 9b bf e7 fa 91 be 68 6c e3 be
       -0.14010866 -1.2169256 -0.28511736 -0.44418645
000130 f8 1a 0b 3e 9b af 51 be 6d 61 22 bf 4c a5 6a 3e
       0.13584507 -0.20477144 -0.6342991 0.22914618
000140 de 60 ce be bc 91 d1 bd 63 48 a3 be d7 e9 01 bf
       -0.4030828 -0.10232875 -0.31891164 -0.50747436
000150 9b 1d 96 bd a7 0e ac 3e e7 fc 43 3d 3c a3 8c bd
       -0.073298655 0.3360493 0.04784861 -0.06867072
000160 de 0a 05 bf 2c 1c e9 3e 66 f2 ae bc 39 75 8e 3e
       -0.51969707 0.45529306 -0.021355819 0.2782381
000170 86 7e 58 be 0a c3 29 be 44 a4 b1 be 37 e9 47 be
       -0.21142015 -0.16578308 -0.34695637 -0.19522558
000180 df d4 49 3d 9a 2b 70 bd 74 90 7b 3e 06 cd 29 3d
       0.049275275 -0.05863533 0.24566823 0.04145529
000190 23 20 53 be 4f da 3b bf 15 24 a7 3d ab ce f3 be
       -0.20617728 -0.7337999 0.08161179 -0.47618613
0001a0 e7 20 8e 3e 2c f5 e0 bd bd fd 99 3c d1 ec 18 be
       0.27759477 -0.10984263 0.01879775 -0.14934088
0001b0 19 62 1b be a5 b0 18 be ef 75 e2 bc 48 b1 cc be
       -0.1517414 -0.14911135 -0.027644126 -0.39979005
0001c0 9b 73 69 3e 5f a6 0a bf 1e 03 78 3d 04 6f 2b bf
       0.22798006 -0.5416011 0.060549848 -0.6696627
0001d0 49 65 78 3e 39 0a 66 be 87 2e 0e be cf 87 62 be
       0.24257387 -0.22464837 -0.13884936 -0.2212212
0001e0 eb 8c 49 3e 82 f1 ba bd 20 b8 32 be 26 b1 cd bd
       0.19682662 -0.09128095 -0.1745305 -0.10043554
0001f0 9f c1 c1 3a ba 58 bd bd 89 10 c6 be 03 1d 1c 3d
       0.0014782435 -0.09245439 -0.3868449 0.038113605
000200 17 20 1a 3e 0d 83 30 bd 70 e8 0b bf cb d7 47 be
       0.15051304 -0.04309373 -0.54651546 -0.19515912
000210 63 aa 62 be 5b 3e 22 bf 20 c4 85 be 05 bd c4 3b
       -0.2213531 -0.63376397 -0.26126194 0.006003978
000220 2d 20 e2 be 56 04 44 be 8e 9d d1 bd 44 61 7c be
       -0.44165173 -0.19142279 -0.10235129 -0.24646479
000230 6a f2 ed 3d 84 e5 f4 3d 61 ef e7 bd 2c 5e 9e 3e
       0.116185024 0.11957839 -0.11324955 0.30931222
000240 54 c0 4d 3e d9 75 e6 be 48 7c 7d be a7 04 a5 be
       0.20092899 -0.45011786 -0.24754441 -0.32230112
000250 76 d7 20 3e e6 17 4e be a8 84 27 bd d3 d0 e8 3c
       0.15707192 -0.20126304 -0.040897995 0.028419888
000260 ff 53 97 bd d5 38 df bd 3f b1 fa be ce 06 8f bd
       -0.07389068 -0.10899512 -0.48963353 -0.0698372
000270 28 6a 88 be 98 29 99 bd 7a 03 3f be 38 35 1a 3e
       -0.2664349 -0.074786365 -0.1865367 0.15059364
000280 ba e2 43 bf cd 6c 67 3e 10 fa 65 3e e0 c9 81 3d
       -0.7651783 0.22600098 0.22458673 0.06337333
000290 5d 3a f2 bc 36 e8 e3 be 40 97 2c 3b bd d7 ae be
       -0.029568845 -0.445131 0.002633527 -0.3414897
0002a0 5a 50 6a bb 19 e8 70 be ba 9a 2b 3c e5 78 4a 3e
       -0.003575346 -0.23526038 0.010473901 0.1977268
0002b0 f0 6a 25 3c 8c 9d 8d 3d 25 d1 b5 bc 79 c5 27 3c
       0.010096297 0.06914815 -0.022194454 0.010239952
0002c0 e7 09 1d be 11 76 0e 3e d1 41 db bd 25 9c d7 bb
       -0.15335809 0.13912226 -0.10705913 -0.006579893
0002d0 ec 94 b8 bd 8e 47 44 3e 71 fd 07 bf 8f b2 c8 be
       -0.090127796 0.19167921 -0.53121096 -0.3919873
0002e0 dc 69 8d bd 03 94 15 bf e9 12 4f be fe 56 10 be
       -0.06904957 -0.5842897 -0.20222057 -0.14095685
0002f0 f0 49 92 3e 30 3c 04 bf 0a f4 dd bc 3a 93 fb 3d
       0.28572035 -0.5165434 -0.027093906 0.122839406
000300 82 ab 30 3e 3b 7c 46 3e 79 9b e3 3e 70 a8 80 be
       0.17252925 0.19383328 0.44454554 -0.25128508
000310 bf bc 2f 3e 27 31 45 3e 16 46 24 3c 0d ad 23 3c
       0.17161845 0.19257031 0.010026475 0.009989989
000320 be b7 55 be 0c d0 d7 be 92 ff 42 be 92 6f d9 be
       -0.20870873 -0.42150915 -0.19042805 -0.42467934
000330 96 cb b7 3d 6f 4f 09 3e 9f bd 53 bd 7a ea 55 bd
       0.08974378 0.13409208 -0.05169451 -0.052225567
000340 30 95 9e 3e bb f8 9d be 88 df 3e be 82 7c c8 bd
       0.30973196 -0.3085383 -0.18639958 -0.09789373
000350 83 43 1a bf 28 e3 1a be 96 ad 64 3e d8 f6 5d bc
       -0.60259265 -0.15125716 0.22331843 -0.013547622
000360 35 f1 70 bc 1c e2 50 be f9 e0 56 bb d5 48 95 3d
       -0.014705946 -0.20398754 -0.0032787903 0.07289282
000370 ae 26 1d 3e 22 b5 21 be b2 2c fb bd 1d 5f 4a be
       0.15346786 -0.15791753 -0.12264384 -0.19762845
000380 3b 67 91 3e c3 48 71 3c ab 8b 76 be 26 20 2f be
       0.2839907 0.01472682 -0.24076717 -0.17102107
000390 03 8a 07 be ae 28 0f be 8e 1f c1 3e 01 e8 2a 3d
       -0.13236241 -0.13980362 0.37719387 0.041725162
0003a0 6d 68 da be e9 8e a8 bd 35 46 e2 be 41 68 1a bd
       -0.42657796 -0.08230383 -0.4419419 -0.03769708
0003b0 07 48 07 3e a3 31 47 3e e2 32 9c bd f9 1d b3 bc
       0.1321107 0.19452529 -0.076268926 -0.021864878
0003c0 db 54 79 be ea 00 56 bd a5 3a bb be 1b f9 9b be
       -0.24348776 -0.052246965 -0.3656818 -0.3046349
0003d0 78 78 a7 3e 19 13 b9 3d 92 67 04 be 84 14 b6 3c
       0.32709098 0.09036846 -0.12930134 0.02222658
0003e0 99 de 09 be 12 49 bb bd 5f bf 9f 3c e7 aa 7e be
       -0.1346382 -0.091447964 0.019500433 -0.24869882
0003f0 95 8d 4d 3e 04 f7 c7 be ef 4f 51 be df bc b0 3d
       0.2007354 -0.39055645 -0.20440648 0.08629774

network_body.linear_encoder.seq_layers.2.bias f4 [128]
000000 9b 82 4f be 74 33 70 bd e9 ac 3a be 74 e5 9c 3e
       -0.20264666 -0.05864282 -0.18230022 0.3064381
000010 d8 5d 14 3c 31 d6 11 be 68 a5 15 be fa c5 02 3e
       0.009055577 -0.14241864 -0.14613879 0.12770835
000020 5b bc be be 2d 1a d2 bd 77 50 c5 3d 26 96 8d bd
       -0.3725308 -0.10258899 0.09634488 -0.06913404
000030 80 35 41 be 94 49 bf bc bd 1f 2b bd 45 a2 a9 bd
       -0.18868065 -0.023350514 -0.041778315 -0.082829036
000040 27 f5 09 be 11 e9 06 bd c8 3a ac 3b 51 f1 17 bd
       -0.13472424 -0.032937113 0.0052560307 -0.03709537
000050 e0 52 ee 3c fb de 3c 3c 68 4b 24 be ff d9 8b be
       0.029092252 0.011527772 -0.1604439 -0.27314755
000060 ea 21 e5 bd b5 f9 6a bc f1 9f db bd 26 c0 98 3d
       -0.11188109 -0.014341761 -0.10723866 0.074585244
000070 06 72 cd bd 84 7b b1 bd 15 3c 48 be 09 2c c0 bd
       -0.10031514 -0.08666137 -0.1955417 -0.09383399
000080 69 24 7c bd 8e b8 9e bd ca b3 ae bd cb 1b 51 be
       -0.06155816 -0.07750045 -0.08530386 -0.20420758
000090 57 88 ed bc 08 82 8e be 47 f1 70 bd 68 e7 37 be
       -0.028995676 -0.2783358 -0.05882385 -0.17959368
0000a0 b6 60 3c 3d 9b 31 6f 3d 3e 15 24 be 77 d7 4b be
       0.04599067 0.058396917 -0.16023728 -0.19906412
0000b0 18 f6 0b be 10 fc 05 3d 3d cb f5 bd 04 c9 66 bd
       -0.13668096 0.03271109 -0.12001655 -0.056344047
0000c0 40 8c 9e bd 3f 91 47 bd 0a 0f 54 be 0d 44 2e be
       -0.07741594 -0.0487225 -0.20708862 -0.17018147
0000d0 90 92 64 bb b8 1c d9 bc cc 1b 95 bd d2 89 a3 be
       -0.0034877397 -0.026502952 -0.072806925 -0.31941086
0000e0 bf d4 6e be d5 f4 c6 bd d9 1f 05 bd 57 69 13 3d
       -0.23323344 -0.09714667 -0.032501075 0.03598913
0000f0 cb bf d6 bd a6 5e 96 bd 92 06 44 bd 73 5d ae bd
       -0.104858 -0.073422715 -0.04785783 -0.08513918
000100 5b 2c 5f be 75 c3 86 bd 20 28 c0 3d 15 59 53 3d
       -0.21794264 -0.06580249 0.09382653 0.051598627
000110 53 f6 a6 3b b9 1d 49 be e7 8e 15 3d de 14 0f 3d
       0.005095282 -0.19640245 0.036513235 0.03493201
000120 a1 7c 96 bd 5c e1 38 be 3a 4b 6f be b8 31 75 be
       -0.0734799 -0.18054718 -0.2336854 -0.23944747
000130 ac bd d0 bd 62 3c c7 3c 3f 8f 30 be 87 79 ca bd
       -0.10192427 0.024320785 -0.17242144 -0.09886461
000140 e1 2a cf bd e2 62 a0 bd 65 ed a0 3d 2e 44 0e be
       -0.101156004 -0.078313604 0.078577794 -0.13893196
000150 90 40 77 bd 6d d7 05 be d9 1e 17 3d 47 0d 8f bd
       -0.060364306 -0.1307046 0.036894653 -0.06984954
000160 a7 0f 20 3d cc 21 e5 3b da 23 dd 3d 40 9c 2e be
       0.039077427 0.0069925543 0.10797854 -0.17051792
000170 32 69 0a bd b9 a3 d2 bd 5d 20 42 be 08 80 4a 3e
       -0.03379173 -0.10285134 -0.18957658 0.19775403
000180 55 9a 03 be c5 69 34 bd 54 01 6f be b0 23 49 3d
       -0.12851842 -0.044046182 -0.2334035 0.0491063
000190 53 0e 29 3d 31 f2 58 bd f2 08 38 3c 5e 4d 9c bd
       0.041273426 -0.052965347 0.0112326015 -0.07631944
0001a0 53 c6 07 bd fe 84 6e bc f7 8c 5f 3d 55 17 68 bd
       -0.03314812 -0.014558075 0.054577794 -0.056662876
0001b0 64 c8 4b be 51 0a 75 3d 34 d7 b5 bd 42 91 a5 3d
       -0.19900662 0.05982429 -0.08878937 0.08084346
0001c0 09 47 96 bd 7a 61 6b bd 54 92 39 3d ec 45 09 be
       -0.07337768 -0.057466008 0.045305565 -0.1340558
0001d0 7b b6 04 be 3e 5c ea bc 29 75 c7 3d 22 3d a2 3d
       -0.12960236 -0.028608438 0.097391434 0.079218164
0001e0 eb a6 a9 bd 14 b5 03 3e 24 7e 61 3d 9e 34 46 3d
       -0.0828379 0.12862045 0.055051938 0.048390023
0001f0 66 d5 88 be 34 3f 69 3d 66 b4 77 bd 27 37 ae bd
       -0.2672531 0.05694504 -0.060474776 -0.08506613

action_model._discrete_distribution.branches.0.weight f4 [3, 128]
000000 e5 f6 73 bd 8e f5 b4 bd e5 57 af bd 9f 9c a9 bf
       -0.05956163 -0.08835898 -0.085616864 -1.3250922
000010 6b c0 a9 be af 19 a6 bd ee 37 eb bc 26 17 29 3e
       -0.33154616 -0.081103675 -0.028713193 0.16512737
000020 17 89 e3 3d 7c 01 5b bc 4c ba 8f 3e d3 17 22 3e
       0.11110132 -0.013367053 0.2807182 0.158294
000030 1e 03 59 bd 48 5f 04 be c6 f6 f8 3d 73 29 88 bd
       -0.05298149 -0.12926972 0.12156443 -0.06648531
000040 6e 21 79 be f4 41 b8 be fe e8 a6 be a4 23 46 be
       -0.24329159 -0.35987818 -0.32599634 -0.19349533
000050 d7 d1 80 be d8 8f 8d be 0e 45 5f bc 3f 9e ad bd
       -0.25160095 -0.27648807 -0.013627304 -0.08477449
000060 1e 31 5e bc 80 30 a2 bc 9c 33 c6 3d f1 b3 f5 be
       -0.013561515 -0.019798517 0.096778125 -0.47988847
000070 1a a9 42 be f4 db e2 3c a6 7f 8e 3e f4 7a 91 3c
       -0.1900982 0.027692772 0.27831763 0.017758824
000080 95 e4 a2 bc c8 2c 0d bd 34 31 eb bc a7 ef 06 3f
       -0.019884387 -0.034466535 -0.028709985 0.5270943
000090 98 4c 82 be 43 66 6a 3c 49 86 e5 3d 23 c5 aa bd
       -0.2544906 0.014306608 0.112072535 -0.08338382
0000a0 6c c0 29 3e 0c 18 03 3e bb 4d 58 3e 85 7e ca 3d
       0.1657731 0.12802142 0.21123402 0.09887413
0000b0 6e 1d d8 bb b9 f1 b5 3c a0 1a 3e be 4b b8 9d 3e
       -0.006595305 0.022209989 -0.18564844 0.30804667
0000c0 29 6e 1d bf 7d 1a 08 be e5 c8 3d be 6d 15 ed 3d
       -0.61496216 -0.13291354 -0.18533666 0.11576352
0000d0 c1 dc 4c 3e 36 21 c1 be b0 a2 df bc 50 3e 8e 3e
       0.20006086 -0.3772065 -0.027299255 0.27781916
0000e0 e5 01 ef 3d 17 88 f4 be 73 da 1a be 48 f9 82 3e
       0.11670283 -0.47760078 -0.15122394 0.25580812
0000f0 5a ed cc 3d 96 3b cb 3d 10 51 65 3b b3 01 42 be
       0.10006209 0.099234745 0.0034990944 -0.1894596
000100 70 a6 53 bc 33 b7 87 3e b9 2f 20 bf 19 af 87 bd
       -0.0129181 0.26506957 -0.6257282 -0.06625194
000110 ec 1d 9c bd a8 d4 77 be de 32 ae be 9c d1 54 bf
       -0.07622895 -0.24202216 -0.34023184 -0.8313234
000120 31 7f b4 bc c6 50 0c 3d 40 0e 6f 3b 5e b6 b8 bd
       -0.022033306 0.03425672 0.0036477 -0.09019159
000130 eb 33 dc be bb 82 ef bc 5f 6b 9c 3e b7 0f 8c bd
       -0.4300836 -0.029237142 0.30550668 -0.06838935
000140 ea b1 30 bd d0 99 30 3f 00 20 eb 3d ae 8e 9c 3d
       -0.043138422 0.689847 0.11480713 0.076444015
000150 b3 c4 8c be 7a 97 0e be 51 2e 4a be 39 9b 12 3e
       -0.2749382 -0.13924971 -0.19744231 0.14317025
000160 fc 95 6f be 60 ba 2f be 58 fa 76 3b 34 70 28 be
       -0.23397058 -0.1716094 0.0037685838 -0.16449052
000170 dd 8f 68 be 7a b5 58 3d 38 c4 a7 be e6 57 5f be
       -0.2271113 0.052907445 -0.3276689 -0.21810874
000180 12 2a 8b 3e 3c 54 77 be ec 04 80 3d 7b 94 a5 3e
       0.27180535 -0.24153227 0.06250939 0.32339844
000190 27 dd d6 3e e8 be ab 3d a0 77 88 3e de 38 9a 3d
       0.419656 0.08386022 0.26653767 0.07530378
0001a0 99 fd 16 be 58 c8 80 be fb b8 73 be 23 fb 0b bf
       -0.14745177 -0.2515285 -0.23801033 -0.5468008
0001b0 07 83 2a 3e cb d8 58 3e 1f b0 11 3e 5a 9f 33 bf
       0.16651545 0.2117645 0.14227341 -0.70165026
0001c0 3c 83 f5 be 1e 88 85 3d c3 cf 85 bd 15 d1 5d be
       -0.47951686 0.06520103 -0.06533768 -0.2166179
0001d0 83 1d 85 be 5a 59 cb bd 38 e9 0c be 22 ba dc bd
       -0.25999078 -0.09929152 -0.13760841 -0.107776895
0001e0 c6 20 86 3e c5 bc 80 bd 02 9e 97 3e 23 a1 02 3e
       0.2619688 -0.06286005 0.29612738 0.12756781
0001f0 1c 69 46 3e 3a ab 93 3e 9a ae 58 3e 9a 94 33 3e
       0.19376034 0.28841573 0.21160355 0.17537156
000200 db cc 27 be a6 1f 84 be fa f3 79 3e d7 08 59 be
       -0.1638674 -0.25805396 0.24409476 -0.21194778
000210 df 54 21 3e d9 b5 22 3e 08 5e 06 bd 81 81 84 bf
       0.15755032 0.15889682 -0.03280452 -1.0352021
000220 30 a1 99 3e d9 43 0f be c5 a9 ef 3d 2b 92 4b be
       0.3000579 -0.13990726 0.11702303 -0.19879977
000230 8a 96 96 bd 58 0d 98 3d 2a 8f 5f 3e 2d a0 30 3e
       -0.07352932 0.0742442 0.21831957 0.17248602
000240 0b 0a bb 3e 7f 62 95 3e 9e 6a 92 3a 7b 67 00 3e
       0.365311 0.2917671 0.001117069 0.12539475
000250 3c 65 09 be 2d 0c 03 be 0f d5 8a be 4a eb f5 3e
       -0.13417524 -0.12797613 -0.27115676 0.48031074
000260 40 fc 8d 3e ae 89 15 bf 1e 3b bd be 24 bf 75 bf
       0.27731514 -0.5841321 -0.36959165 -0.9599478
000270 ce 58 11 bf 4a 78 45 bd 8e 26 14 3f b7 44 50 be
       -0.5677613 -0.04821042 0.5787133 -0.20338713
000280 00 c7 c6 be c5 e3 cc bd c0 1e 20 be 4e 8b 19 bd
       -0.388237 -0.10004381 -0.1563673 -0.037486367
000290 79 0c 03 3f 0f bf e3 bd c7 76 23 3e e9 36 cb be
       0.51190907 -0.11120426 0.15963279 -0.3969033
0002a0 30 92 b2 be 07 3a 68 3d f9 05 5a 3e d1 95 f4 bd
       -0.34877157 0.056695964 0.21291341 -0.11942638
0002b0 77 ef 95 be 39 29 51 3e 30 cb 5a be a9 e2 9b be
       -0.2928426 0.20425881 -0.21366572 -0.30446365
0002c0 fd 5e 92 be 39 03 d9 bd b8 41 e9 3d de 58 e3 3c
       -0.28588095 -0.10596318 0.11389488 0.027752336
0002d0 b7 27 3d bf 99 69 93 3e 06 dc af be 85 94 a0 3d
       -0.73888725 0.28791502 -0.34347552 0.07840828
0002e0 3c d2 37 bc c9 47 04 bc ba 9a 52 be 52 04 86 3e
       -0.011219557 -0.008073756 -0.20566836 0.2617517
0002f0 20 a7 7f 3d 77 66 87 3e 3f 01 ce be b2 90 7f bd
       0.062415242 0.26445362 -0.40235326 -0.06239385
000300 50 1a 64 bf 3d 08 63 3e 1c ed 7b 3e 9f 31 65 be
       -0.8910265 0.22171111 0.24602169 -0.2238221
000310 df 71 88 3d 63 d9 b7 3e 6b 80 0e 3e 38 cb 12 3c
       0.06662344 0.3590804 0.13916175 0.008959584
000320 8e 4e 84 3d 9d 42 5e be 2f e1 0f 3e 81 a4 43 be
       0.064602956 -0.21705098 0.14050744 -0.19105722
000330 fa 14 ad 3d 2d 36 58 3e 9e 8b 3b 3e f4 77 bf bd
       0.084512666 0.21114416 0.18314978 -0.09349051
000340 bf ac 84 bc 13 71 1b 3e b0 3d 39 3e 29 01 4e be
       -0.016195653 0.15179853 0.18089938 -0.2011763
000350 94 9d 15 3e 33 2e e9 be f8 0f d4 be 9b c5 7b 3d
       0.14610893 -0.4554306 -0.41418433 0.061467748
000360 e0 5f 17 bd e3 3a 82 be f7 9c bb bd 3e e7 1f 3e
       -0.036956668 -0.25435552 -0.09160798 0.15615556
000370 cf 1e 65 3e 3a 88 ac be 43 8d 35 3e 42 6d 9a bf
       0.22375034 -0.33697683 0.17729668 -1.2064593
000380 b0 ee b2 3e d2 2e c1 be 14 28 36 be 46 1b 33 3e
       0.3494773 -0.37731034 -0.17788726 0.17490873
000390 ab c3 70 bf 4f 95 b8 bd ce 82 10 3d 1c 37 47 be
       -0.94048566 -0.09012853 0.035280995 -0.19454616
0003a0 df 30 39 3d 85 76 7c bb 56 da ed 3c 13 9b 93 be
       0.045212623 -0.0038522792 0.029034775 -0.2882925
0003b0 a0 de e9 be 1e bd 36 bd af 9f e5 be 2a fe 65 bf
       -0.45677662 -0.04461395 -0.4484839 -0.8984095
0003c0 45 7a 19 bf e2 15 a5 3d 92 a6 d1 be d7 ae 1e ba
       -0.59952193 0.080608144 -0.40947396 -0.0006053275
0003d0 e1 ff 8b 3e 22 a9 ae 3d e0 1b 3a 3e dd b5 a4 bd
       0.27343658 0.08528353 0.18174696 -0.080425
0003e0 92 fc a9 be 62 2b c2 be f3 79 3e bf 1d 69 9c 3d
       -0.33200508 -0.37923723 -0.7440483 0.07637236
0003f0 47 18 05 3e 1e fc f1 be 51 6b f3 bc 46 a7 ab be
       0.12997542 -0.47262663 -0.029714258 -0.33526057

action_model._discrete_distribution.branches.0.bias f4 [3]
000000 31 47 36 be 9c 1a 15 be aa ed 8b 3e
       -0.17800595 -0.14560932 0.2732976

action_model._discrete_distribution.branches.1.weight f4 [2, 128]
000000 35 e8 96 3e ba 67 7a bd 84 71 56 be cc c5 12 bd
       0.29474035 -0.061134078 -0.2094174 -0.035833165
000010 e7 2d f2 3e bf db 9a 3c d3 ae 9c 3d 96 94 8b 3d
       0.47300646 0.018903611 0.076505326 0.0681545
000020 a2 ba 7b bd f0 fc a8 3d 13 04 96 be ab 3e a3 be
       -0.061457284 0.08251369 -0.29299983 -0.3188375
000030 82 2d c8 3d 29 43 29 3f 81 1f 82 be ce 20 a6 3d
       0.09774305 0.66118103 -0.2541466 0.08111726
000040 15 2e 2f bc b7 df f4 3d 35 c3 36 3c 61 c6 d7 3d
       -0.010692139 0.11956733 0.011154939 0.10535885
000050 90 c0 41 3c 9e 8a 9a 3d 29 1c 40 bd 80 03 b8 be
       0.011825696 0.075459704 -0.046901856 -0.3594017
000060 3f 71 f7 bb 46 5a ae be 68 06 b8 3d af 98 ff bb
       -0.007551342 -0.34053248 0.08985597 -0.0078001837
000070 c6 a4 33 3e a9 ee 24 3e 8c a5 ec be 79 4a f1 bc
       0.17543325 0.16106667 -0.46220052 -0.029454457
000080 6b 64 16 3e db f5 87 3e 46 e0 1d 3e 7d f1 0e bf
       0.14686744 0.2655476 0.15417585 -0.5583723
000090 d8 43 56 bd 5f 6e 87 bd a7 23 43 3e 63 63 33 3d
       -0.052310795 -0.066128485 0.19056569 0.043795954
0000a0 d7 5a 9d 3e cf 11 e5 3c 68 2b b4 3e 73 a7 96 bc
       0.30733368 0.027962593 0.35189366 -0.018390393
0000b0 58 8c 49 be d8 54 24 3e f1 f5 de 3d 26 cb 9b be
       -0.19682443 0.1604799 0.10886753 -0.30428427
0000c0 c4 39 3b 3e dd 16 12 3f 1f 14 c6 bd ae 8a 0c 3f
       0.18283755 0.57066137 -0.096718065 0.5489911
0000d0 7b a7 0c bd 8f ae 12 3d 08 f1 0d 3e 14 d9 81 be
       -0.03433941 0.035811003 0.13861477 -0.2536093
0000e0 d4 0d 15 bd b1 9b a1 bd 09 df 14 3e 6b 0f 0d 3e
       -0.03639014 -0.07891024 0.14538206 0.13775413
0000f0 07 b4 10 bf 77 2e 27 bd 89 f6 6f be b2 52 12 3f
       -0.565247 -0.040815797 -0.2343389 0.57157433
000100 9f 52 bb 3d 38 f0 34 be 45 9d fc bd 04 36 00 3f
       0.09146618 -0.17669761 -0.12334684 0.5008242
000110 1f 7a 9d 3e 93 f4 0d be 85 25 76 3b e9 c7 a2 bd
       0.30757234 -0.13862829 0.0037558984 -0.07948286
000120 63 1d fe 3d e6 af f7 3d e8 58 8b bd 72 d8 95 be
       0.12407949 0.12094097 -0.06804067 -0.29266697
000130 6f 03 4e 3b 32 61 2f 3e 4c 5a ff be 1d 27 85 be
       0.0031435152 0.17126921 -0.4987358 -0.26006404
000140 c0 06 19 3e 45 3a 5c bf d1 38 da 3e b6 06 d2 3d
       0.14943981 -0.8602641 0.42621472 0.10255186
000150 0b b2 91 be 11 a2 ec bd c0 f1 71 be fb c4 ac 3e
       -0.28456149 -0.11554349 -0.23627377 0.33744034
000160 f2 5d 4a bc ce 68 e7 bc 2a 61 5d bd 3d 90 25 3e
       -0.0123515 -0.028248217 -0.05404774 0.16168304
000170 7c e7 8e be 39 c0 29 3e c4 a1 93 bd e3 b4 30 3f
       -0.27910984 0.16577233 -0.07208589 0.6902601
000180 69 ac b2 3e c5 53 b9 be a6 de e7 bd d0 45 61 bd
       0.34897164 -0.36196724 -0.11321764 -0.05499822
000190 ef 3d d5 3e 76 89 cd bb c4 4b 18 3f 73 90 22 be
       0.41648814 -0.00627249 0.5949061 -0.15875416
0001a0 a5 fb 7a 3d 79 aa 26 3e 73 0f 7f bd 44 14 1a 3e
       0.061275143 0.16275968 -0.062270593 0.15046793
0001b0 86 8c c1 3d e1 f2 d3 be ce a3 31 be 11 32 27 be
       0.09450631 -0.4139624 -0.17347643 -0.16327693
0001c0 1d a5 9a 3e 27 1d 71 be 25 01 9d 3b 22 32 1b bc
       0.30204096 -0.23546277 0.004791396 -0.009472402
0001d0 63 ff 6f 3d 94 d4 fc 3d 04 fd 0b be c5 47 c2 3e
       0.058593165 0.123452336 -0.13670737 0.3794538
0001e0 eb f5 d3 bd c3 0b 4c 3f 3f 92 f5 bd 1d 17 81 3f
       -0.103496395 0.79705447 -0.11990785 1.0085179
0001f0 21 b3 86 be f5 db 74 be 93 52 ce bb 3b 2d 5a bc
       -0.2630854 -0.23912032 -0.0062964647 -0.013316448
000200 42 bd 95 be bd d3 86 3d 4c 56 54 3e 0b 73 01 3d
       -0.29245955 0.065833546 0.20736045 0.031603854
000210 bd b6 f4 be fb df 8e b8 38 1c a3 bd b8 6b a2 bd
       -0.47795668 -6.812807e-05 -0.07964367 -0.07930702
000220 c6 1f 61 3d 31 6d a0 bd cb 70 9d 3e 52 f4 a5 3e
       0.054961942 -0.078333266 0.30750117 0.32412964
000230 73 f8 df bd 14 cc 24 bf 50 18 74 3e 2b bf c4 bd
       -0.1093606 -0.643739 0.238374 -0.09606775
000240 1c 7f 15 bc ad 75 fa bd 91 ef fd bb 95 14 04 be
       -0.0091245435 -0.12229476 -0.007749506 -0.12898476
000250 f1 3b ef 3a 63 05 9f bd 29 dd 4b 3d a6 07 b2 3e
       0.0018252117 -0.07764699 0.04977146 0.3477146
000260 8d 53 57 bb 25 3c b0 3e 70 d7 b2 bd dc 2e 52 bc
       -0.0032856197 0.34420887 -0.08732498 -0.012828555
000270 5c fe 4e be 17 25 20 be 8a bb e5 3e 75 50 a8 3c
       -0.20214218 -0.15639149 0.44869643 0.020546177
000280 eb 8e 2e be 4a 27 88 be e1 44 1d be 07 32 0a 3f
       -0.17046706 -0.26592475 -0.15358306 0.53982586
000290 a6 7c 5a 3d bd 8d 78 3d ca 06 27 be bf 8c 89 bd
       0.05334153 0.060682047 -0.16311184 -0.06716298
0002a0 81 27 90 be 55 bb 28 bd 82 70 b7 be d0 e4 e0 3c
       -0.2815514 -0.04119428 -0.35828024 0.027452856
0002b0 c9 06 50 3e 03 fd 18 be e9 34 e1 bd 95 ab 9b 3e
       0.20315088 -0.14940266 -0.1099642 0.30404344
0002c0 2d 07 2d be d4 98 15 bf 2b 0a b7 3d 83 de 14 bf
       -0.16897269 -0.5843632 0.08937486 -0.58152026
0002d0 08 86 2d 3d 33 7e 04 bd d5 ad 09 be 28 18 76 3e
       0.04236415 -0.032346915 -0.13445218 0.24032652
0002e0 c6 67 9f 3c fb 5b 9b 3d 97 b6 1a be 75 54 02 be
       0.019458663 0.07585903 -0.15108715 -0.1272753
0002f0 fd db 14 3f df bd 5f 3d 82 c0 76 3e 79 5a 14 bf
       0.58148175 0.054624435 0.24096873 -0.5795055
000300 73 46 d1 bd 86 98 3f 3e b2 f4 00 3e 70 b6 01 bf
       -0.10218515 0.18710527 0.12593344 -0.50669
000310 70 d9 a4 be 0e a1 0f 3e 01 18 a6 3a 6b 50 ad 3d
       -0.32197142 0.14026281 0.0012671949 0.08462604
000320 50 c8 ff bd 23 4d d1 bd ae fa 76 3d 64 2a 97 3e
       -0.124893785 -0.10219791 0.06029766 0.2952453
000330 35 f6 08 bc 7a 23 3f be 16 8c 02 3f 9e 25 7f 3e
       -0.008359482 -0.18665877 0.50995004 0.24916694
000340 67 18 08 be 5a ab 5d 3f e1 6d d9 be a0 a6 d0 bd
       -0.13290559 0.86589587 -0.42466643 -0.10188031
000350 44 3d 91 3e 8f 1c 01 3e 4f db 7e 3e c7 f9 b0 be
       0.28367054 0.1260855 0.24888347 -0.34565565
000360 58 ff 2a 3c bc fc 44 3c e2 e9 ae 3d 1d f1 2c be
       0.010436855 0.012023147 0.08540703 -0.16888852
000370 cf da 94 3e 39 31 1c be 7a 1c 79 3d 49 d5 31 bf
       0.29073188 -0.15253152 0.060818173 -0.6946607
000380 73 7e ba be 1b 23 c3 3e e2 80 c1 3d ea c6 56 3d
       -0.36424598 0.3811272 0.094484106 0.052435793
000390 6d 6b d7 be 1e da 50 3c 99 d0 15 bf 9f ef 13 3e
       -0.42074147 0.012747316 -0.5852142 0.14446877
0003a0 0f 04 15 bd d3 a3 16 be d6 3f 5e 3d c0 40 15 be
       -0.036380824 -0.14710931 0.054260097 -0.14575481
0003b0 e1 fd b7 bd ee e8 cb 3e 41 92 2d 3e 91 6f 1e 3e
       -0.089839704 0.3982615 0.16950323 0.15472247
0003c0 26 45 9a be 5a 16 55 3e b3 93 19 3b e6 65 9b 3c
       -0.3013088 0.20809308 0.0023433983 0.018969487
0003d0 76 d7 58 bd 2d 2e f1 bd 80 8c 19 3e 6f 5d b9 be
       -0.052939855 -0.117763855 0.14995003 -0.36204097
0003e0 ea 1f f1 3d 97 d2 45 bf 22 d0 c5 3d 0a d5 7f bf
       0.11773665 -0.7727446 0.09658839 -0.99934447
0003f0 08 93 8b 3e 84 db 77 3e f1 0e d8 3b e6 60 17 3c
       0.27260613 0.24204832 0.006593578 0.009239411

action_model._discrete_distribution.branches.1.bias f4 [2]
000000 43 63 11 3e 27 63 11 be
       0.14198022 -0.1419798

action_model._discrete_distribution.branches.2.weight f4 [2, 128]
000000 9c 57 60 3d d1 10 f6 bd bd 78 46 3f 77 6d a9 bd
       0.05477105 -0.12014926 0.7752798 -0.08272832
000010 51 18 19 3e 31 4c b3 3e 1e 22 7b 3e 2b 01 09 3f
       0.14950682 0.35019067 0.24524733 0.5351741
000020 fb 50 8d 3d a3 ad 4a 3d 4a 97 96 be e8 05 22 3d
       0.069002114 0.049482 -0.294123 0.039556414
000030 fe a4 cb bc af 3d 2e 3f 9f 49 2d bc e8 da 1e 3e
       -0.024858948 0.6806287 -0.010576635 0.15513194
000040 3c 10 48 bc eb 2d ce 3d 80 f9 ce 3d 64 56 34 3d
       -0.012210902 0.10067352 0.10106182 0.0440277
000050 a5 18 32 bd c9 5b 09 3e 1e 9c c1 bd 66 ac f0 3d
       -0.043480534 0.1341392 -0.09453605 0.117516324
000060 f0 78 cf bd c2 8a 8b be 4b 73 8a 3d 72 97 1a 3e
       -0.10130489 -0.272543 0.06760272 0.15096834
000070 3e 4e 87 be b5 40 96 bd ee 75 82 be f4 0f 2d 3c
       -0.26426882 -0.07336561 -0.25480598 0.010562886
000080 a6 09 e6 3d 01 9c 91 bc 29 70 60 3d 01 c2 10 bf
       0.11232309 -0.017774584 0.054794464 -0.56546026
000090 89 10 21 3f 1d 55 6d 3e 27 03 00 be 07 ce b7 3e
       0.62915856 0.23177 -0.12501203 0.35899374
0000a0 65 5d 2f 3d ea 2d 83 3f 21 b0 41 bd 99 7f 75 3e
       0.042813677 1.0248387 -0.04728711 0.23974456
0000b0 58 b5 88 ba 0d 50 ed 3d 3f 69 9f 3d 92 f2 51 be
       -0.0010430021 0.11587534 0.07783746 -0.2050269
0000c0 86 ea 03 be d4 99 24 3e a2 15 bb 3e 6a f3 46 3e
       -0.12882432 0.16074306 0.36539942 0.19428793
0000d0 e9 b5 5c 3f 81 e7 6f bc ac a8 8d 3d 03 e4 1f bf
       0.8621507 -0.014642597 0.06916937 -0.62457293
0000e0 52 c1 c2 3b 73 3f 76 bd 16 cd a5 3c a1 98 72 be
       0.0059434557 -0.060119104 0.020239394 -0.23691036
0000f0 45 3d 9d be 00 cd 28 be 33 bd 5a be fd 60 b4 3d
       -0.30710807 -0.16484451 -0.21361236 0.088075615
000100 9a 49 74 3d 90 ac f6 be f3 55 be bc fa e4 3f 3e
       0.059640504 -0.4817853 -0.023234343 0.18739691
000110 83 8d cf 3e bd 19 fe 3b 76 72 70 3d f6 f3 30 bd
       0.40537652 0.007754533 0.05870291 -0.04320141
000120 23 e5 b1 3d 2c eb 1f bc ba dd a8 be b3 5c 2f be
       0.086862825 -0.009760659 -0.32981664 -0.17125206
000130 a4 7d 9b bc 6c bd b3 3d 19 00 25 bf ea 3d 97 3d
       -0.018980809 0.08776364 -0.64453274 0.07384856
000140 eb d2 41 bd 10 48 70 bf 5c 78 ad be c0 12 60 bc
       -0.047320288 -0.9385996 -0.3388089 -0.013676345
000150 0d 6d 10 be 56 8a 86 be b0 5b eb 3e 7a 6e 3f 3f
       -0.141041 -0.26277417 0.4596839 0.7477795
000160 d8 b8 ef bd b0 53 a5 3d f9 df 1a 3f 8b f6 11 bd
       -0.11705178 0.08072603 0.60498005 -0.035635512
000170 d6 14 c4 3d c1 f8 a4 3e d8 d8 61 bc 8b 8d 04 be
       0.09574287 0.32221034 -0.01378461 -0.1294462
000180 e8 e2 74 3d ec db ce bd df e2 87 be 0c a1 03 3f
       0.059786707 -0.101005405 -0.26540276 0.51417613
000190 1b 4f c7 be 9a 94 d3 bd 99 fd 22 bd fc 1a 3d 3d
       -0.3892754 -0.10331078 -0.03979263 0.046168312
0001a0 68 ef 50 be 87 61 7f 3e 69 a9 18 be be 39 a1 3c
       -0.20403826 0.24939547 -0.14908375 0.019680854
0001b0 0b ae 01 3c c0 c1 1f be 4a 07 68 bd e2 a5 85 3c
       0.00791503 -0.15601254 -0.056647576 0.01631445
0001c0 c1 bf 2c be c2 ae 80 3e f6 86 91 3d 05 78 79 3e
       -0.16870023 0.2513333 0.0710582 0.2436219
0001d0 da 7c 94 3e 56 89 7c 3e 3b 78 15 bf 7a 5e bc 3e
       0.29001504 0.24661765 -0.5838658 0.3679083
0001e0 8f 87 a6 3c 43 83 24 3f c7 be 16 be e1 0e ab bd
       0.020328311 0.6426279 -0.14721213 -0.08352447
0001f0 fd fe 0a 3e c1 da cf 3e 7a d5 90 3d cb 9d a6 3b
       0.13573833 0.40596583 0.070719674 0.0050847284
000200 3e 3c 5f bd 82 b8 f5 3d 89 b3 45 bf a9 62 91 3d
       -0.05450081 0.11998083 -0.77227074 0.07098896
000210 0a 94 12 be 3f 53 b0 be 23 80 61 be cf bd 05 bf
       -0.14314285 -0.34438512 -0.22021537 -0.5224275
000220 52 e3 88 bd 13 f0 4f bd dd e6 92 3e 27 6e 46 bd
       -0.06683983 -0.050766062 0.2869176 -0.048444893
000230 0c 3d 25 3c 80 3d 2f bf 47 71 15 3c e9 41 1d be
       0.0100853555 -0.68453217 0.009121246 -0.15357174
000240 fb 26 9d 3c f3 9e b5 bd 86 24 d7 bd 63 cd cc bc
       0.019183626 -0.08868208 -0.10505013 -0.02500028
000250 99 6f 21 3d 35 2d 07 be c6 82 c2 3d b0 72 ee bd
       0.03941307 -0.13200839 0.09497599 -0.11642969
000260 a6 3a cd 3d d4 49 8d 3e bd cd 90 bd 72 2e 22 be
       0.10020952 0.2759539 -0.070704915 -0.1583803
000270 04 b3 8c 3e 2f 52 a8 3d 71 da 84 3e e2 07 17 bc
       0.27480328 0.082188 0.25947908 -0.009218188
000280 21 49 c8 bd f0 14 04 3c 0c 42 35 bd e9 89 0e 3f
       -0.09779573 0.0080616325 -0.04425244 0.55679184
000290 6f 65 21 bf bb c8 5c be ae ac ec 3d 62 a7 bd be
       -0.630454 -0.21560948 0.115563735 -0.37041765
0002a0 a1 9e 2d bd 06 8d 83 bf 72 fa 7b 3d e2 10 80 be
       -0.04238761 -1.0277412 0.06151814 -0.2501288
0002b0 29 0a aa bc 91 19 ef bd f9 b8 90 bd 5f 9a 43 3e
       -0.020756798 -0.11674798 -0.07066531 0.19101857
0002c0 30 08 08 3e 1d cb 30 be 54 6e b4 be 43 51 5b be
       0.13284373 -0.17264982 -0.35240424 -0.21417718
0002d0 df e7 5b bf c8 0a ab 3c 47 ac ae bd 7e f1 1f 3f
       -0.8590068 0.020879164 -0.08528953 0.6247786
0002e0 02 fd 28 bc a8 6f 8d 3d f4 01 16 bd 24 38 81 3e
       -0.010314228 0.06906062 -0.036622956 0.25238144
0002f0 1e 67 9b 3e 0e 96 2d 3e 5d 91 5e 3e 3d 1c d3 bd
       0.3035211 0.16951773 0.21735139 -0.103081204
000300 5a ee 2c bd 87 b2 f8 3e d6 48 0e 3d 25 33 51 be
       -0.042219497 0.48573706 0.03473743 -0.20429666
000310 10 f3 d6 be 51 de fc 3a 3a e1 7b bd 51 12 24 3d
       -0.41982317 0.001929233 -0.06149409 0.04005653
000320 53 3d bf bd ec 81 61 3b 27 b5 a5 3e 4b bd 31 3e
       -0.093378685 0.0034409715 0.3236477 0.17357366
000330 09 ce d7 3c c5 5f d7 bd 48 6b 29 3f 6f 9d 80 bd
       0.026343362 -0.105163135 0.66179323 -0.06280028
000340 a4 2e 26 3d a7 32 71 3f 12 d0 ac 3e 91 54 74 3c
       0.040571824 0.94217914 0.33752495 0.01491274
000350 7a 4a 1d 3e 54 b2 8e 3e a6 ab eb be de b7 40 bf
       0.15360442 0.2787043 -0.46029395 -0.7528056
000360 70 a4 e6 3d f1 6d cb bd de 65 1b bf e7 1c 32 3d
       0.11261833 -0.09933079 -0.6070231 0.043484595
000370 c6 d3 ad bd 8c f0 a5 be e2 9d 18 3c a5 46 db 3d
       -0.08487658 -0.32410085 0.009314986 0.10706834
000380 b2 98 3a bd 1a d4 d9 3d aa 07 8a 3e de 3b 07 bf
       -0.045555778 0.10636158 0.26958972 -0.52825725
000390 e3 10 d0 3e a0 94 ba 3d d6 82 c1 3c 3d 67 2b bd
       0.40637884 0.09110379 0.023621958 -0.041846503
0003a0 98 48 5f 3e a5 72 82 be 39 56 24 3e b5 f7 4b bc
       0.21805036 -0.25478092 0.16048516 -0.012449195
0003b0 f6 79 48 bb 32 53 17 3e aa 10 3b 3d ae 23 a6 bc
       -0.0030590273 0.1477783 0.04567019 -0.020280685
0003c0 57 64 23 3e 75 d2 7a be 9c a2 98 bd 4d a2 80 be
       0.15956245 -0.24494345 -0.0745289 -0.25123826
0003d0 4d fe 92 be 8c 4e 6c be 1c f3 16 3f b7 af c0 be
       -0.2870964 -0.23076838 0.58964705 -0.3763406
0003e0 e8 3c 91 bc 32 0b 28 bf 20 97 11 3e 22 fe b9 3d
       -0.017729238 -0.6564208 0.14217806 0.09081675
0003f0 52 5b 12 be 84 b9 e9 be 04 82 8b bd a9 0a d7 bb
       -0.14292648 -0.4564935 -0.06811908 -0.00656255

action_model._discrete_distribution.branches.2.bias f4 [2]
000000 85 78 1b 3e 7c 78 1b be
       0.15182693 -0.1518268

action_model._discrete_distribution.branches.3.weight f4 [2, 128]
000000 7e 13 17 3f b8 44 64 be a4 95 9e 3c 29 7b 9c 3d
       0.5901412 -0.22291839 0.019358464 0.076406784
000010 a9 ce 20 bd 0f 74 97 bd 4d 38 d4 3c 4e 81 a4 be
       -0.039259586 -0.07395183 0.025905753 -0.32129902
000020 4d 9a 35 3f 73 26 82 3e 78 a7 33 3f ba 74 aa 3e
       0.7093857 0.2541996 0.7017741 0.3329218
000030 4c f4 1e 3b e8 e2 89 3e 6e 99 b6 3e 27 e8 a4 3e
       0.00242545 0.26930928 0.35663933 0.32208368
000040 d1 b8 29 be 4c f8 36 3e 7c 5c 41 3e 28 c2 dd 3d
       -0.16574408 0.17868155 0.18882936 0.10828048
000050 f6 75 87 bd af 5f 9a 3e ea 91 7f be 1e af c0 bd
       -0.06614296 0.30151126 -0.24958006 -0.09408401
000060 8f 13 49 bc 2a 94 86 bd d7 a0 69 3e 0f 63 a9 be
       -0.01227273 -0.06571229 0.22815262 -0.33083388
000070 25 8c 56 bf 7e 24 72 3e 4a 4f dc be 36 06 52 3e
       -0.83807594 0.23646733 -0.43029243 0.20510182
000080 58 f8 13 3d f9 b7 e3 3b e0 62 41 3e f3 4e 6e be
       0.03612551 0.0069494215 0.18885374 -0.23272304
000090 da 0c c0 3d fb 6e 0e bf fb e1 09 bf a7 8d d7 3d
       0.09377451 -0.5563809 -0.53860444 0.10525065
0000a0 37 df f3 bd f8 68 8d 3e 50 50 4d be b5 5b 91 3e
       -0.11907809 0.27619147 -0.20050168 0.2839028
0000b0 0a 53 48 bd 6d f5 f0 3e 7e ee 9c 3e bd 41 71 3e
       -0.048907317 0.47062245 0.30650705 0.23560233
0000c0 cd 33 30 bd 39 8b 9c bd 0e 16 1e 3e 1d a1 53 be
       -0.04301815 -0.07643742 0.154381 -0.20666929
0000d0 03 56 60 be f0 4b d1 3c e5 c1 90 3e 87 ce 9b be
       -0.21907811 0.025548905 0.2827293 -0.30431005
0000e0 f4 66 e4 bb 89 5d 99 3d ae 87 5a 3c ac 7d d9 bd
       -0.006970281 0.074885435 0.013338013 -0.10619673
0000f0 a4 8a ad 3e 9b f8 a1 be 7c 6c ac bd 3f 06 07 3e
       0.33894837 -0.31634983 -0.08419129 0.13185976
000100 9e 69 49 3e b7 ce 0b bf 98 4c af bd 8c db 9f 3e
       0.19669196 -0.54612297 -0.08559531 0.31222188
000110 ee 78 81 3d f6 bb de be aa c8 ce 3e f7 cf f4 3b
       0.06321894 -0.43502778 0.4038747 0.0074710804
000120 3d 17 47 3e fb ea 0f 3d d6 5a 00 bf e1 9a c1 be
       0.19442458 0.035136204 -0.50138605 -0.37813476
000130 c9 b3 c1 bc d6 23 a2 be d2 97 6b bc b8 13 f6 be
       -0.023645299 -0.31667966 -0.0143794585 -0.4806192
000140 0f 5d dc bc 98 26 8a be 30 ad 99 3e 52 58 e8 bc
       -0.026899843 -0.2698257 0.30014944 -0.028362427
000150 b7 11 c4 bc 33 17 e7 bd 7f 08 56 be 8b 11 23 3e
       -0.023934228 -0.11283722 -0.20901679 0.15924661
000160 7b f3 67 bd 72 58 b5 bc 1f a6 0c 3d 99 d2 73 3e
       -0.056628685 -0.0221369 0.034338113 0.23810805
000170 4b 25 7a be 47 6d 34 3d 2e 5c 51 bd 0b 10 fe bd
       -0.24428289 0.044049527 -0.0511133 -0.12405404
000180 90 a4 97 bb 1e e2 51 bf 91 8b ac be a4 e1 cc be
       -0.0046277717 -0.8198565 -0.3370023 -0.400159
000190 59 fb 0f be 50 2a e6 3e fc 64 4f be e3 f1 58 bf
       -0.14060725 0.44954157 -0.20253366 -0.8474409
0001a0 16 b8 30 be 08 a2 f0 bd 71 1f 41 3e 66 c8 4b 3d
       -0.17257723 -0.11749655 0.1885965 0.04975166
0001b0 c9 e9 9f bc f5 ae 93 be 38 9c 64 3e 7a 08 f8 3d
       -0.019520657 -0.2884442 0.22325218 0.12110992
0001c0 26 77 e6 be 28 f6 a6 bd fd 71 bd be b1 8d 15 bf
       -0.45012778 -0.08152419 -0.3700103 -0.5841933
0001d0 13 e7 98 be 85 08 49 3d 95 e4 cb be 2f bf 70 3c
       -0.29863796 0.04908039 -0.39822832 0.014694019
0001e0 2a 2c 08 bd 3a 68 df bb d9 74 23 3d 88 44 7d 3e
       -0.033245243 -0.0068178447 0.039906356 0.24733174
0001f0 0f 44 19 bf 80 cd 5e be 4a c9 c0 3e 4d e6 bb bc
       -0.59869474 -0.2175808 0.3765357 -0.022936964
000200 64 e4 14 bf e9 c8 79 3e f4 24 04 bd 51 4c 8c bd
       -0.58160996 0.24393047 -0.032261804 -0.06850494
000210 fa 6c 69 3d 59 40 94 3d 41 1f b7 bc 83 cb a2 3e
       0.056988694 0.07238836 -0.02235377 0.31795892
000220 83 9e 33 bf 77 e8 7c be 30 1c 31 bf ae 39 a2 be
       -0.70163745 -0.24698053 -0.69183636 -0.3168463
000230 10 2d 92 3b ec 83 87 be 8e e6 b7 be e3 89 a0 be
       0.0044609383 -0.26467836 -0.35918087 -0.313552
000240 b8 7e 10 3e b1 fc 19 be 1a d2 4c be 07 44 e7 bd
       0.1411084 -0.150378 -0.20002022 -0.11292272
000250 8b 2f aa 3d 47 fb 96 be c6 a2 7f 3e e7 06 ce 3d
       0.08309849 -0.29488584 0.24964437 0.1005991
000260 c5 16 10 bb cf 29 48 3d 5b a5 5c be 43 72 9c 3e
       -0.0021986228 0.048867997 -0.21547453 0.30555925
000270 5e a9 55 3f 02 e7 6c be 18 63 e0 3e ad 2a 50 be
       0.8346156 -0.23134997 0.43825603 -0.2032878
000280 af b6 e9 bc c0 9e 87 bc e2 16 3f be 13 5e 61 3e
       -0.028529493 -0.01655519 -0.18661073 0.22008543
000290 7b 08 a0 bd b5 e5 05 3f 02 31 08 3f 18 d3 a3 bd
       -0.078141175 0.5230363 0.5319978 -0.07999247
0002a0 1f 42 d1 3d 9e dc 94 be f9 d2 52 3e e7 13 96 be
       0.1021769 -0.29074568 0.20588292 -0.2931206
0002b0 44 e9 9f 3c d6 27 ec be d1 93 9d be 0e 32 5f be
       0.01952041 -0.46124142 -0.30776837 -0.21796438
0002c0 87 5b 79 3d 0f 3d a7 3d e6 6c 2a be b4 1a 50 3e
       0.060878303 0.08165943 -0.16643104 0.20322686
0002d0 5d 4c 67 3e 59 b6 a7 bc 33 b9 8e be 6f b8 a0 3e
       0.22587724 -0.020472692 -0.2787567 0.31390712
0002e0 13 d9 f7 39 12 c2 6a bd 35 a4 bd bc 80 fc 01 3e
       0.00047273244 -0.057313986 -0.02314959 0.12693977
0002f0 9f f4 b2 be 49 b5 9f 3e 9f 04 9d 3d e2 f1 07 be
       -0.34952256 0.31192997 0.07666897 -0.13275865
000300 e6 d4 43 be 8b 31 0a 3f 4e 25 b7 3d 97 a6 9c be
       -0.19124183 0.53981847 0.08942662 -0.30595848
000310 af 1c 79 bd ae b9 e2 3e 8e 8a d3 be 05 1f ac bc
       -0.06081837 0.44282287 -0.41316646 -0.021010885
000320 87 69 51 be 1b f6 31 bd 0b a5 ff 3e dc f2 bf 3e
       -0.20450412 -0.043447595 0.49930605 0.37489974
000330 2e 4a f9 3c 73 ad 9c 3e 43 0f 98 3c d6 0c e9 3e
       0.03043088 0.3060108 0.018561965 0.45517606
000340 8e 3f b7 3c 5a 93 80 3e cd 0e a0 be 10 ad 1b 3d
       0.022369172 0.2511242 -0.31261292 0.038006842
000350 ab 15 1b 3d 50 de ec 3d d9 2f 4f 3e d9 51 2e be
       0.03786246 0.1156584 0.20233096 -0.1702341
000360 3e 02 59 3d 86 44 bf 3c c4 96 10 bd 15 b1 63 be
       0.052980654 0.023348104 -0.03530003 -0.2223552
000370 6d 0d 7a 3e d0 e7 0d bd 0b f2 3b 3d c9 a7 04 3e
       0.24419184 -0.0346449 0.045885127 0.1295463
000380 b3 4b aa 3b f5 08 4c 3f 5d 5c ad 3e ca 46 ca 3e
       0.0051970123 0.7970117 0.3385953 0.39507133
000390 03 c8 0f 3e 1d 9a de be 36 a8 5c 3e 71 0c 58 3f
       0.14041142 -0.43476954 0.21548542 0.84393984
0003a0 3a 9f 2d 3e 09 7e ea 3d 76 18 5c be 80 b3 6f bd
       0.16955271 0.114498205 -0.21493706 -0.058520794
0003b0 13 e4 95 3c cf 48 93 3e 01 ee 6e be fa 0b d3 bd
       0.01829723 0.28766486 -0.23332979 -0.10305019
0003c0 17 6a e7 3e 4e 19 80 3d 0b 72 b8 3e bf 0d 18 3f
       0.45198128 0.062548265 0.36024508 0.59395975
0003d0 f5 92 97 3e 08 69 6d bd 19 34 ca 3e f7 7a 47 bc
       0.29604307 -0.057961494 0.39492872 -0.012175313
0003e0 28 2e 20 3d b9 b6 91 b9 02 f7 e9 bc d5 99 75 be
       0.039106518 -0.00027792694 -0.028560165 -0.23984464
0003f0 7a ae 1f 3f fa cc 58 3e 14 68 c2 be 41 a6 e8 3c
       0.62375605 0.21171942 -0.3797003 0.028399589

action_model._discrete_distribution.branches.3.bias f4 [2]
000000 d5 3b 1a bd fc 3b 1a 3d
       -0.037654717 0.03765486

98 f4 [11]
000000 62 de 20 40 76 92 2b 40 3d bb 89 40 c0 b3 8c 40
       2.5135732 2.6808143 4.304106 4.396942
000010 57 58 bd 41 6a 86 84 3e 26 64 87 3e 53 f1 fd 3e
       23.668135 0.258838 0.26443595 0.49598178
000020 85 fd 8b 3e 94 78 96 3e cc c5 f0 3e
       0.27341858 0.2938887 0.47025907
