results/Imitation/Hero Knight Behavior/Hero Knight Behavior-1499915.pt (torch, 552039 bytes, 67 tensors)

network_body.observation_encoder.processors.0.normalizer.running_mean f4 [11]
00000000: 5981 36c0 6274 9940 4df0 4d41 b972 4541
00000010: 7937 4a42 f229 b03d f0ba 913d 5f38 e33e
00000020: 95d6 b33d bc15 f13d 35de c13e
-2.8516448 4.795457 12.871167 12.340508 50.554173 0.086017504 0.071157336 0.44378945
0.08781163 0.11771724 0.37864843

network_body.observation_encoder.processors.0.normalizer.running_variance f4 [11]
00000000: 6063 f84a 3c24 174b a8fe a04b 98b4 ba4b
00000010: 70b1 4f4e 0351 e647 3fa0 c147 0ec8 b448
00000020: a5a8 ea47 8421 1848 894f ac48
8.139184e+06 9.905212e+06 2.1101904e+07 2.4471856e+07 8.7112806e+08 117922.02 99136.49 370240.44
120145.29 155782.06 352892.28

network_body.processors.0.normalizer.running_mean f4 [11]
00000000: 5981 36c0 6274 9940 4df0 4d41 b972 4541
00000010: 7937 4a42 f229 b03d f0ba 913d 5f38 e33e
00000020: 95d6 b33d bc15 f13d 35de c13e
-2.8516448 4.795457 12.871167 12.340508 50.554173 0.086017504 0.071157336 0.44378945
0.08781163 0.11771724 0.37864843

network_body.processors.0.normalizer.running_variance f4 [11]
00000000: 6063 f84a 3c24 174b a8fe a04b 98b4 ba4b
00000010: 70b1 4f4e 0351 e647 3fa0 c147 0ec8 b448
00000020: a5a8 ea47 8421 1848 894f ac48
8.139184e+06 9.905212e+06 2.1101904e+07 2.4471856e+07 8.7112806e+08 117922.02 99136.49 370240.44
120145.29 155782.06 352892.28

network_body.linear_encoder.seq_layers.0.weight f4 [128, 11]
00000000: 0b0e 50be 01fd 2c3e 7bd3 c6bd ab27 abbe
00000010: 9317 233f d8f2 54be 6760 383e bd9a 013f
00000020: dab5 6dbe 3796 08be 1794 963e 51da 1fbf
00000030: 144a 77be 41d6 aa3d 74f9 15bd ff3f fc3c
00000040: ace0 a0bd 593d f93d 1c0d bf3e 3d50 0a3d
00000050: d61f 03be 10a6 62be 7f33 0b3f 9433 29bf
00000060: cdc2 abbe 8b29 b0bd a047 8d3e c104 aabe
00000070: 4028 80be 8ee0 b6be f741 a9be b7be aabb
00000080: 67d2 213d 931d 2a3f 3694 a5be 2c70 853d
00000090: 05ea f0be e1c8 49be 6513 bbbe 0efb 59be
000000a0: bdf9 a7be 61c1 bcbe 28e9 1bbd 631c 8d3d
000000b0: a1ba 77be 24e5 f6be 262d 253f af00 23bd
000000c0: 95b7 e9be 0cd5 573e 89a6 213e e437 04bd
000000d0: d5da aebe fe7f 03be bf3e ccbe b71e 3bbe
000000e0: 49da 8e3e 0bcd fc3e 243d 0b3e ee8a 3b3d
000000f0: ca7e 0cbf 527e 70be 3774 0b3f 6e9d c6be
00000100: 1715 06bf 120b d6be 3bd6 e53e 2625 67be
00000110: 7ff1 19bf 1860 a13e 134a 1b3f 2cde 2bbe
00000120: f8e5 a6be 55e1 d23d 821b 27bd 3ae7 aa3e
00000130: 4c65 c03e 29a7 ec3e ac01 62bd c155 ebbe
00000140: 5119 b33e 9b05 30bf f45e 783e 945e bb3e
00000150: 92be e0be 7df5 863e 35d6 a53d 28f9 663d
00000160: 4904 efbe 844b d0be 3def 1e3f 2b44 c43d
00000170: b64a f73d d10f aabe 3d5d 82bd 3b26 f83d
00000180: 9423 a53e f034 60bf 30c6 cd3e 53e2 853d
00000190: 6761 e53c 1e28 933e 47a0 aa3e 70da 413e
000001a0: 6fb2 eebc 3b85 163c e1a5 9dbe d4c8 6e3e
000001b0: 0e80 cfbe eeef 873e 3bcb 34bb c6df a3be
000001c0: 047b e5bd 6f5a 1e3f 8565 20bd a443 47bf
000001d0: d726 10bf cf8b a63e 1e61 49be 66f5 483e
000001e0: f9da 323e 0661 6c3c 861c 0abf beee 53bd
000001f0: 2ec7 92bd 45eb 263f abc6 8abe 01fb 813d
00000200: 6ae0 983e 79c0 7e3e a55b 9ebd cf00 0abe
00000210: 72e5 76bf cc15 2d3f 1542 a83d a57a 87bf
00000220: 7a51 d5bb 716c 2bbd b991 3d3e de1b 953e
00000230: c2fc 2bbe 11dd 2fbe 6a02 4fbe 0a26 04bf
00000240: 7a63 8cbe 056d d23e c5d3 9abd fee8 5abf
00000250: 2758 783e 7089 1e3e 1a2e 00bf a778 443f
00000260: 336e 8b3e dcdd 4dbc 2497 bfbe a103 10bf
00000270: 04f2 3e3e 5c65 e2be c9da 0dbd 89a6 993d
00000280: 745f fa3d e1a7 f9be 2761 d3be a35a 07bf
00000290: 464a 0a3f 4c5d 10bf 8401 8a3e 4fa2 75bf
000002a0: d4c4 3e3e c96f a73d 95a6 43be ca95 a93d
000002b0: 16cc 95be 00c7 95bd ebe5 3abe 68dd 34be
000002c0: 34af 23be ef4e 953e b8b6 e53d f54b 1abf
000002d0: 985e 9f3d d694 12be 5207 303e e1e3 fd3d
000002e0: 1c73 90bd a1e6 ccbd 2d22 d9bc 7129 9d3e
000002f0: f87a 09bf 3d4f 113d 36ce 933d ee42 2d3f
00000300: 424d 033d 53a0 c6bd 6054 fabd 4a82 a03c
00000310: 737a 0dbd 2268 47bd 1d5a e5be 087f 13bf
00000320: 2c99 f5be 107a 2dbf 9e66 163e 16fd b2bd
00000330: ab40 9abe 6d87 a43c 36fc 73be 880a 403e
00000340: fdaa 923e ea21 2d3e a930 253e 335c 403f
00000350: d68d 1dbe 7f8e 26bf 2bac 55be 8f8b 18bf
00000360: ee3e 633e b66e 2d3e 8f0b edbd 8a09 cebc
00000370: e4db 23bf e706 61be aba9 b33d c836 70be
00000380: 6164 87bf cce7 01bf 33a2 bb3b bf10 053f
00000390: 3afe d73b 127f dc39 80c1 83be 8354 bf3e
000003a0: d2d0 3dbe d954 ddbe 1b60 f3be ab67 c13e
000003b0: a279 37bf 11df 8f3e 13a6 913e da60 8b3d
000003c0: 94b1 823e 0a75 313e 3b91 913e f8dd e1be
000003d0: 4502 6b3e 4d00 3abf 5f0c 31bf a22b 453c
000003e0: 4457 cbbc f947 49bf 2dc6 9abe b03d 6e3e
000003f0: 4841 e03d 5e66 ae3e 6f55 62be 5ea9 3abf
-0.20317857 0.16893388 -0.097083054 -0.33428702 0.63707846 -0.20795763 0.18005525 0.50626737
-0.23213902 -0.13338552 0.2940986 -0.624425 -0.24149352 0.08341647 -0.03661485 0.030792234
-0.07855353 0.12169904 0.3731469 0.033767927 -0.12805113 -0.2213366 0.5437545 -0.66094327
-0.3354706 -0.08601674 0.27593708 -0.33206752 -0.25030708 -0.35718197 -0.3305814 -0.0052107233
0.039507296 0.66451377 -0.32339638 0.06515536 -0.47053543 -0.19705535 -0.36538234 -0.21287176
-0.32807723 -0.36866286 -0.038064152 0.0689018 -0.24192287 -0.48221695 0.64522016 -0.039795574
-0.45647874 0.21077365 0.15786184 -0.032279864 -0.3415133 -0.12841794 -0.3989162 -0.18273436
0.27900913 0.49375185 0.13597542 0.04578679 -0.54880965 -0.23485687 0.54474205 -0.38791984
-0.5237593 -0.4180532 0.44890007 -0.22572765 -0.6013412 0.31518626 0.60659903 -0.1678397
-0.32597327 0.10296885 -0.040797718 0.33379537 0.37577283 0.46221283 -0.055177376 -0.45963863
0.34980252 -0.68758553 0.24254972 0.36595595 -0.43895394 0.26359168 0.080974974 0.056389958
-0.46682957 -0.40682614 0.620838 0.095833145 0.12074797 -0.33215192 -0.0636544 0.12116667
0.32253706 -0.87580776 0.40190268 0.065373085 0.028000547 0.28741544 0.33325407 0.18930984
-0.029137818 0.009187038 -0.30790618 0.23318797 -0.40527385 0.2655024 -0.0027586955 -0.32006663
-0.11205104 0.6185674 -0.039159317 -0.77837586 -0.56309265 0.3252854 -0.19665954 0.19624862
0.17466344 0.014427429 -0.53949773 -0.051741354 -0.07166897 0.6520274 -0.27104697 0.06346703
0.29858714 0.2487811 -0.077323236 -0.13476871 -0.96443856 0.67611384 0.08215729 -1.0584303
-0.006509957 -0.041851465 0.1851262 0.29122823 -0.16795638 -0.17174174 -0.20215765 -0.51620543
-0.27419645 0.410988 -0.07559923 -0.8551177 0.24252377 0.15482116 -0.50070345 0.767466
0.27232513 -0.012565102 -0.3742 -0.5625554 0.18647009 -0.44217956 -0.034632478 0.07502467
0.122252375 -0.48760894 -0.4128506 -0.52872676 0.5401958 -0.5639236 0.2695428 -0.9595079
0.18629771 0.08175618 -0.19106515 0.08280523 -0.29257268 -0.07313347 -0.18251769 -0.17662585
-0.15984803 0.29161784 0.112164915 -0.6027215 0.07781714 -0.14314589 0.17190292 0.1239698
-0.07053205 -0.100049265 -0.026505554 0.3069568 -0.5370326 0.03547596 0.07217066 0.6768025
0.0320561 -0.09698548 -0.122231245 0.019593377 -0.034540605 -0.048683293 -0.44795313 -0.5761571
-0.47968423 -0.6776438 0.14687583 -0.087396786 -0.30127463 0.020084107 -0.2382668 0.18754017
0.2864608 0.16907468 0.16131844 0.75140685 -0.15386137 -0.6506118 -0.20866458 -0.5958795
0.22191975 0.16936764 -0.1157447 -0.025151033 -0.640074 -0.2197529 0.08772596 -0.23458397
-1.0577508 -0.5074432 0.0057261228 0.5197868 0.0065915855 0.00042056345 -0.25733566 0.37369165
-0.1853669 -0.43228796 -0.4753426 0.37774405 -0.7166997 0.28099874 0.28447017 0.06805582
0.25526106 0.17329803 0.28431115 -0.4411466 0.22950085 -0.7265671 -0.691595 0.012034329
-0.024821885 -0.78625447 -0.3022932 0.2326572 0.109499514 0.34062475 -0.22102903 -0.72914684

network_body.linear_encoder.seq_layers.0.bias f4 [128]
00000000: ff7f d83c ce93 46bd 0ca8 9abd 1790 013d
00000010: 6066 c5bd 110a 973d c11c cdbc c5a7 143c
00000020: 07ed 4cbd bc85 17be 2980 e53d 5731 e7bd
00000030: ead2 28bd 34df 1d3e 988e 733c e901 eb3d
00000040: 192e 7f3d e05a 26bd 411d 563e 8e35 483d
00000050: 7938 8c3c 1706 cf3d 89d6 f63d 38f2 093d
00000060: d912 bb3d 4661 19bd a921 6f3d 58f0 19ba
00000070: 5569 a9b7 2ce2 77bd bac3 21be 1057 d73d
00000080: cb40 babd 011f 20bc ad13 8f3e 3ba7 c53d
00000090: 5f41 38bd 7e20 603d d94a 153d f924 0cbe
000000a0: 9f65 013e c9c6 8fbc db7d 643d 8bbb d7bd
000000b0: 2bad 7bbd 351e 713e c4e5 31bd 7361 0f3d
000000c0: 93be 38bd 27e2 06bc eeb1 133d 37cc 153e
000000d0: c73d 1ebe 2bf6 403d fd05 d53c 5e79 433d
000000e0: b2b5 d4bc 4ee9 953b c7b0 c3bd 6624 6e3b
000000f0: c718 ddbb 77ff b4bd 83df a93b 32f5 fdbc
00000100: 2d3a 3bbd 5641 fdbd 358e 03be e286 d03c
00000110: 0d32 2ebd 1fa1 0b3d 4086 b1bd 84a8 413d
00000120: 1b4c 5fbc 4544 a1bc 2def 193d 0570 e0bd
00000130: d538 33bd f08e 933b aa8d 283d 2ab4 22be
00000140: 10cb 5b3d 7071 df3d 341d 1ebe bfc8 08bd
00000150: 58f1 d73d 7924 62be 5816 163e a40e 8a3c
00000160: b48a cbbd 8752 b5bd 1c89 763d 8592 893d
00000170: 7df8 a1bd bb86 f93d e1ef 1f3d 1d6f 243d
00000180: a47c f83d fb52 a73c 8b09 10be 5d24 0b3e
00000190: dfd9 8fbc 7292 183e adab e73c e356 bcbc
000001a0: 630f 9bbd 65bd bb3d c262 073e d138 0fbe
000001b0: 7a37 15bd e6b7 f2bd 7448 5e3e cf9c fabc
000001c0: 1f8b 263c ac7b 253d 2a9e 34be 3e92 bf3d
000001d0: 3a2a aabd 589f 7f3d 62d8 0f3d d79e 0dbc
000001e0: 5613 01be 1080 04bc 355a dd3d 2b37 83bd
000001f0: c781 953d 5076 5dbd 1fd3 e1bd 3e53 3a3c
0.02642822 -0.0484808 -0.07551584 0.031631555 -0.09638667 0.07374967 -0.025038125 0.0090732025
-0.050030734 -0.1479711 0.11206085 -0.11288708 -0.04121677 0.15417176 0.01486554 0.11474974
0.06229982 -0.04061401 0.20909597 0.0488792 0.017116772 0.101085834 0.12052638 0.033678263
0.09134454 -0.037446283 0.05838171 -0.0005872301 -2.0195419e-05 -0.06051843 -0.1579732 0.10514653
-0.090943895 -0.009773017 0.279447 0.09651037 -0.044984218 0.054718487 0.036448333 -0.13685979
0.12636422 -0.017550843 0.055784088 -0.10533818 -0.061444443 0.2354668 -0.043432012 0.035005044
-0.04510362 -0.00823263 0.03605836 0.14628683 -0.15453254 0.047109764 0.026003832 0.047723167
-0.025965545 0.004574931 -0.09555202 0.0036337613 -0.0067473385 -0.088377886 0.0051841154 -0.031000707
-0.045709778 -0.123659775 -0.12847216 0.025454942 -0.0425282 0.034089204 -0.08668184 0.04727985
-0.013628985 -0.019685874 0.03758161 -0.10958866 -0.04375537 0.0045031235 0.041150726 -0.1588904
0.053660452 0.10910308 -0.15440828 -0.03339457 0.105440795 -0.22084226 0.14656961 0.016852684
-0.09938565 -0.088536315 0.06018935 0.067173995 -0.079087235 0.12183901 0.039047126 0.04014503
0.12133148 0.02042531 -0.1406614 0.1358809 -0.017559944 0.14899614 0.028280104 -0.02299065
-0.07571294 0.091669835 0.13221267 -0.13986517 -0.03642986 -0.11851482 0.21707326 -0.03059235
0.010165005 0.040401146 -0.1763846 0.09354065 -0.08308835 0.06240782 0.035118468 -0.008643827
-0.12605032 -0.008087173 0.10808221 -0.06407007 0.07300144 -0.05406791 -0.11026596 0.011372386

network_body.linear_encoder.seq_layers.2.weight f4 [128, 128]
00000000: 3740 80be b030 a9be 3faa f83d 4f7e 75be
00000010: 8af7 55bd a0fe 95bd 6d1f 8f3d 37c1 ffbd
00000020: 5516 033d 6048 b63d 3af0 8cbe 19b1 583c
00000030: 15a6 1f3d 125f f8be 5aa8 b93b 6a00 02bf
00000040: 2470 7abe 6b35 623e b3a2 3ebf 723c 4dbd
00000050: 8da2 1ebe 9753 f7bd 4737 c2bd b280 acbe
00000060: ba8d fdbd 4ed4 7bbd 8a95 e4bd 6217 59be
00000070: e9fb 8dbe b31b 71be d5bb 55bd 389c 59be
00000080: a391 683e e56f 0ebe 3e4a 86be ed5f 48be
00000090: 9895 2cbe fd51 123e 94ce 8ebe 0ae5 823e
000000a0: 24e4 d4be 064f 3f3e aa33 debe fc69 0a3e
000000b0: b1fd 34bd b637 f0be 2c41 08be 05f7 51be
000000c0: 7b77 71be 21a5 693e 6d71 aabe c901 353d
000000d0: 2551 d93d 5fd1 7fbe 5cae d4be 73a8 17bd
000000e0: 1e4d 95be 5c51 83bc efe4 a83b d78e b8bd
000000f0: 0cd9 a0be 4bd5 0fbe 3c12 85be a494 573e
00000100: 2dff a7bd dd73 66be befe cc3d 63be 6bbe
00000110: 468a 82be bc0b 0cbe c934 44bd 27e2 21be
00000120: d588 06be c248 51bf 8cef 6dbe 9517 7dbe
00000130: 66d1 c63d 72fc d8bd 34b3 06bf 344c 7b3e
00000140: d16f edbe abc9 b1bd beb0 08be 82a3 8bbe
00000150: 80cc 8bbd 3820 973e 8a0e 2c3c abb1 fcbd
00000160: 13bf ddbe 1590 b73e 51b6 2ebe 1857 aa3e
00000170: cd4c 53be 6b59 a3bd b930 b4be 5f09 3ebe
00000180: 0931 263d 52e8 c5bd 1d38 673e ec7f d13a
00000190: 43bf a1be 3b6b e7be aa8b 063d 2120 9ebe
000001a0: d655 313e 8fe0 08be 449f 91bb 3c99 e4bd
000001b0: 288b 55bd 9ce0 853c 8a0f 743d 198f 89be
000001c0: 60e4 113e 8d80 b5be 5d49 063e 4ba9 fcbe
000001d0: 1f13 a53e 2d92 81bd 3333 25be 7579 dfbd
000001e0: d892 383e 2abf ad3d 1a3c 07be b424 6bbc
000001f0: bb9c 5a3e 5600 e7bd 5a6d 72be 5337 4abc
00000200: 5245 703d 0c84 393d 0382 83be 68ee c0bd
00000210: 2f8b c7ba 552c ddbe 4909 43be 8cc5 81bc
00000220: 4981 80be 215f 46be dc3f f3bd 280c 73be
00000230: f9c4 493c 06b5 0f3e a55a 19bd 8e20 1a3e
00000240: 5d53 a33d 8514 9dbe aca9 60be 5d10 4abe
00000250: dfd8 053e 29d3 6fbe 2914 b1bd c3e7 973b
00000260: 8450 83bd 468b 52bc 7be0 86be 4de7 d5bd
00000270: 82ea 8ebd 216f e4bd d672 de3b a830 1b3d
00000280: 8837 c6be 04f5 fd3c 9019 d03d 0d1f a33c
00000290: c5ff c4bd bde2 83be fef3 523d 8073 e9bd
000002a0: cb87 423d 0e05 fbbd 1fba adbc c477 753e
000002b0: 80ce 7bbc aa58 17be 66fb b03c 0c10 72bb
000002c0: 670e f9bd a7de e83d 7f4e fabd 12ab b3bd
000002d0: 7095 173d 16b3 893d 566d 1dbe 08c6 94be
000002e0: 960b 53bd fcaa 31be f36c c2bd 125d 05be
000002f0: a8b0 093e 24b9 65be 0be6 a3bc 7545 3f3e
00000300: 1075 4d3e bd51 91bc e06d ed3e 3581 13bd
00000310: 343a 28bd c134 0c3e 0521 d43d f241 71bd
00000320: 5a66 66be d963 9ebe 47f6 8cbd 13a7 4dbe
00000330: adb0 093e 724c a73d df74 01be aca0 8d3d
00000340: 55e4 313e 12ec e4bd 0ac7 6abd 42e9 cbbd
00000350: 478d bdbe 9ddc 9ebd b4fb e63d 5d6d 96bd
00000360: 13bb ad3c 1175 4fbe 5ab9 d9bd d4e8 fe3c
00000370: 63c9 363d 7adc 28be 3f80 9abe b574 59bd
00000380: 0a6a 663e 50c2 12bc 036e 96bd 5adb 77bd
00000390: 42c1 2dbc 945c f6bd 26d7 753e 561c 923d
000003a0: df15 91be d8e8 62bb 0207 bcbe 07e0 c1bc
000003b0: 8b6f 8f3d 6b74 dc3d 23c6 83bd c145 d63d
000003c0: d359 4dbe a5ff 57bd 1045 95be 5c7b c8bc
000003d0: f360 9b3e 9865 123e c712 b4bd b4ec 18bd
000003e0: aef7 53ba 6a4c a4bc caaa cd3c 8179 19be
000003f0: 3db0 3e3e 51cc 3ebe 2fd8 d5bb cdd7 c83c
-0.25048992 -0.33044958 0.12141847 -0.23973964 -0.052238025 -0.073239565 0.06988416 -0.12488025
0.03200372 0.08900523 -0.27527028 0.013225817 0.038976748 -0.48510033 0.005665821 -0.5078188
-0.24456841 0.2209069 -0.7446701 -0.050106473 -0.15491696 -0.1207649 -0.094831996 -0.33691937
-0.12380548 -0.061481766 -0.11161335 -0.21200326 -0.27731255 -0.23545723 -0.052181084 -0.21250999
0.22711806 -0.13909872 -0.26228517 -0.19567843 -0.1685394 0.14289089 -0.27891982 0.25565368
-0.41580307 0.18682489 -0.43398792 0.13516992 -0.04418725 -0.46917504 -0.13306111 -0.20504387
-0.23580734 0.22816898 -0.33289662 0.044191156 0.1061118 -0.24982212 -0.41539276 -0.03702588
-0.29160398 -0.016030006 0.005154244 -0.090116195 -0.31415594 -0.14046209 -0.25990474 0.21052796
-0.08202968 -0.22505136 0.10009526 -0.23021846 -0.2549612 -0.13676351 -0.047901902 -0.15808927
-0.13138135 -0.81751645 -0.23235911 -0.24716027 0.09707908 -0.10595025 -0.5261719 0.24540788
-0.46374372 -0.08681043 -0.13348672 -0.27273184 -0.06826115 0.29516768 0.010501513 -0.12338575
-0.4330984 0.35852113 -0.17061736 0.33269572 -0.20634766 -0.079760395 -0.35193422 -0.18558262
0.040574107 -0.09663452 0.2258 0.0015983558 -0.31591234 -0.45198998 0.032848038 -0.30883887
0.173179 -0.13366912 -0.004444035 -0.1116204 -0.052134663 0.016342454 0.05958513 -0.26866987
0.14247274 -0.3544964 0.13113923 -0.4934791 0.3224115 -0.06326709 -0.16132812 -0.10911838
0.18024766 0.08483727 -0.1320652 -0.014352012 0.2134885 -0.11279361 -0.23674527 -0.012342292
0.05865986 0.045291945 -0.2568513 -0.094204724 -0.0015223975 -0.43197885 -0.19046511 -0.015841268
-0.25098637 -0.19372226 -0.118774146 -0.23735106 0.012315028 0.14033899 -0.03743996 0.15051481
0.07974885 -0.30679718 -0.21939725 -0.19732805 0.13071011 -0.23420395 -0.08646423 0.0046357824
-0.064118415 -0.012850588 -0.2634314 -0.10444508 -0.069783226 -0.11154009 0.006788592 0.0378882
-0.38714242 0.031000622 0.10161126 0.019912267 -0.09619097 -0.25758925 0.05150222 -0.11398983
0.047492784 -0.122568235 -0.021206914 0.23971468 -0.015369058 -0.14779916 0.021604251 -0.0036935834
-0.1216095 0.113705926 -0.12222003 -0.087728634 0.03700775 0.06723611 -0.1537374 -0.29057336
-0.05152472 -0.17350382 -0.09493437 -0.13023785 0.13446295 -0.22433907 -0.020007154 0.1867884
0.20064187 -0.017739171 0.4637289 -0.036011893 -0.04107113 0.13691999 0.103578605 -0.05890078
-0.22499982 -0.30935553 -0.06882911 -0.20083265 0.13446303 0.08168878 -0.12642239 0.06915411
0.17372258 -0.11177839 -0.057318725 -0.099566 -0.3702185 -0.077569224 0.11278477 -0.07345078
0.021207368 -0.20259501 -0.10631056 0.03111688 0.04462565 -0.16490355 -0.3017597 -0.053089816
0.22501388 -0.0089574605 -0.07345202 -0.060511924 -0.010605158 -0.120293766 0.24007854 0.07134311
-0.28337 -0.003462365 -0.36724097 -0.023666395 0.07003697 0.107643925 -0.06434276 0.10462523
-0.20053796 -0.052734036 -0.29154253 -0.024472885 0.30347404 0.14296567 -0.08792644 -0.037335113
-0.00080859184 -0.020055968 0.025105853 -0.14987756 0.18621917 -0.18632628 -0.0065260152 0.024516964

network_body.linear_encoder.seq_layers.2.bias f4 [128]
00000000: 316a c6bd a530 7abd 8373 01be 0315 483e
00000010: a1fd c1bc f7eb dfbd a049 bdbc 44b7 c03d
00000020: 7e4b 3bbe 5932 bdbc b232 273d 318d 46bd
00000030: d8a9 82bd 5838 a5bc 4ac3 abbd e5d6 b7bd
00000040: 08f6 47bd bf02 9cbd b931 6bbc 1ea2 94bd
00000050: ffc3 bb3d d1df 9fbb 4e73 c1bd 9b81 58be
00000060: 70d9 0bbe a6c2 0ebd f0f9 e8bb e2f1 873c
00000070: 333c 5bbd 0ec5 72bd f19c 0ebe 897b f1ba
00000080: 0a23 44bd 94ac efbd 1a27 bdbc 7e5d 11be
00000090: 0c9b 59bd f08c 45be ea9c 24bd 8b0d 02bd
000000a0: e4de 0d3d 2546 d83c 3e99 04be fae2 1abe
000000b0: 128b 8a3b df2e 973d f7b6 3dbd 52ab 7ebd
000000c0: 0b98 62bd 833c bd3b 75d8 22be f518 64bd
000000d0: 1a5d 633b e95c 67bd 173c 52bd df09 43be
000000e0: d091 8fbd 548e 013d c49d e139 9636 0bbd
000000f0: e03f 67bd 7f32 6dbd 394d a3bd 5f51 f7bc
00000100: 6e17 a2bd 216e abbd 2f40 653d 8f4b 5e3d
00000110: e838 2bbc cdd4 1ebe 0cec 4b3d ef51 a13d
00000120: 10f5 bbbd 3d7a 3ebd 98f9 5fbe c374 d7bd
00000130: 23f3 7ebd be60 02bd b508 1abe 52b1 82bd
00000140: 7cfa b9bd cb07 05be bb2b 223d 8475 14bd
00000150: 2ff7 52bd 9450 d6bd be86 883d 4044 1bbe
00000160: 16eb 443a c3fe b93d c316 8f3d ad6e bdbd
00000170: 2143 a8bd ae3d c3bd ae9c 01be cab0 0c3e
00000180: 58b8 a8bd 4e95 263b 86d5 28be 9424 9bbb
00000190: 3725 87bc 0b3d 2ebd 441e 20bd ae53 0ebe
000001a0: 98e1 7dbd 09dc 3fbd 65c4 5fbc ede8 1fbd
000001b0: 13cb cfbc c080 b0bc 47ee cdbd d493 a73d
000001c0: bd4b 27bd c761 84bd 4948 93bc 7020 9bbd
000001d0: e045 18be c9a5 74bd d866 70bc caaf c23d
000001e0: 0237 07bd 4252 063d cd69 63bd 2340 e23c
000001f0: 1eac 1ebe 2e75 0f3d fb02 4bbd e3ac a7bd
-0.09688223 -0.061081547 -0.1264172 0.19539265 -0.02368051 -0.109336786 -0.023106396 0.09409955
-0.18290517 -0.023095297 0.04081983 -0.048474494 -0.063800514 -0.020168468 -0.08386858 -0.08976535
-0.048818618 -0.07617711 -0.0143551165 -0.07257484 0.09168243 -0.004878976 -0.09445821 -0.2114319
-0.13657165 -0.0348536 -0.007109873 0.01659483 -0.053524207 -0.059269957 -0.13927056 -0.0018423657
-0.04788498 -0.117028385 -0.023089934 -0.1419582 -0.05312638 -0.19292045 -0.040188707 -0.031751197
0.034636393 0.026400635 -0.12949082 -0.15125647 0.0042280043 0.07381987 -0.046317067 -0.062175103
-0.05532078 0.005775036 -0.15902884 -0.055687863 0.0034692944 -0.05648509 -0.051326837 -0.19046734
-0.070102334 0.031629875 0.0004303289 -0.033987604 -0.0564574 -0.057909485 -0.079737134 -0.030190168
-0.07914625 -0.08370615 0.055969413 0.054271277 -0.010450579 -0.15510865 0.04978566 0.07876956
-0.09177601 -0.046503294 -0.21872556 -0.105203174 -0.062243592 -0.03183054 -0.15042384 -0.063814774
-0.09080979 -0.12991254 0.039592486 -0.036244884 -0.051505264 -0.10464588 0.06666325 -0.15162754
0.0007511837 0.09081795 0.06986763 -0.09249625 -0.08215929 -0.09533249 -0.12657425 0.13739315
-0.08238286 0.0025418582 -0.16487703 -0.004734585 -0.016497238 -0.042538684 -0.039091364 -0.13899109
-0.06198272 -0.0468407 -0.013657664 -0.039040495 -0.025365388 -0.021545768 -0.100552134 0.08182493
-0.040843714 -0.06463962 -0.017978804 -0.07574546 -0.14870405 -0.059728418 -0.014672957 0.09506185
-0.033011444 0.03279329 -0.05552082 0.027618473 -0.15495345 0.03502386 -0.04956339 -0.081872724

action_model._discrete_distribution.branches.0.weight f4 [3, 128]
00000000: dbf3 8fbb 6ed9 d9bc 163d 753d 57f9 39bf
00000010: e41c 1dbe 5e18 90bc fb3f ba3a b031 983c
00000020: cf86 13bd e58a 373d f00d 5a3e ef4c 023e
00000030: 7529 9e3b 92dc 6bbd ce06 ef3d 1d3a ed3c
00000040: 1f22 09be 22f6 3dbe b0cd 3dbe 49c1 fabd
00000050: dd29 e7bd 38db 1dbe e10a 75bd 7e65 b73c
00000060: 2914 5c3b fc2d 9d3c a042 fc3d d0b7 44be
00000070: 9bff 95bd 4040 4d3d 7acb 323e 055f 10bd
00000080: 6300 a2bd 053e 553d 7427 953d 5236 963e
00000090: 87b9 c5bd 395b 90bd 7129 0e3e 39c3 5ebd
000000a0: 68fe 1c3d 5bb5 163e cfd5 2e3e 68a0 2439
000000b0: e1b6 5c39 d15b 1a3d a0e2 d8bc 242f b03d
000000c0: 6d9e 52be 76f2 cfbd acea bebd d581 313e
000000d0: 1371 3d3e 9fd7 87bd 7446 963c dc2b 9f3d
000000e0: c969 933d 299b 91be b772 08be ec12 123e
000000f0: 42e8 8b3d 3d3b ccbb a90d 953d 7919 96bd
00000100: 91ee f13c de22 5c3e b238 e2be d4c2 433e
00000110: 487d 5dbd 0e13 01be 394d adbd f549 b0be
00000120: 7b59 b33a 980a 6dbd d207 33bd e697 a5bd
00000130: 1891 17be 2132 bb3d 3f18 4c3e 0003 66ba
00000140: adab c2bc e36e 523d 2f39 04bc 68ac 363c
00000150: 7ae9 84be 1fb0 c1bc b8f3 7fbe 4922 ba3c
00000160: a4c7 73bd 4690 04be 9ad9 bfbc 24e5 c6bd
00000170: 5029 b4bd 251e 8d3c 2f8e 19be c878 19be
00000180: 622f 123e 39a2 a7bd 0d53 cc3c 1c30 b33e
00000190: cbaa ad3e c270 f73d d201 603d 54cf ca3d
000001a0: 1214 4dbd 05e1 99be 9b69 0e3d 4e8e 4bbe
000001b0: c686 043c 5386 833e 4748 933d 1f37 babe
000001c0: 744b a3be 339d 283d 57c4 86bd c32b fdbd
000001d0: 1652 5bbd d170 5dbd e2be 19bd 1d34 82bd
000001e0: 2039 0c3e 6ff9 1dbd c693 013d 084b 373d
000001f0: 2261 253e 86a8 6b3e 96a7 413e 8942 de3d
00000200: c033 24be 005a 8abd 2486 1a3e bc86 b4bd
00000210: 1c2e c43c bb58 f138 e849 9f3c c325 23bf
00000220: 0bae dc3d bc18 16be 8bdb 66bd ade4 edbd
00000230: 974a 72bd 2141 ae3d d371 473e 80f2 e03d
00000240: 6d8f 693d 1735 583e 93bd 9abc 5129 d23c
00000250: 3b89 c5bd fd1a c63d 7b0e b7bd 2da1 ae3e
00000260: 3abc de3c f026 88be 6ca7 81be d3aa e9be
00000270: 5c63 00bf 1082 2e3d e274 623e 6377 cbbd
00000280: 38b9 41be 2374 4abd cc14 1bbe 1b09 883d
00000290: f29f 843e e65f 3fbd a9d5 3bbb d08a 7bbe
000002a0: 75c3 54be 6f90 1abc 67aa 923c ea50 95bc
000002b0: 0530 19be 4eb6 9f3d b40f cfbd 735d 1fbe
000002c0: 667b 5bbe d243 24be a9c4 df3d 6164 6b3d
000002d0: d49a 22bf 170c a83d 9f3c 80be be1a be3c
000002e0: d148 90bd 38e3 58bc 8051 b0bd 8cb1 db3d
000002f0: c072 973d c2b0 993e d555 5dbe ed1a 53bd
00000300: 431e 6fbf aa95 fe3d c146 363e 55d1 08bf
00000310: 9641 333b 5973 713e f985 ad3e ffb2 b6bb
00000320: 6a9e fe3c 8d61 03be be60 ce3d f0e9 85be
00000330: ecbe a03c ba38 1bbe 4c0a bd3d 9ee0 0abe
00000340: f7c7 98bd 00ff 823b 67e9 873e 9445 bcbd
00000350: 30ec 623e 67a8 ed3c e2a3 77be 932d 19bd
00000360: f745 79bd 19ef 9cbd afd0 72bd 516e 703e
00000370: 4b9f c33d 613a bfbd 9b6e da3d f428 0cbf
00000380: 9dbf 363e d4d5 6fbe 6074 35bd 3fe6 f5bd
00000390: 1f6c 44bf 4e38 45be ba5e 873d 4dfc 41be
000003a0: c9ec 293b 974d 9b3d 3c74 e9bd 369c e3bd
000003b0: 4a54 10be f3aa 48bd cc49 5cbe fa9e 16bf
000003c0: c160 a8be cf9f e93d 5b53 3bbe e89a c5bd
000003d0: f6d2 193e 4692 d7bc 37be 4dbd a6a5 84bd
000003e0: b3ac 3ebe 6900 55be 19ae 5bbd a475 a13b
000003f0: 6f82 e13d 975f 84be 2acb dbbd 8718 27be
-0.0043930835 -0.026592936 0.05987271 -0.7264609 -0.15343052 -0.017589744 0.0014209741 0.01857838
-0.036017235 0.044810195 0.21294379 0.1272466 0.0048267194 -0.0575834 0.1167122 0.028958375
-0.13391922 -0.18550923 -0.18535495 -0.122438975 -0.11287282 -0.15415657 -0.059824828 0.022387262
0.0033581352 0.019186966 0.12317395 -0.19210744 -0.073241435 0.0501101 0.17460433 -0.035246868
-0.0791023 0.0520611 0.07282916 0.29338318 -0.09654527 -0.07048649 0.13882996 -0.054385398
0.03832856 0.14717619 0.17073749 0.00015700015 0.00021048963 0.03768522 -0.02647525 0.08602741
-0.20568247 -0.10153668 -0.09322104 0.17334683 0.18500166 -0.06632923 0.018344142 0.077720374
0.07197911 -0.2843869 -0.1332501 0.1426503 0.06831409 -0.0062326477 0.07277996 -0.07329077
0.029532703 0.21497676 -0.4418388 0.1911729 -0.054074556 -0.12604925 -0.08461995 -0.34431425
0.0013683283 -0.05787143 -0.04370863 -0.08085613 -0.14801443 0.09140421 0.19931124 -0.0008774251
-0.023763502 0.05137528 -0.008070274 0.011149503 -0.25959378 -0.023643551 -0.24995315 0.022721427
-0.059516564 -0.12945661 -0.02341919 -0.09711674 -0.08796942 0.017226288 -0.14995645 -0.1498748
0.14275888 -0.081852384 0.024941945 0.34997642 0.33919367 0.12082054 0.054689236 0.09902826
-0.05006797 -0.3005449 0.034768682 -0.19878504 0.008088773 0.2568842 0.0719152 -0.3637018
-0.31893504 0.04116554 -0.065804176 -0.123618625 -0.05354508 -0.05406267 -0.037535556 -0.06357596
0.13693666 -0.038567957 0.03163507 0.04474929 0.16150334 0.23013505 0.18911585 0.10852534
-0.16035366 -0.067554474 0.15090233 -0.08814761 0.023947768 0.00011508303 0.019444421 -0.63729495
0.107753836 -0.14657873 -0.056361716 -0.11615882 -0.059153166 0.08508516 0.19477014 0.10983753
0.057021547 0.21114002 -0.018889224 0.025654467 -0.09645315 0.09673116 -0.08938309 0.34107342
0.027189363 -0.26592207 -0.25323045 -0.4563814 -0.5015161 0.042604506 0.221149 -0.099348806
-0.18918312 -0.049427163 -0.15144652 0.06642362 0.2590328 -0.046722315 -0.0028661287 -0.24564672
-0.20777686 -0.00943385 0.01790352 -0.01822706 -0.14959724 0.07798444 -0.10110417 -0.15562992
-0.21433792 -0.16041496 0.10926182 0.057468776 -0.635175 0.08205431 -0.2504625 0.023206111
-0.070451386 -0.013237767 -0.08609295 0.10727224 0.07394934 0.30017668 -0.21614774 -0.05153935
-0.9340555 0.1243089 0.17800428 -0.53444415 0.0027352325 0.23579158 0.33891276 -0.005575537
0.031081397 -0.12830181 0.10077046 -0.26155043 0.019622289 -0.15158358 0.092304796 -0.13562247
-0.07460015 0.0039976835 0.2654526 -0.091929585 0.22160411 0.029010965 -0.2418361 -0.03739698
-0.06085774 -0.07662792 -0.059281047 0.23479582 0.09551867 -0.09337307 0.106656276 -0.5474999
0.17846532 -0.23421413 -0.044300437 -0.120068066 -0.7672748 -0.1925976 0.066098645 -0.18943901
0.0025928488 0.075831585 -0.11399123 -0.11113779 -0.14094654 -0.048991155 -0.21512526 -0.5883633
-0.32886317 0.11407434 -0.18293516 -0.09648687 0.15021881 -0.026314866 -0.05023023 -0.064769074
-0.18620567 -0.20800938 -0.05363283 0.004927354 0.11011206 -0.2585418 -0.1073211 -0.1631795

action_model._discrete_distribution.branches.0.bias f4 [3]
00000000: c570 e3bd 74a7 f0bd 50c6 363e
-0.111054935 -0.11750689 0.17849088

action_model._discrete_distribution.branches.1.weight f4 [2, 128]
00000000: 7be6 e83d ab25 f3bc 17ed 22be 6062 223d
00000010: 239c 963e add0 6a3c ef49 813d 335b 53bc
00000020: 1a91 b8bd defa c03d d81a 91be 487d 80be
00000030: e4fd ad3b 3a26 703e eec4 18be 654f a1bd
00000040: bffd 813d 9f9e 433d ce80 933d 399a 34bd
00000050: 113b 073d 469b 8cbd 37b8 4cbd 68f1 79be
00000060: 6a9b a93a 7b12 64be d431 27bc 82a5 13be
00000070: e484 da3d e645 a93d 5250 39be 79c8 993c
00000080: 4ef7 183e 2b08 2038 11fb 623d 609c 93be
00000090: ff82 2ebd 8a7a 263e 4a9b 143d 3054 623d
000000a0: 4782 db3e d667 ebbc 94e4 a63e 7baa 0f3e
000000b0: 8fb2 98bd 82c7 623e 9a11 f03d 961b 42bd
000000c0: 4940 243d 502d b83e 2ebe 4dbc 6483 f93e
000000d0: 729d dabd ed3a 183c b0cd dc3d bd01 38be
000000e0: 0f65 28bd 3628 243d c425 ef3d 8f0b 6d3e
000000f0: 4794 e3bd 9d9c 65bd 11f0 03be 9126 063f
00000100: d77c f83c 19d7 3bbe 2ad2 10be eb04 9a3e
00000110: fb16 103e e570 59be 556f 22bc 14c6 4b3d
00000120: 7dcc 6c3d ba79 c53d a9d9 45bd 44bf 8ebe
00000130: 1e16 8dbc 65b5 ccbd c994 41be 4dc3 49be
00000140: 903a 823d 3f1b 84be 1153 163d 4fce 143d
00000150: 0e62 47be 887a 86bd 16f4 2c39 8b02 3bbb
00000160: 1d13 393c 671b acbb f723 0c3d 7dd8 b53d
00000170: 9f0d 42be 2850 ee3d 8e79 79bd 46b0 063f
00000180: 2a13 ff3d f285 8dbe 299b 81be f7e8 40be
00000190: 8483 6f3e a1d2 87bc 618b b03e 4ec5 99bc
000001a0: fba3 c83c 0af8 0e3d 35d5 c6bd 8d3f d73d
000001b0: 26e5 863c 100f b6be 5f28 f9bc d0f6 9dbb
000001c0: 882a d9bd a6c2 66be 7613 15bd ab41 e1bb
000001d0: 25b3 d23d 4674 0c3e cff1 2bbe c90a 863e
000001e0: 803c f7bd a702 9c3e f766 cfbc 1910 0d3f
000001f0: fe1f 23be 9eed 85be 50b3 cabd 0716 d0bb
00000200: fa3a e4bd edd2 0c3d 30d2 203e a5b5 33bd
00000210: 1825 99be 6494 933b b1b7 87bd 4106 e53a
00000220: 1d43 ab3d 396b b8bd f487 983e ee32 833e
00000230: 4fab 8abc ec49 5ebe 4a9e 083e fbb0 823d
00000240: c693 aabd faca 4ebd 4c87 8cbd 3ca9 a73c
00000250: f1a3 9ebc b220 883d 8278 583d b2f9 6d3e
00000260: 33c0 46bc 1fd6 673e 3ba9 503c e80b fd3d
00000270: 849b 08be aab2 9fbd 227c 2b3e 33c3 e2bc
00000280: ec21 31be 1ea4 d9b9 e88d 60bd 901d 8a3e
00000290: 84bc 323d 710e 2cbe c79b 10bc 8005 a1bd
000002a0: 1c4f cebe 0c05 7e3c c229 aabe ad62 06be
000002b0: 55a6 a53d b56f 57be f950 f2bd 391f 413d
000002c0: 20ee d6bc 7031 bfbe fed7 aa3b 5c15 05bf
000002d0: db0c eb3d 46f3 bebb 2047 d4bd 6867 2a3e
000002e0: 0317 c63c 44a8 30bd dad5 fabd ef51 62be
000002f0: f169 023e bc15 8f3d f1b9 0a3e 622e 08bf
00000300: a926 28bd 947f 463e 3e78 133e c905 9dbe
00000310: 75d5 1ebe 7d1d 5b3e 81ba 743c 72b5 36bd
00000320: 5a22 70bd 2a17 9fbd 0123 263d 1c11 903e
00000330: 34b7 443c bd30 ad3d 7510 4d3e 119a 3e3e
00000340: 15ba 40bd 94fd 863e b3fc 0fbd 1d0e 12bd
00000350: 9778 463e f011 9c3d b5e3 4b3c 66b0 afbb
00000360: 5b70 58bc c7c9 33bc 5b22 3bbb fe99 c4bd
00000370: 63f3 4d3e 5832 d3bd e352 4b3d f5d0 07bf
00000380: ed2d 0fbe 5855 973e 3007 703e 2349 3e3e
00000390: 4ade 73be 83dd bc3c 4895 abbe c6f9 923b
000003a0: 69f2 d239 b3bd 9dbc 9b6d b63d a298 cdbd
000003b0: de57 41bc 2e05 ae3e b49b d83c 63cf 74bb
000003c0: f9a9 da3d e3bb 4a3e f14c 323d 401c 863c
000003d0: 811f c7bd 54a1 06be fb80 393e f840 7abe
000003e0: 1833 0a3e d38f 8fbe 01f1 023b 21b7 0abf
000003f0: c4df 2c3e 736d 873e c34e cb3d 74f1 143b
0.11372086 -0.029681047 -0.15910755 0.0396446 0.29415998 0.014331979 0.0631293 -0.012900162
-0.09012051 0.09422849 -0.28340793 -0.25095582 0.005309807 0.23452082 -0.14918873 -0.078764714
0.06347226 0.047758695 0.07202302 -0.04409239 0.033015314 -0.068655536 -0.04998037 -0.24408495
0.0012939994 -0.22272675 -0.010204751 -0.14418605 0.10669878 0.08265285 -0.18097046 0.01877235
0.14938089 3.815458e-05 0.055415217 -0.28830242 -0.042605396 0.16257682 0.036280908 0.05525607
0.4287283 -0.028736036 0.32596266 0.14029877 -0.07455932 0.22146419 0.11722107 -0.04738959
0.04010037 0.3597207 -0.012557549 0.48733056 -0.106745616 0.009291393 0.10781419 -0.17969413
-0.041112002 0.04007741 0.11677125 0.2314894 -0.11112266 -0.05605756 -0.12884547 0.524026
0.030332966 -0.18343772 -0.14142671 0.30081877 0.14071266 -0.21234472 -0.009914239 0.04974945
0.057812203 0.09642358 -0.04830328 -0.278803 -0.01722246 -0.09995536 -0.18904413 -0.19703408
0.06358826 -0.25802037 0.036700312 0.036329564 -0.19470999 -0.0656634 0.00016494127 -0.0028535451
0.011296061 -0.00525229 0.034213986 0.088791825 -0.18950509 0.11636382 -0.06090694 0.5261272
0.12454827 -0.27641255 -0.2531369 -0.18838869 0.23390013 -0.016579928 0.34481338 -0.01877084
0.024492254 0.034904517 -0.09708635 0.10510168 0.016466688 -0.35558367 -0.030414758 -0.004820682
-0.10603815 -0.2253519 -0.036395513 -0.0068742833 0.10288075 0.1371623 -0.16791461 0.26180103
-0.12072086 0.30470774 -0.025317652 0.5510269 -0.15930173 -0.2615785 -0.098974824 -0.006350282
-0.111440614 0.034380842 0.1570518 -0.0438744 -0.29911113 0.0045037735 -0.06626833 0.0017473177
0.0836241 -0.09004826 0.29791224 0.25624794 -0.01692739 -0.21707886 0.13341632 0.063814126
-0.08328967 -0.050486542 -0.06861743 0.02046644 -0.019365283 0.06646861 0.0528493 0.23239782
-0.012130785 0.22640274 0.01273566 0.123557866 -0.13340575 -0.07797749 0.16746572 -0.027680969
-0.17298096 -0.00041511742 -0.054822832 0.2697568 0.043636814 -0.16802384 -0.008826203 -0.07862377
-0.4029473 0.015504133 -0.33234984 -0.1312358 0.08088366 -0.21038707 -0.118318506 0.047148917
-0.026236594 -0.37342405 0.0052137366 -0.51985717 0.11477061 -0.0058273403 -0.103651285 0.16641009
0.024180895 -0.04312922 -0.1224782 -0.22101568 0.12735726 0.069865674 0.13547494 -0.53195775
-0.041052494 0.19384605 0.14401338 -0.30668476 -0.15511115 0.21397968 0.014937044 -0.044606633
-0.05862651 -0.0776809 0.040560726 0.28138053 0.01200657 0.08456562 0.20025809 0.18613459
-0.04705246 0.2636534 -0.035153102 -0.03565799 0.19381939 0.07620609 0.012444426 -0.0053616045
-0.013210381 -0.0109734 -0.0028554413 -0.09599684 0.20112376 -0.10312337 0.049639594 -0.5305322
-0.13982363 0.295573 0.23440242 0.18582587 -0.23815265 0.023054844 -0.3351233 0.0044853417
0.0004023493 -0.019255495 0.08907624 -0.10038878 -0.011800734 0.33988327 0.026441433 -0.0037355057
0.10676951 0.19798236 0.04353041 0.016370893 -0.09722806 -0.1314748 0.18115608 -0.24438846
0.13496053 -0.28039417 0.0019980075 -0.5418568 0.16882235 0.2645069 0.09927132 0.0022726925

action_model._discrete_distribution.branches.1.bias f4 [2]
00000000: 4c63 f73d 5663 f7bd
0.12079486 -0.12079494

action_model._discrete_distribution.branches.2.weight f4 [2, 128]
00000000: 19bb ce3d 45b4 fbbd 7c1d 953e 222d 45bd
00000010: 906f 423d d9ef 5e3e ec14 203e f6ea df3e
00000020: 9df4 1c3d bb62 423b 2b6b 33be 4d98 0c3d
00000030: 7b89 65bb 8f42 c33e 7239 82bd ffe9 153e
00000040: ceff 883d 0130 473d 32d2 4b3c 4732 423d
00000050: c134 7dbd 4709 f13d c468 a3bc 577f 8b3d
00000060: f4f0 4b3c 76c3 90be 23e3 4e3d 0a87 a33b
00000070: 6c84 3ebe d1db 383d 6e55 b73d c3ce c43c
00000080: 80ae 363e 473c c5bc a56d e03c ab23 cdbe
00000090: 398b 0b3e f136 a93c ac9f 85bd 87f4 883e
000000a0: 9610 263c ea78 c83e 97c1 e93d 93c3 1f3d
000000b0: 05c6 b53c f6e7 ab3d b832 4a3d 0768 9c3c
000000c0: 0f11 96bd e1bd 323d 417f bd3d c8f0 1e3e
000000d0: 34e4 e43e a695 b4bc f11b 1f3e 9a53 e5be
000000e0: c0b0 a1bc f418 573c d6c9 ac3c 314d fdbd
000000f0: a04a 50be 8897 eebd ce0d 0cbe b95a db3d
00000100: 095f 283d 2ba6 52be 3a89 73bd 7316 113e
00000110: 7b66 783e 98e5 fe3d 4410 12bd 638e a6bc
00000120: 07b8 763c 774a 423d d956 d3be 096f bbbd
00000130: 99c0 20bc 8942 3d3d 28f5 e6be f8cf 353e
00000140: 2516 783d 2ca9 f3be 64c2 95be ea8c bc3c
00000150: 3a01 0fbd e261 6cbe 3dea 1b3e 67a1 823d
00000160: 9da9 debc a1a1 953d 8f1b d63e 6aeb 973d
00000170: dcbc c83d f955 353e 6432 dcbc 7fb4 aabd
00000180: ef74 a53b f632 003c 946f a6be d39c 7abd
00000190: b5e3 32be 24f4 3ebd 5280 cabd f35d 00be
000001a0: 70d1 81bc fc8d 873d a795 80bd 34d5 1e3c
000001b0: 01ee 0e3b ecc2 e03c 82ea 18bd 7dd1 2cbd
000001c0: 7a46 8c3b 3875 0f3e 52ad 353e 8de4 a13e
000001d0: d93a b83d 24ec 0d3e dccf c7be aa2c 413e
000001e0: 9dbe f9bc c3cb b23e 528e 5cbc e42d d43c
000001f0: fbf3 17bc 4a71 213e a33a 0e3c 3445 95bb
00000200: 5d2d cebd f05b fb3d 1493 93be 2617 153d
00000210: b15d 28bd 1cfe 58be f472 06be 3164 d9be
00000220: 4e19 14bd 7747 8bbb 4e0a 2c3e 2c00 31bd
00000230: 56ab 38bc 2342 c5be 257d 7e3d 0151 14be
00000240: e270 75bd c312 16bd 8792 86bc 6984 e8bc
00000250: 578b 6c3d e7ab ecbd 2703 a73c aa45 89bd
00000260: 21e3 5dbc 8282 923e a598 5bbd fd34 4bbc
00000270: db4d 493e a4b8 14bd 4fc3 adbd 24cb b9bc
00000280: 7ece 27be 5555 6b3c bc11 8abc d9b3 c83e
00000290: 04df 0cbe f251 93bb 018c 643d fecd 8ebe
000002a0: b915 1fbc 73f5 c9be 1b9c ccbd 174d 4abd
000002b0: d42e 34bd 6ab1 adbd b5d2 2cbd 5394 07bd
000002c0: 834c 9e3d 2183 63bd 46e2 a2bd a34e 33be
000002d0: 3248 e3be 95ac e73c c49d 2fbe 936e e53e
000002e0: eac5 7b3c ce39 89bb 2581 19bd 187e 0e3e
000002f0: 2e9e 4c3e cc29 f83d e2e1 0f3e 6216 fabd
00000300: 2e08 c2bc 89b2 563e 4053 913d 9a64 22be
00000310: cf98 83be 4510 ebbd 77a1 063d 57cb 8c3c
00000320: 87bc b0bc 582d 5cbd 432e d03e 3a30 c03d
00000330: 4eb1 8c3c 6a43 82bd 48cb ef3e a37f 2abe
00000340: 24dd 89bd 547e f53e 1f1a 953e 276c b2bc
00000350: 3777 423d d2b1 7c3e 1f8a 1cbe 2eec 8cbd
00000360: bd57 ba3c 1ebc bbbd 9027 d7be 0ed8 87bd
00000370: e07c b2bd 6c45 37be 6494 b73c 4dbf 793d
00000380: d76a 163c eebe 21bb 5194 a83e e8ed 403d
00000390: 5967 443e 7cf3 0c3d 8e62 a93d 1acb 043e
000003a0: 699c f43c 5d95 92bd e4ef 973d b568 21bb
000003b0: c850 2f3b 771a 12bd d5e7 d73c 6e92 1c3d
000003c0: a4dd 5bbc 55ea 08be 243b 39be ccca a5be
000003d0: e140 b2bd f561 fbbd 83c5 ca3e 61cf 49be
000003e0: 9384 073d aedb b9be 2b0e 0a3c 0e71 98bc
000003f0: b4c9 083b 832e 55be de42 c7bb dcad 493b
0.1009428 -0.12290243 0.29124057 -0.048138745 0.047469676 0.21771182 0.15632981 0.43733948
0.03831922 0.0029660899 -0.1752135 0.034324933 -0.0035024572 0.38136718 -0.06358613 0.14640044
0.06689416 0.048629764 0.012440251 0.04741123 -0.06181789 0.11769348 -0.019947417 0.068113975
0.012447584 -0.28274125 0.050509583 0.004990463 -0.18605202 0.04513151 0.08951841 0.024024373
0.17840004 -0.024076594 0.027396033 -0.40066275 0.13627328 0.02065608 -0.065245956 0.2674906
0.01013579 0.3915475 0.114138775 0.039004873 0.02218915 0.083938524 0.049364775 0.019092573
-0.073274724 0.043638114 0.092527874 0.15521538 0.44705355 -0.022044014 0.15538003 -0.44790345
-0.019737601 0.013128508 0.021092337 -0.12368239 -0.20340967 -0.11649996 -0.13677141 0.10710663
0.041106258 -0.205712 -0.05945704 0.1416872 0.24257843 0.12446135 -0.035660043 -0.020331567
0.015058524 0.047434296 -0.41277197 -0.09152038 -0.009811544 0.04620603 -0.45108914 0.17755115
0.060567994 -0.47590005 -0.2924987 0.023016412 -0.03491328 -0.23084214 0.15226074 0.06378441
-0.027180487 0.07306219 0.418179 0.074179485 0.09801647 0.17708577 -0.026879497 -0.08335208
0.00504934 0.00782465 -0.32507002 -0.061184715 -0.17469676 -0.04661955 -0.098877564 -0.12535839
-0.015846938 0.06618878 -0.06278544 0.009694386 0.0021809342 0.027436696 -0.03733302 -0.04219197
0.0042808624 0.14009559 0.17741898 0.31619683 0.08995599 0.13859612 -0.39025772 0.18864694
-0.0304864 0.34921083 -0.013461666 0.025900789 -0.009274478 0.15765873 0.008680972 -0.004555369
-0.10067246 0.12273395 -0.2882315 0.03639903 -0.041104976 -0.21190685 -0.13129789 -0.42459252
-0.036156945 -0.0042504626 0.16800806 -0.043213055 -0.011271318 -0.3852702 0.062131066 -0.14484026
-0.059922107 -0.036638986 -0.016427292 -0.02838345 0.057750072 -0.11556225 0.020387245 -0.067027405
-0.013542921 0.28615195 -0.05361237 -0.01240277 0.19658606 -0.0363089 -0.08484518 -0.022679873
-0.16387364 0.014363606 -0.01685416 0.39199713 -0.13756949 -0.0044958526 0.05579758 -0.27891535
-0.009709769 -0.39445075 -0.09990712 -0.049389925 -0.04398997 -0.08481105 -0.042193133 -0.033100437
0.07729437 -0.055544976 -0.079533145 -0.17510466 -0.44391018 0.028280536 -0.17150027 0.44810924
0.015367011 -0.004187799 -0.037476677 0.13915288 0.19982216 0.12117347 0.14051011 -0.122113004
-0.023685541 0.20966543 0.07095957 -0.15858689 -0.2570252 -0.114777125 0.03286883 0.017186804
-0.021574272 -0.05375418 0.40660295 0.093841985 0.01717439 -0.063605145 0.4683478 -0.16650252
-0.06731632 0.47947943 0.2912149 -0.021780087 0.047476973 0.24677208 -0.15287064 -0.06880985
0.022746915 -0.0916674 -0.4202237 -0.06633006 -0.08715224 -0.17897576 0.022409625 0.060973454
0.009180746 -0.0024680453 0.32925656 0.047101885 0.19180049 0.034411892 0.08270751 0.12968102
0.029859738 -0.07157395 0.074188024 -0.002462906 0.002675103 -0.03566977 0.026355663 0.038225584
-0.013419542 -0.1337064 -0.18088967 -0.32381284 -0.08703781 -0.12274543 0.39603814 -0.19708015
0.033085417 -0.36300415 0.0084262295 -0.018608596 0.0020872178 -0.20818524 -0.0060809692 0.0030773794

action_model._discrete_distribution.branches.2.bias f4 [2]
00000000: fada e53d 08db e5bd
0.11223407 -0.112234175

action_model._discrete_distribution.branches.3.weight f4 [2, 128]
00000000: cf4a d73e 66a2 fcbd 6008 4e3d b182 11bc
00000010: c0ba 3cbc 1d21 2abc 7433 6b3b 72dc 9cbe
00000020: 7961 c53e 171d 263e 7e46 c53e 7ad5 563e
00000030: d8eb be3b 71ab b23d f556 793e 0364 6b3e
00000040: c32a 2bbe 7043 ec3d 3602 b83d eabc dc3d
00000050: 030f 06bd b2bb 183e 3aea eabd 585a e7bd
00000060: cb3d 6cbb a992 90bc 3c05 c53d 221c cdbe
00000070: 66da a9be 802b 203e 7de1 8dbe dd69 e23d
00000080: 86aa 74bd 615a 603c 6fb9 0d3e 017b c0bd
00000090: 9d1d 143d 796b c0be 675d 89be 4701 713c
000000a0: 5c42 47bd 0147 ba3d 059b 91bd d937 e83d
000000b0: dde5 9bbc 82c4 d83e 5481 343e ad56 2f3d
000000c0: 2abf b43a 417e 96bc 0069 313e b534 96be
000000d0: d7bb f0bd 0fdb 6c3c 0cb3 6a3e 1f25 47be
000000e0: 3f74 733d 14d8 d93c 9d88 adbd baa4 92bd
000000f0: 0212 993e 7355 69be 1db8 3fbd 5fe3 913d
00000100: eecc 303e 157a bebe a13c 9fbd fe18 333e
00000110: 32eb 9c3d 92fa c5bd 2bff b13e f93b b4bc
00000120: 101c d53d 09f4 373c e6d3 a2be 468d a1be
00000130: bab0 b4bc f9e5 93be 5e7c 75bd fc35 bdbe
00000140: da14 5f3d 808e 0abe ea16 213e 046d 803b
00000150: 28b8 5cba 01dc 38be 16b5 80be 137e e43c
00000160: 24b6 75bb 0bf5 223b f703 fdba 7b85 603e
00000170: 08ee 55be 0665 313c ef03 98bc 3c77 90bd
00000180: 0eda 323d 8582 03bf 865d 24be c9c5 9ebe
00000190: ab4c 4cbd 521d fb3d e76a 0cbe 9b56 b2be
000001a0: 77d6 62bd d5d1 fbbd 6791 1f3e 5033 7b3c
000001b0: f313 df3b 278c afbe d7f2 053d 9fbc 023e
000001c0: 7501 a4be 4fb0 d2bd 6091 8cbe 010f c8be
000001d0: de0d 02be f459 f63d 37fa 1ebe 13d8 303d
000001e0: 52f9 85bc 29b3 853b eea5 d53b 08ba 193e
000001f0: 55dc cabe f11a dcbd 876e a93e eeb0 933a
00000200: 78ec d2be 1fd5 133e 7b71 81bd 4f7b 893c
00000210: d79a ef3c c583 103c 0fda 1cb8 ac26 9b3e
00000220: d969 c1be e4b8 1ebe f92f c0be 405f 46be
00000230: cff2 8a3a 352f a9bd 38f1 7bbe 23a7 62be
00000240: 97f0 113e 744d b2bd 47ed cebd e33e e6bd
00000250: 1582 4b3d 2cf3 11be cc0b eb3d afb1 f43d
00000260: df09 32bc 5aa6 523a 850d abbd 4d2b c03e
00000270: ef14 a83e 34ee 1abe 40f5 913e deb2 debd
00000280: b5e3 893d 10de bebc 756d 0bbe ea98 a63d
00000290: a92b a8bc da58 af3e 87fb 853e 0bd0 2c3c
000002a0: 6d08 023d 9217 d8bd 69a0 9c3d ed19 fbbd
000002b0: b3ae 29bc 70f6 d3be 3bcc 35be f52f cebc
000002c0: 9604 873c d944 c13c 11c0 3dbe b871 943e
000002d0: d9a8 fe3d e6af 19bc 9ea1 66be 15f9 503e
000002e0: a208 87bd bacc 13bc 6570 993d 8620 bd3d
000002f0: 007c 9ebe 01cf 643e 43e8 203d 83ba 93bd
00000300: 4238 2bbe b33f bb3e 5215 a73d 1aaf 2cbe
00000310: 8100 98bd 68f1 d53d 04c1 b6be 5ea2 0a3c
00000320: f8c0 e9bd 1611 a0bc 5dc3 a13e 4ce5 9f3e
00000330: 7747 ec3c a66f 8e3e 384f 833d 1e2f b03e
00000340: 88a3 71bd 23cf ee3d 52da 2dbe f69a bb3b
00000350: 93fe 713c 97bf 3b3e 3f91 7a3e 9a40 1fbd
00000360: a4d8 d338 b62c a7ba 45d7 7d3a fa63 50be
00000370: 30d6 553e b57c baba 5f60 5a3c cab6 9b3d
00000380: 0a85 30bd b752 fb3e 17ff 253e f22a 9c3e
00000390: 4e7f 4b3d eedb dcbd 1cae 193e d78b b03e
000003a0: f872 563d 01ae f53d 738a 3abe bc6e c5bc
000003b0: 4496 03bc fd25 af3e 293a 2fbd 687c e0bd
000003c0: 60f4 a43e 68d3 ab3d 8191 873e 610f cd3e
000003d0: 2ccb fe3d f144 04be 4199 1b3e 2487 26bd
000003e0: 53fc b53c c21c 37bc 8623 9e3b 8e0f 12be
000003f0: 03b1 d73e 211a d03d 510d abbe d816 8e3b
0.42049262 -0.123356625 0.050300956 -0.008881257 -0.011519134 -0.010383871 0.0035888823 -0.30636936
0.38550928 0.16222034 0.38530344 0.20979872 0.0058264546 0.08724106 0.24349578 0.2298737
-0.16715531 0.115363 0.08984797 0.1077822 -0.03272916 0.1491535 -0.114704564 -0.112965286
-0.0036047574 -0.017648058 0.09620139 -0.40060526 -0.33174437 0.15641594 -0.27711096 0.11055348
-0.059732936 0.013693423 0.13840269 -0.09398461 0.036161054 -0.37581995 -0.26829073 0.014709777
-0.04864727 0.09095574 -0.07109646 0.11338777 -0.019030506 0.42337424 0.1762746 0.04280727
0.0013789881 -0.01837075 0.1732521 -0.29337087 -0.117545776 0.0144565245 0.22919863 -0.19447754
0.059437033 0.026592292 -0.084733225 -0.07160325 0.2989655 -0.22786503 -0.046806443 0.07123446
0.17265674 -0.37202516 -0.07775236 0.17490003 0.076620474 -0.09666933 0.3476499 -0.022001253
0.10405743 0.011227616 -0.3180229 -0.31553096 -0.022056926 -0.28886393 -0.05993306 -0.3695525
0.054463245 -0.13530922 0.15731397 0.0039192457 -0.00084197754 -0.18052675 -0.25138158 0.027892148
-0.0037492597 0.0024865295 -0.001930355 0.21925919 -0.20891583 0.0108273085 -0.018556563 -0.07053992
0.043664984 -0.5137103 -0.16051301 -0.31010273 -0.049877804 0.12261452 -0.13712655 -0.348317
-0.05538031 -0.12295882 0.1558281 0.015332058 0.006807798 -0.34286615 0.032702293 0.12767266
-0.32032362 -0.102875344 -0.27454662 -0.39073947 -0.12700602 0.12028876 -0.15525137 0.043174814
-0.016354237 0.0040801954 0.0065200245 0.15012372 -0.39621225 -0.10747326 0.33092138 0.0011267939
-0.41196036 0.14436768 -0.06320473 0.016782431 0.029248638 0.008820479 -3.739638e-05 0.30302942
-0.37776068 -0.15500218 -0.375366 -0.19372272 0.0010600927 -0.08260957 -0.24603736 -0.2213407
0.14251934 -0.08706179 -0.10103851 -0.112424634 0.049684603 -0.14252919 0.114768595 0.11947953
-0.010866611 0.00080356526 -0.08352188 0.37533036 0.3282847 -0.1512993 0.28507423 -0.1087396
0.06732885 -0.023299247 -0.13615973 0.08134635 -0.020528631 0.34247476 0.26168463 0.010547648
0.031746317 -0.10551371 0.07647783 -0.12260804 -0.010356593 -0.41398954 -0.17753689 -0.025169352
0.016481679 0.0235924 -0.18530299 0.2899301 0.12434549 -0.009380316 -0.2252259 0.20407517
-0.065934435 -0.009020979 0.07492141 0.09234719 -0.3095398 0.2234459 0.039284002 -0.07213309
-0.1672068 0.36572036 0.081583634 -0.16863671 -0.07421971 0.10446435 -0.35694134 0.008461563
-0.11413759 -0.019539397 0.31594363 0.31229627 0.02884267 0.27819556 0.06411594 0.34410948
-0.058993846 0.11660602 -0.16977814 0.00572526 0.014770168 0.18334804 0.2446947 -0.03887997
0.000101016165 -0.0012754414 0.0009683262 -0.20350638 0.20882487 -0.001422784 0.013328641 0.076032236
-0.043095626 0.49086544 0.1621059 0.30501515 0.049681954 -0.10784136 0.15007824 0.3448169
0.052355736 0.11996079 -0.18216877 -0.024100654 -0.008031432 0.3420867 -0.042780075 -0.109612286
0.32217693 0.08389932 0.26478198 0.40050796 0.12441096 -0.12916924 0.1519518 -0.040656224
0.022215044 -0.01117629 0.004826012 -0.14263746 0.42127237 0.10161234 -0.33408597 0.0043362193

action_model._discrete_distribution.branches.3.bias f4 [2]
00000000: 6cbf 043b 88bf 04bb
0.0020255698 -0.0020255763
