results/Imitation/Hero Knight Behavior/Hero Knight Behavior-499045.onnx (onnx, 81950 bytes, 14 tensors)

network_body.observation_encoder.processors.0.normalizer.running_mean f4 [11]
-3.0413132 5.794094 14.546534 14.170566 45.132576 0.093247905 0.10764531 0.50175947
0.07811302 0.14941911 0.4366511
00000000: e0a4 42c0 3869 b940 9abe 6841 a3ba 6241
00000010: c287 3442 c2f8 be3d 2575 dc3d 4f73 003f
00000020: b8f9 9f3d 5301 193e bc90 df3e

network_body.linear_encoder.seq_layers.0.weight f4 [128, 11]
-0.24999057 0.234304 -0.0138456635 -0.22801588 0.5787016 -0.32850462 0.019687915 0.5659224
-0.3728302 -0.23915103 0.3138112 -0.39548132 -0.17663267 -0.0071883197 -0.033355255 0.016142529
-0.11489815 0.10537188 0.3795165 0.013923466 -0.10920385 -0.24644236 0.4644401 -0.5071228
-0.23068398 0.0004657326 0.36357749 -0.26949096 -0.24290973 -0.39294723 -0.36981666 -0.0044754124
0.040630218 0.4661749 -0.23150758 -0.030829065 -0.33106768 -0.17942972 -0.3877355 -0.2045216
-0.26150313 -0.31178114 -0.23552169 0.103665516 -0.17800279 -0.40937582 0.30410355 -0.092516035
-0.23351395 0.16391084 0.24369964 -0.074021004 -0.36814916 0.027586736 -0.35688883 -0.14632736
0.19617845 0.22539622 0.10714543 0.10007422 -0.33735025 -0.31543592 0.50147575 -0.23237588
-0.4856829 -0.25137702 0.3450042 -0.02004479 -0.49297932 0.32367817 0.37982714 -0.24495274
-0.31773582 0.14168961 -0.19653429 0.3097939 0.49090528 0.39711407 0.036554858 -0.36052704
0.31577477 -0.36218816 0.27060562 0.38105914 -0.45235822 0.22063424 0.042491052 0.10105288
-0.37346253 -0.3082472 0.44154117 0.073686056 0.2696074 -0.5058421 -0.26045707 0.003646588
0.42800793 -0.830777 0.3730322 0.11479179 0.058834367 0.18033175 0.25335363 0.28429833
-0.0382634 0.003440723 -0.4763648 0.3573694 -0.42697695 0.12431215 -0.027032183 -0.24661893
0.04568767 0.47631794 0.08158861 -0.7361699 -0.48557487 0.36106563 -0.14629851 0.10426293
0.22509344 0.056377906 -0.3767939 -0.014378548 -0.0067703407 0.55495495 -0.47030163 0.048110466
0.19455588 0.23774076 -0.021023735 -0.20345473 -0.8093471 0.635361 0.120767444 -0.8185635
-0.21958365 -0.24926676 0.19415642 0.38053834 -0.17642708 -0.32553622 -0.23107475 -0.38152975
-0.20157303 0.37724864 -0.10016774 -0.53994966 0.14555265 0.14900017 -0.360952 0.7868529
0.2565769 0.04468751 -0.26260906 -0.36674994 0.19763094 -0.39523363 -0.003806628 0.04368933
0.023006864 -0.45993665 -0.41898575 -0.4059355 0.4671993 -0.42900485 0.21806248 -0.7285742
0.1360159 0.07161347 -0.17680494 0.12727131 -0.20388228 -0.120363265 -0.18915786 -0.021813588
-0.10293306 0.22258288 0.09265742 -0.32580698 -0.09515289 -0.18430328 0.1740686 0.14383478
-0.08715768 -0.2615369 -0.021079587 0.220437 -0.38044935 0.12105975 0.13076206 0.48924
0.057589523 -0.13105936 -0.1169257 -0.058432434 0.011920905 -0.03309242 -0.4519169 -0.40039462
-0.21963336 -0.41450498 -0.2880322 -0.030227235 -0.6148093 0.194483 -0.31850722 0.13759986
0.49166176 -0.029888066 0.15681992 0.5895325 -0.1265973 -0.42058855 -0.13516389 -0.52992404
0.22135027 0.09106174 -0.19930351 -0.12839626 -0.46935192 -0.15578689 0.10952836 -0.18764196
-1.0246829 -0.42557746 -0.021076944 0.61570764 0.07550251 -0.0046687303 -0.30170217 0.3191514
-0.1512955 -0.38398173 -0.4159595 0.28564122 -0.54830724 0.30517295 0.33395413 -0.03306628
0.17547551 0.17899522 0.13817506 -0.41128042 0.2200226 -0.7101915 -0.50879693 -0.110198185
-0.006221612 -0.64321053 -0.48059452 0.25560158 0.11321393 0.3452288 0.013007653 -0.6904673
00000000: 87fd 7fbe 63ed 6f3e ecd8 62bc ff7c 69be
00000010: ca25 143f c231 a8be 8d48 a13c 4ae0 103f
00000020: 9ae3 bebe 02e4 74be ddab a03e 877c cabe
00000030: 32df 34be ff8b ebbb 859f 08bd 563d 843c
00000040: b94f ebbd 36cd d73d fd4f c23e 401f 643c
00000050: 45a6 dfbd 635b 7cbe 18cb ed3e cdd2 01bf
00000060: 6c38 6cbe 922d f439 d426 ba3e b8fa 89be
00000070: 54bd 78be 6130 c9be 9c58 bdbe 7ba6 92bb
00000080: df6b 263d 7aae ee3e 5310 6dbe 3c8d fcbc
00000090: b481 a9be 6dbc 37be 4485 c6be 1c6e 51be
000000a0: bde3 85be c7a1 9fbe 992c 71be 964e d43d
000000b0: 5d46 36be b599 d1be 76b3 9b3e 0c79 bdbd
000000c0: 481e 6fbe 3ed8 273e 668c 793e 5398 97bd
000000d0: 0c7e bcbe 94fd e13c 22ba b6be d7d6 15be
000000e0: 01e3 483e 44ce 663e 106f db3d b6f3 cc3d
000000f0: 2cb9 acbe d180 a1be b760 003f f1f3 6dbe
00000100: 6eab f8be 7db4 80be 64a4 b03e f934 a4bc
00000110: c967 fcbe 25b9 a53e b478 c23e e4d4 7abe
00000120: 45ae a2be 1517 113e 4940 49be 4e9d 9e3e
00000130: f057 fb3e 8952 cb3e 8cba 153d 0097 b8be
00000140: 3bad a13e ba70 b9be d28c 8a3e 2f1a c33e
00000150: 7f9b e7be f1ed 613e 190b 2e3d d0f4 ce3d
00000160: 7b36 bfbe 94d2 9dbe af11 e23e b7e8 963d
00000170: fb09 8a3e de7e 01bf a15a 85be 98fb 6e3b
00000180: db23 db3e cdad 54bf 14fe be3e f517 eb3d
00000190: 4efc 703d e3a8 383e 91b7 813e 8d8f 913e
000001a0: 15ba 1cbd c17d 613b 16e6 f3be 1ff9 b63e
000001b0: b99c dabe 5e97 fe3d 9972 ddbc ac89 7cbe
000001c0: ff22 3b3d f2df f33e ee17 a73d a175 3cbf
000001d0: 459d f8be 98dd b83e 47cf 15be ce87 d53d
000001e0: e57e 663e 85ec 663d 21eb c0be 0094 6bbc
000001f0: bcd9 ddbb 8711 0e3f 60cb f0be 7b0f 453d
00000200: a839 473e 5072 733e f839 acbc 7056 50be
00000210: 5f31 4fbf 05a7 223f ec54 f73d 618d 51bf
00000220: 89da 60be c93f 7fbe f1d0 463e ecd5 c23e
00000230: 4da9 34be afac a6be dc9e 6cbe de57 c3be
00000240: 2969 4ebe bc26 c13e be24 cdbd 243a 0abf
00000250: c10b 153e 8093 183e b3ce b8be 316f 493f
00000260: 0c5e 833e 400a 373d b274 86be a6c6 bbbe
00000270: c45f 4a3e 105c cabe 9f78 79bb 95f3 323d
00000280: e478 bc3c d17c ebbe 4d85 d6be c7d6 cfbe
00000290: bf34 ef3e 86a6 dbbe c54b 5f3e d783 3abf
000002a0: c147 0b3e 15aa 923d 5b0c 35be 6953 023e
000002b0: 84c6 50be 0481 f6bd 99b2 41be 69b2 b2bc
000002c0: 91ce d2bd c4ec 633e 2cc3 bd3d 2cd0 a6be
000002d0: 85df c2bd 00ba 3cbe 0a3f 323e 6d49 133e
000002e0: ba7f b2bd 2ae8 85be 19af acbc 3dba 613e
000002f0: 42ca c2be 2dee f73d 7de6 053e aa7d fa3e
00000300: fee2 6b3d 6d34 06be be76 efbd d956 6fbd
00000310: e64f 433c eb8b 07bd a761 e7be 8600 cdbe
00000320: 91e7 60be ff39 d4be f578 93be 1b9f f7bc
00000330: 2464 1dbf 8d26 473e 6113 a3be fae6 0c3e
00000340: 17bb fb3e d1d7 f4bc 6795 203e 9aeb 163f
00000350: b9a2 01be 6257 d7be 6768 0abe 1aa9 07bf
00000360: a5a9 623e 947e ba3d 3816 4cbe 4f7a 03be
00000370: e54e f0be 9986 1fbe 6850 e03d 3725 40be
00000380: cf28 83bf 4ae5 d9be 8ea9 acbc 049f 1d3f
00000390: 0fa1 9a3d 26fc 98bb b578 9abe d067 a33e
000003a0: 35ed 1abe 4199 c4be a5f8 d4be 913f 923e
000003b0: dd5d 0cbf a13f 9c3e 09fc aa3e 8270 07bd
000003c0: daaf 333e 864a 373e c37d 0d3e 5993 d2be
000003d0: 9b4d 613e 1ccf 35bf 8440 02bf 96af e1bd
000003e0: aade cbbb 72a9 24bf 7c10 f6be 36de 823e
000003f0: b4dc e73d d4c1 b03e 0d1e 553c 77c2 30bf

network_body.linear_encoder.seq_layers.0.bias f4 [128]
0.10475601 0.007802433 -0.02107995 -0.0080619315 -0.02840606 0.03262402 -0.016663149 -0.008222013
0.014486493 0.015999837 0.0867512 0.018594788 -0.07194553 0.024863208 0.040729396 -0.0052618026
0.004333996 0.022727093 0.10719804 0.04106374 0.056496214 0.07252409 0.058454607 0.054707453
0.07333714 -0.052450385 0.025281746 0.013788245 0.072575055 0.0067353984 -0.07651738 0.02951579
-0.02785437 0.0071878317 0.13074166 0.03623009 -0.028979449 0.036982596 0.088270165 -0.019307908
0.07614543 0.053068783 0.0339948 0.0017612552 0.020862972 0.08425142 0.07841218 0.040938795
0.01218617 0.07223178 -0.00046838206 0.0966915 -0.0735601 0.035810757 0.055975758 0.059948638
-0.044876184 0.02063329 -0.022354543 0.038689673 0.023070995 -0.0141355805 -0.002339346 0.041685
0.018721636 -0.062464546 0.0040312125 0.03872654 0.013110598 0.0763888 -0.028885087 0.1101771
-0.016578004 -0.02566425 0.03267277 -0.028170003 0.05370731 -0.0028545463 -0.01490146 -0.058848444
0.021860236 0.12159951 -0.041273437 -0.013788892 0.04443744 -0.015101761 0.06391565 0.082579546
-0.032330953 0.026981013 0.050212104 0.07537833 -0.051349144 0.0520621 0.053856876 0.027360274
0.0945886 -0.014312621 0.0687652 0.1446576 0.03671952 0.08873359 0.038353927 0.044550106
-0.0012320305 0.12731783 0.11022426 -0.061183285 0.056695893 -0.08972052 0.1564591 -0.021176366
0.010113016 0.011114191 -0.037479542 0.0820128 0.025042823 0.052326087 0.033256568 -0.0036243356
0.04870298 -0.032475296 0.012211838 0.011351467 0.0432181 -0.014069037 -0.00939373 0.02488679
00000000: 528a d63d 8dab ff3b dcaf acbc 3116 04bc
00000010: d3b3 e8bc c4a0 053d 2881 88bc 9fb5 06bc
00000020: c158 6d3c 1712 833c 9daa b13d 1954 983c
00000030: 2e58 93bd edad cb3c ded3 263d 336b acbb
00000040: 3204 8e3b 2b2e ba3c a58a db3d 7432 283d
00000050: 9368 673d 8387 943d 196e 6f3d ec14 603d
00000060: c831 963d 37d6 56bd aa1b cf3c 17e8 613c
00000070: 3ba2 943d 9eb4 dc3b 25b5 9cbd 19cb f13c
00000080: d92e e4bc e787 eb3b 24e1 053e 0166 143d
00000090: 4f66 edbc 107b 173d fdc6 b43d 9e2b 9ebc
000000a0: 23f2 9b3d a75e 593d 223e 0b3d ebd9 e63a
000000b0: d3e8 aa3c 028c ac3d 9196 a03d 70af 273d
000000c0: 80a8 473c 41ee 933d 2d91 f5b9 3106 c63d
000000d0: ada6 96bd 4dae 123d d646 653d b48c 753d
000000e0: 17d0 37bd 2507 a93c e020 b7bc 1079 1e3d
000000f0: 62ff bc3c ec98 67bc b74f 19bb e4bd 2a3d
00000100: 1e5e 993c d3da 7fbd 4318 843b b89f 1e3d
00000110: d5cd 563c bb71 9c3d 6ba0 ecbc 88a4 e13d
00000120: 98ce 87bc d53d d2bc e2d3 053d c7c4 e6bc
00000130: 32fc 5b3d 5713 3bbb 4125 74bc 110b 71bd
00000140: 3d14 b33c 2a09 f93d 560e 29bd ceea 61bc
00000150: 0804 363d 606d 77bc 35e6 823d 771f a93d
00000160: 766d 04bd 4907 dd3c 35ab 4d3d f45f 9a3d
00000170: 7b53 52bd 123f 553d 0799 5c3d a722 e03c
00000180: abb7 c13d 7c7f 6abc c5d4 8c3d 1f21 143e
00000190: 3567 163d f5b9 b53d 0219 1d3d 2c7a 363d
000001a0: 157c a1ba 9b5f 023e 42bd e13d 539b 7abd
000001b0: f439 683d 64bf b7bd d036 203e 0f7a adbc
000001c0: 10b1 253c 4c18 363c 2684 19bd 54f6 a73d
000001d0: 9b26 cd3c e153 563d 0a38 083d 4386 6dbb
000001e0: c77c 473d d104 05bd 2914 483c 81fb 393c
000001f0: 7605 313d d181 66bc 29e8 19bc 62df cb3c

network_body.linear_encoder.seq_layers.2.weight f4 [128, 128]
-0.20369284 -0.19954316 0.052525863 -0.22172607 -0.0640871 -0.0040303473 0.008149797 0.023989208
0.035918057 0.07746605 -0.23858455 -0.049258463 0.08184638 -0.09435217 -0.05310763 -0.11665042
-0.12694554 0.06851914 -0.42493838 -0.027332772 -0.15719499 0.017137643 0.05562018 -0.18566918
-0.13488425 -0.076570354 -0.098101035 -0.14328095 -0.2557292 -0.04472696 -0.13711895 -0.0059869904
0.090761565 0.011081094 -0.23606478 -0.075155996 -0.15141805 0.06323424 -0.09471681 0.11892152
-0.47807345 0.03495921 -0.21542886 0.13574435 -0.0595187 -0.32631665 -0.06591649 -0.10890047
-0.14491522 0.16987339 -0.05188789 0.13885202 0.04859455 -0.12435421 -0.3722514 -0.045289565
-0.26887986 -0.02359887 0.050395064 -0.10209772 -0.06419142 -0.021202538 -0.19027905 0.17839392
-0.070937715 -0.2564608 0.11289784 -0.11574715 -0.17801057 -0.140224 -0.04849809 0.027169567
-0.061993152 -0.2781678 -0.1879975 -0.19103713 0.19181985 -0.013535573 -0.21098669 0.214447
-0.33919623 -0.08739833 -0.074109636 -0.11256662 -0.002243013 0.20558995 0.1062802 -0.1648502
-0.24058282 0.20453915 -0.04055169 0.37735552 -0.037188545 -0.035400927 -0.19290894 -0.12941419
0.14796771 -0.007960468 0.09484081 -4.2989534e-05 -0.21205427 -0.19774322 0.08859587 -0.07751613
0.05673004 -0.2001715 -0.04749062 -0.07864562 -0.038149375 -0.0025732713 0.100741625 -0.1206685
0.04661274 -0.17126961 0.09393631 -0.22492948 0.24842422 -0.017762931 -0.06334823 -0.09688928
0.15751514 0.07433468 -0.08500631 -0.053854004 0.16897956 -0.13717699 -0.12171986 0.0643402
0.08217337 0.06564072 -0.13508902 -0.03136228 0.0030240964 -0.19896416 -0.17373487 -0.07653528
-0.12580194 -0.11615142 -0.1419354 -0.19031398 0.020967988 0.02921269 0.03469023 0.14883259
0.08194082 -0.21917184 -0.19015126 -0.103136554 0.102256045 -0.23889989 -0.035561826 0.10902726
0.005181065 0.017769305 -0.11615315 -0.06331248 -0.075099714 -0.14423974 -0.018888487 -0.030068597
-0.20400938 0.11768864 0.04403268 -0.007286946 -0.09648617 -0.1491894 0.053214885 -0.08325437
0.04837771 -0.0830907 -0.005597222 0.13801569 0.13124564 -0.02362234 0.15570435 -0.010412925
-0.14513794 0.08119175 -0.1400383 -0.0451524 0.047774944 0.058167193 0.105253085 -0.19926587
0.0043555154 0.02083788 -0.122190684 -0.02945205 0.09743318 0.010019355 -0.061463486 0.12487475
0.20946595 -0.05292714 0.39047483 -0.012024875 -0.04494402 0.12944005 0.12669913 -0.09817007
-0.16612251 -0.19930862 0.09937789 -0.11778252 0.07170644 0.07876989 -0.16362022 0.03621764
0.07881653 -0.0067960746 0.040070705 -0.06756936 -0.10985755 -0.037119236 0.048445817 -0.13235757
0.05580136 -0.09733451 -0.11070685 -0.0042114635 -0.0072806473 -0.06425531 -0.3100919 0.06192192
0.15531552 0.035138987 -0.033258762 0.046074655 -0.06161146 0.028583776 0.17209499 0.11684881
-0.1397955 -0.05098576 -0.25136653 0.04070006 0.07657101 0.13002022 -0.023123845 0.12504692
-0.15813693 -0.035293538 -0.13877466 0.020882638 0.19484891 0.13138457 -0.07736031 -0.0006925487
-0.05179686 0.015395015 0.062212158 -0.03039035 0.119398095 -0.03487262 0.028798994 0.008907845
00000000: db94 50be 0b55 4cbe 5c25 573d 290c 63be
00000010: 1940 83bd 0111 84bb ba86 053c 0485 c43c
00000020: d01e 133d 85a6 9e3d 824f 74be 3ec3 49bd
00000030: 139f a73d b63b c1bd 6387 59bd 6ae6 eebd
00000040: 03fe 01be c353 8c3d 8691 d9be fae8 dfbc
00000050: b9f7 20be 3e64 8c3c fcd1 633d 1020 3ebe
00000060: 191f 0abe ebd0 9cbd 32e9 c8bd 3eb8 12be
00000070: f0ee 82be 9e33 37bd e968 0cbe 842e c4bb
00000080: 33e1 b93d 7a8d 353c f7ba 71be 63eb 99bd
00000090: 550d 1bbe f480 813d e3fa c1bd 208d f33d
000000a0: 0bc6 f4be 6331 0f3d 6299 5cbe 9100 0b3e
000000b0: e1c9 73bd fa12 a7be 3aff 86bd 3607 dfbd
000000c0: a864 14be 4af3 2d3e 6588 54bd 392f 0e3e
000000d0: 140b 473d 6cad febd bc97 bebe 8d81 39bd
000000e0: 9faa 89be 6b52 c1bc 0e6b 4e3d 9c18 d1bd
000000f0: cb76 83bd f2b0 adbc 83d8 42be e5ac 363e
00000100: cb47 91bd d44e 83be fc36 e73d d70c edbd
00000110: 6748 36be e196 0fbe efa5 46bd b692 de3c
00000120: 88ec 7dbd 036c 8ebe 6b82 40be 3d9f 43be
00000130: 6c6c 443e 4fc4 5dbc e50c 58be ff97 5b3e
00000140: 21ab adbe e5fd b2bd cbc6 97bd 5489 e6bd
00000150: 83ff 12bb 2c86 523e 6fa9 d93d 7ece 28be
00000160: 585b 76be b672 513e 8719 26bd be34 c13e
00000170: 0453 18bd 9000 11bd ec89 45be 2785 04be
00000180: d984 173e 9f6c 02bc e63b c23d a94f 34b8
00000190: c124 59be 337d 4abe c071 b53d c7c0 9ebd
000001a0: c25d 683d c2f9 4cbe 8685 42bd f410 a1bd
000001b0: 8542 1cbd 54a4 28bb a051 ce3d 0c21 f7bd
000001c0: 00ed 3e3d 4d61 2fbe ae61 c03d ea53 66be
000001d0: eb62 7e3e 9183 91bc b8bc 81bd e36d c6bd
000001e0: a64b 213e c83c 983d ca17 aebd 0496 5cbd
000001f0: fa08 2d3e 2078 0cbe 4348 f9bd cbc4 833d
00000200: 834a a83d a46e 863d c754 0abe bc75 00bd
00000210: eb2f 463b 43bd 4bbe 8ee7 31be 87be 9cbd
00000220: 39d2 00be cce0 edbd 8357 11be abe1 42be
00000230: 0fc5 ab3c 744f ef3c 5817 0e3d 9267 183e
00000240: 97d0 a73d 956e 60be 03b7 42be 4239 d3bd
00000250: 9e6b d13d 2ca2 74be 47a9 11bd af49 df3d
00000260: ecc5 a93b ef90 913c b4e1 edbd f9a9 81bd
00000270: e1cd 99bd 95b3 13be 07bc 9abc 6b52 f6bc
00000280: d6e7 50be be06 f13d 9d5b 343d 55c7 eebb
00000290: 8b9a c5bd 1bc5 18be daf7 593d 4481 aabd
000002a0: b527 463d 752b aabd e768 b7bb fc53 0d3e
000002b0: 4265 063e a383 c1bc f670 1f3e f99a 2abc
000002c0: 0a9f 14be dc47 a63d 3366 0fbe b9f1 38bd
000002d0: a9af 433d b940 6e3d ee8e d73d 5a0c 4cbe
000002e0: b6b8 8e3b 34b4 aa3c 1c3f fabd 6d45 f1bc
000002f0: 0c8b c73d 3928 243c 23c1 7bbd 55be ff3d
00000300: 3e7e 563e 21ca 58bd 51ec c73e fb03 45bc
00000310: 3917 38bd ef8b 043e 6bbd 013e 640d c9bd
00000320: 051c 2abe 8f17 4cbe a386 cb3d f637 f1bd
00000330: d3da 923d 1c52 a13d 0f8c 27be f358 143d
00000340: 906a a13d 9bb1 debb 2e21 243d ce61 8abd
00000350: fffc e0bd 570a 18bd 1f6f 463d be88 07be
00000360: f88f 643d 5157 c7bd 46ba e2bd 5100 8abb
00000370: 7f92 eebb 4a98 83bd 5ec4 9ebe d7a1 7d3d
00000380: 080b 1f3e e6ed 0f3d 573a 08bd c7b8 3c3d
00000390: 4c5c 7cbd 8628 ea3c ab39 303e 6e4e ef3d
000003a0: 8d26 0fbe 72d6 50bd 1db3 80be 1bb5 263d
000003b0: 43d1 9c3d 0524 053e 386e bdbc 4d0c 003e
000003c0: a6ee 21be f58f 10bd f21a 0ebe 1112 ab3c
000003d0: 7986 473e ad89 063e 156f 9ebd 288c 35ba
000003e0: f228 54bd 5f3b 7c3c 2dd2 7e3d 2ff5 f8bc
000003f0: fd86 f43d 98d6 0ebd deeb eb3c 36f2 113c

network_body.linear_encoder.seq_layers.2.bias f4 [128]
-0.043017723 0.0045348518 -0.06630577 0.04779638 0.001610292 -0.028675422 -0.0035363343 0.047561344
-0.04290355 0.01579233 -0.04693176 -0.03974104 0.039241 0.015171962 -0.03925836 -0.044907205
-0.010380265 -0.047018856 -0.028061753 0.005037951 0.07860169 0.042937264 -0.023514643 -0.10897772
0.0026993924 -0.0323831 0.002371635 -0.020805694 -0.026205659 -0.0021382675 -0.06697674 0.0337449
-0.03590597 -0.03890039 0.0023213755 -0.14296104 -0.0039854115 -0.1323198 -0.045104276 0.03012342
0.011167353 0.014881991 -0.0685726 -0.048765264 0.019180765 0.045590222 0.021309678 -0.028849766
-0.034518227 -0.014211256 -0.09227136 -0.012948165 0.015544295 0.06117813 -0.008931127 -0.069325924
-0.004255414 0.059626874 0.019102765 -0.056973767 -0.042129993 -0.06333291 -0.030067781 -4.37037e-05
-0.05968639 -0.068443194 -0.021114059 0.01889025 0.018557742 -0.109563686 0.025574684 0.04079732
-0.032049693 -0.002068693 -0.13555406 -0.09692482 -0.0035210825 -0.0069048135 -0.048274778 0.0011178247
0.0052667204 -0.089802496 0.0010788736 0.041874897 -0.03640176 -0.054043178 0.03602199 -0.027630443
0.042985834 0.056202263 0.043124422 -0.033231273 -0.08131778 0.0042442493 -0.022353638 0.009164656
-0.031181963 0.0074172863 -0.10256859 -0.04626881 -0.0024512238 -0.023158431 -0.047420353 -0.10203085
-0.008633624 0.021724192 -0.04284636 -0.0009949103 0.03434226 -0.11238366 -0.038298003 0.0076187183
-0.048201326 -0.050049137 -0.039466243 -0.064313464 -0.067355685 -0.008694522 -0.06011327 0.07076943
-0.022247652 0.0013973406 0.012246072 0.0008222257 -0.019458683 0.05846514 -0.010053156 -0.0153224785
00000000: 5a33 30bd 1899 943b 52cb 87bd 23c6 433d
00000010: 6f10 d33a b8e8 eabc d8c1 67bb afcf 423d
00000020: a2bb 2fbd eb5e 813c 843b 40bd 80c7 22bd
00000030: 2cbb 203d d293 783c 60cd 20bd 9ef0 37bd
00000040: fd11 2abc d896 40bd c3e1 e5bc 6515 a53b
00000050: ecf9 a03d fcde 2f3d c8a1 c0bc b62f dfbd
00000060: 4ae8 303b 24a4 04bd 6f6d 1b3b b470 aabc
00000070: 40ad d6bc 2d22 0cbb 1a2b 89bd 1838 0a3d
00000080: 2312 13bd 0456 1fbd 3822 183b 6164 12be
00000090: 0e98 82bb d77e 07be 43bf 38bd 64c5 f63c
000000a0: 46f7 363c 98d3 733c cb6f 8cbd 16be 47bd
000000b0: fb20 9d3c d0bc 3a3d a291 ae3c 5856 ecbc
000000c0: fc62 0dbd 54d6 68bc c4f8 bcbd 8a24 54bc
000000d0: 80ad 7e3c eb95 7a3d dd53 12bc c0fa 8dbd
000000e0: 0071 8bbb 4f3b 743d 677d 9c3c 535d 69bd
000000f0: 8090 2cbd afb4 81bd b550 f6bc 7e4e 37b8
00000100: b779 74bd f22b 8cbd 64f7 acbc babf 9a3c
00000110: 6806 983c ed62 e0bd 0082 d13c 171b 273d
00000120: 8a46 03bd e992 07bb afce 0abe 8580 c6bd
00000130: f6c1 66bb c641 e2bb c6bb 45bd f983 923a
00000140: 7494 ac3b 5fea b7bd fe68 8d3a 0385 2b3d
00000150: 031a 15bd 615c 5dbd cb8b 133d 3d59 e2bc
00000160: ea11 303d 5834 663d 3ca3 303d 841d 08bd
00000170: f089 a6bd 5813 8b3b fa1e b7bc 5a27 163c
00000180: 5171 ffbc b50c f33b 7b0f d2bd 5d84 3dbd
00000190: b6a4 20bb c0b6 bdbc d83b 42bd 8df5 d0bd
000001a0: 0b74 0dbc eff6 b13c aa7f 2fbd a667 82ba
000001b0: 78aa 0c3d 6829 e6bd 5ede 1cbd 71a6 f93b
000001c0: c16e 45bd 5300 4dbd 5ba7 21bd c7b6 83bd
000001d0: c7f1 89bd 7873 0ebc 5539 76bd 90ef 903d
000001e0: b540 b6bc f826 b73a c0a3 483c a28a 573a
000001f0: d167 9fbc 2579 6f3d feb5 24bc 220b 7bbc

action_model._discrete_distribution.branches.0.weight f4 [3, 128]
0.027742328 0.07701151 -0.03875618 -0.20323978 -0.08715295 -0.03263842 -0.014852233 0.067000695
0.014898195 -0.011166827 0.10944829 -0.043770153 -0.0413342 -0.0013667968 0.067442894 -0.035876784
-0.028314117 -0.05630266 -0.022843802 -0.0884514 -0.09244688 -0.1252987 -0.025577027 -0.004487231
-0.03674007 0.015112113 0.011090726 0.017552007 0.023622304 0.06495761 0.03213903 -0.0651415
-0.015834523 -0.004801322 0.013006713 -0.008623291 -0.028979134 -0.018108672 0.060120244 -0.05578837
0.020610834 0.01566986 0.043731857 -0.015921965 -0.072077595 0.087150894 -0.0555976 0.0028177218
-0.018586522 -0.06874673 -0.0546989 0.12280894 0.12169825 -0.06793437 0.0932129 0.077465594
-0.07821124 -0.11047241 -0.076076575 0.07340666 -0.0012513506 -0.05082018 0.05185514 -0.051677246
0.03984833 0.042069733 -0.22291355 -0.04593264 -0.024120705 -0.0007039341 -0.124289416 -0.13388607
0.041091885 -0.05202837 -0.04142076 -0.008736543 -0.07362498 0.103456244 0.10514687 0.1086088
-0.016904462 0.024967857 -0.06333354 0.00770378 -0.0644491 0.038904864 -0.05863789 0.038323984
-0.08300037 -0.05176468 -0.044487663 -0.010065483 -0.036255486 -0.0021066803 -0.033983067 -0.06358789
-0.0696054 0.03494195 -0.05428658 0.06299541 0.21097317 0.034375947 -0.019036213 0.02676927
-0.007100483 -0.17406306 -0.07589474 -0.05568667 -0.032190807 0.06121681 0.04362945 -0.24588121
-0.12038516 -0.011987316 0.04166851 -0.027483093 0.025978148 -0.06840985 0.05778291 -0.04286181
-0.022886058 -0.025552433 -0.022573616 0.009169338 0.10209611 0.17223841 0.026382418 0.020839445
-0.29478636 -0.056146692 0.065817565 -0.025635133 -0.005822875 -0.002925803 -0.018818704 -0.24531418
0.03941926 -0.049825866 -0.10833596 0.010078433 -0.083326995 0.041162636 0.09257957 0.05990655
0.028418923 0.036187682 -0.0123588 0.01973576 -0.07503382 0.10469472 -0.03374229 0.13280298
-0.07273414 0.009031717 -0.06691359 -0.05575015 -0.12316087 0.03669428 0.051027477 -0.032701757
-0.124896914 -0.01756083 -0.0807586 0.07965267 -0.005302595 -0.07196586 -0.08976586 -0.14078167
-0.09666409 0.028700573 -0.013854956 -0.026013454 -0.07083208 -0.11267114 -0.031493973 -0.016206605
-0.049527593 -0.04197347 0.06262923 0.03788673 -0.31911576 0.008505464 -0.20864332 -0.002736567
-0.0020718582 -0.044063404 -0.054688495 -0.013390075 0.021267293 0.085999966 -0.12162572 -0.09867136
-0.38649267 -0.054113287 0.098868415 -0.084090285 -0.047324926 0.07274604 0.29182026 0.0003605296
0.025777651 -0.050687384 0.055751745 0.021651067 -0.0031495432 -0.076066196 -0.0022019867 -0.058522627
-0.0658683 0.021578282 0.16358343 -0.111946195 0.047059014 -0.0047479854 -0.053238515 -0.047037616
-0.037668996 -0.051930163 -0.059281975 0.008349154 -0.041001443 -0.03707972 0.004531889 -0.24059588
0.037441593 -0.0632569 0.114667065 0.05635621 -0.23643461 -0.023107482 -0.0444148 0.015001162
-0.03136974 -0.012755398 -0.031336784 -0.047899667 -0.06939696 -0.05929904 -0.07074214 -0.021244656
-0.0985482 0.03423027 -0.121167645 -0.00040832922 0.051235646 -0.01162167 0.015079813 -0.031872246
-0.028377594 -0.04124252 -0.053923108 -0.049257193 0.07676135 -0.1509758 -0.0030809592 -0.07326041
00000000: e143 e33c 36b8 9d3d cdbe 1ebd 171e 50be
00000010: 3f7d b2bd ddaf 05bd c856 73bc a937 893d
00000020: 8f17 743c 11f5 36bc 6d26 e03d 5548 33bd
00000030: 0d4e 29bd 1726 b3ba 801f 8a3d 89f3 12bd
00000040: 02f3 e7bc 9e9d 66bd ed22 bbbc 0226 b5bd
00000050: ca54 bdbd 4d4e 00be ea86 d1bc 9f09 93bb
00000060: c17c 16bd cc98 773c e0b5 353c 3ac9 8f3c
00000070: 9083 c13c 7f08 853d 37a4 033d e868 85bd
00000080: 67b7 81bc 6854 9dbb 1c1a 553c b448 0dbc
00000090: a665 edbc a358 94bc a540 763d 5982 64bd
000000a0: 0dd8 a83c 145e 803c 2d20 333d c86e 82bc
000000b0: 6b9d 93bd 2b7c b23d 4fba 63bd 87a9 383b
000000c0: c342 98bc 16cb 8cbd f40b 60bd 4183 fb3d
000000d0: ef3c f93d 2d21 8bbd 68e6 be3d 48a6 9e3d
000000e0: 372d a0bd 5c3f e2bd 09ce 9bbd 3b56 963d
000000f0: 5c04 a4ba d228 50bd 0e66 543d 85ab 53bd
00000100: 0138 233d 5051 2c3d 7343 64be dd23 3cbd
00000110: c998 c5bc 3888 38ba 738b febd 6e19 09be
00000120: f74f 283d b31b 55bd d1a8 29bd b823 0fbc
00000130: b2c8 96bd dee0 d33d 3e57 d73d 4a6e de3d
00000140: 3a7b 8abc 6489 cc3c 04b5 81bd fe6f fc3b
00000150: e4fd 83bd b55a 1f3d 492e 70bd 9cf9 1c3d
00000160: 19fc a9bd 3307 54bd b238 36bd b2e9 24bc
00000170: a280 14bd 3b10 0abb d431 0bbd 5e3a 82bd
00000180: 478d 8ebd 4a1f 0f3d 9b5b 5ebd bd03 813d
00000190: 5a09 583e cbcd 0c3d d5f1 9bbc 3a4b db3c
000001a0: 2bab e8bb 963d 32be b46e 9bbd b517 64bd
000001b0: 82da 03bd 7abe 7a3d cbb4 323d 49c8 7bbe
000001c0: 7f8c f6bd 7366 44bc 99ac 2a3d 3924 e1bc
000001d0: 20d0 d43c 771a 8cbd c6ad 6c3d de8f 2fbd
000001e0: 8b7b bbbc 5653 d1bc 4eec b8bc fe3a 163c
000001f0: c417 d13d 445f 303e f11f d83c 7cb7 aa3c
00000200: 3dee 96be 13fa 65bd 5ccb 863d c500 d2bc
00000210: d1cd bebb d4be 3fbb af29 9abc a433 7bbe
00000220: 1776 213d 3516 4cbd 3edf ddbd 0320 253c
00000230: 58a7 aabd 279a 283d 5c9a bd3d 9260 753d
00000240: cdce e83c 8939 143d 907c 4abc e3ac a13c
00000250: 55ab 99bd 2f6a d63d 5b35 0abd 81fd 073e
00000260: a3f5 94bd c4f9 133c fe09 89bd 455a 64bd
00000270: c43b fcbd be4c 163d 3002 513d 47f2 05bd
00000280: f4c9 ffbd bbdb 8fbc c464 a5bd f020 a33d
00000290: 64c1 adbb d662 93bd 2ad7 b7bd 1229 10be
000002a0: d3f7 c5bd 771d eb3c e6ff 62bc 2b1a d5bc
000002b0: 6910 91bd 20c0 e6bd d3ff 00bd b7c3 84bc
000002c0: 72dd 4abd 60ec 2bbd c143 803d 1e2f 1b3d
000002d0: 2463 a3be 805a 0b3c 98a6 55be fa57 33bb
000002e0: 03c8 07bb d47b 34bd 0b01 60bd 0c62 5bbc
000002f0: bf38 ae3c c020 b03d e816 f9bd 3614 cabd
00000300: 5ee2 c5be e5a5 5dbd 867b ca3d 8737 acbd
00000310: c8d7 41bd e0fb 943d 7769 953e 7705 bd39
00000320: a72b d33c 939d 4fbd f15b 643d 945d b13c
00000330: 9168 4ebb 98c8 9bbd 354f 10bb 6cb5 6fbd
00000340: f6e5 86bd f0c4 b03c 6a82 273e 0c44 e5bd
00000350: f4c0 403d fd94 9bbb a110 5abd 84aa 40bd
00000360: ce4a 1abd b9b4 54bd a8d1 72bd e4ca 083c
00000370: 21f1 27bd e8e0 17bd 3e80 943b c45e 76be
00000380: 5b5c 193d d58c 81bd 91d6 ea3d c5d5 663d
00000390: ea1b 72be e74b bdbc 4bec 35bd 6fc7 753c
000003a0: 8e7d 00bd 04fc 50bc 005b 00bd 7132 44bd
000003b0: fe1f 8ebd 8de3 72bd 41e1 90bd 4609 aebc
000003c0: a4d3 c9bd 0a35 0c3d be26 f8bd 0515 d6b9
000003d0: 78dc 513d d168 3ebc 5211 773c 798c 02bd
000003e0: 2178 e8bc ebed 28bd 7ade 5cbd e9c1 49bd
000003f0: 0e35 9d3d 6699 1abe ebe9 49bb 8e09 96bd

action_model._discrete_distribution.branches.0.bias f4 [3]
-0.0319305 -0.036344063 0.03979
00000000: 8ec9 02bd 83dd 14bd d7fa 223d

action_model._discrete_distribution.branches.1.weight f4 [2, 128]
-0.008673869 -0.0728312 -0.0018339866 0.056674544 0.10700949 0.0267125 0.07807884 -0.090913564
-0.112692565 0.060319263 -0.08663374 -0.025047153 0.009467 0.029911323 -0.068619356 0.030468771
-0.028698869 -0.0012450524 0.06343108 -0.020878538 0.1133479 0.035138533 0.016357044 -0.1950229
0.013880811 -0.115486406 0.11117628 -0.15951364 0.0032369944 0.01853074 -0.040532563 -0.008609395
0.01549745 0.010117698 0.03442336 -0.14092797 -0.009420391 0.07761133 -0.013577674 0.06388068
0.13994418 0.0785953 0.16840701 0.14693907 0.009331056 0.11062953 0.11972732 0.0022380552
0.016640108 0.16515215 -0.020457491 0.04953756 -0.067652404 0.03553727 0.03589129 -0.12767075
-0.005731062 0.013033399 0.11289448 0.04820065 -0.027642367 -0.02975364 -0.12356153 0.2232213
-0.049344357 -0.07796423 -0.18185829 0.113360874 0.049375284 -0.11762754 -0.056946974 0.060041297
0.04479707 0.080555715 -0.1638904 -0.20023784 -0.03397855 -0.11203978 -0.12492237 -0.20300229
0.047500357 -0.12321014 -0.10433093 0.05736597 -0.05454293 -0.08247762 -0.06074093 -0.0026275348
0.04757436 0.036356542 0.112463325 0.028861921 0.006307495 0.04041315 -0.0150337 0.10240673
0.06721384 -0.12590577 -0.22873889 -0.14554094 0.03455222 -0.013352098 0.18055987 -0.07780382
0.012996063 0.044924103 -0.019776294 0.070448145 0.04688984 -0.075236596 -0.022383178 -0.08331613
0.015102003 -0.10769256 -0.079506144 -0.031375613 -0.050544668 0.17390744 -0.07952436 0.12793486
-0.007799189 0.09012863 -0.017490357 0.09620898 -0.17493206 -0.109008834 -0.18587308 0.043428786
0.010953881 0.07753036 -0.0002213806 -0.060904704 -0.11196174 -0.0078767305 -0.08121775 0.07976072
0.10619642 -0.056138918 0.10113625 0.030339353 -0.0210847 -0.012468829 0.0528469 -0.0454193
0.008881358 -0.0014827994 -0.0600255 -0.00274749 -0.09969782 -0.037325613 -0.013488273 0.18333554
-0.024717664 0.119162306 -0.10864546 0.13888374 -0.029944178 -0.013855751 0.027027575 -0.00029917367
-0.03909808 -0.010494656 -0.03383105 0.122381754 0.01045189 -0.08305865 0.04103276 -0.08724873
-0.11416459 -0.09182711 -0.17479433 -0.137877 -0.0030072771 -0.099551916 -0.12082462 -0.0024787365
-0.0027768349 -0.17885627 0.013113744 -0.08206849 0.075677276 -0.032073203 -0.031728264 0.11438719
-0.011200324 -0.016085397 -0.11860161 -0.037727136 0.043876614 0.04356152 0.1301912 -0.23115349
0.038624994 0.08837275 0.18444514 -0.11922721 -0.06377323 0.119262606 0.061969705 -0.054898392
-0.045611434 -0.0618126 0.15614858 0.20281588 0.028762637 0.09664954 0.13613603 0.192103
-0.030964643 0.12884323 0.1058779 -0.05669444 0.053652607 0.09301981 0.07335005 -0.005587639
-0.049488533 -0.0525825 -0.081104964 -0.036067005 0.0053102197 -0.027172552 0.0037661279 -0.10681211
-0.08248961 0.14506665 0.21000312 0.14297807 -0.03880489 0.019826684 -0.17087014 0.0635185
0.011898578 -0.029275954 0.011765699 -0.06573529 -0.042223763 0.059534844 0.018410115 0.07475954
-0.0143708205 0.08032261 0.08664125 0.04087218 0.05619737 -0.16821934 0.092766054 -0.110521466
0.022039777 -0.06581529 -0.005829248 -0.08703875 0.18445243 0.111937776 0.18616945 -0.047506433
00000000: d81c 0ebc 8628 95bd 6162 f0ba 9123 683d
00000010: cb27 db3d 2cd4 da3c cde7 9f3d e430 babd
00000020: 5ccb e6bd 5511 773d 086d b1bd b02f cdbc
00000030: 7a1b 1b3c 9708 f53c 4e88 8cbd a599 f93c
00000040: e419 ebbc 0731 a3ba 27e8 813d 7809 abbc
00000050: f222 e83d 6ced 0f3d 35ff 853c 15b4 47be
00000060: 576c 633c 2384 ecbd 64b0 e33d 8b57 23be
00000070: c123 543b c7cd 973c 7905 26bd 6b0e 0dbc
00000080: 04e9 7d3c b4c4 253c 82ff 0c3d 6c4f 10be
00000090: fc57 1abc b0f2 9e3d e474 5ebc e0d3 823d
000000a0: 874d 0f3e 93f6 a03d e372 2c3e 3277 163e
000000b0: 49e1 183c bc91 e23d 9933 f53d 56ac 123b
000000c0: d650 883c a51d 293e 7896 a7bc e6e7 4a3d
000000d0: 588d 8abd 878f 113d bf02 133d 1fbc 02be
000000e0: a2cb bbbb 0a8a 553c 3935 e73d 0b6e 453d
000000f0: 3f72 e2bc e8bd f3bc d40d fdbd 2094 643e
00000100: 4f1d 4abd b6ab 9fbd 0f39 3abe bf29 e83d
00000110: bd3d 4a3d b5e6 f0bd 3b41 69bd dded 753d
00000120: 227d 373d 65fa a43d e3d2 27be 260b 4dbe
00000130: 182d 0bbd 1d75 e5bd 4dd7 ffbd d5df 4fbe
00000140: bc8f 423d 9955 fcbd 74ab d5bd 94f8 6a3d
00000150: 6868 5fbd 07ea a8bd 7bcb 78bd b832 2cbb
00000160: 55dd 423d 99ea 143d 2c53 e63d d66f ec3c
00000170: 1aaf ce3b 4288 253d e84f 76bc 9fba d13d
00000180: 69a7 893d 71ed 00be 873a 6abe af08 15be
00000190: a186 0d3d c2c2 5abc b0e4 383e 9c57 9fbd
000001a0: 70ed 543c 5602 383d e501 a2bc 1e47 903d
000001b0: 900f 403d a515 9abd ed5c b7bc a6a1 aabd
000001c0: 646e 773c eb8d dcbd 1ed4 a2bd b783 00bd
000001d0: ed07 4fbd cb14 323e abdd a2bd 5b01 033e
000001e0: 5790 ffbb 5c95 b83d f047 8fbc 3709 c53d
000001f0: 6421 33be 0640 dfbd 8355 3ebe 62e2 313d
00000200: e877 333c 3dc8 9e3d 6722 68b9 3677 79bd
00000210: 324c e5bd 670d 01bc 7e55 a6bd 9759 a33d
00000220: 827d d93d ecf1 65bd 8620 cf3d 3c8a f83c
00000230: d2b9 acbc 0f4a 4cbc fe75 583d 9709 3abd
00000240: 1e83 113c 7e5a c2ba 4cdd 75bd 3c0f 34bb
00000250: 5f2e ccbd bee2 18bd ebfd 5cbc 50bc 3b3e
00000260: b37c cabc 5e0b f43d 8381 debd 8a37 0e3e
00000270: 7e4d f5bc 3b03 63bc ef68 dd3c 69da 9cb9
00000280: 4f25 20bd c7f1 2bbc 6d92 0abd 49a3 fa3d
00000290: 673e 2b3c a71a aabd f811 283d 76af b2bd
000002a0: 20cf e9bd da0f bcbd 49fd 32be a12f 0dbe
000002b0: bd15 45bb e0e1 cbbd e672 f7bd 4c72 22bb
000002c0: 8ffb 35bb 1926 37be 07db 563c 8613 a8bd
000002d0: b0fc 9a3d 315f 03bd 7ff5 01bd d543 ea3d
000002e0: 9081 37bc 86c5 83bc 67e5 f2bd c587 1abd
000002f0: f7b7 333d 906d 323d d850 053e 80b3 6cbe
00000300: 3e35 1e3d c6fc b43d 30df 3c3e 652d f4bd
00000310: 8a9b 82bd f43f f43d f2d3 7d3d 23dd 60bd
00000320: 0ed3 3abd 352f 7dbd 6ae5 1f3e f7ae 4f3e
00000330: 9f9f eb3c 32f0 c53d 3e67 0b3e a6b6 443e
00000340: 90a9 fdbc 7bef 033e 83d6 d83d 6e38 68bd
00000350: d6c2 5b3d 2c81 be3d 8d38 963d 8318 b7bb
00000360: 7db4 4abd bf60 57bd 5c1a a6bd ffba 13bd
00000370: 5a01 ae3b f998 debc 24d1 763b 4fc0 dabd
00000380: 50f0 a8bd 5a8c 143e 0f0b 573e d868 123e
00000390: e0f1 1ebd 926b a23c 95f8 2ebe fd15 823d
000003a0: 41f2 423c 20d4 efbc ebc4 403c 39a0 86bd
000003b0: d3f2 2cbd cfda 733d cfd0 963c 881b 993d
000003c0: 9773 6bbc 2e80 a43d f870 b13d 9669 273d
000003d0: 372f 663d b141 2cbe 21fc bd3d 1459 e2bd
000003e0: c38c b43c 2bca 86bd 4703 bfbb 5f41 b2bd
000003f0: 19e1 3c3e a23f e53d 34a3 3e3e 1b96 42bd

action_model._discrete_distribution.branches.1.bias f4 [2]
0.074156664 -0.07415667
00000000: 73df 973d 74df 97bd

action_model._discrete_distribution.branches.2.weight f4 [2, 128]
0.06564862 -0.07478103 0.005490331 0.014384103 -0.011061388 0.12201994 0.0819088 0.17336896
-0.052506253 0.029674614 -0.21182087 0.0014126963 0.028618827 0.1462647 -0.075818226 0.087136336
0.057199202 0.013130973 0.0103811 0.009157198 -0.0032033958 0.055143587 -0.011008894 -0.07302059
0.043911394 -0.19259462 0.01889209 -0.18670909 -0.03951833 0.0030556277 0.025452124 0.03355646
0.064156696 0.024396786 0.0324973 -0.16730925 0.027102442 -0.02282455 -0.042689476 0.10772997
-0.030354282 0.035770148 0.049713936 0.031433187 0.022249913 0.071451396 0.03834302 -0.009978986
-0.013634388 0.030658154 0.03015461 0.054859433 0.30501914 0.05034105 0.16436201 -0.16936904
0.0044293925 0.036111694 -0.020804832 -0.056865696 -0.14324594 -0.06711561 -0.02538932 0.061362624
0.012154281 -0.09743125 -0.07377056 -0.06368538 0.06280261 0.017320901 -0.051037036 0.013679411
0.02139682 0.011871126 -0.27537712 -0.14857057 0.034856025 -0.01397079 -0.18183026 0.060419064
0.02102281 -0.17935307 -0.22671287 0.033488307 -0.041471194 -0.1457534 -0.101097494 0.0899419
0.0060921623 0.054201365 0.18797888 0.045576792 0.009776677 0.03221109 -0.0024229214 -0.041406352
-0.0016574968 -0.034396794 -0.1821455 -0.025010318 -0.061577436 -0.031255756 -0.054318585 -0.22328557
0.032742552 0.06248163 -0.011344759 -0.019956289 0.039956067 0.039533734 0.021744793 -0.066110924
-0.065742336 0.0013598255 0.054021258 0.048186187 0.051659204 0.10032401 -0.17691821 0.018283635
0.017973553 0.017364524 0.0299099 -0.015091703 -0.09520746 0.028731553 0.05619805 0.034930248
-0.065378405 0.07461231 -0.0024815802 -0.026123548 0.017426115 -0.11621491 -0.056877177 -0.16062194
0.054668535 -0.030959088 0.2046153 -0.010301106 -0.043392424 -0.1501681 0.07436322 -0.085576065
-0.050227217 -0.0011406366 -0.014368257 0.009870894 -0.0008645776 -0.05301226 0.011448813 0.07410711
-0.04500689 0.19600497 -0.021994725 0.17929702 0.05005185 0.0057667554 -0.02077905 -0.032211646
-0.049629625 -0.034109697 -0.021955416 0.15864383 -0.028398538 0.038984627 0.033241127 -0.11915603
0.030780278 -0.038673364 -0.035483122 -0.04181854 -0.04405058 -0.072323784 -0.031171074 -0.004029075
0.017654028 -0.04256492 -0.017159838 -0.07474792 -0.30187604 -0.044104893 -0.18048225 0.16957484
-0.008799992 -0.027171023 0.004420386 0.07233662 0.13965836 0.0717891 0.029127588 -0.07636903
0.005266489 0.10138491 0.08527285 0.046785917 -0.07724979 -0.00763603 0.048245702 -0.016824279
-0.027912732 -0.018190978 0.26920813 0.1508922 -0.027493322 -0.0034293518 0.19908878 -0.049370836
-0.027771248 0.18293242 0.2254292 -0.03225193 0.054034963 0.16168194 0.10048743 -0.09496724
-0.01052568 -0.07280699 -0.19002388 -0.03772711 0.0010873036 -0.034100965 -0.0020468824 0.01902739
0.015887532 0.039753348 0.18633203 0.010926945 0.07868122 0.019048313 0.03814833 0.2276081
-0.018729761 -0.06786696 0.022746947 0.027187804 -0.03510012 -0.04776648 -0.03272176 0.062144075
0.056603774 0.005030036 -0.05749168 -0.055802476 -0.04874094 -0.08447496 0.18269944 -0.026717318
-0.015374535 -0.031157926 -0.03494523 0.022383822 0.08802034 -0.07925853 -0.053598 -0.036408346
00000000: c972 863d cc26 99bd 3ce8 b33b 4dab 6b3c
00000010: d33a 35bc 97e5 f93d cdbf a73d a287 313e
00000020: cc10 57bd 2d18 f33c 92e7 58be 392a b93a
00000030: 0872 ea3c 6ac6 153e 9646 9bbd 8974 b23d
00000040: b649 6a3d 4b23 573c 7d15 2a3c 1208 163c
00000050: 10f0 51bb 3ede 613d a65e 34bc d28b 95bd
00000060: 6fdc 333d 8637 45be 96c3 9a3c ab30 3fbe
00000070: f9dd 21bd ed40 483b f980 d03c 8072 093d
00000080: 9664 833d c5db c73c e41b 053d 1e53 2bbe
00000090: f105 de3c 8dfa babc 29db 2ebd 88a1 dc3d
000000a0: 8ba9 f8bc b883 123d d7a0 4b3d 16c0 003d
000000b0: 7345 b63c 1c55 923d 920d 1d3d e77e 23bc
000000c0: c562 5fbc cf26 fb3c cd06 f73c 49b4 603d
000000d0: 782b 9c3e 6b32 4e3d 844e 283e 146f 2dbe
000000e0: 7024 913b dbe9 133d e56e aabc 01ec 68bd
000000f0: 10af 12be e973 89bd 43fd cfbc 6057 7b3d
00000100: c022 473c 098a c7bd 0515 97bd 7b6d 82bd
00000110: a89e 803d 90e4 8d3c 360c 51bd 9c1f 603c
00000120: 6248 af3c 1c7f 423c 3bfe 8cbe e222 18be
00000130: 31c5 0e3d bee5 64bc b631 3abe fb79 773d
00000140: 0738 ac3c 55a8 37be 6b27 68be 092b 093d
00000150: b3dd 29bd 6140 15be 340c cfbd 7533 b83d
00000160: c3a0 c73b 4002 5e3d 897d 403e bbae 3a3d
00000170: 5b2e 203c c7ef 033d e0c9 1ebb b599 29bd
00000180: 5d40 d9ba a7e3 0cbd 5a84 3abe 70e2 ccbc
00000190: 9f38 7cbd 0906 00bd 2a7d 5ebd f9a4 64be
000001a0: 0e1d 063d bdec 7f3d 5edf 39bc 5f7b a3bc
000001b0: f9a8 233d 20ee 213d 2322 b23c 2a65 87bd
000001c0: eba3 86bd 2c3c b23a 6545 5d3d e15e 453d
000001d0: 9a98 533d ad76 cd3d 0c2a 35be 90c7 953c
000001e0: 463d 933c 0c40 8e3c 9b05 f53c 3143 77bc
000001f0: 21fc c2bd 6f5e eb3c ed2f 663d 0513 0f3d
00000200: 1de5 85bd 57ce 983d 02a2 22bb 0d01 d6bc
00000210: 36c1 8e3c 1502 eebd 0bf8 68bd 147a 24be
00000220: 1dec 5f3d ea9d fdbc ac86 513e f8c5 28bc
00000230: 41bc 31bd abc5 19be be4b 983d 8142 afbd
00000240: 0ebb 4dbd 6a81 95ba d668 6bbc 88b9 213c
00000250: d2a4 62ba 6223 59bd cd93 3b3c 78c5 973d
00000260: 2559 38bd 87b5 483e 482e b4bc a399 373e
00000270: 2b03 4d3d 0df7 bc3b d438 aabc 5cf0 03bd
00000280: 6f48 4bbd 9cb6 0bbd d8db b3bc 8773 223e
00000290: 0da4 e8bc 58ae 1f3d d927 083d 1408 f4bd
000002a0: ec26 fc3c f667 1ebd c056 11bd eb49 2bbd
000002b0: 626e 34bd 7e1e 94bd 7b5a ffbc 5506 84bb
000002c0: 2e9f 903c 8e58 2ebd ca92 8cbc 7015 99bd
000002d0: 7f8f 9abe 55a7 34bd 57d0 38be 07a5 2d3e
000002e0: d72d 10bc c495 debc e3d8 903b 3925 943d
000002f0: 9a02 0f3e 2a06 933d fb9c ee3c 5e67 9cbd
00000300: 8392 ac3b e4a2 cf3d 88a3 ae3d 97a2 3f3d
00000310: 2335 9ebd aa37 fabb 499d 453d 12d3 89bc
00000320: 3ea9 e4bc 3f05 95bc a6d5 893e 7c83 1a3e
00000330: ad39 e1bc fabe 60bb eedd 4b3e 1339 4abd
00000340: 8780 e3bc a352 3b3e ead6 663e 9a1a 04bd
00000350: c453 5d3d f38f 253e 5bcc cd3d 2f7e c2bd
00000360: e773 2cbc d51b 95bd 9f95 42be be87 1abd
00000370: db83 8e3a 74ad 0bbd fd24 06bb 54df 9b3c
00000380: 9226 823c 68d4 223d d3cd 3e3e ee06 333c
00000390: 9f23 a13d 350b 9c3c 6c41 1c3d 1912 693e
000003a0: 286f 99bc d5fd 8abd ce57 ba3c f5b8 de3c
000003b0: 25c5 0fbd c9a6 43bd 4107 06bd c98a 7e3d
000003c0: 5cd9 673d 00d3 a43b 657c 6bbd 2391 64bd
000003d0: 94a4 47bd 3501 adbd 9015 3b3e 47de dabc
000003e0: 79e5 7bbc e83e ffbc bb22 0fbd 475e b73c
000003f0: 0244 b43d 4c52 a2bd 9489 5bbd eb20 15bd

action_model._discrete_distribution.branches.2.bias f4 [2]
0.09171526 -0.091715276
00000000: 36d5 bb3d 38d5 bbbd

action_model._discrete_distribution.branches.3.weight f4 [2, 128]
0.15822844 -0.049709614 0.0296314 0.0059811682 -0.001400343 -0.029343644 0.012664231 -0.13676828
0.21853933 0.1231663 0.12934704 0.021007363 -0.056083966 -0.0039678547 0.098382816 0.085158184
-0.1600318 0.036024995 -0.004028942 0.06395183 -0.013623295 0.050996773 -0.0750418 -0.03139011
0.012644154 -0.07253598 0.03543519 -0.17492881 -0.2202219 0.15843002 -0.09839688 0.11797117
-0.13651296 0.078564376 0.12746733 -0.008652327 -0.013075441 -0.17817514 -0.13797435 0.047891464
-0.009594586 0.005897288 -0.055328995 0.035525974 -0.06648883 0.1437923 0.11854289 0.019997047
0.010652964 -0.012324622 0.08378009 -0.19913861 -0.113671094 -0.018361002 0.049663346 -0.06587559
0.082993746 -0.04009503 -0.092303246 -0.049539424 0.13301724 -0.08898478 -0.082901046 0.05484098
0.11056375 -0.21009621 -0.06765241 0.04469357 -0.009336503 -0.051873095 0.17419028 -0.026214497
0.1276732 -0.03652957 -0.03574006 -0.08982642 -0.02561116 -0.13278733 -0.08379114 -0.15543976
0.05561433 -0.057467304 0.023530878 -0.018414978 0.012845186 -0.07347855 -0.16579607 0.05585035
-0.021041745 5.344186e-05 -0.010317333 0.14156164 -0.11465363 -0.024617447 -0.0002137445 -0.008346247
0.014915401 -0.19488285 -0.065356016 -0.070617065 -0.038929686 0.07346608 -0.080450945 -0.0654682
-3.973869e-05 -0.11926872 0.037178233 -0.02648848 -0.0069784387 -0.21984436 0.035060722 0.054057345
-0.20195661 -0.0495246 -0.14754933 -0.09623621 -0.06714376 0.10504875 -0.07436555 0.02281828
0.027691599 -0.006014706 0.007530086 0.016206658 -0.20424004 -0.0869082 0.0882939 -0.002516962
-0.14969574 0.07072114 -0.042534687 0.0019201424 0.019129904 0.027780242 -0.009112655 0.1334286
-0.21079025 -0.11594892 -0.119410805 -0.004931097 0.062970534 0.008599525 -0.10092473 -0.07662476
0.13539597 -0.0077242274 -0.0071617323 -0.06859394 0.030578772 -0.04437265 0.07510572 0.03790435
-0.027115403 0.055691227 -0.022755692 0.14965434 0.21676229 -0.1533138 0.106360324 -0.11615782
0.144108 -0.08817003 -0.1252244 -0.0039856867 0.028708097 0.1448314 0.13137016 -0.022633797
-0.0073063024 -0.02045521 0.060710363 -0.044747405 0.037101805 -0.13440742 -0.11980506 -0.0023594724
0.0072076065 0.017546238 -0.09583113 0.19569762 0.12047149 0.02343725 -0.04569024 0.07547241
-0.089491144 0.057666283 0.08249141 0.07028337 -0.14359209 0.0845658 0.07537849 -0.055739544
-0.10511391 0.20379147 0.071483396 -0.038429864 0.011737329 0.059667744 -0.1834813 0.01267488
-0.13775514 0.028217722 0.033660766 0.086591676 0.032396704 0.12211961 0.08797394 0.12999506
-0.060144853 0.038764793 -0.035994753 0.028059447 0.0010830428 0.07629973 0.15910925 -0.06683775
0.017393395 0.0011576581 0.009355292 -0.12580918 0.11456243 0.034022067 -0.00501421 0.013838256
-0.014346141 0.17204072 0.06694864 0.06553025 0.03873381 -0.05869344 0.093403146 0.061967704
-0.002984829 0.11627155 -0.06351744 0.017719882 0.005754838 0.21906456 -0.04513832 -0.03599701
0.20380946 0.030547997 0.1377845 0.10600572 0.06454884 -0.11393058 0.07106623 -0.020299697
-0.021830913 -0.0010813304 0.003815799 -0.008720679 0.22930074 0.08104707 -0.09145849 0.0079799965
00000000: a306 223e 4f9c 4bbd 8dbd f23c adfd c33b
00000010: b78b b7ba 1562 f0bc a27d 4f3c fc0c 0cbe
00000020: c6c8 5f3e 9d3e fc3d 8d73 043e a217 ac3c
00000030: 4db8 65bd c704 82bb ee7c c93d 6a67 ae3d
00000040: 60df 23be f28e 133d 3705 84bb 2df9 823d
00000050: 3e34 5fbc fee1 503d 84af 99bd ea92 00bd
00000060: 6d29 4f3c be8d 94bd 7d24 113d 8a20 33be
00000070: da81 61be 7b3b 223e 4e84 c9bd de9a f13d
00000080: 0eca 0bbe 5ce6 a03d cc86 023e 7dc2 0dbc
00000090: 603a 56bc 8b73 36be 2649 0dbe d729 443d
000000a0: 9c32 1dbc 0a3e c13b a8a0 62bd af83 113d
000000b0: 4c2b 88bd 4a3e 133e 9dc6 f23d d9d0 a33c
000000c0: c589 2e3c 36ed 49bc e594 ab3d feea 4bbe
000000d0: 64cc e8bd d069 96bc cb6b 4b3d c8e9 86bd
000000e0: a0f8 a93d b03a 24bd 7c09 bdbd dae9 4abd
000000f0: ac35 083e a73d b6bd 06c8 a9bd efa0 603d
00000100: 3f6f e23d 7623 57be 598d 8abd 9b10 373d
00000110: 22f8 18bc e278 54bd f05e 323e c9bf d6bc
00000120: c3bc 023e 08a0 15bd 2b64 12bd eaf6 b7bd
00000130: 7fce d1bc 67f9 07be b09a abbd 9a2b 1fbe
00000140: dacb 633d d662 6bbd d4c3 c03c 02db 96bc
00000150: 9d74 523c ec7b 96bd 72c6 29be 56c3 643d
00000160: bd5f acbc c326 6038 080a 29bc 89f5 103e
00000170: 86cf eabd 87aa c9bc 9a20 60b9 b2be 08bc
00000180: ba5f 743c 5f8f 47be 60d9 85bd ae9f 90bd
00000190: bc74 1fbd 6275 963d 77c3 a4bd 3114 86bd
000001a0: 18ad 26b8 2943 f4bd 3448 183d 5efe d8bc
000001b0: 63ab e4bb e11e 61be d59b 0f3d 3c6b 5d3d
000001c0: b7cd 4ebe 4fda 4abd 2c17 17be 7d17 c5bd
000001d0: ab82 89bd cd23 d73d f74c 98bd 67ed ba3c
000001e0: 7ed9 e23c 0317 c5bb f1be f63b d3c3 843c
000001f0: 4d24 51be edfc b1bd 6fd3 b43d 9df3 24bb
00000200: d749 19be 3fd6 903d da38 2ebd 4aad fb3a
00000210: 51b6 9c3c 6493 e33c 3f4d 15bc 82a1 083e
00000220: 66d9 57be a176 edbd a78d f4bd 0a95 a1bb
00000230: b2f6 803d 06e5 0c3c a0b1 cebd 71ed 9cbd
00000240: 3ea5 0a3e 841b fdbb f7ac eabb fb7a 8cbd
00000250: 5580 fa3c 19c0 35bd 07d1 993d 9741 1b3d
00000260: 1f21 debc 7c1c 643d 256a babc fd3e 193e
00000270: eff6 5d3e 4bfe 1cbe 71d3 d93d 27e4 edbd
00000280: 0c91 133e 7d92 b4bd d33a 00be 5d9a 82bb
00000290: 3e2d eb3c af4e 143e e685 063e 836a b9bc
000002a0: b569 efbb af91 a7bc 6eab 783d 0e49 37bd
000002b0: 10f8 173d 19a2 09be 5b5c f5bd 61a1 1abb
000002c0: c92d ec3b 21bd 8f3c 1d43 c4bd f564 483e
000002d0: c2b9 f63d 7aff bf3c b025 3bbd 4791 9a3d
000002e0: 2247 b7bd 7b33 6c3d 42f1 a83d baf0 8f3d
000002f0: ce09 13be d630 ad3d 0a60 9a3d 264f 64bd
00000300: f645 d7bd b6ae 503e e365 923d a268 1dbd
00000310: ed4d 403c 2a66 743d 86e2 3bbe 4daa 4f3c
00000320: af0f 0dbe da28 e73c dfdf 093d fa56 b13d
00000330: 68b2 043d d919 fa3d ae2b b43d 6d1d 053e
00000340: 735a 76bd d5c7 1e3d 3c6f 13bd eddc e53c
00000350: e3f4 8d3a 0843 9c3d 89ed 223e 3be2 88bd
00000360: 987c 8e3c 8fbc 973a f046 193c 1fd4 00be
00000370: b59f ea3d b95a 0b3d 3e4e a4bb dab9 623c
00000380: 140c 6bbc 712b 303e 5e1c 893d b934 863d
00000390: 58a7 1e3d 8868 70bd 264a bf3d d9d1 7d3d
000003a0: 1f9d 43bb c71f ee3d 6e15 82bd 4929 913c
000003b0: 1593 bc3b 7652 603e f6e2 38bd 9a71 13bd
000003c0: 6db3 503e cb3f fa3c 6117 0d3e 8719 d93d
000003d0: 2f32 843d 7054 e9bd 2c8b 913d 8d4b a6bc
000003e0: bed6 b2bc 6dbb 8dba 7c12 7a3b 2ee1 0ebc
000003f0: d0cd 6a3e 02fc a53d 974e bbbd 88be 023c

action_model._discrete_distribution.branches.3.bias f4 [2]
0.0066333767 -0.0066333776
00000000: cc5c d93b ce5c d9bb

98 f4 [11]
2.2676618 2.1441345 1.585274 1.851553 25.920519 0.29078284 0.3099353 0.4999988
0.26835313 0.3565038 0.49597284
00000000: 5f21 1140 8039 0940 42ea ca3f b0ff ec3f
00000010: 395d cf41 7de1 943e d7af 9e3e d8ff ff3e
00000020: 9565 893e ab87 b63e 27f0 fd3e
