results/ppo/Hero Knight Behavior/Hero Knight Behavior-38630.onnx (onnx, 78523 bytes, 12 tensors)

network_body.linear_encoder.seq_layers.0.weight f4 [128, 5]
0.20168018 0.50435483 -0.18442626 0.111448646 0.41901368 -0.6884937 -0.106753044 0.042286787
-0.032489352 -0.60437137 0.49725655 0.4676313 -0.084978655 -0.40934518 -0.12798268 0.15334295
-0.14572749 0.3209872 -0.21043597 -0.1056278 0.02274359 0.7128483 -0.24386501 0.20642261
-1.1973082 0.45916936 -0.24571057 0.5492965 0.68357366 0.49751723 0.36175057 0.29711342
-0.39617452 -0.36657685 -0.94571275 -0.51965106 -0.5868104 -0.16362289 0.2191715 0.56160975
0.67873895 -0.5717817 0.8045525 0.32726842 -0.14302132 -0.455535 0.07667227 -0.20180853
-0.4704085 -0.5570098 0.108097754 0.18288352 -0.08032231 -0.14128466 0.09051725 0.2766147
0.017427042 -0.12635356 0.14279269 -0.40310657 -0.1352744 0.27240416 0.12620601 0.39885995
-0.32484317 0.0073325858 0.06270472 -0.35884273 0.22204685 -0.77805394 0.21078534 0.05020078
0.031937096 0.009967948 -0.14389381 -0.06618442 -0.050687786 0.4041334 0.6160155 -0.19043793
0.57297903 -0.17821227 0.28716528 0.1959542 0.10707396 -0.25260958 0.3998924 0.4647319
-0.4233421 -0.5423692 -0.18231241 0.01709068 0.59277016 -0.10472387 0.426211 -0.9451277
-0.36483556 -1.1694434 -0.92090833 0.43482992 -0.081947826 0.06769514 -0.40975818 -0.30792394
0.39354035 -0.37739304 0.790183 0.15971312 -0.17324488 0.082731165 -0.06348008 0.44137636
0.18049309 0.32364103 0.2399141 -1.5076694 0.45854774 -0.3236566 0.12593678 0.059297223
-0.22609654 0.6884944 0.4871568 -0.13977678 0.10204173 -0.13194972 -0.18530984 -0.30213308
0.6051654 0.36086535 0.39911154 -0.4187003 -0.76880914 -0.5905229 0.026218617 -0.078338176
0.25869098 0.8503038 0.090503134 0.63427275 0.78292173 -0.022105483 -0.11589073 -0.27915987
0.22273691 0.28860888 -0.46444932 0.6037886 -0.5365266 0.15470907 -0.0069680475 -0.33767888
0.5502733 0.97621924 -0.6555765 0.6983567 0.21449833 -0.21105027 0.30243152 -0.3609268
-0.6057954 0.07592329 0.104852535 0.008680117 0.16054414 0.24992236 -0.11556228 0.23122767
-0.29220948 0.32316485 -0.8466849 -0.6412792 -0.8585138 -0.35706517 -0.3640715 -0.073648736
-0.12141239 -0.86826736 -0.5515057 0.19408754 1.3076757 0.17897925 -0.020248795 0.36251563
-0.5799675 0.5159362 0.4430294 0.050873116 0.18837453 -0.634727 -0.31287277 0.66718036
-0.063083395 -0.37667423 -0.42502016 -0.35206 0.37944555 -0.42988065 0.35881537 0.01871601
-0.20613895 -0.37145585 0.10376957 0.24793515 -0.345489 -0.099423945 -1.1302475 1.0791306
-0.56468123 -0.1885885 0.5033729 -0.37460127 -0.8353604 -0.18049616 0.059178393 -0.46750137
-0.37337667 -0.49718457 0.6682487 0.5441258 0.96222043 -0.18462881 -0.8379711 -0.3069226
-0.10340881 -0.26644444 0.8521153 0.14273554 0.21924321 0.077798374 0.28276816 0.11383554
-0.48484078 0.33223033 0.31789973 -0.028081963 0.6413272 -0.2647075 -0.54513174 -0.80515546
1.265458 -0.16668466 -0.39626664 -0.35758954 0.012948728 -0.052243564 0.672195 0.31856713
-0.21912885 0.43566757 -0.0366882 0.35087293 0.09207102 0.26777714 0.12456996 -0.5005089
00000000: 4085 4e3e 661d 013f 3dda 3cbe 303f e43d
00000010: f688 d63e 2041 30bf 57a1 dabd e934 2d3d
00000020: 8e13 05bd 15b8 1abf 6998 fe3e 5f6d ef3e
00000030: 4a09 aebd b195 d1be e40d 03be ef05 1d3e
00000040: 9639 15be 6f58 a43e 877c 57be 6353 d8bd
00000050: c450 ba3c 3a7d 363f c0b7 79be 7360 533e
00000060: 6541 99bf 3f18 eb3e 8d9b 7bbe b29e 0c3f
00000070: affe 2e3f 94ba fe3e 5f37 b93e 401f 983e
00000080: 63d7 cabe f6af bbbe 3b1a 72bf da07 05bf
00000090: 3539 16bf c28c 27be 7e6e 603e a8c5 0f3f
000000a0: d6c1 2d3f 4960 12bf 27f7 4d3f ba8f a73e
000000b0: 2e74 12be e23b e9be 5a06 9d3d e5a6 4ebe
000000c0: 62d9 f0be 3298 0ebf 5b62 dd3d d145 3b3e
000000d0: 0680 a4bd edac 10be 1c61 b93d 71a0 8d3e
000000e0: 28c3 8e3c d462 01be 3f38 123e fc63 cebe
000000f0: 5f85 0abe 8f78 8b3e 263c 013e 5f37 cc3e
00000100: d851 a6be 3046 f03b 556b 803d 3cba b7be
00000110: 4060 633e 8b2e 47bf 1dd8 573e 559f 4d3d
00000120: 79d0 023d 9b50 233c e658 13be b28b 87bd
00000130: ff9d 4fbd 93ea ce3e 31b3 1d3f 2902 43be
00000140: c1ae 123f 477d 36be 5407 933e 38a8 483e
00000150: 9849 db3d 0b56 81be b2be cc3e 57f1 ed3e
00000160: 4cc0 d8be b5d8 0abf 1bb0 3abe c101 8c3c
00000170: c9bf 173f 7879 d6bd 5438 da3e e4f3 71bf
00000180: bacb babe 52b0 95bf a6c0 6bbf 07a2 de3e
00000190: 43d4 a7bd c0a3 8a3d d3cb d1be 35a8 9dbe
000001a0: 1f7e c93e a939 c1be 6f49 4a3f d68b 233e
000001b0: 1b67 31be f56e a93d d801 82bd 15fc e13e
000001c0: 2ed3 383e 47b4 a53e 0bac 753e 50fb c0bf
000001d0: c5c6 ea3e 51b6 a5be 92f5 003e a5e1 723d
000001e0: da85 67be 2b41 303f 9e6c f93e a521 0fbe
000001f0: 41fb d03d d41d 07be ddc1 3dbe 30b1 9abe
00000200: 1fec 1a3f 58c3 b83e 5958 cc3e e35f d6be
00000210: add0 44bf 822c 17bf 6dc8 d63c c46f a0bd
00000220: 2573 843e 83ad 593f b559 b93d b35f 223f
00000230: 8f6d 483f 8f16 b5bc 1e58 edbd 0bee 8ebe
00000240: 2515 643e 8bc4 933e 4dcc edbe e491 1a3f
00000250: cf59 09bf 0e6c 1e3e 3854 e4bb 3fe4 acbe
00000260: b6de 0c3f 81e9 793f ddd3 27bf 81c7 323f
00000270: 73a5 5b3e 901d 58be 4ed8 9a3e 66cb b8be
00000280: 6815 1bbf ab7d 9b3d edbc d63d 0d37 0e3c
00000290: af65 243e a6eb 7f3e ebab ecbd f2c6 6c3e
000002a0: 7b9c 95be dd75 a53e 57c0 58bf e02a 24bf
000002b0: 8fc7 5bbf 3fd1 b6be 9467 babe 26d5 96bd
000002c0: 0fa7 f8bd c546 5ebf 7a2f 0dbf e2be 463e
000002d0: eb61 a73f 5646 373e cde0 a5bc a69b b93e
000002e0: c078 14bf 6514 043f c0d4 e23e 5460 503d
000002f0: 41e5 403e 787d 22bf dc30 a0be 55cc 2a3f
00000300: de31 81bd 72db c0be 3e9c d9be 3541 b4be
00000310: b046 c23e 5119 dcbe a6b6 b73e 5152 993c
00000320: 1716 53be 762f bebe 2485 d43d b6e2 7d3e
00000330: efe3 b0be c89e cbbd f3ab 90bf f420 8a3f
00000340: f38e 10bf 581d 41be 0cdd 003f bdcb bfbe
00000350: 2eda 55bf fcd3 38be 0b65 723d 575c efbe
00000360: 3a2b bfbe fa8e febe 5912 2b3f d44b 0b3f
00000370: 1454 763f 560f 3dbe 4685 56bf f624 9dbe
00000380: 00c8 d3bd 686b 88be 3a24 5a3f 4429 123e
00000390: 4b81 603e c154 9f3d fdc6 903e 9c22 e93d
000003a0: 0d3d f8be 181a aa3e c1c3 a23e 250c e6bc
000003b0: 052e 243f be87 87be c18d 0bbf ab1e 4ebf
000003c0: 87fa a13f 62af 2abe 76e3 cabe fa15 b7be
000003d0: e726 543c 59fd 55bd f914 2c3f 3b1b a33e
000003e0: 5063 60be d20f df3e 5e46 16bd 9ea5 b33e
000003f0: bb8f bc3d 161a 893e 891e ff3d 5a21 00bf

network_body.linear_encoder.seq_layers.0.bias f4 [128]
-4.9356957e-05 0.000417692 0.0018906809 -0.0026660564 0.004441755 -0.00018714584 0.0014150355 0.0005443152
-0.0051526814 -0.006934798 0.0024305363 0.005856823 0.0016427393 0.002456422 -0.0002642061 0.0012528461
-0.0043455698 -0.0013717713 0.000411053 0.0025838378 0.00056365016 0.0011905247 0.0007767121 -0.0025242292
-0.00062851433 -0.0005211451 0.0019043946 -0.0010222073 -0.0015509118 -0.00085256895 0.0030633165 -0.005732166
-0.00033446238 0.00034197024 0.00035598033 0.0023454777 0.004916223 -0.0062558753 0.0009812628 0.00065212004
0.003575294 -0.0014923175 0.0061991983 -0.0010773569 0.0059394245 -0.00049533794 0.0038171145 0.0068591265
0.012808186 0.0002858544 -0.0004629503 -0.00056806917 -0.0012117551 -0.0010928864 -0.0029665004 0.0006320034
0.0018339029 0.005331996 -0.0007556529 0.002796015 0.000509615 -0.00040060809 0.00010381351 -0.0012762541
0.001884278 -0.0018140682 0.0008093564 -0.0034901511 0.0018369062 0.00012207765 -0.002290799 0.0004538806
-8.383962e-06 0.0049927896 0.0018179411 -0.002849752 -0.0012270961 0.0003375101 0.001951754 -0.004498288
0.002413063 0.00025258592 0.0020702216 0.0009238302 -0.0011518012 0.00396832 -0.00068384095 0.0022719135
0.00020963237 -0.0013783473 -0.000981315 -0.004362259 -0.0017618008 0.0026095156 -0.0033716601 -0.0007805981
-0.004124068 0.0023705934 -0.0034966615 0.002666568 0.001210022 0.003002357 -0.0024213924 -8.52307e-05
0.0016010321 -0.0026483936 0.0008315587 0.0034688618 0.0036145048 0.006371903 0.00080263556 -0.0017558887
-0.0073440587 -0.0068918425 0.0012838893 -0.0010096877 0.0066072913 -0.0014840153 0.0012974079 -0.0031036045
-0.0062539764 0.0011582763 -0.00018749143 0.0026373807 5.6357127e-05 -0.002029239 -0.0024224608 0.00015898916
00000000: a104 4fb8 acfd da39 b9d0 f73a 01b9 2ebb
00000010: 248c 913b 943c 44b9 b678 b93a 60b0 0e3a
00000020: d3d7 a8bb 4d3d e3bb a249 1f3b 98ea bf3b
00000030: 2f51 d73a ecfb 203b 2485 8ab9 8a36 a43a
00000040: 4865 8ebb 02cd b3ba 9a82 d739 9b55 293b
00000050: ecc1 133a 610b 9c3a 449c 4b3a 8a6d 25bb
00000060: e2c2 24ba 759d 08ba e19c f93a 96fb 85ba
00000070: f747 cbba ef7e 5fba ecc1 483b e5d4 bbbb
00000080: c85a afb9 784a b339 dfa2 ba39 96b6 193b
00000090: 4518 a13b 16fe ccbb b79d 803a 09f3 2a3a
000000a0: 7b4f 6a3b de99 c3ba a522 cb3b 1936 8dba
000000b0: 819f c23b 91d9 01ba 8e28 7a3b 86c2 e03b
000000c0: 6dd9 513c bade 9539 23b8 f2b9 7aea 14ba
000000d0: c1d3 9eba 2f3f 8fba 9e69 42bb 08ad 253a
000000e0: 925f f03a 06b8 ae3b 0217 46ba 593d 373b
000000f0: af97 053a b508 d2b9 74b6 d938 fb47 a7ba
00000100: e1f9 f63a 07c6 edba fd2a 543a 05bb 64bb
00000110: 58c4 f03a f801 0039 3b21 16bb d3f6 ed39
00000120: d8a8 0cb7 8e9a a33b fb47 ee3a e8c2 3abb
00000130: 83d6 a0ba d7f3 b039 ffd1 ff3a 6066 93bb
00000140: 7b24 1e3b 826d 8439 8eac 073b 322d 723a
00000150: 09f8 96ba ae08 823b ca43 33ba 62e4 143b
00000160: c3d0 5b39 a9a9 b4ba 789f 80ba 48f1 8ebb
00000170: 3aec e6ba 6804 2b3b 12f7 5cbb 0da1 4cba
00000180: 3123 87bb f55b 1b3b 3f28 65bb 96c1 2e3b
00000190: 9a99 9e3a 31c3 443b 39b0 1ebb e2bd b2b8
000001a0: b9d9 d13a ac90 2dbb f6fc 593a d855 633b
000001b0: 54e1 6c3b 65cb d03b f667 523a d925 e6ba
000001c0: 6ea6 f0bb f7d4 e1bb 2d48 a83a 7f57 84ba
000001d0: fa81 d83b 4a83 c2ba c90d aa3a d865 4bbb
000001e0: 28ee ccbb 4ed1 973a 5999 44b9 e8d7 2c3b
000001f0: 0161 6c38 fbfc 04bb 26c2 1ebb 54b6 2639

network_body.linear_encoder.seq_layers.2.weight f4 [128, 128]
-0.14272708 0.076981075 0.1188392 0.10295656 -0.04657856 -0.098148674 0.052663673 0.0064083356
-0.038068276 -0.0071500125 0.07066575 -0.07026273 0.051680338 -0.21816511 -0.06412271 -0.14612336
-0.15070109 -0.021195382 -0.042853903 0.014635277 0.01503778 0.05537488 0.032387298 0.021194397
-0.09564557 -0.018160958 -0.0013837044 -0.06622003 0.024742808 -0.098587975 -0.078674935 -0.022785008
0.0062142895 0.07390451 -0.13020869 0.04640075 0.05874922 -0.018271362 -0.06564892 0.049518023
0.05355851 -0.04344834 -0.09118302 0.15755846 -0.041813437 0.091651164 0.007899345 0.020619476
-0.098675914 0.0740657 -0.06756898 -0.09566985 -0.049611922 -0.06595898 0.13903111 -0.014874102
-0.0972227 0.016735656 -0.0869502 -0.05994281 -0.1998928 0.010308979 0.07173797 -0.13443008
-0.08586065 0.011175303 0.08439954 0.084797904 0.12874383 -0.0628394 0.052770022 0.09739712
0.15894844 -0.18159182 0.107532635 -0.11850402 0.029562932 0.09931692 0.12156407 -0.028008493
0.09692652 -0.11165397 0.11015557 -0.030205384 0.01302584 0.013670539 0.062362954 -0.011905943
-0.030792594 -0.047609754 0.12934795 0.06491896 0.05840567 0.08181821 0.10233392 -0.03130976
0.011837627 -0.056382585 0.040515367 0.15878287 0.08514394 -0.02971234 -0.22356744 0.008446222
0.094337165 0.07848606 -0.07593597 -0.06859034 0.07445828 -0.03133498 -0.09240386 0.10439205
0.17053136 0.046875194 0.014471226 0.03988845 -0.18844157 0.0040069926 0.098157585 0.14504486
-0.08299279 -0.0066266637 -0.015198903 0.04635475 0.065986656 -0.024306394 -0.054903805 -0.075416684
0.074634224 0.104275644 -0.08107362 -0.17525713 -0.04085841 -0.05340864 0.001364069 -0.04816612
0.048574608 0.007630786 -0.11912556 -0.0921777 -0.030364892 -0.026408462 0.041034266 0.025994886
-0.0647459 -0.052453145 -0.17820176 -0.15898754 -0.00866471 0.12483325 -0.0937924 0.003547734
0.13899995 -0.071727514 0.01836432 -0.0371351 -0.07502471 0.056982126 0.0969618 -0.02412012
0.008145226 -0.080533385 0.10386987 -0.07038132 0.10614335 0.0691947 -0.04567647 -0.041368905
-0.049514994 -0.15443067 0.042435925 0.03476863 0.046202667 0.0014179611 0.19846317 0.15712473
0.20523638 -0.092194095 0.14140575 0.045343496 -0.074948035 -0.063559435 0.08381033 0.07193705
0.0956392 -0.05747353 0.009339153 -0.12067199 -0.10744553 0.06290627 0.25066918 0.009646883
0.023589032 0.0035112295 0.19269276 -0.17644176 0.17340522 -0.042170472 0.021470342 -0.22116232
0.0018340477 -0.07921513 0.030998712 -0.08122664 0.022054156 0.05800146 -0.030315282 -0.042738345
-0.007404066 -0.0017588632 -0.008131441 0.008855597 0.10311432 -0.023032052 0.05680966 -0.09467826
-0.1628362 -0.11528203 -0.06640851 0.038619395 -0.12948081 0.027093174 -0.056766786 0.02430265
0.021371901 -0.097535826 0.030848058 0.0184413 -0.05788005 -0.0698266 0.0042592967 -0.1303232
0.08423244 0.06743642 -0.034009032 0.06345621 -0.000658762 0.12796894 -0.051751073 -0.0228688
-0.13451728 0.07885933 0.03564734 -0.008162531 0.11865067 0.025886176 -0.15618414 -0.10232534
-0.04808024 -0.062284674 -0.10444012 0.10711834 0.056776285 0.07304124 -0.15195224 0.04756199
00000000: 0c27 12be 41a8 9d3d f761 f33d e4da d23d
00000010: 29c9 3ebd 2c02 c9bd ddb5 573d 04fd d13b
00000020: 7bed 1bbd a74a eabb 34b9 903d e8e5 8fbd
00000030: c3ae 533d ad66 5fbe c452 83bd 5da1 15be
00000040: 6351 1abe f0a1 adbc 9387 2fbd cdc8 6f3c
00000050: 0561 763c c5d0 623d 8ba8 043d df9f ad3c
00000060: d3e1 c3bd 4ac6 94bc 6a5d b5ba 5e9e 87bd
00000070: 6eb1 ca3c 7ee8 c9bd 5320 a1bd a0a7 babc
00000080: 3da1 cb3b 3f5b 973d 6d55 05be b60e 3e3d
00000090: 06a3 703d d3ad 95bc f172 86bd 69d3 4a3d
000000a0: 2b60 5b3d e3f6 31bd 2abe babd 0157 213e
000000b0: 9144 2bbd 9bb3 bb3d 416c 013c 2dea a83c
000000c0: 9916 cabd c2af 973d 9b61 8abd 8eee c3bd
000000d0: df35 4bbd 8015 87bd 2c5e 0e3e 81b2 73bc
000000e0: b21c c7bd 3719 893c f212 b2bd 9886 75bd
000000f0: b3b0 4cbe fee6 283c 5beb 923d 0aa8 09be
00000100: b5d7 afbd 9e18 373c abd9 ac3d 86aa ad3d
00000110: 6cd5 033e f1b1 80bd 6125 583d 2478 c73d
00000120: 61c3 223e 35f3 39be 123a dc3d 3cb2 f2bd
00000130: f62d f23c ab66 cb3d 95f6 f83d 1172 e5bc
00000140: 6981 c63d d6aa e4bd 3e99 e13d 4871 f7bc
00000150: 556a 553c 65fa 5f3c 4c70 7f3d 2511 43bc
00000160: c040 fcbc 7202 43bd ca73 043e 3bf4 843d
00000170: c93a 6f3d 4e90 a73d 7294 d13d aa3e 00bd
00000180: 9bf2 413c 6df1 66bd 71f3 253d fa97 223e
00000190: f25f ae3d 4b67 f3bc ddee 64be 0662 0a3c
000001a0: d833 c13d 4dbd a03d 5184 9bbd 1879 8cbd
000001b0: 957d 983d 1c59 00bd 3c3e bdbd 80cb d53d
000001c0: c69f 2e3e 3400 403d b918 6d3c 1262 233d
000001d0: d4f6 40be 174d 833b d806 c93d a486 143e
000001e0: 20f8 a9bd 7c24 d9bb d204 79bc 7ade 3d3d
000001f0: 0324 873d 341e c7bc d0e2 60bd 1074 9abd
00000200: d4d9 983d 788e d53d ed09 a6bd 9b76 33be
00000210: 265b 27bd 05c3 5abd 8fca b23a d649 45bd
00000220: 2bf6 463d ac0b fa3b 1af8 f3bd a9c7 bcbd
00000230: cbbf f8bc 8f56 d8bc 8c13 283d 3af3 d43c
00000240: 8099 84bd 1cd9 56bd 867a 36be a1cd 22be
00000250: 6ef6 0dbc 93a8 ff3d 3b16 c0bd 1a81 683b
00000260: 0156 0e3e e0e5 92bd c570 963c fa1a 18bd
00000270: 8ea6 99bd 1766 693d e893 c63d 8f97 c5bc
00000280: 8e73 053c b0ee a4bd bab9 d43d 1524 90bd
00000290: af61 d93d f3b5 8d3d 4017 3bbd 7172 29bd
000002a0: 3cd0 4abd 1323 1ebe 4bd1 2d3d 8d69 0e3d
000002b0: 023f 3d3d e1da b93a ee39 4b3e 4ee5 203e
000002c0: 7c29 523e 42d0 bcbd abcc 103e 1aba 393d
000002d0: 5b7e 99bd 732b 82bd c0a4 ab3d bb53 933d
000002e0: 7cde c33d 5d69 6bbd 3f03 193c e022 f7bd
000002f0: 670c dcbd 01d5 803d b657 803e f60d 1e3c
00000300: c93d c13c a81c 663b 4051 453e 26ad 34be
00000310: 2391 313e f2ba 2cbd 92e2 af3c 6078 62be
00000320: 6e64 f03a 8b3b a2bd 03f1 fd3c 275a a6bd
00000330: ebaa b43c f092 6d3d c157 f8bc 670e 2fbd
00000340: cf9d f2bb a889 e6ba bc39 05bc 1117 113c
00000350: 9a2d d33d b7ad bcbc 3fb1 683d ade6 c1bd
00000360: 88be 26be fc18 ecbd 2f01 88bd 5f2f 1e3d
00000370: 9e96 04be 81f2 dd3c 4a84 68bd 5a16 c73c
00000380: 2014 af3c ddc0 c7bd 11b5 fc3c 3612 973c
00000390: a213 6dbd 4001 8fbd 9291 8b3b 7273 05be
000003a0: 0f82 ac3d 1b1c 8a3d 0e4d 0bbd 54f5 813d
000003b0: c5b0 2cba 4a0a 033e eff8 53bd 5a57 bbbc
000003c0: e6be 09be 0081 a13d f202 123d 23bc 05bc
000003d0: 1fff f23d 3f0f d43c bcee 1fbe f38f d1bd
000003e0: c9ef 44bd 371e 7fbd b4e4 d5bd dc60 db3d
000003f0: 408e 683d a596 953d 5e99 1bbe 5cd0 423d

network_body.linear_encoder.seq_layers.2.bias f4 [128]
0.010093309 -0.0013621196 -0.0021833417 -0.0041584074 0.00020323855 -0.0018676952 -0.0018595294 0.0011968127
-0.0058674966 -0.00018410922 0.00053264084 0.0013484649 0.0016138324 -0.0037308251 0.0011007593 0.00029433166
-0.0022397386 0.00131512 -0.0030325165 0.0055419374 0.010144732 0.0005485997 0.000601949 0.0038295737
-0.00017606295 0.00336775 -0.004678521 0.0009536652 0.0013324184 -0.0003819055 0.00058097125 0.00068986
-0.0022625355 -0.0023303411 -0.002435476 -0.004084186 0.0007591918 -0.0025545347 0.008272441 0.0007481136
-0.0023206135 -0.0020209982 -0.00012770042 -0.0031122381 -0.00505025 -0.0014316244 0.005192452 -0.0023091699
-0.0035389084 -0.0015956619 0.0010747022 0.0009594875 0.009343444 0.0013632372 0.0013579078 -0.00095231005
-0.00016367232 -0.0030969435 -9.023694e-05 0.004071516 0.0040867715 0.0037142073 0.0002659278 -0.00027768986
-0.00050736236 -0.0058279703 0.0013159878 0.0010787484 -0.0016856747 -0.001539519 -0.0007772828 -0.0012098434
0.001616623 6.641771e-05 -0.0001832945 -0.0006929573 0.0005701844 -0.0017353737 -0.002876078 0.0002874073
0.0006459674 -0.0038234107 -0.0039972365 0.0013256758 -0.0013958353 -0.0056842007 -0.0038432516 0.0057049682
-0.00041456326 -0.0017737936 0.001491439 -0.0008714304 0.0007152394 -0.0034586468 -0.001459586 -0.001158868
3.924811e-05 0.0020049855 0.0016027254 -0.002396768 0.00088162546 0.0015006204 -0.00047324403 -6.297164e-05
0.0024019482 0.010099881 0.0017344245 0.00033106937 -0.0004304599 -0.004961733 -0.0054583307 -0.0019033098
-0.002290329 -0.0015627898 -0.0006756476 -0.00045132212 0.008535016 -0.0033606726 -0.002573084 -0.0037999027
-0.0035687387 -0.0016708768 -0.0024177523 -0.0018202607 0.002380779 -0.0011964369 0.0017439774 -0.0024015603
00000000: 685e 253c 2689 b2ba 6516 0fbb 4043 88bb
00000010: 6f1c 5539 74cd f4ba 74bb f3ba 5fde 9c3a
00000020: 2144 c0bb 710d 41b9 eca0 0b3a f9be b03a
00000030: 3b87 d33a dc80 74bb 5a47 903a 8750 9a39
00000040: 94c8 12bb 1b60 ac3a 2fbd 46bb 2499 b53b
00000050: 1736 263c e7cf 0f3a 1dcc 1d3a 96f9 7a3b
00000060: 8a9d 38b9 78b5 5c3b 474e 99bb 63ff 793a
00000070: 8ba4 ae3a 7d3a c8b9 524c 183a b9d7 343a
00000080: 0c47 14bb a3b8 18bb 829c 1fbb a3d4 85bb
00000090: 8004 473a fb69 27bb 2289 073c 0e1d 443a
000000a0: 6f15 18bb b972 04bb 52e7 05b9 b1f6 4bbb
000000b0: 917c a5bb 58a5 bbba 7225 aa3b 7155 17bb
000000c0: 08ed 67bb 8725 d1ba 06dd 8c3a 1e86 7b3a
000000d0: 3f15 193c a6ae b23a d3fb b13a 72a4 79ba
000000e0: 749f 2bb9 17f6 4abb 973d bdb8 5a6a 853b
000000f0: 53ea 853b 0f6a 733b 3a6c 8b39 e796 91b9
00000100: 8300 05ba 8ff8 bebb 397d ac3a ca64 8d3a
00000110: dbf1 dcba b0c9 c9ba 91c2 4bba 9c93 9eba
00000120: dee4 d33a bd49 8b38 be32 40b9 94a7 35ba
00000130: 6d78 153a 7b75 e3ba 957c 3cbb 28af 9639
00000140: 2356 293a 3092 7abb 40fb 82bb 4cc2 ad3a
00000150: 76f4 b6ba 8842 babb 10df 7bbb bef0 ba3b
00000160: bd59 d9b9 a37e e8ba 637c c33a b470 64ba
00000170: e77e 3b3a 77aa 62bb 944f bfba 28e5 97ba
00000180: 569e 2438 1366 033b 8a12 d23a 1813 1dbb
00000190: e21c 673a 77b0 c43a bd1d f8b9 a40f 84b8
000001a0: 016a 1d3b f979 253c a155 e33a 6193 ad39
000001b0: 5aaf e1b9 0896 a2bb ccdb b2bb 7b78 f9ba
000001c0: 5819 16bb 86d6 ccba f11d 31ba 6e9f ecb9
000001d0: 74d6 0b3c bb3e 5cbb 30a1 28bb ca07 79bb
000001e0: 80e1 69bb 5201 dbba 2773 1ebb d095 eeba
000001f0: d806 1c3b c3d1 9cba 2c96 e43a 7f63 1dbb

action_model._discrete_distribution.branches.0.weight f4 [3, 128]
-0.0144871725 -0.0126803825 -0.010497676 0.003187882 0.0042696698 -0.0033194316 -0.003910105 0.0034549574
-0.007263503 -0.01412128 -0.0014798535 -7.884744e-05 -0.012968417 0.012199172 0.006560459 0.012812486
0.0069517526 0.021354642 -0.0008798212 -0.00025486934 -0.014291846 0.0015188978 -0.0010976938 -0.017287366
-0.0068260613 0.013931922 0.0027917747 0.018469729 -0.012313973 0.00032348177 0.00097192853 0.010425429
-6.74857e-05 -0.011968059 -0.0010401171 -0.003472477 0.016875967 0.0030201343 -0.009749436 0.004878377
0.005644175 -0.011654889 0.00078413653 -0.007238822 -0.0046640662 0.02427548 -0.010638057 0.0027460416
-0.0060312115 -0.017931473 -0.011669942 -0.0044424487 -0.017502744 0.0027882047 -0.0008684835 0.0015644511
-0.009424954 0.0061032875 0.0066765975 -0.0034765373 -0.003811009 0.0135800745 -0.0034546785 -0.0034421885
0.018752092 0.0013268574 0.010694628 -0.0023163317 0.0014207489 0.0019712008 0.0059010303 -0.0013894181
0.0044204444 -0.0032893019 -0.0062476173 -0.0039850473 0.0019917823 -0.014809125 -0.0110806385 0.02861105
0.01448473 0.0070271157 -0.0078065763 -0.006309184 0.0035959093 -0.0051484057 -0.005096084 0.015662529
0.006061692 -0.009425234 -0.009482753 -0.0003608371 0.0058314423 0.008662744 -0.011073339 -0.0026156204
-0.0074011153 0.00026026863 -0.012408214 -0.008744568 -0.009092521 -0.0067731617 -0.003181601 0.011496703
0.0013967443 0.022990689 0.0009368501 0.0056019663 -0.0012427737 -0.00016906434 -0.0010987297 0.001668237
-0.006712077 0.013082928 -0.009053012 0.0029215578 0.015744869 -0.014097057 0.0025762606 -0.0015756455
-0.008390937 0.0035823572 -0.0025022456 -0.0070584593 0.006015446 -0.006719964 0.012036709 -0.0053216703
0.0007635826 0.010178396 -0.0016557057 0.0041983128 -0.0033473463 0.0056063468 -0.0052709854 -0.009426199
-0.005023396 -0.006884455 0.0014470461 0.0047894153 -0.0061054737 -0.0008126091 0.008446312 -0.005284775
0.0052907453 -0.00038425796 0.0053158617 0.0031215707 0.0071794633 -0.0039712093 -0.0007817596 -0.015404651
-0.0018926312 -0.0070030466 0.005032783 0.0025108326 -0.0077665346 0.0069601657 -0.0063350615 -0.024585305
-0.0073865023 0.009954326 0.0013236436 0.0037382792 -0.009177521 0.005212662 0.006621279 -0.0039024109
0.0060568564 -0.0031929887 -0.0020800515 -0.0006870388 0.007834719 0.0032343254 -0.011720462 -0.0034038255
-0.0092365425 0.0011208003 -0.010593069 -0.0076824343 -0.0076722796 0.00029954835 -0.0050422177 0.0019794768
-0.009314915 0.0051658773 -0.0029069358 -0.012016039 0.0012665312 0.0060198177 0.0054478487 0.008617916
0.008384537 0.0013185636 -0.0005046751 -0.0092696855 -0.00522233 0.0058639236 -0.003990739 0.0012201226
-0.0007040412 -0.0011537703 -0.027903121 0.007661743 0.0031081124 0.012259832 0.0034087538 0.004460009
0.0053609954 0.011832084 -0.00029118414 -0.0080113225 -0.0010907598 -0.00526333 0.0054268194 0.004013355
-0.0006693775 0.009826304 -0.014896842 -0.01339836 -0.004558839 0.011190656 -0.0112443995 -0.0031309985
-0.00084745104 -0.00066728727 -0.006635413 0.015749933 -0.010910787 0.013002171 -0.006209651 0.0070174895
-0.013842767 -0.0025191014 -0.0043829335 -0.0037427759 -0.0017413014 0.008729725 0.010964335 0.00947894
-0.01992741 -0.0045378646 -0.020155048 0.018384358 -0.0139927035 0.014991087 0.006580897 -0.0032483658
-0.008970417 -0.008155208 -0.0143866055 -0.014235763 -0.0037900258 0.00297286 -0.007617269 -0.006905483
00000000: 9b5b 6dbc 61c1 4fbc 72fe 2bbc c9eb 503b
00000010: 96e8 8b3b d28a 59bb 5720 80bb 916c 623b
00000020: ae02 eebb f15c 67bc a5f7 c1ba e65a a5b8
00000030: 7c79 54bc 09df 473c 1ef9 d63b 76eb 513c
00000040: 87cb e33b eeef ae3c cda3 66ba fc9f 85b9
00000050: 5928 6abc c115 c73a 7ee0 8fba 3c9e 8dbc
00000060: 27ad dfbb b742 643c 35f6 363b d44d 973c
00000070: 8cc0 49bc fd98 a939 05c9 7e3a 6bcf 2a3c
00000080: 1c87 8db8 ae15 44bc 8a54 88ba 7f92 63bb
00000090: 783f 8a3c 72ed 453b 19bc 1fbc cbda 9f3b
000000a0: c6f2 b83b 26f4 3ebc 838e 4d3a a433 edbb
000000b0: 06d5 98bb 5fdd c63c 3f4b 2ebc eff6 333b
000000c0: 78a1 c5bb 06e5 92bc 4933 3fbc f691 91bb
000000d0: ea61 8fbc 50ba 363b f1aa 63ba 450e cd3a
000000e0: 1f6b 1abc 16fe c73b 5cc7 da3b 9ed6 63bb
000000f0: 1fc2 79bb f67e 5e3c e367 62bb 5796 61bb
00000100: fd9d 993c f2e9 ad3a 8538 2f3c 99cd 17bb
00000110: 6c38 ba3a 432f 013b 6e5d c13b 231d b6ba
00000120: 60d9 903b 5491 57bb d0b8 ccbb 0095 82bb
00000130: 9088 023b f9a1 72bc 918b 35bc b961 ea3c
00000140: 5c51 6d3c b843 e63b 4fce ffbb 45bd cebb
00000150: 59a9 6b3b f5b3 a8bb 0dfd a6bb b44e 803c
00000160: 28a1 c63b 4c6c 1abc 8d5d 1bbc bc2e bdb9
00000170: af15 bf3b 2fee 0d3c f36c 35bc d46a 2bbb
00000180: 0e85 f2bb aa74 8839 d24b 4bbc 6045 0fbc
00000190: ccf8 14bc 66f1 ddbb 6882 50bb ab5c 3c3c
000001a0: f612 b73a f856 bc3c f296 753a b390 b73b
000001b0: 91e4 a2ba dd46 31b9 4003 90ba bfa8 da3a
000001c0: fcf0 dbbb c759 563c 1653 14bc 9b77 3f3b
000001d0: 62fb 803c 58f7 66bc 7bd6 283b e485 ceba
000001e0: 247a 09bc fbc5 6a3b b7fc 23bb a64a e7bb
000001f0: 381d c53b 2533 dcbb 9e35 453c 6861 aebb
00000200: 292b 483a 49c3 263c 4404 d9ba 0092 893b
00000210: 275f 5bbb 72b5 b73b 3bb8 acbb 5870 1abc
00000220: 4d9b a4bb ff96 e1bb cfaa bd3a 87f0 9c3b
00000230: 6d10 c8bb 4605 55ba 6662 0a3c e82b adbb
00000240: fd5d ad3b 3b76 c9b9 ae30 ae3b 4493 4c3b
00000250: b441 eb3b eb20 82bb 00ef 4cba ca63 7cbc
00000260: 2a12 f8ba d079 e5bb 0bea a43b c88c 243b
00000270: 6a7e febb 1a12 e43b 5996 cfbb 1f67 c9bc
00000280: 790a f2bb 7817 233c 1c7e ad3a ebfd 743b
00000290: 505d 16bc face aa3b 50f7 d83b 97bf 7fbb
000002a0: 9878 c63b 7641 51bb 7951 08bb 651a 34ba
000002b0: 315d 003c faf6 533b 2e07 40bc b712 5fbb
000002c0: de54 17bc d1e7 923a 8d8e 2dbc eebc fbbb
000002d0: bf67 fbbb b30c 9d39 3039 a5bb 1cba 013b
000002e0: 969d 18bc 8546 a93b 4a82 3ebb ecde 44bc
000002f0: bc01 a63a e441 c53b de83 b23b 2932 0d3c
00000300: 4c5f 093c a7d3 ac3a 2c4c 04ba e1df 17bc
00000310: 1420 abbb 2826 c03b bfc4 82bb 85ec 9f3a
00000320: 688f 38ba 1b3a 97ba 1695 e4bc 5c0f fb3b
00000330: 79b1 4b3b 76dd 483c 6665 5f3b 4425 923b
00000340: 4aab af3b 5bdb 413c 13aa 98b9 ec41 03bc
00000350: d3f7 8eba 0378 acbb 76d3 b13b 7682 833b
00000360: 2a79 2fba 82fe 203c e211 74bc cc84 5bbc
00000370: 5062 95bb 0359 373c 6e3a 38bc 7031 4dbb
00000380: 7a27 5eba e4ec 2eba e16d d9bb 0106 813c
00000390: 28c3 32bc 0f07 553c 547a cbbb f8f2 e53b
000003a0: c6cc 62bc 8217 25bb b69e 8fbb 5c49 75bb
000003b0: 613c e4ba 1f07 0f3c c1a3 333c 8e4d 1b3c
000003c0: cf3e a3bc 5eb2 94bb 331c a5bc cb9a 963c
000003d0: a741 65bc 2d9d 753c 91a4 d73b 89e2 54bb
000003e0: a8f8 12bc 6c9d 05bc ccb5 6bbc 1e3d 69bc
000003f0: 1562 78bb 50d4 423b 499a f9bb 6447 e2bb

action_model._discrete_distribution.branches.0.bias f4 [3]
0.0018074533 -0.0010957255 -0.0011776619
00000000: 12e8 ec3a 729e 8fba c75b 9aba

action_model._discrete_distribution.branches.1.weight f4 [2, 128]
-0.012866283 -0.015379593 -0.004020818 0.001759311 -0.007944955 -0.0012335902 -0.0017169485 -0.005553714
-0.0029860982 0.014274194 -0.0062273373 0.0005749283 -0.008817913 -0.01141303 -0.01850949 0.010075174
0.025833001 -0.0066189677 -0.00538833 0.0003770489 -0.011160314 0.0039064395 -0.003953965 -0.0046415203
0.012374224 -0.014540559 0.002192399 0.011477317 0.0054991967 -0.00081502425 -0.01862917 0.0056951875
0.015838401 0.0011444638 0.0072808964 0.017178414 -0.005846715 0.00946716 0.0057390966 -0.014452469
-0.021113912 0.0013200295 0.0018004176 0.009907087 0.0054157795 -0.01997553 0.014486105 -0.0021117213
-0.0019745228 0.0019197632 0.005540526 -0.016616758 -0.0014070997 -0.018901708 0.006565329 -0.013504074
0.0005304935 0.014557415 0.0070784637 -0.02127627 -0.008997731 0.0030494197 0.0036320197 -0.0017717889
0.009775674 0.0011528265 0.0010596742 -0.017939402 0.016549235 0.011191656 0.0013712363 -0.0052614943
-0.0009170853 0.010542301 0.001048506 0.003121539 -0.0029473722 -0.0063511776 -0.0009248876 0.012117749
0.007043907 -0.0118831275 -0.0015353329 0.0010795597 -0.001684506 -0.012213756 -0.0048703467 -0.00443824
-0.0010188941 -0.010006196 -0.01530695 0.0070017725 0.010207948 0.0066724806 -0.00037735782 0.0067843865
0.00047610543 -0.008102549 0.023649264 0.0033337418 -0.00013277517 0.004562053 -0.006024198 0.00083367474
-0.0073259277 0.009004362 -0.0019103922 -0.0147595825 -0.011196858 -0.0023625924 0.0010136863 -0.0015238088
0.004024227 0.014044986 -0.01912103 0.0032420494 -0.008126678 0.008368906 -0.0005505085 0.0053076223
0.0042613666 0.009564824 -0.00712015 -0.0012693523 0.004822075 0.006695747 -0.0022869755 0.013323947
0.012205383 -0.007508756 0.0071367105 -0.002809346 0.002816947 -0.003516474 0.0007867711 0.014736734
-0.015424083 -0.012838513 0.008668647 0.021399554 0.010100013 -0.0018474023 0.0011590077 0.0077327616
-0.012878969 0.0028180664 -0.0023212014 -0.011411399 0.013669839 -0.0056922454 0.0016049376 0.017018976
0.0045454362 0.015158658 -0.0030842342 0.006560787 -0.012318499 0.005729143 -0.0045418646 0.018843392
-0.0041623632 -0.0078120427 -0.0060433624 0.008822555 -0.0023653186 -0.0049487334 -0.0047494485 -0.0006561106
0.016188083 0.0050477977 -0.012657402 0.010797932 0.0068665855 0.00092209526 -0.0059541357 0.016185993
-0.0020584327 -0.013239579 -0.005834987 0.0015903972 -0.00046309037 0.002355504 -0.013341349 -0.0020247698
-3.9641687e-05 0.004739183 -0.004547217 0.0014666456 0.021513091 -0.0017258645 0.00088103197 0.0035843323
-0.011918602 0.0017495387 0.008284573 0.009383762 -0.0064634844 0.0007535322 -0.014087294 -0.0120698875
0.006107425 0.0022975306 -0.0011649828 -0.010161477 -0.002125804 -0.009395284 -0.0031458777 0.005370229
-0.0057170177 0.011590056 -0.010751514 0.015016087 0.007881292 -0.0028317096 0.010429758 -0.006025638
0.0016615018 0.0034348508 -0.009954185 -0.008664451 0.017531354 0.0056169494 -0.0034628627 -0.004671516
0.008855639 -0.003993259 -0.009104989 -0.0045857714 -0.007158815 -0.008061999 0.0019734388 0.0010229776
0.0058048116 0.010155687 0.002957752 -0.0023863483 -0.003579702 0.0047075166 -0.014655559 0.016892603
0.00051817327 0.000764644 -0.0050498806 -0.0062848707 -0.0033268135 0.0003427878 0.0008700139 0.010664567
-0.0010493731 0.003405038 0.00083834084 0.0023610138 0.0005650451 -0.0003887664 0.0006783285 -0.0077450997
00000000: 1acd 52bc b0fa 7bbc 11c1 83bb ae98 e63a
00000010: 8e2b 02bc 6bb0 a1ba 3b0b e1ba eefb b5bb
00000020: 6ab2 43bb 4fde 693c b10e ccbb c9b6 163a
00000030: 0279 10bc b8fd 3abc 37a1 97bc 5812 253c
00000040: bb9f d33c ede3 d8bb 9790 b0bb a6ae c539
00000050: c0d9 36bc 9701 803b 4390 81bb e517 98bb
00000060: 42bd 4a3c 863b 6ebc 5aae 0f3b 5b0b 3c3c
00000070: 9b32 b43b 5aa7 55ba 339c 98bc b29e ba3b
00000080: 89bf 813c d501 963a 9694 ee3b bfb9 8c3c
00000090: cd95 bfbb 261c 1b3c 080f bc3b 0cca 6cbc
000000a0: 15f7 acbc d704 ad3a fdfb eb3a 5651 223c
000000b0: da76 b13b b9a3 a3bc 2157 6d3c ce64 0abb
000000c0: ff66 01bb 90a0 fb3a 4d8d b53b de1f 88bc
000000d0: 6e6e b8ba c1d7 9abc f921 d73b 3140 5dbc
000000e0: d110 0b3a 3982 6e3c 75f2 e73b 924b aebc
000000f0: 386b 13bc c6d8 473b 2e07 6e3b 5f3b e8ba
00000100: 262a 203c 701a 973a c4e4 8a3a a7f5 92bc
00000110: 4392 873c 355d 373c 0ebb b33a 9d68 acbb
00000120: 8d68 70ba 9eb9 2c3c 066e 893a bc92 4c3b
00000130: b328 41bb 8a1d d0bb 2874 72ba 8689 463c
00000140: 93d0 e63b 73b1 42bc 393d c9ba 0380 8d3a
00000150: a4ca dcba 351c 48bc 6e97 9fbb a86e 91bb
00000160: 6a8c 85ba 07f1 23bc 00ca 7abc 206f e53b
00000170: 3d3f 273c d3a4 da3b 1cd8 c5b9 8f4f de3b
00000180: ca9d f939 8ec0 04bc 1abc c13c e87a 5a3b
00000190: 9039 0bb9 467d 953b a366 c5bb f78a 5a3a
000001a0: 560e f0bb 0887 133c 2066 faba 2dd2 71bc
000001b0: 0773 37bc b9d5 1abb abdd 843a 8aba c7ba
000001c0: aadd 833b f11c 663c b5a3 9cbc 9078 543b
000001d0: c225 05bc bc1d 093c 0050 10ba 90eb ad3b
000001e0: efa2 8b3b c8b5 1c3c 2650 e9bb 6560 a6ba
000001f0: 7f02 9e3b ff67 db3b 15e1 15bb af4c 5a3c
00000200: 16f9 473c 030c f6bb 11db e93b 011d 38bb
00000210: 879c 383b a574 66bb 513f 4e3a 5872 713c
00000220: 4bb5 7cbc a058 52bc f106 0e3c 1e4e af3c
00000230: 867a 253c 8924 f2ba d8e9 973a 1b63 fd3b
00000240: 5002 53bc 4faf 383b 4c1f 18bb e0f6 3abc
00000250: 76f7 5f3c 0486 babb c55c d23a 616b 8b3c
00000260: e2f1 943b 055c 783c dd20 4abb dffb d63b
00000270: 88d3 49bc 89bb bb3b ecd3 94bb 755d 9a3c
00000280: 6f64 88bb 2afc ffbb 6607 c6bb 7a8c 103c
00000290: 7603 1bbb fc28 a2bb 43a1 9bbb d6fe 2bba
000002a0: df9c 843c ff67 a53b fe60 4fbc cfe9 303c
000002b0: 1801 e13b c4b8 713a e91a c3bb 7d98 843c
000002c0: c5e6 06bb d2ea 58bc 6b33 bfbb e074 d03a
000002d0: f0ca f2b9 cd5e 1a3b ac95 5abc 00b2 04bb
000002e0: f044 26b8 264b 9b3b d200 95bb 763c c03a
000002f0: 393c b03c 6736 e2ba 0ef5 663a 1ee7 6a3b
00000300: 3d46 43bc c750 e53a 05bc 073c 5abe 193c
00000310: a3cb d3bb b188 453a 65ce 66bc c7c0 45bc
00000320: cb20 c83b 2b92 163b 56b2 98ba 537c 26bc
00000330: 1351 0bbb adee 19bc 122b 4ebb bff8 af3b
00000340: d255 bbbb 38e4 3d3c 1e27 30bc 0906 763c
00000350: 8920 013c 3494 39bb 93e1 2a3c b772 c5bb
00000360: c0c6 d93a 3c1b 613b e116 23bc 57f5 0dbc
00000370: ea9d 8f3c 630e b83b 32f1 62bb 8413 99bb
00000380: 3e17 113c e2d9 82bb 172d 15bc 3d44 96bb
00000390: 7e94 eabb 7a16 04bc cf54 013b 6f15 863a
000003a0: 4a36 be3b 0a64 263c d8d6 413b 4864 1cbb
000003b0: 6f99 6abb 8341 9a3b df1d 70bc 5b62 8a3c
000003c0: 05d6 073a 6472 483a 7879 a5bb 51f1 cdbb
000003d0: ab06 5abb 33b8 b339 a511 643a 70ba 2e3c
000003e0: 1e8b 89ba 0f27 5f3b 1ac4 5b3a 3dbb 1a3b
000003f0: 891f 143a 58d3 cbb9 dbd1 313a 9bca fdbb

action_model._discrete_distribution.branches.1.bias f4 [2]
-0.0012371127 0.0012371128
00000000: 9d26 a2ba 9e26 a23a

action_model._discrete_distribution.branches.2.weight f4 [2, 128]
0.01262293 -0.0028273547 0.0052174204 -0.0038886338 0.028553775 0.0017015948 -0.0010059092 0.01071281
0.014427544 0.007472721 -0.009746821 -0.004094851 0.02158148 -0.0018755324 -0.0073387558 0.016665004
-0.006186943 -0.0053851763 0.0040977895 0.013864214 0.0015096527 0.0097858915 -0.008036521 0.00015443852
0.008344219 0.011324635 0.0048012487 0.008106097 -0.0053473 0.0057553547 -0.010886586 0.0101058185
0.0029687542 -0.0052166134 0.007831807 0.003161324 0.005865919 0.00077703764 -0.0064617875 0.008152885
0.0046272376 -0.0061437907 -0.009907348 0.0057624495 0.0044356924 0.027358651 0.005474997 -0.005702154
0.0068778982 0.0036422461 -0.008263828 -0.00045362438 -0.0056373635 0.010957136 -0.019486124 0.011135288
0.01070404 0.013106774 -0.0036828907 0.0018714858 0.008094279 0.006799381 -0.012944822 -0.009383235
0.006435113 2.3483262e-05 0.0024165288 0.012072471 0.023600748 -0.005480275 -0.019800482 -0.007757773
-0.0016602514 -0.005988398 0.0075930506 0.017903175 0.00447065 -0.00782211 -0.0018844862 0.0069144084
-0.013401159 0.0030355786 0.0036173628 -0.0018916498 0.004285145 0.0015237684 0.015794614 0.006141856
-0.008118134 -0.0076707695 -0.021938289 0.0054737944 -0.0037283562 -0.0074547892 0.0022087668 0.0018695067
-0.015328551 -0.011764108 0.010833755 0.007909893 0.0063366336 0.008038223 0.00201406 -0.00570606
-0.00766083 -0.0062172175 0.019144328 0.019271832 -0.003357415 0.00068864593 -0.00012192187 0.005693624
0.00974493 -0.0008282082 0.00028432792 0.006075993 0.008809628 0.012632377 -0.007958238 0.021809623
-0.009345797 -0.027490301 0.0044144285 0.0050935238 -0.007111102 0.020452477 -0.0054443087 -0.0044666207
0.0023727661 0.018572759 0.007433833 0.0013382366 -3.723568e-05 0.0026498265 -0.024632877 0.00655001
-0.0031949538 -0.0046442286 -0.0030976278 0.01281391 0.022404732 0.002000172 0.0077483007 -0.0018875634
0.0019039392 0.019777453 -0.00746865 -0.0081031425 0.009925663 -0.0028152536 -0.013709362 0.008983671
-0.007875535 0.0037877667 -0.009711825 0.012843095 0.0020820478 -0.0134219965 -0.0013558283 -0.015091502
-0.00013755698 0.0055792234 -0.0048315544 -0.0004376338 -0.0058212015 0.018041745 0.017263895 0.019961763
0.0039294627 -0.0033521494 0.014808436 -0.00019930735 -0.0060502887 0.015047023 0.003827414 0.0051080356
-0.010486623 0.0017710818 0.0065705213 0.0073036687 0.0019001389 -0.012974565 0.007100538 -0.015792402
0.005446605 -0.00652339 -0.024654863 -0.00707576 0.0048881983 0.0012545692 0.022827549 0.008279713
-0.008591807 0.0034412122 0.012425048 0.0028269102 0.008236872 0.0061802925 0.0013740046 0.0057421722
0.0031484305 0.0053845528 -0.0060026506 -0.0019635088 -0.002496703 0.00032996203 0.0010476179 -0.0016068022
-0.006660844 0.0024128957 -0.00035647408 -0.010690784 -0.0027445504 -0.006326374 -0.00095493504 0.004052998
0.020519525 -0.017624961 -0.0018158709 0.0007974604 -0.015391602 0.0017174277 0.0066397646 -0.0051626377
0.011965045 0.0022451498 -0.0076177604 0.006424673 0.0075122504 0.01116937 0.001906158 -0.012632066
0.0028850774 -0.008041985 -0.00050320255 -0.0067514116 0.0014588282 -0.00013177189 0.0045029223 -0.0008340358
0.005780767 -0.007011698 0.0019232851 -0.010466269 -0.001619343 0.009589632 2.4991125e-05 -0.00019859559
-0.02089653 0.0045279036 -0.0050466084 0.012033725 0.00849158 0.0013797638 -0.007401805 0.0052618277
00000000: 68d0 4e3c 244b 39bb e5f6 aa3b 73d8 7ebb
00000010: 9be9 e93c 0c08 df3a b6d8 83ba c884 2f3c
00000020: 8161 6c3c badd f43b 21b1 1fbc 1a2e 86bb
00000030: a5cb b03c 6dd4 f5ba f279 f0bb 0c85 883c
00000040: d7bb cabb 2276 b0bb c046 863b ba26 633c
00000050: 8adf c53a 0155 203c 9dab 03bc c6f0 2139
00000060: 31b6 083c f68a 393c cb53 9d3b 6fcf 043c
00000070: 6738 afbb 6a97 bc3b a75d 32bc e092 253c
00000080: 6e8f 423b 20f0 aabb fb50 003c 372e 4f3b
00000090: e536 c03b 1db2 4b3a 67bd d3bb ae93 053c
000000a0: 15a0 973b da51 c9bb 6e52 22bc eed2 bc3b
000000b0: 4959 913b 401f e03c 9b67 b33b 22d9 babb
000000c0: fe5f e13b c0b2 6e3b 0265 07bc 6fd4 edb9
000000d0: a2b9 b8bb 8f85 333c 5da1 9fbc c870 363c
000000e0: ff5f 2f3c cbbd 563c a75c 71bb a54c f53a
000000f0: de9d 043c 58cd de3b 8516 54bc 24bc 19bc
00000100: a4dd d23b ecfd c437 a05e 1e3b 9dcb 453c
00000110: 5b56 c13c e193 b3bb 9f34 a2bc eb34 febb
00000120: cb9c d9ba 533a c4bb 20cf f83b aea9 923c
00000130: 887e 923b 4f28 00bc dd00 f7ba 4392 e23b
00000140: 8990 5bbc 8ff0 463b 4711 6d3b 3cf1 f7ba
00000150: 676a 8c3b 2fb9 c73a b563 813c 9f41 c93b
00000160: ec01 05bc 145b fbbb edb7 b3bc 845d b33b
00000170: 7057 74bb 4e47 f4bb f5c0 103b 3c0a f53a
00000180: 9a24 7bbc 3fbe 40bc 1080 313c 7f98 013c
00000190: 89a3 cf3b c0b2 033c 52fe 033b e7f9 babb
000001a0: b307 fbbb cdb9 cbbb 91d4 9c3c f6df 9d3c
000001b0: 1408 5cbb 3f86 343a 4eb0 ffb8 9491 ba3b
000001c0: 33a9 1f3c 1d1c 59ba d911 9539 2019 c73b
000001d0: 4256 103c 08f8 4e3c 4563 02bc 18aa b23c
000001e0: 1d1f 19bc 5733 e1bc e9a6 903b 93e7 a63b
000001f0: 3f04 e9bb f48b a73c 2c66 b2bb bb5c 92bb
00000200: 6980 1b3b e625 983c 8397 f33b c567 af3a
00000210: 822d 1cb8 b6a8 2d3b e3ca c9bc 77a1 d63b
00000220: 6e62 51bb 9d2e 98bb 9201 4bbb 6ff1 513c
00000230: 218a b73c 5115 033b 75e5 fd3b 1e68 f7ba
00000240: 998d f93a 5304 a23c 94bb f4bb 0bc3 04bc
00000250: 3f9f 223c 1e80 38bb 3b9d 60bc 3f30 133c
00000260: 6308 01bc 2e3c 783b 591e 1fbc d86b 523c
00000270: f772 083b efe7 5bbc 0cb6 b1ba 5942 77bc
00000280: 2c3d 10b9 ebd1 b63b 0452 9ebb 3772 e5b9
00000290: c7bf bebb 48cc 933c 036d 8d3c da86 a33c
000002a0: b9c2 803b bcaf 5bbb 159f 723c 29fd 50b9
000002b0: 8041 c6bb ca87 763c 5ad5 7a3b 4f61 a73b
000002c0: 16d0 2bbc a523 e83a 874d d73b 9d53 ef3b
000002d0: 150e f93a 4593 54bc a1ab e83b 115f 81bc
000002e0: 6f79 b23b 29c2 d5bb fff8 c9bc c7db e7bb
000002f0: 2e2d a03b 5b70 a43a d700 bb3c a2a7 073c
00000300: a7c4 0cbc f685 613b 6e92 4b3c af43 393b
00000310: f2f3 063c 0d84 ca3b f217 b43a d528 bc3b
00000320: e655 4e3b e770 b03b e2b1 c4bb 36ae 00bb
00000330: ba9f 23bb c1fe ac39 3950 893a 569b d2ba
00000340: 3643 dabb ac21 1e3b 24e5 bab9 6628 2fbc
00000350: eadd 33bb 794d cfbb 9b54 7aba 03cf 843b
00000360: 9018 a83c 3962 90bc 8402 eeba a90c 513a
00000370: 0f2d 7cbc 501b e13a 6292 d93b 582b a9bb
00000380: 0909 443c 5d23 133b 689e f9bb 1086 d23b
00000390: 5329 f63b bcff 363c 0dd8 f93a baf6 4ebc
000003a0: 9113 3d3b 88c2 03bc 5ae9 03ba f23a ddbb
000003b0: 2736 bf3a 3f2c 0ab9 408d 933b 32a3 5aba
000003c0: 976c bd3b 63c2 e5bb bd16 fc3a b77a 2bbc
000003d0: 2240 d4ba d51d 1d3c 08a4 d137 193e 50b9
000003e0: 332f abbc cf5e 943b 055e a5bb 1a29 453c
000003f0: 4520 0b3c 31d9 b43a d78a f2bb 696b ac3b

action_model._discrete_distribution.branches.2.bias f4 [2]
-0.0010296702 0.0010296702
00000000: 00f6 86ba 00f6 863a

action_model._discrete_distribution.branches.3.weight f4 [2, 128]
-0.011996492 0.0049534184 0.005377455 -0.0066580335 -0.0030220547 0.015722072 -0.0049041174 -0.014458979
-0.0040154224 0.0016775705 -0.0035394416 -0.0028159486 -0.0011180462 0.004445994 -0.0013199025 0.003744786
0.0032376596 -0.005077593 0.006987337 -0.008529975 0.00033223996 0.007043141 0.00067811046 0.005294284
0.009746642 0.0033075127 -0.004665491 -0.0003320938 -0.0030792875 0.0003658911 -0.0009458678 0.0037057826
-0.009899885 0.000590226 -0.015362687 0.00824636 -0.0012539999 7.1598544e-05 -0.010621356 -0.00028527758
-0.013745603 0.004040403 0.0015240685 0.0016925519 0.0018892643 -0.03467873 -0.0069902698 0.007189532
0.005027923 -0.014036319 0.0046989233 -0.010670645 -0.018372387 0.004380368 -0.016990066 -0.006640937
-0.0006122125 -0.0067521348 0.017895749 -0.0036245848 -0.018079424 0.0016819274 -0.0029347716 -0.00010990913
-0.0060546407 -0.015489308 0.0027252208 -0.0024153192 0.0052613453 -0.0005034723 0.0037440578 0.0024072996
0.0026796958 0.007516777 0.006201004 0.0033321236 0.007338205 0.0026376918 0.0052430364 0.013149294
0.00335469 -0.0022923476 -0.00020284273 -0.009748225 -0.0011769772 -0.0069135576 0.0039630383 0.0002738663
-0.01159711 -0.0022296398 0.0010536199 0.003513124 -0.0024024753 -0.011366797 0.0022241103 0.01199805
-0.004152984 4.423918e-05 -0.0073791444 -0.0023137357 -0.007844408 0.010144413 -0.015893066 -0.0057843993
0.009352226 0.0011388408 0.013508855 0.021435156 -0.008206162 -0.0024772352 -0.006622608 0.004614112
0.0052466146 -0.006676271 -0.0107918605 -0.0071617295 0.008096121 -0.009350721 -0.013313887 0.010409729
-0.009484037 0.0013799049 0.010900312 -0.003845309 -0.0001062415 0.0012444799 0.007434998 0.001846688
0.008634726 0.0011984532 -0.003858577 -0.012810765 0.009508718 0.004030114 -0.011712668 -0.013850225
0.00095350365 -0.0027578224 -0.005803391 -0.0036729313 -0.0064096926 -0.00018754718 -0.00086449645 -0.010068783
0.0156114865 -0.003643535 -0.02120017 0.016302107 0.015506299 -0.0141848875 -0.018123176 0.005803469
-0.010958473 0.0014377207 -0.005982584 -0.0066511827 0.0043963296 -0.005180966 0.0017427731 0.003545369
-0.0017041829 -0.0063255825 -0.0010512222 0.011039103 -0.0009420786 -0.0088688135 0.0055933367 0.024925381
-0.008888536 0.0023133573 0.0043429234 0.008028114 -0.001673272 0.016361902 0.008349897 -0.009346248
0.013718378 -0.0013555507 -0.016226351 -0.01678909 0.007826422 -0.0050285636 0.0104686525 -0.01773927
-0.0048378217 0.012984062 0.00458489 -0.0021014242 0.0057116356 -0.027077317 0.008306004 -0.0034366301
0.016893025 -0.003211274 -0.0053265365 0.0022359171 -0.007869393 0.0040230453 -0.010911464 -0.0028036125
-0.0068888557 0.0016193369 -0.008087709 -0.009756631 -0.015861213 -0.011586743 0.004561605 -0.00044389404
-0.0011111973 0.0083052805 -3.9181046e-05 -0.0052243946 0.003128692 0.0044850735 0.0033907858 -0.012506279
0.010530058 -0.0055319993 -0.0043276115 -0.003772274 0.00054270576 0.009136364 -0.009426285 0.00060454116
0.0063379626 -0.0038436619 -0.0067586564 -0.017000772 -0.014124606 -0.004858814 -0.008097145 0.011281188
-0.0015003764 -0.0083042765 -0.005873611 0.00875026 -0.008165019 -0.0011327147 -0.014799788 0.0065554017
0.0057619032 0.011656296 -0.0036138122 -0.0076034027 -0.006322053 -0.010705142 -0.004157193 -0.011549573
-0.0025754338 0.007181403 0.01971865 0.024509525 0.014686342 -0.013690424 -0.003933815 -0.0034312138
00000000: ef8c 44bc 4950 a23b 5d35 b03b a22b dabb
00000010: aa0d 46bb 93cb 803c b8b2 a0bb 5ae5 6cbc
00000020: ce93 83bb ede1 db3a faf5 67bb c78b 38bb
00000030: 688b 92ba b3af 913b 9400 adba 156b 753b
00000040: ea2e 543b f061 a6bb 08f6 e43b 4fc1 0bbc
00000050: 7e30 ae39 26ca e63b 39c3 313a ac7b ad3b
00000060: 61b0 1f3c dbc2 583b fae0 98bb e01c aeb9
00000070: dfcd 49bb 12d5 bf39 1df4 77ba b7dc 723b
00000080: 2133 22bc 65b9 1a3a c8b3 7bbc be1b 073c
00000090: 415d a4ba 2d27 9638 3205 2ebc 4f91 95b9
000000a0: 3d35 61bc 5b65 843b 41c3 c73a 9ed8 dd3a
000000b0: 31a1 f73a 490b 0ebd a20e e5bb 2a96 eb3b
000000c0: 46c1 a43b 97f8 65bc 6df9 993b eed3 2ebc
000000d0: b081 96bc 3189 8f3b c02e 8bbc 389c d9bb
000000e0: e37c 20ba 0341 ddbb 1b9a 923c 718a 6dbb
000000f0: 4d1b 94bc 1e74 dc3a 4c55 40bb 047f e6b8
00000100: 0266 c6bb dec6 7dbc 9e99 323b 554a 1ebb
00000110: 5d67 ac3b 74fb 03ba de5e 753b c9c3 1d3b
00000120: d69d 2f3b 4c4f f63b cb31 cb3b c25f 5a3b
00000130: 5375 f03b 20dd 2c3b c7cd ab3b 2370 573c
00000140: 5cda 5b3b 363b 16bb 2eb2 54b9 05b7 1fbc
00000150: cd44 9aba 208b e2bb 60dc 813b b695 8f39
00000160: ce01 3ebc 261f 12bb 9e19 8a3a 713c 663b
00000170: d972 1dbb cd3b 3abc 61c2 113b 7893 443c
00000180: c115 88bb 758d 3938 c0cc f1bb 0ba2 17bb
00000190: d585 00bc c134 263c 2d32 82bc 0f8b bdbb
000001a0: 143a 193c 2845 953a 3f54 5d3c c898 af3c
000001b0: 2373 06bc 1c59 22bb 7602 d9bb fa31 973b
000001c0: cbeb ab3b 9fc4 dabb 58d0 30bc f1ac eabb
000001d0: 98a5 043c c433 19bc 7d22 5abc 918d 2a3c
000001e0: ef62 1bbc eddd b43a 3997 323c 9401 7cbb
000001f0: f9cd deb8 d11d a33a 49a1 f33b 910c f23a
00000200: aa78 0d3c 6b15 9d3a 2ee0 7cbb 3ee4 51bc
00000210: 74ca 1b3c 0c0f 843b 7ee6 3fbc 0eec 62bc
00000220: 8cf4 793a 95bc 34bb 5f2a bebb 90b5 70bb
00000230: 6608 d2bb 50a8 44b9 609f 62ba 89f7 24bc
00000240: 52c7 7f3c 60c8 6ebb fbab adbc ff8b 853c
00000250: 220e 7e3c bb67 68bc 0e77 94bc 072b be3b
00000260: 2b8b 33bc e771 bc3a 8d09 c4bb 2af2 d9bb
00000270: 160f 903b 18c5 a9bb c36d e43a 6c59 683b
00000280: e45e dfba d546 cfbb 2ac9 89ba 5bdd 343c
00000290: d3f5 76ba 804e 11bc 4f48 b73b 5030 cc3c
000002a0: 39a1 11bc b29b 173b 154f 8e3b 5a88 033c
000002b0: b151 dbba 6509 863c 02ce 083c 0121 19bc
000002c0: 0cc3 603c bcac b1ba 20ed 84bc 4689 89bc
000002d0: 653a 003c a6c6 a4bb b684 2b3c f251 91bc
000002e0: 9786 9ebb 1abb 543c d83c 963b 0cb8 09bb
000002f0: ac28 bb3b 40d1 ddbc e815 083c 1639 61bb
00000300: 3e63 8a3c 3d74 52bb 3a8a aebb 7788 123b
00000310: a0ee 00bc c0d3 833b ffc5 32bc d0bc 37bb
00000320: e9bb e1bb ee3f d43a 4f82 04bc 47da 1fbc
00000330: 60ef 81bc 53d6 3dbc 8479 953b 73ba e8b9
00000340: 98a5 91ba df12 083c 5456 24b8 6631 abbb
00000350: be0a 4d3b 86f7 923b f237 5e3b 23e7 4cbc
00000360: 4486 2c3c c645 b5bb a3ce 8dbb 4138 77bb
00000370: 5e44 0e3a b0b0 153c b470 1abc 127a 1e3a
00000380: afae cf3b f2e5 7bbb b877 ddbb 3445 8bbc
00000390: e46a 67bc b036 9fbb e3a9 04bc bbd4 383c
000003a0: 47a8 c4ba a90e 08bc 6c77 c0bb 405d 0f3c
000003b0: 92c6 05bc 9977 94ba cf7a 72bc b2ce d63b
000003c0: 59ce bc3b 0dfa 3e3c b5d5 6cbb f725 f9bb
000003d0: 3929 cfbb 9f64 2fbc 1039 88bb 6c3a 3dbc
000003e0: 9cc8 28bb fa51 eb3b 0289 a13c 33c8 c83c
000003f0: fc9e 703c cd4d 60bc 3be7 80bb 37de 60bb

action_model._discrete_distribution.branches.3.bias f4 [2]
0.0014175052 -0.0014175052
00000000: 95cb b93a 95cb b9ba
