results/Imitation1/Hero Knight Behavior/Hero Knight Behavior-1499836.onnx (onnx, 81950 bytes, 14 tensors)

network_body.observation_encoder.processors.0.normalizer.running_mean f4 [11]
00000000: 49cb 3dc0 829d 9840 5742 4241 00d7 3d41
00000010: 2631 5142 5b61 953d db63 973d 9cf1 e23e
00000020: 91b6 a53d 955f cd3d 78bb ab3e
-2.9655325 4.769227 12.141196 11.86499 52.297997 0.0729396 0.07392093 0.44324958
0.080914624 0.100279965 0.33541465

network_body.linear_encoder.seq_layers.0.weight f4 [128, 11]
00000000: 6d85 23be 17f4 0b3e 8b1f fdbd fa61 ddbe
00000010: d5ec 413f 1070 013d a649 733e 57f1 dc3e
00000020: 7607 a8bd 1ef2 463c 6986 663e 57c7 3cbf
00000030: 0699 adbe 85de 533e 468b e3bd 5592 643e
00000040: 78f3 43bb c469 1f3d 2d4d b03e 0e3e 573d
00000050: 6c02 4cbe 73c0 45be f59b 2d3f 3bdc 57bf
00000060: 5878 d2be 7ed1 06be 96e1 0e3e 129f b0be
00000070: bbb9 5fbe 5c04 90be 2ac6 82be d87e 22bd
00000080: b263 7f3d 6d98 573f e701 fbbe b01f 213d
00000090: 9225 2dbf 0157 a1be 9bb7 94be 7f00 11be
000000a0: 80f7 9abe 5ec1 a3be 438e 36bd 4eef 98bc
000000b0: ac11 89be d6bb 13bf 78b2 613f 9d07 e2bd
000000c0: ac4b e1be 334e 453e f0b7 c13d d8c3 033d
000000d0: 7bb6 f3be 9f89 a9bd b159 ccbe 6b43 34be
000000e0: f1c3 3f3e 3dfd 583f 4cd0 5e3d 402d 4f3b
000000f0: 08a3 06bf 5c02 7bbe 4aa0 193f c76f 25bf
00000100: f17f 08bf ee62 10bf d7fc f23e 5583 87be
00000110: b38e 58bf 2ba3 a33e 3456 673f 4157 36bd
00000120: 089a babe 6fb2 093e 543f 04be e391 393e
00000130: 4d16 c23e f24b c63e 7d78 00be 01c4 06bf
00000140: e321 e63e 6dfe 53bf ca72 713e 39a2 ae3e
00000150: 89ec e9be eab7 833e 081f 733d ae7c ef3d
00000160: 22a1 1cbf 64c2 19bf 30b1 583f 2fab ba3d
00000170: 371c b53d 6e45 a6be f18a b9bd 4a5e 9a3e
00000180: a99c b13e 8e45 4ebf 3afc 023f 6137 153e
00000190: 9379 39bd ec57 b63e 48b0 803e 73bf fa3c
000001a0: 6dc2 34bc d436 6b3d 1eaf 3abe 29a8 563e
000001b0: 39a7 2ebe 0782 833e 7d5b cfbb 8004 b5be
000001c0: 812a 39be 8e28 453f 3068 b73d 264b 57bf
000001d0: 2799 2cbf 1fd7 8e3e 091b 4dbe 8832 483e
000001e0: 6fd6 373e f6f7 e83b 9b65 14bf 1c40 883c
000001f0: 1bcb 32bd 9ad5 643f b228 4ebe 7a49 963d
00000200: c174 bc3e 199d 613e 90a6 f8bd 38e4 bebb
00000210: 8dea 8fbf ab59 503f 391e f03c 35fb a9bf
00000220: be24 9a3d 0735 253c 18dd 0d3e c45b 883e
00000230: 5a5c 54be 67ab 36be d90b 8dbd f80d 17bf
00000240: 1baa bfbe 32a5 e43e b0e0 fdbc d1b0 8bbf
00000250: ec65 a03e fdc1 553e 0bbe 09bf 7ab2 403f
00000260: 9041 9e3e 776d 80bd 988c 9cbe 6dc9 21bf
00000270: 02c9 383e 5daf fabe f95e adbd 4b8c a13a
00000280: 4828 f63d f34c f2be bd51 0fbf 1e72 1abf
00000290: 2bb1 163f 3a31 1fbf 225e 7f3e dbb7 8dbf
000002a0: 43d6 b23e 042e 873d 6fbc 58be 9a6d cb3d
000002b0: 97e8 82be 1de1 68bd 4769 15be 0b0f c3bd
000002c0: bd6d a7be e42b c43e eead 7a3e 9ff8 5fbf
000002d0: 013b 3d3e 1bba 57be b2fe ec3d b890 d43d
000002e0: 6cc4 85bd b5a0 6e3d fa40 75bb eeeb ab3e
000002f0: d18d 07bf 86f1 d83d 2576 50bd cfe1 443f
00000300: f1ef af3b 6d87 70bd 62c2 f0bc ca69 cfba
00000310: 2af2 52bd b3f3 da3d 17b7 d0be ec80 0fbf
00000320: 8bd7 27bf 0b27 5bbf 1198 df3e fab2 b9bd
00000330: 544f 4fbe 22c2 1a3d adc8 8abe c279 243e
00000340: 257e d03e 462b 633e 0d51 8e3e 6baf 6e3f
00000350: 4318 4abe ffbd 56bf d27c adbd b052 55bf
00000360: f9dc 903e c42f b4bd 3f40 51be 4a67 b13c
00000370: 65e1 3bbf 07f1 86be 243b 303e da9c 84be
00000380: c607 8abf 78a9 0bbf 56cb a3bc e98f d83e
00000390: 374f a0bb b11a d338 2be3 d0bd d934 e03e
000003a0: 6559 65be 56e9 e1be 8d5a ffbe 0c75 b73e
000003b0: c941 54bf 1efc 883e 6739 8a3e 0e01 bc3d
000003c0: a781 a03e 91cf b93d 2eeb d83e f0dc 06bf
000003d0: fd56 e43e 9fa7 04bf c08a 36bf bf31 f73c
000003e0: 218b b63b 7e42 4bbf c92a 8cbe 806b 343e
000003f0: 9d35 813e f559 973e 41cc 9abe 9f4d 5abf
-0.15968867 0.13667332 -0.12359532 -0.43238813 0.75752 0.03160101 0.23758563 0.43152878
-0.08204548 0.012142686 0.22512211 -0.7374167 -0.3390581 0.20690353 -0.11110549 0.22321446
-0.0029899757 0.038919225 0.3443388 0.052549414 -0.19922799 -0.19311695 0.67816097 -0.8432042
-0.4110744 -0.13165852 0.13953242 -0.3449636 -0.21848194 -0.28128326 -0.25541812 -0.03967175
0.062350936 0.8421696 -0.4902489 0.03933686 -0.6763545 -0.3151169 -0.2904633 -0.14160345
-0.30266953 -0.31983465 -0.044569265 -0.018668797 -0.26771295 -0.5770849 0.88162947 -0.11036608
-0.44003046 0.19268112 0.094589114 0.032169193 -0.4760016 -0.08278202 -0.3991218 -0.17603843
0.1872709 0.8476141 0.054397866 0.0031612664 -0.52592516 -0.24512619 0.60010207 -0.64623684
-0.53320223 -0.56400955 0.47458526 -0.26467386 -0.8459274 0.31960425 0.9036591 -0.044516806
-0.36445642 0.13446973 -0.12914783 0.18122058 0.3790764 0.38729817 -0.12545963 -0.5264283
0.4494773 -0.828101 0.23578945 0.3410814 -0.45688275 0.25726253 0.059355766 0.11693703
-0.6118337 -0.6006224 0.84645367 0.09114682 0.08843272 -0.32474846 -0.09059704 0.30150062
0.34689835 -0.8057488 0.5116612 0.14571907 -0.045281958 0.35613954 0.25134492 0.030608868
-0.011032683 0.057425335 -0.18230864 0.20962586 -0.17055978 0.2568514 -0.006328045 -0.35354996
-0.1808262 0.77015007 0.08955419 -0.8409904 -0.6742119 0.278985 -0.20029844 0.19550526
0.17952894 0.0071096374 -0.5796754 0.016632132 -0.043650728 0.8938843 -0.20132712 0.07338233
0.36807826 0.22032584 -0.12141144 -0.0058255456 -1.1243454 0.8138682 0.029311286 -1.3279787
0.07526539 0.0100834435 0.13853872 0.26632512 -0.20738354 -0.17838822 -0.068870254 -0.5900569
-0.37434468 0.44657284 -0.030990928 -1.0913335 0.3132776 0.20874782 -0.5380561 0.75272334
0.30909395 -0.06270879 -0.30576015 -0.63197976 0.18045428 -0.48961917 -0.0846538 0.0012325136
0.12019402 -0.47324333 -0.559841 -0.6033038 0.58864087 -0.6218449 0.24938253 -1.1071733
0.34929094 0.06600574 -0.21165632 0.09933014 -0.25568077 -0.05685531 -0.14590941 -0.095243536
-0.3270091 0.38314736 0.24480411 -0.8748874 0.1847954 -0.21067087 0.11572017 0.103791654
-0.06531605 0.05825873 -0.0037422762 0.33578438 -0.5295077 0.10592942 -0.05089392 0.76907057
0.0053691794 -0.058722902 -0.029389564 -0.0015824374 -0.051500477 0.10691013 -0.40764686 -0.56056094
-0.6556327 -0.8560645 0.43670705 -0.0906734 -0.20245105 0.037782796 -0.27106228 0.16062072
0.4072124 0.22184476 0.27796212 0.93236417 -0.19735818 -0.8388366 -0.08471073 -0.83329296
0.2829359 -0.08798173 -0.20434664 0.021655697 -0.733908 -0.26355764 0.1721006 -0.25900918
-1.0783622 -0.54555464 -0.019994419 0.42297295 -0.0048922556 0.00010066236 -0.10199579 0.4379032
-0.22397383 -0.44123334 -0.49873772 0.35831487 -0.8291288 0.2675485 0.2699692 0.09179889
0.31348917 0.09072793 0.42366928 -0.52680874 0.44597617 -0.5181827 -0.71305466 0.030175088
0.0055707847 -0.79398334 -0.27376392 0.17619133 0.25236216 0.2956082 -0.30233958 -0.8527469

network_body.linear_encoder.seq_layers.0.bias f4 [128]
00000000: d334 d2bd dfd2 b9bd 5f27 f1bd 6408 283d
00000010: da45 14be 63d7 f43d 5536 c2bd 30bc 88ba
00000020: e9d6 febd 57fd adbe ce2d 073e 711e 90be
00000030: 5572 91bd 958d 513e c0cd 91bc c0b9 1c3e
00000040: 9e0c f83d 6cea 5ebe d1d6 233e aacc 3f3d
00000050: b8d6 a4bd 762b 003e d7d6 d33d 059b cf3c
00000060: bd65 083e e7bf b4bd 319b aa3d 7429 b63c
00000070: 2eab 8bbb bc6c 0bbe 229c 84be aaad 673e
00000080: 5b00 0bbe d4c4 e6bc 40fa cd3e ad3d 9d3d
00000090: 9768 04bd a7e6 bc3c 14c5 603c 9e25 b5be
000000a0: 1739 993d 6333 e5bd 9af7 5e3c 16f5 36be
000000b0: f9ac bc3c dcf4 973e 744b 51be 2135 e33c
000000c0: 272e 97bc 3dce 57bd 3eef 04bd c138 373e
000000d0: d9a2 47be 96b5 97bc 54a0 b4bd 8443 cc3b
000000e0: a058 0e3d 052b b1bd e95f a4bd 837d b13d
000000f0: aff5 aebd 7eb8 58bd 3ab9 f23d cf15 f6bb
00000100: 96cc 023a f4cd 69be f281 99bd 687f 9bbd
00000110: 3bd3 cbbd f799 e6bc 6263 c6bd dc03 b5bd
00000120: 983d 0abd 9306 b03c 3282 7d3e 00a0 43be
00000130: 61ac 6fbe a8be fa3c 6496 843d 355b d3be
00000140: 7bf1 f93c a40b 573e 9735 a4be 8530 cabd
00000150: 7b96 ae3d 6e4d e9be be5c 0e3e 36f9 a9bc
00000160: f0a0 23be d916 b2be ffd6 84bc 1dca 163d
00000170: 5d49 53be 34aa 343e 348b 973b 8097 313e
00000180: df7a 453e d08d 913d e4f7 d1be 6931 163e
00000190: c510 b7bd 6876 8c3e 3c3e 883b 33a9 f3bd
000001a0: 5691 4fbe 2e53 1c3b 3759 dc3c 3403 32be
000001b0: 0e1f 043d 5c12 d0bd 9d5a 993e 72be a1bd
000001c0: f526 f73b 3947 86bd aa44 a9be 239d 803d
000001d0: 9f94 9fbd 55a8 cd3d 97e6 903d b959 a93d
000001e0: 8484 8ebe 4d00 f93c 4a82 f23d 1e4e 55be
000001f0: 3a02 f1bc 9f86 2abc d19e 8bbe 048b 643d
-0.10263982 -0.090734236 -0.117750876 0.041023627 -0.14479771 0.11955144 -0.09483019 -0.0010432061
-0.124433346 -0.33982345 0.13201067 -0.28148225 -0.07101885 0.20464166 -0.017798305 0.15305233
0.121117815 -0.21769112 0.15999915 0.046826042 -0.08048767 0.12516579 0.10343712 0.025342474
0.1332006 -0.08825665 0.08330382 0.022236563 -0.0042623496 -0.13615698 -0.2590037 0.22624841
-0.13574354 -0.028170027 0.40229988 0.07677779 -0.032326307 0.023059202 0.013718862 -0.35380262
0.07481592 -0.11191442 0.0136088375 -0.1786693 0.023031699 0.29679 -0.2043894 0.027735295
-0.018454624 -0.05268692 -0.03245472 0.17892744 -0.19495715 -0.018519204 -0.08819643 0.0062336344
0.034752488 -0.086507834 -0.08026106 0.086665176 -0.08542954 -0.05291032 0.118517354 -0.007509924
0.0004989592 -0.22832471 -0.07495488 -0.0759266 -0.099523984 -0.028149588 -0.096869245 -0.08838627
-0.033750147 0.02148751 0.24756697 -0.19104004 -0.23405601 0.03060849 0.06473997 -0.41280523
0.030510655 0.21000534 -0.32072136 -0.098725356 0.085247956 -0.45566887 0.13902566 -0.020748716
-0.15979362 -0.34783056 -0.0162158 0.036813844 -0.20633455 0.17643052 0.0046247486 0.17342949
0.19285153 0.07107127 -0.41009438 0.14667286 -0.089387454 0.27434087 0.0041578095 -0.118975066
-0.20270285 0.002385329 0.02689801 -0.17384034 0.03225618 -0.10159752 0.29951945 -0.07897653
0.007542486 -0.065565534 -0.330602 0.062799715 -0.07792019 0.100418724 0.070752315 0.08269066
-0.27835476 0.030395651 0.11841257 -0.2083058 -0.029420007 -0.010408073 -0.27269605 0.055796638

network_body.linear_encoder.seq_layers.2.weight f4 [128, 128]
00000000: 04ef 87be 7adb 98be 76d3 d2bc 3a3a ebbe
00000010: bce5 6ebd f42c 41be 1136 013e cdc0 afbe
00000020: 7df6 e53d 71ce 063e b891 abbe ebb8 3c3e
00000030: 0584 d4bd e269 40bf 3a87 1ebe ea77 0fbf
00000040: 44d2 92be af30 883e 98df 78bf c938 54bd
00000050: 293a 47bc c786 39be 56fb a3be 4af6 b9be
00000060: f123 6dbe 9f0d e63c 70aa 58be a3b0 ebbd
00000070: 0eee a7be 7d2c a0be 0c30 c9bc a007 5ebe
00000080: 6565 5d3e 2503 3bbe 0a55 c2be 7330 03be
00000090: 1d00 50be 076e 053d 333e f6be 7d63 873e
000000a0: fadc 0ebf c733 cc3e 2d47 f7be 3a38 933c
000000b0: 4e70 10bd e219 28bf 1742 46be 7b3a 6cbe
000000c0: a7ad 8ebe b36b c33e 7350 b7be 7880 993d
000000d0: 56cb 323d ca53 8ebe c99c c3be 1a5a babc
000000e0: 7d03 bbbe ce74 26bc 8749 183e e3b6 f6bd
000000f0: e701 b5be 4b87 3dbe e3c6 63be 7ac0 a13e
00000100: d2ca c7bd 706a 81be e9ac da3d abc9 86be
00000110: 7905 49be 092d 3bbd 8352 6ebd 1763 2cbe
00000120: 4871 14be 43c9 97bf bff0 73be 8f72 f2be
00000130: d4c9 243e bc21 47be 83ef 1fbf 8c1a 813e
00000140: 428a d2be 5de1 e3bd f173 98be 5d06 f1be
00000150: a934 9bbd 4fd6 ad3e 1328 873d 1cc0 4dbd
00000160: 53db 14bf dc9c da3e 01df 70bd 254b 903e
00000170: 1c69 6dbe 6662 f3bd 259a b4be b661 55be
00000180: e79b 863d 2d6a 87bd 83c9 803e 3198 063d
00000190: e765 7fbe d9ce 30bf 6687 b63d 02cf e8be
000001a0: 3182 7a3e 5b78 c5bd 1c52 133c ceb9 2cbe
000001b0: 8065 25be 27a8 dfbd 8efd bf3c 88c8 c6be
000001c0: 15a4 633e 1a8d 13bf 6861 943d c6e1 31bf
000001d0: b09c 8c3e 14f7 35be c9b7 0ebe 00d7 5ebe
000001e0: 7fcc 573e 73ce 72bd 08d8 febd 6a84 bcbd
000001f0: 9e64 933d b4f3 c8bd df49 c8be 29b5 893d
00000200: 318b 083e 3081 07bd 0810 01bf 3f3a 4dbe
00000210: 09e8 57be 4789 26bf 1a40 73be 9191 053d
00000220: 2b1b a8be abd7 15be e84a 0abe 4fb9 8ebe
00000230: 4f5a e83d 17a3 0b3e 6039 20bd ac1e a83e
00000240: 6f5c 3b3e 3c3b e2be b4f8 82be 66d7 98be
00000250: 5914 083e 6458 69be 4667 8abd e6a9 15bc
00000260: ec15 f9bd f1fd b1bd 7dd0 dcbe 3f24 22bc
00000270: 42a9 a6be 9130 0cbe f739 0dbe d767 213e
00000280: ad66 33bf 70bd 2a3e 0c19 783e bcc8 c43d
00000290: 6c3c 673d a45f dfbe b940 efbc 47c7 85be
000002a0: a6a8 b5bc ceb6 66be 09e2 2c3d dcf4 803e
000002b0: bea6 27bc 51b5 993b 5cd3 1dbd 61b5 cbbb
000002c0: 1fd6 0dbe 7589 303e b4f4 dcbd 1730 c7bc
000002d0: 7a22 143c 4253 083e 0dd8 f9be 88ce c1be
000002e0: d3c8 73bd c84d 09bf 2b5e 02be bd9a 00be
000002f0: 255b 5d3e 9e45 e2be 0101 8f3b efe6 3d3e
00000300: 8447 3b3e 8312 333e f605 fa3e 773c e7bd
00000310: 6dae 2c3e 9add 543e ef34 ae3d bf5e 2bbc
00000320: f214 cdbd 0df3 d0be 3531 30be d1a3 c7be
00000330: 0a90 053e e234 b23d 0175 a8bc 28f7 1abc
00000340: 574d 863e b0ce 95be 8bcc 34be 2c55 0fbe
00000350: a04e 0abf e900 e9bd 4375 6a3e c530 cd3b
00000360: 9ccb a13d b993 72be d5b9 543c 7766 a53d
00000370: 2f78 133e 8beb 10be 7473 06be 4ffd 52be
00000380: cf8f 913e bedd 8b3c 4ca7 37be 7b4b 29be
00000390: fb8a d9bd 1471 2cbe aef0 bd3e c380 2f3d
000003a0: ea1c c9be 1eec 1abd d3fd c9be 47cd 10bd
000003b0: e7fd be3d 8cbf 163e f7a8 b6bd d664 593c
000003c0: f51f 5cbe 5f13 39bd 86c5 a1be 856b 8ebe
000003d0: a28a c33e 34a9 d53d 283f 23be f218 f73c
000003e0: 5672 9bbd 7045 8fbd 4bf5 313d 59e3 76be
000003f0: 2498 423e b801 a3be 52f4 57be 2dcd 8d3d
-0.26549542 -0.29854947 -0.025735598 -0.4594286 -0.05832456 -0.18864805 0.12618281 -0.34326783
0.112286545 0.13164689 -0.33509612 0.18429916 -0.10376743 -0.75161564 -0.15481272 -0.5604235
-0.28676045 0.26599643 -0.97216177 -0.051811967 -0.012159863 -0.1811782 -0.32027692 -0.36320716
-0.23158242 0.028082667 -0.21158767 -0.115083 -0.3279881 -0.31283942 -0.024559043 -0.21682596
0.2162071 -0.18262918 -0.37955505 -0.1281145 -0.20312543 0.032575633 -0.4809433 0.2644309
-0.55805933 0.39883253 -0.4829649 0.017971147 -0.035263352 -0.65664494 -0.19361149 -0.23069184
-0.2786686 0.38168105 -0.35803565 0.074952066 0.043650948 -0.277983 -0.38205555 -0.022748042
-0.365261 -0.010159684 0.14871798 -0.120466016 -0.35353014 -0.18508641 -0.22243838 0.3159216
-0.09755482 -0.25276518 0.10677511 -0.26325735 -0.19630994 -0.045697246 -0.058184158 -0.16834675
-0.14496338 -1.1858295 -0.23822306 -0.47353026 0.16092616 -0.19446462 -0.6247484 0.25215566
-0.41121107 -0.11126969 -0.29775956 -0.47075167 -0.075784035 0.33952567 0.065994404 -0.050232038
-0.5814716 0.426978 -0.058806423 0.2818233 -0.23184627 -0.118840024 -0.35273853 -0.20838055
0.06572705 -0.06612048 0.2515374 0.032859985 -0.24941216 -0.69065624 0.08912544 -0.45470434
0.24463727 -0.096420966 0.008991744 -0.16867754 -0.16152 -0.109207444 0.023436334 -0.38824868
0.22230561 -0.5763718 0.07245141 -0.6948513 0.27463293 -0.17770034 -0.13937296 -0.21761703
0.21074103 -0.059278917 -0.124435484 -0.092049435 0.071969256 -0.09812108 -0.3911886 0.06724007
0.13334347 -0.033082187 -0.50415087 -0.2004175 -0.21084608 -0.6505322 -0.23754922 0.032609526
-0.32833228 -0.14633052 -0.13505137 -0.27875754 0.1134535 0.13636433 -0.039117217 0.328359
0.1829698 -0.44185817 -0.2558037 -0.29851836 0.13289012 -0.22787625 -0.06757979 -0.009134745
-0.121623844 -0.086910136 -0.43127814 -0.009896337 -0.32551008 -0.13690402 -0.13791643 0.15762268
-0.70078546 0.16673827 0.24228305 0.096085995 0.056454107 -0.43627656 -0.029205667 -0.261286
-0.022175144 -0.22530672 0.04220775 0.25186813 -0.0102326255 0.004690804 -0.038531646 -0.0062166904
-0.13851212 0.17239936 -0.10788861 -0.024314923 0.009041423 0.1331301 -0.48797646 -0.37852883
-0.059517693 -0.5363431 -0.12731235 -0.12559028 0.216168 -0.4419374 0.0043641333 0.18545125
0.18289 0.1748753 0.48832673 -0.1129083 0.16863413 0.2078766 0.0850619 -0.010459601
-0.100137606 -0.40810433 -0.17206271 -0.3899217 0.13043228 0.08701493 -0.020563604 -0.009458341
0.2623088 -0.29259253 -0.17656152 -0.13997334 -0.5402622 -0.11377127 0.22896294 0.0062619173
0.079001635 -0.23689164 0.012983759 0.08076184 0.14401315 -0.14152353 -0.1312998 -0.20604442
0.2843003 0.017073508 -0.17934912 -0.165327 -0.106222115 -0.16840011 0.37097687 0.042847406
-0.39279872 -0.037822835 -0.39451465 -0.035352018 0.09325772 0.14721507 -0.08918946 0.01326867
-0.21496566 -0.04518449 -0.3159601 -0.27816406 0.38191706 0.104326636 -0.15942061 0.030163262
-0.07590167 -0.06995666 0.04344682 -0.24110164 0.1900335 -0.3183725 -0.21089295 0.069239

network_body.linear_encoder.seq_layers.2.bias f4 [128]
00000000: 3671 2dbe 25d2 acbc f403 25be 2cbe 993e
00000010: 5649 52bb 62fe 11be 84cc cabd 5bac 173e
00000020: 2721 b0be 498d a5bd 5e87 c43d 6446 52bd
00000030: 97b8 18be ad85 9cbc 8d6b f6bc bbbf d2bd
00000040: 1091 10be c0e2 b5bc 6067 933c 85c0 6dbd
00000050: 446f b13d 6547 873b b307 27be 0b82 87be
00000060: 9d83 bebd 8c1e 0fbd 4b0d 04be 295b b23d
00000070: 4ae4 ecbd 3c5e 1bbd 9098 2abe b3ae 92bd
00000080: fa06 5bbd 9fe5 b7bd 6bf8 afbd 50fb 34be
00000090: 28f9 d1bc 8f84 80be d354 08bd 52b9 f2bd
000000a0: 4783 543d d5c5 8d3d 7c24 2ebe bde6 31be
000000b0: 9380 e8bd 99b0 f73c 9a17 d7bd 117e 67bd
000000c0: 2464 73bd 1e86 cbbc 1faf 1ebe 480b 17be
000000d0: 2b47 4ebc 6b84 02bc 7ff8 92bd 8372 a6be
000000e0: 8da1 65be 4557 e4bd bbbe 47bc 4a86 083d
000000f0: 50f0 ccbd 2cb6 15bd 914b 78bd cb45 70bd
00000100: 85e7 3bbe 5013 50bd c657 c13d 6e2e 083d
00000110: 1cbc 173b 9d35 42be 1b20 813d 0335 823d
00000120: 10fb 7dbd a829 2cbe 6f13 67be c2a1 40be
00000130: 5df5 26bd 8e8b 1abc 07af 28be 8c20 b3bd
00000140: 246a 03be 3123 9fbd ae8b ca3d 5143 0ebe
00000150: c2b4 1abd df4a efbd bfbb 763d 5460 abbd
00000160: a752 793d e3d8 293d b56b d33d dc90 54be
00000170: 5b47 a9bc 8fba b3bd 61f5 2fbe b193 3f3e
00000180: d8fe ccbd 6374 663c fd99 3abe b4e6 e63c
00000190: 8bd3 283d 6072 61bd dbe9 f53b bafd e9bd
000001a0: a5ea 04bd aa09 f0bc 2d5f 713d 8311 78bc
000001b0: da2b 2fbe b7d7 773d b25e cabd 5c58 603d
000001c0: 14b0 37bd 5491 a0bd c24b 2c3c a80e 09be
000001d0: cf1c 18be f1a8 1cbd 7f66 d03d b1da a13d
000001e0: d2c0 b8bd 6c91 df3d 19a8 2f3d d967 563d
000001f0: 5703 6cbe e548 8d3d d146 81bd 2987 9bbd
-0.16937718 -0.021096298 -0.16114789 0.30027902 -0.0032087169 -0.14257196 -0.099022895 0.14811842
-0.34400293 -0.08083589 0.09596132 -0.05133666 -0.14914165 -0.01910671 -0.030080581 -0.10290476
-0.14117837 -0.02220285 0.017993629 -0.05804493 0.086638 0.004128384 -0.16311531 -0.26466402
-0.09302447 -0.03494124 -0.12895696 0.08708794 -0.1156698 -0.037931666 -0.1665976 -0.071622275
-0.05347345 -0.089793436 -0.08592304 -0.17673993 -0.025631502 -0.25101134 -0.03328402 -0.11851753
0.05188301 0.06922499 -0.17006105 -0.17373176 -0.113526486 0.030235576 -0.105025485 -0.05651671
-0.059421673 -0.024844225 -0.15496491 -0.14750397 -0.01259021 -0.007966141 -0.07176303 -0.3250924
-0.22424908 -0.11149458 -0.01219147 0.033331193 -0.100067735 -0.036550686 -0.06061894 -0.05866031
-0.18350036 -0.050799668 0.094405696 0.033247404 0.0023152893 -0.18965764 0.06304952 0.063577674
-0.06200701 -0.16812766 -0.22566007 -0.18811706 -0.04076134 -0.0094326865 -0.16473018 -0.08746442
-0.12833458 -0.07770384 0.09889923 -0.13892867 -0.03777004 -0.116842024 0.060237642 -0.083679825
0.06086984 0.041466605 0.10323278 -0.20758384 -0.020663908 -0.087758176 -0.17183448 0.18708684
-0.10009545 0.014065835 -0.18222804 0.02818618 0.041217368 -0.055040717 0.0075046844 -0.114253476
-0.032450337 -0.029301483 0.058928657 -0.015140894 -0.17106572 0.060508456 -0.09881343 0.054771766
-0.044845656 -0.07840219 0.010516109 -0.13384497 -0.1485474 -0.038247053 0.101757996 0.0790304
-0.090211526 0.10916409 0.04288492 0.05234513 -0.23048149 0.06898669 -0.06312335 -0.07594139

action_model._discrete_distribution.branches.0.weight f4 [3, 128]
00000000: f3d5 a1bc 9881 c8bc ea5a b0bd ff70 a5bf
00000010: 67f8 95be 21f0 fabc 0a60 f03b 5836 063e
00000020: 4f91 db3d e51d e03c 443f 843e 4ff0 353e
00000030: 5c22 ca3b c489 0cbe b187 1d3e b892 9abd
00000040: 9605 39be bc1d a1be f9e7 c4be 3fb5 23be
00000050: 6af3 73be f61a 90be 0616 03bc d3d2 8fbd
00000060: 7c04 c63b 1422 85bd 2c72 6c3d c69e ddbe
00000070: b9f8 fcbd 8041 993c 5d03 9d3e a5d2 e1bc
00000080: b7f8 35bd fb51 4b3c 9faf 673d 6d4d ff3e
00000090: f6cb 6fbe 877e 3abc 0d0d 303e 6485 aabd
000000a0: 5503 113e 386e a23d 2f55 583e 174d bb3d
000000b0: 44fc 8cb8 7f95 1f3c 8c76 a8bd dfa0 923e
000000c0: 0042 10bf f661 59be a60f 80be 41a9 fb3d
000000d0: 7f63 213e ff16 a0be dfef 47bd ae9d 8d3e
000000e0: bd10 ef3d 0312 cfbe 1f5d 1dbe c697 753e
000000f0: 0945 683d 8ac6 893d b5f4 e33c 9837 45be
00000100: 5dbb 5c3c 9691 833e 3185 17bf dd6c 44bd
00000110: 064a 023d 177b 1dbe e63c 90be b77b 3cbf
00000120: 749b bbbc f8ef 643c f00f f33b a5fb debd
00000130: e8ea cebe 708d 01bd d545 823e 69c5 d5bd
00000140: f03d 2ebd 1b75 1a3f 908b f33d c520 dc3d
00000150: 5498 a8be d73e 38bd b4dc 36be 2e79 d43d
00000160: befc 90be 0583 18be d25f 0abc e435 02be
00000170: b2de 3cbe 526d 6a3c dbc3 93be 4c46 83be
00000180: f58a 9f3e adae 4ebe 0480 443d edc7 9b3e
00000190: 717b c53e cbdd f63d 010d 8e3e b028 a13c
000001a0: badc 0fbe 55af 8bbe ceae 55be 9cae 0ebf
000001b0: 097e 433e a85b 903e 5843 0a3e d45c 2ebf
000001c0: a63b f3be 7781 0c3e 1309 bcbc 6381 4fbe
000001d0: 3275 62be f480 c4bc 2f07 26be 84f6 06be
000001e0: d99b 803e 8a81 51bd d5d6 763e cb16 cf3d
000001f0: cb95 383e 215e 9c3e 451e 4a3e 3e91 553e
00000200: c06e 0abe eb6b 97be 61d7 8a3e 106e 49be
00000210: b5a6 e63d e973 fe3d 9a3e 6dbc ac11 88bf
00000220: a960 7f3e 4df0 20be 162f 0c3e b0fc e9bd
00000230: 4d0a dcbd 45d4 993d 06ca 4d3e 2e00 2f3e
00000240: c3bb 9e3e 3d15 9d3e 882b 813d 143e df3d
00000250: 6feb fcbd 09db 34bd 2aa6 76be 6dc2 f93e
00000260: ca43 683e c28c 1abf 643e c2be 44a2 51bf
00000270: d6fb 1bbf db8f 693c b3fd 023f 6ca0 05be
00000280: 9782 c0be 8bbf bdbd 8b14 1dbe ee66 c0bb
00000290: bdbb ef3e 3097 5fbd 8107 093e 1cd9 e3be
000002a0: 88f3 adbe 5992 fa3c ed2a 2d3e 5e27 d1bc
000002b0: 9757 8fbe e23c 7e3e cc4e 3ebe dbf7 9fbe
000002c0: bc64 a6be d7ee 1cbe 7de6 0b3e 91c2 1ebd
000002d0: 3974 2dbf e2e1 843e 5503 b2be 23a8 be3d
000002e0: acba b7bc 04a2 c3bd 2801 17be d307 883e
000002f0: b3c6 f43d ed63 b73e 7490 9cbe 63ab 25bd
00000300: 924e 7bbf 6c2d 793e bd76 673e b8f9 94be
00000310: 1e20 c1bc 349e 973e d402 8b3e 23d9 62bd
00000320: 7685 7a3d 6ad7 69be c729 223e 211b b5bd
00000330: 6647 9c3d 21c7 603e e385 3a3e 060b 2fbe
00000340: 599d d8bc 3d98 f03d f8d3 693e 2565 3dbe
00000350: bf1f 313e e762 90be de6e c8be b069 9ebc
00000360: a901 ff3b 0710 6dbe 4370 76bd 1f30 3e3e
00000370: 464f 4a3e 0738 92be 91c5 443e 5dff 95bf
00000380: c2ad a83e d555 abbe d11c 58be cf39 073e
00000390: 2451 68bf 381a 09bd d1a2 e03c 0c17 91be
000003a0: 250b 363e 9088 233c b46a 50bc 1d4d 7fbe
000003b0: 6d82 a3be 315a c83c c8b2 f5be c457 55bf
000003c0: 1797 15bf 9e40 503d 80fa cabe ce43 f73c
000003d0: 95d8 933e 07a4 3a3d f087 d33d 0fb6 81bd
000003e0: 288d b7be 1dfd ccbe ecdb 0fbf e13a 823d
000003f0: 1409 693d 6c9c f1be b901 74bc 92c4 b7be
-0.01975534 -0.024475858 -0.086110905 -1.2925109 -0.29291078 -0.03063208 0.0073356675 0.13106668
0.10721075 0.027358005 0.25829518 0.17767452 0.0061686467 -0.13724428 0.15383793 -0.07547516
-0.18068537 -0.31467998 -0.3845823 -0.15987109 -0.23823324 -0.2814557 -0.008000856 -0.070226334
0.006043015 -0.065006405 0.05772607 -0.43285197 -0.123521276 0.01870799 0.30666628 -0.027566263
-0.044426646 0.012409682 0.05656397 0.4986376 -0.23417649 -0.0113827055 0.17192478 -0.083262235
0.14161427 0.07931179 0.21126245 0.09145563 -6.722708e-05 0.0097402325 -0.08225736 0.2863836
-0.5635071 -0.21228775 -0.2501194 0.12288142 0.15760611 -0.31267545 -0.048812743 0.27659363
0.116731144 -0.4044343 -0.15367554 0.23983678 0.056706462 0.067273214 0.027826646 -0.19259489
0.013472405 0.2569701 -0.5918761 -0.047955383 0.031808876 -0.15378986 -0.28171462 -0.73626274
-0.022901274 0.013973229 0.0074176714 -0.10887841 -0.40413594 -0.031629026 0.25443903 -0.104380436
-0.042539537 0.6033494 0.11891854 0.10748438 -0.32928717 -0.044981804 -0.17857629 0.10374676
-0.28317827 -0.1489373 -0.008445697 -0.1271587 -0.18444327 0.014308291 -0.28860363 -0.2563957
0.31160703 -0.20183821 0.047973648 0.3042597 0.3857074 0.120540224 0.27744296 0.019672722
-0.14049044 -0.27282205 -0.20867464 -0.5573518 0.19091047 0.28194928 0.13502252 -0.68110394
-0.47506446 0.13721262 -0.022953546 -0.20264201 -0.22115019 -0.02398727 -0.16213678 -0.13179976
0.25118902 -0.05114893 0.2410539 0.10111769 0.18025891 0.30540565 0.1973811 0.20856187
-0.1351881 -0.29574522 0.27117446 -0.19670892 0.112622656 0.12424452 -0.014480257 -1.0630393
0.24939217 -0.15716667 0.13689837 -0.114251494 -0.10744152 0.0751119 0.20096597 0.17089912
0.31002626 0.30680266 0.06307131 0.10900512 -0.12349593 -0.0441542 -0.24086824 0.48781148
0.2268211 -0.6037103 -0.37938225 -0.8188822 -0.60931146 0.014255489 0.51168364 -0.13049477
-0.37599632 -0.092650495 -0.15339868 -0.005871645 0.4682292 -0.054587543 0.13381769 -0.4450158
-0.33974862 0.030587362 0.16910906 -0.025531467 -0.27996513 0.24827912 -0.18584746 -0.31243786
-0.3249873 -0.15325485 0.13662143 -0.03875977 -0.67755467 0.25953585 -0.34768167 0.09309413
-0.02242788 -0.095523864 -0.14746535 0.2656847 0.11951961 0.35818425 -0.3057896 -0.04044665
-0.98166764 0.24333733 0.22603889 -0.2909677 -0.023574885 0.29612887 0.27150595 -0.05538286
0.061162435 -0.2283608 0.1583625 -0.08843065 0.07630806 0.21950962 0.18215136 -0.17094049
-0.026442217 0.11747787 0.22834766 -0.18495615 0.17297266 -0.28200457 -0.39147085 -0.019337505
0.0077821803 -0.23150645 -0.060165655 0.18573044 0.19756803 -0.2855837 0.1921599 -1.1718556
0.32945067 -0.33463922 -0.21104743 0.13205646 -0.9074881 -0.03347227 0.027421387 -0.28337896
0.17777689 0.0099812895 -0.0127207525 -0.2493176 -0.31935444 0.02445707 -0.47987962 -0.83337045
-0.5843367 0.050842874 -0.3964424 0.030183699 0.28876176 0.045566585 0.103286624 -0.06333553
-0.3584988 -0.4003686 -0.5619495 0.063588865 0.056893423 -0.47189653 -0.014892989 -0.3589216

action_model._discrete_distribution.branches.0.bias f4 [3]
00000000: 38c8 1ebe 8a78 05be f54f 753e
-0.15506065 -0.13034263 0.23956282

action_model._discrete_distribution.branches.1.weight f4 [2, 128]
00000000: 8940 953e 9700 20bd 047e 49be 13aa 52bd
00000010: 044a dd3e 908a ad3c d892 c13d b9b3 d83d
00000020: befa b0bd 260b bd3d b9d7 86be ca33 adbe
00000030: 1354 dd3d 67b0 133f 17df 2fbe 4b92 993b
00000040: 748f 103b c0f2 a23d 3e72 b93c 197d b43c
00000050: 3352 0d3d ccfa 863d b9ec 84bd 9049 acbe
00000060: 5844 63bc fa5e b3be c482 e5bb 0147 c43b
00000070: cb06 203e 46a0 413e 426a cebe 2409 9bbc
00000080: d5ad 1a3e 7957 5c3e d927 f13d 9b77 11bf
00000090: ffd1 c2bc 15f1 a8bc f7d0 2c3e a633 0fbc
000000a0: 6ea2 b83e d670 30bb 4bdc b13e 5bda 443b
000000b0: 9f88 1cbe 6d80 1c3e 49c5 e53d 7bca 64be
000000c0: 375b fc3d 5cdc 083f 84c6 6abd e412 0a3f
000000d0: 864d acbc 5211 313d f03f 253e 35bc 5fbe
000000e0: 5ef2 103c 30e7 92bc 03b6 2a3e f1cf 5f3e
000000f0: 6361 07bf b252 9cbd 2f7a 65be e1f2 113f
00000100: 00a4 913d 7b46 47be a757 0cbe 2b1b eb3e
00000110: c084 a23e 9168 2fbe 2419 15bd 1eae 20bd
00000120: 8dc0 fa3d aec7 923d 6d87 37bd af09 9cbe
00000130: a0b1 90bc 3bbf fa3d bc0b d6be 7d60 83be
00000140: 8ef3 f23d 048c 3fbf 42dd bc3e 8b1b fe3d
00000150: b454 9abe c80d 14be 2eba 21be 0ca5 8f3e
00000160: 0cc1 d3bc 75c2 02bd c29f 84bd 436e 5a3e
00000170: 3378 86be 94b0 4d3e 8018 d9bd c69d 313f
00000180: 4446 943e 2067 cbbe e37b eabd e349 58bd
00000190: 4876 ec3e b098 8abc 6300 033f 2dd5 e6bd
000001a0: 2e2f 643c d9a0 cc3d f50c adbd 766e 1c3e
000001b0: 6e22 173e 5fcc dabe 8c6e 40be 1f69 02be
000001c0: f9cb 9a3e 5c77 3dbe e1f3 903d 6ce4 c73c
000001d0: a8ae 433d 14ae b33d 15d8 1ebe 51a3 c43e
000001e0: 0ce4 90bd b45a 3b3f 832c f3bd da4e 813f
000001f0: f1f5 7abe e380 94be 2d93 d6bc 93ec c2bc
00000200: a015 94be 6a40 333d d462 473e 4c57 413d
00000210: e4d2 dfbe 56ec 19bb 5200 c8bd e78a efbd
00000220: 48ad a33d 477b b4bd 6b44 8e3e 71e9 af3e
00000230: fc1e f5bd 5b39 0fbf 62b8 1f3e dbdd a0bc
00000240: f368 b4bc d388 a8bd 798c 9dbc 6e03 3bbd
00000250: 4cd0 aabc 6b75 8bbd 09cd 8a3d b94d a63e
00000260: 4fd9 463b e040 b53e 0139 1c3c fb0e dabc
00000270: 5860 3bbe b6d6 3cbe 4180 c73e 621d 243c
00000280: 64d8 32be 5eba 5cbe 2af1 efbd 26b8 0c3f
00000290: 6944 cb3c 87a5 783c 10b4 10be 8fa6 6fbc
000002a0: 1f6f abbe e8ad 2cbc 6621 b5be 0d8e c63b
000002b0: 0403 233e ab28 11be 8304 e8bd 618b 643e
000002c0: 4df6 dfbd 5a5e 0cbf 5db2 4c3d b466 12bf
000002d0: 640a ee3c 1ae1 22bd c3fc 20be d921 523e
000002e0: ac2c d3bc 98d0 733c 9f8d 30be 1515 55be
000002f0: 5c89 0b3f 549a b83d 2644 6c3e acfa 13bf
00000300: fb97 a7bd cfee 513e adfd 0e3e 0e1c eebe
00000310: 14e4 a9be 1015 313e 21ac 293d 53bf 353d
00000320: 9b6b fcbd f3c9 58bd 9fd0 173d a15b 9d3e
00000330: 6eee 4b3c d121 0dbe 84c9 db3e 1198 7b3e
00000340: 8a16 d1bd 1afd 403f 5012 bcbe 83bb fcbd
00000350: ebdf 993e 55d9 1e3e b4a3 2e3e dbd9 93be
00000360: b311 c43c 8399 803c 1ed9 c43d 28cf 61be
00000370: 816b 8c3e 9921 40be 0305 c23d 3bbe 32bf
00000380: 4618 9cbe 7c36 d53e 161e c43d 11cb 4d3d
00000390: bfa3 eebe 8ca3 bf3c 3b85 00bf 4493 c93d
000003a0: c3ae 333c 6f93 acbd 45a5 9c3d fc9a 17be
000003b0: 205b 12be 62c2 d23e f55c 3c3e dd4c f33d
000003c0: 0b6c 9abe 8f70 213e 2257 82bd f82f 74bc
000003d0: 0987 2cbd d707 a8bd 8967 2c3e 00b9 bbbe
000003e0: f60d ae3d 8621 35bf 516a c33d 4e22 80bf
000003f0: b15a 823e ae00 963e ef01 d93c 4186 a13c
0.291508 -0.039063063 -0.19676977 -0.051431727 0.43220532 0.021184236 0.09451836 0.105811544
-0.08641575 0.09230642 -0.26336458 -0.33828574 0.108070515 0.57691044 -0.17174946 0.004686629
0.002205816 0.07956457 0.022637483 0.022032307 0.03450222 0.065908045 -0.06490464 -0.33649874
-0.013871275 -0.350334 -0.007004114 0.0059899096 0.15627591 0.18908796 -0.40315443 -0.018925257
0.15105374 0.21517743 0.117751785 -0.5682313 -0.023781775 -0.02062277 0.16876589 -0.008740341
0.36061424 -0.0026922724 0.34738383 0.0030037377 -0.15286492 0.15283366 0.1121927 -0.22342865
0.12322085 0.5346124 -0.057318226 0.53935075 -0.02103306 0.04322941 0.16137671 -0.21849139
0.008846847 -0.017932504 0.16670994 0.21856667 -0.52882975 -0.076329604 -0.2240989 0.5701123
0.07111359 -0.1946048 -0.13705312 0.45919165 0.31741905 -0.17129733 -0.03640093 -0.03922855
0.122437574 0.07166992 -0.044806886 -0.30476138 -0.017662823 0.122435056 -0.41805828 -0.25659552
0.118628606 -0.7482302 0.36887556 0.12407597 -0.30142748 -0.14458382 -0.15793678 0.28055608
-0.025848888 -0.03192373 -0.06475784 0.21331124 -0.2626358 0.2008689 -0.10600376 0.6938137
0.28959858 -0.39727116 -0.11449411 -0.05280484 0.4618399 -0.01691851 0.51172465 -0.11271129
0.013927264 0.09991617 -0.08449737 0.15276513 0.14759228 -0.42734048 -0.1879217 -0.12735413
0.30233744 -0.18502563 0.07077766 0.024400912 0.047773987 0.08773437 -0.15512116 0.3840585
-0.070747465 0.73185277 -0.11873724 1.0102189 -0.24507882 -0.29004583 -0.026193226 -0.023794448
-0.2892275 0.043762602 0.19471294 0.047202393 -0.43715584 -0.0023486814 -0.09765686 -0.116964154
0.07992035 -0.08812576 0.27786574 0.3435779 -0.119688004 -0.5594689 0.1559768 -0.019637039
-0.0220227 -0.08229222 -0.019232022 -0.045657568 -0.020851277 -0.06809505 0.067773886 0.32481173
0.0030341928 0.35401058 0.009535075 -0.026618471 -0.18298471 -0.1844128 0.38965037 0.010016771
-0.17465359 -0.21555468 -0.1171592 0.5496849 0.024812894 0.015176184 -0.14131188 -0.014627113
-0.33483216 -0.010539509 -0.35377043 0.0060594142 0.15919119 -0.1417567 -0.113289855 0.22318794
-0.1093565 -0.5483147 0.049974788 -0.5718796 0.029057689 -0.039765455 -0.15721421 0.20520724
-0.025778137 0.014881276 -0.17241524 -0.20808823 0.5450647 0.09013811 0.23072872 -0.5780437
-0.08183285 0.20501254 0.13963957 -0.4650578 -0.33181822 0.17293191 0.04142392 0.044371914
-0.123252116 -0.05292697 0.03706419 0.3073397 0.012446983 -0.13782431 0.42927182 0.24569727
-0.10209377 0.753862 -0.3673272 -0.123404525 0.30053648 0.15512593 0.17054635 -0.28877148
0.02393422 0.0156982 0.09611724 -0.2205168 0.2742577 -0.18762816 0.09473612 -0.6982152
-0.3048727 0.4164313 0.09576051 0.050242487 -0.46609303 0.023393415 -0.50203294 0.09842542
0.010966959 -0.08426558 0.0764871 -0.14805216 -0.14292574 0.41163927 0.18394835 0.11879895
-0.30160555 0.15765594 -0.063642755 -0.014904015 -0.042120967 -0.0820462 0.1683637 -0.3666458
0.084987566 -0.7075428 0.095417626 -1.0010469 0.25459817 0.29297394 0.02649018 0.019717338

action_model._discrete_distribution.branches.1.bias f4 [2]
00000000: 2e44 073e 2044 07be
0.13209602 -0.13209581

action_model._discrete_distribution.branches.2.weight f4 [2, 128]
00000000: 83e9 653d 9586 e4bd f4e0 393f 81db 07bd
00000010: d9ff 033e ee86 c53e ae81 973e 9b75 133f
00000020: 04b8 13bb fb29 063d 7c71 8ebe e765 f13b
00000030: c005 d8bb 9369 1e3f c837 55bd ec8a 153e
00000040: 72bf a5bc 0318 6d3d 5a6c e03d 9450 293d
00000050: 5d8a 0cbd 3240 cc3d aa1d 9abd 36a9 f83d
00000060: 8d6b 89bd ae52 87be c9f9 fd3d 9921 253e
00000070: f55a 5abe 83cd aabd ba6f 69be a2fe bb3c
00000080: 7fd4 223e ebec 7fbc 5a49 333d a2c2 03bf
00000090: cc1f 133f 5066 5c3e 79cf 62bd 479f a73e
000000a0: 2769 063d 8958 6e3f 8d9c 5dbd a641 5d3e
000000b0: f70d 963c c86f 093e 2085 de3d 8cf4 37be
000000c0: 8d58 05be 029e 033e b7db a53e d4f9 5c3e
000000d0: 6ae0 503f 393c 9fbb 233f 973d 96fc 1dbf
000000e0: a881 c4ba d1fa bebc 042b 5a3c bb68 62be
000000f0: 3943 93be 1ba6 22be d797 6fbe 0202 083e
00000100: b410 323d 92be ebbe 2b3c e5bc 8604 673e
00000110: 9519 b93e 9931 b83d 899e 77bc 6ab9 59bc
00000120: 3084 af3c b777 203d 6771 b6be 591a 3cbe
00000130: 135b f83c c774 023e a519 2bbf 30ec d53d
00000140: f8e3 393b ebaf 6abf 330b b3be 3371 013d
00000150: fce2 b6bd 0d1b 93be a410 c73e 439e 133f
00000160: 8de9 d0bd cf35 823d f56c 143f b7f3 35bd
00000170: 0633 003e 99b3 b03e 3795 62bc d956 15be
00000180: 0c35 4c3d d149 9ebd 130b 9bbe efbb b83e
00000190: 864e c0be e925 14be 7638 18bd 5dfd 8e3d
000001a0: e5fe 15be f807 813e 5428 07be bba5 ed3c
000001b0: b852 3c3c 2a51 12be 67ac 46bd e13d d3bc
000001c0: 9218 ffbd 599f 843e c183 c53d 0f4f 8d3e
000001d0: 0c7a 643e 9bdf 8d3e 69dc 0fbf 234f c13e
000001e0: be26 873c c1ce 243f 9e16 01be a664 8fbd
000001f0: 3e6e 013e 725d bf3e 2657 223d 0f2a 423c
00000200: 27ce 64bd 492e e43d bb1b 39bf fc8b af3c
00000210: 14f7 fabd fd8d c2be 97b0 8abe 4832 10bf
00000220: cab5 903b 966c 0bbd 0fc1 8a3e 9e29 85bc
00000230: 680a 06bc 6369 1fbf b741 4f3d f3f1 13be
00000240: 2dde de3c 33fa 3bbd df96 e8bd e3c1 b6bc
00000250: c3c2 f73c 07e3 c7bd 4f04 9b3d 666f f6bd
00000260: 452d 873d c211 893e 2c2a 02be 92b8 2cbe
00000270: a624 653e 06df bc3d c638 6e3e 1efb b0bc
00000280: 14f4 13be 0994 c13b 531b 08bd 8f8a 013f
00000290: ba74 13bf 01da 4bbe 131c 3c3d af78 adbe
000002a0: 72aa 04bd cc16 6fbf 7df3 8b3d fbe3 67be
000002b0: 0c52 24bd 8a54 0abe f2d4 cfbd 5b9c 293e
000002c0: 4076 093e 51cf 0fbe 6b34 9fbe af57 71be
000002d0: 6012 50bf 19cc 353c 9842 b8bd 120a 1e3f
000002e0: 1030 3cbb d91c 043d e94c f3bc 4140 723e
000002f0: 0e6d 913e 286f 273e e76b 733e 855f 17be
00000300: 916a d5bc 88c4 ed3e 1fbc 213d b352 78be
00000310: 207f c0be 7f5c a4bd b4e3 493c b132 263c
00000320: 74e5 e4bc 745a 3abd d448 b33e f27a 3e3e
00000330: 830a bcbc e445 14be d784 2f3f 874b bfbd
00000340: 8c09 1dbc 819a 6b3f e762 b23e 6dc1 f8bc
00000350: bb9d d03d 0e43 9b3e a060 c7be a1e7 14bf
00000360: f9d4 c73d 2050 a8bd ddf2 14bf c619 563d
00000370: 3025 eabd 60ab b1be 1d5a 193c 2ad8 fc3d
00000380: deea 11bd 1142 a93d dc2f 9d3e daf1 bfbe
00000390: 4b10 c93e e6a5 073e 50f8 ab3c 7523 86bd
000003a0: 1858 243e dac9 83be 2ed5 123e f367 b2bc
000003b0: 7e86 d9bb b0e2 093e a7b5 193d 05c0 b23c
000003c0: 1e61 ec3d e159 81be 5b9f ccbd 5035 91be
000003d0: f77c 61be 1dc2 85be 4d57 113f 5ca0 c5be
000003e0: b9b8 63bc b556 28bf 9add f73d e553 9e3d
000003f0: 64ca 08be 353c d9be 8ab0 17bd d360 5abc
0.056130897 -0.11158482 0.72608876 -0.03316832 0.12890567 0.38579506 0.29591125 0.57601327
-0.0022540102 0.03275488 -0.27820957 0.007366884 -0.0065924823 0.61879843 -0.05205515 0.14603776
-0.02023289 0.057884227 0.109581664 0.04133661 -0.03431164 0.09973182 -0.07525189 0.121416494
-0.06709967 -0.26430267 0.12401158 0.16126098 -0.2132376 -0.083399795 -0.22796527 0.022948567
0.15901373 -0.0156204505 0.043771125 -0.5146886 0.57470393 0.21523404 -0.055373643 0.32738706
0.032815125 0.93103844 -0.054104377 0.21607074 0.018317206 0.13421547 0.10865235 -0.17964381
-0.1302206 0.12853244 0.32394192 0.21579677 0.8159243 -0.004859474 0.07385089 -0.6171354
-0.0014992254 -0.023312958 0.01331592 -0.22110264 -0.28762224 -0.15883677 -0.23397766 0.13282016
0.04347296 -0.4604383 -0.027982792 0.2256032 0.3615233 0.08993835 -0.015113481 -0.013288835
0.021425337 0.03917667 -0.35633394 -0.18369426 0.030316865 0.1273986 -0.66836005 0.1044544
0.002836464 -0.9167468 -0.34969482 0.031602096 -0.089300126 -0.28731576 0.38879883 0.57663363
-0.10200796 0.063579194 0.57978755 -0.044421878 0.12519464 0.34512022 -0.013829521 -0.14583911
0.049855277 -0.07728923 -0.30281886 0.36080882 -0.3755991 -0.14467587 -0.03716322 0.06981919
-0.14648016 0.25201392 -0.13198978 0.02900969 0.011494331 -0.14288774 -0.04850426 -0.025786342
-0.12455858 0.25902823 0.09644271 0.2759938 0.22312182 0.2770966 -0.56195694 0.3775569
0.016497966 0.6437798 -0.12606284 -0.07001619 0.1263971 0.3737598 0.039633892 0.011850848
-0.055860665 0.11141641 -0.7230794 0.021429054 -0.12254158 -0.37998953 -0.27087852 -0.56326723
0.004416202 -0.034039102 0.27100417 -0.016255196 -0.008181192 -0.6227018 0.05059978 -0.14447765
0.027205551 -0.045892905 -0.113569014 -0.02230925 0.030244237 -0.09760099 0.07569181 -0.12032966
0.06600431 0.2677136 -0.127114 -0.16867283 0.22377262 0.09222226 0.23263845 -0.021604117
-0.14448577 0.0059075397 -0.033229183 0.5060205 -0.57599986 -0.1990738 0.04592521 -0.33881137
-0.03238911 -0.9339416 0.06833551 -0.22645561 -0.04011731 -0.13508812 -0.10148038 0.16563551
0.13424015 -0.14043929 -0.3109468 -0.23568605 -0.8127804 0.011096024 -0.08997077 0.61734116
-0.002871517 0.032254074 -0.02969976 0.23657323 0.28403515 0.16350996 0.2377163 -0.14782532
-0.026051791 0.46439004 0.039486047 -0.24250297 -0.3759699 -0.08025455 0.012322355 0.010143922
-0.027941443 -0.04549642 0.350165 0.18601587 -0.022954231 -0.14479786 0.6856207 -0.093405776
-0.009584796 0.9203263 0.34841082 -0.03036567 0.10186335 0.30324596 -0.38940907 -0.5816594
0.09757418 -0.08218408 -0.5818308 0.052270673 -0.11432874 -0.3470106 0.009359864 0.123459175
-0.035624377 0.08264554 0.30700576 -0.37489206 0.39270243 0.13246879 0.020992428 -0.06549732
0.1604923 -0.25739938 0.14339134 -0.021778082 -0.006638347 0.1346538 0.037526753 0.021820078
0.11541961 -0.25263885 -0.09991332 -0.28360987 -0.22020327 -0.2612466 0.56773835 -0.38598907
-0.013899022 -0.65757304 0.12102814 0.07730845 -0.13358456 -0.42428747 -0.037033595 -0.013328749

action_model._discrete_distribution.branches.2.bias f4 [2]
00000000: d437 103e d537 10be
0.14083797 -0.14083798

action_model._discrete_distribution.branches.3.weight f4 [2, 128]
00000000: cf5f 113f eb0d 5cbe 3122 ee3a 4b99 843d
00000010: 4cc5 47bd e2bb 88bc b764 923c a143 afbe
00000020: 66b9 3a3f 5669 963e a315 283f 2db1 bd3e
00000030: 5ed7 d5bc f900 4d3e c15e c23e 935a 9a3e
00000040: e22a 28be 7c3f 083e ab91 ff3d 901b d53d
00000050: 5acf 90bc f227 913e 70f1 83be 9871 06be
00000060: 4944 b73b 173b 54bd f98f 833e 63e3 b5be
00000070: 85ca 38bf c9c0 883e 2628 e7be c5fc 283e
00000080: 56a0 55bb 2934 dabb 702c 503e 9918 7cbe
00000090: 4a47 fe3d 4299 13bf 116d fabe ee86 d23d
000000a0: d086 babd 3959 7d3e b6a1 31be 871b 4a3e
000000b0: c197 c3bc cba0 013f 0f8e 953e f4e0 4c3e
000000c0: 6751 09bd d51f 29bd 3904 593e b1b3 8cbe
000000d0: 39f2 47be 233a 94bc c520 9f3e d8c7 9ebe
000000e0: 4d8d ebbc b259 373d d640 05bd 7771 c1bd
000000f0: 45f8 b53e c8f6 9abe 8eac cfbd 9d38 043e
00000100: ecfa 553e dd79 08bf cb51 86bd 97df 953e
00000110: 80c7 fe3d 1a3a c1be 1e56 d93e 8af9 953c
00000120: e3d4 2b3e 8edf c43b 5c0f 03bf 5431 c3be
00000130: d7e2 a73b 3b91 8fbe 42eb 8f3d 8fb2 fabe
00000140: ef75 513c 6444 7dbe 72a8 9d3e 8219 16bd
00000150: c790 ccbc 4748 34be 06a4 67be 8225 3d3e
00000160: 2755 35bd 9d95 eabb ce4d 263c ecf3 413e
00000170: bb7c 84be 41a9 373d 4050 c5bc be12 05be
00000180: 11f3 10ba 1446 3fbf 7a1e a2be bfe8 c9be
00000190: 84a4 09be 285f c83e ece1 4ebe f11d 49bf
000001a0: 1be6 f1bd ab02 ebbd 7afd 243e d3c3 4a3d
000001b0: 06f1 523c 7905 acbe b244 363e dc41 103e
000001c0: 0ef9 eabe e14f a0bd 5e64 b4be 155c 08bf
000001d0: cbcc 81be 991b ab3d e996 c1be 25b3 dd3c
000001e0: d223 a0bd 8c60 903b 1f3f a73c 8b42 863e
000001f0: aa64 12bf 5db1 efbd f101 c03e a8d7 16bc
00000200: b830 0fbf fe91 713e 712c 71bc ffd5 68bd
00000210: e331 883d 75da 773c 6898 6abc d68d ad3e
00000220: 9dbd 38bf 27b7 92be 568a 25bf 2576 b5be
00000230: a620 073d f342 48be e6ab c3be 4efc 95be
00000240: baf0 0e3e fe87 d6bd 7c3e 0bbe 939d debd
00000250: f4da 0d3d 8fc3 8dbe def9 833e 9e1d 0d3e
00000260: 975d a4bc 853c 0f3d 3924 7abe 92f2 a83e
00000270: c3e7 373f 1c22 86be fc3b eb3e 4421 27be
00000280: 6bdb 313c 6621 41bb 7fe0 4dbe bc27 6f3e
00000290: 7543 debd f40f 0b3f 2f0b f73e 55cc 9ebd
000002a0: b2e9 973d 9f20 86be 6024 373e 618c 53be
000002b0: 9f93 b4bb 0a74 febe 6233 96be 55d1 3abe
000002c0: 8979 523d 6883 3e3d 155b 65be 9bf0 8a3e
000002d0: 90e8 4e3e 05d0 bd3c 1618 9dbe c8b1 a33e
000002e0: 5753 b63c 2dc1 debc 6921 ba3c 3fed eb3d
000002f0: 3d62 bbbe 78b3 983e c044 c03d 3b24 05be
00000300: 3466 50be b2dc 063f 832a 8e3d acaa 92be
00000310: c7dc f9bd d237 c53e f817 debe fd71 02bd
00000320: 2f27 36be 5d9c 6abc 0987 023f 5589 c13e
00000330: 92db d93a f31a 8a3e 525a 87bd b0ab ed3e
00000340: 9ed8 8dbc 771d 6a3e 120a a4be 9b9a 3d3d
00000350: 4355 1f3d d92b 373e 5ecb 603e d365 48be
00000360: e363 263d cb22 093c b910 36bc 69d2 31be
00000370: d370 843e bd23 11bd 1e7c 9a3c 95b2 0a3e
00000380: e315 933a e96c 393f 3fef a23e e44d c73e
00000390: 3871 093e f4ce c0be 2e25 5c3e 7c38 483f
000003a0: 64b4 eb3d bbde e43d 88f6 3fbe 8dae 6ebd
000003b0: 90fc 66bc 559f ab3e 8196 40be 4f86 fbbd
000003c0: 01ec eb3e 1fe6 723d 6a64 af3e 24dc 0a3f
000003d0: b078 803e a54b bdbd 72e6 bf3e 2a11 c9bc
000003e0: bc24 ac3d ec71 3cbc e599 14bc 416d 82be
000003f0: 10cf 183f 63b0 e33d b6a0 c1be a457 703c
0.5678682 -0.21489684 0.0018168149 0.06474551 -0.04877214 -0.016691152 0.01787029 -0.34231284
0.72939146 0.2937724 0.65658015 0.37049237 -0.026103672 0.20019902 0.37962916 0.30147228
-0.16422608 0.13305467 0.12478956 0.10405648 -0.017676998 0.28350788 -0.2577014 -0.1312927
0.005592857 -0.051814165 0.2569578 -0.35525045 -0.7218402 0.26709583 -0.45147818 0.16502674
-0.0032596788 -0.00665905 0.20329452 -0.24618758 0.12415941 -0.5765573 -0.48911336 0.10279642
-0.09107745 0.24741067 -0.17346844 0.19737063 -0.023876073 0.50635976 0.29209945 0.20007688
-0.033524897 -0.041290123 0.21193017 -0.27480844 -0.19525994 -0.018094128 0.3107969 -0.31011844
-0.0287539 0.044763274 -0.032532535 -0.0944547 0.35540977 -0.30266404 -0.10140334 0.12912221
0.208965 -0.5331095 -0.065585695 0.29272148 0.12440395 -0.3773964 0.42448515 0.018307466
0.16780429 0.006008095 -0.5119531 -0.38123572 0.005123477 -0.2804049 0.07027294 -0.48964354
0.012784465 -0.2473312 0.30792576 -0.03664542 -0.024971379 -0.17605697 -0.22621164 0.1847134
-0.04427066 -0.0071589486 0.010150386 0.18940705 -0.25876412 0.044839147 -0.024086118 -0.12995431
-0.0005529384 -0.74716306 -0.31663877 -0.39435384 -0.13441664 0.39135098 -0.2020337 -0.7856131
-0.11811467 -0.11475118 0.16112319 0.04950316 0.012874847 -0.33597925 0.17799643 0.14087623
-0.4589314 -0.07827736 -0.35232824 -0.53265506 -0.25351557 0.08354873 -0.37810448 0.027062962
-0.07819332 0.0044060405 0.02041584 0.26222643 -0.5718485 -0.11703751 0.3750148 -0.00920669
-0.55933714 0.23590848 -0.014720068 -0.056844708 0.0665014 0.015127768 -0.014318563 0.33897275
-0.72164327 -0.2865536 -0.6466421 -0.354417 0.03299012 -0.19556789 -0.38217086 -0.29294056
0.13959017 -0.10475157 -0.13598055 -0.10869899 0.034632638 -0.27688262 0.2577657 0.1378083
-0.020064158 0.034969825 -0.2442788 0.32997566 0.71838015 -0.26197898 0.45944202 -0.16321284
0.010855536 -0.002946937 -0.2010517 0.23355001 -0.1085271 0.5432122 0.4825072 -0.07753817
0.07417621 -0.26196763 0.1788497 -0.20659019 -0.005510762 -0.49697906 -0.29336077 -0.18243916
0.051385436 0.046512038 -0.22398026 0.27136692 0.20205903 0.02317048 -0.3068244 0.31971574
0.022256536 -0.027191723 0.02272101 0.115198605 -0.36598387 0.29824424 0.09388113 -0.13002102
-0.20351487 0.52680504 0.06941702 -0.28645837 -0.12200313 0.3851915 -0.43377662 -0.03184699
-0.17788385 -0.0143195065 0.509873 0.3780009 0.0016621223 0.26973686 -0.06609024 0.4642005
-0.017315205 0.22862802 -0.32038933 0.04629002 0.03889967 0.1788782 0.21952578 -0.19570093
0.040622603 0.008370112 -0.011112385 -0.17365421 0.25867328 -0.035434473 0.018858012 0.13544686
0.0011221733 0.7243181 0.31823155 0.38926613 0.13422096 -0.37657893 0.21498558 0.7821119
0.11509016 0.11175295 -0.18746388 -0.058271933 -0.0140983015 0.33519998 -0.18807413 -0.12281477
0.46078494 0.05930149 0.34256297 0.5424216 0.25092077 -0.09242944 0.37480503 -0.024544317
0.08405444 -0.0115017705 -0.009069894 -0.2547398 0.5969095 0.111176275 -0.37817925 0.014669333

action_model._discrete_distribution.branches.3.bias f4 [2]
00000000: b39f 4cbd cf9f 4c3d
-0.04995699 0.049957093

98 f4 [11]
00000000: e759 1e40 8674 2840 83a7 8840 f4a2 8c40
00000010: fd6c bd41 af23 853e 0ff6 853e 8058 fe3e
00000020: e39f 8b3e 99ca 993e b1bb f13e
2.4742372 2.632112 4.270448 4.3948917 23.678217 0.26003787 0.2616429 0.49676895
0.2727042 0.30037382 0.4721351
