results/Imitation1/Hero Knight Behavior/Hero Knight Behavior-499410.pt (torch, 552039 bytes, 67 tensors)

network_body.observation_encoder.processors.0.normalizer.running_mean f4 [11]
000000 2b c8 2d c0 cf 8e 98 40 d9 d5 46 41 81 14 40 41
       -2.7153423 4.7674327 12.427209 12.005006
000010 07 6d 4f 42 9c f7 a2 3d e0 a1 82 3d 49 a0 e5 3e
       51.856472 0.07957384 0.063785315 0.4484885
000020 19 15 ac 3d 6b 37 df 3d c6 78 b1 3e
       0.084024616 0.10899242 0.34662455

network_body.observation_encoder.processors.0.normalizer.running_variance f4 [11]
000000 d1 e6 40 4b c5 22 56 4b 22 59 07 4c 4c 00 13 4c
       1.2642001e+07 1.4033605e+07 3.548071e+07 3.853547e+07
000010 07 ad 8d 4e d5 59 17 48 fa cd f6 47 51 90 ff 48
       1.1884635e+09 154983.33 126363.95 523394.53
000020 23 0b 1f 48 fe ad 48 48 20 00 ea 48
       162860.55 205495.97 479233.0

network_body.processors.0.normalizer.running_mean f4 [11]
000000 2b c8 2d c0 cf 8e 98 40 d9 d5 46 41 81 14 40 41
       -2.7153423 4.7674327 12.427209 12.005006
000010 07 6d 4f 42 9c f7 a2 3d e0 a1 82 3d 49 a0 e5 3e
       51.856472 0.07957384 0.063785315 0.4484885
000020 19 15 ac 3d 6b 37 df 3d c6 78 b1 3e
       0.084024616 0.10899242 0.34662455

network_body.processors.0.normalizer.running_variance f4 [11]
000000 d1 e6 40 4b c5 22 56 4b 22 59 07 4c 4c 00 13 4c
       1.2642001e+07 1.4033605e+07 3.548071e+07 3.853547e+07
000010 07 ad 8d 4e d5 59 17 48 fa cd f6 47 51 90 ff 48
       1.1884635e+09 154983.33 126363.95 523394.53
000020 23 0b 1f 48 fe ad 48 48 20 00 ea 48
       162860.55 205495.97 479233.0

network_body.linear_encoder.seq_layers.0.weight f4 [128, 11]
000000 ae 48 20 be 6e 9e 09 3e d7 f7 18 be 76 64 da be
       -0.15652725 0.13439342 -0.14938293 -0.4265477
000010 09 18 24 3f b3 14 90 bd d9 f1 27 3e f3 04 0a 3f
       0.64099175 -0.07035198 0.16400851 0.539138
000020 65 f9 1f be 28 76 c4 bd 2e 75 94 3e 18 fa 22 bf
       -0.1562248 -0.09592849 0.2899565 -0.6366286
000030 e4 3f 93 be c4 30 e5 3d a8 1d af bd 07 a5 26 3d
       -0.28759682 0.11190942 -0.08550578 0.040684726
000040 70 0d 34 bd 3a 7f c0 3d d5 86 c1 3e cc 78 9e 3d
       -0.043958127 0.093992665 0.3779818 0.07737884
000050 fd f7 48 be 26 99 64 be 73 ff 19 3f 2a da 35 bf
       -0.1962585 -0.22324046 0.6015541 -0.71036017
000060 a1 29 ca be 4e 0d 0c be 84 ab 6d 3e 19 b8 a7 be
       -0.39484885 -0.1367695 0.2320996 -0.32757643
000070 07 f0 77 be ed 22 aa be ef d1 97 be 12 79 a6 bc
       -0.24212657 -0.3322977 -0.29652354 -0.020321403
000080 9e 8b 00 3d ec b6 3b 3f 6f 79 cf be 4b ed 47 3d
       0.03138315 0.7332599 -0.40522334 0.048810285
000090 de f7 0f bf fe 79 5a be 95 b3 b3 be 12 15 47 be
       -0.5623759 -0.21335599 -0.35097948 -0.19441631
0000a0 86 8c be be 75 45 cb be 3a fc bd bc ee 1c b1 3c
       -0.37216586 -0.3970143 -0.02319156 0.02162024
0000b0 38 00 83 be ac 15 09 bf 75 e6 43 3f a2 9e 5d bd
       -0.25586104 -0.53548694 0.76523525 -0.054106362
0000c0 8d 4d ff be 38 9a 2f 3e eb 69 15 3e 77 37 ff 3a
       -0.49863854 0.17148674 0.14591186 0.0019471486
0000d0 e0 eb c8 be 44 8e 07 be 7a 4d d8 be 5f cc 38 be
       -0.39242458 -0.13237864 -0.4224661 -0.18046711
0000e0 04 e3 8e 3e a2 27 34 3f 10 55 0c 3e 2b 97 59 3d
       0.27907574 0.70372975 0.13704324 0.05312268
0000f0 12 59 11 bf 0f f4 67 be 08 c1 10 3f 2a 06 06 bf
       -0.56776536 -0.22651695 0.5654454 -0.52353156
000100 51 db f5 be 27 4c 06 bf 8d 5a e1 3e 22 9d 8b be
       -0.48018888 -0.5245995 0.44014397 -0.2726832
000110 36 b6 34 bf d2 13 a6 3e 3a 3a 39 3f 6b 78 e4 bd
       -0.7059053 0.32436997 0.7235447 -0.111557804
000120 84 a9 82 be 78 08 0d 3e 62 e4 4c bd 0a e4 92 3e
       -0.25519955 0.13772762 -0.05002249 0.28689605
000130 73 55 c6 3e 72 a7 d1 3e 78 55 bf bd de e2 07 bf
       0.38737068 0.40948063 -0.09342474 -0.53080547
000140 79 0d c9 3e 37 e9 48 bf d9 69 5d 3e 64 e8 ac 3e
       0.3926809 -0.7848086 0.21622409 0.3377105
000150 8f ae ef be ac 14 7c 3e 1b be e4 3d d8 0c ca 3d
       -0.46812865 0.2461726 0.11169072 0.09865731
000160 e6 2a 08 bf b9 cb e9 be ed 6c 3c 3f 6d 24 e8 3d
       -0.5319046 -0.4566324 0.7360371 0.11335073
000170 a5 33 1e 3e 6a 6e 94 be 8d 1e 5d bd b7 9c 64 3e
       0.15449388 -0.2899049 -0.053984214 0.22325407
000180 59 db 9b 3e d9 0b 50 bf 2b eb dc 3e 4d 24 95 3d
       0.30440786 -0.8126808 0.4314817 0.072823144
000190 96 37 2d 3d dd 2b af 3e a5 c9 9a 3e 82 8e d2 3d
       0.04228934 0.34213153 0.30231968 0.102810875
0001a0 96 a5 23 bc 22 82 76 3c 22 92 7f be 2f 24 63 3e
       -0.009988209 0.0150456745 -0.24958089 0.22181772
0001b0 f7 60 a5 be aa 81 9b 3e a1 64 8f bc f1 0a ab be
       -0.3230054 0.30372363 -0.017504038 -0.33406785
0001c0 16 5e e8 bd 70 7f 32 3f 02 a8 05 bd b6 f1 48 bf
       -0.113460705 0.69725704 -0.032630928 -0.7849382
0001d0 8d e9 1a bf 9c 07 9b 3e c1 ac 30 be 38 06 5e 3e
       -0.6051262 0.30279243 -0.172534 0.2168206
0001e0 0d b4 18 3e 0c 10 03 3d dc c6 14 bf 98 e0 0f bd
       0.14912434 0.031997725 -0.58115935 -0.0351263
0001f0 a9 51 3c bd 48 db 40 3f 14 71 7e be 35 80 7e 3d
       -0.045976315 0.75334597 -0.24847823 0.062133987
000200 f0 51 ba 3e 3d 97 89 3e c5 f0 93 bd 0b a9 1c bd
       0.36390638 0.26873198 -0.072236575 -0.03824715
000210 e3 e8 86 bf cc 25 36 3f 3b b1 53 3d e9 5b 97 bf
       -1.0539821 0.71151423 0.051682692 -1.1824924
000220 16 0a e4 3c 8a 57 25 bd 1e 36 37 3e f6 47 a0 3e
       0.02783684 -0.040366687 0.17891738 0.31304902
000230 49 80 30 be 96 99 5c be a1 e4 21 be f8 05 05 bf
       -0.17236437 -0.21542963 -0.15809871 -0.5196223
000240 0b 66 9d be bd 30 d6 3e 04 66 c9 bd 7f 0f 84 bf
       -0.30741915 0.4183406 -0.09833911 -1.0317229
000250 97 b8 92 3e db 5c 41 3e b5 a2 0e bf 5d 18 45 3f
       0.28656456 0.18883078 -0.5571702 0.769903
000260 0b 23 a0 3e 85 08 d5 bd 0e 81 b1 be 7b d9 05 bf
       0.31276736 -0.104020156 -0.34668773 -0.52284974
000270 90 c5 6d 3e ab 23 e2 be 1c 49 1a bd 6b 17 b3 3c
       0.23219895 -0.44167838 -0.03766738 0.021861752
000280 94 07 cc 3d 73 77 e0 be e6 9e f9 be 8b 5d 06 bf
       0.09962383 -0.43841133 -0.48754042 -0.52486485
000290 72 b7 24 3f 4d 2e 1b bf aa 93 85 3e 38 48 87 bf
       0.64342415 -0.60617524 0.2608922 -1.0568914
0002a0 db d0 73 3e 83 15 00 3d aa 80 1d be 62 e7 46 3d
       0.23810141 0.031270515 -0.15381113 0.048560508
0002b0 92 47 92 be 15 16 8b bd cd 15 23 be 00 26 52 be
       -0.2857023 -0.06791321 -0.15926285 -0.20522308
0002c0 2b 54 62 be 64 6c b4 3e 06 bb 46 3e d0 17 35 bf
       -0.2210242 0.35238945 0.19407281 -0.7073946
0002d0 94 a5 22 3e 7f 57 31 be 39 e3 0c 3e 93 07 db 3d
       0.15883476 -0.17318533 0.13758554 0.10694804
0002e0 ee 0b 13 bd da ad 9d bd 78 ff b4 bc d1 0c ad 3e
       -0.03590005 -0.07699175 -0.022094473 0.3379884
0002f0 70 3f 17 bf cd 99 8b 3d 75 60 10 3d 32 ea 38 3f
       -0.5908117 0.068164445 0.03524824 0.72232354
000300 ca 95 a5 3c 10 d9 3e bd 0c 99 87 bd 50 80 75 3d
       0.020213027 -0.046593726 -0.06620988 0.05993682
000310 97 38 2c bd 16 c3 ef 3c b1 77 e3 be ae c4 1f bf
       -0.042046156 0.029267829 -0.44427255 -0.62409484
000320 ca 2f 12 bf b6 57 46 bf 7c 8f 96 3e 8d d5 92 bd
       -0.5710417 -0.77477586 0.29406345 -0.07169638
000330 05 4a 78 be ae 8c a8 3c 6a 65 7e be 62 ed 28 3e
       -0.24246986 0.020574894 -0.24843374 0.16496804
000340 03 67 9d 3e 12 4a 34 3e bc d2 71 3e 38 93 63 3f
       0.30742654 0.1760638 0.23615545 0.88896513
000350 17 99 27 be 42 d5 33 bf d3 c8 53 be 8f 46 29 bf
       -0.16366993 -0.7024728 -0.20682077 -0.6612329
000360 d1 da 85 3e 19 08 ba 3d 63 48 57 be 94 e1 16 3d
       0.26143506 0.09083576 -0.21023707 0.03683622
000370 57 5e 33 bf 17 a5 66 be bd 3d f9 3d d4 37 74 be
       -0.70065826 -0.22523914 0.12169979 -0.23849422
000380 d6 7f 8e bf b2 ce 15 bf a1 3a b2 3c 49 5c fb 3e
       -1.1132762 -0.58518517 0.021756472 0.49093845
000390 f6 62 53 3d 3d ee d1 bc 8f c4 47 be f5 58 cf 3e
       0.05160805 -0.025626296 -0.19508575 0.40497556
0003a0 a2 5e 6a be bf d3 ec be 39 1a f7 be d3 2f bd 3e
       -0.22887662 -0.462553 -0.48262194 0.3695055
0003b0 18 51 47 bf 3b 54 85 3e db 1c 9d 3e 3f b3 89 3d
       -0.77858114 0.26040825 0.30686077 0.067236416
0003c0 2d b1 8c 3e 9f 19 55 3e 9a 45 b4 3e 18 63 e8 be
       0.27478924 0.20810555 0.35209352 -0.45388103
0003d0 0b bc 96 3e fd 8b 27 bf 6c 59 3a bf da c6 12 bc
       0.2944034 -0.6544798 -0.72792697 -0.008958543
0003e0 ab a4 33 bd c5 47 57 bf 54 2f b2 be 5e c3 5b 3e
       -0.04385821 -0.84093887 -0.34801733 0.21461245
0003f0 73 fd 3e 3e 21 be ab 3e 32 08 94 be a2 11 4f bf
       0.1865137 0.33543494 -0.28912503 -0.8088628

network_body.linear_encoder.seq_layers.0.bias f4 [128]
000000 45 d5 38 bc d6 0c 5f bd ad 2d af bd 19 30 94 3d
       -0.011281316 -0.0544556 -0.08553634 0.072357364
000010 62 bd da bd 28 03 da 3d 85 e7 73 bd ac 5b 03 3c
       -0.10680653 0.10645133 -0.059546966 0.008017462
000020 52 7d ec bd ab 53 82 be ea 8a d2 3d ff d4 2e be
       -0.115473405 -0.2545446 0.10280402 -0.17073439
000030 4f ea 54 bd 90 7e 60 3e 00 86 aa bc 42 87 1c 3e
       -0.051981267 0.2192328 -0.02081585 0.15285972
000040 14 0c 9c 3d cf 13 d4 bd e3 8e 6d 3e 94 5b 11 3d
       0.07619491 -0.10355341 0.23199038 0.035487726
000050 41 2d 77 bc 1b 5d 1d 3e 83 a3 18 3e 24 ee b6 3c
       -0.015086473 0.15367548 0.14906125 0.022330351
000060 2e 2b ef 3d 68 56 dc bd c9 84 68 3d 42 54 64 3c
       0.11678158 -0.10758668 0.05676726 0.013936104
000070 7e c3 3f 3c c4 81 8f bd ed c7 3f be 69 dc 27 3e
       0.011704324 -0.07007173 -0.1872861 0.16392674
000080 dc 1e cc bd 07 2b 38 bc 8e c5 bc 3e 97 64 b9 3d
       -0.099668235 -0.011240727 0.36869472 0.09052389
000090 a5 bb 6b bd 06 34 61 3d 48 57 6b 3c 35 ea 71 be
       -0.057552 0.054981254 0.014364071 -0.23624499
0000a0 54 ed 0a 3e e5 a6 3d bd 27 da 83 3d 13 21 0a be
       0.13567096 -0.04630174 0.06438094 -0.1348918
0000b0 62 21 34 bd 0f 38 95 3e 74 f3 f8 bd fa 68 65 3d
       -0.04397715 0.29144332 -0.1215581 0.056008317
0000c0 eb db 2a bd e5 c4 21 bd 1e ba e7 3b 3e 0e 26 3e
       -0.041713636 -0.039494414 0.0070717474 0.1621637
0000d0 67 59 43 be de e3 a7 3b 9f 9f 02 bc a2 6e 19 3d
       -0.19077073 0.0051235994 -0.007972627 0.037459023
0000e0 bb 5f 0b bb 56 a2 01 bd 3d 0a e7 bd 5f ff 21 3d
       -0.0021266777 -0.031648956 -0.1128125 0.03955018
0000f0 04 e9 10 bd 9e 8e ab bd c1 5c 8f 3d 4e 74 d2 bc
       -0.03537847 -0.083768114 0.07000113 -0.025690224
000100 5a f8 0c bd 70 5e 2a be 38 f3 df bd 83 74 4c bd
       -0.034416534 -0.16637588 -0.10935062 -0.0499158
000110 74 5f 65 bd db 0a 6d bb 8e e7 a3 bd 7c 67 8c 3c
       -0.055999234 -0.00361698 -0.0800315 0.017139189
000120 9c 51 11 bd 23 47 b3 3c 9b 1c cf 3d 47 e7 32 be
       -0.03547822 0.021884507 0.10112878 -0.17471038
000130 0e a3 f5 bd 3f c4 68 3c f0 a1 39 3d 93 47 9c be
       -0.11993991 0.014206945 0.04532045 -0.30523357
000140 08 8b 1c 3d 65 ef 18 3e cb 06 65 be 05 c4 c2 bc
       0.038218528 0.14935072 -0.22365873 -0.02377511
000150 ce 61 9c 3d b8 43 a1 be a6 af 1d 3e 41 6a f8 3c
       0.07635842 -0.31496978 0.15399036 0.030324103
000160 3e 12 c5 bd 7d 24 4b be 2c e7 49 3d 22 43 a7 3d
       -0.0962262 -0.19838138 0.04929273 0.081671014
000170 79 cf ef bd 08 1b 1b 3e 38 96 89 3c ad 22 8a 3d
       -0.11709494 0.1514703 0.016795263 0.06744895
000180 74 0a 05 3e 64 13 55 3d dc 9a 86 be 13 4d 1f 3e
       0.12992269 0.052020445 -0.26290023 0.15556745
000190 cf 19 2e bd 25 74 39 3e fa 87 6d bc 4c a8 97 bd
       -0.04250508 0.18110712 -0.014497751 -0.07405147
0001a0 84 6a 09 be 9b 35 81 3d 19 93 a8 3d f2 55 12 be
       -0.13419539 0.063090526 0.08231182 -0.14290598
0001b0 6c 26 94 bc 5c f2 0d be 31 e7 6a 3e c9 05 84 bd
       -0.018084727 -0.13861984 0.22939755 -0.06446416
0001c0 99 df f9 3c a7 d2 e9 3c 22 db 69 be b0 ea b4 3d
       0.030502127 0.02854283 -0.22837499 0.088338256
0001d0 7e 41 80 bd 88 9f a6 3d 8b cc 49 3d c3 d0 0c 3d
       -0.06262492 0.08135897 0.049267333 0.03437878
0001e0 a4 b5 34 be 80 77 dd 3b e8 d7 e7 3d e4 ae d5 bd
       -0.17647415 0.0067586303 0.11320478 -0.10433748
0001f0 64 e4 a3 3d 44 14 2b bd a5 69 55 be fd a4 e1 3b
       0.080025464 -0.041767374 -0.20841081 0.006886123

network_body.linear_encoder.seq_layers.2.weight f4 [128, 128]
000000 c6 af 8c be f4 1f b5 be 34 f6 c2 3d 79 f8 a4 be
       -0.27477854 -0.3537594 0.09519616 -0.3222082
000010 24 34 94 bd ef 83 03 be b4 ca 0b 3e 91 33 67 be
       -0.072365075 -0.12843297 0.13651544 -0.22578265
000020 99 0d 98 3d 63 cd d1 3d 41 2c 87 be 73 1d bb 3d
       0.074244685 0.102442525 -0.2640095 0.09136476
000030 0f 19 94 3b 7e 53 1d bf 06 49 a3 bd 6f 23 0c bf
       0.004519589 -0.61455524 -0.079729125 -0.5474157
000040 27 68 89 be a2 d6 85 3e 6a 68 52 bf dc 8c 65 bd
       -0.26837274 0.26140314 -0.82190573 -0.056042537
000050 a5 1f c7 bd 8a 47 07 be fd 1c 64 be 43 4a a4 be
       -0.097228326 -0.13210884 -0.22276683 -0.32087907
000060 e7 39 33 be 6d f2 da bc 80 e7 2c be 9a 5b 20 be
       -0.17502557 -0.026726926 -0.16885185 -0.15659943
000070 dd 1f 92 be f3 71 81 be d2 76 de bc ae 1a 51 be
       -0.28539935 -0.2528225 -0.027156267 -0.20420334
000080 09 62 7f 3e a3 9d 1d be 24 11 ac be 18 47 23 be
       0.24939741 -0.15392165 -0.33606827 -0.15945089
000090 5d e5 47 be 21 65 fc 3d db fd b6 be b4 fa 8e 3e
       -0.19521089 0.12323976 -0.3574055 0.27925646
0000a0 6d 86 dc be c1 5d 97 3e 6a 7d ec be e0 eb a0 3d
       -0.4307131 0.29563716 -0.46189433 0.078574896
0000b0 fd 29 a3 bd e0 b3 14 bf f9 b1 39 be 0b 00 39 be
       -0.07966993 -0.5808697 -0.18134297 -0.18066423
0000c0 09 f3 79 be 5d c3 8e 3e ea 60 af be 5d 98 49 3d
       -0.24409117 0.27883425 -0.34253627 0.04921757
0000d0 7f a9 8b 3d 87 05 8b be be d0 d5 be 0f bb 2f 3c
       0.06819438 -0.27152655 -0.4176082 0.010725751
0000e0 97 62 b1 be 9a dd 60 bc d0 1a da 3d af 57 b4 bd
       -0.3464553 -0.013724709 0.10649645 -0.08805787
0000f0 1a d2 b1 be 37 88 27 be 23 c4 69 be c9 d6 84 3e
       -0.34730607 -0.16360556 -0.22828726 0.25945118
000100 c1 f6 8d bd eb 76 6c be 9d 20 ff 3d 9c e9 86 be
       -0.0693183 -0.23092239 0.12457392 -0.26350105
000110 a8 86 52 be cf 48 f1 bd 0b 6a 29 bd 59 ca 55 be
       -0.2055918 -0.11781465 -0.041360896 -0.20877971
000120 93 75 09 be 8e 8e 85 bf c2 2d 6e be 13 f9 b3 be
       -0.13423757 -1.0434129 -0.23259643 -0.35150966
000130 06 0c 12 3e cf 2e 05 be 20 6b 0f bf 75 2e 82 3e
       0.14262399 -0.13006137 -0.56022835 0.2542607
000140 f2 0b dc be 1a c2 73 bd 30 8e 57 be b3 1f b7 be
       -0.42977864 -0.05951128 -0.21050334 -0.35766372
000150 4c a3 a6 bd f3 61 91 3e 4f 1b 30 3d 56 1e 35 bd
       -0.08136615 0.28395042 0.042994794 -0.044218384
000160 39 fe 02 bf ff e5 ca 3e d0 47 fd bd ca 8d a5 3e
       -0.51169163 0.39628598 -0.12367213 0.3233474
000170 8b 2a 5d be e6 cd af bd 7a d7 a8 be db b1 5c be
       -0.2159826 -0.08584194 -0.32976896 -0.21552221
000180 04 68 87 3d 27 02 84 bd c1 2e 85 3e 3f ff e7 3c
       0.06611636 -0.06445723 0.26012233 0.028319953
000190 2b 98 a1 be 6b 98 0d bf e0 38 42 3d fb f1 d9 be
       -0.31561407 -0.55310696 0.04741752 -0.4256743
0001a0 1a 99 53 3e 13 7f ed bd 04 05 62 3c 0a 1e 23 be
       0.20663872 -0.11596503 0.013795141 -0.15929428
0001b0 70 c5 0d be b5 7d 86 bc a3 cf 32 3d c2 cf ae be
       -0.13844848 -0.016417364 0.04365505 -0.34142882
0001c0 9a bf 16 3e 58 6f e2 be 43 72 f7 3d 7f 0b 19 bf
       0.14721528 -0.44225574 0.120823406 -0.59783167
0001d0 78 2b ae 3e 73 2e e8 bd 7c 57 00 be 94 c5 1b be
       0.3401754 -0.113369845 -0.12533373 -0.15212089
0001e0 8f 75 4f 3e a0 62 c8 3b dd 81 06 be 43 a0 95 bd
       0.20259689 0.0061152726 -0.13135476 -0.07305958
0001f0 6e 71 47 3e e8 74 ea bd 00 24 aa be 79 bb 28 3d
       0.19476864 -0.11448079 -0.3323059 0.041194413
000200 b8 8b 24 3d e7 c9 96 ba e7 27 b3 be 51 8a 0e be
       0.04017231 -0.0011504263 -0.3499138 -0.13919951
000210 1a 89 01 be 98 83 0b bf ec 65 5c be 34 6d 99 3c
       -0.12649956 -0.5449767 -0.21523255 0.01872883
000220 fb 8f 9f be ed 24 1f be cf 32 1f be 46 09 a0 be
       -0.31164536 -0.1554143 -0.15546726 -0.31257075
000230 99 10 ad 3d 66 dd 0c 3e 01 4d dc bd 8d d7 65 3e
       0.084504314 0.13756332 -0.10756875 0.22445507
000240 be 0d 0b 3e 80 1b d3 be f5 5e 80 be bd 6d 45 be
       0.13579461 -0.41231918 -0.25072446 -0.19280143
000250 8f 87 fc 3d 2f 43 7f be 60 b7 e9 bd b7 14 10 bd
       0.12330543 -0.24927972 -0.11411929 -0.035176005
000260 d1 95 e9 bd de 26 02 bd 66 59 a6 be ce 50 69 bd
       -0.11405528 -0.031775348 -0.3249008 -0.056961827
000270 de 07 14 be ea 30 e8 bd 2d bc 29 bd 16 48 e8 3d
       -0.14456126 -0.113374546 -0.041439224 0.11341874
000280 b1 b0 0f bf 15 e8 81 3d f7 88 1c 3e 53 2d a2 3d
       -0.56128985 0.06343094 0.15286623 0.07918801
000290 53 fe 82 bd 6e a3 b9 be 1f d3 30 3c 39 b8 1c be
       -0.06396165 -0.362575 0.010792523 -0.1530465
0002a0 f3 a3 89 3b b9 ad 54 be 4e c7 af 3b a7 f5 8a 3e
       0.0042004525 -0.20769395 0.005364335 0.27140543
0002b0 9e 5e 1c bc 28 75 00 be d4 7c 20 bc 56 97 33 bd
       -0.009544043 -0.12544692 -0.009795386 -0.043845497
0002c0 40 7d 13 be 3a 3b 05 3e 0d 77 c9 bd 14 83 14 bd
       -0.14403248 0.13010874 -0.0983716 -0.03625782
0002d0 51 9c b4 3c 0c 02 c6 3d b7 22 60 be c6 b9 b8 be
       0.022047194 0.09668359 -0.21888243 -0.36079234
0002e0 67 a9 da ba e5 f6 89 be 23 6b 06 be 8e bb 11 be
       -0.0016682566 -0.26946178 -0.13126807 -0.14231703
0002f0 34 64 4a 3e 1f 8e 95 be 7c e0 ef bc 0c 93 3b 3e
       0.19764787 -0.29209992 -0.029281847 0.18317813
000300 73 8b 49 3e 56 e8 a7 3d a5 c8 f0 3e 0c bf 99 bd
       0.19682102 0.081986114 0.4702808 -0.075071424
000310 3d 46 37 3d 8f 29 29 3e 63 dc be 3d ea dc 1b bd
       0.04474472 0.1651976 0.09319379 -0.038052477
000320 de 82 68 be 0e 3d c9 be 3d 3d d3 bd 44 d0 a0 be
       -0.22706172 -0.39304394 -0.10314415 -0.31408894
000330 d7 a5 21 3e ef e0 e6 3d e2 4c f8 bd b8 be c7 3c
       0.15785919 0.112733714 -0.12124039 0.024382934
000340 39 a7 68 3e 80 37 2a be 6d fb c4 bd a8 1a f8 bd
       0.2272004 -0.16622734 -0.09618268 -0.12114459
000350 b2 55 f5 be 0a f5 a3 bd c4 8f 29 3e c3 e1 39 bd
       -0.47916943 -0.08005722 0.16558748 -0.04538132
000360 be dc 2a bd 12 08 8e be 53 46 ef bd eb 0d eb 3c
       -0.041714422 -0.27740532 -0.11683335 0.02869316
000370 4d 7e 9f 3d 1e 46 2c be f7 bf 80 be f3 02 d1 bd
       0.07787762 -0.16823623 -0.25146458 -0.10205641
000380 3c b6 83 3e 8b ef b7 bb c6 c7 f0 bd c5 14 b2 bd
       0.2572497 -0.0056132725 -0.11756854 -0.08695368
000390 6c ba 82 bc 92 84 25 be ad ac 95 3e 3d f2 a8 3d
       -0.015958034 -0.16163853 0.29233304 0.08249328
0003a0 40 ce b0 be 32 d2 26 bc 33 92 bf be 0b 42 25 bc
       -0.34532356 -0.01018195 -0.3741623 -0.010086547
0003b0 e8 1b 21 3d ce 18 1f 3e 14 84 c7 bd 33 d3 96 3d
       0.039333254 0.15536806 -0.09741989 0.07364502
0003c0 7c 8c 5e be 21 4d 7d bd dd 71 7f be 6d de 14 be
       -0.21733278 -0.061841134 -0.24945779 -0.14537974
0003d0 e9 bd b3 3e d3 bf e2 3d 41 d5 30 be 8f 25 ab ba
       0.35105827 0.11071744 -0.1726885 -0.0013057458
0003e0 b0 af 38 bd 8d b7 82 3c 64 ec 4a 3c d6 0a 58 be
       -0.045089424 0.015956664 0.0123854615 -0.21097884
0003f0 55 e9 59 3e be 0f 8c be 28 eb 3f bd 15 d8 9c 3c
       0.21280415 -0.2735576 -0.04685512 0.019146005

network_body.linear_encoder.seq_layers.2.bias f4 [128]
000000 86 8b f7 bd 92 21 6b bd f4 0b 0b be ce bb 77 3e
       -0.12087159 -0.057405062 -0.13578779 0.24192736
000010 bd 0c 80 bd 6a bd f5 bd 92 9d 8e bd a7 8f c7 3d
       -0.0625243 -0.119990185 -0.06963648 0.097441964
000020 f7 62 8e be 02 95 6c bd c5 56 67 3d 2c f4 3c bd
       -0.2780988 -0.057759292 0.056479234 -0.046131298
000030 fe 77 eb bd 0c 2c e8 bb 18 4d 9c bd 32 bc f5 bd
       -0.11497496 -0.007085329 -0.07631892 -0.11998786
000040 9e 9e aa bd b4 9b 60 bd e2 79 16 3c 00 76 6f bd
       -0.08331035 -0.05483599 0.009184333 -0.058462143
000050 0f b6 bc 3d 8c 72 f3 3c e0 87 e7 bd 52 53 74 be
       0.092144124 0.029717706 -0.11305213 -0.23859909
000060 00 78 16 be 7b cd 2e bd e1 e9 55 bd 31 da f9 3c
       -0.14694214 -0.04267643 -0.052224997 0.03049955
000070 65 f2 8f bd d5 18 a8 bd 90 0e 1b be fd 41 31 bd
       -0.07028655 -0.08207861 -0.15142274 -0.043275822
000080 8b 91 a8 bc 79 d5 08 be b2 8b 3d bd c6 81 0e be
       -0.020577213 -0.13362683 -0.046275802 -0.13916692
000090 3e ab e5 bc ab f4 4e be 7b 68 a2 bd 72 77 50 bd
       -0.028035756 -0.20210521 -0.07930084 -0.050895162
0000a0 f4 d8 4a 3c a2 3d 5f 3d c2 77 2d be bf f7 07 be
       0.012380827 0.054502137 -0.16940215 -0.13278101
0000b0 17 13 c8 bb ab 3f 9d 3d a3 60 8c bd f2 62 7f bc
       -0.0061057913 0.07678159 -0.068543695 -0.015587555
0000c0 fc ae 63 bd 52 cb a0 bc 91 bd 51 be 18 29 d6 bd
       -0.0555868 -0.0196282 -0.2048247 -0.10457057
0000d0 66 9b 09 bc a3 15 8b bd 97 5f 88 bd 61 64 5d be
       -0.008398866 -0.06791236 -0.06658857 -0.21620323
0000e0 de 77 20 be 2e aa 6c bb c4 1d 50 3c d7 9e 3b bc
       -0.15670726 -0.0036112177 0.012702409 -0.011451445
0000f0 95 e1 91 bd 68 8e a3 bd b6 10 81 bd ed 5f eb bc
       -0.071231045 -0.07986146 -0.063020155 -0.028732264
000100 40 f4 00 be a0 6f 93 bd 0c 56 a6 3d 89 7f 10 3d
       -0.12593174 -0.07199025 0.08121881 0.035277877
000110 c4 b0 eb 3b c5 5c 24 be 3b 22 75 3d 5a 83 d4 3d
       0.007192703 -0.16051014 0.059847098 0.10376616
000120 95 0d 52 bd 02 2c a7 bd 92 f0 72 be a1 dd 0d be
       -0.051282484 -0.08162691 -0.23724583 -0.13854076
000130 58 99 bc bd 9c 31 a1 bc e7 f6 27 be 5d db 70 bd
       -0.092089355 -0.019676976 -0.1640278 -0.05880295
000140 ad 8d ce bd 46 df dd bd 55 4c 1f 3d c0 60 a5 bd
       -0.10085616 -0.10833602 0.038891155 -0.08075094
000150 6a 05 3a bd 6d ee ef bd 69 ca ce 3d ba 4f fa bd
       -0.04541532 -0.11715398 0.100972004 -0.12222238
000160 04 d1 c2 3c 31 61 b1 3d 67 a1 cd 3d 0e b3 1d be
       0.023781307 0.08661116 0.10040551 -0.15400335
000170 b1 2a 26 bd ea 8f ad bd e4 61 0f be 52 cb 1f 3e
       -0.040568057 -0.08474715 -0.14002186 0.15604904
000180 28 fb 6a bd f2 69 72 3c 86 2b 34 be f4 65 68 3c
       -0.057368428 0.014795767 -0.17594728 0.014184464
000190 fe d8 c7 bb e6 b3 74 bd 49 3d e1 bc 7f 3b 14 be
       -0.0060988655 -0.059741877 -0.027495043 -0.14475821
0001a0 9f 26 84 bd e6 9e 0a bd 03 6b 19 3c 64 6b 27 bd
       -0.06452679 -0.033842944 0.0093638925 -0.0408739
0001b0 81 f2 ed bd 85 12 de 3c 04 18 b0 bd b7 74 68 3d
       -0.116185196 0.02710844 -0.085983306 0.056751933
0001c0 ab 20 b9 bc e2 ba b1 bd 5c 72 f1 bc 05 af a3 bd
       -0.022598585 -0.08678223 -0.029473476 -0.07992367
0001d0 b3 4b f6 bd 2b 20 21 bd 0a d4 ad 3c 90 01 cd 3d
       -0.12026157 -0.03933732 0.021219272 0.10010064
0001e0 3d 5b 1a bd 24 53 b9 3d e6 cd a4 bd 68 8a a2 3c
       -0.037684668 0.09049061 -0.080470845 0.019841388
0001f0 f6 1a 48 be d4 6d e0 3c af 52 79 bd 12 01 c1 bd
       -0.19541535 0.02739612 -0.06086987 -0.09424032

action_model._discrete_distribution.branches.0.weight f4 [3, 128]
000000 7b 59 9b bc 1f 16 d4 3c bf 2d a8 3b 19 df 7f bf
       -0.018963566 0.025889454 0.0051324065 -0.99949795
000010 78 d7 49 be 93 8b 36 bc 90 dd 3b ba 6a bc 66 3d
       -0.19711101 -0.0111416755 -0.0007166499 0.05633203
000020 3b 82 ae 3d 03 33 9d 3d 11 97 30 3e 7d 7f 2b 3e
       0.08520933 0.07675745 0.17245127 0.16747852
000030 94 5d b7 3b 8e f8 fd bd 17 79 00 3e 42 28 cd 3c
       0.005595872 -0.12400924 0.12546192 0.02504361
000040 b2 e2 14 be 27 a4 4f be e8 66 8a be d1 d9 c5 bd
       -0.14539602 -0.20277463 -0.27031636 -0.09660686
000050 4e 4f 34 be bb a3 54 be c1 96 46 bd f7 38 55 bd
       -0.17608377 -0.20765583 -0.048483614 -0.05205628
000060 a2 cb 4c 3d aa d6 4a bb d8 b3 d5 3d 7d 28 90 be
       0.049998887 -0.0030950704 0.10434693 -0.2815589
000070 24 15 f0 bd b6 01 bb 3c 27 b3 60 3e fd 7a b5 bb
       -0.11722782 0.022827964 0.21943341 -0.005538343
000080 4e 1f 86 bd 71 3b ae 3d 62 c3 b1 3d 77 62 c0 3e
       -0.0654894 0.08507431 0.086798444 0.37575123
000090 7a 7b 44 be 67 36 8b bd 47 ba 33 3e 9e 4e 3e bd
       -0.19187728 -0.06797486 0.17551528 -0.046461694
0000a0 22 ac 39 3d 7b b9 0a 3e 7b 2e 40 3e d1 68 84 bd
       0.045330174 0.13547318 0.18767731 -0.06465305
0000b0 45 4c 5c bd a6 9b 2d 3d 08 fe 60 bc 14 74 16 3e
       -0.053783674 0.042384766 -0.013732441 0.14692718
0000c0 44 3f a2 be 28 7f 1c be 16 1d dd bd f5 39 d3 3d
       -0.31688893 -0.15282881 -0.10796563 0.10313789
0000d0 93 f7 30 3e 25 60 05 be 11 c0 b0 bc 30 66 fc 3d
       0.17281942 -0.13024957 -0.02157596 0.12324178
0000e0 5b 15 65 3d bc a0 ac be bd 3b 14 be cb c7 7c 3e
       0.05592857 -0.3371638 -0.14475913 0.2468559
0000f0 ca 1a a8 3d e9 2e 98 3c ad 23 85 3d ce a8 fe bd
       0.082082346 0.018577056 0.06500945 -0.12434541
000100 96 86 00 3d 6e f0 4e 3e 9b b0 0a bf b8 89 ae 3d
       0.03137835 0.20208904 -0.5417573 0.085223615
000110 aa 1d 20 bd c3 6b 63 be 95 90 f7 bd a4 14 00 bf
       -0.03909079 -0.22209077 -0.12088124 -0.50031495
000120 07 73 f4 bc 1e 1c 20 bd 0d 7a 3a bd 4b a4 9b bd
       -0.029840006 -0.039089315 -0.045526553 -0.07599696
000130 11 de 1e be 68 fa d6 3d 2d 36 7d 3e 54 4a 33 bd
       -0.15514399 0.1049698 0.24727698 -0.043772057
000140 14 df f6 bb d6 93 86 3e 82 cd 1f 3c 32 bc 2a 3d
       -0.007533917 0.26284665 0.009753587 0.041683383
000150 aa fe 9e be d8 45 ee bc b9 db 5f be d5 60 cb 3d
       -0.31053668 -0.029086038 -0.21861161 0.099305786
000160 09 66 8e bd 1c ff fb bd fd e1 f2 3b 9f 5d 1d be
       -0.069530554 -0.123045176 0.007412194 -0.15367745
000170 ba 50 30 be 85 4d f0 3c 59 3c 5e be be fa 4c be
       -0.17218295 0.02933384 -0.21702708 -0.20017526
000180 de 42 89 3e b4 ac 23 be c1 23 2c 3d 6c c6 9f 3e
       0.26808828 -0.1598385 0.042026285 0.3120607
000190 05 bb cc 3e 61 5f 47 3e 2f 97 13 3e c4 fa 9e 3d
       0.39986435 0.19469978 0.1441314 0.077626735
0001a0 8f 85 0b bd c3 55 b2 be 21 a0 c6 bc 9d 5c c5 be
       -0.03406292 -0.34831056 -0.024246277 -0.3854722
0001b0 60 44 b7 3d e3 02 41 3e 1b b9 b2 3d 4f e9 dc be
       0.08948588 0.18848757 0.08726712 -0.4314675
0001c0 ca 81 cd be 64 c3 b2 3d 9f 19 d4 bc 64 36 4e be
       -0.40138084 0.08728674 -0.025891123 -0.20137936
0001d0 85 fb 17 be 7b c5 6f bd 96 34 3b bd 89 38 9a bd
       -0.14842041 -0.05853794 -0.045704447 -0.075303145
0001e0 fb c3 47 3e 08 2c a8 bd 09 13 72 3d 93 90 e3 3d
       0.19508354 -0.08211523 0.059100185 0.1111156
0001f0 7d 81 37 3e 59 98 92 3e 80 04 36 3e 09 ef 00 3e
       0.1792049 0.28631857 0.17775154 0.12591185
000200 d7 a3 0d be 22 db 2a be c6 0e 27 3e 48 66 34 be
       -0.13832031 -0.16685155 0.1631423 -0.17617142
000210 94 f5 c5 3d 20 ac 7f 3d 5f bb bc 3c b5 49 5d bf
       0.09665981 0.06242001 0.023038564 -0.86440593
000220 46 81 f4 3d aa 56 1a be 0c 83 ee 3b 13 42 0e be
       0.119387195 -0.15072122 0.0072788056 -0.13892393
000230 71 bb bd bd 06 89 9f 3d db 0b 50 3e 56 de ca 3d
       -0.09264267 0.07789807 0.20317023 0.099056885
000240 26 25 f2 3d 03 e5 6d 3e 21 ab 76 bb 01 75 92 3c
       0.11823492 0.23231892 -0.0037638622 0.017878057
000250 39 ba 30 bd 6b ee 16 3c 1f 50 21 be 3a 13 e9 3e
       -0.043146346 0.009212117 -0.1575322 0.4552248
000260 4c fc 50 3d 10 33 ca be 14 53 c3 be 81 c5 22 bf
       0.05102186 -0.39492083 -0.3814932 -0.6358262
000270 ac 9f 37 bf 10 6d a9 3c ac dd 96 3e fc ac dc bd
       -0.71728015 0.020681888 0.29465997 -0.10775182
000280 1a 34 92 be 12 24 c3 bd 0d e4 1f be 4a 46 be 3d
       -0.28555375 -0.09528364 -0.15614338 0.0929075
000290 19 12 9e 3e 27 05 a8 3a 26 fc ee 3c 22 f2 a7 be
       0.30873182 0.0012818918 0.029172968 -0.3280192
0002a0 5e 71 69 be 3a 20 e0 3c 93 17 1a 3d 70 e3 3b bd
       -0.22797152 0.027359117 0.03762014 -0.0458712
0002b0 82 90 86 be 03 41 e9 3d 2d 88 bb bd 2f 18 69 be
       -0.26282126 0.11389353 -0.09156833 -0.22763132
0002c0 c8 81 9b be f8 e2 04 be de a3 11 3e 91 8e 75 3c
       -0.30372453 -0.12977207 0.14222667 0.014987604
0002d0 1d 0b 15 bf f5 8f 39 3e 78 e6 8e be c1 05 8f 3d
       -0.5822008 0.18121321 -0.2791021 0.06983519
0002e0 d4 4f 09 bd 4b 4c ee bc 08 6a 0e be ca 15 34 3e
       -0.033523396 -0.029089114 -0.13907635 0.17586437
0002f0 1f 30 e5 3d fb 2b 9e 3e 11 6c a7 be ff 0a 56 bd
       0.11190819 0.3089293 -0.32699636 -0.05225658
000300 fa 35 89 bf 01 db 5d 3e 90 c8 62 3e 82 b4 e2 be
       -1.0719597 0.21665575 0.22146821 -0.44278342
000310 18 26 cc bc 71 96 76 3e dc f7 8d 3e e5 9e cf 3c
       -0.024920508 0.24080826 0.27728164 0.025344322
000320 41 28 04 3c 30 b0 35 be e5 62 ec 3d 69 c3 88 be
       0.008066238 -0.17742991 0.115423 -0.26711586
000330 97 51 27 3c ec 3c 3b 3d 77 41 2a 3e a7 90 36 be
       0.010212324 0.045712397 0.16626535 -0.17828618
000340 bc 4f 34 bd 30 7f a8 3d a2 66 80 3e 39 b6 32 be
       -0.044021353 0.08227384 0.25078303 -0.17452325
000350 09 92 78 3e 32 c1 25 3d 73 2f 9e be 13 b9 07 be
       0.24274458 0.04046745 -0.30895576 -0.13254194
000360 cd 69 e2 bd ca 4f 22 be 5a a9 90 bd 32 29 40 3e
       -0.11055336 -0.1585075 -0.07063551 0.18765715
000370 23 d6 eb 3d 2f bf ec bd 87 71 fe 3d b2 2c 5d bf
       0.11515453 -0.11559903 0.12423997 -0.86396325
000380 c7 5b 86 3e 34 59 6f be fe e1 d2 bd 36 c8 ef bc
       0.26241896 -0.23373872 -0.10297011 -0.029270273
000390 46 e0 55 bf b6 25 39 be e3 89 09 3d f5 83 79 be
       -0.8354534 -0.18080792 0.033578765 -0.24366744
0003a0 14 b3 98 3d 80 cb 7d 3d 6b d3 a1 bd 37 e7 06 be
       0.074560314 0.06196165 -0.07901653 -0.13174139
0003b0 d3 fa 8f be 6b ea 7c bb e8 6f c6 be b3 3d 3e bf
       -0.2812105 -0.0038591872 -0.38757253 -0.74312896
0003c0 7d a2 b2 be 78 c1 f1 3d fb d0 79 be 0c 0b 50 bd
       -0.34889594 0.11804479 -0.24396126 -0.050791785
0003d0 42 4f 87 3e 17 a9 14 bd e8 af 33 bd e8 79 00 be
       0.26427656 -0.03629407 -0.04386893 -0.12546504
0003e0 e9 b3 99 be b7 09 a8 be 6e 26 17 be 41 c6 5c bc
       -0.30020073 -0.32819912 -0.14760754 -0.013475002
0003f0 12 12 98 3d fa 62 ca be af bf fe 3c 30 b4 85 be
       0.07425322 -0.39528638 0.031097261 -0.26114035

action_model._discrete_distribution.branches.0.bias f4 [3]
000000 b9 46 13 be f5 91 10 be cf ce 65 3e
       -0.14382447 -0.14118178 0.22442172

action_model._discrete_distribution.branches.1.weight f4 [2, 128]
000000 55 26 3c 3e 80 78 b1 bc 7c 54 5a be d1 27 7a 3c
       0.18373998 -0.021663904 -0.2132129 0.015268282
000010 c4 d8 af 3e e6 38 6d 3d 23 e6 24 3d 83 3a 84 bc
       0.34345067 0.05791559 0.040258538 -0.016141182
000020 ed 98 15 be 16 9c e6 3d f8 bc 66 be 21 60 90 be
       -0.14609118 0.1126024 -0.22533023 -0.2819834
000030 e7 a3 a4 3c f0 33 b9 3e 55 17 21 be 8e 9a 91 bd
       0.020097686 0.36172438 -0.15731557 -0.07109557
000040 45 e7 0b 3d d5 33 94 3d ae a5 3c 3d a4 e9 56 b9
       0.034156103 0.07236449 0.046056442 -0.00020495668
000050 50 b0 80 bc b0 d6 f2 bc 0d 93 f2 bd b7 33 9e be
       -0.015709072 -0.029643387 -0.11844454 -0.3089883
000060 04 c1 ac 3c dc c6 96 be 6a d3 61 3c 1d 09 d0 bd
       0.02108813 -0.29448593 0.013783315 -0.10157988
000070 f7 99 ba 3d c3 f4 20 3e 18 6b a9 be e1 fc fa 3c
       0.09111398 0.15718369 -0.3308952 0.03063816
000080 e6 13 25 3e be 33 8f 3d 2e 53 b8 3d 47 b7 f6 be
       0.16120872 0.06992291 0.0900024 -0.48186705
000090 f7 a0 9e bc 38 03 b3 3d 33 50 39 3d ca b4 a2 3c
       -0.019363863 0.08740848 0.0452425 0.019861598
0000a0 bf 17 c2 3e 46 ef dc bd 72 c8 bd 3e 32 f5 03 3e
       0.37908742 -0.10787825 0.3706699 0.12886503
0000b0 33 5e 20 be 67 17 60 3e 61 11 17 3e 04 18 f2 bd
       -0.15660934 0.21883927 0.14752723 -0.11820987
0000c0 24 14 b6 3d 1a 6d f5 3e 0c 69 76 bc 1f 25 05 3f
       0.0889056 0.479348 -0.015039694 0.5200977
0000d0 cd 28 e9 bd 81 51 92 3d d9 a3 29 3e 75 4e 40 be
       -0.11384735 0.07144452 0.16566409 -0.18779929
0000e0 92 c9 1f 3c 86 3c 52 3d 5e a7 06 3e 5a 2d 80 3e
       0.009752648 0.05132725 0.13149783 0.250346
0000f0 3c 48 a3 be 54 e2 42 bd 2a 64 48 be ef b0 0e 3f
       -0.31891048 -0.047579125 -0.1956946 0.5573873
000100 22 18 8c 3c 8a 44 87 be 4f d5 05 be 28 c9 97 3e
       0.017101351 -0.2641948 -0.13069652 0.29645658
000110 ff 47 4e 3e 54 5d 18 be 9d 50 c7 3c 1c c2 eb 3a
       0.20144652 -0.14879352 0.024330432 0.0017986926
000120 d0 bc 79 3d 10 25 95 3d 10 a5 ab bc b9 4f 8f be
       0.06097108 0.0728246 -0.020952731 -0.2799051
000130 b9 94 46 3d 70 eb 6d bd 9b cd a3 be 21 1d 91 be
       0.048481677 -0.05808586 -0.31992802 -0.28342536
000140 c9 42 bf 3d 82 32 04 bf 63 bf f1 3d 87 4c 8d 3d
       0.0933891 -0.5163957 0.11804082 0.06899362
000150 27 00 87 be 8b 7e 27 bd 0e b3 1a bd 6e 79 09 3e
       -0.26367304 -0.040892165 -0.037768416 0.13425228
000160 71 3a cc bc bc 4f d2 bb b7 e3 74 3c a6 d3 01 3e
       -0.02493021 -0.0064181965 0.01494687 0.12678394
000170 8e 29 74 be 6b 30 2a 3e f6 87 68 bd 04 f6 26 3f
       -0.23843977 0.16620032 -0.056770287 0.6521914
000180 f5 62 3c 3e a1 c0 b2 be 6e bb 2b be bf b3 03 be
       0.18397124 -0.3491259 -0.16770718 -0.12861536
000190 ae 45 b9 3e fb 68 04 bd 6b 61 c4 3e f0 03 44 bd
       0.36185974 -0.03232668 0.38355574 -0.047855318
0001a0 f9 f2 05 bc 87 92 49 3d 9a 8b f8 bd 67 5e 12 3e
       -0.008175605 0.049212005 -0.12136002 0.14293824
0001b0 5e 75 d2 3c 88 48 dd be 4a 27 c1 bd 47 c0 4c bd
       0.02569073 -0.432194 -0.09431322 -0.049988057
0001c0 6d ad 41 3d e7 bb 34 be 18 13 a6 bc de 79 08 bc
       0.047284532 -0.17649804 -0.020272776 -0.008329837
0001d0 aa a9 b9 3d f9 c2 15 3d 43 32 67 be c6 6c b1 3e
       0.09065564 0.036562894 -0.22577767 0.346533
0001e0 37 ae d6 bd c1 c1 09 3f 86 ae d5 bc ab 63 41 3f
       -0.104824476 0.5381127 -0.026084196 0.75542706
0001f0 27 11 67 be 1e c7 bb be e1 54 4a bd ad 59 93 bc
       -0.22565137 -0.36675352 -0.049397353 -0.017987097
000200 94 d0 39 be a6 f8 d7 3c 87 39 58 3e 0e ba 9f bc
       -0.18145972 0.026363682 0.21115695 -0.019497897
000210 a1 61 b2 be 3b 12 20 bd 2e c1 31 bd e4 74 a3 3b
       -0.3484011 -0.039079886 -0.04339712 0.0049882997
000220 19 f2 0e 3e 4e 0c de bd 22 97 75 3e c8 15 93 3e
       0.1395954 -0.10842191 0.23983434 0.28727555
000230 af e7 01 bd d1 45 b0 be a9 f0 10 3e 95 f8 65 3d
       -0.03171509 -0.34428266 0.14154305 0.05614527
000240 eb 12 5d bd f9 c9 99 bd b7 b2 2e bd b4 dc bf bc
       -0.05397312 -0.07509226 -0.042650905 -0.02342067
000250 e0 83 f0 3c 41 ec e0 3c 49 73 f8 3d de 37 98 3e
       0.029359758 0.027456405 0.12131364 0.29730123
000260 13 c4 02 bd b5 a8 98 3e 59 5c 38 bc d7 c9 a5 3d
       -0.031925272 0.29816213 -0.011252486 0.080951385
000270 b7 4c f1 bd 2f 2b 1c be 13 81 a2 3e 84 fb 21 bd
       -0.1178221 -0.15250848 0.317391 -0.039546505
000280 82 3e 3d be 6b f9 8f bd 87 1c b7 bd 76 38 ed 3e
       -0.18480876 -0.070299946 -0.08940988 0.4633214
000290 c0 13 a7 3c e0 2a be bd 7b b8 91 bc f1 10 31 bd
       0.02039516 -0.092855215 -0.017788162 -0.043229047
0002a0 7e e4 b4 be e9 d5 c1 3d 98 0d c1 be a7 5a f5 bd
       -0.35330576 0.09464628 -0.37705684 -0.11980181
0002b0 72 d8 26 3e a1 bf 54 be 06 31 18 be d0 99 f1 3d
       0.16293505 -0.20776226 -0.14862451 0.117969155
0002c0 4a af 99 bd 1c 71 fc be 34 30 fc 3b df 78 0d bf
       -0.07504137 -0.49305046 0.007696176 -0.5526256
0002d0 45 98 f9 3d 69 39 8b bd b3 60 25 be 19 b4 32 3e
       0.12187246 -0.067980595 -0.16150169 0.17451514
0002e0 88 97 da bc 0d bc 5e bd 14 7f 0c be c5 a0 75 be
       -0.026683584 -0.054378558 -0.13720351 -0.2398711
0002f0 38 98 ab 3e c7 71 7b 3d 20 2e 4f 3e b7 b8 10 bf
       0.3351457 0.061387803 0.20232439 -0.5653185
000300 2a e8 e3 bc c2 98 8c 3e 6d 7b 08 3e 0c ca 9a be
       -0.027820665 0.27460295 0.13328333 -0.30232275
000310 7b 06 5d be d9 09 1a 3e e0 2a 9e bc 0a 2d 5b 3b
       -0.21584503 0.15042819 -0.019307554 0.0033443593
000320 85 12 7d bd 4e 84 5d bd 7e 6e 58 3c 93 a1 90 3e
       -0.06178524 -0.054081254 0.013209937 0.2824827
000330 bc f1 5b bd 97 e2 2e 3d 60 8b a9 3e 92 88 8b 3e
       -0.053697333 0.04269656 0.33114147 0.27252632
000340 38 65 9d bd 98 a3 05 3f cb 93 ee bd 69 ec 8b bd
       -0.076853216 0.5220275 -0.11649283 -0.06832201
000350 59 8b 86 3e ed ac 52 3d c2 58 4e 3d 01 e3 11 be
       0.2627819 0.051434446 0.050377615 -0.14246751
000360 9c 8b bc 3c f1 ae 20 bc ea 72 86 3c 5b 34 09 be
       0.02301579 -0.009807334 0.016412217 -0.13398878
000370 bc 07 80 3e 6d a1 1c be 34 61 3a 3d 92 16 28 bf
       0.250059 -0.15295954 0.045502856 -0.6565944
000380 45 07 4c be 00 90 bc 3e 64 8c 18 3e f9 13 01 3e
       -0.19924648 0.36828613 0.14897305 0.12605275
000390 2e 73 bb be 7c ee 1e 3d 32 6b bf be 00 80 09 3d
       -0.36611313 0.038801655 -0.3738647 0.033569336
0003a0 b1 74 07 3d d5 78 09 bd e7 23 e8 3d eb 8a 0d be
       0.03307027 -0.0335625 0.11334973 -0.13822524
0003b0 6d 3b ac bc 7c 3e d5 3e 34 04 b9 3d 0f b5 29 3d
       -0.02102443 0.41649234 0.09034005 0.041432437
0003c0 61 ae 3e bd 19 b5 18 3e 1d 86 e0 3c 26 09 92 3c
       -0.04655302 0.14912833 0.0274077 0.017826628
0003d0 d6 15 ae bd 0b ed fc bc 66 c1 74 3e 73 82 a8 be
       -0.085002586 -0.03087475 0.239019 -0.32912025
0003e0 60 d8 f3 3d 91 88 03 bf 49 2c 35 3b af 0a 3f bf
       0.11906505 -0.5138026 0.0027644804 -0.74625677
0003f0 d0 d0 70 3e ec 46 bd 3e 1a 8c 4b 3d 03 e6 63 3c
       0.23517156 0.36968172 0.049694158 0.01390982

action_model._discrete_distribution.branches.1.bias f4 [2]
000000 7f 9b 09 3e 70 9b 09 be
       0.13438223 -0.13438201

action_model._discrete_distribution.branches.2.weight f4 [2, 128]
000000 51 3f ca 3d 47 3d f0 bd 0a e2 08 3f a0 1f 32 bd
       0.09875358 -0.11730438 0.5346991 -0.04348719
000010 c9 28 ab 3d 7e e0 7c 3e e8 35 60 3e d3 3a f7 3e
       0.083573885 0.24695012 0.21895564 0.48287067
000020 f9 33 df bc 1c 02 68 bb 99 48 7c be 4f 02 d5 3d
       -0.027246462 -0.0035401648 -0.24637069 0.10400831
000030 ee 8a 43 bc cf d9 f5 3e ff e4 2c bd 76 99 c1 3d
       -0.011934979 0.48017737 -0.042210575 0.094530985
000040 18 50 8d 3d 80 f4 4f 3d 07 2f 69 3d 6d fa a8 3d
       0.06900042 0.050770283 0.056929614 0.0825089
000050 4c 69 40 bd ec 08 e7 3d 17 b2 29 bd 11 31 fa 3d
       -0.04697542 0.112809986 -0.041429605 0.1221639
000060 6d 56 4f bc de e4 ab be 2a 37 b5 3d ba 43 cc 3d
       -0.012654883 -0.3357305 0.08848412 0.09973855
000070 89 c1 2b be e7 fa 0b bd 62 32 a6 3c 47 c7 0a 3d
       -0.16773047 -0.034174826 0.020287696 0.033881452
000080 b5 56 0f 3e d0 9c 0e 3c b9 a4 8d 3c 7d f8 fb be
       0.1399792 0.008704379 0.01729046 -0.4921302
000090 05 8f ab 3e 35 78 0e 3e 18 c2 bb bd 0f b2 a2 3e
       0.33507553 0.13913043 -0.0916788 0.31776473
0000a0 fd 3d 22 3d 18 3d 22 3f fc 26 43 3d ef bb 60 3d
       0.039609898 0.6337447 0.0476446 0.054866727
0000b0 59 fa c6 3c db a8 b7 3d ee b1 38 3d 0f 8b 77 bd
       0.024289297 0.089677535 0.045091562 -0.06043535
0000c0 eb 48 e3 bd 7b 17 b9 3d 4e 0f 0f 3e 2c ef 16 3e
       -0.110978924 0.09037682 0.13970682 0.14739674
0000d0 8d 9d 25 3f 61 37 2f bd 14 6b 1b 3e bf 8b 1a bf
       0.6469353 -0.042777423 0.15177566 -0.60369486
0000e0 32 88 25 bc d7 14 98 3c d8 eb c1 3b 5a 8c 1d be
       -0.010103272 0.018564625 0.0059180073 -0.15385571
0000f0 62 93 60 be 03 5e 1a be 6a ae 4d be 91 08 0a 3e
       -0.21931222 -0.15074925 -0.20086065 0.1347983
000100 45 8d da 3c 1b dd 92 be e9 46 a3 bd dd 48 5e 3e
       0.02667869 -0.28684315 -0.079725094 0.21707483
000110 14 1c 9d 3e 32 29 ea 3d 9b 3b ed bc 84 74 90 bb
       0.30685484 0.11433639 -0.028959086 -0.004408421
000120 dc 4e 4a bc e8 cd 1e 3d 86 05 e4 be 1c 89 aa bd
       -0.012347903 0.038770586 -0.44535464 -0.08326933
000130 45 05 22 3c bb 3f fa 3c 2a 62 1a bf 5b d4 22 3e
       0.009888952 0.030547967 -0.60306036 0.1590132
000140 57 68 82 3d c4 ce 27 bf 6d a8 b7 be d3 10 c7 bc
       0.063675575 -0.65549874 -0.35870686 -0.024300015
000150 11 76 6e bd 13 26 9d be 84 52 8d 3e 03 14 38 3e
       -0.058218066 -0.3069311 0.27602017 0.17976384
000160 97 10 b9 bd 20 2f 92 3d fe 82 05 3f a2 3f 96 3d
       -0.090363674 0.07137895 0.52153003 0.07336356
000170 c0 d3 01 3e 03 d3 8a 3e 42 b8 1b bd 08 cb ce bd
       0.12678432 0.27114114 -0.03801752 -0.10097319
000180 39 63 93 3d ae 5f ba bc b1 12 b4 be b8 f7 e8 3c
       0.071966596 -0.022750702 -0.3517051 0.028438434
000190 23 e2 8a be f3 a4 e1 bc a5 ec c3 bd 19 8d 16 be
       -0.27125654 -0.027544474 -0.09566621 -0.14702262
0001a0 a7 bc 4b bd 6a 47 17 3e 77 3f b0 bd d6 d5 49 3c
       -0.04974046 0.14773336 -0.08605855 0.012319049
0001b0 31 90 ad bb c0 48 06 bd b0 e6 3b bc 98 14 4f bd
       -0.00529673 -0.032784224 -0.011468574 -0.05055675
0001c0 a3 a1 02 bd cf 4e f4 3d 08 87 34 3e 71 50 af 3e
       -0.03189243 0.11929094 0.17629635 0.3424106
0001d0 b7 e0 18 3e cd 98 54 3e 18 f1 e1 be e7 a6 82 3e
       0.14929472 0.20761414 -0.44129252 0.2551796
0001e0 7b 1f b5 3b fb 71 05 3f 66 2d e9 bd e1 0f 40 bb
       0.0055274344 0.52127045 -0.11385612 -0.002930634
0001f0 44 c5 00 bd d8 54 85 3e 1d 6b 3b 3d 68 b6 14 3c
       -0.031438127 0.26041293 0.045756448 0.009076692
000200 94 b1 c9 bd fe e4 ef 3d d1 1c 08 bf d8 09 02 3d
       -0.098483235 0.11713599 -0.5316897 0.03174767
000210 f3 1f 9e bd ab ee 76 be ea 93 46 be 0c b4 f0 be
       -0.077209376 -0.24114482 -0.19392362 -0.47012365
000220 7e ea f0 3c 47 d6 13 3b b6 e7 74 3e 32 36 e7 bd
       0.02940869 0.002255814 0.23916516 -0.11289634
000230 02 0a 3a bb 64 d9 f7 be 2a ef 26 3d 8e 67 be bd
       -0.0028387313 -0.48408043 0.04075543 -0.09297095
000240 31 11 7e bd d8 d6 1e bd c3 83 79 bd 8d 02 82 bd
       -0.062028114 -0.03877911 -0.060916673 -0.06348143
000250 1b c0 2f 3d ab ab e2 bd 4f 7f 2b 3d 61 f7 f7 bd
       0.042907815 -0.11067899 0.041869458 -0.12107731
000260 2e 64 3d 3c ec a3 ad 3e f0 91 bb bd e9 71 db bd
       0.011559529 0.33914125 -0.09158695 -0.10715086
000270 01 8b 36 3e f0 1d 30 3d e7 d2 7f bc 78 45 05 bd
       0.17826463 0.0429973 -0.015614248 -0.032536954
000280 bc 76 00 be df df 96 bc 0a 23 dd bb aa 88 f7 3e
       -0.12545294 -0.018417297 -0.0067485617 0.48346454
000290 e1 38 ac be af d7 fb bd 78 68 a8 3d 86 8b a8 be
       -0.33637145 -0.12296998 0.08223051 -0.32918948
0002a0 56 7f 20 bd 58 fb 22 bf 63 dc 08 bd 9c a2 85 bd
       -0.039183937 -0.6366477 -0.033413302 -0.06525156
0002b0 1c c9 3c bd 42 72 b9 bd f6 51 1b bd 93 2a 3e 3d
       -0.04609023 -0.09054996 -0.03791996 0.04642732
0002c0 5f 84 eb 3d 28 7a d1 bd d1 c0 01 be 00 4d 2b be
       0.11499857 -0.102283776 -0.1267121 -0.16728592
0002d0 88 cf 24 bf ea c2 48 3d e4 ec 2b be 3b 99 1a 3f
       -0.6437917 0.04901401 -0.16789585 0.6039006
0002e0 d3 d7 bb 3b a2 ac 1d bc f9 b1 b6 bc cf 63 2d 3e
       0.0057325154 -0.009623678 -0.02230166 0.16932605
0002f0 ef e6 5c 3e 14 27 1f 3e 7c 82 51 3e 68 66 19 be
       0.21572469 0.15542251 0.20459932 -0.14980471
000300 b6 ae 17 bc 53 e3 94 3e a4 d5 ba 3d ff 96 6f be
       -0.009257963 0.29079685 0.0912278 -0.23397444
000310 a3 81 a4 be 02 54 d6 bd 8b 5e d6 3c 13 a0 a5 3a
       -0.32130155 -0.10465242 0.026168128 0.0012636207
000320 23 1b bf 3b a4 b0 38 bd ee dc e0 3e 57 4a af 3d
       0.0058320924 -0.045090333 0.43918556 0.08559101
000330 ee 8d 25 bb ee 64 44 bd 5c cd 1e 3f f7 83 17 be
       -0.0025261599 -0.047947817 0.62032104 -0.14796434
000340 54 3a 90 bd 5a b9 28 3f 24 00 b7 3e 8b 31 d1 3c
       -0.07042375 0.65907824 0.35742295 0.02553632
000350 10 f6 90 3d 1c 4e a5 3e 7f a2 8d be 5d 39 3d be
       0.07078183 0.32286155 -0.27663037 -0.18478914
000360 0c fc af 3d 86 49 b8 bd f2 08 06 bf 89 2c 86 bd
       0.08592996 -0.089983985 -0.523574 -0.06551463
000370 13 67 ed bd c8 ca 8b be 46 69 09 3d 4c f6 a0 3d
       -0.115919255 -0.27303147 0.033547662 0.078594774
000380 2e 7d 6c bd 1b 41 e6 3c 6f 37 b6 3e 75 2a 2e bd
       -0.05773657 0.028107217 0.35589167 -0.04252096
000390 ed a3 93 3e 90 49 7b 3c e7 ce a2 3d 43 fa 1a 3e
       0.28836003 0.015337363 0.0794962 0.1513453
0003a0 e9 90 82 3d 21 cb 1c be b4 99 c7 3d a2 b4 a6 bb
       0.06375296 -0.15311863 0.097461134 -0.005087451
0003b0 e3 57 26 3c bd 1f c9 3c 6a d1 00 3a a6 d5 3e 3d
       0.01015279 0.024551267 0.00049140176 0.04659047
0003c0 17 66 ba 3c dc 38 e7 bd d9 14 38 be b4 36 b3 be
       0.022753758 -0.11290142 -0.17976703 -0.35002673
0003d0 a0 e3 15 be a5 5d 44 be c0 e6 e4 3e 3d f8 86 be
       -0.14637613 -0.19176348 0.44707298 -0.26361266
0003e0 c3 eb 3f bb f6 f9 08 bf 45 dd de 3d c6 7c 27 3c
       -0.0029284812 -0.5350641 0.108820476 0.010222619
0003f0 05 a9 c6 3c 96 33 9f be d8 c4 30 bd 78 ed 2c bc
       0.024250517 -0.31094044 -0.043156475 -0.010554664

action_model._discrete_distribution.branches.2.bias f4 [2]
000000 a3 ae eb 3d a9 ae eb bd
       0.11507919 -0.11507923
