results/DarkKnightDebuff1/Dark Knight Behavior/checkpoint.pt (torch, 552039 bytes, 67 tensors)

network_body.observation_encoder.processors.0.normalizer.running_mean f4 [11]
000000 17 fb 94 40 28 bb 43 c0 d3 a4 3e 41 48 60 3a 41
       4.6556506 -3.058298 11.91524 11.648506
000010 53 4f 52 42 41 6d 95 3d ac 96 9c 3d df 31 d9 3e
       52.577465 0.07296229 0.07645926 0.4242086
000020 a5 45 a7 3d 43 c0 c2 3d af 8d ab 3e
       0.081675805 0.09509327 0.33506534

network_body.observation_encoder.processors.0.normalizer.running_variance f4 [11]
000000 bd 18 de 4b f9 8e bb 4b e0 3d 8b 4c 64 51 95 4c
       2.911065e+07 2.4583666e+07 7.300275e+07 7.82856e+07
000010 b2 e1 01 4f 2b 56 80 48 f6 fa 85 48 e2 b8 67 49
       2.179052e+09 262833.34 274391.7 949134.1
000020 fc 4f 8e 48 4e 45 a3 48 30 5d 53 49
       291455.88 334378.44 865747.0

network_body.processors.0.normalizer.running_mean f4 [11]
000000 17 fb 94 40 28 bb 43 c0 d3 a4 3e 41 48 60 3a 41
       4.6556506 -3.058298 11.91524 11.648506
000010 53 4f 52 42 41 6d 95 3d ac 96 9c 3d df 31 d9 3e
       52.577465 0.07296229 0.07645926 0.4242086
000020 a5 45 a7 3d 43 c0 c2 3d af 8d ab 3e
       0.081675805 0.09509327 0.33506534

network_body.processors.0.normalizer.running_variance f4 [11]
000000 bd 18 de 4b f9 8e bb 4b e0 3d 8b 4c 64 51 95 4c
       2.911065e+07 2.4583666e+07 7.300275e+07 7.82856e+07
000010 b2 e1 01 4f 2b 56 80 48 f6 fa 85 48 e2 b8 67 49
       2.179052e+09 262833.34 274391.7 949134.1
000020 fc 4f 8e 48 4e 45 a3 48 30 5d 53 49
       291455.88 334378.44 865747.0

network_body.linear_encoder.seq_layers.0.weight f4 [128, 11]
000000 16 0a 8a 3e 05 74 a7 3e 6a e0 3a be 21 ab c5 3e
       0.2696082 0.32705703 -0.1824967 0.38607123
000010 e0 ad 95 3e 35 f0 dc bc 80 f9 8c be f1 2d c2 bd
       0.2923422 -0.026970008 -0.27534103 -0.09481419
000020 2d a8 96 be db d2 db bd 27 dc b9 3e 8b b4 9c be
       -0.29425183 -0.10733577 0.36300775 -0.30606493
000030 57 ae f1 bd 4a be 9e 3f 52 0a c9 be 65 38 ff 3a
       -0.11800831 1.2401822 -0.39265686 0.0019471763
000040 cd 38 90 3e 14 60 29 bd 19 ce 28 3e cc 53 3c 3d
       0.28168336 -0.041351393 0.1648487 0.045978352
000050 26 0a d2 be 0b 5c d9 bd 50 08 00 3f d7 02 9a 3d
       -0.41023368 -0.10613259 0.50012684 0.07520073
000060 66 b9 f7 be 68 c0 8d 3e ca bf 93 3d df 27 bf 3d
       -0.48383635 0.27685857 0.07214315 0.09333777
000070 70 0e 97 3d 5a f3 03 bf 7e c8 3c be a4 74 b3 3e
       0.073758006 -0.515432 -0.18435857 0.35049927
000080 d2 7a 70 3e 6a c6 d3 be bd 51 04 bf ae 5a fe 3e
       0.23484352 -0.41362315 -0.5168722 0.49678558
000090 f9 84 8d 3d 7a 4d b4 3b f0 62 cc 3d 96 ae d3 be
       0.06910128 0.0055024 0.09979808 -0.41344136
0000a0 36 d7 eb be d7 f8 45 3e ef b4 c0 be e4 2a da 3e
       -0.4606263 0.19333206 -0.3763804 0.42610848
0000b0 49 3e 05 bf e8 f4 a5 3e 2c fc 3e 3e 15 4f ad bd
       -0.52048165 0.3241341 0.18650883 -0.08462349
0000c0 d6 a6 9f bf 78 c0 a7 3e a1 9c 1b 3f 89 06 6f 3d
       -1.2472789 0.3276403 0.6078587 0.05835584
0000d0 90 84 89 be 54 b2 8c ba b1 0d 51 be d1 a3 be be
       -0.2685895 -0.0010734298 -0.20415379 -0.37234357
0000e0 78 38 74 3e 6f f3 e9 be 4d 34 de 3e f0 63 7b 3f
       0.23849666 -0.45693538 0.43399277 0.9819937
0000f0 46 0a d9 3d df 5f c3 bc 2e b5 18 be 36 76 7e 3e
       0.10597663 -0.023849426 -0.14912865 0.24849781
000100 ca 0b 29 be 49 1a 6b bc 0f d9 37 3e d3 37 5b be
       -0.16508403 -0.014349529 0.17953895 -0.21408014
000110 2e d5 48 be 67 5f 87 3f d2 d1 9d 3e 6c f9 04 bf
       -0.19612572 1.057599 0.30824143 -0.5194309
000120 ee 1a 64 bd ca e0 18 3f 1e 45 6a be 41 ff 1a 3e
       -0.055689745 0.59718 -0.22877929 0.15136434
000130 18 71 d7 3e f4 d1 95 3b 76 53 d2 3d b2 65 8c bd
       0.4207847 0.0045721475 0.10269825 -0.06855334
000140 26 28 93 3d 76 4b b4 3e e7 2c b5 3d 29 26 2a 3d
       0.07185392 0.35213822 0.08846455 0.0415403
000150 9b ad 7e be de 29 08 be a7 39 f1 bd ac 9f 96 3e
       -0.24870913 -0.13297221 -0.117785744 0.29418695
000160 a4 31 c0 3e 9e 91 d3 3e 57 3a 90 3d 57 be 50 3d
       0.37537873 0.41322035 0.070423774 0.050962772
000170 8f 5b 87 be 62 f3 3c be 4e 65 b1 be 9c 1f bb 3e
       -0.2643704 -0.18452218 -0.34647602 0.36547554
000180 1a 6e d8 be 20 bc 90 3d 07 ff b2 3d ad d3 be be
       -0.422715 0.07067132 0.08740049 -0.3727087
000190 04 f1 cd be 1d 6a 8c 3f 75 47 4c be 52 44 b6 be
       -0.40222943 1.0969883 -0.19949134 -0.35599
0001a0 34 1e 9d 3d 5f f0 34 3d e8 48 25 be de 88 ff 3e
       0.076717764 0.04417455 -0.16141093 0.4990911
0001b0 e3 b8 2a 3f ba 32 16 3e 1f c1 5d 3f 0f c6 f4 3e
       0.66688365 0.14667788 0.86622804 0.47807357
0001c0 c7 ba b5 3e 43 14 0e bf 18 f4 a5 3e f6 74 4f bf
       0.35494062 -0.55499667 0.3241279 -0.81037843
0001d0 83 31 85 3c 87 e1 65 3e 7f 44 14 be 7a 20 20 bf
       0.01625896 0.22449313 -0.14479254 -0.62549555
0001e0 48 00 d7 3d 4c db 15 bf 95 5d 8d be c8 40 7a bd
       0.104981005 -0.58537745 -0.2761046 -0.061096936
0001f0 f8 88 67 be a8 83 07 be 72 20 0f bf 91 14 d4 bd
       -0.22610843 -0.13233817 -0.5590888 -0.10355485
000200 c5 8f b0 3d 36 14 ec 3e 18 f9 93 3b b2 43 ae 3e
       0.08621172 0.4610917 0.0045157783 0.34036022
000210 c1 15 97 be 5c 9d a3 3d c5 55 0d bf 23 74 9d 3e
       -0.29508784 0.07988998 -0.55209 0.30752668
000220 89 20 0f 3f d8 20 50 3d 93 2c 4c bd 99 16 13 be
       0.5590902 0.050812572 -0.049847197 -0.14364089
000230 2b d5 1a 3d 66 af 2a bd 77 9d 81 3c 05 a5 ae 3d
       0.03780095 -0.04167118 0.015822155 0.08527569
000240 42 82 29 bf b9 de 03 bf 2b 01 0f be 06 23 20 bf
       -0.6621438 -0.5151172 -0.1396529 -0.6255344
000250 78 3f e9 3e 4f 88 ea be 73 9b 88 3d f0 ef 20 3e
       0.45556235 -0.4580712 0.066702746 0.15716529
000260 8b 19 10 bc be fc 84 be e2 22 77 3c 3f 1b d1 3e
       -0.008795152 -0.25974077 0.015084 0.408411
000270 0c b5 92 3d 0a 54 f0 be b8 ab 90 bf 37 87 eb 3e
       0.07163438 -0.46939117 -1.1302404 0.46001598
000280 38 21 91 3e 56 c4 d1 be b8 d6 f0 3e 99 8d 09 3f
       0.28345656 -0.40970105 0.47038817 0.53731686
000290 f8 64 07 3f 7f e1 cb 3d d9 98 b2 be 40 0d b7 be
       0.5288844 0.09955119 -0.34882239 -0.35752296
0002a0 b2 b8 da 3c e0 b5 32 3e 27 da e4 3d 60 6d 9d 3e
       0.026699398 0.17452192 0.11174422 0.3074751
0002b0 9f c9 15 3f ad 08 c0 3e 77 1b bd 3d 0b 50 01 bf
       0.58510774 0.3750662 0.09233754 -0.5051276
0002c0 5c 13 ca bb ff e4 6c 3e 66 8b 3c bf 5c 52 26 3e
       -0.0061668586 0.2313423 -0.73650205 0.16242355
0002d0 c6 4a 49 3f fd d6 26 3e 2d a8 70 3e de 41 68 3e
       0.7862972 0.16292949 0.23501654 0.22681376
0002e0 8a da 80 3c e8 44 be 3d 18 ba 56 3e dd 6d e5 bd
       0.015729208 0.092904866 0.20969427 -0.112025954
0002f0 f2 9c c2 be 5d 7f af 3e 1e 95 f3 3e 0e 86 97 3d
       -0.38010365 0.34276858 0.47574705 0.07398616
000300 d2 4e 4f 3d 84 4f 60 be c6 5b 5c be 7f 18 a9 be
       0.05061228 -0.21905333 -0.21519384 -0.33026502
000310 26 12 35 be d3 a2 89 3d a0 09 ad be 42 6c 19 3f
       -0.17682704 0.067205094 -0.33796406 0.59930813
000320 eb 69 9d 3e 1b 40 95 bf 47 a7 19 bf 25 64 91 3e
       0.30744871 -1.1660188 -0.6002087 0.28396717
000330 a3 17 ad 3d 26 0b 83 3e 17 e1 14 bf 64 c2 5e 3e
       0.08451774 0.25594443 -0.5815596 0.21753842
000340 a1 91 1f be 36 1b 0a 3f b0 cc 29 bf 97 36 25 3f
       -0.15582897 0.5394777 -0.66327953 0.6453642
000350 46 cd 28 3f fe 37 08 bf fa 73 86 bc 44 1a 9e 3c
       0.6593822 -0.5321044 -0.016412724 0.019299634
000360 67 20 06 bf 00 10 b3 be 69 8e a2 3e b1 6b 87 be
       -0.5239319 -0.34973145 0.31749275 -0.2644935
000370 8c ff aa be 82 c2 26 3f 5c 18 e0 3e 08 72 d6 bc
       -0.33398092 0.65140545 0.43768585 -0.026177421
000380 f2 71 e5 be a0 51 66 bd c5 36 ea 3e 80 26 60 bc
       -0.44813496 -0.056230187 0.4574491 -0.013681054
000390 37 a9 25 be 89 c0 87 bf 24 ee 0f 3f de ab 3a 3e
       -0.16177832 -1.0605632 0.5622275 0.18229625
0003a0 fa d5 51 3f 56 4e 09 be 0b 6f 2e 3e 04 d8 c8 be
       0.8196713 -0.13408789 0.17034547 -0.39227307
0003b0 5b 62 9c bd ea af 7c 3e 4e 85 95 3c 7b 2c 31 3e
       -0.07635947 0.24676481 0.018252041 0.17302124
0003c0 ad 4e 2d bf 0b 43 07 3f 80 2f 58 3f 26 8e f6 be
       -0.67698175 0.52836674 0.8444748 -0.48155326
0003d0 ff ae 3c be fd c4 3e be 0c d3 a6 bd 45 9e 6c 3d
       -0.1842613 -0.18629833 -0.08145723 0.057768125
0003e0 5c f8 26 be db eb b7 be 3b fb ba 3c e2 96 ec 3e
       -0.16305679 -0.3592213 0.022824874 0.46208864
0003f0 41 3a 88 be 60 fb 79 be 31 bd 35 bf 2c 64 8d 3e
       -0.26606944 -0.24412298 -0.7099181 0.27615488

network_body.linear_encoder.seq_layers.0.bias f4 [128]
000000 d7 98 36 be 2e 72 8b be 5a e2 7a be 91 00 0a be
       -0.17831741 -0.2723555 -0.24500409 -0.13476779
000010 91 5e a9 bd a5 b8 d3 be 63 dc d8 3d 62 6b 9b be
       -0.0826999 -0.4135181 0.105889104 -0.30355364
000020 53 8d 08 be 82 ff 9a 3c 7c 5a b3 3d 9e 0b 16 be
       -0.13335161 0.018920664 0.08757493 -0.14652869
000030 6c 53 87 be 93 f2 36 3e f3 a8 db 3c c2 ae 27 bc
       -0.26430833 0.17865972 0.02681396 -0.010234537
000040 0c 1f f4 bd ea 9b 0f bf 8a 28 9e 3d e1 05 55 3e
       -0.11919984 -0.5609728 0.07722576 0.20803024
000050 0e 97 61 3e ad 07 9b bb 88 af fc 3c 04 b9 c1 be
       0.22030279 -0.0047311396 0.030845419 -0.37836468
000060 a4 41 36 be 8c b4 19 be 73 ff 81 3e ae e0 4f 3e
       -0.17798477 -0.1501028 0.25390205 0.20300552
000070 48 a2 7e 3e 6f 50 0b be 1c cf 5a 3d b6 a5 7a 3d
       0.24866593 -0.13604902 0.05342017 0.06119319
000080 07 84 f6 3d 42 7f cb 3d 59 95 6e 3e 5c b7 94 be
       0.12036901 0.09936382 0.23299159 -0.29046142
000090 09 f5 99 be ad fb 0d 3e fc 4a 19 3e 68 0e a7 be
       -0.3006976 0.13865538 0.1497001 -0.3262818
0000a0 bc f1 0d bd b4 41 f4 bd 3f 0d 56 bd 80 7b d2 3d
       -0.034654364 -0.119265944 -0.052258726 0.10277462
0000b0 bc 31 c6 bd 13 0b 73 3e 6a 68 40 be 86 66 97 be
       -0.09677455 0.23734693 -0.18789831 -0.29570407
0000c0 11 b0 90 3d 53 bc 9f be 64 20 d5 be 48 c2 ea 3c
       0.07064832 -0.31198367 -0.41626275 0.028657094
0000d0 c2 bd 76 3e ca 4f 62 be 6f e3 4e 3c b7 22 81 be
       0.24095824 -0.2210075 0.012627467 -0.25221798
0000e0 a9 80 30 3c 1c 67 51 3e e5 60 7c 3e 0c 59 98 bc
       0.0107728625 0.2044949 0.24646337 -0.018597148
0000f0 01 c9 a7 3d 89 c7 53 bc 19 53 ce bd bc 03 db bd
       0.08192635 -0.012925991 -0.10074443 -0.10694072
000100 00 a2 d8 3d 7e 6a b6 3d dc 06 85 be 42 a0 3a 3d
       0.10577774 0.089070305 -0.25981796 0.04556299
000110 be 5f 83 be 48 04 ac bd 65 bc 45 bd ea 9f 18 bd
       -0.25658983 -0.08399254 -0.04827537 -0.03726188
000120 fa b6 f3 bc f5 6c 89 be ca 79 ab 3d 73 5a 72 3e
       -0.029750336 -0.2684094 0.08372839 0.23667316
000130 fa 42 fc 3d 54 8c 00 3d 19 88 97 3d 4c d3 af be
       0.12317462 0.031383827 0.073990054 -0.34340894
000140 e2 ac a8 be 93 4e 5c be b3 8f c8 bd 8c 6b 9d 3d
       -0.329444 -0.21514349 -0.097930335 0.076865286
000150 f6 aa d1 3e bf 55 ca bc 90 fe 23 3e 7a ec 35 be
       0.40950745 -0.02469909 0.16015077 -0.1776599
000160 bf de 6f 3e 01 a5 b3 bd ec 57 69 be de e2 fd 3c
       0.23424815 -0.08771706 -0.22787446 0.030991968
000170 24 16 67 bc 07 cd 0a bd 0f 35 85 3e 95 bd f3 bd
       -0.0141044 -0.033886936 0.26017043 -0.11901394
000180 09 58 8f be d6 0c 4e 3c c0 83 7f bd 98 58 23 be
       -0.27996853 0.0125763025 -0.062381506 -0.15951765
000190 2a 44 2c be 1c 02 43 be 91 63 2f be 59 63 70 bd
       -0.16822878 -0.19043773 -0.17127825 -0.058688495
0001a0 2b 53 ac 3d 63 73 f2 3e 88 7b b3 bd 75 80 26 be
       0.084143005 0.47353658 -0.08763796 -0.1625994
0001b0 b1 51 28 be 53 0d a7 bb 19 99 b8 bd c2 79 2d be
       -0.16437413 -0.005098024 -0.09013576 -0.16940978
0001c0 0f 4e 58 be 60 cb b4 bd bf 2d 96 bd 26 d1 b1 be
       -0.21123527 -0.08827853 -0.07332944 -0.3472988
0001d0 05 28 3a bd 39 a6 2e 3e 34 bf 19 be f7 7b 9c be
       -0.04544832 0.17055596 -0.15014344 -0.30563328
0001e0 e3 83 2a be ff 16 45 3e 2f ad 86 bd cf 47 6f be
       -0.16651873 0.19247054 -0.06576001 -0.23367237
0001f0 35 81 d5 be 10 44 64 3e 9f 45 da bd 43 56 cf bb
       -0.4170014 0.22291589 -0.106578104 -0.006327422

network_body.linear_encoder.seq_layers.2.weight f4 [128, 128]
000000 7c 71 8f be fc b4 88 be ac 3c 25 be 6f 45 6a bd
       -0.2801627 -0.2670058 -0.16136426 -0.057195123
000010 48 be 90 3e 5f 59 10 3e 30 f6 45 bd 5b 53 e1 be
       0.28270173 0.14096592 -0.048330486 -0.44008908
000020 75 8b 85 be f5 b4 e9 bd 46 c1 0a bf cc 29 a5 3d
       -0.2608296 -0.11411468 -0.5420116 0.08064613
000030 c4 4e ec 3d 25 70 fd bd 0e ae da 3c 44 f2 cb 3d
       0.11538461 -0.123749055 0.026694324 0.09958318
000040 0e 4f 0b 3e f8 65 8c be 7f 0e f4 bc 35 3b 0f bf
       0.13604376 -0.27421546 -0.029792069 -0.5594972
000050 86 bb a2 bd df e2 46 be 5a fd a8 be 8f be 32 3d
       -0.079459235 -0.19422482 -0.33005792 0.043638762
000060 d8 88 13 bf 06 21 11 bd 2e 36 2d 3d 56 86 70 be
       -0.5763068 -0.035431884 0.042287998 -0.23488745
000070 43 35 63 be 7c eb 15 bd 5e b6 bc bc 7b 94 24 be
       -0.22188286 -0.03660153 -0.023036178 -0.16072266
000080 13 49 0b bf 18 00 d8 be 30 79 3e bf c6 eb 6e bc
       -0.5440838 -0.42187572 -0.7440367 -0.01458258
000090 5f 3e 91 bc 75 45 c8 bd 54 2b bf bd 1e 14 ef 3c
       -0.017729936 -0.09778873 -0.09334436 0.029184397
0000a0 ec 0d 64 bd d1 cd a6 3e 9a c2 b9 3e 75 c5 19 bd
       -0.05567734 0.325789 0.36281282 -0.037541825
0000b0 77 61 1a be 3d a8 aa be c6 dd b2 be 5c 4b 35 be
       -0.15076242 -0.3333148 -0.34934825 -0.17704529
0000c0 0a 20 3b be 9a 9d cd 3d 8c 00 8b be 89 01 bd be
       -0.1827394 0.10039826 -0.27148855 -0.36915234
0000d0 ba 63 af be a1 e5 c2 be 25 dc 82 be 6b 1d 82 be
       -0.34255773 -0.38065818 -0.25558582 -0.2541307
0000e0 83 b9 f3 be 7e cd a8 be 97 14 a4 be 28 c4 29 3e
       -0.47602472 -0.32969278 -0.3204696 0.16578734
0000f0 7c 49 c1 bd 6d 56 32 be 7f f9 bd be e4 a0 30 bd
       -0.09437844 -0.17415781 -0.37104413 -0.043122187
000100 4d b6 27 3d 4b 69 ba bc ca a1 c4 bd d0 5d 00 3e
       0.04094534 -0.022755286 -0.09601171 0.12535787
000110 25 8e ca bd 49 f3 3a 3e 8b 3c 84 be e6 c5 bb 3d
       -0.09890393 0.18256868 -0.2582744 0.091686055
000120 d4 17 ad 3d 8c 4f c2 be 49 33 6e 3d cd d9 a1 be
       0.084518105 -0.37951314 0.058154378 -0.3161148
000130 94 db 83 bf 67 c7 97 be 12 7a e7 bd e5 64 51 bb
       -1.0301385 -0.2964432 -0.1130258 -0.0031951007
000140 bc c0 a5 bc 62 b5 21 3e 45 f5 69 bd 07 4d 2f be
       -0.020233504 0.15791848 -0.057118673 -0.17119227
000150 0c 80 e5 be 4d de 3c be f4 c0 10 be d1 de 47 bf
       -0.44824255 -0.18444176 -0.14136106 -0.78074366
000160 c8 f5 57 bb 1a 4a 98 bc 61 cc a5 3d e2 96 15 3d
       -0.0032952894 -0.018590022 0.08095623 0.036520846
000170 45 87 c2 bc 0b 80 4e bd 50 b4 04 3e d7 ee 29 be
       -0.023746142 -0.05041508 0.12959409 -0.16595016
000180 7e c7 0e be 6b 54 75 be 16 9d 3e bd 39 dd bf 3a
       -0.13943288 -0.23957984 -0.046536528 0.0014638073
000190 ce ee c9 bd 98 1d 13 bf 14 e0 4e 3d ae 31 24 3a
       -0.098600015 -0.5746703 0.050506666 0.00062635064
0001a0 cb a8 31 3e 11 2d 53 be d6 11 0b bf 20 66 57 3e
       0.17349546 -0.2062266 -0.5432409 0.21035051
0001b0 77 db fb 3d 2c 57 fb bd 6d 81 b9 be 52 3d d4 3d
       0.12297719 -0.12272486 -0.36231557 0.103632584
0001c0 e7 4b dd 3d 03 7c ad 3d 08 bb 14 be bb ee 52 3d
       0.10805493 0.08470919 -0.14524472 0.051497202
0001d0 5f e5 e6 be 64 b3 f3 be 72 61 9b 3e ad 13 28 be
       -0.4509687 -0.47597802 0.30347782 -0.16413756
0001e0 99 e8 7d bd d7 ef 45 bd 5f 95 82 be 36 ef 82 be
       -0.0619894 -0.048324432 -0.25504586 -0.25573128
0001f0 43 cd c4 3d fa 4b 8c be 7a a6 9f 3d ac 2a e2 3d
       0.09609463 -0.27401716 0.07795425 0.11043295
000200 35 94 7a be 9b 55 d1 bc 57 54 71 3d f6 93 7c be
       -0.24470599 -0.025553515 0.058918323 -0.24665818
000210 fc 1a 0a be 89 83 7d 3d 68 95 db be eb 83 39 bd
       -0.13486856 0.06189302 -0.42887425 -0.045291822
000220 92 3b a6 be 63 66 67 bd 4c ab b5 3d 06 97 92 bb
       -0.32467324 -0.056494128 0.08870563 -0.00447357
000230 24 dc 18 bd 75 62 0e 3e 99 11 80 be d8 79 54 3d
       -0.037319317 0.13904746 -0.25013426 0.05187401
000240 a5 13 7d bd 1f b0 ae 3c 78 fb 4d 3c ff 04 c0 be
       -0.061786313 0.021324215 0.012572162 -0.37503812
000250 05 2c a5 be 8f 93 4b be cb 7e e7 3d 08 2a b4 3e
       -0.32260147 -0.19880508 0.11303481 0.35188317
000260 4f 28 d4 bd 15 7f be be 68 f4 fd bd 1f 1d af be
       -0.10359251 -0.3720633 -0.124001324 -0.34201905
000270 90 2a 16 be 5e 7a bf be a6 85 17 3f e7 0f 55 be
       -0.14664674 -0.37398046 0.59188306 -0.20806848
000280 d3 7f 1d 3e 2a e4 98 3d 59 b3 19 bc 38 b7 be 3e
       0.15380792 0.07465394 -0.009381139 0.3724916
000290 98 a1 b5 3c db 65 71 be 45 0c f1 bd 4b 9b 86 3e
       0.02217178 -0.23574011 -0.11769918 0.26290354
0002a0 91 ff 22 3e 59 57 05 bf 09 cc 2d be 5b f8 f7 bd
       0.15917803 -0.52086407 -0.16972364 -0.12107917
0002b0 b8 ba d8 3d e5 b6 bc be 2a a5 4b be d2 ae e3 bd
       0.10582489 -0.36858287 -0.19887224 -0.11117329
0002c0 4c 13 d4 be 8d 09 1e 3e c1 3b 33 bd f6 15 3a 3c
       -0.41420972 0.15433331 -0.043758158 0.011357775
0002d0 84 e0 30 3e 22 12 e9 3d 77 f4 e5 bc d6 80 55 3e
       0.17273146 0.11380412 -0.028070671 0.20849928
0002e0 78 be f7 3d 71 bd f8 bd 2d 8a a7 be b2 e4 9f bd
       0.12096876 -0.12145508 -0.32722607 -0.07807292
0002f0 ba 93 84 3d 88 a3 80 bc f6 e0 0e bd 4e fd 00 3e
       0.06473489 -0.015702978 -0.03488251 0.12596628
000300 ef 1b 73 be a0 22 22 3e 95 c7 ca 3e 8c 04 5c 3d
       -0.23741125 0.15833521 0.39605394 0.053715274
000310 9a a0 b1 3e 29 a6 47 bd 0f 3a bb be d5 27 9d 3e
       0.34692842 -0.048742447 -0.36567733 0.30694452
000320 23 66 82 3d f4 5c 2f bc f0 5e a2 3c f7 50 23 3e
       0.06367137 -0.010703314 0.01982066 0.15948854
000330 02 b9 2f 3e 24 a0 2d 3e a9 fe 3f 3d 01 5b 0d 3e
       0.17160419 0.1695562 0.046873722 0.13804246
000340 1d 94 07 3e 45 1a 81 be 8d b6 d0 bb 8f 24 0c be
       0.13240094 -0.25215355 -0.006369418 -0.13685821
000350 c2 03 5c be 02 27 0a 3e 08 74 e2 bd 04 74 57 bd
       -0.21485808 0.13491443 -0.110572875 -0.052600875
000360 32 ab 21 3d 06 3a 61 bd 9a 6a 19 3e 39 b7 2f 3e
       0.039469905 -0.054986976 0.14982072 0.17159738
000370 c5 73 d7 be ab 62 bd bd 5f 75 ee 3d 6c c9 82 be
       -0.42080513 -0.09247335 0.116434805 -0.25544298
000380 63 6c 11 3f 80 76 3b 3d 81 59 36 be da 13 56 3e
       0.5680601 0.045767307 -0.1780758 0.2090601
000390 68 5d a8 3d 1e d5 78 bd f2 6f 92 3d 42 17 84 3e
       0.08220941 -0.06075012 0.07150258 0.25798994
0003a0 77 50 e1 bd d1 dc 89 be 7b a7 58 bd 69 01 85 be
       -0.110016756 -0.26926282 -0.052894097 -0.25977638
0003b0 2c 37 86 3c 89 cb ec 3e ff ba 0d bd fe cc 46 3e
       0.01638373 0.46249035 -0.03460216 0.19414136
0003c0 b3 89 90 bd ba 96 04 bc f4 a5 a2 3d 3a 71 40 3d
       -0.07057514 -0.008092577 0.07941809 0.04698298
0003d0 04 8d 7c 3d 8f 28 91 be 7f 90 5f 3d b6 68 8c 3e
       0.06165792 -0.28351256 0.05458116 0.27423638
0003e0 bb e5 75 3e 28 f1 61 3d b2 58 de 3d 1b 56 c7 3e
       0.24013416 0.055161625 0.10856761 0.3893288
0003f0 de f5 e5 3d 8b b5 10 3d 5e 8d 03 3e 8d fe d4 bc
       0.11228536 0.035329383 0.12846896 -0.026000286

network_body.linear_encoder.seq_layers.2.bias f4 [128]
000000 1d a7 9c 3c 02 d8 2c 3c 3d 9b e4 bc 2c 45 22 bd
       0.019122655 0.010549547 -0.027906055 -0.03961675
000010 f9 4e da 3d 98 75 7d bc cc dd 04 be 32 55 4e be
       0.10659594 -0.015469931 -0.12975234 -0.20149687
000020 0e 02 39 3d 3d e6 98 bd 82 36 9c 3c 55 f3 bf bd
       0.045167975 -0.074657895 0.01906896 -0.09372584
000030 09 67 5a be 87 32 74 be dc 09 d5 bd 75 ce f2 bd
       -0.21328367 -0.238474 -0.10402271 -0.11855785
000040 08 c3 28 be b9 b3 e5 3d c2 53 a1 bd d2 82 4b be
       -0.16480649 0.1121592 -0.07877304 -0.19874123
000050 6d 84 ef bd 2d 9e 4e be 4a 30 57 3d 7a 3b 46 be
       -0.1169518 -0.20177527 0.052536286 -0.19358626
000060 47 72 7f 3d 96 06 ba bd 17 c4 a4 bd 17 83 23 be
       0.062364843 -0.090832874 -0.08045214 -0.15967976
000070 cb 7d 15 3d ab 73 fb bc 6e 2b 6d bd 0e 86 10 be
       0.03649692 -0.030694803 -0.057902746 -0.14113638
000080 9c b7 d5 3c a2 3d f5 bd bf ba bc bd 09 44 43 bd
       0.026088528 -0.11974646 -0.092153065 -0.047672305
000090 9e 9a 5a 3d bd 5f 2d be fc d1 84 3d 73 56 08 be
       0.05337011 -0.16931053 0.06485364 -0.13314228
0000a0 b3 64 47 bd 08 4b 6f bc d1 a6 ea bd 1d df 27 3d
       -0.04868002 -0.014605291 -0.11457599 0.04098426
0000b0 ec 76 3f bd e5 4f 07 be 21 00 41 bd 5e 50 b5 bd
       -0.046744272 -0.13214071 -0.047119264 -0.088532194
0000c0 07 21 0c be eb e2 b8 bd 0d aa 79 be b5 1d 1b be
       -0.13684474 -0.09027656 -0.24381275 -0.15148051
0000d0 e6 26 7c be 6d df 83 be 99 2c cf bb 13 c1 94 bd
       -0.24624214 -0.25756398 -0.006322455 -0.072633885
0000e0 35 33 11 3c 0c 96 c7 be 3c 38 51 be 58 8f e3 bd
       0.008862306 -0.38981664 -0.20431608 -0.11111325
0000f0 0d dd e2 bc e9 1a d2 bd d3 a8 f4 3c 06 cd f1 bd
       -0.027693296 -0.10259039 0.029865658 -0.11806683
000100 25 a6 d8 bd cd a6 c8 bd c2 8a 47 be 9d bd 3d be
       -0.105785646 -0.0979744 -0.19486526 -0.18529363
000110 26 1c 1a 3d 50 60 8e bd d0 dd 11 be 5d eb 81 bd
       0.0376245 -0.06951964 -0.14244771 -0.0634372
000120 00 a3 5a bd 9a a1 1a 3e 55 80 08 be cd bf 17 3e
       -0.053378105 0.15100709 -0.13330205 0.1481926
000130 05 62 0f be cb d9 c4 bd ee 20 cc bc d0 38 5e 3d
       -0.14002235 -0.09611853 -0.024918046 0.0542534
000140 10 e7 7e bd a2 9f a8 3d 49 c9 06 bd e9 49 d3 bd
       -0.062232077 0.082335725 -0.032906804 -0.103168316
000150 ed 79 61 be 83 95 1e be e3 d5 2e 3c 80 c5 b3 bd
       -0.22019167 -0.15486722 0.010671112 -0.087779045
000160 4b a5 d4 bd a2 31 cf bd 64 39 3c be 56 7a ba bd
       -0.1038309 -0.101168886 -0.18381268 -0.09105365
000170 a9 3d 0c be 7a b1 6f be ec f4 69 be 56 38 e8 3d
       -0.13695396 -0.23407546 -0.22847337 0.1133887
000180 9b bb 68 bc 35 db 07 be bb ce 7b 3d e1 5a 3e 3a
       -0.014204885 -0.13267215 0.06147645 0.0007261467
000190 0c 17 a6 3c 5f 1b 93 3c fb 6c f1 bd 7c b0 31 be
       0.020274661 0.017957387 -0.117883645 -0.1735248
0001a0 c3 1f 84 bd a2 e5 ef bd 42 a1 ed bd ee 90 df 3d
       -0.064513706 -0.11713721 -0.11603023 0.10916315
0001b0 4b 80 3e bd 67 c9 88 bc 2d d6 9a be 47 4d 46 be
       -0.04650907 -0.016697599 -0.30241528 -0.19365416
0001c0 14 1e 01 be c5 51 03 3c 5c 94 3c be 86 f2 35 be
       -0.1260913 0.008015101 -0.1841597 -0.17768297
0001d0 f0 1f 78 be 7d f7 26 be 4e 38 97 bd b5 cd 91 bd
       -0.24230933 -0.16305347 -0.07383786 -0.07119314
0001e0 31 f8 04 be ec 47 1c be cc 10 8e 3c 83 0f 43 3e
       -0.12985303 -0.15261811 0.017341994 0.19048886
0001f0 64 b3 d6 bd 9a 8c 8b bd df 87 dd bd 33 d4 aa 3d
       -0.10483435 -0.06813927 -0.10816931 0.08341255

action_model._discrete_distribution.branches.0.weight f4 [3, 128]
000000 4e 65 5e 3e 80 a0 35 be ff 33 0e 3f 68 c6 15 bd
       0.21718332 -0.17737007 0.5554809 -0.036566168
000010 ec b0 ff 3d 6a 57 b4 bc 0e ea 8d 3e 5b 1b 34 be
       0.12484917 -0.022014339 0.27717632 -0.1758856
000020 55 d8 2d be 1d a6 8e 3e 88 86 83 be 79 91 2d be
       -0.16977055 0.2786111 -0.25688577 -0.16950025
000030 64 99 35 3d 9f 9d 88 3e 25 b8 1e be ee bf 77 be
       0.044335738 0.26682755 -0.15499933 -0.24194309
000040 30 8c 2c be bb c7 fc bd 3d a1 67 3c aa ef 3f 3d
       -0.16850352 -0.12342783 0.014137563 0.04685942
000050 2e 5e f8 3e 6e c0 84 be 48 35 54 3d f4 fa 85 bb
       0.48509353 -0.25928062 0.051808625 -0.004088754
000060 14 b8 34 3e ea bc 7b 3b 81 7e 86 3c 4a 6c ea bd
       0.17648345 0.0038412162 0.016417744 -0.11446436
000070 cf 7a f5 3d f7 16 36 3d 8c 26 93 3c 90 28 1f 3f
       0.119863145 0.044455495 0.017962717 0.6217127
000080 f9 fd 39 bd 43 a6 c5 3e 20 f9 17 bd 1d 12 21 3d
       -0.045408223 0.3860341 -0.03710282 0.039323915
000090 73 0b 05 bf 58 5c 94 3d ed a7 89 3c ac c1 76 bd
       -0.51970595 0.07244176 0.016803706 -0.060243294
0000a0 8c be 27 3d 5f c1 b5 be 96 d5 7d be 5d b6 a7 be
       0.040953204 -0.35499093 -0.24788508 -0.3275632
0000b0 21 25 34 bd 82 d1 05 3e b1 6b 3c 3d ec 5c 9d 3d
       -0.04398072 0.13068202 0.04600114 0.07683739
0000c0 47 cc c4 be 8e 2c 62 3c b1 6f 78 3e 3b b1 d9 bd
       -0.384371 0.013804568 0.24261357 -0.10629507
0000d0 62 e6 ca 3e 75 f0 ef ba e4 49 4c bd 9f 06 07 3d
       0.39628893 -0.0018305915 -0.049875155 0.0329653
0000e0 3c a8 4c bd cc c6 90 3d 4e 02 10 be ae 1e f2 bd
       -0.04996513 0.070691675 -0.14063379 -0.11822258
0000f0 f8 6e 20 bc ba 64 03 be 08 e3 74 be 76 66 7c be
       -0.009792082 -0.12831393 -0.2391473 -0.24648461
000100 76 a0 ec bd 46 75 b0 be 24 a4 29 bd 9f ee 29 3d
       -0.11554043 -0.34464473 -0.041416302 0.041487332
000110 42 eb f5 be 6d 71 f2 3d d0 1a 36 be f0 2f 37 be
       -0.4803105 0.118380405 -0.17783666 -0.1788938
000120 af ab b2 3d 54 25 f3 be 4a 4e 0b be 78 09 4a 3e
       0.08724152 -0.47489417 -0.13604084 0.19730175
000130 2a 7a b9 bd 1c f9 30 be ed f2 50 bf b2 77 c1 bd
       -0.09056504 -0.17282528 -0.81620675 -0.09446658
000140 93 69 65 3e 5d d7 c9 bd 47 6b fa 3d 3b 40 0b 3e
       0.22403555 -0.098555304 0.12227493 0.1359872
000150 3d 55 de 3d 53 7a da be 78 04 6c be af 15 18 be
       0.10856102 -0.4267145 -0.2304858 -0.14852022
000160 73 5f db 3d cb ba 45 be 37 f4 41 bd 46 6c 43 3e
       0.10711565 -0.19309537 -0.047352042 0.19084272
000170 a5 14 07 bf e7 a9 b3 bd 86 3b 41 be e5 98 31 bf
       -0.52765876 -0.08772641 -0.18870363 -0.69373924
000180 8a a0 c4 be df 78 b9 3c e7 45 24 bf d2 95 43 be
       -0.38403732 0.022640644 -0.6416916 -0.1910012
000190 2a 53 68 be 6d 2e ae 3d 95 17 1a bf 35 d3 37 bd
       -0.22687975 0.08504949 -0.60192233 -0.044879157
0001a0 35 be eb 3d 6a 01 94 bc a0 ed a7 3e 9f b0 78 be
       0.115108885 -0.01806708 0.3279848 -0.24286126
0001b0 42 b1 8f be 90 32 cb 3c 28 0a 02 bf 6b 7a 1a be
       -0.28064924 0.024804384 -0.5079675 -0.15085761
0001c0 a0 57 e3 be 4e 6d ad be fd 64 1c be 9d 34 23 3e
       -0.4440279 -0.33872455 -0.15272899 0.15938039
0001d0 e6 d8 45 3d 7f ca ac be 34 79 84 3d 19 62 3b 3e
       0.048302554 -0.33748242 0.0646843 0.1829914
0001e0 31 6b a1 3d ec b7 15 bf b3 b0 02 3e 97 15 d2 3c
       0.07881773 -0.5848377 0.12762718 0.02564506
0001f0 00 4e de bd d7 99 bb 3d e8 96 48 be 93 df 79 be
       -0.10854721 0.09160202 -0.19588816 -0.24401693
000200 e5 b6 a1 3e d7 1a ec bd 18 4f 97 3e c0 0d 55 be
       0.3158485 -0.11528557 0.2955253 -0.20806026
000210 99 3d 37 be f1 65 8c be 7b c1 e8 bd 8a 16 77 3e
       -0.17894591 -0.27421525 -0.113650285 0.24129692
000220 4a bf 3f 3e 5b b3 6e be e8 11 6d 3e 46 dc 04 3c
       0.18725315 -0.23310606 0.23151362 0.008109158
000230 91 82 8c 3d 2d 8d 5d 3f d5 53 a1 3c 5f 29 a1 3e
       0.06860841 0.8654354 0.019693295 0.31476876
000240 48 b8 f9 3c 6f 30 6d be 09 bb 39 be 7c f4 a2 bd
       0.03048338 -0.23163007 -0.18137754 -0.07956788
000250 0d 79 f6 be 8f 9c 3b 3f e5 b3 b7 3e 1e 83 29 be
       -0.4813923 0.73285764 0.35879436 -0.16553923
000260 13 52 22 bf 71 bb 81 be 1b 0a 2a be 5e eb 2b be
       -0.63406485 -0.2533832 -0.16605417 -0.16789004
000270 3b cb 20 bf c4 d6 41 3d ec 21 b0 bc 9c e0 86 bf
       -0.62810105 0.047323957 -0.02150055 -1.0537295
000280 88 b2 65 bf e8 a1 f4 3b e0 8c aa ba 10 44 88 bd
       -0.8972554 0.00746559 -0.0013011955 -0.06653607
000290 b9 c0 2f 3e b7 f2 b8 be 63 e4 ef bd ed 97 66 be
       0.17163362 -0.36122677 -0.11713483 -0.22518893
0002a0 68 14 cb 3e 96 b6 12 be 82 46 fe bc 27 56 7c 3e
       0.39664006 -0.14327464 -0.03103948 0.2464224
0002b0 1c c4 d4 3c 2d 82 a8 bf e2 96 70 3e 74 e9 1d bd
       0.025972418 -1.3164726 0.23495057 -0.038552716
0002c0 78 ef c3 3c e0 b6 9a 3e c3 83 da be 59 af 97 3d
       0.023917899 0.30217648 -0.4267865 0.07406492
0002d0 fd 8e 3d be 54 62 fc 3d e0 ca 26 bf 97 7a 8c bd
       -0.18511577 0.12323442 -0.6515331 -0.0685932
0002e0 1b 16 48 bd 1d 41 bf be 77 07 b5 bc b4 82 21 bf
       -0.048849206 -0.37354365 -0.022098286 -0.6309006
0002f0 a9 e7 1d bd 44 84 92 bc 8d d5 95 3e 82 70 54 3e
       -0.038551006 -0.017885335 0.2926449 0.20746043
000300 0b d3 72 bd 63 45 5b 3e d9 23 0f be 47 4b e9 3e
       -0.059283298 0.21413188 -0.13978519 0.45565245
000310 be dd 00 bf d1 b6 8f bb e0 df 5b 3d eb 5d 1a be
       -0.5033835 -0.004385807 0.0536803 -0.1507489
000320 18 7e a0 bd bc c2 98 bd eb 9a ff 3d e5 11 86 bf
       -0.078365505 -0.07459018 0.1248072 -1.0474211
000330 c2 29 12 be f9 b4 85 3d f4 ba 54 3e ee 57 53 3e
       -0.14273742 0.065286584 0.20774442 0.20639011
000340 f7 cd 02 be 8d 6f 8f bf 13 71 bb be 0e 56 82 be
       -0.12773882 -1.1205918 -0.36609706 -0.2545628
000350 0c 1a 2c bf b9 c6 a2 3e 27 2b e2 3b c7 80 66 3e
       -0.67227244 0.31792238 0.006902117 0.22510062
000360 0c 80 f9 bd 13 da f1 3d ec dc a8 3d 5a 97 1f be
       -0.12182626 0.118091725 0.082452625 -0.1558508
000370 c7 e6 6a bc 60 46 52 3e 0d 53 95 3d df db bc 3e
       -0.014337248 0.20534658 0.07291231 0.36886498
000380 37 b7 5f be f8 bb bb bd 51 dc d3 3e 49 b9 39 3d
       -0.21847235 -0.091667116 0.41379026 0.045342717
000390 57 d0 dc be 7f f1 a8 3d 03 92 c8 3e 0b c6 4c 3e
       -0.431277 0.08249187 0.39173898 0.19997422
0003a0 0c 86 6c bf fa cd 3b 3f 67 f2 32 bf 20 29 56 bf
       -0.9239204 0.7336117 -0.69901127 -0.836565
0003b0 88 f7 38 3e a1 cc 18 be 1d 53 0a bf bd 6a f7 3c
       0.18063176 -0.1492181 -0.5403307 0.030202264
0003c0 36 95 b3 3d 7e 36 97 3e 80 5e 1a 3e 81 07 1c bf
       0.08768694 0.29533762 0.15075111 -0.6094895
0003d0 ff d9 79 3f 07 b5 e3 3d 41 5c 8b 3e b4 13 41 bd
       0.9759826 0.111185126 0.27218822 -0.04713793
0003e0 fe 84 b1 bc 5a a8 b7 be bf 8b 4c bf 76 29 0f bf
       -0.02166986 -0.3587063 -0.79900736 -0.5592264
0003f0 8a a2 cb 3e 24 bb f7 bd 84 2c 96 be bc 37 49 3e
       0.39772445 -0.12096241 -0.29330838 0.19650167

action_model._discrete_distribution.branches.0.bias f4 [3]
000000 e9 b1 8c bd 4c ae 63 be d6 68 e8 3d
       -0.06869871 -0.22234458 0.11348121

action_model._discrete_distribution.branches.1.weight f4 [2, 128]
000000 84 b6 2d be cb de c7 3d 34 de e4 be cf 01 23 be
       -0.16964155 0.09759291 -0.44700778 -0.15918659
000010 3d f5 83 3d 4c c6 7f 3f 30 34 cc 3d a2 92 ed 3e
       0.0644326 0.9991195 0.099708915 0.46400934
000020 09 7c 8d 3e c1 34 b0 3d 73 df 14 be 21 93 e1 3d
       0.27633694 0.08603812 -0.14538364 0.11014391
000030 4f eb 32 3c 5e 03 90 3d d2 88 ad 3d 7a ea 86 bc
       0.01092036 0.07031892 0.08473362 -0.016469229
000040 26 cb 35 be f5 31 43 3e a7 9f 88 be 36 6a 46 bd
       -0.17753276 0.19062026 -0.26684305 -0.048441134
000050 aa e1 db bd df f0 11 bf 03 77 b9 3e 3a a8 4f bd
       -0.107364014 -0.57008165 0.3622361 -0.050697543
000060 99 87 71 bd f3 f9 25 3d df 4d 19 3d 87 87 89 bd
       -0.058967207 0.040521573 0.03742778 -0.06715303
000070 29 7a 83 3e a2 f2 b8 bd c4 03 3f 3e 18 b3 5c 3d
       0.25679138 -0.090306535 0.1865378 0.053881735
000080 7a 5f 01 3f 3a ab d7 3c 65 f7 ec 3d e4 f3 4d be
       0.5053631 0.026326764 0.11570624 -0.20112568
000090 d1 d2 d3 bc d0 0f 29 bd 0d fe fd be 9b ff 62 bd
       -0.025857361 -0.041274846 -0.49607888 -0.055419546
0000a0 70 8b 60 3e 87 cd b3 bc 77 05 6c 3d 05 5b 07 3e
       0.21928191 -0.021948589 0.0576224 0.13218315
0000b0 ea a9 75 be 59 f9 17 3c da 5c e7 bc 46 bd 84 3d
       -0.23990598 0.009275758 -0.028242517 0.064814135
0000c0 52 d3 fb 3d eb b8 ce be d1 a5 35 be 3a 68 04 3e
       0.122961655 -0.40375456 -0.17739035 0.12930384
0000d0 56 6f 43 bf 3c cb 15 be 62 05 51 3f 49 3c 0d be
       -0.7634176 -0.14628309 0.8164884 -0.13792528
0000e0 6b a7 5f 3c 6a e9 64 be cd 76 5a bb 8d 90 fe bc
       0.013650755 -0.22354665 -0.003333497 -0.031074787
0000f0 dc 52 8e 3e ac 05 6b 3e bc 7f 9d 3e 70 9b 38 be
       0.27797592 0.22951382 0.30761516 -0.18028045
000100 70 93 52 bd ed 59 d4 3d 7e 76 3e be fb 15 90 be
       -0.05141014 0.103687145 -0.18599889 -0.2814177
000110 8f 4d af 3d 11 6c e2 3e d4 1e e6 bd 1f a4 07 3e
       0.08559715 0.44223073 -0.11236349 0.13246201
000120 64 b4 a5 bd b1 23 66 be bf 51 1f be bd ac c9 3d
       -0.080910474 -0.22474553 -0.15558527 0.098474
000130 ad bb 94 3c ff 55 0b 3e d6 50 e9 be cc 81 09 3e
       0.018155897 0.13607024 -0.45569485 0.1342842
000140 de eb 21 be ed 33 91 bc e4 fd 0d 3e bc 30 b9 bd
       -0.15812632 -0.017724955 0.13866383 -0.090424985
000150 ed 3b 02 3c d9 59 5a 3d 5c 5c 77 3d b6 6a 04 be
       0.007948858 0.05330834 0.060390815 -0.12931332
000160 17 8d 65 bd ee 6a f9 3c 30 2d 61 bc 17 12 e9 bd
       -0.056042757 0.030446496 -0.013743684 -0.113804035
000170 0b 29 8c be 9d fd c3 bd 01 5f f2 3b b8 b8 5f bd
       -0.27375063 -0.09569857 0.0073965793 -0.05461952
000180 fb 10 5a 3d 99 5f bc bc b9 f1 5b 3e a3 11 d5 3c
       0.05323885 -0.022994803 0.21478929 0.026009386
000190 b5 11 24 3f e8 bd 0e bd bd 53 c6 bd 40 7f c0 bd
       0.6408952 -0.034849077 -0.096839406 -0.09399271
0001a0 81 5a 44 3e 96 1e 45 bf f9 b1 c8 bd 4a 2e a0 3e
       0.1917515 -0.76999795 -0.097995706 0.31285316
0001b0 4e 8c 02 3e 04 19 55 3e 29 b5 b7 3e 19 f5 32 be
       0.12748834 0.20810324 0.35880402 -0.1747631
0001c0 3e 63 9a 3c ad 18 01 be e5 02 2b bd 1d ac 15 3e
       0.01884615 -0.1260707 -0.041750807 0.14616437
0001d0 13 94 4c bf e9 88 27 bf 21 7a 1b 3f a3 82 93 3d
       -0.79913443 -0.65443283 0.6073323 0.07202651
0001e0 94 f1 f4 be 52 ff 97 3e b2 27 c7 be d9 43 c3 3e
       -0.4784056 0.2968698 -0.38897473 0.381377
0001f0 d0 59 24 be 03 cd 4a 3c 79 62 31 3e 7a 7e 56 3b
       -0.16049886 0.01237798 0.1732272 0.0032729194
000200 04 2a 3b 3e a1 3f a5 bd 66 4f e2 3e e0 c9 0f 3e
       0.18277746 -0.08068777 0.442012 0.14041853
000210 39 d3 8b bd cf 67 81 bf 75 c3 fe bd 4a 38 ee be
       -0.06827397 -1.0109805 -0.12439624 -0.4652732
000220 b8 e7 8f be 9c eb 86 bd 10 af 0b 3e ea 76 da bd
       -0.28106475 -0.06587908 0.13641 -0.10667212
000230 95 68 5f bc 3e a0 99 bd 4e c1 de bd dc aa b8 3c
       -0.013635774 -0.07501267 -0.10876714 0.02254241
000240 24 9f 3d 3e 95 2a 36 be 10 9a 97 3e cd 85 65 3d
       0.18517739 -0.17789681 0.29609728 0.056035805
000250 ba c5 b2 3d 2c 90 13 3f bd 45 b9 be 40 58 50 3d
       0.087291196 0.57641864 -0.3618602 0.05086541
000260 55 47 9b 3d d2 8c 47 bd 9f f1 ed bc ab 35 a0 3d
       0.07581965 -0.04871828 -0.029045878 0.07822736
000270 08 59 81 be 76 b8 9b 3d 4c 5b 31 be 97 eb 77 bd
       -0.25263238 0.076035425 -0.17319983 -0.06052741
000280 9d fa 00 bf 6c a2 17 bd ee 49 dd bd 37 22 6b 3e
       -0.50382406 -0.037020132 -0.108051166 0.2296227
000290 09 e4 a5 3c 38 d5 4f 3d 8e 2c 02 3f ae 7f 65 3d
       0.020250337 0.05074045 0.50849235 0.056029968
0002a0 81 cc 54 be 9a dd 02 3d 5a 67 80 bd 57 35 1b be
       -0.20781137 0.031949617 -0.06269713 -0.15157066
0002b0 c6 93 74 3e 71 ca 5c bb 13 b2 28 3d 0f 94 7a bd
       0.23884496 -0.003369 0.04118545 -0.061176356
0002c0 21 1b c4 bd 10 91 d3 3e 4b 7e 2a 3e 52 de 0b be
       -0.09575487 0.4132161 0.1664974 -0.13659027
0002d0 f6 cd 40 3f a1 11 2e 3e 97 da 51 bf 97 0f 07 3e
       0.7531427 0.16998912 -0.81974167 0.13189541
0002e0 0b cb 5a bc 4a 83 6f 3e 53 ac 06 bb ea 56 12 3d
       -0.013354073 0.23389927 -0.002054949 0.03572742
0002f0 b7 03 8d be 2f b8 75 be bd dd a5 be 74 76 2f 3e
       -0.27541897 -0.23996042 -0.32395735 0.1713503
000300 92 ec 27 3d c5 09 e1 bd 8e 16 34 3e 6b bf 8f 3e
       0.040997095 -0.109881915 0.17586729 0.28075728
000310 15 81 b6 bd 42 82 e0 be 4c 12 e0 3d cb db 06 be
       -0.08911339 -0.4384938 0.1094099 -0.13169782
000320 24 4e 9a 3d 89 6f 5e 3e 9f 8e 1e 3e 49 e5 b4 bd
       0.075344354 0.21722235 0.15484093 -0.08832795
000330 5d d0 08 bd 49 0b f1 bd 28 3a e8 3e b7 f5 0c be
       -0.033401836 -0.117697306 0.4535687 -0.13765608
000340 e8 4e 1f 3e 0e ac 2e 3d e2 4c 1a be 6b 0d e5 3d
       0.15557444 0.042644553 -0.15068391 0.111842
000350 fb 45 8f bb a1 ad d9 bc a9 50 78 bd f2 8c 0b 3e
       -0.004372356 -0.02657205 -0.0606238 0.13627985
000360 ce 17 47 3d 21 5d 06 bd 91 21 f5 3c 8f a4 03 3e
       0.048606686 -0.03280366 0.029923232 0.12855743
000370 62 57 8a 3e e7 cc bd 3d 4f f7 88 bc 9f 3a 1a 3d
       0.27019793 0.09267598 -0.016719488 0.03765356
000380 d5 4a 59 bd ec 9c f6 3c 8d 5a 56 be 3d 03 eb bc
       -0.05304988 0.030104123 -0.2093298 -0.028688068
000390 8d 58 21 bf ca ad 1e 3d 57 7f ed 3d 80 83 c8 3d
       -0.6302574 0.038739957 0.11596554 0.09790707
0003a0 c4 20 4f be 02 85 42 3f 13 8b a9 3d 5e 46 a8 be
       -0.20227343 0.75984204 0.082784794 -0.32866186
0003b0 da f8 f7 bd f6 8f 6f be da 38 b5 be 02 98 40 3e
       -0.121080115 -0.2339476 -0.35394937 0.18807986
0003c0 ab c6 10 bd 8e 7d 15 3e 92 15 32 3d 8f 37 0d be
       -0.035345715 0.14598677 0.043477602 -0.13790725
0003d0 21 f9 48 3f 29 fc 26 3f 47 bf 18 bf 2f df b6 bd
       0.7850514 0.65228516 -0.59666866 -0.08929288
0003e0 bb 00 00 3f 95 e7 96 be bf 54 ca 3e 7c ac c0 be
       0.50001115 -0.29473558 0.3951778 -0.37631595
0003f0 b8 83 1f 3e 89 aa 4e bb 62 04 3c be 62 c3 83 3c
       0.1557759 -0.0031534752 -0.18361047 0.016084377

action_model._discrete_distribution.branches.1.bias f4 [2]
000000 82 a9 58 3e 77 a9 58 be
       0.21158412 -0.21158396

action_model._discrete_distribution.branches.2.weight f4 [2, 128]
000000 82 6e 11 3e 95 45 8b 3d 42 52 aa 3e ed 4c 69 bd
       0.14202312 0.06800381 0.33265883 -0.056958128
000010 3b ca 47 3e e5 e4 cc 3e a4 ef 87 be db d1 92 bd
       0.19510739 0.40018383 -0.2655002 -0.07168933
000020 ef 88 89 be 59 50 8e be 63 e7 56 be 6d 8b 2f bd
       -0.26862285 -0.27795675 -0.20986705 -0.042857576
000030 6a a3 97 3c 57 f7 4e 3c 9e 9d c5 bc 07 5e 8b ba
       0.01851054 0.012632213 -0.02412301 -0.0010632881
000040 0b 35 0c be 44 e7 83 be 46 ba 96 3c b3 42 0d 3e
       -0.1369211 -0.2576238 0.018399369 0.13794975
000050 db c3 bc be 79 0c 26 bf 23 89 5b 3e 3b a2 8d 3c
       -0.36868176 -0.6486278 0.21439032 0.017289272
000060 88 3b ef 3e 32 41 2a 3e 46 9d 34 bc f3 db c2 3d
       0.46725106 0.16626433 -0.011023825 0.09514608
000070 23 2b 1d 3e 22 24 ae be a2 50 0b 3d ea 4b 88 be
       0.15348487 -0.34011942 0.034012444 -0.26620418
000080 29 2c 1e 3f d1 75 a4 3d 63 b2 b2 3d ad 37 93 3f
       0.61786133 0.08030284 0.08725431 1.1501366
000090 71 00 48 bc 27 86 bf 3d 40 9b 53 be 78 79 c2 3d
       -0.0122071365 0.093517594 -0.20664692 0.094958246
0000a0 02 02 85 3d 7c 1f ac bc 0e 65 4c 3e 8d 2c e1 3d
       0.064945236 -0.021011107 0.19960424 0.109948255
0000b0 59 56 18 3f 96 68 35 3c 9a 3e 71 bd 5b b9 fe bc
       0.59506756 0.0110722985 -0.058897592 -0.031094244
0000c0 46 85 02 3e 74 e0 cb bc 47 37 ff bd 63 b1 1e 3e
       0.12746152 -0.024887301 -0.12461715 0.15497355
0000d0 7d c3 50 be d3 c8 c2 3d 2c e0 96 bd b2 80 e0 bd
       -0.20387073 0.095109604 -0.07366976 -0.10962047
0000e0 4f 1e 54 3e c4 d8 a7 3e 3f a8 d8 bd 9f f2 d6 3e
       0.20714687 0.32782567 -0.105789654 0.4198198
0000f0 55 27 c8 bd 35 40 24 bc c4 30 0c 3e 53 24 ae 3e
       -0.09773127 -0.010025074 0.13690478 0.34012088
000100 27 44 65 bd e1 37 de 3d 11 30 b7 3e c5 ef bf bd
       -0.0559732 0.10850502 0.3577886 -0.09371904
000110 52 8b 47 3f 66 25 d6 bd 12 f9 bc 3d 6f bd 1e 3e
       0.7794696 -0.10456352 0.09227194 0.1550195
000120 8f c5 33 3e 2c 54 85 bd c8 b2 5c bc 55 26 31 3f
       0.17555831 -0.06510195 -0.013470359 0.69199115
000130 11 d9 76 3e cd 6e cc 3e f7 61 57 3e 53 f1 28 be
       0.24106242 0.39928284 0.21033464 -0.16498308
000140 00 f8 0a be d3 a3 d2 3e 16 c9 1e 3e ff 14 a6 bd
       -0.13571167 0.41140613 0.15506396 -0.081094734
000150 98 3d 54 bd 76 13 b6 3e b0 51 ff 3d a9 d9 45 3f
       -0.051816553 0.35561723 0.124667525 0.7728525
000160 f7 96 74 3e 3b c8 d8 bd 54 ce 10 3d 99 23 f5 bd
       0.23885714 -0.10585066 0.03535302 -0.1196968
000170 32 0d ac be 1a f4 d5 3e 83 86 02 3d e1 ef 13 bf
       -0.33603817 0.41787797 0.03186656 -0.577879
000180 4a 38 b6 3e 2a dc a5 38 f8 3a 52 3f 0d 88 a2 3e
       0.3558982 7.908822e-05 0.8212123 0.31744424
000190 e2 d1 b6 be d5 26 c2 3c e3 0d 08 be f4 df f2 bd
       -0.35707003 0.023700157 -0.13286547 -0.11859122
0001a0 da 37 96 3e f1 b7 72 bf e1 e6 3f bd 25 b4 4a 3d
       0.29339486 -0.9481192 -0.046851043 0.049488205
0001b0 40 19 83 b9 f5 35 51 3f 34 89 27 bd 5b c6 52 3e
       -0.0002500508 0.81722957 -0.04090233 0.20583479
0001c0 68 b3 f0 3c d5 08 81 3d 2f 4d 23 3e 88 c0 68 3c
       0.029382423 0.06300513 0.15947412 0.014206059
0001d0 cb eb 46 bf 91 83 9c be 4c 4a c6 bc 2f 60 fe bd
       -0.7770354 -0.30569127 -0.02420535 -0.12420689
0001e0 4d a0 7c be 5f 84 fd bd df 20 87 bd 4a 93 87 3e
       -0.24670525 -0.123787634 -0.065980665 0.2647956
0001f0 4f 16 a8 3e 4b 74 2c 3d 4f fc 17 3e 36 47 45 bd
       0.3282952 0.042103093 0.14842342 -0.048163615
000200 6e 29 30 be 87 23 8d bd 75 41 aa be 90 fb a5 3d
       -0.17203304 -0.06891542 -0.33253065 0.08104622
000210 d2 11 49 be d3 fc d1 be d7 db 87 3e 96 ac 9f 3d
       -0.19635704 -0.41013202 0.26534912 0.0779659
000220 66 03 8e 3e 68 8f 8d 3e 63 f0 51 3e a1 64 22 3d
       0.27736968 0.27648473 0.20501857 0.03964675
000230 2a c7 bc bc 14 e6 9e bc df 06 8d 3b 33 46 16 bb
       -0.023044188 -0.01939682 0.0043037976 -0.0022930026
000240 dd d5 fd 3d 47 b4 7c 3e 3f 36 c3 ba 91 c8 e6 bd
       0.12394307 0.24678145 -0.0014893486 -0.11268724
000250 d9 c3 bb 3e 91 23 24 3f 19 75 48 be 0a ba 96 bc
       0.36672857 0.6411677 -0.19575919 -0.018399257
000260 2a fd f1 be 71 a3 21 be 55 74 2b 3d 6a 6a be bd
       -0.4726346 -0.15785004 0.04185899 -0.092976406
000270 43 6f 1f be 49 d1 ad 3e 14 12 f3 bc 58 57 8e 3e
       -0.15569787 0.33948734 -0.029671706 0.27801013
000280 7f 09 1a bf e6 fb b1 bd 16 d1 a5 bd 20 1d 92 bf
       -0.6017074 -0.08690624 -0.080965206 -1.1415138
000290 29 d7 ed 3c 0f de b2 bd 43 64 53 3e d3 59 d5 bd
       0.02903326 -0.087337606 0.20643716 -0.10417523
0002a0 1b c6 92 bd c3 ec 95 3c 76 cf 5e be 4d 14 d6 bd
       -0.07166692 0.018301373 -0.21758828 -0.10453091
0002b0 e6 98 15 bf 92 d7 33 bc 58 30 39 3d 9a 72 00 3d
       -0.5843643 -0.010976689 0.04521212 0.031359293
0002c0 77 3b 08 be 02 c4 27 3d ff e2 e3 3d bb ed 15 be
       -0.13303934 0.040958412 0.111272804 -0.14641468
0002d0 c6 df 4e 3e 25 81 cd bd 52 51 90 3d 7c db fb 3d
       0.2020255 -0.10034398 0.070467606 0.12297723
0002e0 d6 a8 56 be bf 62 ad be af 15 eb 3d d4 c7 d8 be
       -0.20962843 -0.338644 0.11478745 -0.42339957
0002f0 c6 23 dd 3d 35 84 cc 3a 01 6a ed bd 82 e5 af be
       0.10797839 0.0015603366 -0.11592484 -0.34354788
000300 fa e3 8c 3d 4b 17 ef bd 09 85 c1 be 13 93 96 3d
       0.068794206 -0.11674365 -0.3779681 0.07352271
000310 2a ee 49 bf d2 b9 cd 3d ce 37 9d bd f3 04 27 be
       -0.78879035 0.10045208 -0.076766595 -0.16310482
000320 d8 a3 43 be 30 3d 56 3d 75 69 cf 3a 06 89 2e bf
       -0.1910547 0.052304447 0.0015824275 -0.6817783
000330 07 62 7b be 68 36 d5 be a0 83 58 be 72 25 20 3e
       -0.24549113 -0.4164307 -0.21143961 0.15639284
000340 3e 45 fb 3d ae c8 ca be 06 dc 11 be e3 26 ac 3d
       0.12269066 -0.3960623 -0.14244089 0.084058546
000350 e4 69 87 3d 70 e7 ba be d5 1a ed bd 2f 46 48 bf
       0.06611994 -0.36504698 -0.115773834 -0.7823209
000360 76 3f 7f be 2b 43 f7 3d 4a a9 1a bd 6a bf f6 3d
       -0.24926552 0.12073358 -0.037759103 0.12048228
000370 d4 21 b1 3e 6d 78 d3 be 26 86 9d bc 06 58 13 3f
       0.3459612 -0.41302815 -0.019229006 0.5755619
000380 38 c5 b8 be 7d 9e 4a bc 2b ce 54 bf 81 4a 9c be
       -0.36087966 -0.012366888 -0.8312709 -0.30525592
000390 15 78 c0 3e f1 60 75 3b 26 88 06 3e 18 ec db 3d
       0.37591615 0.0037441815 0.13137874 0.10738391
0003a0 c0 37 90 be 4d 52 79 3f c3 f9 67 3d b6 5a 28 bd
       -0.28167534 0.97391206 0.056634676 -0.041102134
0003b0 43 47 df bb 90 12 50 bf 7b a1 87 3d 9b cf 66 be
       -0.006813915 -0.81278324 0.06622597 -0.22540133
0003c0 cc 31 0c bd ed ec 62 bd 0a 9d 1c be 6c 9c b4 bb
       -0.034227178 -0.05540173 -0.1529428 -0.005511811
0003d0 89 9a 47 3f fa c9 99 3e c7 3a 00 3d de cd 02 3e
       0.77970177 0.30036908 0.031306054 0.12773845
0003e0 4a 7e 78 3e 3b 9e dc 3d 93 9d 9b 3d f3 55 92 be
       0.24266925 0.107723676 0.07598414 -0.285812
0003f0 0e 18 9e be 14 f1 c0 bc f4 60 10 be 41 27 17 3d
       -0.30877727 -0.023552455 -0.14099485 0.03690267

action_model._discrete_distribution.branches.2.bias f4 [2]
000000 ad cd 61 3e 99 cd 61 be
       0.22051115 -0.22051086

action_model._discrete_distribution.branches.3.weight f4 [2, 128]
000000 62 87 e0 be 19 72 be 3e 81 36 d6 bb 4d ab 1e 3e
       -0.4385329 0.37196425 -0.006537259 0.15495034
000010 72 dc c8 3c 8e e3 89 3d 15 d1 33 bf 02 95 19 bf
       0.024519179 0.06732856 -0.7024091 -0.5999299
000020 d2 14 5b be 40 4f 94 be 16 4b 4c 3e 7b a1 87 3e
       -0.21394661 -0.28966713 0.19950518 0.26490387
000030 bb 33 8c bd 76 7a bd be 9d 4c 60 3d ca bc 07 be
       -0.06845804 -0.37007493 0.054760564 -0.13255611
000040 10 76 bb bd e1 b3 34 bf 8b 42 01 3d 0f ca 78 bc
       -0.09153378 -0.70586973 0.0315576 -0.015184893
000050 34 3f 0f be e3 36 38 be 61 bb 3d bd c0 f4 6c bd
       -0.13988954 -0.17989688 -0.046321277 -0.0578506
000060 83 62 ed 3e 07 52 74 3d e1 0b b4 3e 84 44 de 3c
       0.4636422 0.05964854 0.35165313 0.02713228
000070 83 ee 1f be ee 6d 21 3f c4 f2 e1 ba e4 62 19 bf
       -0.15618329 0.63058364 -0.0017238487 -0.5991652
000080 33 a1 5f be 6c 7e 3a be b8 f2 ef be a1 91 53 3d
       -0.21838836 -0.18212289 -0.46864867 0.051652554
000090 ae f9 43 bc 15 b1 a8 bc 29 ce 4f 3e 4f 95 c4 bb
       -0.011961384 -0.020592252 0.20293488 -0.0059992443
0000a0 31 27 25 bf fc 62 1d be f3 b2 c2 3d 64 52 27 3d
       -0.64512926 -0.15369791 0.09506788 0.04085006
0000b0 6f 40 96 3e 43 30 a5 3b 8c 09 0e 3f 54 48 3e bd
       0.29346034 0.0050411536 0.5548332 -0.046455696
0000c0 97 c3 59 3d 06 59 f8 be 75 6d 92 3c c8 70 60 bc
       0.053165045 -0.4850542 0.017874459 -0.013698764
0000d0 67 db 7e be 1d 78 84 be 77 24 0c 3c 28 1f de 3d
       -0.24888383 -0.2587289 0.008553616 0.10845786
0000e0 8f 16 14 bc e1 58 a8 3f 73 3a f1 bc ca 32 40 be
       -0.0090385815 1.3152124 -0.029446816 -0.18769374
0000f0 87 c9 91 bd 5b 77 e3 be 85 ce bf 3d 5a 5d 3e be
       -0.071185164 -0.44426998 0.09365562 -0.18590298
000100 1e 6b 2c bd e9 88 81 be 71 b9 62 3e c0 96 d2 be
       -0.042094342 -0.25299767 0.22141053 -0.41130638
000110 c0 d3 79 be 1f fc 56 bd 6c fb 24 3d 4f 21 8c 3e
       -0.24397182 -0.052486535 0.040278837 0.27369162
000120 72 bf d3 bb 49 a3 7b 3e 57 57 47 3d 5c a6 9d be
       -0.006462031 0.24574007 0.04866728 -0.30790985
000130 b6 cb 89 ba 09 e5 36 3d cb 58 d2 be cb e0 d5 3e
       -0.0010512981 0.04465202 -0.4108337 0.41773066
000140 8a 64 ec bc a7 c1 eb be 1f 33 1b be b9 82 dd 3b
       -0.028856535 -0.46046183 -0.1515622 0.006759968
000150 5a 14 66 3e 81 9b 48 be 66 cd 8d 3e e6 ff 06 3e
       0.22468701 -0.1959057 0.2769577 0.13183555
000160 c2 7a a5 be 70 e7 f7 3d 3a 50 3e be 49 b3 5e bd
       -0.3232022 0.1210469 -0.18585292 -0.0543702
000170 77 5d 25 3f 23 05 7c be 85 0d 1b bb 75 c6 b3 3e
       0.6459574 -0.24611335 -0.0023659181 0.35112348
000180 86 6a b7 3e 68 a3 67 3c 8a 7d 96 3e 83 42 3c be
       0.35823458 0.01413808 0.29392654 -0.18384747
000190 da d7 b3 be cd b5 60 be d6 50 67 be 22 70 01 bf
       -0.3512562 -0.21944351 -0.2258943 -0.50561726
0001a0 68 1b 92 3e ef 42 95 3d 10 d8 4f 3e b6 24 1d 3e
       0.28536534 0.07288157 0.20297265 0.15346035
0001b0 fc 5d 15 bc 0b a2 ff 3e 35 c5 1d ba 2d bb bc 3e
       -0.009116646 0.49928316 -0.0006018461 0.36861554
0001c0 42 6f d0 3d 01 99 72 3e 9d 39 5d 3d eb f2 b9 bd
       0.10177471 0.23691179 0.054010022 -0.09079536
0001d0 5d bc 3e be 8b b4 d0 be fc f6 a1 3e 2e 9e be be
       -0.18626542 -0.40762743 0.31633747 -0.37230057
0001e0 e7 89 4e bd e5 79 b7 3d d7 2e ae be 42 c7 05 be
       -0.050424483 0.089587964 -0.3402011 -0.13064292
0001f0 01 d0 84 be aa 50 9a 3e 30 89 8a 3e f9 e2 1d bc
       -0.25939944 0.30139667 0.2705779 -0.009636634
000200 79 cf e0 3e fa 8e c3 be 85 7e 2a bc c0 fc 2d be
       0.4390829 -0.3819502 -0.010406141 -0.16990948
000210 4f 30 1c bd ca b9 40 bd 36 c4 30 3f a5 e7 19 3f
       -0.03813201 -0.047052182 0.69049394 0.60119087
000220 65 82 5d 3e 33 46 96 3e ab be 3c be 84 53 8a be
       0.21631773 0.29350433 -0.18432109 -0.27016842
000230 36 fa 95 3d 07 0a ae 3e 21 b3 15 bd 56 2d 0a 3e
       0.073231146 0.33992025 -0.036547784 0.13493857
000240 c1 ed a0 3d 8f d0 30 3f 0b 55 ad bc 22 e5 e8 3b
       0.07857848 0.69068235 -0.021158716 0.007107393
000250 ef 7a e7 3d dd 3e 4b 3e fe b6 5d 3d 54 87 4b 3d
       0.113027446 0.19848199 0.054129593 0.049689606
000260 56 67 f2 be 39 7c 87 bd 8b 1a b3 be 41 7c 86 bc
       -0.47344464 -0.066154905 -0.34981188 -0.01641667
000270 83 61 f5 3d 8a e4 20 bf 25 b7 95 ba f7 be 1c 3f
       0.119814895 -0.6284872 -0.0011422379 0.6122889
000280 e0 8b 67 3e a4 cc 4e 3e cb 4c f4 3e ea cd 7b bd
       0.22611952 0.20195252 0.47714838 -0.06147567
000290 87 7b 73 3b c8 f0 2e 3c f6 57 45 be d1 6c 0c 3d
       0.0037152485 0.010677524 -0.19271836 0.034283463
0002a0 b0 59 23 3f a1 08 22 3e 2e 0d a7 bd 6f b9 92 bc
       0.6380873 0.15823604 -0.08156811 -0.017910687
0002b0 46 85 91 be 70 55 27 bc 44 ad 06 bf d9 e4 36 3d
       -0.28421992 -0.010213241 -0.5260813 0.04465184
0002c0 1f 23 30 bd 53 4b f6 3e 76 1a 32 bd 06 2c be 3c
       -0.043002244 0.48104343 -0.043482266 0.023214351
0002d0 c3 39 7c 3e ef 21 86 3e 7a 63 66 bc c2 78 e2 bd
       0.2463141 0.26197764 -0.014061803 -0.11058189
0002e0 33 82 a2 3a 91 4b a8 bf 45 73 ae 3c dd 89 4c 3e
       0.0012398422 -1.3148061 0.0212952 0.19974466
0002f0 d7 ee 5b 3d 17 21 e0 3e 4c 9e a2 bd 08 75 31 3e
       0.053694572 0.43775246 -0.07940349 0.173298
000300 68 ed 05 3d 14 79 83 3e a9 26 6c be 7d c9 d8 3e
       0.03269711 0.25678313 -0.23061623 0.42341223
000310 2f dc 7f 3e 43 0e 57 3d 39 85 55 bd 2e 7c 92 be
       0.24986337 0.052503835 -0.052129004 -0.28610367
000320 a9 17 04 3c d0 1a 76 be b8 27 47 bd 82 a2 a3 3e
       0.008062282 -0.24033666 -0.048621863 0.3195992
000330 70 12 4a bc 1f f3 15 bd 80 2e e0 3e 71 09 db be
       -0.012333497 -0.03660881 0.43785477 -0.4278064
000340 6f fa f7 3c 58 4c e8 3e e7 95 13 3e 56 e4 1c 3b
       0.030270783 0.45370746 0.14412652 0.002393981
000350 4f 08 55 be 68 d8 4d 3e 6c 01 8e be e2 1a 23 be
       -0.2080395 0.20102084 -0.2773546 -0.15928224
000360 c5 e7 b7 3e 02 24 18 be 67 57 40 3e 69 d0 4c 3d
       0.35919014 -0.14857486 0.18783341 0.050003443
000370 fb 9a 22 bf d6 a3 86 3e 7c 30 51 3b 0c 3f ae be
       -0.6351773 0.26296872 0.0031919768 -0.34032476
000380 18 fe bd be 75 f4 17 bc c0 fd 95 be 7c c8 56 3e
       -0.3710792 -0.009274592 -0.29295158 0.20974916
000390 95 f0 ae 3e e2 99 64 3e 4c 92 5f 3e 28 37 02 3f
       0.34167925 0.22324327 0.21833152 0.5086541
0003a0 4c 29 91 be 94 fa 9a bd d8 87 62 be ab d5 18 be
       -0.2835182 -0.07567325 -0.22122133 -0.14925258
0003b0 a5 77 57 3c 1c 79 01 bf cd 03 39 3c 49 a5 bf be
       0.013151084 -0.50575423 0.01129241 -0.3743079
0003c0 de b9 cb bd cf bd 88 be 16 25 7a bd 14 fe 77 3d
       -0.09947561 -0.26707312 -0.061070524 0.060545042
0003d0 cb dd 46 3e 68 ed da 3e 40 15 a4 be c9 96 bd 3e
       0.19420545 0.42759252 -0.32047462 0.37029102
0003e0 25 ab fc 3c 81 a9 94 bd ab 3e ab 3e 2d 50 0e 3e
       0.030843327 -0.07258893 0.3344625 0.13897772
0003f0 a3 b8 85 3e 27 8d a2 be 12 6e 96 be 77 08 04 3d
       0.2611743 -0.31748316 -0.29380852 0.032234635
