results/DarkKnightDebuff1/Dark Knight Behavior/Dark Knight Behavior-1999827.pt (torch, 552039 bytes, 67 tensors)

network_body.observation_encoder.processors.0.normalizer.running_mean f4 [11]
4.731402 -2.9855487 11.982192 11.721213 52.618507 0.07248741 0.075367786 0.42846626
0.081264846 0.09553185 0.33600178
00000000: a567 9740 3b13 3fc0 0fb7 3f41 178a 3b41
00000010: 5a79 5242 4774 943d 6d5a 9a3d ee5f db3e
00000020: 2f6e a63d 34a6 c33d 6d08 ac3e

network_body.observation_encoder.processors.0.normalizer.running_variance f4 [11]
2.503568e+07 2.2300042e+07 6.765773e+07 7.212739e+07 2.0203438e+09 243146.2 252022.55 885608.4
270008.2 312483.3 806846.6
00000000: d001 bf4b c522 aa4b 000c 814c 7492 894c
00000010: 00d8 f04e 8d72 6d48 a31d 7648 8636 5849
00000020: 06d7 8348 6a94 9848 eafb 4449

network_body.processors.0.normalizer.running_mean f4 [11]
4.731402 -2.9855487 11.982192 11.721213 52.618507 0.07248741 0.075367786 0.42846626
0.081264846 0.09553185 0.33600178
00000000: a567 9740 3b13 3fc0 0fb7 3f41 178a 3b41
00000010: 5a79 5242 4774 943d 6d5a 9a3d ee5f db3e
00000020: 2f6e a63d 34a6 c33d 6d08 ac3e

network_body.processors.0.normalizer.running_variance f4 [11]
2.503568e+07 2.2300042e+07 6.765773e+07 7.212739e+07 2.0203438e+09 243146.2 252022.55 885608.4
270008.2 312483.3 806846.6
00000000: d001 bf4b c522 aa4b 000c 814c 7492 894c
00000010: 00d8 f04e 8d72 6d48 a31d 7648 8636 5849
00000020: 06d7 8348 6a94 9848 eafb 4449

network_body.linear_encoder.seq_layers.0.weight f4 [128, 11]
0.25006124 0.32254708 -0.20798826 0.34485266 0.2508263 -0.02465433 -0.29947177 -0.08286012
-0.3045005 -0.11180656 0.37312567 -0.34236503 -0.10244194 1.2433982 -0.4074579 -0.024934836
0.30667976 -0.095139384 0.17212205 0.00030973344 -0.45667717 -0.121968046 0.48610198 0.06865823
-0.47121346 0.28866917 0.116787076 0.08302268 0.08551398 -0.53108436 -0.17055795 0.37368897
0.19144997 -0.4297221 -0.52566814 0.49999163 0.086251155 0.0019223528 0.12116248 -0.4195176
-0.44902802 0.18109764 -0.39857566 0.44264874 -0.50708634 0.31353155 0.18620205 -0.10087761
-1.2425619 0.33794138 0.60956067 0.020827703 -0.28382242 -0.013870501 -0.1805101 -0.39041644
0.23552114 -0.4713906 0.4432938 0.9805963 0.09242076 -0.019158041 -0.16299789 0.2624053
-0.14498825 -0.031904675 0.17402402 -0.24237426 -0.21077055 1.0369052 0.29489917 -0.52128255
-0.10288871 0.6245166 -0.23893853 0.19278675 0.4009267 -0.01836114 0.09908178 -0.0543405
0.08671282 0.37065828 0.08081255 0.023079451 -0.27450553 -0.17242606 -0.10347692 0.30491105
0.3928701 0.43029976 0.0652769 0.039418004 -0.29613677 -0.22304408 -0.3583493 0.37065402
-0.37945446 0.06707503 0.10253735 -0.36696956 -0.3684712 1.0567559 -0.23477894 -0.34148446
0.07858446 0.07290612 -0.15370347 0.4876957 0.66785663 0.16090076 0.8415757 0.47886553
0.34900028 -0.57948846 0.32025957 -0.78704804 -0.0021710482 0.18742564 -0.12493906 -0.6132087
0.07451302 -0.5809544 -0.27786067 -0.058849435 -0.21579866 -0.123828046 -0.5826506 -0.07431261
0.08031093 0.47490785 0.009010036 0.36994427 -0.31789893 0.055725478 -0.5576816 0.339976
0.5597577 0.03829673 -0.048560586 -0.15230653 0.05524256 -0.0316353 0.01775035 0.07463105
-0.6754497 -0.53443503 -0.14678437 -0.6340502 0.4755395 -0.46101665 0.0728462 0.13860916
0.0047235284 -0.2937061 0.031055555 0.420214 0.07464521 -0.4708603 -1.1211013 0.45155552
0.28983858 -0.38670844 0.4617132 0.5278681 0.55552185 0.10173618 -0.35110036 -0.36599985
4.435352e-05 0.1383175 0.08411551 0.3353291 0.59371847 0.36473116 0.111020364 -0.53693855
-0.022799043 0.2035442 -0.7504277 0.18869366 0.80086505 0.1414588 0.24991572 0.23416255
0.0036760056 0.10260156 0.18939525 -0.12389498 -0.39925703 0.3351744 0.47154325 0.0877715
0.09803609 -0.24086912 -0.25763798 -0.3610896 -0.15106608 0.023573356 -0.31590465 0.6313974
0.31689012 -1.184469 -0.619219 0.28317353 0.060745243 0.2848559 -0.5256137 0.21120639
-0.12004981 0.58688647 -0.66574 0.6916127 0.69122237 -0.49283698 -0.033173606 0.022109091
-0.48346335 -0.32141715 0.31972486 -0.24149786 -0.30035585 0.6461124 0.43308234 -0.036133986
-0.43256775 -0.06887256 0.4684403 -0.021600768 -0.21642531 -1.0226685 0.60368526 0.18680672
0.8067038 -0.1216751 0.15856369 -0.39219934 -0.07252574 0.24531023 0.02550477 0.1270835
-0.67627513 0.53510755 0.84615606 -0.4697753 -0.16138196 -0.17540574 -0.06415198 0.069528915
-0.12032113 -0.37221918 0.010205166 0.46084303 -0.29693666 -0.28511333 -0.71365404 0.27267745
00000000: 0708 803e e424 a53e e0fa 54be 8790 b03e
00000010: 4e6c 803e e1f7 c9bc 5d54 99be 91b2 a9bd
00000020: 7de7 9bbe d6fa e4bd 540a bf3e 784a afbe
00000030: 14cd d1bd ac27 9f3f 529e d0be 2444 ccbc
00000040: 2105 9d3e 70d8 c2bd c340 303e b863 a239
00000050: 97d1 e9be 62ca f9bd 5ce2 f83e b09c 8c3d
00000060: e442 f1be 72cc 933e 102e ef3d cb07 aa3d
00000070: f421 af3d 25f5 07bf bea6 2ebe 2954 bf3e
00000080: 760b 443e 8904 dcbe 3092 06bf e7fe ff3e
00000090: 72a4 b03d 75f7 fb3a 0924 f83d 03cb d6be
000000a0: 00e7 e5be a971 393e 1c12 ccbe dba2 e23e
000000b0: 69d0 01bf 3587 a03e c0ab 3e3e ec98 cebd
000000c0: 450c 9fbf a706 ad3e 2b0c 1c3f dc9e aa3c
000000d0: 2c51 91be 1941 63bc a4d7 38be aae4 c7be
000000e0: 742c 713e 1c5a f1be 68f7 e23e 5c08 7b3f
000000f0: 1847 bd3d 53f1 9cbc ebe8 26be fd59 863e
00000100: cd77 14be 7aae 02bd 5a33 323e f530 78be
00000110: 3cd4 57be 4fb9 843f 06fd 963e c672 05bf
00000120: 51b7 d2bd 52e0 1f3f 4dac 74be e469 453e
00000130: 4446 cd3e 1a6a 96bc 63eb ca3d 2594 5ebd
00000140: 7e96 b13d ecc6 bd3e 0d81 a53d 1e11 bd3c
00000150: fd8b 8cbe 7590 30be b5eb d3bd 4d1d 9c3e
00000160: 4526 c93e 4050 dc3e e5af 853d c674 213d
00000170: 3d9f 97be ab65 64be 8f79 b7be 5dc6 bd3e
00000180: db47 c2be a25e 893d 1aff d13d 6fe3 bbbe
00000190: 42a8 bcbe c743 873f e469 70be 0dd7 aebe
000001a0: e4f0 a03d ce4f 953d 7164 1dbe 40b3 f93e
000001b0: a7f8 2a3f 2bc3 243e 8171 573f dd2d f53e
000001c0: 2ab0 b23e 5b59 14bf 10f9 a33e fb7b 49bf
000001d0: 2548 0ebb 82ec 3f3e 0de0 ffbd 3ffb 1cbf
000001e0: 489a 983d 6db9 14bf c143 8ebe 1b0c 71bd
000001f0: 53fa 5cbe 8f99 fdbd 9728 15bf 3631 98bd
00000200: 0f7a a43d 1f27 f33e d49e 133c 5669 bd3e
00000210: a6c3 a2be 6640 643d 39c4 0ebf 5611 ae3e
00000220: 484c 0f3f 08dd 1c3d 77e7 46bd 3ef6 1bbe
00000230: 0646 623d 0494 01bd 2f69 913c 2ad8 983d
00000240: 46ea 2cbf bcd0 08bf a44e 16be 1d51 22bf
00000250: ea79 f33e 600a ecbe 6330 953d 8fef 0d3e
00000260: d4c7 9a3b a560 96be 3868 fe3c 4a26 d73e
00000270: 96df 983d 9a14 f1be 3f80 8fbf 4932 e73e
00000280: b965 943e a6fe c5be ac65 ec3e 5d22 073f
00000290: ae36 0e3f 0f5b d03d 6dc3 b3be 5564 bbbe
000002a0: 3b08 3a38 1aa3 0d3e c144 ac3d 41b0 ab3e
000002b0: effd 173f 0bbe ba3e a55e e33d ce74 09bf
000002c0: 0fc5 babc e46d 503e 081c 40bf e938 413e
000002d0: 7e05 4d3f 93da 103e e8e9 7f3e 4fc8 6f3e
000002e0: 24e9 703b c420 d23d d4f0 413e a7bc fdbd
000002f0: 6b6b ccbe fb9b ab3e 1e6e f13e 8bc1 b33d
00000300: 25c7 c83d 65a6 76be 20e9 83be bce0 b8be
00000310: 11b1 1abe e91c c13c 41be a1be 43a3 213f
00000320: 6c3f a23e ae9c 97bf 2385 1ebf 1ffc 903e
00000330: 01d0 783d a2d8 913e 9f8e 06bf 7d46 583e
00000340: addc f5bd 313e 163f f06d 2abf 880d 313f
00000350: f3f3 303f 2155 fcbe 0ce1 07bd 201e b53c
00000360: 8288 f7be ca90 a4be fab2 a33e 374b 77be
00000370: 3ec8 99be 9f67 253f f8bc dd3e 3b01 14bd
00000380: 8579 ddbe 0f0d 8dbd 68d7 ef3e 18f4 b0bc
00000390: 999e 5dbe cde6 82bf 1e8b 1a3f 434a 3f3e
000003a0: 2484 4e3f cb30 f9bd 855e 223e 5ace c8be
000003b0: 6088 94bd 9b32 7b3e 61ef d03c 2d22 023e
000003c0: 5e20 2dbf cffc 083f af9d 583f 6386 f0be
000003d0: 5041 25be 909d 33be 1d62 83bd 2d65 8e3d
000003e0: ed6a f6bd 8393 bebe 9233 273c 9ef3 eb3e
000003f0: 1508 98be 60fa 91be 08b2 36bf 619c 8b3e

network_body.linear_encoder.seq_layers.0.bias f4 [128]
-0.16768989 -0.23423561 -0.21898577 -0.11691226 -0.08438802 -0.39883047 0.09841505 -0.2714269
-0.12920111 0.022145761 0.069126084 -0.15204492 -0.24827902 0.18951513 0.015220484 0.011115543
-0.10146181 -0.52436715 0.06712522 0.18424265 0.20606944 -0.020053927 0.046212405 -0.33685818
-0.1564517 -0.16008462 0.22804505 0.17508356 0.2530126 -0.12208685 0.062428623 0.03215619
0.14732592 0.086469 0.24165645 -0.23686472 -0.3021505 0.10855982 0.11326071 -0.2920858
-0.0063890545 -0.10064092 -0.07352982 0.07836973 -0.09331091 0.20348167 -0.20966186 -0.28822133
0.019216822 -0.29964718 -0.39989886 0.033152938 0.20710948 -0.22201112 0.019159425 -0.21634288
0.0005854162 0.23218653 0.20922406 -0.032300074 0.100899436 -0.00021124695 -0.07436264 -0.08212131
0.08136321 0.09901841 -0.24282028 0.050470937 -0.19327036 -0.09291042 -0.04387166 0.006170889
-0.04874621 -0.2833563 0.08296909 0.23568437 0.13555077 0.052481625 0.092540875 -0.29881686
-0.30611274 -0.21192117 -0.09682609 0.07216105 0.36009607 -0.012152906 0.1264128 -0.1506312
0.22197182 -0.09459354 -0.18607906 0.035351254 -0.029330298 -0.02757508 0.25286257 -0.10425991
-0.23022865 0.006017117 -0.06461649 -0.15465882 -0.14028524 -0.20047529 -0.15346466 -0.04399222
0.063842244 0.4379267 -0.07017106 -0.13631989 -0.16692103 -0.0009428288 -0.08288411 -0.16164751
-0.16649123 -0.09981035 -0.09282292 -0.3210932 -0.010063077 0.14662774 -0.15395021 -0.29369244
-0.16072156 0.18162148 -0.10187948 -0.1870965 -0.40015292 0.22109516 -0.092140585 -0.01715082
00000000: e6b6 2bbe 76db 6fbe ce3d 60be b26f efbd
00000010: a0d3 acbd 8233 ccbe d48d c93d 77f8 8abe
00000020: 4c4d 04be 076b b53c fa91 8d3d aab1 1bbe
00000030: db3c 7ebe 4110 423e 565f 793c f71d 363c
00000040: 36cb cfbd ed3c 06bf f378 893d 1baa 3c3e
00000050: de03 533e 2248 a4bc 3849 3d3d ad78 acbe
00000060: e034 20be 39ed 23be a484 693e 1b49 333e
00000070: de8a 813e ac08 fabd 28b5 7f3d 36b6 033d
00000080: 9bdc 163e a916 b13d ca74 773e aa8c 72be
00000090: 78b3 9abe 9c54 de3d 3bf5 e73d 458c 95be
000000a0: 465b d1bb d41c cebd cd96 96bd 4f80 a03d
000000b0: ca19 bfbd 805d 503e 99b1 56be bf91 93be
000000c0: 996c 9d3c 5b6b 99be 8bbf ccbe 60cb 073d
000000d0: 8214 543e e256 63be 3af4 9c3c fd88 5dbe
000000e0: 9e76 193a 4ec2 6d3e d53e 563e 154d 04bd
000000f0: 5da4 ce3d 2c82 5db9 714b 98bd 382f a8bd
00000100: c1a1 a63d 2aca ca3d e1a5 78be 9dba 4e3d
00000110: aae8 45be d147 bebd c5b2 33bd 2b35 ca3b
00000120: 1baa 47bd 1414 91be b3eb a93d 3e57 713e
00000130: d2cd 0a3e f9f6 563d 1286 bd3d 86fe 98be
00000140: cfba 9cbe dd01 59be c24c c6bd 2cc9 933d
00000150: 835e b83e fb1c 47bc 5b72 013e 113f 1abe
00000160: 954c 633e 42ba c1bd 828b 3ebe 7acc 103d
00000170: 1846 f0bc 22e5 e1bc 3477 813e 3886 d5bd
00000180: 0fc1 6bbe 3c2b c53b a655 84bd e25e 1ebe
00000190: efa6 0fbe 6549 4dbe d725 1dbe 3031 34bd
000001a0: b9bf 823d ee37 e03e d8b5 8fbd 7197 0bbe
000001b0: 59ed 2abe 2b28 77ba 25bf a9bd ed86 25be
000001c0: ad7c 2abe 5e69 ccbd f119 bebd 5466 a4be
000001d0: 9bdf 24bc 9525 163e 20a5 1dbe db5e 96be
000001e0: 3194 24be fbfa 393e 30a6 d0bd 3a96 3fbe
000001f0: d8e0 ccbe c566 623e 34b4 bcbd e07f 8cbc

network_body.linear_encoder.seq_layers.2.weight f4 [128, 128]
-0.26439407 -0.24516737 -0.13739255 -0.03615251 0.27838355 0.1482291 -0.012239916 -0.43027684
-0.2466159 -0.084398106 -0.51464355 0.111312866 0.12704898 -0.13514191 0.028366381 0.11747125
0.14824723 -0.26418483 -0.07722853 -0.5339634 -0.08707073 -0.18839273 -0.34222117 0.04334372
-0.5655021 -0.010699183 0.04767373 -0.20725416 -0.26744148 -0.022229012 -0.014744411 -0.100779235
-0.5837649 -0.43294433 -0.78865653 0.011478059 0.0019746535 -0.0754257 -0.105287105 0.016876299
-0.059195813 0.36046344 0.36173582 -0.003534223 -0.15536255 -0.33177698 -0.30262488 -0.15675196
-0.19034934 0.10934456 -0.25313947 -0.36332926 -0.36753184 -0.35481003 -0.2601684 -0.24734797
-0.4797238 -0.3745255 -0.31459734 0.14371896 -0.104736686 -0.1597106 -0.4088668 -0.030649541
0.04917981 -0.029297974 -0.10514108 0.07738713 -0.08359949 0.18011843 -0.25610882 0.10166575
0.083300635 -0.351663 0.027310869 -0.31733507 -1.0184922 -0.2953533 -0.120066084 0.02174061
-0.017662803 0.1719074 -0.060126495 -0.19725686 -0.46351877 -0.18676563 -0.120550156 -0.79496723
-0.011671789 -0.004052882 0.05846047 0.04087022 0.0054484433 -0.034733586 0.11556544 -0.12522781
-0.10670353 -0.21903753 -0.02445052 0.004732337 -0.08588183 -0.5436083 0.03202779 0.006834477
0.17710073 -0.18636005 -0.5264549 0.20953469 0.16017587 -0.11853157 -0.33276755 0.0996208
0.12468008 0.09642457 -0.11485445 0.06546139 -0.44795915 -0.40503263 0.3104132 -0.14772181
-0.047427386 -0.098430306 -0.24836522 -0.22226603 0.102792256 -0.25475657 0.10599956 0.096522495
-0.24369569 -0.012856123 0.062570415 -0.2520641 -0.12084812 0.07981383 -0.4473679 -0.027830057
-0.3096425 -0.061162706 0.09314271 -0.032710116 -0.02752865 0.12953418 -0.26533672 0.068899706
-0.042923786 0.023844436 0.0146696605 -0.37143865 -0.30872503 -0.190033 0.088913865 0.32825494
-0.10026825 -0.3526417 -0.15656282 -0.34440854 -0.117054395 -0.37640592 0.6007331 -0.20202732
0.14536238 0.113705054 0.017709445 0.37924612 0.0030195613 -0.24616793 -0.13750024 0.2644301
0.14885141 -0.51574516 -0.16740718 -0.11236144 0.095922485 -0.37667894 -0.2118945 -0.1162899
-0.3857276 0.15812457 -0.027788267 -0.0026176132 0.17296739 0.107729524 -0.034003124 0.20659558
0.1131247 -0.12400027 -0.35262594 -0.08661489 0.06558573 -0.011848256 -0.03660377 0.15647446
-0.20732155 0.15470771 0.40643623 0.047270827 0.34478945 -0.046755742 -0.3125836 0.30183044
0.035294294 0.025282143 0.019038776 0.13517267 0.18049592 0.15905897 0.031236142 0.11723451
0.16135575 -0.22797556 -0.009589651 -0.14190091 -0.2022274 0.11841169 -0.110439405 -0.061876044
0.026234219 -0.074138924 0.15520874 0.16655731 -0.42302498 -0.10568444 0.1052605 -0.2615943
0.5535754 0.050168116 -0.18445024 0.20635639 0.089587726 -0.03479723 0.06717027 0.26927322
-0.090859435 -0.25599554 -0.04300132 -0.26569194 -0.012935749 0.46386668 -0.050129633 0.1955131
-0.05666634 -0.028282119 0.10357771 0.06288597 0.0487861 -0.27811444 0.06353191 0.253588
0.25432503 0.057119593 0.09047033 0.36225152 0.10450379 0.007590344 0.1211846 0.000788761
00000000: a95e 87be 280d 7bbe a2b0 0cbe a814 14bd
00000010: 4a88 8e3e 5fc9 173e ee89 48bc 3f4d dcbe
00000020: e188 7cbe ead8 acbd aebf 03bf 00f8 e33d
00000030: 2119 023e a462 0abe 9d60 e83c c494 f03d
00000040: 1fce 173e 3c43 87be fe29 9ebd d3b1 08bf
00000050: 2452 b2bd 06ea 40be 9d37 afbe 2f89 313d
00000060: bfc4 10bf a04b 2fbc 8745 433d 6f3a 54be
00000070: 17ee 88be 9e19 b6bc 8b92 71bc 5865 cebd
00000080: 9e71 15bf e1aa ddbe 65e5 49bf 780e 3c3c
00000090: 3069 013b ca78 9abd c4a0 d7bd 2a40 8a3c
000000a0: 4f77 72bd aa8e b83e 7035 b93e 6c9e 67bb
000000b0: 5c17 1fbe acde a9be a6f1 9abe 9683 20be
000000c0: f0ea 42be 0af0 df3d 7f9b 81be 4b06 babe
000000d0: 222d bcbe a9a9 b5be cb34 85be c948 7dbe
000000e0: 5c9e f5be cec1 bfbe e712 a1be 102b 133e
000000f0: 3080 d6bd 2d8b 23be fd56 d1be bf14 fbbc
00000100: c570 493d 4e02 f0bc 3554 d7bd 257d 9e3d
00000110: 3636 abbd f770 383e b220 83be 2236 d03d
00000120: 8699 aa3d 2c0d b4be 0bbb df3c be79 a2be
00000130: f45d 82bf 8c38 97be 35e5 f5bd 5d19 b23c
00000140: 95b1 90bc 7e08 303e 3347 76bd b4fd 49be
00000150: 5552 edbe 7d3f 3fbe 00e3 f6bd f982 4bbf
00000160: 083b 3fbc 0ace 84bb 3f74 6f3d 8867 273d
00000170: db88 b23b ce44 0ebd 93ad ec3d b83b 00be
00000180: 6187 dabd 604b 60be 754c c8bc b811 9b3b
00000190: d0e2 afbd ea29 0bbf 922f 033d c0f3 df3b
000001a0: e559 353e 2bd5 3ebe c0c5 06bf 4390 563e
000001b0: 2505 243e aec0 f2bd 8260 aabe fd05 cc3d
000001c0: 4558 ff3d 3f7a c53d cf38 ebbd 9f10 863d
000001d0: e75a e5be 7060 cfbe 7bee 9e3e 6344 17be
000001e0: 3843 42bd d495 c9bd 7453 7ebe b599 63be
000001f0: bf84 d23d 746f 82be 4c16 d93d 96ad c53d
00000200: 5d8b 79be 7da2 52bc eb24 803d 8c0e 81be
00000210: 387f f7bd 6f75 a33d 680d e5be dcfb e3bc
00000220: 7689 9ebe bf85 7abd 9bc1 be3d 0bfb 05bd
00000230: c383 e1bc 9ca4 043e 37da 87be 4a1b 8d3d
00000240: dad0 2fbd 6855 c33c 0459 703c 352d bebe
00000250: 3511 9ebe 0398 42be 7918 b63d 0811 a83e
00000260: 7159 cdbd 748d b4be 0152 20be 5156 b0be
00000270: 37ba efbd 47b8 c0be a5c9 193f 40e0 4ebe
00000280: e0d9 143e 32de e83d 6613 913c 8c2c c23e
00000290: d5e3 453b 7213 7cbe ddcc 0cbe 6263 873e
000002a0: 816c 183e e007 04bf ca6c 2bbe c11d e6bd
000002b0: 0273 c43d 10dc c0be dffa 58be 6629 eebd
000002c0: 177e c5be 68eb 213e 38a4 e3bc 438c 2bbb
000002d0: 5d1e 313e 4ca1 dc3d dc46 0bbd cb8d 533e
000002e0: ecad e73d dbf3 fdbd 638b b4be 2663 b1bd
000002f0: d051 863d 301f 42bc d6ed 15bd d73a 203e
00000300: 1a4c 54be b36b 1e3e 6918 d03e 0e9f 413d
00000310: 3e88 b03e f382 3fbd f50a a0be 8589 9a3e
00000320: c090 103d 7f1c cf3c 35f7 9b3c b46a 0a3e
00000330: ecd3 383e 5be0 223e f0e2 ff3c a618 f03d
00000340: 713a 253e 6d72 69be e91d 1dbc 794e 11be
00000350: b314 4fbe d481 f23d 0e2e e2bd bc71 7dbd
00000360: 25e9 d63c 26d6 97bd 0aef 1e3e 008e 2a3e
00000370: bb96 d8be 1571 d8bd d192 d73d b0ef 85be
00000380: 1eb7 0d3f 157d 4d3d 86e0 3cbe 174f 533e
00000390: c579 b73d 8a87 0ebd 9190 893d 2ede 893e
000003a0: 8314 babd d911 83be 2722 30bd c608 88be
000003b0: 77f0 53bc ef7f ed3e bb54 4dbd 9634 483e
000003c0: f71a 68bd e7af e7bc 8d20 d43d 5cca 803d
000003d0: efd3 473d 0465 8ebe 051d 823d 49d6 813e
000003e0: e436 823e 3cf6 693d 8248 b93d 0879 b93e
000003f0: 1506 d63d 6cb8 f83b a22f f83d dbc4 4e3a

network_body.linear_encoder.seq_layers.2.bias f4 [128]
0.014076703 0.009285534 -0.039605886 -0.02757638 0.12100135 -0.020748131 -0.15492803 -0.21391396
0.045878354 -0.061842535 0.027427386 -0.101496726 -0.21815307 -0.23683248 -0.08905576 -0.113899425
-0.15617186 0.12033397 -0.07216336 -0.19221176 -0.10560009 -0.19578102 0.07114709 -0.16809003
0.052907504 -0.090149015 -0.06944716 -0.11507863 0.074002214 -0.026548553 -0.063013904 -0.12823212
0.03389917 -0.117940746 -0.09976547 -0.03389983 0.06106566 -0.15672827 0.04470387 -0.11996198
-0.06605885 0.014758281 -0.09975297 0.0589538 -0.067888975 -0.1323428 -0.044813607 -0.11138107
-0.119507976 -0.08782195 -0.24531844 -0.16348447 -0.23367208 -0.27316552 0.026884124 -0.08891339
-0.006143201 -0.35930923 -0.17344014 -0.05597949 -0.021929407 -0.10695106 0.049476884 -0.10765788
-0.06638922 -0.104719706 -0.21155587 -0.17493637 0.058737025 -0.07569317 -0.15828499 -0.05402924
-0.04044837 0.14359035 -0.14038146 0.13980377 -0.13963954 -0.06437302 -0.013588922 0.059134614
-0.050785404 0.096502244 -0.019243535 -0.12209886 -0.2198919 -0.1469372 0.012290924 -0.06929616
-0.11364603 -0.08858605 -0.17974207 -0.1038234 -0.12636913 -0.1845489 -0.21338315 0.1343092
-0.011931089 -0.10517443 0.06745833 0.018018879 0.02863439 0.0035443304 -0.09930103 -0.17805421
-0.027363107 -0.106246814 -0.10633815 0.12047732 -0.052420855 -0.004115602 -0.3039306 -0.18289022
-0.1092112 0.008684231 -0.15942134 -0.13677393 -0.24266635 -0.16066381 -0.05627631 -0.08686351
-0.117664166 -0.13423003 0.03215951 0.20187625 -0.104059525 -0.048155736 -0.10457513 0.07766785
00000000: f9a1 663c 5a22 183c c839 22bd dce7 e1bc
00000010: 8ecf f73d fcf7 a9bc 74a5 1ebe 430c 5bbe
00000020: f1ea 3b3d 994e 7dbd 66af e03c 84dd cfbd
00000030: 8563 5fbe 3784 72be de62 b6bd 1a44 e9bd
00000040: 84eb 1fbe a871 f63d 62ca 93bd 29d3 44be
00000050: dc44 d8bd d27a 48be 91b5 913d cb1f 2cbe
00000060: 8ab5 583d 0ca0 b8bd 503a 8ebd 58ae ebbd
00000070: 798e 973d 5a7c d9bc 6f0d 81bd 484f 03be
00000080: dbd9 0a3d eb8a f1bd d751 ccbd 8cda 0abd
00000090: fc1f 7a3d 607d 20be 681b 373d a0ae f5bd
000000a0: dd49 87bd b8cc 713c 494b ccbd 8a79 713d
000000b0: 6009 8bbd df84 07be 798e 37bd c21b e4bd
000000c0: 99c0 f4bd ffdb b3bd c234 7bbe 7968 27be
000000d0: bc47 6fbe 5adc 8bbe 183c dc3c 3918 b6bd
000000e0: e84c c9bb 61f7 b7be 4b9a 31be c04a 65bd
000000f0: 4da5 b3bc 2809 dbbd 46a8 4a3d bc7b dcbd
00000100: 12f7 87bd 4977 d6bd 1aa2 58be 8522 33be
00000110: 3c96 703d 0505 9bbd 7615 22be c44d 5dbd
00000120: 31ad 25bd 5909 133e 28c0 0fbe b828 0f3e
00000130: abfd 0ebe 00d6 83bd 12a4 5ebc 2337 723d
00000140: 5b04 50bd f8a2 c53d 9ea4 9dbc f80e fabd
00000150: 582b 61be b576 16be df5f 493c 25eb 8dbd
00000160: 40bf e8bd 9a6c b5bd 4e0e 38be 5da1 d4bd
00000170: e966 01be 63fa 3cbe 1d81 5abe 5a88 093e
00000180: 9d7a 43bc b165 d7bd 9827 8a3d 549c 933c
00000190: ab92 ea3c ff47 683b 575e cbbd d853 36be
000001a0: 9828 e0bc ee97 d9bd d1c7 d9bd d0bc f63d
000001b0: 40b7 56bd 2cdc 86bb cb9c 9bbe 9347 3bbe
000001c0: 1faa dfbd 4e48 0e3c 593f 23be 770e 0cbe
000001d0: 877d 78be 0e85 24be fd81 66bd 7fe5 b1bd
000001e0: e9f9 f0bd 9973 09be b1b9 033d a6b8 4e3e
000001f0: 291d d5bd f33e 45bd 7c2b d6bd 5210 9f3d

action_model._discrete_distribution.branches.0.weight f4 [3, 128]
0.24702129 -0.16489606 0.5586098 -0.0114664445 0.14096296 0.00013391863 0.23723428 -0.22597979
-0.14955878 0.28585026 -0.23672895 -0.17361648 0.011994407 0.2626736 -0.16919817 -0.26074606
-0.20695436 -0.16694485 -0.008676469 0.026883433 0.47987834 -0.2627603 0.05489357 -0.015590142
0.14460641 -0.000545495 0.0050874827 -0.1065187 0.1270209 -0.0060603707 0.03369886 0.6314119
-0.023837777 0.38453478 -0.0065092547 0.038098663 -0.5188488 0.056820273 0.017506877 -0.043789532
0.049771767 -0.3524234 -0.2268394 -0.27449125 -0.06358413 0.11603643 0.03012909 0.03152537
-0.39323378 0.020862728 0.25495058 -0.10304118 0.42085707 -0.042420454 -0.06839405 0.046380285
-0.027757064 0.052287932 -0.21309847 -0.117436096 0.0027288578 -0.14698192 -0.23819807 -0.25841364
-0.16620246 -0.33274925 -0.0361467 0.048220236 -0.36385834 0.15821946 -0.15753604 -0.16767527
0.07758862 -0.40075004 -0.1401722 0.20233805 -0.11636036 -0.15910335 -0.83003855 -0.095731534
0.22503787 0.0010008094 0.115342304 0.09797434 0.1329292 -0.43023732 -0.2133959 -0.1310988
0.114579454 -0.206442 -0.059656393 0.12570414 -0.49743977 -0.07316889 -0.19569558 -0.6952069
-0.34681588 -0.009794183 -0.62121856 -0.20347942 -0.31254104 0.08156797 -0.59473 -0.05322782
0.04522426 0.01844861 0.32431737 -0.26288655 -0.27191633 0.027628839 -0.435771 -0.12499571
-0.45899677 -0.353466 -0.15390421 0.13877253 0.07406827 -0.28533828 0.067785844 0.15186393
0.10436075 -0.60161656 0.13261844 0.019752273 -0.15066065 0.0807038 -0.18125486 -0.22156142
0.28890988 -0.104449905 0.2742869 -0.22129534 -0.19093442 -0.2612911 -0.15873353 0.25694457
0.15112764 -0.23121384 0.17351651 0.00890026 0.010082137 0.85425436 0.006808864 0.3318032
0.0130031165 -0.29078743 -0.1792187 -0.099136166 -0.46210122 0.7415888 0.3836832 -0.15695405
-0.67039776 -0.23489013 -0.15594591 -0.16093841 -0.60917443 0.043827947 -0.043455552 -1.0704114
-0.8806309 -0.025436016 0.015101883 -0.094799034 0.16044047 -0.35025805 -0.13613017 -0.21257867
0.3143379 -0.10402311 -0.07046417 0.25187245 0.025177393 -1.3262714 0.24420471 -0.06077001
0.021113912 0.27800235 -0.46023855 0.0958053 -0.17203718 0.12849644 -0.68529046 -0.036259204
-0.05165271 -0.41160482 -0.013952172 -0.68496543 -0.08850292 -0.0047031464 0.33910945 0.20417911
-0.03870996 0.18761992 -0.12229311 0.48384705 -0.4884334 0.0008052789 0.06264423 -0.14776318
-0.08390109 -0.13312188 0.109450705 -1.0636677 -0.13085693 0.09054948 0.2501593 0.2097891
-0.18543233 -1.1579682 -0.40564138 -0.27433002 -0.70851094 0.3183154 0.015600193 0.2276118
-0.11718585 0.13229364 0.07147147 -0.19673032 -0.04636839 0.17489251 0.09895589 0.36604923
-0.19069237 -0.12069806 0.39293057 0.047963496 -0.4701415 0.06621018 0.36119393 0.1576179
-0.92038596 0.70745605 -0.7543351 -0.8757788 0.18004917 -0.17168604 -0.55542403 0.030345337
0.076095715 0.26222926 0.14598139 -0.6387992 0.9400628 0.15694843 0.25620034 -0.04485163
0.019137628 -0.35381517 -0.81699985 -0.56522304 0.4205079 -0.11028888 -0.293475 0.21605878
00000000: 26f3 7c3e 83da 28be 0d01 0f3f c1dd 3bbc
00000010: 9858 103e 826c 0c39 8bed 723e 3f67 67be
00000020: f025 19be f75a 923e 1369 72be 85c8 31be
00000030: 3084 443c 277d 863e 4942 2dbe 8280 85be
00000040: d8eb 53be 97f3 2abe c027 0ebc a53a dc3c
00000050: 9db2 f53e 8588 86be 14d8 603d cc6d 7fbc
00000060: b413 143e 8dff 0eba e6b4 a63b 7a26 dabd
00000070: c411 023e 1396 c6bb d107 0a3d 36a4 213f
00000080: 7147 c3bc bee1 c43e 964b d5bb 580d 1c3d
00000090: 46d3 04bf 60bc 683d 956a 8f3c a75c 33bd
000000a0: 7bdd 4b3d d770 b4be 9648 68be 1e8a 8cbe
000000b0: 6538 82bd 82a4 ed3d 48d1 f63c bf20 013d
000000c0: f055 c9be 50e8 aa3c e288 823e 4107 d3bd
000000d0: 947a d73e 12c1 2dbd 2e12 8cbd 41f9 3d3d
000000e0: c862 e3bc df2b 563d 7c36 5abe 5682 f0bd
000000f0: a3d6 323b 6e82 16be 32ea 73be cb4e 84be
00000100: fa30 2abe 1c5e aabe 900e 14bd 9582 453d
00000110: a44b babe 4804 223e 2151 21be 11b3 2bbe
00000120: c8e6 9e3d 1c2f cdbe 4d89 0fbe b531 4f3e
00000130: 574e eebd fdeb 22be 687d 54bf e50e c4bd
00000140: 5470 663e 972d 833a 9638 ec3d c5a6 c83d
00000150: 981e 083e 1148 dcbe 7484 5abe c43e 06be
00000160: a2a8 ea3d 8865 53be 435a 74bd 96b8 003e
00000170: 6db0 febe 92d9 95bd 6c64 48be 14f9 31bf
00000180: da91 b1be c877 20bc 2e08 1fbf e95c 50be
00000190: 6105 a0be 1c0d a73d 3a40 18bf 6a05 5abd
000001a0: 133d 393d 8a21 973c ed0c a63e 1199 86be
000001b0: 9e38 8bbe e055 e23c 601d dfbe c0fd ffbd
000001c0: a001 ebbe 7ff9 b4be 1199 1dbe 631a 0e3e
000001d0: 1bb1 973d dc17 92be 4ed3 8a3d 3882 1b3e
000001e0: 17bb d53d 8b03 1abf 21cd 073e 85cf a13c
000001f0: c946 1abe 0948 a53d e09a 39be ffe0 62be
00000200: ffeb 933e d5e9 d5bd 556f 8c3e 3f9b 62be
00000210: 5084 43be f2c7 85be 0b8b 22be 3d8e 833e
00000220: 34c1 1a3e 52c3 6cbe 50ae 313e 65d2 113c
00000230: 8c2f 253c 6ab0 5a3f e41c df3b 1ce2 a93e
00000240: 060b 553c 17e2 94be 1b85 37be e707 cbbd
00000250: 8898 ecbe c3d8 3d3f 2072 c43e 90b8 20be
00000260: 309f 2bbf 0a87 70be 49b0 1fbe 0acd 24be
00000270: dbf2 1bbf ef84 333d 73fe 31bd 3e03 89bf
00000280: 0771 61bf 315f d0bc e36d 773c ff25 c2bd
00000290: 824a 243e 0655 b3be b565 0bbe 39ae 59be
000002a0: e6f0 a03e 110a d5bd 854f 90bd 6df5 803e
000002b0: d240 ce3c 43c3 a9bf cd10 7a3e f9e9 78bd
000002c0: 15f7 ac3c 5356 8e3e 63a4 ebbe 9235 c43d
000002d0: 842a 30be 9294 033e 326f 2fbf 8884 14bd
000002e0: cb91 53bd debd d2be a797 64bc e559 2fbf
000002f0: 0541 b5bd da1c 9abb c19f ad3e 5414 513e
00000300: 568e 1ebd 701f 403e cf74 fabd cdba f73e
00000310: f113 fabe 5a19 533a 9e4b 803d 3b4f 17be
00000320: 56d4 abbd 1a51 08be b127 e03d 4326 88bf
00000330: 5cff 05be 0172 b93d e114 803e f4d2 563e
00000340: f9e1 3dbe 4d38 94bf 3ab0 cfbe fc74 8cbe
00000350: f960 35bf 3cfa a23e f497 7f3c 1113 693e
00000360: 23ff efbd fc77 073e a25f 923d ac73 49be
00000370: c8ec 3dbd 0617 333e 63a9 ca3d ce6a bb3e
00000380: dc44 43be 8b30 f7bd 322e c93e 5f75 443d
00000390: 63b6 f0be 3499 873d 69ee b83e 9666 213e
000003a0: 6a9e 6bbf d71b 353f 1b1c 41bf 0a33 60bf
000003b0: cf5e 383e 77ce 2fbe 4530 0ebf c996 f83c
000003c0: 12d8 9b3d ea42 863e 257c 153e 5888 23bf
000003d0: f5a7 703f 17b7 203e b12c 833e 58b6 37bd
000003e0: 84c6 9c3c 4327 b5be e726 51bf 75b2 10bf
000003f0: d04c d73e 23df e1bd 5b42 96be 833e 5d3e

action_model._discrete_distribution.branches.0.bias f4 [3]
-0.08549621 -0.21118823 0.124933645
00000000: a318 afbd ba41 58be 36dd ff3d

action_model._discrete_distribution.branches.1.weight f4 [2, 128]
-0.08590623 0.097730674 -0.44792297 -0.15609807 0.08027104 0.9553621 0.048992433 0.4606834
0.25417012 0.088326335 -0.16806567 0.09098278 -0.0036875685 0.076045476 0.08816537 -0.0120469015
-0.19887085 0.20853923 -0.2788572 -0.043891624 -0.12879284 -0.57768166 0.37795624 -0.040056635
-0.0975809 0.03714419 0.042361688 -0.0507756 0.2926986 -0.11695746 0.15014975 0.053247783
0.5053153 0.043636806 0.1448446 -0.21400554 -0.0177867 -0.00986637 -0.49188432 -0.08233524
0.1878441 0.00094069244 0.06143606 0.10846999 -0.22011802 0.03847323 -0.05961563 0.07155453
0.12840071 -0.41205433 -0.20800142 0.121092506 -0.7577875 -0.12264188 0.8691884 -0.17403096
0.0042026485 -0.24231076 -0.030033585 -0.04380548 0.28722665 0.1997056 0.25621948 -0.21312101
-0.0795375 0.067226596 -0.1736497 -0.3211853 0.02698774 0.42166498 -0.14692686 0.1409159
-0.09109011 -0.23483728 -0.16924278 0.12605599 0.03304924 0.15146276 -0.44300422 0.15083726
-0.201353 0.0009027226 0.17770337 -0.11276344 0.02641172 0.07143492 0.05213475 -0.14157489
-0.008396922 0.007972255 0.022515785 -0.0947712 -0.3031559 -0.108134754 -0.010805332 -0.081627026
0.03788188 -0.053588685 0.25983858 0.02607959 0.64918023 -0.046155863 -0.13550138 -0.08350137
0.1750184 -0.7912112 -0.09989332 0.34891656 0.11488196 0.19077487 0.3584494 -0.14605998
0.03407063 -0.11083892 -0.04121015 0.11130234 -0.8684792 -0.6735 0.6358938 0.08261851
-0.4492622 0.3084214 -0.43650725 0.403754 -0.18470442 0.013434681 0.15714425 -0.017294928
0.099042125 -0.08082581 0.4429272 0.13733006 -0.08411246 -0.96722597 -0.07367973 -0.46194726
-0.25889742 -0.06816746 0.15909174 -0.08751105 0.00097215123 -0.080739275 -0.112199344 0.018119978
0.20651555 -0.19581644 0.30811137 0.0514861 0.10872047 0.5840186 -0.3775805 0.040224437
0.11443344 -0.04534094 -0.03397989 0.06185031 -0.28853944 0.10268641 -0.13681188 -0.05989358
-0.5037754 -0.05433 -0.13718976 0.24250257 0.012179709 0.019331895 0.50429547 0.08294567
-0.1763735 0.009060353 -0.06651095 -0.12785806 0.21905693 -0.032566637 0.072558425 -0.06791681
-0.10119438 0.4215158 0.1971084 -0.12837946 0.74751246 0.14634794 -0.8724422 0.16800098
-0.0039061748 0.25266427 0.024645131 0.048458192 -0.28466985 -0.2101522 -0.27256167 0.2041905
0.069124304 -0.07342112 0.16351804 0.32052472 -0.03050393 -0.41792792 0.1439734 -0.14015189
0.08552388 0.2273139 0.16849852 -0.115909405 -0.048295446 -0.1330905 0.44087803 -0.15420969
0.19880113 0.024016906 -0.18972361 0.13418038 -0.022835292 -0.04469849 -0.052367736 0.14854147
0.0009607871 -0.010329556 -0.00633619 0.109524466 0.2996031 0.105112195 0.0014821661 0.06466122
-0.037692916 0.060697947 -0.25437918 -0.028758278 -0.6385425 0.050046667 0.15462697 0.087415606
-0.1855403 0.78105515 0.08468235 -0.3647254 -0.10847365 -0.21661942 -0.353595 0.1593767
-0.050570074 0.13075486 0.042936884 -0.103045054 0.854396 0.6713522 -0.62523013 -0.09988489
0.47086725 -0.3062872 0.4427104 -0.39869308 0.17998151 -0.004210249 -0.16752742 0.036652405
00000000: 9bef afbd 0527 c83d 2956 e5be 2cd8 1fbe
00000010: 2565 a43d 9c92 743f 4aac 483d b2de eb3e
00000020: 9622 823e 70e4 b43d 6819 2cbe 2e55 ba3d
00000030: 22ab 71bb bbbd 9b3d 0c90 b43d 5e60 45bc
00000040: cda4 4bbe 4f8b 553e 5fc6 8ebe b4c7 33bd
00000050: 45e2 03be f2e2 13bf 7b83 c13e 6d12 24bd
00000060: 7fd8 c7bd 8224 183d 7383 2d3d 13fa 4fbd
00000070: 97dc 953e 6587 efbd dbc0 193e 591a 5a3d
00000080: 585c 013f 82bc 323d 2552 143e 4524 5bbe
00000090: 6ab5 91bc 8ea6 21bc 43d8 fbbe 619f a8bd
000000a0: 345a 403e cd98 763a 61a4 7b3d 8425 de3d
000000b0: 9e66 61be 1b96 1d3d 852f 74bd 2e8b 923d
000000c0: 7a7b 033e c9f8 d2be 53fe 54be 59ff f73d
000000d0: 5dfe 41bf aa2b fbbd 2283 5e3f 2c35 32be
000000e0: 5fb6 893b 5020 78be fe08 f6bc 606d 33bd
000000f0: 5f0f 933e a07f 4c3e 332f 833e 653c 5abe
00000100: 8fe4 a2bd 19ae 893d 3ad1 31be 6672 a4be
00000110: 6515 dd3c 79e4 d73e ff73 16be 424c 103e
00000120: 748d babd 2f79 70be fb4d 2dbe d214 013e
00000130: a45e 073d 0e19 1b3e 73d1 e2be 1575 1a3e
00000140: 7b2f 4ebe b0a4 6c3a dff7 353e 85f0 e6bd
00000150: 645d d83c 794c 923d 3f8b 553d 02f9 10be
00000160: 3e93 09bc 109e 023c 0673 b83c 6717 c2bd
00000170: 4037 9bbe c175 ddbd d908 31bc 122c a7bd
00000180: 082a 1b3d cf7f 5bbd 9009 853e dda4 d53c
00000190: ad30 263f ee0d 3dbd e0c0 0abe c402 abbd
000001a0: 0638 333e d18c 4abf de94 ccbd 31a5 b23e
000001b0: 3c47 eb3d 7d5a 433e ae86 b73e bf90 15be
000001c0: a58d 0b3d 84ff e2bd f9cb 28bd 7bf2 e33d
000001d0: a754 5ebf 7f6a 2cbf f0c9 223f e533 a93d
000001e0: b205 e6be 69e9 9d3e e17d dfbe d8b8 ce3e
000001f0: 2823 3dbe 231d 5c3c 6cea 203e 18ae 8dbc
00000200: 99d6 ca3d 0188 a5bd 5bc7 e23e 40a0 0c3e
00000210: 2743 acbd 1f9c 77bf 66e5 96bd 5a84 ecbe
00000220: 348e 84be 629b 8bbd f2e8 223e fe38 b3bd
00000230: f7d7 7e3a a25a a5bd c5c8 e5bd 5970 943c
00000240: d078 533e 1b84 48be c6c0 9d3e 17e3 523d
00000250: d6a8 de3d 3e82 153f 3b52 c1be 61c2 243d
00000260: 145c ea3d 6cb7 39bd 7f2e 0bbd c056 7d3d
00000270: 71bb 93be 414d d23d 6a18 0cbe f852 75bd
00000280: 6df7 00bf 2289 5ebd 797b 0cbe 9852 783e
00000290: 678d 473c ec5d 9e3c 8219 013f 6bdf a93d
000002a0: 419b 34be e071 143c e536 88bd 39ed 02be
000002b0: 7650 603e 9864 05bd 8399 943d f817 8bbd
000002c0: 003f cfbd ebd0 d73e c9d6 493e e875 03be
000002d0: fa5c 3f3f 3cdc 153e 5f58 5fbf 7308 2c3e
000002e0: bdfe 7fbb 365d 813e 96e4 c93c 197c 463d
000002f0: 3fc0 91be 2332 57be 348d 8bbe 5017 513e
00000300: 0b91 8d3d d05d 96bd 4671 273e d11b a43e
00000310: 61e3 f9bc a6fa d5be c36d 133e fa83 0fbe
00000320: 2527 af3d fac4 683e e08a 2c3e e961 edbd
00000330: 72d1 45bd e048 08be c4ba e13e 25e9 1dbe
00000340: 8692 4b3e 1abf c43c e846 42be 9566 093e
00000350: 1411 bbbc c415 37bd 8d7f 56bd 411b 183e
00000360: 55dd 7b3a 4c3d 29bc d09f cfbb 5d4e e03d
00000370: 9465 993e 1045 d73d 3e45 c23a 1a6d 843d
00000380: e363 1abd 699e 783d fd3d 82be 7b96 ebbc
00000390: 8577 23bf bcfd 4c3d 8856 1e3e f406 b33d
000003a0: 47fe 3dbe 3bf3 473f f16d ad3d 4abd babe
000003b0: 6f27 debd 7bd1 5dbe 670a b5be a533 233e
000003c0: 9122 4fbd 9ae4 053e 96de 2f3d 4909 d3bd
000003d0: b2b9 5a3f bddd 2b3f 150f 20bf 7390 ccbd
000003e0: 8315 f13e add1 9cbe f0aa e23e 8021 ccbe
000003f0: 134d 383e 21f6 89bb 4f8c 2bbe d520 163d

action_model._discrete_distribution.branches.1.bias f4 [2]
0.23183574 -0.23183572
00000000: 5966 6d3e 5866 6dbe

action_model._discrete_distribution.branches.2.weight f4 [2, 128]
0.16856475 0.05657434 0.34175307 -0.03202238 0.21564868 0.36234146 -0.27173615 -0.09622622
-0.23558193 -0.28393593 -0.21484573 -0.059455004 -0.035843473 -0.03868655 -0.026324151 -0.019035196
-0.13894217 -0.21457148 0.0200557 0.13578278 -0.33268586 -0.67188644 0.21084608 0.03994016
0.47599402 0.14895244 -0.017519264 0.10897033 0.122882366 -0.31319657 0.022676349 -0.3574876
0.58421385 0.10566029 0.052243475 1.1743263 -0.029589955 0.09450532 -0.18514116 0.059055366
0.08241747 -0.008353321 0.18334676 0.17602962 0.5412157 0.006037107 -0.05525039 -0.04227942
0.115190744 0.02309589 -0.10705393 0.087667406 -0.20716622 0.095412455 -0.07910245 -0.089753605
0.2054998 0.31545967 -0.09077852 0.44737837 -0.0903379 -0.06000538 0.14792249 0.35068223
-0.09590859 0.0936323 0.42986485 -0.121835895 0.8267909 -0.111205496 0.081214026 0.14327803
0.18625994 -0.1170661 0.004191787 0.7113407 0.23153509 0.41435817 0.1949121 -0.17292297
-0.107636414 0.44418412 0.15538667 -0.088069215 -0.030270379 0.34259486 0.08812974 0.7691876
0.22955716 -0.11952317 0.025208816 -0.15573533 -0.378318 0.465657 -0.016483005 -0.61832374
0.35207775 0.027801324 0.84806776 0.27648485 -0.3291598 0.0034190821 -0.16762684 -0.07787432
0.2904842 -0.9384558 -0.043862358 0.033244602 -0.027547298 0.8283051 -0.09034602 0.1501717
0.07100552 0.048177585 0.1670593 -0.017938927 -0.7084089 -0.34257472 -0.0463024 -0.10203362
-0.250429 -0.11913845 -0.072533645 0.23979683 0.3074793 0.046845526 0.1514487 -0.029990517
-0.19857454 -0.05748595 -0.3416248 0.05611048 -0.21689843 -0.37228963 0.27158493 0.10250275
0.24432838 0.28246382 0.2099973 0.05624396 0.031309873 0.031921938 0.0065049785 0.015678817
0.12596434 0.20372896 -0.0031455858 -0.110519834 0.3307327 0.6644261 -0.19221503 -0.041050177
-0.4813776 -0.14053832 0.048354343 -0.10680069 -0.12509526 0.31256443 -0.018335598 0.36929354
-0.5680603 -0.112263605 -0.045954198 -1.1657038 0.046416033 -0.08832537 0.1849313 -0.068272315
-0.08913906 0.0056436155 -0.20133094 -0.1706124 -0.53051245 -0.005941517 0.041564874 0.042544503
-0.12076909 -0.007024959 0.09370976 -0.07910886 0.20532086 -0.100646816 0.075900204 0.103110455
-0.20798136 -0.32627797 0.09977608 -0.45095822 0.10058505 0.051540595 -0.1269427 -0.35410932
0.108729534 -0.101870894 -0.45004427 0.1016395 -0.83611155 0.10709534 -0.065708674 -0.1513635
-0.20175639 0.10426873 -0.016079638 -0.7011277 -0.23596387 -0.4315061 -0.19601703 0.16433278
0.094615325 -0.42884016 -0.14276364 0.09103311 0.044574086 -0.35202464 -0.079235606 -0.778656
-0.23996572 0.13440524 -0.027614938 0.15652083 0.38824102 -0.46080732 0.029120555 0.61600655
-0.3570592 -0.0400893 -0.8581262 -0.26429656 0.3480059 0.024025306 0.16614005 0.06666753
-0.27876464 0.96424866 0.053646043 -0.024858724 0.020483293 -0.8238587 0.1156694 -0.16973843
-0.07585031 -0.04057428 -0.16052802 0.026633278 0.71107537 0.3372525 0.053403042 0.105565146
0.24639395 0.10307443 0.08253717 -0.2608126 -0.28796142 -0.028295277 -0.14402017 0.018729392
00000000: 3d9c 2c3e 7fba 673d 42fa ae3e e629 03bd
00000010: 02d3 5c3e d284 b93e 0021 8bbe 4112 c5bd
00000020: 643c 71be 0d60 91be 8500 5cbe 1787 73bd
00000030: 9bd0 12bd ca75 1ebd bfa5 d7bc b3ef 9bbc
00000040: db46 0ebe a0b8 5bbe da4b a43c a40a 0b3e
00000050: cd55 aabe c000 2cbf 09e8 573e 4b98 233d
00000060: 7db5 f33e fd86 183e 8f84 8fbc d62b df3d
00000070: c0a9 fb3d 4d5b a0be c0c3 b93c 9d08 b7be
00000080: 0a8f 153f 6c64 d83d 41fd 553d 5350 963f
00000090: a266 f2bc 018c c13d a595 3dbe 0ae4 713d
000000a0: 7eca a83d 5edc 08bc 41bf 3b3e 1c41 343e
000000b0: 1d8d 0a3f edd2 c53b 3c4e 62bd 2f2d 2dbd
000000c0: 20e9 eb3d 9833 bd3c 173f dbbd f88a b33d
000000d0: 6223 54be 9b67 c33d 7700 a2bd bdd0 b7bd
000000e0: 8a6e 523e ee83 a13e 17ea b9bd c70e e53e
000000f0: 1403 b9bd 34c8 75bd fe78 173e 9f8c b33e
00000100: b96b c4bd 4bc2 bf3d 3f17 dc3e 1985 f9bd
00000110: 92a8 533f b5bf e3bd 8a53 a63d 7ab7 123e
00000120: edba 3e3e 5ac0 efbd 425b 893b 6d1a 363f
00000130: 8917 6d3e c126 d43e 0a97 473e b812 31be
00000140: 7b70 dcbd 1a6c e33e af1d 1f3e a25d b4bd
00000150: 96f9 f7bc 9868 af3e 5d7d b43d 7be9 443f
00000160: 0811 6b3e 90c8 f4bd b882 ce3c 1579 1fbe
00000170: e6b2 c1be 986a ee3e 5e07 87bc 774a 1ebf
00000180: 8943 b43e 9abf e33c f81a 593f 6c8f 8d3e
00000190: a287 a8be ae12 603b 5fa6 2bbe 927c 9fbd
000001a0: 58ba 943e a43e 70bf 04a9 33bd 7e2b 083d
000001b0: dfaa e1bc ce0b 543f 5607 b9bd 9cc6 193e
000001c0: 586b 913d dc55 453d 9811 2b3e a8f4 92bc
000001d0: 495a 35bf f465 afbe 96a7 3dbd 01f7 d0bd
000001e0: 3b38 80be dcfe f3bd 858c 94bd 4d8d 753e
000001f0: ed6d 9d3e 18e1 3f3d 5e15 1b3e acae f5bc
00000200: 2057 4bbe 6376 6bbd 72e9 aebe 1ad4 653d
00000210: 9f1a 5ebe bf9c bebe 2e0d 8b3e f6ec d13d
00000220: 3831 7a3e 199f 903e 8809 573e 1160 663d
00000230: c83e 003d 94c0 023d b727 d53b dd70 803c
00000240: ccfc 003e 539e 503e 2c26 4ebb 3958 e2bd
00000250: cc55 a93e d417 2a3f 04d4 44be 3b24 28bd
00000260: 2077 f6be 47e9 0fbe 340f 463d 52ba dabd
00000270: f918 00be 7208 a03e 8934 96bc 0b14 bd3e
00000280: 666c 11bf 76ea e5bd 783a 3cbd c835 95bf
00000290: bd1e 3e3d eee3 b4bd a15e 3d3e 5bd2 8bbd
000002a0: 8a8e b6bd 14ee b83b b329 4ebe 04b5 2ebe
000002b0: aacf 07bf 0fb1 c2bb ee3f 2a3d 2543 2e3d
000002c0: c955 f7bd a131 e6bb e7ea bf3d d303 a2bd
000002d0: a23f 523e eb1f cebd 9171 9b3d 932b d33d
000002e0: 11f9 54be e80d a7be 6757 cc3d ffe3 e6be
000002f0: 89ff cd3d 3b1c 533d 44fd 01be d14d b5be
00000300: 97ad de3d b0a1 d0bd 346c e6be 5f28 d03d
00000310: 680b 56bf cd54 db3d 4592 86bd 09ff 1abe
00000320: 3a99 4ebe d88a d53d 72b9 83bc 1b7d 33bf
00000330: 83a0 71be 5eee dcbe b0b8 48be da46 283e
00000340: aec5 c13d f090 dbbe a230 12be 916f ba3d
00000350: 5193 363d 933c b4be 4746 a2bd 0056 47bf
00000360: 93b9 75be 87a1 093e b938 e2bc ff46 203e
00000370: 87c7 c63e f0ee ebbe 3b8e ee3c 9bb2 1d3f
00000380: 77d0 b6be ae34 24bd 29ae 5bbf e151 87be
00000390: d42d b23e b8d0 c43c 9e20 2a3e fc88 883d
000003a0: 3dba 8ebe 00d9 763f f4bb 5b3d 86a4 cbbc
000003b0: 94cc a73c 67e8 52bf 14e4 ec3d e9cf 2dbe
000003c0: 6857 9bbd 3731 26bd 7561 24be 082e da3c
000003d0: 0909 363f 5cac ac3e 26bd 5a3d 8a32 d83d
000003e0: b24e 7c3e b018 d33d 3f09 a93d 3b89 85be
000003f0: ae6f 93be 7fcb e7bc 067a 13be 626e 993c

action_model._discrete_distribution.branches.2.bias f4 [2]
0.2238315 -0.22383125
00000000: 1634 653e 0534 65be

action_model._discrete_distribution.branches.3.weight f4 [2, 128]
-0.4259547 0.3819887 0.014982695 0.18527354 0.019149756 0.08016064 -0.6988051 -0.60055685
-0.22617011 -0.277748 0.19954921 0.28748128 -0.09376198 -0.32697842 0.06978458 -0.10442579
-0.11010418 -0.7114135 0.030360147 -0.0035576 -0.15675095 -0.21010414 -0.047159508 -0.060441148
0.42857158 0.033084113 0.35773173 -0.0061915093 -0.17824335 0.64621806 -0.009994216 -0.5967073
-0.2119405 -0.17440665 -0.45390585 0.0584716 -0.011247667 -0.03684571 0.18934721 -0.0025426757
-0.606422 -0.16618198 0.07981675 0.051340856 0.26640782 0.016951682 0.55706215 -0.06687824
0.03959385 -0.5022174 0.04079588 -0.01640338 -0.25092483 -0.21566136 0.012636877 0.09253362
-0.021852586 1.3493385 -0.08317533 -0.173672 -0.03835074 -0.40847304 0.095147416 -0.19388185
-0.0395025 -0.23883963 0.166343 -0.4408616 -0.21827081 -0.07051271 0.054303844 0.27515012
0.019605204 0.25016096 0.048736997 -0.30842692 -0.0044436455 0.051768616 -0.40495226 0.41052872
-0.04394126 -0.42418048 -0.15530553 0.022144573 0.24950463 -0.15325357 0.28265944 0.1233495
-0.27559355 0.10779163 -0.17497864 -0.066482775 0.6584743 -0.30131155 0.0015968151 0.3890717
0.36675575 0.054074213 0.29165483 -0.20577814 -0.34528905 -0.22001685 -0.21527135 -0.50900084
0.27417076 0.08673413 0.19408631 0.19691311 -0.0091813 0.52036595 0.01002313 0.39098567
0.09269126 0.23342504 0.060417023 -0.13373724 -0.18213521 -0.41724816 0.32434288 -0.3883773
-0.030413 0.10051692 -0.3466339 -0.12855262 -0.28934726 0.29784712 0.28307116 -0.013024416
0.4265047 -0.39197475 -0.031926066 -0.20023271 -0.03276271 -0.05988485 0.68688995 0.6018177
0.22854124 0.2815852 -0.18436511 -0.29274586 0.09853507 0.2968237 -0.05157205 0.10680836
0.0971489 0.6962262 -0.019961461 -0.004519966 0.12988727 0.22868927 0.05496764 0.05227998
-0.43837416 -0.039590687 -0.35589063 0.01690713 0.14187531 -0.6441217 0.0071280673 0.6098311
0.2196716 0.19423628 0.46240562 -0.068294704 0.0030014468 0.026930986 -0.1791306 0.030826882
0.5993799 0.17072015 -0.06631702 -0.028401533 -0.2571671 -0.022123834 -0.5283105 0.06507439
-0.02943125 0.4982067 -0.0664044 0.02591892 0.2483553 0.21890996 -0.018145034 -0.09465762
0.014053776 -1.3489324 0.07502383 0.18572286 0.020860216 0.40195552 -0.08089524 0.18127671
0.030105287 0.24262542 -0.1755488 0.45296726 0.2241623 0.07053006 -0.066154435 -0.28756216
-0.018004999 -0.24475801 -0.04869158 0.32011622 -0.008941188 -0.043725535 0.4319733 -0.4206044
0.045355394 0.41742623 0.14786986 -0.012990482 -0.23285773 0.15836865 -0.28305626 -0.15079618
0.3115815 -0.13531919 0.17695919 0.06211593 -0.64769423 0.31816646 -0.00077080546 -0.3782728
-0.37960052 -0.049210675 -0.29068002 0.2316798 0.33571208 0.22381668 0.20770855 0.51203746
-0.2723237 -0.08952589 -0.21233493 -0.19270532 0.013215694 -0.5268367 0.0006674033 -0.3966782
-0.090392165 -0.2635859 -0.06747758 0.10348646 0.1900752 0.43721324 -0.32848 0.38636783
0.010831757 -0.08351795 0.34089524 0.13688752 0.29112214 -0.31393346 -0.30630174 0.035622336
00000000: bc16 dabe 0694 c33e fa79 753c 59b8 3d3e
00000010: f3df 9c3c 432b a43d e4e4 32bf 18be 19bf
00000020: 2399 67be fc34 8ebe a156 4c3e bf30 933e
00000030: 4806 c0bd b769 a7be 38eb 8e3d 30dd d5bd
00000040: 4d7e e1bd 321f 36bf d8b5 f83c a026 69bb
00000050: 5283 20be 8a25 57be 542a 41bd 2391 77bd
00000060: bc6d db3e 3583 073d 9d28 b73e 25e2 cabb
00000070: 6d85 36be 8c6e 253f c8be 23bc cfc1 18bf
00000080: ee06 59be a897 32be 5966 e8be eb7f 6f3d
00000090: 2248 38bc 87eb 16bd 3ce4 413e 05a3 26bb
000000a0: 793e 1bbf 9c2b 2abe f776 a33d ca4a 523d
000000b0: 9b66 883e 41de 8a3c a09b 0e3f 75f7 88bd
000000c0: 292d 223d 5291 00bf 9519 273d 6260 86bc
000000d0: 3879 80be 55d6 5cbe e70a 4f3c 4482 bd3d
000000e0: 3204 b3bc 20b7 ac3f d457 aabd 13d7 31be
000000f0: aa15 1dbd 6123 d1be a6dc c23d f788 46be
00000100: 60cd 21bd 6092 74be d255 2a3e 9db8 e1be
00000110: 6282 5fbe f868 90bd b56d 5e3d 7ae0 8c3e
00000120: 189b a03c 1915 803e 72a0 473d 22ea 9dbe
00000130: 009c 91bb 540b 543d e755 cfbe d230 d23e
00000140: c0fb 33bd 2f2e d9be 6a08 1fbe 8968 b53c
00000150: 247e 7f3e 81ee 1cbe bdb8 903e aa9e fc3d
00000160: 991a 8dbe dcc1 dc3d 9a2d 33be 1f28 88bd
00000170: c691 283f 8245 9abe 394c d13a 6834 c73e
00000180: 69c7 bb3e ec7c 5d3d c853 953e 81b7 52be
00000190: bac9 b0be 194c 61be 1870 5cbe e14d 02bf
000001a0: 1c60 8c3e aaa1 b13d 90be 463e 97a3 493e
000001b0: 2a6d 16bc b436 053f 0e38 243c 462f c83e
000001c0: ead4 bd3d f906 6f3e d777 773d 6af2 08be
000001d0: a781 3abe 8da1 d5be 4510 a63e 64d9 c6be
000001e0: af24 f9bc d1db cd3d 007a b1be 4ca3 03be
000001f0: 5325 94be 6b7f 983e b4ee 903e 5c64 55bc
00000200: d35e da3e eab0 c8be e8c4 02bd ce09 4dbe
00000210: 3132 06bd d149 75bd 05d8 2f3f ba10 1a3f
00000220: b706 6a3e ef2b 903e 35ca 3cbe c9e2 95be
00000230: c1cc c93d 47f9 973e 373d 53bd 57be da3d
00000240: 01f6 c63d e13b 323f 3886 a3bc 391c 94bb
00000250: 2b01 053e 852d 6a3e c025 613d 8823 563d
00000260: 9472 e0be d829 22bd 4c37 b6be d280 8a3c
00000270: c347 113e 29e5 24bf 9092 e93b e41d 1c3f
00000280: 98f1 603e e0e5 463e 6ec0 ec3e 18de 8bbd
00000290: ecb3 443b 5f9e dc3c 036e 37be a888 fc3c
000002a0: f670 193f 43d1 2e3e 38d1 87bd 55aa e8bc
000002b0: 68ab 83be 0b3d b5bc 5b3f 07bf b945 853d
000002c0: ce19 f1bc f314 ff3e 08ff 87bd ea53 d43c
000002d0: da50 7e3e ef29 603e e5a4 94bc dbdb c1bd
000002e0: cf41 663c d1a9 acbf 18a6 993d 222e 3e3e
000002f0: 0be3 aa3c 1dcd cd3e 67ac a5bd 9aa0 393e
00000300: 5d9f f63c cc72 783e 11c3 33be 53eb e73e
00000310: cd8a 653e 1072 903d fa7b 87bd 593b 93be
00000320: 387f 93bc d8a1 7abe d270 47bd 46e6 a33e
00000330: 107e 12bc 8c19 33bd 9b2b dd3e 7659 d7be
00000340: 94c6 393d e4b8 d53e 326b 173e 08d6 54bc
00000350: 4272 6ebe 642b 223e c0ec 90be 506a 1abe
00000360: 9c87 9f3e 1d91 0abe ca34 353e 466d 7e3d
00000370: 4acf 25bf b7e6 a23e e10f 4aba f9ac c1be
00000380: 005b c2be 2291 49bd 03d4 94be 783d 6d3e
00000390: 74e2 ab3e 3330 653e 8db1 543e e314 033f
000003a0: 036e 8bbe 5a59 b7bd 546e 59be 8b54 45be
000003b0: a386 583c c5de 06bf adf4 2e3a 6819 cbbe
000003c0: 871f b9bd bbf4 86be af31 8abd b6f0 d33d
000003d0: 13a3 423e 6ada df3e 882e a8be 01d2 c53e
000003e0: af77 313c 750b abbd d289 ae3e 3e2c 0c3e
000003f0: f60d 953e e3bb a0be 95d3 9cbe bae8 113d

action_model._discrete_distribution.branches.3.bias f4 [2]
0.054140285 -0.054140393
00000000: 34c2 5d3d 51c2 5dbd
